hockey-env/Hockey_test_3/weights/episode_2400.pth (torch, 83196 bytes, 7 tensors)

layers.0.weight f4 [128, 18]
0	0xbeac9d4d	-0.3371376
1	0x3c84e5b4	0.016222812
2	0xbd84e7cb	-0.064895235
3	0x3cd4a5d3	0.025957977
4	0xbd02ba8e	-0.031916194
5	0xbae7752e	-0.0017658824
6	0x3d9659c6	0.07341342
7	0x3dd2bad5	0.10289542
8	0xbde92b15	-0.1138517
9	0xbceadc39	-0.028669463
10	0xbc50e296	-0.012749335
11	0xbcd0d7dc	-0.025493555
12	0x3f315f93	0.6928646
13	0xbe8b6bca	-0.27230674
14	0x3c676919	0.014124178
15	0xbc2600e4	-0.010132048
16	0xbe028e8b	-0.12749688
17	0x3dbb6bdb	0.09151431
18	0xbe3d1706	-0.18465814
19	0xbd544271	-0.051821176
20	0x3d17c370	0.037051618
21	0xbbbc4ee8	-0.005746711
22	0xb9a2b32c	-0.0003103254
23	0xba73a612	-0.0009294461
24	0x3ee74f9a	0.4517792
25	0xbe9edce6	-0.31027907
26	0x3fc28d7d	1.5199429
27	0x3c17e435	0.009270717
28	0x3d2eb392	0.04265172
29	0x3d071450	0.032978356
30	0xbeae0af8	-0.33992743
31	0xbe50a438	-0.20375144
32	0xbd11f2a3	-0.035631787
33	0x3bde10f9	0.0067769256
34	0x3cab8f90	0.02094248
35	0xbd3cfb3d	-0.046138037
36	0xbd07670c	-0.033057258
37	0xbea5e3bd	-0.32400313
38	0x3da4ad8b	0.08040913
39	0x3dd95328	0.10611564
40	0xbd712104	-0.058869377
41	0x3b81d02e	0.0039615845
42	0x3edae001	0.42749026
43	0xbd94ee15	-0.07271973
44	0x3f02e17f	0.5112533
45	0xbd514d94	-0.051099375
46	0xbdc89791	-0.09794534
47	0xbcd1fb5e	-0.025632557
48	0xbe26e25b	-0.16297285
49	0x3e8b3900	0.27191925
50	0x3e1434ff	0.14473341
51	0x3d53e7e4	0.05173482
52	0x3f0934c9	0.5359617
53	0x3c052a2d	0.008127731
54	0x3e0025f6	0.12514481
55	0xbb76026a	-0.003753806
56	0x3debfc57	0.115227394
57	0x3d14d7c6	0.03633859
58	0xba55aeba	-0.00081513415
59	0xbc0e8619	-0.008698964
60	0x3d4346d7	0.04767498
61	0xbcf579bd	-0.029965276
62	0x3e6326f7	0.22182833
63	0xbe6cdbe8	-0.23130763
64	0xbe553d37	-0.20824133
65	0x3c8d856f	0.01727554
66	0xbe95c3f5	-0.29251066
67	0x3d70eec8	0.05882147
68	0xbcb523ad	-0.022111738
69	0x3c9673fa	0.018365849
70	0x3dab45a0	0.08362889
71	0xbf532b81	-0.82488257
72	0x3e49b046	0.19696149
73	0x3e2ae5cd	0.16689225
74	0xbd288188	-0.041139156
75	0x3d28867b	0.041143876
76	0x3d0323f1	0.0320167
77	0xbd32311c	-0.043503866
78	0x3de5cc26	0.11220579
79	0xbe2e2a54	-0.17008334
80	0xbf97b3e9	-1.1851779
81	0x3d5b4e23	0.053541314
82	0x3f052710	0.5201273
83	0xbdc1b975	-0.09459201
84	0x3e4cd24b	0.20002095
85	0x3f461158	0.77370214
86	0x3b162e67	0.0022915842
87	0xbdf63871	-0.12022484
88	0x3d9a764a	0.07542093
89	0xbd5cb7cf	-0.05388623
90	0x3e78d446	0.24299726
91	0x3ccf7381	0.025323631
92	0xbbc269c8	-0.0059330203
93	0xbd0dac02	-0.034587868
94	0x3c08d984	0.008352641
95	0xbcca63bb	-0.024705758
96	0xbca4709c	-0.020073228
97	0x3e8f83b9	0.28030184
98	0xbf2740ad	-0.6533306
99	0xbba112cc	-0.004915571
100	0xbecbe078	-0.39819694
101	0x3d598638	0.053106517
102	0xbeb8e96c	-0.36115587
103	0x3f017386	0.505669
104	0xbd3844ae	-0.044987373
105	0x3e084367	0.13306962
106	0x3daca9d5	0.084308304
107	0xbf08e4cf	-0.53474134
108	0x3d9ce99c	0.07661745
109	0xbdf2094e	-0.11818181
110	0xbe8ab122	-0.27088267
111	0xbb96fac1	-0.004607529
112	0x3c409aee	0.011755688
113	0xbcc4cb25	-0.024022648
114	0xbe6b9230	-0.23004985
115	0x3db79995	0.0896484
116	0xbfd0a285	-1.6299597
117	0x3dff7971	0.12474335
118	0xbe2fd475	-0.1717089
119	0x3d55b3b0	0.052173316
120	0x3e85d495	0.2613875
121	0x3e9725fd	0.2952117
122	0xbdabf4a5	-0.083962716
123	0x3e527258	0.20551431
124	0xbf3d25a0	-0.73885536
125	0x3dd00ee2	0.10159089
126	0xbcb02915	-0.021503964
127	0xbe6130d7	-0.21991287
128	0x3d907f69	0.070555516
129	0xbc535d38	-0.012900643
130	0x3b0ade0e	0.0021189484
131	0x3dc51e89	0.09624965
132	0xbcbf29e9	-0.023335414
133	0xbea54708	-0.32280755
134	0xbea7027a	-0.32619077
135	0xbd6965fe	-0.056982033
136	0x3e165f76	0.14684853
137	0x3e95d23e	0.29261965
138	0x3eda2a1c	0.42610252
139	0xbe8db306	-0.27675647
140	0xbda20404	-0.07910922
141	0x3b994a30	0.0046780333
142	0xbe82008f	-0.2539105
143	0x3d31187d	0.043236244
144	0xbcbb90c9	-0.022896187
145	0xbda343d9	-0.07971925
146	0x3e171991	0.14755847
147	0xbba1774d	-0.004927552
148	0xbcdf1eb0	-0.027236313
149	0xb8a360be	-7.790465e-05
150	0x3b7b9e9e	0.0038394104
151	0xbe1f6e3a	-0.15569392
152	0x3ea5580a	0.3229373
153	0xbdc765df	-0.09736227
154	0x3e7245b2	0.23659399
155	0xbb8c9a45	-0.0042908513
156	0x3e62c391	0.22144915
157	0xbf651e7a	-0.8949963
158	0x3d0028b8	0.031288832
159	0xbdbcf7bc	-0.09226939
160	0xbe2ba10a	-0.1676065
161	0x3dfc53c0	0.123206615
162	0x3e60fb8c	0.21970958
163	0xbd8707de	-0.065932974
164	0x3da1a789	0.07893283
165	0xbd01e196	-0.031709276
166	0x3c31cc4c	0.010851931
167	0x3b194035	0.0023384218
168	0xbf1371fc	-0.575958
169	0x3ec48fa7	0.38390848
170	0xbe0aa1d9	-0.13538302
171	0xbe403fee	-0.18774387
172	0x3e4de9c1	0.20108701
173	0x3e3bab13	0.18326978
174	0x3ec8dd9a	0.3923157
175	0x3e296b69	0.1654488
176	0x3c6e6de9	0.014552572
177	0x3c24ab8f	0.010050668
178	0xbe95fed1	-0.29295972
179	0x3c828ce9	0.015936332
180	0xbe713917	-0.23556934
181	0x3d0fe438	0.035129756
182	0x3d61a5f9	0.055089924
183	0x3bc93615	0.0061404803
184	0xbbbddd0b	-0.0057941726
185	0x3c083b36	0.008314898
186	0x3e3a054e	0.18166086
187	0xbe56843e	-0.20948884
188	0xbf710d33	-0.94160765
189	0x3d223706	0.039603256
190	0x3dce696a	0.100787
191	0x3db28811	0.08717359
192	0x3ecc7ed6	0.39940518
193	0xbdd21594	-0.10258022
194	0x3e99c30f	0.3003163
195	0xbdf78391	-0.12085641
196	0x3ce4971b	0.027904084
197	0x3f0cbae1	0.54972655
198	0x3dda809c	0.106690615
199	0xbe2dcf9e	-0.16973731
200	0x3e51217e	0.20422933
201	0x3cf73867	0.030178262
202	0xbbd726b4	-0.006565893
203	0xbb05a66f	-0.0020393392
204	0x3e112b8d	0.1417677
205	0x3cc019d8	0.023449823
206	0x3e3bad25	0.18327768
207	0x3d63396a	0.055474676
208	0x3c2b588c	0.010458123
209	0x3c0a84b8	0.008454494
210	0x3eaf33f8	0.34219337
211	0x3d1ef583	0.038808357
212	0x3f2c4b29	0.67302185
213	0x3b83309b	0.004003597
214	0x3e9659be	0.29365343
215	0xbf0eb23c	-0.55740714
216	0x3d7c752e	0.06163519
217	0x3c610f42	0.013736548
218	0x3cdd9497	0.027048392
219	0xbd18ba19	-0.03728685
220	0xbd341a3e	-0.04397034
221	0xbca4d064	-0.0201189
222	0x3e8e4adb	0.27791485
223	0xbaa5189b	-0.0012595834
224	0x3a2ad92b	0.0006517346
225	0xbe82bf3f	-0.25536534
226	0xbc31cbcd	-0.010851813
227	0x3e07d2c2	0.13263991
228	0xbd823536	-0.063578054
229	0x3e542ff9	0.20721425
230	0xbdc5ba21	-0.09654642
231	0xbeb24f55	-0.3482615
232	0xbdd0d275	-0.101963915
233	0x3de3c8a0	0.111222506
234	0xbe9bfa92	-0.30464607
235	0xbe9b8b3b	-0.30379662
236	0xbe48768a	-0.19576469
237	0x3c872e93	0.0165017
238	0xbd10b122	-0.035325177
239	0xbc7f2442	-0.015572609
240	0xbe763db1	-0.24046971
241	0x3dac1555	0.08402506
242	0xc0037585	-2.0540478
243	0x3df3bc92	0.11901201
244	0xbda6c9a4	-0.08143929
245	0x3bcbe281	0.0062220697
246	0x3e4c701a	0.19964638
247	0x3e0b203d	0.13586517
248	0x3c959201	0.018258097
249	0xbc982a73	-0.018574929
250	0xbf228419	-0.63482815
251	0xbd89397f	-0.0670042
252	0x3d03e075	0.03219648
253	0x3d1634d7	0.036671486
254	0xbdfdce20	-0.12392831
255	0xbc5fe6db	-0.01366588

layers.0.bias f4 [128]
0	0x3e05c399	0.13062896
1	0x3edaa112	0.42701012
2	0x3ee05efd	0.4382247
3	0xbe9f78ca	-0.31146842
4	0x3ebcf50a	0.369057
5	0xbd4ffcb0	-0.05077809
6	0xbe2f2d85	-0.17107208
7	0xbe2be18a	-0.16785255
8	0x3e674443	0.22584634
9	0xbd1b882f	-0.03797167
10	0xbe08cef8	-0.13360202
11	0x3e96b305	0.29433456
12	0x3eeafd5f	0.45896432
13	0xbe0af97a	-0.1357173
14	0xbcf60336	-0.030030828
15	0xbdb39e51	-0.08770431
16	0x3cba517d	0.022743935
17	0xbcf4f91e	-0.029903945
18	0xbe6ec1d9	-0.23316135
19	0xbe470a94	-0.19437629
20	0xbecd645a	-0.40115625
21	0xbef2cfde	-0.47424215
22	0xbe32b0ff	-0.17450331
23	0x3e0658df	0.13119839
24	0xbdbdf73f	-0.09275674
25	0xbe5fb540	-0.21846485
26	0xbd69c815	-0.05707558
27	0x3d8b78f0	0.06810176
28	0xbdca6652	-0.09882797
29	0x3c895e42	0.016768578
30	0xbdc8814b	-0.09790286
31	0xbdd1dd88	-0.10247332
32	0x3c82c778	0.015964255
33	0x3d7ca589	0.061681304
34	0xbde773fd	-0.1130142
35	0x3da258b3	0.07927074
36	0xbe3eacab	-0.18620555
37	0xbf1871d0	-0.59548664
38	0x3eaef702	0.34172827
39	0xbe39514c	-0.18097419
40	0xbdf15983	-0.11784651
41	0xbdff7d97	-0.12475126
42	0xbd00c59f	-0.031438466
43	0x3db74b36	0.08949892
44	0xbe84e767	-0.25957796
45	0x3e46bf22	0.19408849
46	0x3ed4cb7c	0.41561496
47	0x3e484c52	0.19560364
48	0x3df931ce	0.121677026
49	0xbe370f25	-0.17876871
50	0xbe19164c	-0.14949912
51	0x3df6033f	0.12012338
52	0xbe967917	-0.2938926
53	0xbe2511d1	-0.16120078
54	0x3c3f7b60	0.01168713
55	0x3e1d4d6b	0.15361564
56	0x3e04701a	0.12933388
57	0xbe89c219	-0.26905897
58	0x3d53e785	0.051734466
59	0xbe11fe28	-0.14257109
60	0xbdd98837	-0.10621684
61	0x3d188141	0.03723264
62	0x3eaade23	0.33372602
63	0x3cf29081	0.02960992
64	0xbe88153a	-0.26578695
65	0xbe4f691b	-0.20254938
66	0xbe104f7c	-0.14092821
67	0xbd4c1a86	-0.049829982
68	0xbee294f9	-0.44254282
69	0xbea39961	-0.31952956
70	0x3d842729	0.06452782
71	0x3e8a38c0	0.26996422
72	0x3d627c52	0.055294342
73	0xbf141f69	-0.5786043
74	0x3daa29dd	0.08308766
75	0xbeb97c4c	-0.36227643
76	0xbd4f1fd6	-0.05056747
77	0x3e7058d5	0.23471387
78	0xbee1c7ba	-0.44097692
79	0x3eb0ba62	0.345172
80	0x3e08e359	0.13367976
81	0xbb087173	-0.0020819574
82	0xbb68b7fb	-0.0035510052
83	0xbe0fc70f	-0.14040779
84	0x3e02cd2a	0.12773576
85	0x3ee8a185	0.4543573
86	0x3e2004b0	0.15626788
87	0xbe81ddf5	-0.25364652
88	0xbb679144	-0.0035334388
89	0xbda479ef	-0.080310695
90	0x3e132a44	0.14371592
91	0x3da20c87	0.07912546
92	0x3e1899ed	0.14902468
93	0xbe2b6b77	-0.16740213
94	0x3e8274ce	0.2547974
95	0x3e0bf7d8	0.13668764
96	0x3d261413	0.040546488
97	0x3e9dd717	0.30828163
98	0xbe71e385	-0.23621948
99	0xbd597b51	-0.05309612
100	0xbe8f7788	-0.28020883
101	0x3d8ce45b	0.06879493
102	0x3c71a879	0.01474964
103	0x3d959246	0.0730329
104	0xbe17e9ef	-0.14835332
105	0xbda64843	-0.081192516
106	0xbe4ba50a	-0.19887176
107	0x3dbd88c7	0.09254604
108	0xbd7f2297	-0.062288847
109	0xbf0d4a93	-0.55191916
110	0xbe88f0f5	-0.26746336
111	0xbea9d23c	-0.3316821
112	0xbdafdee4	-0.08587435
113	0xbe336ac8	-0.17521203
114	0x3cca075c	0.024661712
115	0x3e07bc1b	0.1325535
116	0x3eb92a77	0.3616521
117	0xbdf56775	-0.119826235
118	0xbe5afb33	-0.21384887
119	0xbd8eebd3	-0.06978574
120	0x3c99f2c1	0.018792512
121	0xbe8300dd	-0.25586596
122	0xbddcbbc0	-0.10777998
123	0x3e3fbe7a	0.18725005
124	0xbf1da76f	-0.6158361
125	0xbe2c28ab	-0.16812389
126	0x3e9c1efb	0.30492386
127	0x3e3ff0a2	0.18744138

layers.1.weight f4 [128, 128]
0	0x3c92ce8c	0.017920755
1	0xbe16716a	-0.14691702
2	0xbdf8f1e7	-0.12155514
3	0x3d7f2c74	0.062298253
4	0x3cb264b6	0.021776538
5	0x3d6e31c2	0.05815292
6	0x3e175d2d	0.14781637
7	0xbe327e65	-0.17431028
8	0xbe40005a	-0.18750134
9	0x3de04d74	0.10952273
10	0xbd4cf736	-0.050040446
11	0xbdd0141a	-0.10160084
12	0xbca4a5cf	-0.020098595
13	0x3dc7689f	0.09736752
14	0xbdeb7bcf	-0.11498224
15	0x3e5bc5ee	0.21462223
16	0xbd1b1f41	-0.037871603
17	0xbcf82783	-0.030292278
18	0xbc2915e0	-0.010320157
19	0x3e458493	0.19288854
20	0xbd34d971	-0.04415268
21	0xbeb6e7d1	-0.35723737
22	0x3db8ae58	0.090176284
23	0x3dbebb65	0.093130864
24	0xbc4d3e00	-0.012526989
25	0x3d8e52f8	0.06949419
26	0x3d75bb5e	0.05999314
27	0x3da6071e	0.08106826
28	0x3d66cf26	0.056349896
29	0x3d184d4e	0.0371831
30	0x3e362863	0.17788844
31	0x3c207e63	0.009795758
32	0xba0ab098	-0.0005290597
33	0xbd861dd6	-0.065486595
34	0xbdec7366	-0.11545448
35	0x3cad2407	0.021135343
36	0x3ddd834d	0.10816059
37	0x3dff633e	0.12470101
38	0xbc913983	-0.017727619
39	0xbc49a0e1	-0.012306423
40	0xbc75bc6f	-0.014998539
41	0x3d2250a0	0.03962767
42	0x3ba39e2e	0.0049932217
43	0x3da6df1a	0.08148022
44	0xbe27ee40	-0.16399479
45	0x3de3c0e3	0.111207746
46	0xbde31056	-0.110871
47	0xbc77f1ce	-0.015133334
48	0x3d98c809	0.07460029
49	0x3db5032c	0.088384956
50	0x3e4e30fe	0.20135877
51	0xbd13f5be	-0.03612303
52	0x3ca21578	0.019785628
53	0x3e11c978	0.1423701
54	0x3dcc6b1a	0.099813655
55	0xbba8f23d	-0.00515583
56	0xbe13deb4	-0.14440423
57	0xbe23e284	-0.16004378
58	0x3de8530f	0.11343967
59	0xbe01f61c	-0.1269154
60	0xbcbf83d6	-0.023378294
61	0x3d8d12cf	0.06888353
62	0xbdc7d40a	-0.0975724
63	0x3e13214a	0.14368168
64	0x3db6bd54	0.0892283
65	0x3d464c2e	0.048412494
66	0xbdcbdc04	-0.09954074
67	0xbc8a4d89	-0.016882675
68	0x3c87e7c1	0.016590001
69	0x3e44929c	0.19196552
70	0xbe46eb26	-0.1942564
71	0xbe252028	-0.16125548
72	0xbd91e7a1	-0.07124258
73	0x3e18fcc4	0.14940172
74	0xbe79c09c	-0.24389881
75	0x3e2c5ba8	0.16831839
76	0xbd8541b1	-0.0650667
77	0xbc8da362	-0.017289821
78	0xbc4dc484	-0.01255906
79	0xbe3cb112	-0.18426922
80	0xbda90fb3	-0.082549475
81	0x3d08491e	0.033272855
82	0xbe236385	-0.15955932
83	0x3d9390ff	0.0720539
84	0x3ccd2afc	0.02504491
85	0x3e39f5ba	0.18160143
86	0x3d22a7ec	0.039710924
87	0x3e25379d	0.16134496
88	0xbe1db691	-0.15401675
89	0x3df19174	0.11795321
90	0x3d7cfce5	0.061764617
91	0x3c81547f	0.015787361
92	0xbe270330	-0.1630981
93	0xbd4f2d20	-0.050580144
94	0xbe627a6e	-0.22117016
95	0x3eacf40e	0.3377995
96	0xbce775d7	-0.028254433
97	0xbaba359d	-0.0014206652
98	0xbcfbcda2	-0.030737702
99	0x3e90d323	0.28286085
100	0xbc52cad1	-0.012865738
101	0xbe245807	-0.16049205
102	0xbb23f5e0	-0.002501838
103	0xbddb7408	-0.107154906
104	0x3e3b6ecc	0.18303984
105	0x3e063de9	0.13109554
106	0x3ddf2a2d	0.10896716
107	0xbbfa930d	-0.0076469244
108	0xbe1e80ea	-0.15478864
109	0x3def2507	0.11676984
110	0x3ce22369	0.027604776
111	0xbd9403d1	-0.072272904
112	0x3db180c6	0.0866714
113	0xbdb52dce	-0.08846627
114	0x3d95a05b	0.07305976
115	0xbbca505e	-0.0061741313
116	0x3d7e3134	0.062058643
117	0xbc3100af	-0.010803386
118	0x3d2f307f	0.04277086
119	0xbc046c8f	-0.008082523
120	0x3b811fdb	0.003940565
121	0xbd434ba1	-0.047679547
122	0x3e03778f	0.12838577
123	0x3c5d5ce0	0.013510913
124	0x3e6ef701	0.23336412
125	0xbe4f8db8	-0.20268905
126	0x3b3cb702	0.0028795605
127	0x3db1bb5a	0.086783126
128	0xbb839626	-0.004015702
129	0xbe622ee6	-0.22088203
130	0xbd89eae6	-0.067342564
131	0x3d15c460	0.03656423
132	0x3e6239bf	0.22092341
133	0xbd5e030f	-0.054202136
134	0x3df6dc6b	0.1205376
135	0xbd1f49b1	-0.038888637
136	0x3daa868b	0.08326443
137	0x3daec982	0.08534528
138	0xbcaa7fa5	-0.020812819
139	0x3d0cad76	0.034345113
140	0xbe24ed5a	-0.16106167
141	0x3ea39ae5	0.31954113
142	0xbdce4054	-0.10070863
143	0x3d7ab73e	0.06120991
144	0xba40e890	-0.0007358873
145	0xbd8074db	-0.062722884
146	0x3d0075ec	0.03136246
147	0x3e642263	0.22278742
148	0x3e6f3ebd	0.23363777
149	0x3e46ce1c	0.19414562
150	0x3e39a09d	0.18127675
151	0xbd98514d	-0.07437382
152	0x3dbd13dd	0.09232304
153	0xbe59b5cf	-0.2126076
154	0xbe1b4213	-0.15161924
155	0xbe2113b3	-0.15730171
156	0x3df3b9fa	0.119007066
157	0x3d03946f	0.03212398
158	0xbd0d5072	-0.034500547
159	0x3e041f8a	0.12902656
160	0xbc9172c8	-0.017754927
161	0x3bd67024	0.00654413
162	0x3d5fd7d3	0.054649185
163	0x3e22e0db	0.15906088
164	0x3dcd0e1e	0.10012458
165	0x3d9bee89	0.07613856
166	0xbd01fab5	-0.031733233
167	0xbe00b1f1	-0.1256788
168	0x3e05d9b2	0.13071325
169	0xbe2d6d09	-0.16936125
170	0xbdc38585	-0.09546951
171	0xbe4dd0a1	-0.20099117
172	0xbd4a3af3	-0.049372625
173	0x3ca67e89	0.020324009
174	0x3d5a8116	0.053345762
175	0xbe33b5a8	-0.17549765
176	0xbdb1312a	-0.086519554
177	0x3bbb6b25	0.0057195597
178	0xbe20756d	-0.15669794
179	0xbd761576	-0.06007906
180	0x3e1c401e	0.15258834
181	0xbd542a89	-0.051798377
182	0xbda9234f	-0.08258688
183	0x3dde3d2d	0.10851512
184	0xbcd41508	-0.025888935
185	0xbda439c9	-0.08018834
186	0xbdfe5785	-0.12419037
187	0x3d4d2fb8	0.050094336
188	0xbe1b416a	-0.15161672
189	0xbdce72b5	-0.100804724
190	0xbdcfd7c8	-0.10148579
191	0x3daf979e	0.085738406
192	0xbd7b3afe	-0.061335556
193	0xbd833847	-0.064072184
194	0x3d06ba19	0.03289232
195	0xbdfa819c	-0.12231752
196	0x3dd8c33a	0.105841115
197	0xbe828208	-0.2548983
198	0xbe171b02	-0.14756396
199	0x3d9584e0	0.073007345
200	0xbe06063d	-0.13088317
201	0xbd1612e6	-0.036639117
202	0xbe093207	-0.1339799
203	0xbc98bddc	-0.01864522
204	0xbe87c16e	-0.26514763
205	0x3b9fc3e8	0.0048756488
206	0x3e0367ac	0.12832516
207	0x3de77090	0.113007665
208	0x3d58b54c	0.052907273
209	0x3d79cd05	0.060986537
210	0x3e03cf1e	0.12871978
211	0xbddfca7a	-0.10927291
212	0x3caef483	0.021356827
213	0xbd885cbf	-0.06658315
214	0xbc966355	-0.018357912
215	0x3e039372	0.12849215
216	0x3d381346	0.044940256
217	0xbc79128c	-0.015202176
218	0x3d3fabeb	0.046794813
219	0xbd6d7f41	-0.057982687
220	0xbe0eef63	-0.13958506
221	0xbe0bc35c	-0.13648742
222	0x3e9286dd	0.28618518
223	0xbda00cb9	-0.07814927
224	0x3daff82e	0.085922584
225	0x3de0cc08	0.10976416
226	0x3d57ea80	0.05271387
227	0xbce6ba77	-0.028165085
228	0x3bbc7699	0.0057514426
229	0x3d780357	0.06055006
230	0xbb1856fc	-0.0023245206
231	0xbc144b2e	-0.009051127
232	0x3cbe56db	0.023234775
233	0x3d1f2f55	0.0388635
234	0x3ca52f24	0.02016408
235	0xbde1b064	-0.11019972
236	0x3e1e3dca	0.15453258
237	0x3d9ed8db	0.07756206
238	0xbd244282	-0.04010249
239	0x3e00e97b	0.12589066
240	0xbe34813f	-0.17627428
241	0x3d97a252	0.07404007
242	0x3e48f072	0.19622973
243	0xbc3fdbda	-0.011710132
244	0xbd0974b1	-0.03355855
245	0xbd4e3231	-0.050340835
246	0xbe1b3ad1	-0.15159155
247	0x3d009b1d	0.031397928
248	0x3cacbb07	0.021085275
249	0xbd01884c	-0.031624123
250	0x3968e898	0.00022211892
251	0xbdf167de	-0.11787389
252	0x3d23b39d	0.039966214
253	0xbde10ee2	-0.10989167
254	0xbddaa311	-0.10675634
255	0xbb814c77	-0.003945883

layers.1.bias f4 [128]
0	0x3d625422	0.055256017
1	0xbe5613c3	-0.20905976
2	0x3c85ff77	0.016357167
3	0x3e8686cf	0.26274726
4	0x3dbc3bc5	0.09191088
5	0x3cc4e266	0.024033736
6	0xbd8948e0	-0.06703353
7	0x3c50b8d1	0.012739376
8	0x3b938847	0.0045023295
9	0xbc963be9	-0.018339114
10	0x3e52bcbf	0.20579813
11	0x3d0c4a89	0.03425077
12	0x3e0cbe8b	0.13744561
13	0x3cff7325	0.031182835
14	0x3eb8a764	0.3606521
15	0x3e387080	0.18011665
16	0x3eae7e57	0.34080765
17	0xbca7cc91	-0.020483287
18	0xbd3f46fc	-0.046698555
19	0xbcf52d9a	-0.029928971
20	0xbdaac8be	-0.0833907
21	0xbea28818	-0.31744456
22	0x3e829cfb	0.25510392
23	0xbdfccee3	-0.12344148
24	0xbdfe14c5	-0.12406305
25	0xbe3c7510	-0.18404031
26	0x3df2ccd0	0.11855471
27	0x3df83f3c	0.12121436
28	0x3e5f3629	0.21798004
29	0xbcd46fb3	-0.025932169
30	0x3e158108	0.14600003
31	0xbd9af6ea	-0.07566626
32	0x3ea007d8	0.31255984
33	0x3e3aac99	0.18229903
34	0xbc6887e8	-0.014192559
35	0xbe393f63	-0.18090586
36	0xbe72567b	-0.23665802
37	0xbe4d260c	-0.20034045
38	0x3e0bf651	0.13668181
39	0xbc8e724f	-0.017388491
40	0xbe919ae6	-0.2843849
41	0x3e3373ab	0.17524593
42	0x3bee5e15	0.007274399
43	0xbe593154	-0.21210223
44	0x3e714f18	0.23565328
45	0xbecd17e1	-0.4005728
46	0x3e9014d8	0.28140903
47	0x3eb736f8	0.35784125
48	0xbc3fd6a0	-0.011708885
49	0x3cb95f47	0.02262844
50	0x3c62a0aa	0.013832251
51	0x3e6364cd	0.22206421
52	0x3dc5093f	0.09620904
53	0xbdb4f891	-0.08836473
54	0x3e8394fc	0.25699604
55	0x3e2ce7ef	0.1688535
56	0x3b669a21	0.0035187083
57	0x3c8ed412	0.017435107
58	0x3e0c041a	0.1367344
59	0xbe99399a	-0.2992676
60	0xbea641cc	-0.32472074
61	0x3e189d98	0.14903867
62	0xbda4a5cb	-0.08039435
63	0x3cabd6e5	0.020976493
64	0xbe3a0948	-0.18167603
65	0xbd7f4af1	-0.06232733
66	0x3e8ba519	0.27274397
67	0xbd3ed541	-0.046590094
68	0x3c0d3b02	0.008620026
69	0x3e80fa2c	0.25190866
70	0xbe5c572c	-0.21517628
71	0x3d17a37c	0.037021145
72	0x3d891734	0.06693879
73	0xbc931435	-0.017953971
74	0x3e3a70a7	0.18207036
75	0xbd1d9d21	-0.038479928
76	0xbd270446	-0.04077556
77	0xbe244284	-0.16040999
78	0xbd917238	-0.071018636
79	0xbdd3f928	-0.10350257
80	0xbd677313	-0.056506228
81	0xbe12ae6a	-0.14324346
82	0xbd68c7a7	-0.05683103
83	0xbe43b377	-0.19111429
84	0x3e87618f	0.2644162
85	0x3dd14f5d	0.102202155
86	0x3e764c0c	0.24052447
87	0x3e48fabc	0.19626898
88	0xbcb42df1	-0.021994563
89	0x3e1f97f8	0.15585315
90	0xbd843f6a	-0.06457408
91	0x3d01bdc9	0.031675134
92	0x3bf81dd9	0.0075719175
93	0x3d7dd8d4	0.06197436
94	0x3d721734	0.05910416
95	0x3d3ecba4	0.046580926
96	0x3daf8e92	0.08572115
97	0x3beb221c	0.007175697
98	0xbabafa64	-0.0014265296
99	0xbdf50c32	-0.11965217
100	0xbe12f81e	-0.14352462
101	0xbe4e44b9	-0.20143403
102	0xbd33a832	-0.043861575
103	0x3e5ce10b	0.21570222
104	0xbd56bf64	-0.052428618
105	0xbd471855	-0.04860719
106	0x3df11cbb	0.11773058
107	0x3ebe420c	0.37159765
108	0xbb642470	-0.0034811758
109	0x3da18f93	0.07888713
110	0x3e7aea4a	0.24503437
111	0x3e30a2c2	0.17249587
112	0x3dfd8c61	0.12380291
113	0x3ea9ca2e	0.33162063
114	0xbc46b498	-0.012128018
115	0x3e090fdd	0.13384958
116	0xbe055732	-0.13021544
117	0x3e571090	0.21002412
118	0x3e983ca2	0.2973376
119	0xbe5c01e8	-0.21485102
120	0xbe95ecce	-0.2928223
121	0xbe745d3d	-0.23863693
122	0xbde19dbe	-0.11016415
123	0x3d8b670e	0.068067655
124	0x3cd0131d	0.025399739
125	0x3e415ddf	0.18883465
126	0x3dc05529	0.09391243
127	0xbe02b08b	-0.12762658

value_stream.weight f4 [1, 128]
0	0xbe8e8054	-0.27832282
1	0x3e848a0f	0.2588658
2	0x3e9b80fe	0.3037185
3	0xbdb36abd	-0.08760593
4	0x3dfb3323	0.12265613
5	0xbd5a147e	-0.0532422
6	0x3e98cf95	0.29845873
7	0x3d9ba94e	0.07600652
8	0xbe7e110c	-0.2481119
9	0xbc8616ec	-0.016368352
10	0xbecc7ad2	-0.39937454
11	0x3e14f7ef	0.14547704
12	0xbdae1681	-0.08500386
13	0xbe282c22	-0.16423085
14	0xbf062385	-0.5239795
15	0xbe44eabd	-0.1923017
16	0xbea9fe33	-0.3320175
17	0xbe8a5f36	-0.27025765
18	0xbe4ff19e	-0.20307013
19	0xbe24d73d	-0.16097732
20	0x3e91bbb4	0.2846352
21	0x3eaae4eb	0.33377776
22	0xbe8a83c0	-0.27053642
23	0x3ed4979b	0.41521916
24	0xbe0fb813	-0.14035062
25	0xbe970174	-0.29493296
26	0xbe5eb00e	-0.21746847
27	0xbe700e5c	-0.23442978
28	0xbe098501	-0.13429643
29	0x3dcd6a0a	0.10029991
30	0xbe544769	-0.20730366
31	0xbe46467c	-0.19362825
32	0xbe1c3925	-0.15256174
33	0xbe9b4c83	-0.3033181
34	0xbe67326f	-0.22577833
35	0x3e027e20	0.12743425
36	0x3e313410	0.17305017
37	0x3e487db6	0.19579205
38	0x3bbe5b4a	0.0058092223
39	0x3e1f7295	0.15571053
40	0x3e623644	0.22091013
41	0xbe57ae0f	-0.21062492
42	0xbdbe00ca	-0.09277494
43	0x3e48f672	0.19625261
44	0xbe8fbd7b	-0.2807425
45	0x3eba0c8f	0.36337706
46	0xbeaa43c0	-0.33254814
47	0xbe7d786b	-0.24752967
48	0xbe9b77df	-0.30364892
49	0xbe05f690	-0.13082337
50	0x3e972551	0.29520658
51	0xbe8f1e13	-0.27952632
52	0xbe82f03b	-0.25573906
53	0x3a2512b3	0.0006297037
54	0xbeb72ac6	-0.3577482
55	0x3e243f40	0.16039753
56	0x3d129d3b	0.035794478
57	0xbe37c9f2	-0.1794813
58	0xbda86d56	-0.08223979
59	0x3e152182	0.14563563
60	0x3ec332d0	0.38124704
61	0xbe1d3456	-0.15351996
62	0x3e5c6b79	0.21525373
63	0xbeaa5569	-0.33268288
64	0x3ea8611c	0.3288659
65	0x3e09a97c	0.1344356
66	0xbe37f2ec	-0.17963761
67	0xbeb8aba6	-0.36068457
68	0xbe58a0e7	-0.2115513
69	0xbeb30ed1	-0.34972242
70	0x3e00635b	0.12537901
71	0xbc2da69f	-0.010598808
72	0x3e5c6572	0.21523073
73	0xbdcad36b	-0.09903606
74	0xbe0fdd8c	-0.14049357
75	0x3e06d10d	0.13165684
76	0x3d9e2eab	0.07723745
77	0x3e6c22cf	0.23060153
78	0x3e7195a7	0.23592244
79	0x3e687382	0.22700313
80	0x3e4899c1	0.19589902
81	0x3e6ab03f	0.22918795
82	0xbe0a47b0	-0.13503909
83	0x3e38702f	0.18011545
84	0x3eae98ba	0.34100896
85	0xbd400763	-0.046882045
86	0xbe49a118	-0.19690359
87	0xbe455d54	-0.19273883
88	0xbc474ef6	-0.012164822
89	0xbd94a359	-0.072577186
90	0xbeee2fda	-0.46520883
91	0xbe358b82	-0.17729
92	0x3e1e130e	0.15436956
93	0x3e5ea971	0.21744324
94	0xbdfc45cf	-0.123180024
95	0xbe2d8c87	-0.16948138
96	0xbdba9f6d	-0.09112439
97	0x3e0b0eb2	0.13579825
98	0x3e849567	0.25895235
99	0x3e8113b2	0.2521034
100	0x3e4faf7c	0.20281786
101	0x3ebb9b2a	0.36641818
102	0xbb782052	-0.0037861061
103	0xbe860f95	-0.26183763
104	0x3d65a121	0.056061868
105	0xbe9cb704	-0.3060838
106	0xbe0696d1	-0.1314347
107	0xbeb691e9	-0.35658196
108	0x3edfbb2c	0.43697488
109	0xbe7a133b	-0.24421398
110	0xbe1c820c	-0.15283984
111	0xbe24ede9	-0.1610638
112	0xbd5112c3	-0.051043283
113	0xbea00f1e	-0.31261533
114	0xbe7a89a4	-0.24466568
115	0x3a0ccfb6	0.00053715275
116	0x3e0fb1eb	0.14032714
117	0xbe217f86	-0.15771303
118	0xbdcdf784	-0.100569755
119	0x3e7b7f56	0.24560294
120	0x3e70fe36	0.23534474
121	0x3e5f81b8	0.21826828
122	0x3ea5ff3a	0.32421285
123	0xbe8d1bb6	-0.27560204
124	0x3db5b990	0.08873284
125	0xbe712892	-0.23550633
126	0xbd9ef246	-0.07761054
127	0xbea20787	-0.31646368

advantage_stream.weight f4 [7, 128]
0	0xbd1c6905	-0.038186092
1	0x3befc44a	0.0073171007
2	0x3c3d0f4b	0.011539291
3	0x3d06d5a4	0.032918587
4	0x37362f9c	1.085913e-05
5	0x3d3cbdc1	0.0460794
6	0xbca9f546	-0.020746838
7	0xbd5f77a9	-0.054557476
8	0xbd571ee3	-0.05251969
9	0x3c0f6145	0.008751218
10	0x3db42e8d	0.08797941
11	0x3d34e20f	0.0441609
12	0xbcbc6e31	-0.023001762
13	0xb986bad2	-0.00025697664
14	0x3d1663e4	0.036716357
15	0x3cd3407b	0.025787583
16	0x3d49bd25	0.049252648
17	0x3d0b0906	0.033944152
18	0x3d3921d2	0.04519827
19	0x3d4cb2e1	0.04997528
20	0x3c071dc7	0.008246846
21	0xbd3ccca6	-0.046093605
22	0x3d5e9269	0.054338846
23	0xbc832510	-0.016008884
24	0x3bc30a66	0.0059521673
25	0xbc1f4647	-0.009721345
26	0x3c07d5bb	0.008290703
27	0x3d7b8ea4	0.06141533
28	0xbcde42ac	-0.027131401
29	0xbd7bd77c	-0.0614848
30	0xbd34d834	-0.0441515
31	0xbd38e3ae	-0.045139007
32	0x3c1bea25	0.009516274
33	0x3ab07c41	0.0013464765
34	0x3d143f39	0.036193106
35	0x3c9df0a3	0.019279784
36	0x3ab4593c	0.0013759504
37	0xbc4d8fab	-0.01254646
38	0x3c0546a2	0.008134516
39	0x3cc6742f	0.024225323
40	0x3d17c90b	0.037056964
41	0x3c6b0c5f	0.014346211
42	0x3d168ce7	0.03675547
43	0x3c68579b	0.014181043
44	0x3d0d2821	0.034462098
45	0x3b5e303c	0.0033903262
46	0xbcb3eca1	-0.02196342
47	0x3c96dc0b	0.018415472
48	0xbd8896ff	-0.06669425
49	0x3d37174b	0.04469995
50	0x3d1c1446	0.03810527
51	0xbca40cee	-0.020025697
52	0xbc1a7a2b	-0.009428541
53	0xbba13b72	-0.0049204165
54	0x3cfaf022	0.030632082
55	0x3b2f2937	0.0026727447
56	0x3cbca3c4	0.023027308
57	0xbc64d62e	-0.01396708
58	0xbcb5e838	-0.022205457
59	0x3c4a0ec1	0.012332619
60	0x3c892186	0.016739618
61	0x3c6fbc26	0.01463226
62	0xbcf0dc4c	-0.02940192
63	0x3d024f4a	0.031813897
64	0x3c36c710	0.011155859
65	0x3c6b4ae4	0.014361117
66	0xba99d4d1	-0.0011736398
67	0x3cdb68ed	0.026783431
68	0x3cb532dd	0.02211898
69	0x3bed6f66	0.0072459457
70	0x3bc1b155	0.005911032
71	0xbd5668c9	-0.052346025
72	0xbbf7c33b	-0.007561115
73	0xbcf1c871	-0.029514523
74	0x3b804e2b	0.0039155683
75	0xbc91f68c	-0.017817758
76	0x3d03886a	0.032112516
77	0xbc4ba7cd	-0.012430144
78	0x3bd52e35	0.0065057524
79	0x3c3c1f0b	0.011482011
80	0xbd19960e	-0.03749662
81	0xbd1faaad	-0.03898113
82	0xbc87ced4	-0.016578116
83	0x3bc3851b	0.005966795
84	0xbc4ad71f	-0.01238039
85	0x3d4a751a	0.049428083
86	0x3bd77303	0.0065749898
87	0x3d5356a2	0.05159629
88	0x3cd5c5cc	0.026095293
89	0x3cb608ae	0.022220936
90	0xbcae3ea8	-0.021270111
91	0x3c1ff059	0.009761893
92	0x3ca1a429	0.019731598
93	0x3ccc28fb	0.024921885
94	0x3d0f652c	0.035008594
95	0xbc006150	-0.007835701
96	0xbc8a70f3	-0.016899562
97	0xbd0adabf	-0.03390002
98	0xbc35e1b5	-0.011101176
99	0xbd0cbd42	-0.034360178
100	0x3c0dc6fc	0.008653399
101	0xbcdb16f8	-0.02674435
102	0xbc7db4f4	-0.015485037
103	0x3d3e2f2d	0.04643171
104	0xbcdc612d	-0.026901806
105	0xbd0e4205	-0.03473093
106	0xbcc8c412	-0.024507556
107	0x3c4715b5	0.012151171
108	0xbc07cd89	-0.0082887495
109	0xbc79461a	-0.015214467
110	0x3b07ec41	0.0020740184
111	0x39348836	0.0001721688
112	0xbd92c223	-0.07165935
113	0xbc9a690e	-0.018848922
114	0x3ce5da4c	0.028058194
115	0x3d0252d1	0.03181726
116	0xbd0aa784	-0.03385116
117	0x3cc72d5f	0.024313627
118	0xbd08cf5a	-0.03340087
119	0xbc4dccdc	-0.012561049
120	0x3c855147	0.016274108
121	0x3b051c03	0.0020310886
122	0x3cabb06b	0.020958146
123	0xbd32235e	-0.04349076
124	0x3c358b98	0.011080645
125	0xbaf1016c	-0.0018387265
126	0x3d13c1bd	0.036073435
127	0x3c5cff7f	0.013488649
128	0xbd03b138	-0.03215143
129	0xbd138fce	-0.036025815
130	0x3d3703e6	0.044681452
131	0x3d10d59f	0.035359975
132	0xbc38e295	-0.01128449
133	0xbdbdeaae	-0.09273277
134	0x3cc4804b	0.023986956
135	0xbd429e1b	-0.047514062
136	0x3d64ef45	0.055892248
137	0x3d12d163	0.035844218
138	0x3d1dcca4	0.03852524
139	0x3d8d581c	0.06901571
140	0x3cc3e4ba	0.023912776
141	0x3ce63b2e	0.028104391
142	0xbb139e89	-0.0022524914
143	0x3d3abe37	0.04559156
144	0x3d2821fb	0.04104803
145	0xbcd0dc82	-0.025495771
146	0x3da78c9a	0.081811145
147	0xbd4b1fc7	-0.049590852
148	0x3d905f5e	0.0704944
149	0xbc1bed1d	-0.009516981
150	0x3b20088e	0.0024419161
151	0x3c54e2e9	0.012993553
152	0x3d036f2a	0.032088436
153	0xbd9388cd	-0.07203827
154	0x3cf2799a	0.029599
155	0xbda72ad2	-0.08162464
156	0xbc013168	-0.0078853145
157	0x3cc68fb3	0.024238443
158	0xbcfc2fd8	-0.030784532
159	0x3c520093	0.01281752
160	0x3cd43886	0.025905859
161	0xbd747d8d	-0.059690047
162	0xbdb3f515	-0.0878698
163	0x3c8a00ce	0.016846087
164	0x3be77a8e	0.00706417
165	0xbced1e48	-0.028945103
166	0x3cf0a154	0.029373802
167	0xbd5238ec	-0.051323816
168	0x3c7688cd	0.015047264
169	0xbd178627	-0.036993172
170	0xbbbf3588	-0.005835239
171	0x39bf5f53	0.0003650138
172	0x3d188435	0.037235457
173	0x3bc2f9eb	0.0059502027
174	0xbc8e8edc	-0.017402105
175	0xbc1e2af9	-0.0096538
176	0xbc7df210	-0.015499607
177	0x3d6d3f2f	0.057921585
178	0xbd5e5fba	-0.05429051
179	0xbc722aa0	-0.01478067
180	0x3df32d73	0.11873903
181	0x3d0651d8	0.032792896
182	0x3ce36d7a	0.027762163
183	0x3d2e7e1c	0.042600736
184	0xbd7337bc	-0.059379324
185	0x3dc71a7c	0.09721848
186	0x3cad0bc9	0.021123784
187	0xbcd319c1	-0.025769116
188	0x3d0eb362	0.03483904
189	0x3cac3224	0.021020003
190	0x3dcddcd8	0.10051888
191	0xbdbb2e83	-0.09139731
192	0x3bf5688e	0.0074892705
193	0x3d09307f	0.033493515
194	0xbd2b93b3	-0.041888904
195	0x3bccc651	0.006249227
196	0x3d80f64b	0.06296977
197	0x3c85ce9a	0.016333867
198	0x3c87809f	0.016540824
199	0xbbf4c91c	-0.007470263
200	0x3d87d4af	0.06632363
201	0x3d39b6ec	0.045340464
202	0xbcb4e26d	-0.022080624
203	0x3c36116c	0.011112552
204	0x3c8a9b33	0.016919708
205	0xbc57bca4	-0.013167534
206	0xbc803192	-0.015648637
207	0x3cbacbd0	0.022802263
208	0xbbfde5d9	-0.0077483472
209	0xbcd454ce	-0.025919344
210	0x3c83d7a6	0.01609404
211	0xbd492672	-0.04910893
212	0x3c3911b2	0.011295723
213	0x3ce1520e	0.027504947
214	0x3c83d553	0.016092932
215	0xbbd9d03b	-0.0066471375
216	0x3d03449d	0.032047857
217	0x3d9366de	0.07197355
218	0x3beb5da7	0.007182795
219	0xbb6ea4cf	-0.0036414152
220	0xbdc6a32c	-0.09699091
221	0x3c4dee4f	0.012569024
222	0xbccf3a51	-0.025296362
223	0x3cf94721	0.030429425
224	0x3d832f16	0.06405465
225	0xbc99d2f4	-0.018777348
226	0xbca7389d	-0.020412738
227	0x3d03782a	0.03209702
228	0x3d6b0fc7	0.057388093
229	0x3c1d299d	0.009592441
230	0xbd766b34	-0.06016083
231	0xbc7fff7e	-0.015624879
232	0xbd4cd8cd	-0.050011445
233	0x3cf52cf5	0.029928664
234	0x3c5f4fe0	0.0136298835
235	0x3d9f707b	0.07785126
236	0x3d30ea40	0.04319215
237	0xbd27f1cd	-0.041002084
238	0xbc8db7ef	-0.01729962
239	0xbd16fd9d	-0.03686296
240	0xbc27b6c8	-0.01023645
241	0xbd3d0370	-0.046145856
242	0xbcd0705e	-0.025444206
243	0x3d6aed5a	0.057355262
244	0x3c1cc0e8	0.009567477
245	0xbce24ab3	-0.02762351
246	0x3cac7452	0.02105156
247	0x3cae7fca	0.021301169
248	0xbcbdd668	-0.023173526
249	0x3d257c78	0.040401906
250	0x3c8afd2f	0.01696643
251	0x3c7b8597	0.0153516745
252	0xbc41b59a	-0.011823082
253	0x3b211e69	0.0024584776
254	0xbcadd3e2	-0.021219198
255	0x3d3d156b	0.046163004

advantage_stream.bias f4 [7]
0	0x3a38b9ad	0.0007046711
1	0x3ca289a0	0.019841015
2	0xbd3643db	-0.044498306
3	0xbc0c67c8	-0.008569665
4	0xbcebd7f6	-0.028789502
5	0xbb5389e5	-0.0032278236
6	0x3db3260a	0.0874749
