src/last_chance/Cartpole/Dueling_Double_DQN_eps_decay/weights/episode_3600.pth (torch, 73468 bytes, 7 tensors)

layers.0.weight f4 [128, 4]
00000000: 50a4 913e 5bfa b03d 4022 3dbf d8a5 06bd
00000010: 7ad4 9e3e 9844 cc3d a5f0 a9be c274 b2bd
00000020: 9d21 66bd 63c6 7c3d e8b3 babf 0d13 17be
00000030: 4937 7f3e 3342 f03d 579f 08be fc6b b6bb
00000040: db97 ce3e 6e7c 21be b413 b4be e289 25be
00000050: 314c 423e cc8c 983e 3358 fa3e af9d 473e
00000060: f18d 7e3e 0339 303e a89c 063f 9cdf 973e
00000070: 082f 4abe 711b 49bd 6ffc 5dbf 40ce a8bd
00000080: ebd1 513e 78d3 4c3d 8db2 733f a349 c03e
00000090: 90ec a83e a066 163c 401d 4abf c0a9 ea3c
000000a0: 518e 29be 66c5 583e 5b45 7b3f 6760 473f
000000b0: f09c cbbe e3ff a63a b81b 83bf 0a93 04bd
000000c0: 5179 a93e 0afa d13d c245 d63e 7ac5 923d
000000d0: 46cd b3be 937c ddbd 37a4 9fbe fce8 efbd
000000e0: 9be8 4cbe ed86 7b3e a914 6c3f 1373 a43e
000000f0: 6ecb a9be 2020 45be 7522 aabd 51c1 27be
00000100: 717c 1f3e e5b4 663b 6c8e 2b3f 8a3d 7a3e
00000110: 8730 b33e c7ec 513d 9f2f 24bf cc17 aabd
00000120: 0853 863e cbbe 92be ab05 54bf 0e73 cabd
00000130: 7c85 fabd 7dbe 3b3e 1549 893f 3218 9abd
00000140: a786 a43e 59b4 073e a925 a5bd b3fa e73c
00000150: 9fbc 813c 9c99 863e b3b2 febd 967b aa3d
00000160: 4c8d 96bc 12c4 4fbe 58b6 f43f f1a6 56be
00000170: c8dc 713d d5fc 3bbe db55 a43f e17a 8bbd
00000180: 71ca 4bbe 9f4e f3bd b028 82bf d067 26be
00000190: f8c0 aa3e d8d5 b739 07b1 ca3e a8c0 bd3d
000001a0: 620e 1f3d b137 fabc ad12 04c0 02e3 3dbe
000001b0: bf8f 823d afc2 b8be d2de da3f ed28 a9be
000001c0: 0559 a2be 2919 8fbc 16e1 1fbf b6fd 17be
000001d0: d6c4 e63d abba 4abe 8cde 853e d281 04bd
000001e0: 74c2 a73b 0d90 9fbd c803 b73f 7f52 3b3e
000001f0: ab6f cb3e 350c d73c af82 4abe b203 41bd
00000200: ea70 3abe cd96 80be a93a 97be a5fe 77be
00000210: 9d0c 0e3d 96e5 813d 5b95 bdbf 0048 d3bd
00000220: af9e 7f3e 8c12 e43d a8a1 883e 16e3 1f3e
00000230: 39fe 66bb 4106 8b3d af3e babf 1ce4 aebb
00000240: 2421 9dbe f8fc c8bc f193 af3d 703a b5bc
00000250: 05ce d43d e928 233e a2e4 ac3f 72e6 363e
00000260: 6817 aa3e 6610 46be 9449 683f ae53 eb3c
00000270: c39e 4d3e b190 2e3e 8bd8 68bc 16a8 ef3c
00000280: 7bd7 1e3e 53c2 0e3e 59c1 1c3f 8a31 5a3e
00000290: 3400 823e 27e8 b93d 60e6 c13e 7008 2b3d
000002a0: 02f9 3cbe 178c 36be 76b0 b2bf 60c4 d1bd
000002b0: 7a4c 21bd 2126 94bd 6d7b 6a3f 77a8 5a3e
000002c0: 3dc9 84be 1c4f 6fbd 8055 27bf 2fd9 c7bd
000002d0: f1cb 3c3e 6b04 393e c505 f9be 0d6f 8abd
000002e0: 9746 3dbe b30e 8c3d 922c e93e 01bb b43e
000002f0: 890e ce3e 9aeb 05be 984b a63d bb51 cebd
00000300: c639 d33e e03e 20be 45ec e0be 5872 b3bc
00000310: d59b 65be 06e3 86bb b991 86bf 2e8c 33be
00000320: e9e5 973e 4a40 5a3d 65e3 d0be 3c86 36bd
00000330: c1a3 babe abfb 09be 6235 a4bf 7a4f 4abd
00000340: 5fb7 80bd ae1a 1cbd a33b a63f add6 893e
00000350: 6cec c83e f938 0cbe b3e0 87bf db8e c7bd
00000360: b3d1 8abe 9572 9bbd 0333 8ebe 7d60 b1bd
00000370: c5a7 aabe 5121 00be ad6a 29bc ac2e b03b
00000380: 1132 bfbe b6a8 4d3d 1149 85be 9da9 6ebe
00000390: b072 803e a2fc aa3d 7262 12bf 962a 92bd
000003a0: 6ed5 2f3e 0b93 22be e355 d4bf 2cc2 f9be
000003b0: 12f2 3abe 15ea 46be b8bc 86bf c9f6 7dbe
000003c0: f421 5c3e 7568 923e b144 883f 18e5 7f3e
000003d0: ea00 debd 4c56 5bbe ea74 cabf ce3d c6bd
000003e0: db26 9ebe 4231 81bd 30c9 73bf faf8 c2bd
000003f0: 6291 92be 5ff1 33be 958d efbe b7f4 62be
0.28445673 0.086415015 -0.73880386 -0.032873005 0.31021482 0.09974021 -0.3319141 -0.08713676
-0.0561844 0.061712634 -1.4586153 -0.14753361 0.24923433 0.117313765 -0.13342033 -0.005567072
0.40350232 -0.15770122 -0.35171282 -0.1616588 0.18974377 0.2979492 0.48895416 0.19493745
0.24858834 0.17209248 0.5258279 0.29662788 -0.19744503 -0.049098436 -0.8671331 -0.08242464
0.20490234 0.05000636 0.9519432 0.3755618 0.32992983 0.009179741 -0.7895088 0.028645396
-0.16558196 0.21169052 0.98152703 0.77881473 -0.3976817 0.0012741055 -1.0242834 -0.03236679
0.3310037 0.10252769 0.41850096 0.07166572 -0.3511755 -0.10814776 -0.31179973 -0.1171436
-0.20010607 0.24563189 0.92219025 0.32119045 -0.33163017 -0.19250536 -0.083073534 -0.16382338
0.15574814 0.0035203036 0.67014194 0.24437538 0.3499796 0.0512512 -0.64135164 -0.0830532
0.26235223 -0.28661188 -0.8282115 -0.09885226 -0.122324914 0.18334384 1.0725428 -0.07524146
0.32133982 0.13252391 -0.08063824 0.028317785 0.015837012 0.2628907 -0.12436428 0.083243534
-0.018377922 -0.20289639 1.9118147 -0.2096212 0.059048444 -0.18358167 1.2838701 -0.06810547
-0.19901444 -0.1188023 -1.0168667 -0.16250539 0.33350348 0.00035063806 0.39588186 0.09265262
0.038832076 -0.030544134 -2.0636399 -0.18543628 0.06375074 -0.36086032 1.7099249 -0.33039036
-0.31708542 -0.017468052 -0.6245283 -0.14842877 0.11268012 -0.1979777 0.26146352 -0.03235037
0.005119616 -0.077911474 1.4298029 0.18293189 0.39733633 0.026250938 -0.19776414 -0.047122665
-0.18207136 -0.25115052 -0.29536942 -0.24218233 0.034679998 0.06342618 -1.4811205 -0.10316467
0.24962877 0.1113635 0.26685834 0.1561397 -0.0035246743 0.06788302 -1.455038 -0.0053372514
-0.30689347 -0.024534687 0.085731395 -0.022122592 0.103908576 0.15933575 1.3507273 0.17861345
0.33220983 -0.19342193 0.9073727 0.028726425 0.20080094 0.17047383 -0.014211784 0.029254954
0.15511887 0.13941316 0.61232525 0.2130796 0.2539078 0.09077483 0.37871075 0.041756094
-0.18454364 -0.17826878 -1.3960102 -0.10242534 -0.039379574 -0.07233835 0.9159458 0.21353327
-0.25934783 -0.058425054 -0.6536484 -0.09758221 0.18437172 0.18068092 -0.48637214 -0.067594625
-0.18483959 0.06838741 0.45541817 0.35298923 0.40245464 -0.13078156 0.08119887 -0.100741826
0.41255015 -0.15648985 -0.4393026 -0.02190511 -0.22422726 -0.004116419 -1.0513221 -0.17533943
0.29667595 0.053283967 -0.40798488 -0.04456161 -0.3645306 -0.1347491 -1.2828791 -0.0493922
-0.06284975 -0.03811138 1.298695 0.26921597 0.39242876 -0.13693608 -1.0615448 -0.097440444
-0.27113113 -0.07590214 -0.27773294 -0.08660982 -0.33331123 -0.12512709 -0.010340375 0.0053766575
-0.37342885 0.050209723 -0.26032308 -0.2330689 0.250875 0.08348967 -0.57181466 -0.07137029
0.1717126 -0.15876405 -1.658871 -0.48780954 -0.18256405 -0.19425233 -1.0526342 -0.24801172
0.21497327 0.2859532 1.0645963 0.24989736 -0.10840018 -0.21419638 -1.5816929 -0.09679757
-0.3088902 -0.06308223 -0.9522886 -0.09520145 -0.28626543 -0.17572545 -0.46787706 -0.22163664

layers.0.bias f4 [128]
00000000: 9828 243f d0fd 3b3f 2119 a0be 3814 1dbf
00000010: ab60 16bf 285d 173f da50 1a3f 27ea e8be
00000020: 0f2a 123f 078c 30bf 5bac f1bc 5d1d 3a3f
00000030: 89a9 39bf c12c 453f 9883 8e3c b370 4d3f
00000040: 8527 b0be 139c 433f 3690 c6bd 3ec6 b93c
00000050: a1da 46bf 42ff afbe acfd 05bd 60be a73d
00000060: 839f fcbe d459 243f df92 b13d cd02 9e3d
00000070: 13af 1abf 9bb0 583d 7ee2 803e 77f4 59bf
00000080: 22de 083f 961f 70bd 6432 0a3f 66fa 49bd
00000090: 5ad4 1bbf e507 d93e bc06 c93e 686c 013f
000000a0: 5591 d13e f652 0c3f ece9 ebbe fa91 b43e
000000b0: 71fd 0ebf 2a86 0f3f 4300 d43e 2b0f 173f
000000c0: ebb7 1ebf c618 edbe 684f 2abf ab58 3d3f
000000d0: 2deb b0be afcb 093f 711f 133f 75a1 4f3f
000000e0: c438 1fbf ef6c 22bf 853d 883d 316c 10bf
000000f0: 4442 153f 13f8 c4be b2b2 1c3f 6c75 2ebf
00000100: 000e 3a3f 1805 19bf 3ef7 4dbf 3b30 29bf
00000110: b47a 34bf e2f3 c0be 5f8a 0e3f c05d 0e3f
00000120: 3913 603f e5b2 5a3d 032c c83e b776 3fbf
00000130: 9785 f83e 7a63 6ebe 751c 133f 0f28 31bf
00000140: dbd4 163f f0bf 56bd f372 fd3e 61ed bf3e
00000150: ae26 253f a578 2d3f 84f2 10bf 375a 1b3f
00000160: 11af f9be 751c 25bf cf4f 333f 1b4d bf3e
00000170: a324 ebbe 3348 02bf 5845 1c3e d3d5 cfbe
00000180: 188a 2dbf c089 30bb dd54 3cbf 27f8 a4be
00000190: 3d11 383f f55b 773e ae7b 093f 978d eb3e
000001a0: 7fd3 2f3f 759f 043f ccbb 0ebf 0280 1ebf
000001b0: 70a9 02bf fccd f43e df7c 0dbf d4db 00bf
000001c0: 9245 05bf ca27 3e3e 2a18 2abe a0c1 ef3e
000001d0: d5b8 3abf dc3d 103f 4ba7 c23e 917f 103f
000001e0: 525d f3bd ad31 283f 2c2d 09bf 025b 39bf
000001f0: 9068 13bf dddd f63e 38cb eebd ca20 1d3f
0.6412444 0.7343416 -0.31269172 -0.61358976 -0.58741254 0.5912652 0.6027962 -0.45491144
0.57095426 -0.68963665 -0.02950113 0.72701055 -0.72524315 0.77021414 0.017396733 0.8025009
-0.3440515 0.76410025 -0.09695475 0.022677537 -0.7767735 -0.34374434 -0.032712623 0.08190608
-0.49340448 0.64199567 0.086705916 0.07715378 -0.6042339 0.0529028 0.251728 -0.8513865
0.5346395 -0.058623873 0.5398314 -0.049311064 -0.608709 0.42388836 0.3926295 0.5055604
0.40931192 0.5481409 -0.46076906 0.3526762 -0.5585547 0.56064093 0.4140645 0.5900752
-0.61999387 -0.46307963 -0.66527414 0.7396342 -0.34554425 0.5382642 0.5746985 0.8110574
-0.6219599 -0.6344747 0.06652359 -0.56415087 0.5830424 -0.38470516 0.6121017 -0.6814792
0.7267761 -0.597734 -0.80455387 -0.6608922 -0.7049973 -0.37686068 0.5567989 0.556118
0.8752933 0.053393263 0.39096078 -0.7479052 0.4853942 -0.23280135 0.57465297 -0.6920175
0.5891854 -0.05242914 0.49501762 0.37485793 0.64512146 0.67762214 -0.5662005 0.6068453
-0.48766378 -0.64496547 0.70043653 0.37363514 -0.4592639 -0.5089142 0.15260828 -0.40592822
-0.6778884 -0.0026937574 -0.7356699 -0.32220575 0.71901304 0.24156173 0.53704345 0.46006462
0.6868209 0.5180581 -0.55755305 -0.61914074 -0.5103979 0.47813404 -0.55268663 -0.5033543
-0.5205928 0.18569866 -0.1661078 0.46827412 -0.7293828 0.5634439 0.3801826 0.5644465
-0.11883034 0.657008 -0.5358455 -0.7240449 -0.57581425 0.48216143 -0.11659855 0.6137816

layers.1.weight f4 [128, 128]
00000000: 419c 053e cffb 933c 26c0 cfba ae67 28be
00000010: 06b1 6abe 77f5 34bd aa46 593d ebac 573c
00000020: 92ca 8fbd 51a5 e23a d838 2e3e 6a97 d23d
00000030: 73b2 b03d 76b2 68bd dc59 0a3d 3593 9d3c
00000040: 437a 34be 8268 37be 3e41 db3d e3a0 c6bd
00000050: 6c12 853d 5e9e 903c c1fa b03d 96c3 993d
00000060: d393 8fbd cb89 5abd e082 1d3e 21f7 8dbd
00000070: 9fe4 2abe 6073 ca3c b720 a13c 90bd 073d
00000080: 2e8a 313d 9c8d 40bd be33 40bc 5ec7 b1bd
00000090: 6f83 433d 7342 2c3d 9ea0 12bd c7c0 943d
000000a0: 0ce5 66bd fd53 e6bd 5878 eabd 8c5e 1abc
000000b0: 6cda 55be e369 59bd 11ff d4bb 521e 7c3d
000000c0: 4a28 ac3d 07c7 2f3e 6090 2d3a ef27 8f3d
000000d0: bbe7 32bd 91c4 ae3d 809f 053d 33e4 313d
000000e0: e8c6 213e b26d 0b3e f051 c33d a051 063d
000000f0: 5cae 23be 1724 68bd d514 12be 5713 ce3c
00000100: ce45 26bc 92f8 8bbd 1a2b c8bc 82bd 103e
00000110: 7c87 f2bd 6ac4 023e 0941 f23d f564 e33d
00000120: 2945 92bd 507a 043b 0694 d1bd 618d a2bc
00000130: 6ab6 27bd 68d5 003e 4866 9f3d e0c1 2dbe
00000140: d09a b7bb 1938 14bd 0d33 b13d 6cac 41bd
00000150: 5f58 8d3d 1510 96bd 2871 753d f4db 00be
00000160: 6506 123e 9b61 33bd b4f1 c4bd 6720 77be
00000170: 9628 0e3d aee2 9f3c 1054 d53d 94e5 b13c
00000180: b3c8 16bd aa15 0bbe d9c1 84bd 29d5 0ebd
00000190: 61e3 2d3d 0786 b53c 013d dfbd 00a5 a3bd
000001a0: 4361 033e 8006 b2bc 88f2 023e 6991 50be
000001b0: 3ac6 553d 6ce4 b83b a209 183c b933 943d
000001c0: b406 cfbd 7b5f eb3d 3410 db3d 8953 663b
000001d0: e612 2a3d 6215 0abd eebc ea3c 8f64 953d
000001e0: 5aea b83d b516 f9bd 2e76 bbbc 2e53 0abd
000001f0: 3311 00bd e024 843d d9f3 bbbd 03dc a1bd
00000200: 5bae 3e3d c03d 053d 90b5 4fbe 3c46 78bf
00000210: 24c2 f8be 8e53 7bbd a376 b03d 8774 403b
00000220: 731a d73c 8f14 9cbe e73a 7dbd 816f 563f
00000230: 441d 96bf 0cd4 7e3f 1b44 9abe 21a1 9c3f
00000240: 0454 c8be a97c d23d 1b63 6d3e 433a ddbd
00000250: 53c5 8bbf 3d3e 2fbf 7234 8bbd 7225 773e
00000260: b41a 9e3c 4b44 053c 327d 183e f8fa d33d
00000270: 4046 673e 5924 dd3e b3db a73e f4e7 63bf
00000280: 6b90 a13f 3c39 9dbc 7fcd 693c bc84 a73d
00000290: 90aa 61bc db7b 84bc 7193 bf3d 397a 1bbe
000002a0: 9421 9bbd c288 65bd 75d3 38bd e501 b73e
000002b0: 9a5f 0dbd 6324 8f3d 40e0 733d 6f46 ca3b
000002c0: 8b02 c0be 1260 ddb8 e721 1fbf 468f ab3f
000002d0: 0fa8 28bd 1666 853d 1c60 2c3f c2b9 a03f
000002e0: 513f 38be f23f 58bf 90b7 633d 9c74 103e
000002f0: 66f2 d1bd 9215 073d ed90 5f3f 1b89 033c
00000300: 5784 0f3f dbd6 1abe 87f0 93bf 1ebf 96bf
00000310: e814 65bf a617 37bf b98d c5bd b1bf 3fbd
00000320: 76ac ba3f 4c0d df3d 27c5 f73d f87f 8cbf
00000330: 495a cc3e 81e2 2a3e fe02 9ebd 4043 90bf
00000340: 6ecf 1a3e eb4c 9bbe 8904 173f f47e 9abd
00000350: e7f9 da3c 1e78 a93f b6da e5be 435d 603d
00000360: 90b3 013e 287a b8bf 02a7 8d3e 180f 663e
00000370: 4f87 203d 70ee 40bf fe8d 55be 43ea 8ebf
00000380: 7ae3 4ebe 82e3 86bd d8a9 1ebf 4b17 f6be
00000390: 52fd 4e3e 8338 2abe 71d5 65be 62be 01bd
000003a0: 23a4 ae3f 91ae 463f e3f1 58bf 526d 82bd
000003b0: 4264 39bf 6f16 373d 4615 0fbf 6be6 51bf
000003c0: 5c9a 713e 1531 72be 019b b6be 2faa 143f
000003d0: e7a5 ff3d ca75 b2bd 8627 763d 5a99 b73d
000003e0: 00ec 9e3e 4d65 243c 884e 0cbe 4c7a 9dbd
000003f0: fc07 a4bd 92d2 c3bc 9a08 d5be 6beb 073e
0.13047887 0.018064408 -0.0015850111 -0.164458 -0.22919092 -0.044179406 0.053045906 0.013163785
-0.07021059 0.00172917 0.17013872 0.10282786 0.086277865 -0.05681082 0.033777103 0.019235233
-0.17624764 -0.1791096 0.10705803 -0.096986555 0.06497654 0.01765364 0.086415775 0.07508008
-0.07010617 -0.053354066 0.15381956 -0.06931902 -0.16688775 0.024713218 0.01966892 0.033139765
0.04334467 -0.04701005 -0.011731086 -0.086806044 0.047732767 0.04205556 -0.035797708 0.07263332
-0.05637078 -0.11246488 -0.11448735 -0.009421956 -0.20884103 -0.053079497 -0.006500133 0.061552353
0.08406122 0.17165767 0.000662094 0.069900386 -0.043678027 0.08533586 0.032622814 0.04343052
0.15798533 0.13616064 0.09537113 0.032792687 -0.15984482 -0.056675043 -0.1426576 0.025155706
-0.010148479 -0.068345204 -0.024434615 0.14134791 -0.11842248 0.12770239 0.11828811 0.111032404
-0.071420975 0.0020214505 -0.10233311 -0.019842805 -0.040945448 0.12581408 0.077831805 -0.16968489
-0.005603172 -0.03618631 0.08652315 -0.047283575 0.06901621 -0.07327286 0.059922367 -0.12583905
0.14260252 -0.043794256 -0.09616414 -0.24133454 0.034706675 0.019517269 0.10416424 0.021715917
-0.036812495 -0.13582483 -0.06482286 -0.034871254 0.042453174 0.022158636 -0.109003074 -0.079904556
0.12830071 -0.021731615 0.12787831 -0.2036797 0.052190997 0.0056424644 0.00927964 0.07236428
-0.101087004 0.11492821 0.1069645 0.0035145006 0.04152193 -0.0337118 0.028654542 0.07294571
0.09029074 -0.12162534 -0.0228835 -0.033770733 -0.031266402 0.06452346 -0.091773696 -0.07903292
0.046552997 0.032529593 -0.20284104 -0.9698217 -0.48585618 -0.06135898 0.08616378 0.002936633
0.02625773 -0.30484435 -0.06182375 0.8376389 -1.1727681 0.9954231 -0.30130085 1.2236673
-0.391266 0.10277683 0.23182337 -0.10802128 -1.0919594 -0.68454343 -0.067971125 0.24135378
0.019299842 0.008133958 0.14891508 0.10350603 0.22585392 0.43191794 0.32784805 -0.8902581
1.2622198 -0.01919233 0.0142701855 0.08179614 -0.013773575 -0.01617234 0.09354294 -0.15183343
-0.07574764 -0.056038626 -0.045123536 0.35743633 -0.034515 0.06989362 0.059540033 0.006172947
-0.3750194 -0.00010555996 -0.62161106 1.3403099 -0.0411759 0.06513612 0.6733415 1.2556689
-0.17992903 -0.8447257 0.05559498 0.14106983 -0.10251312 0.032979555 0.87330514 0.008028294
0.5606131 -0.15121023 -1.1557778 -1.1777074 -0.89485025 -0.7152046 -0.09646172 -0.04681367
1.4583881 0.10891208 0.12098151 -1.0976553 0.39912632 0.16687967 -0.077154145 -1.1270523
0.1511819 -0.3033212 0.58991295 -0.07543746 0.02673049 1.3239782 -0.44893426 0.05477644
0.12666154 -1.4412279 0.2766648 0.22466695 0.03919154 -0.75363827 -0.20854947 -1.1165241
-0.20203963 -0.065863624 -0.6197791 -0.48064646 0.20213822 -0.1662312 -0.22444703 -0.031675704
1.364384 0.7761012 -0.8474409 -0.063685074 -0.72418606 0.04469913 -0.55891836 -0.81992215
0.2359404 -0.23651536 -0.35665134 0.5807218 0.12482815 -0.08713873 0.060096286 0.08964796
0.3103943 0.010033918 -0.13701832 -0.07689342 -0.080093354 -0.023904119 -0.41608125 0.13273399

layers.1.bias f4 [128]
00000000: 6de2 353d 1d00 8c3e 47d6 123d 030a 97bd
00000010: cbf8 c8be df36 b73e 23a0 84be 272a 053d
00000020: d7bd 96be 9a27 5c3d 37ec 5ebd f1c8 573e
00000030: 52cc 723c 8e9f 6cbe 876e 823d 6f86 ddbe
00000040: 0397 713d 1a3a 683d 03e2 aabe af70 7abc
00000050: 7465 61be 3950 d7bd 8117 c1be 72f6 843e
00000060: d081 cb3e b761 c0be 44c7 4f3d fa59 643d
00000070: 0c33 98bd 66d8 bfbd 627c febd 0f0f 0e3d
00000080: 2480 79be 3370 2bbd 1deb 43bc 4ce7 8e3c
00000090: 5033 bb3d 0808 893d 81d8 563d a1d9 863e
000000a0: 3a73 b4be ca4e cd3e fb50 f83e 1b6f 89be
000000b0: a36f 3ebd fe08 7d3e 3f34 6d3e 76be 1cbd
000000c0: 062e 90be 339c 30be c1c7 8b3d 1b08 823b
000000d0: b01f d6be bf73 c63c f90d a7be 401b 013f
000000e0: 98dc 82bd 29b1 41bd 7d64 5abd 656c bebc
000000f0: 184e 70be 3f3e ca3e 90f0 023d 2052 e8be
00000100: a8f2 403e fcf7 a5be cf71 953b fa5b 2d3d
00000110: 699b 44bd faf2 9b3e 105e 333d 7939 93bc
00000120: cecd 81bd 0820 c9bc f70c 6a3d f114 b23e
00000130: f800 233d bb86 acbe 2d83 9f3e c2ba 8a3e
00000140: b224 80bd 491d 7fbc 65c6 b8be 9ee7 413e
00000150: d9a9 1dbe 8b7f 81bd c120 88bc c257 013e
00000160: fb1d ab3e e584 d83d 7759 8ebc 77d4 a5be
00000170: 3786 7ebe ff3e debd 596e b4be bfb5 753d
00000180: 1527 6f3e 2dde a9bc 280c de3e d530 173c
00000190: 7dcd 833e b301 0b3d 61d5 39bd 7aaf d1be
000001a0: 3548 c93d 23d8 903d a535 8d3e 3891 4abd
000001b0: 7495 91bc f9ac 853d 5d42 973e 3dcd 2d3c
000001c0: 177f b2bc 9e7b 7ebd 63b7 7f3d d5cf b03e
000001d0: dc60 473d 0315 d63e 7b44 01bd 2864 a8be
000001e0: 3b97 e63c 4114 2b3d c308 d23c 2389 9fbe
000001f0: 6071 263c 4a98 a93e 4ff7 b0bc 3ac8 903e
0.04440539 0.27343836 0.035848882 -0.073749565 -0.39252314 0.3578405 -0.25903425 0.032510903
-0.2944171 0.053748704 -0.05442449 0.21072747 0.014819222 -0.2310774 0.06368738 -0.43266627
0.058981907 0.056696035 -0.33375558 -0.015285655 -0.22011358 -0.10513348 -0.37713245 0.25969273
0.39747477 -0.3757455 0.050727144 0.05574987 -0.074316114 -0.093674466 -0.12426068 0.03468233
-0.24365288 -0.04185505 -0.011957911 0.017444275 0.091406465 0.06690985 0.052452568 0.26337913
-0.3524416 0.40099174 0.48499283 -0.2684258 -0.046493184 0.24710461 0.23164462 -0.038267575
-0.28160113 -0.17247085 0.068252094 0.0039682514 -0.4182105 0.024225114 -0.32627848 0.50432205
-0.06389731 -0.047288094 -0.05331849 -0.023245046 -0.2346729 0.39500615 0.0319677 -0.45375156
0.18842566 -0.3241576 0.004560686 0.042324044 -0.047999773 0.30458814 0.043790877 -0.017971741
-0.06338082 -0.024551407 0.05714127 0.34781602 0.039795846 -0.3369654 0.31154767 0.2709561
-0.06256999 -0.015570947 -0.36088863 0.18936011 -0.15396823 -0.06323155 -0.01661718 0.12631133
0.3342131 0.105722226 -0.017376645 -0.3238866 -0.24855886 -0.10851859 -0.3524044 0.05998778
0.23354752 -0.020735824 0.4336865 0.009227951 0.25742713 0.033937167 -0.04536951 -0.4095419
0.098282255 0.07072475 0.2757999 -0.049454898 -0.01777146 0.065271325 0.2954282 0.010608015
-0.021789117 -0.06212961 0.06243075 0.34533563 0.048676357 0.41812906 -0.03155945 -0.32888913
0.028148284 0.041767363 0.025638944 -0.31159315 0.010158867 0.33124 -0.0216023 0.2827776

value_stream.weight f4 [1, 128]
00000000: a82a 5dba 760f b03e 08c2 a739 ca29 8fba
00000010: 83a1 20bf 5f7a e83e 162e a5be d2fe 40bb
00000020: 8c82 eabe 5b35 3b3b dfde 983b cccd 2a3e
00000030: 435a 053b b09c 91be 2d45 58bb 0370 4abe
00000040: 8bde a73a 97f5 03ba 964b b6be 14dc a8b9
00000050: 6d07 85be be05 303b 54ff e7be 5cbb 9f3e
00000060: 2903 b23e 98cd b23e 4c1d 103c 3e5d 7238
00000070: 1ec4 5539 3787 ff3c 1467 05bf d0d0 67ba
00000080: de29 9dbe b4f5 0eb9 ea45 cfb8 7e81 c7bb
00000090: 34cc 90ba 6f13 db39 1814 8d39 35c1 d73e
000000a0: b3f6 70be a5e1 0b3f 267e 3f3f 4b39 8dbe
000000b0: 4b7d cfb9 91f6 713e f4c5 993e a5a2 ce3d
000000c0: 7589 c33e b17a d2be 0603 46bb d94e 5fba
000000d0: d8e9 653e 92d2 833b b89c eebe 2e27 803f
000000e0: d916 c13b a207 f739 3051 3dba 96e9 de38
000000f0: 1294 e4be 62ad 273f 32d8 093a f7c0 79bf
00000100: 4977 803d f7d6 d8be e6a6 643a b513 883b
00000110: 4d13 8f3a adb9 c63e 8046 883a 61ca 26bb
00000120: e69d 5cb9 7567 97b9 e15d cc38 78a6 e0be
00000130: 8db1 c9b9 a5a2 83be 5e5e b33e c08d db3e
00000140: 75f4 5dba 0c38 f339 f389 29bf 5589 833e
00000150: ba24 88be 0ce1 d9ba 539c e239 b24c 653a
00000160: 3c76 14bd 5dc0 8c3e 01f1 8a39 7ddb 0bbe
00000170: c7b1 29bf 8f6e 863b a0eb eabe 83ec a439
00000180: bdd5 553e 6cc1 a8ba 9683 5a3f e60e 6bb9
00000190: 1eb8 9e3e aa84 66ba c245 44bb 48c6 b6be
000001a0: ccdf e53a 5b15 0ebc bbad 453e b887 9eba
000001b0: 7f1c 6339 2a36 b9bb 426c c93e 0fd3 b039
000001c0: 8966 6c3a c72a 0e3b f06d 7bb6 2a69 f03e
000001d0: 4732 ab39 e33d 2c3f b3be 983a de9c 17bf
000001e0: ff89 7439 f06f 2dba 38f9 f93a 11d0 12bf
000001f0: 35e7 afb9 0aa8 933e f0a9 1b3a 7c51 9b3e
-0.0008436837 0.34386796 0.00031997287 -0.0010922488 -0.6274645 0.45405862 -0.32261723 -0.002944876
-0.45802724 0.0028565738 0.00466524 0.16680068 0.002034799 -0.28439856 -0.0033000216 -0.19769292
0.0012807412 -0.0005033849 -0.35604542 -0.00032207428 -0.25982228 0.0026858891 -0.45311987 0.3119763
0.34768036 0.3492248 0.008796047 5.7784135e-05 0.00020386322 0.031192405 -0.5211041 -0.0008843066
-0.30696005 -0.00013633707 -9.883552e-05 -0.0060884347 -0.0011047185 0.00041785414 0.00026908587 0.42139593
-0.23531608 0.5464118 0.7480186 -0.27582774 -0.00039575467 0.23629214 0.3003384 0.10089616
0.3819081 -0.4110923 -0.0030214204 -0.0008518524 0.22452486 0.0040229047 -0.46603942 1.0011957
0.005892616 0.00047117198 -0.0007221876 0.00010629294 -0.4464422 0.65498936 0.0005258351 -0.97560066
0.06272752 -0.42351505 0.00087223796 0.00415274 0.0010915786 0.38813534 0.0010396987 -0.0025450217
-0.00021039657 -0.00028878046 9.744964e-05 -0.43877006 -0.00038469993 -0.25710025 0.35032934 0.42881584
-0.0008466908 0.0004639033 -0.6622612 0.25690714 -0.2659052 -0.0016622855 0.0004322255 0.0008747085
-0.03624557 0.27490512 0.00026500973 -0.13657947 -0.6628689 0.004102535 -0.45882893 0.00031456733
0.20882316 -0.0012875027 0.85357034 -0.00022416897 0.30999845 -0.0008793572 -0.0029948805 -0.35698152
0.001753801 -0.008672084 0.19304554 -0.0012094891 0.00021659023 -0.005652209 0.39340407 0.00033726587
0.00090179645 0.0021692978 -3.7465907e-06 0.46955234 0.0003265312 0.6728193 0.0011653512 -0.59223735
0.00023321061 -0.0006616106 0.0019071465 -0.57348734 -0.00033550864 0.2883914 0.00059381034 0.30335605

advantage_stream.weight f4 [2, 128]
00000000: 90b7 ac3d 52c3 b1bd 879b 823d 6bea 1a3d
00000010: ced0 303e 90a2 14be 3987 61bc e1ea 153c
00000020: 8a1b d5bc fe33 a33d f4a2 86bd 3a54 65be
00000030: 4e07 bd3d 7c06 183e 4f03 b33b 7c59 c7be
00000040: 1387 293e 0982 3d3e e4c7 4ebe a1f0 543d
00000050: 27fc b93d c9d7 57be c02f 303d 0e6c c9bc
00000060: 6b4b 283e 40c4 993c c94d 2e3d 39d9 c6bd
00000070: 92ca cb3c 86d9 fa3c 1245 803e 4851 8ebc
00000080: 5e9a a63e e729 653a ecef 063e 9684 32bd
00000090: 04b9 47be 6c44 78bd 9e01 4abc 3017 ab3d
000000a0: 0aab adbc 8332 1abe 0b6f 96be ee00 28be
000000b0: cffc 5ebb 276e d1bc 6c10 a9bd 8815 fdbc
000000c0: 6c4b d6bc ecbe ae3d f1c6 4f3d 8778 c1bd
000000d0: b60b 80be a270 193d ff56 793e c7a0 2e3d
000000e0: 3904 80be 8543 733d 53a0 0fbc 3cb6 c3bd
000000f0: 0faf 123e 6bc7 5a3d d2aa 893d 1742 553d
00000100: b535 1ebe fe03 d03d 0608 ee3d f1ea 083c
00000110: 17fb 82bb bc6c 9c3d 53d9 7abd ec58 f73d
00000120: fd9d fcbc ef58 263e 9626 4fbc 84b7 cebe
00000130: de22 e03d f4ff a8be 5b69 5b3c eeaa be3d
00000140: 3b49 7bbd 206b 1a3d 2087 c9bc 9e29 c2bd
00000150: c2b9 b43e cc46 c73d 1f6a 143e 1d40 9fbd
00000160: 58aa 7fbe 5991 7dbd 8553 763c bd09 0abc
00000170: 2328 6abe 4575 473d ffeb 06be f4d9 133e
00000180: 050b 1a3d 6123 633d 5b8d c33d acf3 2dbc
00000190: 1a47 973d 20e9 a4bc 3edf 293d 35d7 4fbe
000001a0: 8b44 133e a1e3 16bd caff dd3d c89a 0b3d
000001b0: c5f6 8bba 76be 0f3e 1581 6f3e 4faa 24bb
000001c0: c529 b2bc 1b61 4fbd 083b 5f3d 58d6 a33d
000001d0: ddac 0dbe 3f18 8dbc 4ad4 7b3a ef22 a93d
000001e0: 2f01 f73d 8b58 eebd 050d cdbd 2ce8 d1bc
000001f0: f1a9 6ebd 26f7 7e3d 66fd 3f3d 0436 efbc
00000200: f2d5 a93d 4433 043e ed79 7d3d 0fbb 193d
00000210: 6090 d93d 2e71 c03d d967 35bd b360 5d3c
00000220: 74bd 19be aa45 a03d ac73 8fbd eae9 c03e
00000230: 4245 b93d a4ee 2d3e 852a fb3b 575e b13c
00000240: f5b6 283e 4b23 3e3e f2da 903e 6bea 5c3d
00000250: 6025 03bd 8761 59be 3d6b f0bd c374 62bc
00000260: 4d79 f23d 7f70 f03d dd3d 343d cdc4 c3bd
00000270: 3622 e03c ca80 143c 50f3 723e 51fa 95bc
00000280: 05f4 66bd 9b3b b33a fd5f 053e 60b1 2cbd
00000290: f654 46be e2fe 6fbd 8205 51bc fec0 873e
000002a0: 51b5 083e 772b 87be 5548 eb3d 7964 df3e
000002b0: d195 24ba cb4e c13d 94f5 2d3e f00b 52bd
000002c0: f39c f53d aa0b 953d 233f 523d efe6 c4bd
000002d0: b643 753e 52f8 083d d2db 8d3e ab6b 66bd
000002e0: 73cf 81be 3031 7e3d 6353 d4bb 4259 bebd
000002f0: 6c7b 153c f745 a9be 92bb 823d df2d 4bbd
00000300: 3ec1 7e3d 0987 ba3e 2e73 ec3d 7c85 bd3b
00000310: 2e52 b2bb c151 883d 7cd1 79bd 9975 fd3d
00000320: da49 01bd 7185 293e 71fb 43bc a092 ab3e
00000330: faae e23d ff42 a23c eb28 fe3c dd38 bbbe
00000340: 2fa1 80bd b27e 133d 7da6 68bd 16a0 be3d
00000350: 81bc bcbd e671 cf3d af1a 113e 850c a5bd
00000360: 0064 6dbc d5b2 543e 93eb 5c3c ff52 64bd
00000370: 4c5b 3f3d 3b60 3b3d abc9 7e3e 0e43 153e
00000380: f979 d3bd 2790 753d 1970 c73c 382f 4dbc
00000390: 403d 903e c859 9abc e25a 383d ad76 2c3e
000003a0: f9ff 0f3e b1ea 12bd 9fff 27bd 69af 0d3d
000003b0: f935 98ba fe60 133e 214b 85bd 43b9 5bbb
000003c0: 7df1 bbbc 6fc8 5cbd 589b 563d 863c cdbc
000003d0: 0bbe 0ebe 6949 e23c 0c43 2eba 2fdd f7bb
000003e0: aeff fc3d 7ddc ecbd c31c d5bd fbee 68bd
000003f0: ab4a 6abd ba25 1d3b e24e 393d 83b5 a63c
0.08433449 -0.086798325 0.06377321 0.037821215 0.17267153 -0.14515138 -0.01376515 0.009150238
-0.026014108 0.07968901 -0.065740496 -0.22395411 0.09229909 0.14846224 0.005463041 -0.3893546
0.16555433 0.18506636 -0.2019344 0.051987294 0.09081297 -0.21078409 0.043014288 -0.024587657
0.1643502 0.018770337 0.04255465 -0.09709401 0.024876866 0.030621301 0.25052696 -0.017372742
0.32539648 0.00087419007 0.1317746 -0.043583475 -0.19504172 -0.060612127 -0.012329487 0.08354032
-0.021199722 -0.15058331 -0.29381594 -0.16406605 -0.0034025197 -0.02556522 -0.08255085 -0.030894056
-0.02615901 0.08532509 0.050726835 -0.09446817 -0.25008935 0.03746093 0.24349593 0.042633798
-0.25003222 0.059390564 -0.008766252 -0.09556243 0.14324592 0.053412836 0.067220345 0.05206498
-0.15450175 0.101570114 0.11622624 0.008356796 -0.0039972174 0.07637927 -0.061242413 0.120775074
-0.030837053 0.16244863 -0.012643477 -0.40374386 0.109441504 -0.33007777 0.013391818 0.09309946
-0.061349135 0.03769982 -0.024600565 -0.09480594 0.35297972 0.097303 0.14493607 -0.077759005
-0.24967325 -0.061906192 0.015034561 -0.008425173 -0.22866873 0.04869582 -0.13175963 0.14438611
0.037608165 0.05545366 0.09548446 -0.010617178 0.073866084 -0.020130694 0.041472666 -0.20296939
0.14381616 -0.036838178 0.108398035 0.034083158 -0.0010678401 0.14037499 0.23389085 -0.0025125926
-0.021748433 -0.050629716 0.054499656 0.07999867 -0.13835473 -0.017223476 0.00096065237 0.08258616
0.12060773 -0.11637982 -0.10012249 -0.025623403 -0.058267538 0.062247418 0.04687252 -0.029200561
0.0829276 0.12910181 0.061883856 0.03753191 0.106232405 0.09396587 -0.04428849 0.013511824
-0.15013677 0.07825787 -0.070044845 0.37678462 0.09046413 0.16985565 0.007664981 0.02165143
0.16476043 0.1856815 0.28292042 0.053934496 -0.032018065 -0.2122861 -0.11739204 -0.0138217835
0.118395425 0.11740207 0.04400431 -0.09559021 0.027360063 0.009063909 0.23725629 -0.018307837
-0.05638506 0.001367438 0.13024898 -0.042161345 -0.19368348 -0.058592685 -0.012757661 0.2651443
0.13350417 -0.2640035 0.114884056 0.43631342 -0.0006278428 0.09438857 0.16988212 -0.051280916
0.11992826 0.07277615 0.051329743 -0.096143596 0.23951611 0.03343994 0.27706772 -0.056255024
-0.25353584 0.062058628 -0.006479667 -0.09294368 0.009123664 -0.3306119 0.063834324 -0.049604293
0.06219601 0.3643115 0.11545406 0.005783735 -0.0054419255 0.06656218 -0.060990795 0.123759456
-0.03156457 0.1655481 -0.011961804 0.33510303 0.110685304 0.019807337 0.03102537 -0.3656682
-0.06280743 0.036009498 -0.0567994 0.09307878 -0.09215642 0.10129146 0.14170335 -0.080590285
-0.014489174 0.20771344 0.0134839 -0.055743214 0.046717927 0.04574607 0.24881618 0.1457636
-0.10325999 0.059951928 0.024345445 -0.012523465 0.2817173 -0.01884164 0.045008548 0.16842146
0.1406249 -0.03586835 -0.041015264 0.034591112 -0.0011612765 0.14392468 -0.0650847 -0.0033527173
-0.022942299 -0.053902086 0.05239424 -0.025053274 -0.13939683 0.027622895 -0.0006647564 -0.007564209
0.123534545 -0.11565492 -0.104058765 -0.056868535 -0.057200115 0.0023978786 0.045241244 0.020350223

advantage_stream.bias f4 [2]
00000000: 3dfb eabd 3dfb ea3d
-0.11473701 0.11473701
