src/weights/Dueling_Double_DQN_Prio_n_step_4_adaptive/weights/most_recent.pth (torch, 307504 bytes, 7 tensors)

layers.0.weight f4 [256, 18]
000000 1f f2 79 bd 65 92 d0 be c6 34 cf 3e f9 c5 00 bc
       -0.06102192 -0.4073669 0.4046995 -0.0078597
000010 81 88 86 3d 09 58 82 3d a3 38 16 3c 82 9d b0 bd
       0.06569005 0.063644476 0.009168777 -0.08623792
000020 8b f1 89 3d 22 9d 50 3d 6d 4c 10 3c 69 c3 8a 3d
       0.06735524 0.050931104 0.008807284 0.06775553
000030 1d e5 0e bf c7 e1 b0 be 89 6e 87 be 5a 85 6a be
       -0.5581835 -0.34547254 -0.2645152 -0.22902432
000040 8f a7 61 bf 92 49 53 3e a7 70 b1 be 3a a8 40 be
       -0.881463 0.20633534 -0.3465626 -0.18814173
000050 2f 24 93 be 09 0a 1f 3d 3f bf 54 3d 4c 39 bc 3c
       -0.28738543 0.03882793 0.0519402 0.02297654
000060 9b c4 8f 3d de 5b 9b 3e c6 78 4a 3e 29 60 82 3d
       0.070199214 0.30343527 0.19772634 0.06365997
000070 01 60 ce bd 04 15 f5 bd 1d 9b 73 bd 96 5e 5c 3f
       -0.10076905 -0.11966899 -0.0594741 0.86081827
000080 e4 4e 63 bd 95 64 92 3e 69 b6 a2 3e 26 70 6d bd
       -0.055495158 0.28592363 0.31779793 -0.05796828
000090 49 68 fa 3d f6 07 33 be c3 47 65 bd c0 90 c7 3b
       0.12226922 -0.17483506 -0.05597664 0.0060902536
0000a0 cc db 89 3d 23 3d 18 bd 84 52 f0 bd c5 a7 19 3d
       0.06731376 -0.03716768 -0.117344886 0.037513513
0000b0 55 4d b4 3e 75 af e9 bc ca b9 af 3d 97 b0 d2 bd
       0.3521525 -0.028526047 0.08580358 -0.10287588
0000c0 e6 33 c5 be e8 58 0f 3f 95 75 ca be 60 38 40 3d
       -0.38516158 0.55995035 -0.39542833 0.046928763
0000d0 24 38 33 3f 4c 47 44 be b3 24 e9 3d 7f da 22 3c
       0.7000754 -0.19167823 0.11383953 0.009939789
0000e0 74 e8 80 bd 8d 0a e5 3b b7 cc b6 bc 2d d8 cc 3c
       -0.06294337 0.006989783 -0.022314413 0.025005424
0000f0 11 14 3a bd 6d c8 b4 bd 17 25 29 3e ac 76 8a 3d
       -0.045429293 -0.08827291 0.16518055 0.06760916
000100 5c c2 a0 bc 8d 43 d3 3a 15 68 ee be 5b ee 30 be
       -0.019623928 0.0016118154 -0.46563783 -0.17278425
000110 82 04 d2 be 73 38 7e bc b8 71 2e 3f b7 fa 35 3f
       -0.41019064 -0.015516388 0.6814227 0.71085685
000120 e4 1c a4 be 25 4f 44 3e 54 7f f5 3d 91 6d bd bc
       -0.32053292 0.19170816 0.119871765 -0.023123534
000130 ae 1b 2d 3d bc 07 1f 3c 81 74 4f be e2 13 f0 3c
       0.042262726 0.009706434 -0.20259286 0.029306356
000140 19 07 6e 3e 82 dc a6 bc 22 44 18 ba 88 62 45 bc
       0.23244895 -0.020368818 -0.00058084924 -0.012047417
000150 c6 06 4a 3f 0c 9d 3a be 41 b9 f0 3d f3 23 51 be
       0.78916585 -0.18223971 0.117540844 -0.2042387
000160 ae 27 8c bd fe f0 5d be b9 19 0d 3e 63 20 70 be
       -0.06843506 -0.21673962 0.13779344 -0.23449855
000170 07 b3 6d 3d e2 43 6b bd 01 01 e9 3c d9 70 2f 3c
       0.058032062 -0.057437785 0.028442862 0.010708057
000180 d7 97 21 bc ed ea d1 3d a4 8d a5 3f 97 08 da bd
       -0.009862862 0.10249887 1.293385 -0.1064617
000190 6f 7a 2b 3d 75 c8 89 be c1 74 66 3d e9 e4 2c bd
       0.04186481 -0.2691075 0.05626369 -0.042210493
0001a0 0b 83 c1 3c 26 c1 2e bd cb ef 88 bf 71 e2 06 3e
       0.023622056 -0.04266467 -1.0698179 0.13172318
0001b0 7a a3 40 be 2c ab ac be 17 f1 f7 3d 7a 86 f5 3c
       -0.18812361 -0.33724344 0.12106531 0.02997135
0001c0 fc 20 98 3c 63 05 bc bc 6f 70 72 bc 2f cf b5 3c
       0.018570416 -0.022951787 -0.014797314 0.02219352
0001d0 dc 63 05 3d 59 0c fe 3d 86 45 a2 3c ef 31 b9 bc
       0.032565936 0.12404699 0.019808542 -0.022606818
0001e0 c5 38 e2 bd ab 8e 02 bf a3 99 9e be 6d 8c 74 3b
       -0.11045984 -0.50998944 -0.3097659 0.0037315146
0001f0 aa 54 f9 bf b4 b6 6f bd a5 da 84 3e b6 06 69 3f
       -1.9478962 -0.05852385 0.25948063 0.91025865
000200 6f 06 3f bd e5 d6 8d bd d5 e2 87 3c be a5 99 3b
       -0.046636995 -0.069257535 0.016587654 0.0046889475
000210 57 b9 d6 3e f9 ee 69 be 5a 90 bc bc d0 81 6a bb
       0.41938278 -0.22845067 -0.023018051 -0.003578294
000220 f5 59 99 3c 2a ca b6 3a af 97 9c be 2b 77 d2 be
       0.018719653 0.0013945748 -0.30584475 -0.41106543
000230 79 61 04 3e 18 29 73 bc 6b f7 80 bd 75 e6 01 bd
       0.12927808 -0.0148413405 -0.06297191 -0.03171392
000240 b8 69 fa be 98 1e 53 be 95 ec 16 be b5 13 a0 bc
       -0.48908782 -0.2061714 -0.14738686 -0.019540647
000250 34 13 9e bb a2 2c 99 3c 70 26 4b 3d 2f a5 9c bd
       -0.0048240665 0.01869804 0.049597204 -0.07648694
000260 a5 22 44 be 66 1d 10 bb f5 5f 03 be 48 31 b0 bc
       -0.19153841 -0.002199018 -0.12829573 -0.021507874
000270 a9 bf 99 3e cf 16 ba 3e bd 9a 8c 3e 2d df 1a be
       0.30029038 0.36345527 0.27461806 -0.15124197
000280 c4 d5 41 3f e8 4f 11 bc 7d b4 94 3e 48 16 01 bd
       0.75716805 -0.008869149 0.29043952 -0.03151539
000290 62 87 cb bd 63 0c d4 3d 40 6a 17 bd da ce 08 bd
       -0.099379316 0.10353925 -0.036966562 -0.033400394
0002a0 51 18 01 3e 54 c2 49 3e c1 1b 3a 3e b7 11 8f 3d
       0.12606932 0.19703037 0.1817465 0.06985801
0002b0 52 6c ab bd 16 bc c4 bb e6 32 46 bf 7c 0c dc 3e
       -0.0837027 -0.006003867 -0.77421415 0.42978275
0002c0 6b f1 64 be 30 d5 83 3e 82 02 07 3f 8c 46 81 be
       -0.22357719 0.25748587 0.527382 -0.25249135
0002d0 da bf c0 bd 0a 48 c0 be f5 b5 9c 3e 02 0b 7e 3c
       -0.09411593 -0.3755496 0.30607572 0.015505554
0002e0 8a 73 13 3d 92 18 7f 3c 13 a1 7a be aa 8a ca bd
       0.03599886 0.015569823 -0.24475507 -0.09889729
0002f0 51 9e aa be d8 a0 1f 3d 18 47 61 3d 86 ca b3 bb
       -0.3332391 0.038971752 0.05499944 -0.005486789
000300 af e8 78 bf 68 2b 84 be 2f c4 3e bd da 80 5f 3e
       -0.97230047 -0.25814366 -0.046573814 0.21826497
000310 96 95 1a 3f df 81 41 bb 7c 4f 94 bc c7 86 03 3e
       0.603845 -0.0029526872 -0.018104307 0.12844382
000320 9a 9a 06 bd 4b 04 58 bd b6 cd 60 3d 7d c6 32 bd
       -0.032862283 -0.05273847 0.05488368 -0.043646324
000330 d1 83 63 be 9a 00 a9 3d 53 9e 1b bf b2 17 f4 3d
       -0.22218253 0.08252068 -0.6078846 0.11918582
000340 71 b9 25 bd f5 1c e4 bd e3 bc 18 bf 26 7f b2 be
       -0.040460054 -0.111383356 -0.5966322 -0.34862632
000350 b7 68 0a be 5a a6 22 be 5e 39 40 3f 46 3c 9d bf
       -0.13516508 -0.1588377 0.75087535 -1.2284019
000360 f5 c9 3d 3f ba 80 e8 be c1 1d 82 bd 4a 05 d8 3c
       0.74136287 -0.4541071 -0.06353331 0.02636971
000370 14 b7 47 3d 8c 45 0a 3d c2 ea a7 be 10 f6 1d 3e
       0.04875858 0.03375773 -0.32796293 0.15425897
000380 05 ac 64 3e b2 d4 08 3e 82 7f b8 b9 b0 94 c1 3a
       0.22331245 0.13362387 -0.00035190216 0.0014769044
000390 bb 0c 65 3e 83 b5 74 be 75 a3 f0 3b ef ba ed be
       0.22368138 -0.23897366 0.0073437043 -0.46431682
0003a0 4e 3d 95 3e 9d 03 9e bf f4 2a 0e 3e 9e 82 4d 3f
       0.29148334 -1.2344853 0.13883573 0.8027743
0003b0 4a 97 fe 3e 9c 05 0e 3e a8 38 c7 3c af 42 e3 3c
       0.497248 0.13869327 0.024319008 0.027741758
0003c0 d0 de 4a 3d 09 e3 63 bd 78 2c 83 be cb f6 ae 3d
       0.049528897 -0.05563644 -0.25619864 0.08543166
0003d0 6a 6b 22 3b d1 f3 ae bd 37 70 1e be cb 3e 0c bf
       0.0024783262 -0.08542598 -0.15472494 -0.54783314
0003e0 dc cb 6f 3c 28 fc 5e 3e 92 06 18 be a2 7a c7 3a
       0.014636006 0.21775877 -0.14846256 0.0015219043
0003f0 07 89 3a be d8 08 1d 3e 44 90 16 3f 47 ca ce bd
       -0.18216334 0.15335405 0.5881388 -0.10097175

layers.0.bias f4 [256]
000000 78 96 be bd 4a 43 5b 3e 18 66 f8 be 9a 2a 18 bf
       -0.093060434 0.21412387 -0.4851539 -0.59440005
000010 32 bc 0d 3e bc 74 bd bd 58 9f 2a 3e 0a f3 47 3f
       0.13841322 -0.09250781 0.16662347 0.78105223
000020 31 74 d2 3e 3b 27 d9 3d 7a 3c d7 3c 81 3d 32 be
       0.41104272 0.10603186 0.026273955 -0.17406274
000030 cf a5 9e be 6b 94 80 3d 6d b7 82 be 40 0c 8f bd
       -0.30985877 0.062783085 -0.25530568 -0.069847584
000040 c3 ff 09 3f 6d 54 5c be 97 7d cf 3d 75 00 a3 be
       0.53905886 -0.21516581 0.10131376 -0.31836286
000050 76 03 94 be 50 58 1b 3e a6 5f 44 3e d5 70 06 3f
       -0.2890889 0.15170407 0.19177112 0.5251592
000060 a7 1b 54 be da b3 1b 3f 7e 24 02 bf 41 3c 54 3e
       -0.20713674 0.60821307 -0.5083693 0.2072611
000070 ed 51 e5 3b 3d 70 22 bd 83 cb b5 3e 51 83 82 3e
       0.0069982917 -0.03965782 0.3550683 0.2549081
000080 c8 a3 cb 3d bf d5 80 be f3 2b 0e bf 60 68 42 3d
       0.09943348 -0.25163075 -0.5553581 0.04746282
000090 b4 12 19 3e 74 69 9a 3d a6 5d 0e 3f 73 9b ec 3d
       0.14948541 0.07539645 0.55611646 0.11553087
0000a0 22 d8 fb 3d 50 60 b4 3e ba 1a fb be cc 06 a7 3e
       0.122970834 0.3522973 -0.49043828 0.32622373
0000b0 ae 7d 99 be 53 b5 98 be 76 2a 23 be 3a c8 b5 3e
       -0.29978698 -0.2982584 -0.15934166 0.35504323
0000c0 59 36 a3 3e d4 03 0b 3f 75 60 06 3f 97 6c 02 bf
       0.318774 0.54302716 0.5249093 -0.50946945
0000d0 b3 07 57 3e 84 e3 00 3d 3d 06 a4 3e 8d b4 be 3c
       0.20999031 0.031466976 0.3203601 0.023279453
0000e0 97 9c 66 be bd 96 a0 3e b9 8c 73 3f ed b3 4b 3e
       -0.22520672 0.31365004 0.951366 0.19892855
0000f0 4f d3 b8 3e 8b 63 9d be 00 bf e2 3e ea bc 80 3d
       0.36098716 -0.30740008 0.44286346 0.062860325
000100 ed a6 ae bd 3b bf ee 3c 4a 8f 05 3e d4 26 1f bd
       -0.08527932 0.02914392 0.13042942 -0.03885539
000110 6d 61 fe be 8e fe de 3e 57 2a 0f be 06 06 5d bd
       -0.49683705 0.43553585 -0.13980995 -0.053960823
000120 31 df cf 3e 08 02 dc be 21 a7 a2 3e d8 a6 16 3f
       0.4059997 -0.429703 0.31768134 0.58848333
000130 8a f1 af be 98 74 c4 3e 37 de cc 3e 49 6f b7 3e
       -0.34363967 0.38370204 0.40013286 0.3582709
000140 85 d3 f6 be d0 6c 92 3d 7f 3a 47 3e d3 b3 ea 3d
       -0.48208252 0.071496606 0.19455908 0.1146008
000150 46 e0 81 be 56 3e 01 3f c1 f1 b5 3e c1 fb cf 3c
       -0.2536642 0.5048574 0.35536006 0.0253886
000160 3d ff 59 3e 80 31 59 be 53 63 2a bf 2d d0 67 bd
       0.21288772 -0.21210289 -0.66557807 -0.056595016
000170 9d ea 7b 3c a2 60 a7 bd 86 58 60 3d 85 6d 24 bf
       0.01537576 -0.08172728 0.054771923 -0.64229614
000180 ca d2 04 bf bc 7b 2c 3d ed 4a 41 3e 3d 49 cf 3e
       -0.5188414 0.04211019 0.18876238 0.40485564
000190 f0 00 26 bf 7f e4 48 be db 7d c2 be 88 da 39 3e
       -0.6484518 -0.19618414 -0.37986645 0.1814977
0001a0 34 3d 0c bf 09 cd 5d 3f 3e 03 57 3e 89 52 0d bd
       -0.5478089 0.86640984 0.2099733 -0.03450254
0001b0 36 b5 fa 3c c3 bf 5b 3e 79 31 5e be 3e 21 1a 3d
       0.030603986 0.2145987 -0.2169856 0.03762936
0001c0 6e 04 74 bc 92 87 12 bf 63 0a 21 3e 06 33 32 3d
       -0.014893634 -0.57238114 0.15726618 0.04350569
0001d0 f8 60 94 be f3 1b 4a 3e 9c 92 45 3e c8 b4 48 bd
       -0.2898023 0.19737224 0.19294208 -0.04900053
0001e0 38 25 5f bd 64 95 fc bd db 42 97 bd 2c 05 22 bd
       -0.054478854 -0.123331815 -0.073857985 -0.039555714
0001f0 ca 68 c3 3e f3 60 9b 3d 5a 5d b4 3e 46 fd ec 3d
       0.38165885 0.07586851 0.35227472 0.115717456
000200 3e 19 96 3e 0e 57 c5 bd f4 cf 0b 3e 1f 83 37 3c
       0.29316133 -0.09635745 0.13653547 0.011200695
000210 05 8a f5 be b3 75 c2 be d4 6f 13 3e 08 ff 9c 3d
       -0.47956863 -0.37980422 0.14398128 0.07665831
000220 c8 b6 dc 3d 17 9b 23 bf 73 44 0e bf d5 e0 42 bc
       0.1077705 -0.63908523 -0.55573195 -0.011894424
000230 df d7 70 3e f6 67 b7 3d bd 20 7c be e3 71 85 3e
       0.23519848 0.08955376 -0.24621864 0.2606345
000240 30 0b af 3e 3e 12 0a bf 4d a5 dc bd 3c 32 dc bd
       0.34188223 -0.53934085 -0.10773716 -0.10751769
000250 1d 1b d8 bd 8f e1 0a 3e 49 23 95 3e 66 94 9f bd
       -0.105520464 0.13562606 0.29128483 -0.07791977
000260 25 c4 44 be b7 3a c8 bd be 70 f3 be c7 45 d3 3d
       -0.19215448 -0.09776824 -0.47546953 0.10316043
000270 0f b8 7d 3e b2 75 24 3e 19 23 88 be e9 b9 44 3e
       0.24777244 0.16060522 -0.26589277 0.19211544
000280 5e 9c 81 be 27 24 ef 3e a6 60 1c be 63 39 b7 bc
       -0.2531461 0.4670727 -0.15271243 -0.022366231
000290 0d 1f 9d 3e 09 2d 06 3f b0 a3 76 3d 05 f6 86 3c
       0.30687752 0.5241247 0.0602147 0.016474733
0002a0 5c 98 69 bb 57 17 89 bf f1 47 07 bd db fe d5 3e
       -0.0035643792 -1.0710248 -0.033027593 0.41796002
0002b0 c1 84 0c bf df c0 af be 89 e7 ad be b5 8d cb bd
       -0.54890066 -0.34326836 -0.3396571 -0.09939138
0002c0 de 75 3c 3f 7c de 98 3e 9c 40 73 3d 2c 38 58 bd
       0.7361735 0.29857242 0.05938779 -0.052787945
0002d0 a9 75 3b 3e cb f1 89 be f6 08 85 be c9 14 b7 be
       0.18306603 -0.26942286 -0.259834 -0.35758045
0002e0 63 8e d0 be e9 b5 3e 3e 0d 61 cb bd 76 95 b7 bd
       -0.40733632 0.1862408 -0.0993062 -0.08964054
0002f0 41 f4 ee bd 04 ec c9 bd 7c 75 aa 3e 7d de 46 3e
       -0.116676815 -0.098594695 0.33292758 0.1942081
000300 60 00 71 be 42 e6 c1 be b2 d9 8e be f5 6a 5a 3d
       -0.235353 -0.37870985 -0.27900463 0.05332466
000310 65 15 44 3f a9 61 01 3f 65 9d 82 3d f0 e2 43 3e
       0.76595145 0.5053964 0.06377677 0.19129539
000320 e5 01 66 bf 88 c0 97 3e 42 f8 71 be 68 2e 82 3e
       -0.8984664 0.29639077 -0.23629859 0.2542603
000330 ac 50 48 3e 4f 05 82 3d 28 f3 85 3e 2b 51 58 bd
       0.19562024 0.06348669 0.26162076 -0.052811783
000340 b3 f1 01 3e fb db 25 3e 7d 4d c2 bd 4e a5 f7 3c
       0.12689857 0.16197197 -0.09487436 0.03023019
000350 b9 43 54 bf 41 c8 9a 3e 2f ce cd 3e 89 bf 07 3e
       -0.82915837 0.30230907 0.40196368 0.13256659
000360 32 ee fc be da 43 e8 3c 98 e0 54 3d 7a 36 9e bd
       -0.4940048 0.028352667 0.051972 -0.07725234
000370 af c8 3d be 6a d6 e3 bb 3d 09 e2 3c 05 40 13 3f
       -0.18533586 -0.0069530504 0.027592296 0.5751956
000380 d9 4d 6b bd 5f 11 05 3e 0a 63 e7 3e 1f da 3e be
       -0.05744729 0.12994908 0.45192748 -0.18637894
000390 2f 1f ef be c8 01 b8 3c 71 49 f7 bb 0d d1 3a bf
       -0.4670348 0.022461787 -0.0075465967 -0.72975236
0003a0 58 73 50 bd df 12 26 bf fa bd 66 3e 42 b3 64 3d
       -0.05089125 -0.64872545 0.22533408 0.055835016
0003b0 a3 bb b2 3e ce 50 d0 be 88 b2 5a 3e 63 5a dc be
       0.3490878 -0.4068665 0.21357167 -0.4303771
0003c0 bb 25 b0 3d 2e 50 0d bd 61 ea 23 3f 03 c7 4e bf
       0.086009465 -0.034500293 0.6402951 -0.8077242
0003d0 0a 4b 82 3b 57 3f b9 3e 70 be 62 be c7 71 af bd
       0.0039762305 0.36181137 -0.22142959 -0.08566623
0003e0 72 06 fb 3e d1 b4 1f 3f 98 ed 38 3e 10 97 fd bd
       0.49028355 0.6238528 0.18059385 -0.123823285
0003f0 3e 80 30 be ff eb d8 be d5 da 09 3e bf d8 a8 be
       -0.1723642 -0.4236755 0.13462384 -0.32977864

layers.1.weight f4 [256, 256]
000000 e1 11 1e bd a2 eb ad 3e cc 63 cb 3d 85 3d 1e bd
       -0.03859127 0.33968836 0.09931144 -0.03863289
000010 18 84 98 bd 45 ed a9 3d cf 43 84 3b 45 07 18 3e
       -0.0744707 0.08297209 0.0040364037 0.14846523
000020 6f a3 0b be 65 dc 4e 3e 84 b3 5d 3e cd 0a 3d be
       -0.13636564 0.20201261 0.21650511 -0.18461151
000030 bb ad 08 be 5c 6f bd 3d 54 8c 04 be ae 3d 65 bc
       -0.13347523 0.09249756 -0.12944156 -0.013991756
000040 f3 4d 3c bd bc e6 a0 bc c3 f2 74 3e 3d f7 f0 3d
       -0.045972776 -0.019641273 0.23920731 0.11765907
000050 46 ba d1 3d 9e 92 17 bd cd 1a 8b 3e e3 70 02 bd
       0.10240607 -0.03700506 0.27168885 -0.03184594
000060 38 6b 79 be 78 0f 0f 3e a1 61 f0 3d 33 a3 0b 3d
       -0.24357307 0.13970745 0.11737371 0.034091186
000070 ef 32 a2 3c f2 37 11 3e 3d c2 95 bc 9a 33 52 3e
       0.019799678 0.14181498 -0.018281097 0.20527497
000080 4b 24 bb 3d 59 ac 3a bd 48 fd 9b 3e c6 d9 f7 3c
       0.09137782 -0.04557452 0.30466676 0.03025521
000090 25 a2 b5 3e c8 aa 3e be 50 d9 42 3e bd 1e c7 bc
       0.3547527 -0.18619835 0.1902821 -0.02430665
0000a0 fd 80 34 be 6a e3 50 3b c1 33 12 3c 5f 17 29 bc
       -0.1762733 0.003187383 0.008923472 -0.0103205135
0000b0 2e cb cb bd 8d 0e b5 bd 56 33 fc bc 93 da a7 3e
       -0.09950863 -0.08840666 -0.030786198 0.32783946
0000c0 c3 ba 26 3d 3c 46 e9 bc a1 d7 1e 3e 3d 34 ce bc
       0.040705454 -0.028475873 0.15511943 -0.025171394
0000d0 d6 2a c4 be 0c a6 b5 3d cb 8c f7 3d a4 7f c5 bb
       -0.3831393 0.088695616 0.12087401 -0.006027179
0000e0 86 ea d2 3d 66 0d c9 3d 4d ae 7d be b7 c9 97 bd
       0.10298638 0.09817009 -0.24773522 -0.07411521
0000f0 89 59 69 3e d2 74 58 3d 82 10 cd 3d 8a 80 84 bd
       0.22788061 0.052845784 0.10012914 -0.064698294
000100 b7 cb c4 bd ed 7c 50 be e9 38 6d 3e e7 c6 97 be
       -0.09609168 -0.20360155 0.23166241 -0.29643938
000110 d5 a6 09 bb e8 93 19 3e fc ef 20 be f9 5d 81 3e
       -0.002100398 0.14997828 -0.15716547 0.25267008
000120 0c 81 31 be b6 4e 89 3c 1b ad ca bc cc c1 05 bd
       -0.17334384 0.016761165 -0.024740746 -0.032655522
000130 cf a8 94 be 6a d2 96 be 7e f8 b1 3d 5f 48 28 3e
       -0.2903504 -0.29457408 0.08689974 0.16433857
000140 85 a1 e5 3e 50 b6 a6 3d fb d6 62 bd 68 aa 37 3e
       0.44849792 0.08140242 -0.055380803 0.17936099
000150 ed a2 a9 bd 4e ca c6 bc ed 5d 5f 3e 27 4a 90 3e
       -0.08283029 -0.024266388 0.21813174 0.28181574
000160 1b a7 6d bd 7c 19 b7 be b1 09 27 bd 77 3d e0 bd
       -0.058020692 -0.3576163 -0.040780727 -0.109492235
000170 d7 f0 0a 3e a2 c4 8b 3e 3e c4 ef bc 1f 07 83 bd
       0.13568436 0.27298456 -0.02926838 -0.063978426
000180 ea 7c c2 bd ca 7c 8f 3e 71 56 d9 bc 29 20 16 bd
       -0.09496482 0.28024894 -0.026530476 -0.036651764
000190 57 4a 5e be de 81 97 bd f4 fd c7 3d 8e d4 aa bd
       -0.21708046 -0.07397817 0.097652346 -0.08341323
0001a0 a3 c4 63 3d bd c6 15 3e b8 98 f6 3c 1d 37 27 3c
       0.05560745 0.14626594 0.030102119 0.010206011
0001b0 24 bb 8d be 58 e1 65 3e 8c 87 8c 3e 60 cd c9 3c
       -0.2768184 0.22449243 0.27447164 0.024634063
0001c0 7f 8d f9 3d 31 a1 47 3d 21 6f 19 3e c4 89 6c 3e
       0.12185191 0.04873771 0.14983799 0.23099428
0001d0 23 cb a8 bd 95 30 21 3e e2 f9 84 bd 89 61 a1 bd
       -0.0824187 0.15741189 -0.06492974 -0.078799315
0001e0 d8 b2 73 3d 42 34 81 3d 46 51 a2 3d 23 17 82 be
       0.05949673 0.063087955 0.07925658 -0.25408277
0001f0 8d a3 00 3d 43 04 10 3e 3f 5b b6 bd cf 6e 0d be
       0.031405974 0.14064126 -0.089041226 -0.13811801
000200 74 23 2c be 97 d5 1a 3e 86 93 c1 3d 80 86 84 3e
       -0.168104 0.1512054 0.09451966 0.25883865
000210 91 8e 00 bd 8b c3 35 bd 38 75 2a be a0 10 22 3e
       -0.031385962 -0.044375937 -0.16646278 0.15826654
000220 5b 59 83 3e 37 6b a0 3d 1e 64 87 be 6b fc eb 3d
       0.2565411 0.078329496 -0.2644357 0.11522754
000230 60 e7 e8 bd 5e 35 16 bd 35 76 09 be f5 11 ad bc
       -0.11372256 -0.03667199 -0.13423999 -0.021126727
000240 e1 17 bc 3d c1 a4 2b be a5 bd 8d 3e 38 dc 8d 3b
       0.09184242 -0.16762067 0.2768375 0.0043292306
000250 44 2d 39 3b 92 f0 77 be bb a9 d0 3d b4 e0 5c bd
       0.002825574 -0.24212864 0.101886235 -0.05392523
000260 11 24 48 be 90 76 95 3d 9f 82 2a 3d 48 fe 83 3d
       -0.19545008 0.072980046 0.041628476 0.06444985
000270 1f 05 77 3e d9 7c 69 3d d2 77 8c bd 14 9b 32 3e
       0.24123047 0.05700383 -0.068587914 0.1744197
000280 f6 27 4f be 07 4e 37 be f4 ce dc 3e 7e 2d 0d be
       -0.20230088 -0.17900859 0.43126643 -0.13786885
000290 43 c4 10 be 6a f1 44 be 2f 4f e2 bb 9f 00 10 3d
       -0.14137368 -0.19232717 -0.006906412 0.035156842
0002a0 82 0e 90 be 31 e3 23 be 55 c4 b1 3d 0c bd 8c 3d
       -0.2813607 -0.16004635 0.086800255 0.06871995
0002b0 34 82 df 3d 89 8b ca bc e1 08 d7 bd d5 5e c5 bd
       0.10913506 -0.024724739 -0.104997404 -0.096372284
0002c0 96 56 51 3e c5 b9 7d 3e d5 85 a6 be 5c 35 5e 3e
       0.20443186 0.24777897 -0.3252398 0.21700042
0002d0 db dd 96 3d 59 cc d1 bd e4 cf 0f be 9f 86 78 3d
       0.07366534 -0.10244054 -0.14044148 0.06067526
0002e0 46 c5 7b bd 64 3f d3 3d f7 de b7 3e 11 10 34 3e
       -0.06146743 0.10314825 0.35912296 0.17584254
0002f0 82 db b2 3d c5 33 bd bd f3 70 be 3e 12 c0 d8 3d
       0.08733274 -0.0923839 0.37195548 0.105835095
000300 b1 e4 88 bc 20 2a 92 be 40 02 0b 3f 2b 80 95 3e
       -0.016710611 -0.28547764 0.5430031 0.29199347
000310 30 f5 c3 3d 68 5f b0 3e 0c 0d 42 bd 45 4f 53 3d
       0.0956825 0.3444779 -0.047375724 0.05158927
000320 fd 3f a1 3d 06 d7 25 3e 68 09 2d be 9d f0 53 bd
       0.07873533 0.16195306 -0.1689812 -0.05174314
000330 95 de 60 3d eb 4f ea bd 79 5d 88 bd 48 4a cb bd
       0.05489977 -0.114410244 -0.066584535 -0.099262774
000340 b4 9a 31 bd 1f af 95 3d bf 74 02 be 68 89 09 3e
       -0.043360427 0.07308792 -0.12739848 0.13431323
000350 a8 8b 82 bd b0 b5 3a bd 03 28 14 3e 5d e1 b1 3e
       -0.063742936 -0.045583427 0.14468388 0.3474225
000360 47 0b e8 bd bf be 8a be d5 06 01 3e ba 1a 39 ba
       -0.11330276 -0.27098653 0.12600262 -0.00070611725
000370 28 d2 6d 3e 5e 98 ce bd 80 6d 3f 3c 2a 59 89 bc
       0.232247 -0.100876555 0.011683822 -0.01676615
000380 b7 c2 ad 3c 70 99 36 3c e5 22 76 bd 0f 34 a8 be
       0.021211011 0.011144981 -0.06009187 -0.32852218
000390 9c d2 ed 3a 62 a4 78 3e 70 97 24 3d 99 2c 89 3c
       0.0018144432 0.24281457 0.040183485 0.016744899
0003a0 48 ac 00 be a8 9e 71 3d dd ba 42 bb 23 1a 20 3e
       -0.1256572 0.058989197 -0.002971343 0.1563497
0003b0 b6 e7 79 3e 41 fa 28 3e 6a 5d 77 3e 90 ba d8 3d
       0.24404797 0.16501714 0.24156728 0.10582459
0003c0 f9 b0 18 3d 00 e8 94 be b5 01 1b 3d 1e a2 b6 bc
       0.03727815 -0.29083252 0.037843425 -0.0222941
0003d0 f4 88 31 be af 01 3e bd f3 bb 08 3d a3 cf 73 be
       -0.173374 -0.046388324 0.033382367 -0.23809676
0003e0 0d 22 ef bd 8f 03 97 3d 58 db bc 3d 29 d5 dc 3c
       -0.116764165 0.073737256 0.09221524 0.026957111
0003f0 52 56 88 3d 25 ab 04 3d e0 ba 86 bd 92 52 c6 bd
       0.06657089 0.03238978 -0.06578612 -0.09683718

layers.1.bias f4 [256]
000000 38 32 85 be ac f6 8c 3d 93 20 08 bd 48 9b a2 be
       -0.26014876 0.068829864 -0.03323419 -0.31759095
000010 bd 67 54 3c 64 ba 39 bd 39 3c 1a be 8f 7d d4 bd
       0.012964186 -0.04534377 -0.15062036 -0.10375511
000020 3d 23 18 3e d7 d0 9c 3e d4 69 6d 3e 85 b8 15 be
       0.14857192 0.30628082 0.23184901 -0.1462117
000030 7d 14 b0 3d 10 f0 f5 be 9c e1 89 bd 36 e2 ab bd
       0.08597658 -0.48034716 -0.06732485 -0.08392756
000040 3f d4 62 3d e8 af 77 3e 76 34 1b 3e b4 b9 8f bc
       0.055378195 0.24188197 0.15156731 -0.017544605
000050 bf 0c d0 bd 16 32 fa ba 17 95 91 3d 84 28 25 3d
       -0.10158681 -0.0019088413 0.07108515 0.04032184
000060 f3 a4 8c 3c e9 c0 89 3d 22 77 ab 3c 5b 5f 4a 3d
       0.017168498 0.06726248 0.02093083 0.049407344
000070 30 fa 84 3e e4 5b 45 bd dc 84 65 3d 60 9c 18 3e
       0.25972128 -0.048183337 0.056034908 0.14903402
000080 92 39 48 be 2f 8d 29 3d ec 02 2f 3e c8 7b 5e 3e
       -0.19553211 0.04139441 0.17090958 0.21726906
000090 dc 85 ee 3d e8 aa f8 3c ef 48 af bd fb fb 55 3d
       0.116466254 0.030354932 -0.08558833 0.05224226
0000a0 d2 cb 6c 3e 80 8f 68 3d 17 d6 b5 3d ec 1c 02 bd
       0.23124626 0.056777477 0.08878725 -0.031765863
0000b0 d3 11 c8 bd 5e ba b2 3d bc 4a e0 3d de d3 30 3d
       -0.09769025 0.08726953 0.109517545 0.043170802
0000c0 62 05 96 bd 24 0b 6d 3e f3 d0 e5 bc a2 cc d5 3d
       -0.073252454 0.23148781 -0.028053736 0.10439421
0000d0 98 4e 1c bc c2 a2 55 3e 9f fe a1 3c 15 e3 85 3e
       -0.009540223 0.20862868 0.019774733 0.26149812
0000e0 31 33 67 bd 78 b1 f3 3d ee d7 11 be 32 a9 ab 3e
       -0.056445304 0.11899084 -0.14242527 0.33527523
0000f0 52 4d f3 3c a6 d4 dd 3c a9 2e 03 bc 69 7e 3a 3d
       0.029699955 0.027078938 -0.00800673 0.04553071
000100 5f 85 b7 3c fd 20 ac 3d 4a 4d 5a 3e 5d d1 e5 bd
       0.022402463 0.084047295 0.21318546 -0.112215735
000110 75 f3 7b 3d 87 94 dc bc 49 26 8a 3c 60 25 43 be
       0.061511476 -0.026926292 0.016863959 -0.19057226
000120 3c 08 46 bc 23 b2 2a be 35 83 eb 3d e9 d6 e5 bd
       -0.012086924 -0.16669516 0.11499635 -0.112226315
000130 be 79 be 3d 78 f6 92 3d c8 dd 57 3e a8 7a d4 3d
       0.09300564 0.071759164 0.21080697 0.10374957
000140 00 73 12 bd 80 59 97 3d 3a 61 44 3e 80 2c 98 bd
       -0.035754204 0.07390118 0.19177714 -0.07430363
000150 18 8b 67 be 26 c1 78 bc 38 f3 32 3e d0 10 ba be
       -0.22611654 -0.015182769 0.17475593 -0.36340952
000160 25 ab 58 3c a3 04 72 3d d2 86 6b 3d e7 fa 96 3d
       0.013224398 0.059086453 0.05750162 0.073720746
000170 52 23 29 be b3 97 59 be 41 ce b9 bd 6f 3d 07 be
       -0.1651738 -0.21249275 -0.09072543 -0.13207029
000180 a6 8d da bd d8 a2 67 bb a1 41 2c be 3f 90 a9 3e
       -0.106715485 -0.0035344865 -0.1682191 0.33117864
000190 94 55 27 be d1 f4 5d be 96 3c f9 bd ae 8b 93 bd
       -0.16341239 -0.21675421 -0.12169759 -0.07204376
0001a0 23 0d 82 3e 0d bc c4 3d 57 42 16 3e 72 af 1c 3e
       0.25400648 0.0960618 0.14673744 0.15301302
0001b0 a6 71 52 bd 02 09 1b bd 17 36 8a 3a bb b4 63 3e
       -0.051377915 -0.037850387 0.0010544684 0.22236912
0001c0 49 80 18 3d a4 e8 51 3e 18 88 e2 bc f2 21 3e 3c
       0.037231717 0.20498902 -0.027652785 0.011604773
0001d0 8d 99 aa bd 81 1b 03 3d df 4f 7d bb bb d2 7d be
       -0.08330069 0.03200865 -0.0038652343 -0.24787419
0001e0 30 3f 53 3e 30 cb 27 be de 85 4e 3e 2a 38 0d 3e
       0.20629573 -0.16386104 0.20168254 0.13790956
0001f0 b7 55 06 3d ca 6f 5b bd 5c e8 52 bd e1 c7 14 be
       0.032796588 -0.053573407 -0.051491126 -0.14529373
000200 1b 6a 9a 3c 2c aa 05 3d 36 79 f5 3d cf 11 25 be
       0.018849423 0.03263299 0.1198601 -0.16120075
000210 5d 7c a7 3d cb fa 29 3e fe 90 b8 3c 83 65 a1 bd
       0.08178017 0.16599576 0.022530075 -0.0788069
000220 05 81 88 be eb a9 a0 be ae ee ad 3d 75 67 31 bd
       -0.26660934 -0.31379637 0.0849279 -0.043311555
000230 4a 0d 97 bd 69 ff 05 bf 71 fb 98 bd d2 b6 38 3d
       -0.073755816 -0.5234285 -0.07469834 0.045096226
000240 58 c6 22 be 65 ec 1f be 9e d4 02 be 1c 4e 05 3e
       -0.15895975 -0.15617521 -0.1277642 0.13018078
000250 21 a0 49 be 07 18 69 3d 45 de af 3d 0e 1b 78 bd
       -0.1968999 0.05690768 0.085873164 -0.060572676
000260 f1 42 a9 3c f1 63 5a 3c 96 ac f2 bc d9 0a 82 3e
       0.020661803 0.013329492 -0.029623311 0.253989
000270 38 13 c4 3d ff 95 06 bd 9f 46 3e be 01 b0 31 3e
       0.09573978 -0.03285789 -0.18581627 0.17352296
000280 9b 7d 34 3d fa a2 a5 be 71 36 0d bd 63 36 b4 3c
       0.0440651 -0.32350904 -0.034475747 0.02199859
000290 e7 bf 0f 3e 97 79 28 3d dc 95 c7 be 63 cd 0f be
       0.14038049 0.041131582 -0.3898152 -0.14043193
0002a0 81 3b 1f 3e 61 38 55 be 50 59 04 3e f6 92 12 bf
       0.15550043 -0.20822288 0.12924695 -0.57255495
0002b0 83 ca c6 bd 4b 8e 81 3d 27 83 38 be 3c 93 8b be
       -0.09706595 0.06325968 -0.1801878 -0.27260768
0002c0 b5 b5 04 3e fe cf f3 bd f2 16 e7 bd 8e e2 0e be
       0.1295994 -0.11904906 -0.11283673 -0.13953611
0002d0 68 72 09 ba ed 19 f8 bc da b2 a3 bb 09 99 3f 3d
       -0.0005243183 -0.0302858 -0.004995686 0.046776805
0002e0 17 7e 18 3e d9 4f 60 3e d8 6a ef 3e da 60 aa 3d
       0.1489185 0.2190546 0.46761203 0.08319254
0002f0 29 59 c6 bd f7 c1 34 3e a3 2a 52 be ac 29 0f 3e
       -0.09684975 0.17652117 -0.20524077 0.1398074
000300 2f 7f 81 be ee 9f 11 3e c5 ff 6b be aa 6e 67 3e
       -0.25292346 0.14221165 -0.23046787 0.22600809
000310 32 40 f3 bd 0f f9 79 3e 63 49 0e be 67 9c fe 3d
       -0.11877479 0.24411415 -0.13895182 0.12432175
000320 89 58 a1 3d 23 f0 8d 3e 1a ae 02 3d 93 63 e2 3d
       0.07878215 0.27722272 0.031904317 0.110541485
000330 bd 6c 5f bd 23 0a ec bc 9d 46 66 3c 32 c5 74 be
       -0.05454706 -0.028813427 0.014054921 -0.23903349
000340 70 3e 37 bd 66 d8 14 3d 29 a5 87 3e 46 54 14 bc
       -0.04473728 0.036339186 0.26493195 -0.0090532955
000350 8d 48 07 3e b3 4f f4 bb b5 bc 30 bd 53 9c 48 3e
       0.1321127 -0.00745579 -0.043148715 0.19590883
000360 48 b6 bc 3e fe 83 5f bd 66 60 81 bd 37 3c 90 3e
       0.3685782 -0.054569237 -0.06317215 0.2817094
000370 95 24 41 bd 20 34 0b be 50 4a 3a bc 30 0c 32 be
       -0.047154028 -0.13594103 -0.011370257 -0.17387462
000380 2e a0 f0 3d f3 fc 79 bc 24 9e 13 3d 5c 71 66 3e
       0.11749302 -0.015258062 0.036039487 0.2250418
000390 cd 2d bc bd ae 3c a8 3c 31 e4 59 be 76 1a d9 3e
       -0.09188423 0.020536747 -0.21278454 0.42403
0003a0 79 5c a8 bd 2f 4f 88 3d aa b5 a8 bd d0 0c 92 3d
       -0.08220763 0.06655728 -0.08237775 0.0713135
0003b0 0a a2 d2 3c bc 11 88 bd 6a 13 1b 3e c7 e2 41 be
       0.025712032 -0.066440076 0.15144125 -0.18934165
0003c0 7f 42 3d be db e2 e8 bd 23 d4 2d 3c ee 35 bb bc
       -0.18482397 -0.11371394 0.010609659 -0.022852864
0003d0 a1 0c 99 3d 73 3e 86 3e c5 c8 ad 3d 00 13 fa 3d
       0.07473112 0.2621952 0.084855594 0.12210655
0003e0 bb d4 3e 3d 2c 3f f1 bd 39 3f ec 3d 25 f5 4d bd
       0.046589594 -0.11779627 0.11535496 -0.050282616
0003f0 c3 86 57 3d 9a 45 24 3e 39 4f c7 3d 82 cc 92 3e
       0.052618753 0.16042176 0.097319074 0.28671652

value_stream.weight f4 [1, 256]
000000 28 cc c2 be 2c 8a 59 3e a6 a0 35 3e 0a 0c 72 3e
       -0.38046384 0.21244115 0.17737064 0.23637405
000010 3a 33 69 3e 2c 16 1b 3e 04 73 2c be 39 50 1a bf
       0.22773448 0.15145177 -0.1684075 -0.6027866
000020 e4 1f 14 be 22 9e 75 3e c6 f1 e0 be cc 1c 53 3e
       -0.1446529 0.23986104 -0.43934458 0.20616454
000030 6c f5 0f 3e a2 8b 22 bf 31 83 97 3e a6 0a 77 3e
       0.14058465 -0.6349431 0.2959228 0.24125156
000040 19 66 2d 3e b0 5c 19 3f f7 a1 34 be b4 08 61 be
       0.16933478 0.59907055 -0.1763991 -0.21975976
000050 62 10 63 be 44 cd 4b bf d6 17 27 be f8 e1 eb 3d
       -0.22174218 -0.79610085 -0.16317686 0.115177095
000060 6b 21 18 3e 68 2a 02 bf 2d ea c0 be 5f 5c 00 be
       0.14856498 -0.50845957 -0.37678662 -0.12535237
000070 aa b3 f4 be 0d 92 13 be a2 03 16 be 68 05 91 be
       -0.47793323 -0.14411183 -0.14649823 -0.28324437
000080 8a 10 2c 3e 39 b1 de be 7c e2 4b be 28 a5 a7 be
       0.16803184 -0.43494585 -0.19910616 -0.32743192
000090 51 a5 5c 3e 07 c2 9b 3e 3e 75 6a 3e e6 aa c8 3e
       0.21547438 0.3042147 0.22896287 0.39192885
0000a0 c7 0e 90 be eb c8 00 3f 12 f5 30 be a6 ac 29 3f
       -0.28136274 0.50306576 -0.17280987 0.66279066
0000b0 ce c6 70 3e 71 bc 8e 3e 96 b7 2c be c1 c8 2b be
       0.23513338 0.27878144 -0.16866907 -0.167758
0000c0 72 0d 0a 3f 09 02 45 be fe d7 21 3e 48 b4 20 3e
       0.53926766 -0.19239058 0.1580505 0.15693772
0000d0 3c 49 2a 3e cc 0c 10 be 01 5a 87 be 34 84 77 be
       0.16629499 -0.14067382 -0.26435855 -0.24171525
0000e0 2c da 33 3f 73 9d 31 be dd 57 ad 3b 72 de 36 be
       0.7025478 -0.17345218 0.005290015 -0.17858294
0000f0 bc 3f 03 be 97 11 2f be 0f 72 5e 3f ba 0d 26 3e
       -0.12817281 -0.17096554 0.8689279 0.16216174
000100 24 33 a2 3e 1f 77 ef bd b6 0c 5a be 8a 0a 83 3e
       0.31679642 -0.116926424 -0.21293911 0.25593978
000110 28 85 a7 3d 9b 24 74 be da d7 30 be b3 78 f2 3e
       0.081796944 -0.23842089 -0.17269841 0.4735771
000120 8a b5 f7 3d 65 da de 3e 76 de 89 3e 78 b7 8c be
       0.12095173 0.43525997 0.26927537 -0.27483726
000130 6d c0 53 bf 2e b1 9d be a6 ca 12 bf 9d 62 70 be
       -0.82715493 -0.3079924 -0.57340467 -0.23475118
000140 cc dc c1 3e 17 c2 d7 3e 35 0c 4b be b2 40 56 3e
       0.37863767 0.42140266 -0.19828875 0.20923117
000150 f6 a5 2a 3e db c9 f2 3d af 86 08 bf 8d b9 e3 3e
       0.16664872 0.11854907 -0.5333051 0.44477502
000160 d1 96 9c be 7a 3d 66 3e e1 11 bb 3e 6b 2d 10 3e
       -0.30583814 0.22484389 0.36537078 0.14079826
000170 f4 1d 0b 3f 62 23 ba 3e b8 6a 39 3f f6 8b f2 3d
       0.5434258 0.3635512 0.72428465 0.11843102
000180 fd a7 5b be 91 53 8c 3e 8d 2d 8f 3e d7 94 01 3f
       -0.21450801 0.27407506 0.2796444 0.50617737
000190 68 1b a2 3e fd 5f ef 3e 9f e1 97 be a2 3d 23 be
       0.31661534 0.4675292 -0.29664323 -0.1594148
0001a0 f9 90 84 be 83 fe 33 3e 12 83 e5 be 0e fa 2f be
       -0.25891855 0.17577557 -0.4482656 -0.17185232
0001b0 b2 c0 66 be a2 2f 33 3e 23 23 9f 3e b3 63 de be
       -0.22534445 0.17498639 0.31081495 -0.4343544
0001c0 92 26 5b be e3 86 0c be 04 26 10 3f a8 05 3a 3e
       -0.21401432 -0.1372333 0.5630801 0.1816622
0001d0 75 6e 4f be cb 8f bb be a2 4e 7b 3d 61 8d 98 3e
       -0.2025698 -0.36633143 0.061354287 0.29795364
0001e0 84 40 c3 3e bc 30 12 3e 2f 98 56 be 5d d2 5b be
       0.3813516 0.14276403 -0.20956491 -0.21466966
0001f0 5a 92 6c be 0b 30 22 3e f7 01 ba 3e 4c 94 47 be
       -0.23102704 0.1583864 0.36329624 -0.19490165
000200 5d 50 12 be c6 d4 6b be 28 f0 9e 3e f4 4c 80 3e
       -0.14288469 -0.23030385 0.310426 0.2505871
000210 f7 40 9d 3e 8c 76 41 be 52 c0 1c be cb 45 a9 3e
       0.30713627 -0.18892878 -0.1530774 0.3306106
000220 52 6c 43 be b5 da b3 3e b5 e6 7c be 7c ce b6 3e
       -0.1908429 0.35127798 -0.24697383 0.3570441
000230 1e ae c5 be 18 55 11 bf 41 66 8e be 13 44 d9 be
       -0.38609403 -0.5677047 -0.2781239 -0.4243475
000240 e5 1e 28 be 37 cf 1c 3e 05 77 2a 3e e2 5b 1a be
       -0.16418035 0.15313421 0.16646965 -0.15074113
000250 f1 98 5f be 86 35 88 be 07 e4 e5 3e b7 07 bb 3e
       -0.21835686 -0.26603335 0.44900534 0.36529323
000260 19 57 45 3e 2f 32 18 3e 68 20 3b be af b9 a6 3e
       0.19271506 0.14862894 -0.18274081 0.3256354
000270 f4 22 33 3e d0 15 3f be 0f b2 5b 3e 9c 1a 95 3e
       0.17493802 -0.18660665 0.21454643 0.29121864
000280 0f f6 40 3e 64 38 aa 3e 43 4d 41 3e b3 06 b5 3d
       0.18843864 0.33246148 0.1887713 0.088391684
000290 03 ab e0 bd da 94 33 be d2 bb ad 3e 9a 90 60 3e
       -0.10970118 -0.17537251 0.33932358 0.21930161
0002a0 48 98 3b 3e 4a 7a 8e be a9 00 e0 bd 96 93 5c bf
       0.1831981 -0.27827674 -0.10937626 -0.861627
0002b0 fa 32 7a be 2d 52 3a be f9 2a ad be 17 24 9d 3e
       -0.24433509 -0.1819541 -0.33821848 0.30691597
0002c0 d6 ce 30 be 33 e3 4c 3e 53 73 15 3e 65 9a 8c 3e
       -0.17266402 0.20008545 0.14594774 0.27461544
0002d0 42 c5 c3 be d0 dd e9 bd 74 14 c7 3e ee 67 4c be
       -0.38236433 -0.114192605 0.38882792 -0.19961521
0002e0 30 70 ed bd ce e6 ee 3d 01 82 17 bf e1 b4 5b 3e
       -0.11593664 0.11665116 -0.59182745 0.21455719
0002f0 2a 9d 5d 3e 54 ef 81 be 31 9c 5f 3e dc 35 d6 bd
       0.21641985 -0.25377905 0.21836926 -0.104594916
000300 f4 c6 17 bf 0e 40 5c be 7f 34 7c be 28 90 c9 3e
       -0.59287953 -0.2150881 -0.246294 0.39367795
000310 89 53 ab 3e 87 c3 8c 3e e3 0a 56 3e 2a 10 8f 3e
       0.3346217 0.27492926 0.2090259 0.2794202
000320 b4 e8 ae be 74 69 14 be 33 01 00 3e 20 34 64 be
       -0.34161913 -0.14493352 0.12500457 -0.22285509
000330 ed 3a 14 be 6b b7 e1 be c6 b7 bf be fe a2 9e 3e
       -0.14475603 -0.4408525 -0.37444896 0.30983728
000340 bc ea 0a 3f f0 d1 25 bf 96 97 1d be 01 1c 1f 3e
       0.54264426 -0.64773464 -0.15389857 0.15538026
000350 c1 72 2b 3e b9 e4 f4 bd 76 32 98 3e c9 39 8c 3e
       0.16742994 -0.11957688 0.29726 0.27387837
000360 33 9d fe be ac 1d ee 3d fc 05 7a 3e 51 d9 36 3e
       -0.49729308 0.11626753 0.24416345 0.17856337
000370 a6 ab 71 be b7 f2 2d 3f 23 db 6c 3e 78 d4 20 3e
       -0.23600635 0.6794848 0.23130469 0.1570605
000380 6f 73 1c bf 84 36 05 3e eb 0e 00 3e 4c 76 9f be
       -0.6111364 0.13009077 0.12505691 -0.3114494
000390 74 d9 0a 3e 82 47 26 be 99 5d c9 3e 68 e8 05 bf
       0.13559514 -0.16238216 0.39329222 -0.5230775
0003a0 98 b2 53 be 60 62 89 be 86 5c 78 3e 97 71 26 3e
       -0.20673597 -0.26832867 0.24254045 0.16254269
0003b0 4d fd 86 3e 11 f6 72 3e 14 a7 1f bf 5d 85 89 3e
       0.26365128 0.2372668 -0.62364316 0.2685956
0003c0 d8 bf 5e 3e 2d 7e 11 3f 2b f1 5f 3e c9 75 44 be
       0.2175287 0.56833154 0.21869342 -0.19185556
0003d0 a9 b3 2b be 58 56 aa be 3c c6 6d be a2 42 9b 3e
       -0.16767754 -0.33269 -0.23220152 0.30324274
0003e0 92 0c 7a be 75 69 8e 3e 08 fa 3c be ef 52 ae 3e
       -0.24418858 0.27814832 -0.18454754 0.34047648
0003f0 03 3f 6f be 4f 27 17 be a1 63 19 3e d7 0a a7 be
       -0.23363881 -0.14761089 0.14979412 -0.32625458

advantage_stream.weight f4 [20, 256]
000000 d6 35 aa 3c a7 37 1f bd dc 35 00 3c 2a 3d 00 3d
       0.020777624 -0.038871434 0.007825341 0.03130833
000010 48 38 87 bc 0a c1 7c bd 25 b6 57 bc b0 20 62 bd
       -0.01650633 -0.061707534 -0.013165985 -0.055206954
000020 72 9a bb 3d d3 f0 98 3c 58 0d 3c bd 2f 01 fd 3b
       0.091603175 0.018669521 -0.045911163 0.0077210884
000030 9d 2f 85 bc e2 9b 27 3d 19 2a 76 3d 42 c7 07 3d
       -0.016258055 0.040920146 0.06009874 0.03314901
000040 5f 41 96 3d 17 39 26 be f1 c5 6b bd bc d0 af 3a
       0.07336687 -0.16232716 -0.05756182 0.0013413648
000050 b1 be 89 bc 73 2b f6 bd 92 1d 12 bc cb 9c 54 3d
       -0.016814562 -0.12020006 -0.008918183 0.051907342
000060 73 4b bb 3d b1 87 1c 3d a5 88 96 bc 40 dd a3 bc
       0.0914525 0.038215343 -0.018375704 -0.020002961
000070 b2 e1 b6 bc f8 ce 02 3c bd c7 4d bc 01 74 0f 3c
       -0.022324417 0.0079839155 -0.012559828 0.008755685
000080 10 be 07 3d e4 0e f0 3c 23 5b ee bc a8 b4 83 3d
       0.033140242 0.029303975 -0.029096192 0.06430942
000090 a7 35 9d 3c 88 49 97 3c 97 e5 31 bc 1d d7 46 3d
       0.019190622 0.01846768 -0.010857961 0.04854499
0000a0 40 e9 ca 3b ca 14 3f 3d cd f4 9a 3c 76 44 96 bc
       0.0061923563 0.046650685 0.018915558 -0.018343192
0000b0 9e 01 1a bd 04 39 db bc 8b 1e 48 bc f7 3a 51 3c
       -0.0375992 -0.026760586 -0.012214313 0.012770406
0000c0 de ab 90 3d a0 48 08 bc f7 1d 42 bd 85 21 17 3c
       0.07064031 -0.008318096 -0.047391858 0.0092243
0000d0 9c c7 93 3c 22 ed 88 bc ac 59 c3 3c 2d 97 24 bc
       0.018039517 -0.016714636 0.02384647 -0.010045809
0000e0 ca 66 21 3c 2f 2e a3 bd 57 ea c8 b9 3c c8 e6 bc
       0.009851167 -0.07967793 -0.0003832157 -0.028171651
0000f0 7e bd ad bd f2 b6 22 bc 24 27 1c 3d 0b 04 b7 3c
       -0.084834084 -0.009931313 0.038123265 0.022340795
000100 0b f0 7a 3c 65 1e 84 3c 7e 8a 7d bc a3 63 9a 3d
       0.01531602 0.016127774 -0.015474914 0.075385354
000110 1c 04 73 bd 61 4a 52 bc d2 87 88 bd 0a 47 95 3d
       -0.05933009 -0.012835116 -0.06666531 0.0728894
000120 92 34 77 3d 83 e9 40 bc c8 a7 d7 3c 33 77 cc 3c
       0.06035287 -0.0117744235 0.026325122 0.024959182
000130 50 13 4a bc 89 51 98 bd 32 c5 d7 bd c0 cd f4 bc
       -0.012333706 -0.074374266 -0.10535659 -0.029883265
000140 e5 ff 2a 3d 5c ec 29 bd 40 24 90 bd 5b 9e 86 3d
       0.041747946 -0.041485175 -0.07038164 0.06573173
000150 93 31 8c 3c 87 b5 67 3d e7 0a 9b 3d 3e dd 4f 3d
       0.017113483 0.056569602 0.07570439 0.050748102
000160 75 02 15 3d 3d ed 5d bc fd e2 f4 bb b0 64 ec 3c
       0.036379296 -0.013545332 -0.007473348 0.028856605
000170 9a 87 52 3d 39 93 93 3c c1 a0 ab 3c 50 70 82 3c
       0.05139885 0.018014537 0.020950677 0.015922695
000180 d4 9d 56 3d c1 a3 6a 3d 25 c0 76 3c 05 f4 94 bb
       0.05239661 0.057285074 0.015060459 -0.004545691
000190 ce c8 5f 3c 92 e1 c1 bd 4c 79 09 bd 3f ae 79 bd
       0.013658715 -0.09466852 -0.033562943 -0.06095719
0001a0 56 87 67 bc 9c 14 e1 3c 82 97 96 bd 7c a4 76 3d
       -0.014131388 0.027475648 -0.073531166 0.06021546
0001b0 22 61 c7 bb 50 56 d8 ba 78 68 da 3c 4b 88 6b bc
       -0.006084577 -0.0016505215 0.026661143 -0.0143757565
0001c0 f8 17 39 3d a2 aa 8b 3c 42 4d 09 3c 64 44 ae 3c
       0.045188874 0.017049138 0.008380236 0.021272846
0001d0 91 99 05 bd 98 a0 8a bc 0c 2d 56 3d d3 56 c7 3b
       -0.032617155 -0.01692228 0.052289054 0.0060833483
0001e0 ef 28 54 3d ef 2a e8 3c 93 57 bf 3c 24 ff 86 3d
       0.05179685 0.028340785 0.023357188 0.06591633
0001f0 d7 19 44 bd 19 c5 e5 bc d7 95 11 3d 80 73 48 bd
       -0.047876205 -0.028048085 0.03554329 -0.048938274
000200 48 1a 87 3c 40 7a 85 bd bc 74 a3 bd 96 8b 4f 3c
       0.016492024 -0.06517458 -0.0798125 0.012667557
000210 86 7f 51 3c df 06 c8 3c 01 49 45 bd 05 92 eb 3b
       0.012786752 0.024417339 -0.048165325 0.0071890377
000220 7b 02 dc 3b 7e 1e 8b bc e2 5d a0 3d 4a 6d 4e bd
       0.006714163 -0.016982313 0.07830407 -0.050397195
000230 60 1c 4a bd 70 35 4e 3d 2a 29 33 3d 6c 36 e5 bc
       -0.049343467 0.05034393 0.04374043 -0.027980052
000240 72 fd 38 bd 46 78 8c bd 59 3e 38 3d 08 e8 bc bb
       -0.04516358 -0.06858878 0.044981334 -0.005764965
000250 56 57 d5 bd 50 38 7f bd 3a d6 d5 3c af 32 a3 3d
       -0.10417049 -0.062309563 0.026103128 0.079686515
000260 c5 ad 51 3d 8d 4f 45 3d 2a ce 6a 3b 7b 14 b5 bc
       0.05119111 0.04817157 0.003582845 -0.022104492
000270 5b 4b 49 bd 62 0a af bd 0d a2 ab 3c 0e d2 4a 3c
       -0.04914413 -0.08546902 0.020951295 0.0123791825
000280 89 0f eb bc 59 e3 4a 3c 93 3f a4 bc b3 b0 12 bd
       -0.028693931 0.0123833055 -0.020049846 -0.035813045
000290 96 6e 49 bc 42 50 2f 3c c7 44 2c 3b 8c 3f 4d bd
       -0.012294432 0.010700287 0.0026286112 -0.05010943
0002a0 f6 9c e7 3c 3c be 05 be 9d 53 67 3d b2 09 26 bd
       0.028273087 -0.1306085 0.056476224 -0.04053659
0002b0 e6 5f ef 3a 3e 64 ed 3c 3e f0 73 3c ed 67 95 bc
       0.0018262833 0.028978463 0.014888821 -0.018238032
0002c0 8b 36 68 3c a6 15 0c bd 5c fc 31 3c a2 01 b2 3c
       0.01417316 -0.034200333 0.01086339 0.021729294
0002d0 02 a0 78 3c aa 44 70 3c eb 8a 5e bd 55 79 b6 bd
       0.015174868 0.014664808 -0.0543317 -0.08909861
0002e0 b3 cd 7b b9 8c a8 84 bc 93 76 22 3d 5f 6e b9 bc
       -0.00024013854 -0.01619365 0.039663862 -0.022635637
0002f0 65 60 26 3d 9f 2a e1 bc 3b 73 48 3c f4 e2 f9 3b
       0.040619273 -0.027486144 0.012234504 0.007625932
000300 48 b7 89 bd 97 e8 7e bd 7e 7f 46 3d 07 83 5a bd
       -0.06724411 -0.062233534 0.04846143 -0.053347614
000310 55 a5 be 3d 13 b7 43 bd cc 51 9b 3c 41 74 07 bc
       0.09308878 -0.047782015 0.018959902 -0.008267463
000320 27 b1 90 bc 2a a6 1d bd 26 50 3f 3d 9d 7a 78 3d
       -0.017662598 -0.038488545 0.046707295 0.060663808
000330 b6 09 a7 bd 73 9f e8 3d 4d 5b c5 3c a6 00 2a bb
       -0.08156149 0.113585375 0.024091387 -0.0025940328
000340 13 6b 67 3c 16 b5 71 3c 91 9f fc bc df 7f d3 3c
       0.01412465 0.014752647 -0.030837806 0.02581781
000350 4a 60 45 bb 52 59 0e bd f7 a7 d5 3d 9a ca f6 3b
       -0.0030117207 -0.03475315 0.104324274 0.007531476
000360 94 7a 79 bc bb f8 ae 3c 6f 95 23 3c b9 ac c3 3c
       -0.015226979 0.021358838 0.009984358 0.023886072
000370 2a f7 39 bd 5d af ee bc c3 ac 05 bd c7 6e 3d 3c
       -0.04540173 -0.029136354 -0.03263546 0.011562056
000380 d4 f6 0a bc 88 da 2e 3d 9f a0 ef bb 12 99 a6 ba
       -0.0084817 0.042688876 -0.0073128487 -0.0012710413
000390 2a f0 27 3d f4 94 cf 3c 5c 2a 2f 3d 0a a8 cb bd
       0.041000523 0.025339581 0.042765006 -0.0994416
0003a0 18 7a d6 bc 6e 6d 6d ba 49 a0 e2 3c 20 89 dc bc
       -0.026181266 -0.0009057139 0.02766432 -0.026920855
0003b0 6b c6 42 bc 99 ed eb bb a6 da cb ba a5 4c 95 bc
       -0.011888127 -0.0071999547 -0.0015552833 -0.018225024
0003c0 3c 74 8a bc 51 82 03 3e 49 c7 45 bc 7d 6b 6d 3c
       -0.016901128 0.1284268 -0.012071439 0.014490959
0003d0 0c 0a 1d b9 30 20 ec 39 00 37 19 bd 03 bb 07 bd
       -0.0001497643 0.0004503741 -0.037405968 -0.033137333
0003e0 2f 29 27 bc a7 1b 2d 3c 74 e0 ce 3c d7 b2 b2 bc
       -0.01020269 0.010565675 0.025253512 -0.021813793
0003f0 24 2e 71 3b 4a 95 bf bd 97 38 e4 3d 92 c3 22 3a
       0.0036801184 -0.093546465 0.11143606 0.0006208952

advantage_stream.bias f4 [20]
000000 83 30 c4 3d b1 4b 8a bd f9 c3 88 3d e8 91 95 3d
       0.095795654 -0.06752718 0.06678004 0.0730322
000010 80 82 1d 3d a1 66 56 3d ca c9 d6 3d 14 1e 86 be
       0.038454533 0.05234397 0.10487707 -0.26194823
000020 62 7b a8 bd c0 96 c4 3d 5a 70 b3 bd 1c 1a 46 bd
       -0.082266584 0.09599066 -0.08761664 -0.048364744
000030 13 f0 b6 3d 3a 14 c0 bd 65 26 08 3d f9 0d b4 3d
       0.08932509 -0.09378858 0.03323974 0.087917276
000040 4d 59 83 bc c2 7d 7b 3d bd b3 21 3d b0 e1 07 bd
       -0.016033793 0.06139923 0.039478052 -0.033174217
