src/hockey-env/random_training_2/weights/episode_52.pth (torch, 307492 bytes, 7 tensors)

layers.0.weight f4 [256, 18]
-2.0649905 0.8194021 -0.30606082 0.0011870863 -0.14318419 -0.0064791637 0.91542214 -0.9974734
1.1057626 -0.06600427 -0.047733143 0.117802344 0.80046 -0.16449477 0.12422113 -0.26317325
-5.39237 -0.34961447 -0.033621695 0.067598395 -0.0993442 0.02461392 -0.0030631279 0.014360416
2.0072792 1.0605941 -0.32275975 0.013415565 0.38798937 -0.11292015 -0.78929394 -0.7615947
0.24363184 -0.24319102 0.7198693 0.91111153 -0.42435688 -0.02233745 0.41494054 -0.12530017
0.030573921 0.06522591 1.9380661 -0.45040292 3.1845958 0.0024569798 -0.23880196 -0.037375268
-0.26146832 0.17876422 0.32910845 0.22488303 2.3568678 0.7072669 0.8711331 -0.55541056
0.6561499 0.04840593 -0.021629345 0.06642938 -0.17484981 2.0955904 -0.4439281 -0.28900352
0.18732285 -0.34011012 0.08251979 1.058372 0.05427219 0.43200263 -0.07669682 -0.2835249
0.006043543 -0.29449564 -0.47783303 -0.04617452 0.025854116 -0.004667116 0.11721842 -4.5900016
-1.5724585 -0.2473039 -0.46431792 0.06062501 0.63429046 0.19120069 0.07382355 0.18175997
0.16920663 -0.23549129 3.4350421 -2.1437216 -0.008069425 -0.02419782 0.01989818 -0.015074428
0.35904813 0.30187428 0.9290528 0.09090655 -0.11365667 0.0476267 -3.4764757 2.1864934
0.019778427 0.07230112 -0.53533286 -0.21267678 -0.7289714 1.3167932 0.22883163 -0.03542197
0.21864621 0.083907746 1.3997504 -1.4776409 0.6803136 0.07892565 -0.9132928 0.24078438
-0.2042709 0.13168167 -0.2270464 0.33592454 -1.3688095 0.47027773 1.0554825 -0.5377693
-0.32382175 -0.011611714 0.0049918033 -0.023937432 0.35850677 -1.3007419 -3.226571 0.12329588
0.16852196 -0.2277499 0.4891091 0.04926911 0.2577051 -0.66052014 0.66751605 0.46227196
0.8782263 -2.85269 0.16912025 0.11238493 -0.3014059 -0.026800124 0.23599271 2.0423925
1.4430177 -0.012796864 -0.09085842 0.017992547 -0.18294016 0.22378096 -0.0035081268 -0.0008191034
0.032005563 0.0074510598 -0.23978008 0.1196716 0.069493815 0.006168631 -0.010998885 -0.011294097
-1.0486377 0.09503099 -0.17685458 -0.08393915 0.13459711 0.04507798 1.8177283 0.16615385
0.18727632 0.048647974 -1.3316292 -0.02500848 -1.7965149 0.043999977 0.70638573 -0.1288055
0.10831052 0.001957422 1.2060623 -0.9755751 -0.85837334 0.12684736 -0.018090323 0.028778795
0.84976166 0.032764636 0.043962833 0.042763203 -0.4284982 0.4937108 -0.037266303 0.49242634
-0.116131045 -0.04201014 -0.06304158 0.04794423 0.31243932 0.31055367 -0.7880091 -0.12825163
-0.22592393 0.049664814 1.8640141 0.3002591 2.6101727 0.23131768 1.4758304 -2.5865755
0.26716456 0.20042439 -0.17559737 -0.050688047 0.036637247 0.016069971 0.018640803 -0.026000956
-2.3568532 -0.31590053 0.026482912 6.8720927 0.042677507 0.006476085 -0.02331224 0.022395156
-0.30170107 0.11556847 -0.10129119 -1.7444214 1.308709 0.015248628 -0.07987079 0.11895707
-0.19401486 0.8206752 -0.8582248 0.056224268 -0.027284168 -0.07644 1.1174042 0.47765896
0.11738771 -0.008006465 -0.19850983 1.0047692 0.50904346 0.040526424 0.22152478 -0.0033006438
00000000: ce28 04c0 56c4 513f 01b4 9cbe 0298 9b3a
00000010: e09e 12be 2a4f d4bb 1b59 6a3f 6b5a 7fbf
00000020: a189 8d3f 3f2d 87bd d483 43bd 5b42 f13d
00000030: f2ea 4c3f 5171 28be a667 fe3d a5be 86be
00000040: 4c8e acc0 ab00 b3be e7b6 09bd 0771 8a3d
00000050: f974 cbbd 22a3 c93c c2be 48bb f347 6b3c
00000060: 4377 0040 8cc1 873f c440 a5be f5cc 5b3c
00000070: 8ba6 c63e ae42 e7bd 2b0f 4abf dff7 42bf
00000080: a07a 793e 1107 79be 5b49 383f 9b3e 693f
00000090: 4e45 d9be 07fd b6bc 1673 d43e b04e 00be
000000a0: 2976 fa3c 2995 853d 8d12 f83f 369b e6be
000000b0: 6bd0 4b40 4805 213b 8088 74be cf16 19bd
000000c0: 2ddf 85be f80d 373e e780 a83e bd47 663e
000000d0: ecd6 1640 720f 353f 9402 5f3f 632f 0ebf
000000e0: 71f9 273f 4c45 463d 0630 b1bc 200c 883d
000000f0: d40b 33be 271e 0640 8b4a e3be 45f8 93be
00000100: 90d1 3f3e ea22 aebe 2300 a93d bc78 873f
00000110: 844c 5e3d 732f dd3e 3913 9dbd 2d2a 91be
00000120: ea08 c63b 22c8 96be 88a6 f4be 7e21 3dbd
00000130: 03cc d33c 9bee 98bb 3610 f03d 4be1 92c0
00000140: 5246 c9bf 3c3d 7dbe 14bb edbe ee51 783d
00000150: dc60 223f 1dca 433e cd30 973d 491f 3a3e
00000160: 8144 2d3e a124 71be bbd7 5b40 bc32 09c0
00000170: 9f35 04bc 823a c6bc 8201 a33c bcfa 76bc
00000180: 28d5 b73e 448f 9a3e 68d6 6d3f 372d ba3d
00000190: d4c4 e8bd 3714 433d 947e 5ec0 82ef 0b40
000001a0: 5e06 a23c 9c12 943d 930b 09bf f1c7 59be
000001b0: df9d 3abf ae8c a83f d752 6a3e a116 11bd
000001c0: cbe4 5f3e d3d7 ab3d 052b b33f 5623 bdbf
000001d0: 0829 2e3f c5a3 a13d 8fcd 69bf 2e90 763e
000001e0: 642c 51be 8fd7 063e da7e 68be 4dfe ab3e
000001f0: 2635 afbf 3ec8 f03e 0d1a 873f 40ab 09bf
00000200: f7cb a5be 0f3f 3ebc 4892 a33b 6f18 c4bc
00000210: 338e b73e b67e a6bf 2480 4ec0 8d82 fc3d
00000220: 0591 2c3e 4537 69be 826c fa3e 68ce 493d
00000230: ecf1 833e d917 29bf 55e2 2a3f e9ae ec3e
00000240: 70d3 603f 7992 36c0 dc2d 2d3e 122a e63d
00000250: e051 9abe ef8b dbbc 13a8 713e 8fb6 0240
00000260: ceb4 b83f f0a9 51bc fb13 babd 1b65 933c
00000270: aa54 3bbe d626 653e 9ae8 65bb 19b9 56ba
00000280: 4418 033d 0528 f43b e988 75be 6216 f53d
00000290: c652 8e3d 3a22 ca3b ab34 34bc e00a 39bc
000002a0: c339 86bf 9c9f c23d 5e19 35be 4ae8 abbd
000002b0: d3d3 093e b0a3 383d 52ab e83f 3c24 2a3e
000002c0: 5dc5 3f3e 1943 473d d372 aabf 95de ccbc
000002d0: 33f4 e5bf 5239 343d b2d5 343f 97e5 03be
000002e0: e8d1 dd3d 1748 003b 4060 9a3f 4abf 79bf
000002f0: 5bbe 5bbf 46e4 013e 2832 94bc 82c1 eb3c
00000300: fb89 593f 3634 063d 5f12 343d 7828 2f3d
00000310: 1e64 dbbe a9c7 fc3e 8da4 18bd 4e1f fc3e
00000320: 1dd6 edbd d312 2cbd f21b 81bd 2b61 443d
00000330: 0cf8 9f3e e400 9f3e f7ba 49bf 6554 03be
00000340: 9a58 67be 556d 4b3d 0498 ee3f 90bb 993e
00000350: 120d 2740 8bde 6c3e 03e8 bc3f 748a 25c0
00000360: cbc9 883e 0d3c 4d3e cccf 33be 459e 4fbd
00000370: f010 163d 2ca5 833c 99b4 983c f5ff d4bc
00000380: afd6 16c0 b7bd a1be b1f2 d83c 2fe8 db40
00000390: 9cce 2e3d 5735 d43b 50f9 bebc 0c76 b73c
000003a0: 9078 9abe 29af ec3d c171 cfbd 3349 dfbf
000003b0: c783 a73f 62d5 793c 4c93 a3bd c49f f33d
000003c0: d5ab 46be c517 523f 9fb4 5bbf 6b4b 663d
000003d0: 0c83 dfbc 938c 9cbd 1a07 8f3f b78f f43e
000003e0: f868 f03d 8c2d 03bc 2946 4bbe 479c 803f
000003f0: ac50 023f 09ff 253d 64d7 623e 9d4f 58bb

layers.0.bias f4 [256]
-0.25649378 -0.5932197 1.1645175 1.0802451 1.4019762 -2.0116117 1.3726213 1.9302539
-1.6866205 -2.502066 2.556416 0.2740604 -0.02849551 2.9698908 -0.6959461 -2.2719777
2.643637 -1.0933999 0.70987445 0.9454497 -0.5365942 -3.641578 0.260569 3.7801435
-0.84562397 -2.0643187 -0.28973943 -0.1905644 -0.23908931 -0.24519537 -1.3877723 1.3081731
-2.728811 -0.41351846 0.5602793 -0.21583089 -2.0394034 -3.9577487 -1.6834191 1.7068856
0.70840263 2.5156145 1.1002761 -1.9413636 -0.110280894 -0.7469868 -0.8969984 3.1948187
2.3120942 -1.3458657 1.4225081 -1.2708837 0.4231932 0.83995306 -1.9460481 -0.54088956
1.2767234 0.9816586 1.841966 0.53027755 1.2050802 4.060573 0.7004921 1.7707865
0.20327164 0.36423242 0.89776677 0.87510026 0.2490323 -0.9979072 2.1204386 -0.4310528
-0.45084807 -1.618825 -0.3170717 0.44051632 -1.5617023 1.3650973 0.03806601 1.3629047
1.2793016 -3.2737715 -0.5992327 0.059963338 0.08237244 3.2053592 0.4843712 -0.659577
1.7779493 -0.95688975 2.014494 1.2502288 0.72886103 1.1641482 1.4104081 -0.64026666
0.32649523 -1.1126046 -0.09813129 -0.30747533 3.426828 1.6926098 -0.2455172 0.44254085
0.00677368 -1.410963 1.4861902 0.804748 -0.26668367 0.78614306 -4.1665487 -1.2260638
2.1274688 0.90504396 2.7291832 1.4180717 -2.8470128 0.02655704 1.7046037 -0.64127654
-0.56958115 -1.4112118 -1.7001299 0.3756479 0.09345913 1.1255814 -0.056946304 0.17452545
-3.127196 -0.6887133 -2.17305 0.8516139 -2.0585432 -2.5884151 -0.32154247 1.6265345
1.3601907 0.2909363 0.93169355 1.0756118 2.3798735 2.153768 -2.5879583 1.9461845
-1.6154498 -0.73804986 -0.86074775 0.6446814 -1.2729051 1.6549577 2.9256017 -0.19606069
1.6265426 -1.8838326 0.49792212 0.5597538 -0.11556021 1.6303861 -0.6304972 -2.8531058
0.18713088 3.2659662 -1.7361746 -3.1709764 1.549713 -1.8433303 1.9435688 -1.6417084
0.29412517 -0.2458928 -1.2502742 -0.34656218 1.7817969 0.81187713 0.9689348 -1.5960656
-0.4788833 -1.8514755 -2.9508486 2.622093 0.46781766 -1.2707382 1.6887759 -0.19412142
-0.3423117 -0.63349444 -1.9968063 0.16476256 -0.9015585 -0.47522447 -2.2938833 0.7787728
-0.98624676 0.14154835 0.2841289 2.2887816 -1.4173311 1.6784401 -0.012156709 3.32639
2.0812056 2.5509715 -2.3038702 -0.05225343 1.1427193 -0.84491354 2.215417 2.7682085
0.8546999 1.745611 1.578167 -2.4548223 -0.91263384 0.46291947 3.1332078 -3.8680875
0.8268189 -1.4648434 -0.09174129 -0.5205679 1.8492315 1.0552924 0.14740856 -0.91797554
-1.2053998 3.0760818 -0.86468726 -0.3005184 0.3637905 3.294862 -1.8766665 0.464206
-1.2419407 1.2215545 2.8101354 0.4763018 -1.6940662 0.98596436 0.5519628 3.1854527
-0.95626557 0.071534686 0.8167392 2.275999 -1.9119527 -1.0919005 -1.1087112 1.9909927
-1.0422773 -1.2558076 -0.56502485 2.1559823 2.5405116 2.9529836 1.3015562 -0.47756392
00000000: 2753 83be 3fdd 17bf e90e 953f 7945 8a3f
00000010: f573 b33f 3fbe 00c0 0eb2 af3f 8f12 f73f
00000020: 2ee3 d7bf d921 20c0 529c 2340 a551 8c3e
00000030: 6a6f e9bc b112 3e40 8629 32bf 1568 11c0
00000040: 5931 2940 87f4 8bbf 55ba 353f fe08 723f
00000050: 3d5e 09bf 9d0f 69c0 4d69 853e dfed 7140
00000060: d07a 58bf cc1d 04c0 ba58 94be 5023 43be
00000070: d4d3 74be 7f14 7bbe 86a2 b1bf 3772 a73f
00000080: d7a4 2ec0 b1b8 d3be 776e 0f3f c602 5dbe
00000090: 9685 02c0 c14b 7dc0 477a d7bf 3a7b da3f
000000a0: e059 353f d4ff 2040 d9d5 8c3f 9a7e f8bf
000000b0: f3da e1bd 873a 3fbf b0a1 65bf e977 4c40
000000c0: 5af9 1340 5445 acbf bf14 b63f 51ac a2bf
000000d0: c7ac d83e 2a07 573f 1b18 f9bf bd77 0abf
000000e0: ac6b a33f fa4d 7b3f 8bc5 eb3f 45c0 073f
000000f0: 1140 9a3f 37f0 8140 7353 333f 22a9 e23f
00000100: 7126 503e ac7c ba3e 0bd4 653f 9206 603f
00000110: 5302 7f3e d976 7fbf 44b5 0740 f4b2 dcbe
00000120: 8fd5 e6be a835 cfbf 3957 a2be 5b8b e13e
00000130: dce5 c7bf 82bb ae3f 1beb 1b3d a973 ae3f
00000140: 28c0 a33f 7985 51c0 5067 19bf 1e9c 753d
00000150: e2b2 a83d 9b24 4d40 80ff f73e 0ada 28bf
00000160: d893 e33f baf6 74bf 78ed 0040 7f07 a03f
00000170: a396 3a3f cf02 953f 4188 b43f 84e8 23bf
00000180: 622a a73e d469 8ebf 0ff9 c8bd 686d 9dbe
00000190: 2651 5b40 70a7 d83f dc68 7bbe b794 e23e
000001a0: bff5 dd3b 709a b4bf 7b3b be3f f703 4e3f
000001b0: c38a 88be ac40 493f 5e54 85c0 a9ef 9cbf
000001c0: 7328 0840 f6b0 673f f0aa 2e40 6083 b53f
000001d0: 7535 36c0 268e d93c 7430 da3f b32a 24bf
000001e0: 12d0 11bf 97a2 b4bf db9d d9bf ec54 c03e
000001f0: 8067 bf3d 0d13 903f 8740 69bd cdb6 323e
00000200: fb23 48c0 844f 30bf 4013 0bc0 5e03 5a3f
00000210: 2cbf 03c0 98a8 25c0 37a1 a4be 4832 d03f
00000220: bb1a ae3f 9af5 943e 7883 6e3f a6ad 893f
00000230: d94f 1840 56d7 0940 1ca1 25c0 931c f93f
00000240: 0fc7 cebf d6f0 3cbf f759 5cbf d709 253f
00000250: 8eee a2bf a7d5 d33f 0f3d 3b40 22c4 48be
00000260: 8c32 d03f 6d21 f1bf a6ef fe3e 064c 0f3f
00000270: d5aa ecbd 7eb0 d03f 4468 21bf 4999 36c0
00000280: 3d9f 3f3e 9705 5140 f83a debf 47f1 4ac0
00000290: ff5c c63f 3ff2 ebbf ddc6 f83f 8023 d2bf
000002a0: 9397 963e 52cb 7bbe fc08 a0bf 9970 b1be
000002b0: ec11 e43f 2ed7 4f3f 1c0c 783f e14b ccbf
000002c0: 3130 f5be 26fd ecbf b4da 3cc0 5fd0 2740
000002d0: cc85 ef3e 8da7 a2bf cf29 d83f c4c7 46be
000002e0: 7b43 afbe b12c 22bf 5997 ffbf 84b7 283e
000002f0: 8acc 66bf 9f50 f3be fcce 12c0 a75d 473f
00000300: ab7a 7cbf 0df2 103e 5879 913e 667b 1240
00000310: 1b6b b5bf 20d7 d63f ef2c 47bc 93e3 5440
00000320: 7932 0540 1e43 2340 9c72 13c0 b107 56bd
00000330: a044 923f 414c 58bf 64c9 0d40 542a 3140
00000340: 9dcd 5a3f 2e70 df3f 6001 ca3f cf1b 1dc0
00000350: 5fa2 69bf c803 ed3e 7a86 4840 bf8e 77c0
00000360: 67aa 533f fd7f bbbf dce2 bbbd f043 05bf
00000370: 9eb3 ec3f d213 873f 45f2 163e 7200 6bbf
00000380: 8a4a 9abf 86de 4440 255c 5dbf 8cdd 99be
00000390: c042 ba3e 05df 5240 9c36 f0bf 69ac ed3e
000003a0: eaf7 9ebf e65b 9c3f 42d9 3340 d4dd f33e
000003b0: 29d7 d8bf 2968 7c3f 6f4d 0d3f 75de 4b40
000003c0: d2cd 74bf c780 923d d215 513f f8a9 1140
000003d0: deba f4bf 65c3 8bbf 40ea 8dbf d9d8 fe3f
000003e0: 5869 85bf 4ebe a0bf 78a5 10bf 9dfb 0940
000003f0: be97 2240 affd 3c40 6599 a63f 4283 f4be

layers.1.weight f4 [256, 256]
-0.6237839 -0.027645683 -0.9935545 0.26596397 0.21962485 -0.8385266 0.37681043 0.0833112
-1.032105 0.5070363 -1.3487616 0.12791333 -0.09327637 0.36955893 0.3170277 0.8812587
0.11243666 -0.17211466 -0.4529811 -0.3547261 0.45979023 1.1984714 0.06064628 -0.24353807
0.1816974 0.14097446 -0.7566906 -0.352138 1.1026146 0.13727176 -1.0842203 -0.1984713
-0.76982266 -0.2824524 0.29528686 -0.25925782 -0.057334527 -0.14599998 -0.35215846 -0.9917608
-0.01080311 -1.1552163 0.36128992 0.1420485 0.7174276 0.47751057 -0.9532465 0.029078111
-0.35957143 -0.012188746 -0.17868857 -0.1569474 -0.36585915 0.5684894 0.27374157 0.3197335
0.43827024 -0.5253559 -0.087765895 0.49284628 0.51375604 -1.0561941 -0.5200044 0.8682948
-0.9575793 0.09358954 0.39178327 0.14286664 -0.15160924 0.9360429 -0.01837754 -0.4088084
-0.4644546 0.31514576 -0.99262726 -1.1589243 0.39535195 1.2230647 0.9213465 -0.42371452
0.14062695 0.5723584 -0.18878856 -0.23398314 -0.028880842 -0.033763554 0.07080334 0.7776543
-0.77681935 0.33860615 0.7120961 0.108184755 0.9142193 0.51846784 -1.0434587 -0.88139904
0.20623924 -1.4490203 0.17818457 0.14541215 0.40964282 -0.034934398 0.19128644 0.65931064
0.3497853 -0.68411636 0.59756106 0.23488061 0.09952663 -0.29807198 0.3351576 -0.90677416
0.41213843 -0.76057255 -0.46388224 -0.056908295 0.4948972 -0.22480035 0.015234032 0.8553118
0.31514317 -0.27104643 0.27134955 -0.10486851 -0.13607395 -0.25543797 -0.14559664 0.42028153
-0.27328843 -0.30219197 0.5389029 -0.24595568 -0.09140258 0.31954685 0.016396472 1.2156545
0.7462424 -0.5350511 -0.7166241 0.5911783 0.47747827 0.037074275 0.4445855 -0.42461297
0.3471187 0.68189436 -1.1863929 0.9848573 0.8056179 -0.026673263 0.94851565 0.35365096
-0.28060913 0.18461755 0.40390337 -0.1303477 -0.012820847 0.27466643 -0.6940714 0.03972053
0.86832607 0.2169626 0.1961606 0.22253412 0.48540217 0.042916995 -0.5209067 -0.30394426
-0.084778965 0.6211594 0.40977713 -0.29187724 -0.6812091 0.8762642 -0.009135083 0.29478145
0.31741935 0.99545336 -0.17679615 -0.54744637 -0.44869602 0.5975714 -0.72699696 0.5766488
0.9874903 0.036811665 -0.25241855 -0.14888476 -0.726892 -0.783126 -0.12647088 -0.9465932
0.9615915 -0.5975188 0.2474358 -0.53161716 -0.08225336 -0.62074625 -0.30167085 -0.8212828
0.1624025 0.51580995 -0.14013077 -0.1367851 0.54199296 0.9534975 -0.13164398 1.0285028
-0.15309606 0.006198598 0.3728092 1.121099 -0.43723056 -1.3641961 -0.108979456 0.14323223
-0.8074767 -0.10906904 -0.06287827 0.51201206 -0.5102648 0.14163448 -0.12457384 0.22139609
0.51285213 -0.20413283 0.48114017 0.19126497 -0.050920352 -0.252377 -0.003927691 -0.5521466
-0.097529754 0.8298364 -0.4712236 -0.66717774 -0.060506873 -0.07399068 -0.37574735 -0.24018562
-0.77908015 0.16801228 0.83519614 -0.24240215 -0.71612215 0.007977913 0.46720204 0.15418893
0.18460678 -0.23596057 1.2369035 1.5104053 -0.18013439 -0.031053945 -0.35766038 0.11615777
00000000: 4db0 1fbf 3379 e2bc 9659 7ebf 6e2c 883e
00000010: 56e5 603e aea9 56bf 4ced c03e 109f aa3d
00000020: 041c 84bf 22cd 013f 38a4 acbf b6fb 023e
00000030: ae07 bfbd d436 bd3e 7451 a23e 2c9a 613f
00000040: 3145 e63d d33e 30be 24ed e7be a99e b5be
00000050: a069 eb3e 8367 993f 3c68 783d 0b62 79be
00000060: e20e 3a3e 9c5b 103e 7ab6 41bf 6f4b b4be
00000070: 7a22 8d3f f890 0c3e bbc7 8abf 0f3c 4bbe
00000080: 1913 45bf 9a9d 90be d72f 973e 71bd 84be
00000090: 9cd7 6abd 0581 15be 1d4e b4be 09e4 7dbf
000000a0: 87ff 30bc 21de 93bf fefa b83e 2975 113e
000000b0: 56a9 373f 447c f43e f607 74bf 3835 ee3c
000000c0: bf19 b8be 4eb3 47bc 23fa 36be d2b6 20be
000000d0: e451 bbbe 8588 113f db27 8c3e 1cb4 a33e
000000e0: f564 e03e b97d 06bf 9bbe b3bd 5956 fc3e
000000f0: 8485 033f 5e31 87bf 021f 05bf 9148 5e3f
00000100: eb23 75bf dfab bf3d d197 c83e a24b 123e
00000110: 743f 1bbe 82a0 6f3f 7f8c 96bc 564f d1be
00000120: fecc edbe c95a a13e d21c 7ebf a257 94bf
00000130: 926b ca3e 628d 9c3f 5ddd 6b3f 1cf1 d8be
00000140: 8300 103e 1586 123f ca51 41be 4799 6fbe
00000150: 8497 ecbc a74b 0abd 5701 913d 5a14 473f
00000160: a2dd 46bf c95d ad3e ee4b 363f f88f dd3d
00000170: 470a 6a3f 4fba 043f 0e90 85bf 5ea3 61bf
00000180: 6130 533e 7f79 b9bf 0476 363e ece6 143e
00000190: b4bc d13e 5f17 0fbd 98e0 433e 95c8 283f
000001a0: 0f17 b33e 4022 2fbf c3f9 183f 8b84 703e
000001b0: 9ed4 cb3d e49c 98be c799 ab3e 5a22 68bf
000001c0: cf03 d33e e2b4 42bf f981 edbe ac18 69bd
000001d0: 2a63 fd3e 1032 66be 2998 793c b7f5 5a3f
000001e0: 725a a13e 99c6 8abe 54ee 8a3e 4dc5 d6bd
000001f0: f856 0bbe c4c8 82be 4917 15be 242f d73e
00000200: 76ec 8bbe e8b8 9abe 8af5 093f cedb 7bbe
00000210: 4731 bbbd a59b a33e e551 863c 919a 9b3f
00000220: be09 3f3f 1cf9 08bf ad74 37bf 7657 173f
00000230: 0878 f43e 32db 173d b6a0 e33e df66 d9be
00000240: 8bb9 b13e a190 2e3f b9db 97bf 9c1f 7c3f
00000250: fa3c 4e3f e381 dabc ecd1 723f bd11 b53e
00000260: 00ac 8fbe 620c 3d3e 6ccc ce3e de79 05be
00000270: 880e 52bc 14a1 8c3e aaae 31bf ffb1 223d
00000280: 9e4a 5e3f 722b 5e3e 53de 483e fcdf 633e
00000290: a286 f83e bbc9 2f3d 245a 05bf 959e 9bbe
000002a0: 98a0 adbd 4d04 1f3f 4fce d13e ef70 95be
000002b0: b863 2ebf da52 603f 51ab 15bc 98ed 963e
000002c0: ca84 a23e 08d6 7e3f 0d0a 35be 7225 0cbf
000002d0: 7cbb e5be 70fa 183f 791c 3abf 419f 133f
000002e0: 2acc 7c3f d4c7 163d 013d 81be 3f75 18be
000002f0: 9815 3abf f27a 48bf 9581 01be ef53 72bf
00000300: dc2a 763f fef6 18bf cf5f 7d3e 1018 08bf
00000310: 7374 a8bd 3ae9 1ebf 9a74 9abe 973f 52bf
00000320: d74c 263e 1f0c 043f 717e 0fbe 6511 0cbe
00000330: 0dc0 0a3f 6a18 743f aecd 06be fba5 833f
00000340: 37c5 1cbe 9c1d cb3b d9e0 be3e 2c80 8f3f
00000350: afdc dfbe fa9d aebf 9f30 dfbd 78ab 123e
00000360: cbb6 4ebf 975f dfbd 53c6 80bd 3913 033f
00000370: b7a0 02bf a108 113e 9220 ffbd a8b5 623e
00000380: 474a 033f 3208 51be 0158 f63e f7da 433e
00000390: dc91 50bd 8f37 81be dcb3 80bb 7b59 0dbf
000003a0: aebd c7bd 2970 543f 3844 f1be 29cc 2abf
000003b0: 0ed6 77bd 6d88 97bd f561 c0be 38f3 75be
000003c0: cc71 47bf 690b 2c3e 6acf 553f 4538 78be
000003d0: c853 37bf cbb5 023c 1b35 ef3e b4e3 1d3e
000003e0: 8f09 3d3e a69f 71be db52 9e3f f654 c13f
000003f0: 2675 38be d864 febc 431f b7be 20e4 ed3d

layers.1.bias f4 [256]
-0.8342218 -0.9378602 -0.4750741 0.6392507 1.1505454 -0.3249654 0.20501243 -2.1778214
1.6611099 0.861323 -0.95259666 0.83567005 0.37074453 -0.013725419 -0.092388816 0.33710292
-0.9023029 -0.069408976 0.5923043 -1.1419598 -1.013745 -1.5771524 0.53114516 -0.8225833
-0.7051237 0.17791401 1.7106367 0.5817263 0.54694307 0.99274176 0.31230563 0.32205132
-0.2599225 0.21648455 -0.13614675 0.12514263 1.1344103 1.2368423 0.43560395 -1.0426159
0.05698668 -0.21844469 0.15660018 -0.417673 1.1084319 0.7594787 0.5110657 -0.48673484
-0.46974295 0.43648624 0.05026529 -0.019286795 0.29413894 0.34280625 -0.51589715 -0.7257852
0.08499109 -0.8203834 -0.7583331 0.68520594 -0.6791907 0.40373528 -0.425063 1.215425
0.7992548 0.35294932 -0.25971794 -0.1265426 0.36690125 -0.5029975 0.34182942 1.0161557
-0.19936782 -0.0022337306 -0.54099363 -0.47097492 0.14810842 -0.099390835 0.64499766 -0.07112677
0.044628084 -1.0227754 1.9723492 -0.6451876 -0.31591702 0.3335806 -0.104202785 -0.34642935
0.09489115 -0.6596592 -0.37904567 -0.92878187 0.030569326 0.06281476 0.39673 0.71716267
0.9813049 0.10231731 0.20845996 -0.17555723 0.77805775 -0.13449515 -1.3432561 0.024279634
0.3390309 0.1965874 0.1011518 -0.57006484 0.7927725 -0.35162055 0.57045645 0.40864676
-0.626396 0.3031021 0.23391013 -0.5287081 0.10887997 0.2925656 0.6448474 0.16753776
-0.3774372 0.24978352 0.7713303 0.080497965 0.41437185 -0.15246075 1.1691048 -0.38368353
0.85947436 1.269858 -0.15927774 0.2607094 -0.73921585 -0.65693367 -0.72181135 -0.28090596
0.13354804 0.16392778 0.7559006 0.7518789 0.23615147 -0.64464307 -0.12903851 -0.7180604
0.26721296 0.34061897 -0.121279344 0.5642168 -0.2629942 -0.28523612 -0.51869273 0.12829582
1.4051124 -0.5524417 -0.71619 0.07782483 0.15372968 -0.085723296 -0.76878697 -0.46382007
-0.629511 -0.2858382 -0.58468175 -0.5814225 0.74779284 -0.47508 -0.7294783 0.66878754
0.51074547 -0.3431893 0.6869642 0.5918406 0.61449134 -0.5503364 0.1914833 -0.010571537
0.3871602 0.55661374 -0.18561341 0.17521153 0.010219415 -0.1575945 0.56964236 1.2158383
-0.27652633 0.67958665 -0.029822482 -0.79093313 -0.3824431 1.217773 -0.42049465 -0.17695452
-0.6102201 0.21475069 -0.176203 -0.67254084 0.49313912 0.49953985 -0.61918247 -0.6442085
0.095926866 0.4975747 0.15623689 -0.5059785 0.45805925 0.23802195 -0.6436279 -0.21105835
-0.75764346 0.06044666 -0.30215433 0.32441768 -0.16964523 0.041454367 0.093325235 -0.6620538
-1.0860897 0.041819938 -0.7552253 0.7061744 0.20077735 -0.07735459 0.38345966 0.5069958
-0.7764464 -0.5581835 -0.73169076 -0.35862413 0.11986521 0.5804495 0.5566261 -0.052405097
0.283181 -1.0430328 0.7299303 -0.014267065 -0.6472842 0.13447624 -0.2118628 -0.87421
-0.76342624 -0.50680023 -0.42853314 1.5700613 -0.4499738 0.038827527 -0.53451 0.28704724
0.16799784 0.17898998 -0.637439 0.24154028 -0.25735354 -0.87242836 -0.57029134 -0.20805368
00000000: 8f8f 55bf 9b17 70bf ea3c f3be efa5 233f
00000010: 1245 933f dd61 a6be c7ee 513e 6d61 0bc0
00000020: 409f d43f aa7f 5c3f 60dd 73bf 79ee 553f
00000030: 3ad2 bd3e 94e0 60bc 5936 bdbd c198 ac3e
00000040: 53fd 66bf 4b26 8ebd 41a1 173f bd2b 92bf
00000050: 65c2 81bf 21e0 c9bf 21f9 073f d294 52bf
00000060: fd82 34bf 172f 363e 25f6 da3f 04ec 143f
00000070: 7604 0c3f 5324 7e3f 86e6 9f3e e9e3 a43e
00000080: 9014 85be 20ae 5d3e 0e6a 0bbe 6425 003e
00000090: 5b34 913f d950 9e3f 7b07 df3e 7074 85bf
000000a0: dd6a 693d f7af 5fbe cc5b 203e 3cd9 d5be
000000b0: 19e1 8d3f 326d 423f 34d5 023f 4f35 f9be
000000c0: 2682 f0be 207b df3e fae2 4d3d 57ff 9dbc
000000d0: 6199 963e 4d84 af3e d611 04bf 0fcd 39bf
000000e0: cf0f ae3d a604 52bf 1e22 42bf a869 2f3f
000000f0: 71df 2dbf 64b6 ce3e dca1 d9be 0c93 9b3f
00000100: f69b 4c3f c6b5 b43e c0f9 84be 6294 01be
00000110: 7bda bb3e 72c4 00bf 4404 af3e 6411 823f
00000120: 1427 4cbe c863 12bb 8f7e 0abf a023 f1be
00000130: bca9 173e 6c8d cbbd 911e 253f e9aa 91bd
00000140: f0cb 363d 4eea 82bf f075 fc3f 042b 25bf
00000150: e0bf a1be 14cb aa3e 4568 d5bd 305f b1be
00000160: 4b56 c23d 6ddf 28bf 4612 c2be a6c4 6dbf
00000170: 866c fa3c 06a5 803d 3220 cb3e f997 373f
00000180: cc36 7b3f bd8b d13d 8776 553e 46c5 33be
00000190: cb2e 473f 19b9 09be d1ef abbf 15e6 c63c
000001a0: 7595 ad3e 354e 493e ad28 cf3d c5ef 11bf
000001b0: 23f3 4a3f 9c07 b4be 6f09 123f 263a d13e
000001c0: 7d5b 20bf 3330 9b3e 2386 6f3e 6a59 07bf
000001d0: 76fc de3d 29cb 953e b814 253f 058f 2b3e
000001e0: 733f c1be 40c7 7f3e e775 453f 1edc a43d
000001f0: 8c28 d43e ac1e 1cbe 3aa5 953f 2b72 c4be
00000200: 8306 5c3f b58a a23f b419 23be b47b 853e
00000210: 403d 3dbf ce2c 28bf a1c8 38bf e8d2 8fbe
00000220: d1c0 083e afdc 273e b482 413f 237b 403f
00000230: b1d1 713e 5407 25bf ac22 04be ced2 37bf
00000240: 23d0 883e 9c65 ae3e 4e61 f8bd 8370 103f
00000250: 2da7 86be 780a 92be 0cc9 04bf fb5f 033e
00000260: b9da b33f d26c 0dbf 3a58 37bf a062 9f3d
00000270: 506b 1d3e b28f afbd 39cf 44bf d379 edbe
00000280: a227 21bf 6259 92be b4ad 15bf 1bd8 14bf
00000290: 5a6f 3f3f b03d f3be 17bf 3abf a935 2b3f
000002a0: 37c0 023f 82b6 afbe e3dc 2f3f de82 173f
000002b0: 4e4f 1d3f d9e2 0cbf 3314 443e 3d34 2dbc
000002c0: dd39 c63e 3d7e 0e3f 7111 3ebe a76a 333e
000002d0: 556f 273c 7460 21be 15d4 113f 97a0 9b3f
000002e0: dc94 8dbe 64f9 2d3f 474e f4bc 987a 4abf
000002f0: 95cf c3be fcdf 9b3f 134b d7be 9133 35be
00000300: 6237 1cbf 9be7 5b3e 8f6e 34be a32b 2cbf
00000310: bb7c fc3e b0c3 ff3e be82 1ebf d9ea 24bf
00000320: 4e75 c43d 1cc2 fe3e 90fc 1f3e cf87 01bf
00000330: be86 ea3e 07bc 733e ccc4 24bf ae1f 58be
00000340: ecf4 41bf eb96 773d f9b3 9abe 131a a63e
00000350: 7bb7 2dbe 0ecc 293d 4d21 bf3d 5c7c 29bf
00000360: fd04 8bbf 624b 2b3d 7256 41bf d8c7 343f
00000370: 9498 4d3e 156c 9ebd d354 c43e 7aca 013f
00000380: 31c5 46bf 1de5 0ebf 1650 3bbf 959d b7be
00000390: e47b f53d 5798 143f 0c7f 0e3f baa6 56bd
000003a0: 1afd 903e 1982 85bf b6dc 3a3f 68c0 69bc
000003b0: 6bb4 25bf 24b4 093e 90f2 58be 3acc 5fbf
000003c0: e76f 43bf a9bd 01bf b268 dbbe c5f7 c83f
000003d0: f762 e6be 9d09 1f3d a6d5 08bf dbf7 923e
000003e0: a007 2c3e 2649 373e 342f 23bf 5656 773e
000003f0: d8c3 83be 7757 5fbf 9dfe 11bf 060c 55be

value_stream.weight f4 [1, 256]
0.14558733 -0.16224921 -0.20086078 -0.28702578 -0.19228645 -0.23486231 0.24794492 0.30722493
-0.9788684 -0.15640326 0.76693887 0.61112916 0.109764926 0.2700898 0.14292905 -0.18323769
0.3888262 -0.12540156 0.19342732 0.6523727 0.19396865 -0.3957915 -0.37976953 0.39692265
0.23860294 -0.16291365 -0.2764953 0.008764297 0.22720307 0.54082173 -0.27687037 1.0758268
-0.47788304 0.09754828 -0.12427765 -0.2587961 -0.28331298 0.604184 -0.34553662 0.269791
-0.1616769 0.2870406 -0.22245432 -0.14059575 -0.3323699 0.13987635 0.599635 0.18689814
-0.1589056 -0.43194118 -0.6713496 0.20428738 0.075334005 0.34868237 0.14891958 0.56939816
-0.11650744 0.23773134 0.048609093 -0.13190469 -0.67617214 0.24345005 0.16731437 0.707763
-0.24536192 0.2985504 0.28951672 -0.14564383 0.20246999 -0.2514771 0.19821146 0.3625275
0.15063739 0.31856897 0.32191375 0.27786598 0.18021427 -0.2830669 -0.17009751 0.17961937
0.22714813 0.55501693 0.46262363 0.6053392 -0.195632 0.339912 0.16071773 0.4643832
0.49688897 -0.14678743 0.23032613 0.38859048 0.15104029 0.2300148 0.108213775 0.49810812
0.27098545 0.2460454 0.2236248 0.14946072 0.1579258 0.73760855 0.30805433 -0.2254106
0.2441528 -0.22254167 -0.22633126 -0.2482847 -0.5039982 -0.17548363 -0.12372328 -0.2356023
-0.3994692 -0.13327661 -0.75967395 -0.33772966 -0.24010278 -0.1605436 -0.24482922 -0.23077549
-0.21872197 0.35404846 0.2637413 0.17269161 0.07907758 0.16750358 1.4775081 0.13324656
-0.19160272 -0.14589931 -0.1563536 0.29662544 -0.36558682 0.15560801 0.4280308 -0.18025503
-0.40872252 0.09727456 0.12527989 0.26152822 -0.3167539 0.31611818 -0.20683593 0.10225786
0.21226496 -0.0352164 -0.26001668 0.29519707 0.45200387 0.16899487 -0.22232042 -0.22937879
-0.28621915 0.22910963 0.15270828 -0.12893781 0.21319064 0.23604293 0.47362494 0.16115555
0.25814655 -0.30184633 0.74273205 -0.101821 -0.43977565 -0.20339648 0.13024545 0.43146235
0.68238044 -0.1406377 -0.17513704 0.03958561 -0.31078675 0.19579434 0.113391995 -0.159856
-0.3728223 0.27173534 0.11137069 0.27456483 -0.19321848 0.17941773 0.20626384 0.27458048
-0.09052518 -0.10310654 -0.29747432 -0.55837995 -0.38191465 0.15864392 -0.24279284 0.06107555
-0.32746336 0.12642902 0.47872293 0.26937866 -0.2529131 -0.12075876 0.15599358 -0.27104494
0.4229733 -0.117784254 -0.25392127 -0.93128896 -0.050330564 -0.25400433 0.21012004 0.14250726
0.10187282 0.10678504 0.20426883 0.11197641 0.77753955 -0.1281636 -0.23210622 -0.2101095
0.2108313 0.18954428 0.28915307 -0.22148553 0.108625725 -0.2519211 -0.15433802 -0.40978438
1.2313217 0.15609343 0.17337334 -0.23027936 -0.6693246 0.15047869 -0.04715744 0.20143797
0.16452725 -0.30459484 -0.35861123 0.2154073 -0.43317935 -0.293208 -0.3040685 -0.15974554
1.4616449 -0.13413128 0.31646398 -0.26184264 0.23795 0.13666685 0.16750829 0.43832383
0.22636193 -0.21449672 0.31021014 -0.21440984 0.35516927 0.31263232 -0.30670875 0.4624639
00000000: d814 153e a824 26be 73ae 4dbe 0bf5 92be
00000010: bde6 44be bf7f 70be 46e5 7d3e 964c 9d3e
00000020: 1f97 7abf 2d28 20be 1b56 443f f672 1c3f
00000030: 6fcc e03d 3649 8a3e fe5b 123e a9a2 3bbe
00000040: 3a14 c73e 4469 00be d011 463e e601 273f
00000050: b89f 463e 2fa5 cabe 2771 c2be 7239 cb3e
00000060: 5454 743e d6d2 26be cb90 8dbe 2098 0f3c
00000070: eca7 683e 4b73 0a3f f4c1 8dbe b1b4 893f
00000080: 16ad f4be 65c7 c73d 4885 febd ec80 84be
00000090: 660e 91be cdab 1a3f 2dea b0be 0c22 8a3e
000000a0: a18e 25be fcf6 923e 11cb 63be 55f8 0fbe
000000b0: 632c aabe bf3b 0f3e ae81 193f 3a62 3f3e
000000c0: 26b8 22be 6527 ddbe 91dd 2bbf b630 513e
000000d0: b748 9a3d 7f86 b23e 607e 183e 14c4 113f
000000e0: 749b eebd d86f 733e 541a 473d 0612 07be
000000f0: 9e19 2dbf f84a 793e 7554 2b3e f52f 353f
00000100: 2840 7bbe 99db 983e 893b 943e a823 15be
00000110: 4b54 4f3e 9bc1 80be f2f7 4a3e 349d b93e
00000120: b040 1a3e 791b a33e e1d1 a43e 7344 8e3e
00000130: 178a 383e 25ee 90be 0b2e 2ebe 24ee 373e
00000140: 8599 683e 9715 0e3f 01dd ec3e 83f7 1a3f
00000150: c153 48be f208 ae3e 3093 243e a3c3 ed3e
00000160: 3b68 fe3e 724f 16be 9dda 6b3e 55f5 c63e
00000170: 4eaa 1a3e 0089 6b3e 2f9f dd3d 0708 ff3e
00000180: 9bbe 8a3e 53f3 7b3e e6fd 643e 3b0c 193e
00000190: 4db7 213e ead3 3c3f 4cb9 9d3e 09d2 66be
000001a0: 3103 7a3e f7e1 63be 62c3 67be 583e 7ebe
000001b0: 0706 01bf fbb1 33be a262 fdbd bb41 71be
000001c0: 3a87 ccbe aa79 08be fe79 42bf e7ea acbe
000001d0: 81dd 75be 8b65 24be 83b4 7abe 6950 6cbe
000001e0: a7f8 5fbe d745 b53e 1a09 873e 12d6 303e
000001f0: 6df3 a13d 0f86 2b3e fc1e bd3f c971 083e
00000200: 8133 44be a166 15be 281b 20be 4adf 973e
00000210: 322e bbbe b557 1f3e da26 db3e c694 38be
00000220: 1444 d1be e237 c73d 5f49 003e 07e7 853e
00000230: 912d a2be 3eda a13e cccc 53be 926c d13d
00000240: fc5b 593e 123f 10bd e820 85be 1224 973e
00000250: 0d6d e73e fe0c 2d3e f7a7 63be 46e2 6abe
00000260: 518b 92be b79b 6a3e 8f5f 1c3e 4608 04be
00000270: a64e 5a3e 3db5 713e f87e f23e f605 253e
00000280: c92b 843e 9a8b 9abe b023 3e3f 8787 d0bd
00000290: 462a e1be 2b47 50be 105f 053e a2e8 dc3e
000002a0: 7cb0 2e3f 5403 10be 2057 33be 8524 223d
000002b0: 711f 9fbe 507e 483e 103a e83d 4bb1 23be
000002c0: 91e2 bebe e520 8b3e 5116 e43d c393 8c3e
000002d0: 11db 45be 48b9 373e d436 533e d095 8c3e
000002e0: 4465 b9bd 8629 d3bd 8e4e 98be fdf1 0ebf
000002f0: 518a c3be 8d73 223e b09e 78be 5b2a 7a3d
00000300: 47a9 a7be 9c76 013e 2c1b f53e 00ec 893e
00000310: d37d 81be 5e50 f7bd c8bc 1f3e 67c6 8abe
00000320: f58f d83e df38 f1bd f801 82be f468 6ebf
00000330: 6c27 4ebd db0c 82be b529 573e 6ced 113e
00000340: b2a2 d03d 1db2 da3d d92b 513e e353 e53d
00000350: d50c 473f 523d 03be 41ad 6dbe f226 57be
00000360: 29e4 573e e517 423e df0b 943e 1acd 62be
00000370: 2a77 de3d cdfb 80be c90a 1ebe 42cf d1be
00000380: f39b 9d3f f5d6 1f3e c888 313e 5ace 6bbe
00000390: db58 2bbf 1617 1a3e 2928 41bd c145 4e3e
000003a0: d579 283e dbf3 9bbe e49b b7be bb93 5c3e
000003b0: afc9 ddbe 5c1f 96be deae 9bbe 5694 23be
000003c0: 2e17 bb3f b659 09be 9107 a23e 3d10 86be
000003d0: 2aa9 733e 65f2 0b3e 4b87 2b3e fb6b e03e
000003e0: 6ccb 673e 07a5 5bbe ddd3 9e3e 418e 5bbe
000003f0: bfd8 b53e 5811 a03e ee08 9dbe 11c8 ec3e

advantage_stream.weight f4 [20, 256]
0.109274864 -0.07466128 -0.13433875 -0.047990445 -0.05577746 -0.091751404 0.003098082 0.09791469
-0.13222882 -0.0007247687 0.048150692 0.047781058 0.003587979 0.17870761 0.077575564 -0.03194658
-0.14392434 -0.06744659 -0.053764973 0.21853055 -0.057532948 -0.11575742 -0.19161959 0.08284703
0.030838365 0.059732888 0.039308168 -0.06729064 0.004853176 0.05838729 0.0031212724 0.058572486
-0.12906721 0.04395124 -0.01686684 0.020617586 -0.090568826 0.06989312 -0.043223865 -0.10459986
-0.15205751 -0.015336167 -0.015550727 0.0031910501 -0.031224933 -0.06504029 0.11464538 0.03869699
-0.06544099 0.021195747 -0.0027835406 0.037745513 -0.053058803 0.11453774 -0.011740398 -0.0637896
0.017552013 -0.21645682 0.020141488 0.039746027 0.2742396 -0.09072576 -0.12345024 0.03716141
0.08098379 -0.011741592 0.1402837 -0.056297593 -0.01866441 0.039323818 0.022000376 0.11673501
-0.07858703 0.08472482 0.026324647 -0.07190858 -0.08131552 -0.12263982 0.027670106 0.05278469
-0.08762835 0.043762386 0.18965259 -0.033794526 -0.03842546 -0.027584795 -0.043857615 0.060091417
0.042517792 0.053959128 -0.027139131 -0.1875601 -0.06577919 0.1001322 -0.07575707 -0.051286586
-0.08313315 0.045886382 0.048408747 -0.17596853 -0.043258756 0.039085303 0.039907873 0.011087997
0.015846295 -0.042924013 -0.0875781 -0.12605411 0.0050726254 -0.046685535 -0.047394633 0.046364915
-0.060772974 0.033581875 -0.035086956 -0.06430834 -0.0030617567 0.02768316 -0.017592203 0.0038226668
0.023894308 0.036062054 -0.027647639 -0.022646997 -0.12062599 0.16254583 -0.07784831 -0.01842494
0.04789255 -0.042271353 0.079650454 -0.080920845 -0.1997205 0.22963525 -0.015367884 -0.09027231
0.06529566 0.007008334 -0.09149377 -0.0261204 0.026146894 -0.1640971 -0.005581505 0.0057878913
0.012138668 -0.057296697 0.04027496 0.03502108 0.089354776 -0.028909354 0.12704375 -0.040832683
0.04953081 -0.014949994 0.008763211 0.016285613 0.056387782 0.030210342 -0.028814271 -0.05138015
0.0030749661 -0.010215982 0.04054615 -0.011536688 -0.0663897 -0.004601043 0.00062259554 0.08533963
-0.06761417 0.12339683 0.09314142 0.06473899 0.15678443 -0.14510077 -0.029763151 0.012162424
-0.03156777 -0.13345878 0.08488395 0.10221416 -0.04261807 -0.100076325 0.050595418 -0.019115962
-0.00051390403 0.07081175 -0.051287465 0.13850072 0.0016100274 -0.06782202 -0.019081341 0.05056377
-0.020534908 -0.0016497694 -0.074401245 -0.04170517 -0.046987746 -0.012565238 -0.058482066 -0.098626874
-0.2090554 0.056102518 -0.041228764 -0.00026493776 0.0007416701 -0.017966991 0.21683952 0.03894441
-0.0050383294 0.0039258567 0.008500711 0.021039018 0.0150042735 -0.055485077 0.03871707 -0.1197668
0.04004911 -0.0018015333 0.06785874 -0.08745195 -0.031920858 0.04484655 0.029536013 -0.1376871
0.15203612 -0.13049905 -0.040200837 -0.02168827 0.11566664 -0.029411076 -0.03421152 -0.005249109
0.045640104 -0.020930441 0.015836762 0.04245777 -0.02689252 0.06856378 0.020529814 -0.077364124
-0.089207195 -0.045875374 0.046415508 -0.060945597 0.016603509 -0.046722434 -0.016038172 0.041660197
0.0018132215 -0.063262336 0.01215354 -0.018823512 -0.03502888 0.052465923 -0.058821373 0.020499619
00000000: 80cb df3d 03e8 98bd 1990 09be a191 44bd
00000010: e876 64bd 29e8 bbbd 3109 4b3b 7f87 c83d
00000020: fe66 07be 67fe 3dba a939 453d 12b6 433d
00000030: 4c24 6b3b 21ff 363e f0df 9e3d 6bda 02bd
00000040: e760 13be 7021 8abd a938 5cbd 79c6 5f3e
00000050: aba7 6bbd 3a12 edbd ed37 44be b4ab a93d
00000060: bda0 fc3c 79aa 743d 9a01 213d adcf 89bd
00000070: 6407 9f3b 8327 6f3d 438e 4c3b b4e9 6f3d
00000080: 322a 04be 3706 343d 542c 8abc 36e6 a83c
00000090: 267c b9bd 2024 8f3d 820b 31bd 7438 d6bd
000000a0: f7b4 1bbe 8c44 7bbc 7ac8 7ebc f020 513b
000000b0: 6ecb ffbc d833 85bd 32cb ea3d bc80 1e3d
000000c0: ed05 86bd b4a2 ad3c 106c 36bb 0a9b 1a3d
000000d0: 3054 59bd c392 ea3d cc5a 40bc 1fa4 82bd
000000e0: 3dc9 8f3c dba6 5dbe c3ff a43c bbcc 223d
000000f0: 2269 8c3e 6dce b9bd 7bd3 fcbd 9036 183d
00000100: d4da a53d ce5f 40bc 88a6 0f3e 4e98 66bd
00000110: 1be6 98bc 0312 213d 223a b43c c412 ef3d
00000120: 3df2 a0bd 3584 ad3d c9a6 d73c ce44 93bd
00000130: c088 a6bd 962a fbbd 6bac e23c c234 583d
00000140: 7e76 b3bd 3040 333d 4a34 423e 216c 0abd
00000150: 0464 1dbd 82f9 e1bc 0ba4 33bd 6b22 763d
00000160: 2327 2e3d 3f04 5d3d e252 debc c10f 40be
00000170: 3db7 86bd 1c12 cd3d 8626 9bbd e211 52bd
00000180: b741 aabd 5cf3 3b3d 4048 463d 1831 34be
00000190: 1830 31bd e917 203d 7076 233d 6eaa 353c
000001a0: 17d0 813c 17d1 2fbd 265c b3bd 5414 01be
000001b0: 4438 a63b 5539 3fbd e020 42bd 23e9 3d3d
000001c0: 15ed 78bd 268d 093d 57b7 0fbd 17b4 83bd
000001d0: c1a7 48bb cbc7 e23c 861d 90bc b585 7a3b
000001e0: ffbd c33c ceb5 133d 4d7d e2bc 3286 b9bc
000001f0: c20a f7bd 6a72 263e ef6e 9fbd e6ef 96bc
00000200: fa2a 443d ba24 2dbd c71f a33d d4b9 a5bd
00000210: 8883 4cbe 8125 6b3e 94c9 7bbc b0e0 b8bd
00000220: bbb9 853d 2ba6 e53b 1661 bbbd 73fa d5bc
00000230: 0332 d63c 1209 28be 0fe5 b6bb 5aa8 bd3b
00000240: 44e1 463c f1af 6abd 5bf7 243d 4472 0f3d
00000250: a3ff b63d 4fd3 ecbc c217 023e 2c40 27bd
00000260: d2e0 4a3d d2f0 74bc 9293 0f3c 6869 853c
00000270: e0f6 663d ae7b f73c e80b ecbc fe73 52bd
00000280: 5f85 493b ef60 27bc b813 263d 6004 3dbc
00000290: 53f7 87bd 59c4 96bb ae35 233a 8bc6 ae3d
000002a0: 4c79 8abd 7ab7 fc3d eec0 be3d e095 843d
000002b0: 198c 203e 4c95 14be dad1 f3bc e744 473c
000002c0: 354d 01bd 6ba9 08be a3d7 ad3d a855 d13d
000002d0: 4990 2ebd d1f4 ccbd 243d 4f3d 1499 9cbc
000002e0: 84b7 06ba c005 913d ce12 52bd 22d3 0d3e
000002f0: 8e07 d33a 45e6 8abd 7950 9cbc f51b 4f3d
00000300: d338 a8bc 133d d8ba ae5f 98bd 0ad3 2abd
00000310: 3976 40bd 6ede 4dbc e48a 6fbd e3fc c9bd
00000320: 9e12 56be c1cb 653d 7edf 28bd 58e7 8ab9
00000330: a36c 423a 832f 93bc 2e0b 5e3e 2c84 1f3d
00000340: 9218 a5bb 79a4 803b 9146 0b3c 055a ac3c
00000350: 7cd4 753c 5244 63bd ca95 1e3d 4c48 f5bd
00000360: 890a 243d 6d21 ecba 86f9 8a3d 021a b3bd
00000370: 72bf 02bd 04b1 373d 82f5 f13c d9fd 0cbe
00000380: 5baf 1b3e 8ba1 05be a2a9 24bd 99ab b1bc
00000390: a2e2 ec3d 7fef f0bc 6121 0cbd b800 acbb
000003a0: 1ef1 3a3d 5176 abbc 19bc 813c 33e8 2d3d
000003b0: b44d dcbc 2b6b 8c3d 242e a83c 1571 9ebd
000003c0: 43b2 b6bd d1e7 3bbd 301e 3e3d 17a2 79bd
000003d0: 1504 883c 0660 3fbd 7c62 83bc e2a3 2a3d
000003e0: 9ea9 ed3a af8f 81bd a41f 473c c433 9abc
000003f0: 717a 0fbd 82e6 563d aeee 70bd d1ee a73c

advantage_stream.bias f4 [20]
0.14285083 -0.26894048 0.20231679 0.40930614 0.29383174 0.38967547 0.26107916 0.11719745
0.36086193 0.09609828 -0.11828076 -0.15011364 -0.004775368 -0.102979146 0.008792048 -0.022357186
-0.07922738 0.07772581 0.31553257 -1.1115552
00000000: 7d47 123e 91b2 89be 222c 4f3e 9390 d13e
00000010: 1d71 963e 8b83 c73e 2bac 853e 3705 f03d
00000020: e5c2 b83e 2dcf c43d 2f3d f2bd 64b7 19be
00000030: b17a 9cbb bbe6 d2bd 860c 103c 6b26 b7bc
00000040: f741 a2bd b62e 9f3d 7c8d a13e 7147 8ebf
