src/hockey-env/random_training_2/weights/episode_236.pth (torch, 307504 bytes, 7 tensors)

layers.0.weight f4 [256, 18]
00000000: 4b5c f6bf 945a 323f 62df 1ebf 93d4 4abb
00000010: a965 9c3c bff4 783c 2486 8f3f 8df3 23bf
00000020: 6502 003f d66e 84bd 6d24 6fbe 6fb7 3d3e
00000030: 4ad1 733f 4762 24bd 5c92 e03d 23d1 7fbe
00000040: af7e acc0 4db5 babe fae0 723d 9265 c6bb
00000050: 8a0f 94be d4d0 82bc a8a9 533d a698 86bc
00000060: 3e38 0740 e257 523f e407 f8bd 711b bcbc
00000070: f847 163e f33a c83a a53f 29bf 2de8 78bf
00000080: 2f1f 093e 5de3 79be d331 243f d68a 993f
00000090: cb24 d9be 5deb 553e 9ee4 8b3e b2c6 a53d
000000a0: 44c5 0e3e 1379 853d 3eca f03f 457e c9be
000000b0: c269 4440 9a3e 29be 1178 d6bd d66b 4bbd
000000c0: 8cd4 e6bd f87e 913b df71 c03e bd2e 8c3e
000000d0: 87e4 1840 d6cb 323f 3e4b 523f 09bd 17bf
000000e0: 0bfb 763f 9219 5cbd 7f6f 72bd 3fc9 38bd
000000f0: fccd 80bd ef20 ee3f 9ac7 e8be c2fc 8dbe
00000100: 235c 2e3e b903 d2bd 2c4e 6b3e 6a57 903f
00000110: 864b af3d fe6d 143f 2323 bdbd 55e6 c2be
00000120: b40c d93d 6a65 97be 6774 16bf 86f8 20bd
00000130: da5c 6ab7 8ecf 92bc d7a4 033c 2511 8ec0
00000140: 8331 cabf 0d9e 72be 6318 9fbe 57a7 a13d
00000150: 8f74 293f 62c9 973e 9486 343e cae3 ab3e
00000160: 47d3 503e a421 1ebe 88fa 5540 9bcb 0fc0
00000170: cefe 8d3e c263 083d 5996 3dbd 395c 9b3c
00000180: f2b9 2e3e ae3e d93e 9108 b63e 55ab 5fbd
00000190: 6fc1 56bd 80b2 983d a66a 5ec0 2959 1240
000001a0: 1d87 e13c 0d34 833d 817f c0be 53d0 d5bc
000001b0: 83f0 5bbf eae8 9e3f ad8b 8e3e d819 6cbc
000001c0: 79a2 56bd 0627 cd3c 1242 c43f 7842 babf
000001d0: d287 593f 909e 9a3d 0dd8 f1be 6687 1e3d
000001e0: 4914 bdbe e540 c2bd c946 9abe b531 cc3e
000001f0: 7855 8cbf 49c4 de3e b41c 823f 9bf5 0dbf
00000200: 4d7e b3be 6c2a c9bd 6a19 213e 1679 1f3d
00000210: 4c6a fb3e f0fb 8abf 2644 2dc0 9f2d 583d
00000220: aae0 9f3c 554b f2be ab8f 083f 2591 0abd
00000230: af5d 893e 71c1 32bf 8071 153f 9514 223f
00000240: fc84 443f e3eb 38c0 1ac1 17bd 2cb6 bc3c
00000250: 48dc 76be b661 47bd 1297 1e3e 6235 de3f
00000260: 19eb 973f b873 c7bc 9c9a ea3d 51c1 32bd
00000270: 6a9a d6bd 6ed2 ee3d 6e56 9a3c af3c b4bb
00000280: 7ce5 8c3b 1fc8 11bd e498 1abe 5653 243e
00000290: 4067 de3d 9587 473c 955d 81bd b771 0d3c
000002a0: 5a23 6cbf 3360 a73c 0a1a 773e 0072 46bd
000002b0: 119c 953d 269e f93d e7cb e03f 7de7 ea3e
000002c0: 70e9 773e 647f d73d ab3e a7bf f8ea d4bd
000002d0: ec55 b7bf 8a7e 913e cbd5 343f e0bf a0bd
000002e0: f5c9 ac3d 1845 4c3d daff b63f 21ec 72bf
000002f0: ebc0 15bf 6826 ef3d c9bd 3ebe b555 98bd
00000300: 7ae7 1a3f 6129 6e3d 61c9 133d 5b14 c23c
00000310: 9458 e2be 19e7 e13e 9f88 813d dfc2 de3e
00000320: e503 49be cd4f 4abc fa95 143e 1c92 22ba
00000330: 9bce 983e dbb1 a53e 71cf a3be 93fe 9fbd
00000340: b074 a63d 75a4 f03c b884 ec3f 06e2 c83d
00000350: 1f63 2f40 1fca 193d e0a0 b73f d005 2cc0
00000360: 579f 043f 8320 79bc db67 f8bd aac4 783d
00000370: df82 1f3e b55c d5bc 42b5 7bbe faa5 053f
00000380: 4dae 34c0 baad d7be 6337 823d 2695 bd40
00000390: 5db5 543d a59e a3be 7635 c73d 6bda ed3d
000003a0: b8e7 2fbf d9b6 003e eac6 f7be 991a debf
000003b0: f6e0 563f 14af 813c c357 0fbe e495 283d
000003c0: 79d6 2cbe 9988 2a3f d1a1 11bf 30f6 71bd
000003d0: c335 ae3c b43d 22be b157 633f e765 9f3e
000003e0: 3209 c43d 8d42 be3c 27ba 61be 5279 953f
000003f0: 0324 353e c3e3 7abe cb5a f93d 43a0 e7bb
-1.9246916 0.6966946 -0.62059605 -0.0030949458 0.019091444 0.015195071 1.1212811 -0.64043504
0.50003654 -0.06466453 -0.23353739 0.18527006 0.95241225 -0.040132787 0.10965416 -0.24982123
-5.3904643 -0.36466447 0.059296586 -0.0060545886 -0.28918105 -0.015968718 0.05167547 -0.01643021
2.1128078 0.8216535 -0.1211088 -0.022962304 0.14675891 0.0015276357 -0.6611274 -0.9722927
0.13390802 -0.24403138 0.64138526 1.1995494 -0.42410883 0.20890565 0.2732286 0.08094539
0.13942438 0.06517234 1.881172 -0.39354149 3.068955 -0.16527787 -0.104721196 -0.049663387
-0.11271009 0.0044401847 0.37586877 0.27379408 2.3889482 0.6984228 0.8214606 -0.5927282
0.9647681 -0.053735323 -0.059188362 -0.0451138 -0.062892884 1.86038 -0.45464784 -0.277319
0.17027335 -0.10254616 0.22979039 1.1276677 0.08559327 0.57980335 -0.092352174 -0.38066354
0.10598126 -0.2956956 -0.58771366 -0.03929951 -1.3969106e-05 -0.017921235 0.008034906 -4.439593
-1.579636 -0.23693104 -0.31073293 0.07893246 0.6619348 0.2964583 0.17629462 0.33572227
0.20393096 -0.1544252 3.3434162 -2.246802 0.27733463 0.03329826 -0.04628596 0.018964874
0.1706312 0.42430633 0.3555341 -0.054606754 -0.052430566 0.07455921 -3.4752593 2.286692
0.027530247 0.06406412 -0.37597278 -0.026100313 -0.85913867 1.241483 0.2784094 -0.0144104585
-0.05240104 0.025043022 1.5332663 -1.4551535 0.8497287 0.07549775 -0.47235146 0.038703345
-0.3692954 -0.09485034 -0.3013213 0.39881673 -1.0963583 0.4350913 1.016501 -0.5545289
-0.35057297 -0.098225445 0.15732351 0.038933836 0.49104536 -1.0858135 -2.7072845 0.052777883
0.019516308 -0.473231 0.5334422 -0.033829827 0.26829287 -0.6982642 0.5837631 0.63312656
0.7676542 -2.8893974 -0.03704939 0.023036085 -0.24107468 -0.04867717 0.15487316 1.7360041
1.1868621 -0.024347171 0.11455271 -0.043641392 -0.10478671 0.1166123 0.018840041 -0.005500398
0.0042998176 -0.03559124 -0.15097386 0.16047415 0.10859537 0.012178321 -0.063166775 0.008633069
-0.9224144 0.020431614 0.24131027 -0.048448563 0.07305158 0.121883675 1.7562226 0.45879737
0.24210143 0.10522345 -1.3066 -0.10396379 -1.4323096 0.28416854 0.7063872 -0.07849097
0.08436958 0.04987058 1.429683 -0.94891554 -0.58497494 0.11677247 -0.18627085 -0.07438222
0.60509455 0.05814493 0.03608072 0.023691347 -0.44208205 0.44121626 0.063248865 0.4350805
-0.19630392 -0.012348128 0.14510337 -0.00062015816 0.29845127 0.32362255 -0.31994203 -0.07812228
0.08127725 0.029375294 1.8478003 0.098087355 2.7404249 0.037546273 1.434597 -2.6878548
0.51805633 -0.015205505 -0.12129184 0.06073443 0.15577267 -0.026045183 -0.24580863 0.52206385
-2.8231385 -0.4212473 0.063582204 5.9244566 0.051930774 -0.31956974 0.09726994 0.116139255
-0.6871295 0.12569751 -0.48393947 -1.7351867 0.83937013 0.015830554 -0.13998322 0.04115857
-0.1687869 0.6661468 -0.5688754 -0.059072673 0.02126587 -0.1584385 0.8880568 0.31132433
0.09572066 0.023225093 -0.22043668 1.1677649 0.17689519 -0.24500947 0.121755205 -0.007068665

layers.0.bias f4 [256]
00000000: 2171 c4bc 613d 29bf 4cda 9b3f 303a 5b3f
00000010: 8315 b43f f215 08c0 1fa1 c73f a9fe 0240
00000020: 6662 d1bf 685d 21c0 dbae 2740 57f5 9f3e
00000030: 8644 9cbe fdfc 4440 1581 40bf 261a 07c0
00000040: 1fad 2d40 2590 98bf 4a1c 193f 5915 853f
00000050: 2858 c0be 4f64 6fc0 fb90 fb3e c518 7b40
00000060: f6c4 40bf 07b1 08c0 d05b 90be 885d 72be
00000070: 66be 8ebe 1882 10bf 1a19 a2bf a02e ad3f
00000080: 8a4d 29c0 3ca0 99be caf3 1d3f 4c53 20be
00000090: 2747 04c0 2ebc 7dc0 bd03 d3bf f36b e73f
000000a0: 48ab 3c3f 0d79 2840 c15f 8f3f ecb3 f5bf
000000b0: d39d 453d b744 83bf 4a54 73bf 824a 4740
000000c0: 7fad 2040 b053 b9bf db74 c73f 1dda 94bf
000000d0: 1029 0c3f f385 463f c759 03c0 501b a2be
000000e0: 96fe 9c3f 0b09 603f de2d f73f 6cfe 8f3e
000000f0: 6644 8e3f b879 8440 8d40 593f eff4 ea3f
00000100: fa71 2c3e 4746 b93e abb8 353f c8d6 813f
00000110: b4f6 193f 8c55 42bf d430 1340 14f2 09bf
00000120: 1be5 8bbe 3bd4 dfbf 70e6 51bd 4207 c13e
00000130: ddac c5bf 4683 b83f 6047 2abd c964 b33f
00000140: 6986 913f 1096 59c0 67aa 13bf 252c 063d
00000150: 2037 223e b99e 5740 61b6 b93e 0253 37bf
00000160: 1c2d f43f cf9e a2bf 904e 0240 7e01 973f
00000170: b0ec 603f 5d86 883f d758 af3f 5f87 07bf
00000180: be48 c93e e5f0 84bf 468a 54bd 2062 86be
00000190: be13 6f40 21bb e13f 0170 fdbd 842c aa3e
000001a0: 7723 fcbd e265 b5bf 4cee bb3f 4e25 773f
000001b0: cfb8 91be b25b 4f3f 1259 84c0 925d 90bf
000001c0: 7e81 0e40 87f9 7b3f 9130 3340 99da c03f
000001d0: 10de 35c0 3392 503e 9d11 e63f 28de e9be
000001e0: 3e52 77be e67c bcbf 65b3 ecbf 14be c83e
000001f0: 9f5d 77bc 4843 ac3f 71a3 bdbd be91 a23e
00000200: 5a21 47c0 5964 22bf 9a94 14c0 cd2d 6a3f
00000210: 6fe7 08c0 33db 2bc0 68fd a8be 4daa d33f
00000220: 0998 b03f 3290 a53e 42db 5e3f 0fc1 8c3f
00000230: 125e 1b40 01e3 0e40 9ba9 2fc0 f5fa df3f
00000240: 4b0a f2bf e21b 49bf af03 44bf 6b45 233f
00000250: 0f70 97bf d985 d73f 604e 4540 f647 debe
00000260: b607 e23f 3a78 f0bf 39df b53e 10ef ed3e
00000270: d23e 43bd cd87 b93f f57f 0ebf 721e 47c0
00000280: efc9 7c3e 01d1 5440 132c e3bf dc58 4dc0
00000290: 1702 ac3f 368d e9bf 1ed3 0540 b632 a8bf
000002a0: 9547 193e 5a05 ebbe e1e6 a8bf 8c9d aebe
000002b0: 0a41 fe3f 78de 663f 42c6 653f 5e63 cabf
000002c0: 873a 10bf b31d 08c0 62b9 42c0 6994 3340
000002d0: 4139 013f af6a 9bbf 6665 0440 609f e6bd
000002e0: 9460 94be d961 1abf 8174 03c0 6961 a23d
000002f0: 1ec2 81bf 97f7 0abf d75c 24c0 b129 6b3f
00000300: 52cd 6abf b1cd 30be 2673 ab3e 09d6 1b40
00000310: d5e7 bebf c8b4 fa3f 894c fdbd 2b6c 5340
00000320: 2664 0c40 f396 2b40 9790 28c0 030c 7ebe
00000330: ebee 743f da3c 73bf 0ebc 1240 749a 3540
00000340: dca1 583f 302d d93f dde7 e33f 68bc 18c0
00000350: 420b 49bf 1f41 553e 961e 4f40 92ad 7ac0
00000360: 1464 4b3f 7fdf afbf 6005 723c 2a57 d7be
00000370: 6902 fe3f 9d64 813f e1a6 13bd 7702 6cbf
00000380: e17f bebf aa97 4440 a637 6cbf 7ded 55be
00000390: bc14 4b3e 9a64 5340 61d1 05c0 c8df 103f
000003a0: 2ef2 99bf e7b6 b13f bd24 3540 caea 0c3f
000003b0: 5322 d6bf 8d77 953f 0908 b53e dacd 4a40
000003c0: ceb7 50bf 6ab3 a43e d96b 873f 99e3 0f40
000003d0: d43b e1bf 4f2b 61bf cd16 a2bf 2332 0440
000003e0: 156e 94bf e2df b6bf b5b1 1bbf 22e0 1340
000003f0: f854 2f40 0950 3b40 691d b73f 205d 4cbf
-0.023979725 -0.6610928 1.2175994 0.8563566 1.4069065 -2.1263394 1.5596045 2.0467932
-1.6358154 -2.521326 2.6200473 0.31241867 -0.3052103 3.0779412 -0.75196964 -2.110971
2.7136915 -1.191899 0.5980879 1.039714 -0.37567258 -3.7404974 0.4913405 3.9233868
-0.7530054 -2.135805 -0.28195047 -0.23668492 -0.27879637 -0.5644851 -1.266391 1.3529854
-2.6453576 -0.30005062 0.6170012 -0.15656775 -2.0668428 -3.9646106 -1.6485516 1.8079818
0.73698854 2.6323884 1.1201097 -1.9195533 0.048246216 -1.0255345 -0.9505049 3.1139226
2.5105894 -1.4478664 1.5582536 -1.1629063 0.54750156 0.7754814 -2.0523546 -0.31661463
1.2265193 0.875138 1.9310873 0.28123796 1.1114624 4.1398582 0.8486412 1.8355998
0.16840354 0.3618643 0.70984906 1.0143671 0.60142064 -0.75911784 2.2998552 -0.53885007
-0.2732323 -1.7486643 -0.051245153 0.3770085 -1.5443379 1.4415061 -0.041571975 1.4015132
1.1369144 -3.399784 -0.5768189 0.032756943 0.15841341 3.3690627 0.36271957 -0.71611035
1.9076266 -1.2704715 2.036045 1.179733 0.87861156 1.0666004 1.3698987 -0.52940935
0.3931331 -1.0386015 -0.05188968 -0.26246738 3.73558 1.7635232 -0.12374879 0.33237088
-0.12311452 -1.4171717 1.4682097 0.965413 -0.2846131 0.8099929 -4.135873 -1.1278555
2.2266536 0.98427624 2.7998393 1.5066711 -2.8416786 0.2036827 1.7974125 -0.45677304
-0.24152467 -1.4725616 -1.8492247 0.39207518 -0.015098005 1.3458033 -0.092596896 0.31751817
-3.1114106 -0.6343437 -2.32157 0.91476136 -2.1391256 -2.6852539 -0.33005834 1.6536347
1.3796397 0.32336575 0.8705331 1.0996417 2.4276166 2.2326052 -2.744727 1.7498461
-1.8909391 -0.7855817 -0.7656812 0.637778 -1.1831073 1.6837722 3.0829086 -0.43414277
1.7658603 -1.878669 0.35521868 0.46471453 -0.047667332 1.4494568 -0.55663997 -3.1112332
0.24686407 3.3252566 -1.7747825 -3.2085485 1.3438138 -1.8246219 2.0910106 -1.3140476
0.14968713 -0.4590252 -1.3195459 -0.34104574 1.9863598 0.9018321 0.8975564 -1.5811574
-0.56339306 -2.1268127 -3.0425649 2.8059332 0.5047799 -1.2141932 2.0686889 -0.11260867
-0.28979933 -0.60305554 -2.0539858 0.07928736 -1.0137365 -0.5428404 -2.5681665 0.9186049
-0.91719544 -0.17265965 0.3348629 2.4349387 -1.49145 1.958642 -0.123681135 3.303477
2.1936126 2.6810882 -2.633825 -0.2480927 0.9567706 -0.9501473 2.292728 2.837552
0.8462198 1.6966915 1.7805134 -2.3864994 -0.78532803 0.20825623 3.2362418 -3.916844
0.7944958 -1.374008 0.014771789 -0.42058688 1.9844486 1.010883 -0.03604782 -0.9219126
-1.4882776 3.0717568 -0.9227241 -0.20891376 0.19832128 3.3030152 -2.0909045 0.56591463
-1.2027032 1.3883942 2.8303673 0.5504576 -1.6729225 1.1677109 0.35357693 3.1688142
-0.81530464 0.32168132 1.0579787 2.2482665 -1.7596383 -0.8795671 -1.2663208 2.06556
-1.1596094 -1.4287074 -0.60818034 2.310555 2.739561 2.92676 1.430585 -0.798296

layers.1.weight f4 [256, 256]
00000000: 33a9 ebbe 3dcf bbbd b409 3bbf 75fc cb3d
00000010: 5b29 383e 0024 15bf 87b0 a83e d67c d53d
00000020: 5ad2 83bf ff34 0b3f e57a b8bf 9614 7e3e
00000030: 88cb 80bd c1ce 873e 54a3 bc3e 3317 5b3f
00000040: 95f1 cc3e bc83 79be 76db 6cbe 8344 cebe
00000050: 82bd 023f 3aa5 7a3f 7176 dfbd dc1b 81be
00000060: 289d 2c3e 0517 0c3e f638 32bf e85a 97be
00000070: 3eed a13f 9dd6 473e 9c69 66bf 325c 60be
00000080: 5316 44bf 8bc1 8abd b885 763e 202c c5be
00000090: cac8 5bbd 7175 8fbc 1b52 13be 07fc 85bf
000000a0: 6323 633d dc3c 97bf c3cb 503e b124 3b3e
000000b0: bb79 be3e bb1e 063f 4251 81bf 93e7 16be
000000c0: 4d09 bdbe e99f 8b3e b8cd 6abe dc17 a6bd
000000d0: 72da b2be b101 293f 0d13 8d3e 8e89 ce3e
000000e0: 75e5 9b3e 4267 fcbe c1ad 63be 1c99 173f
000000f0: f643 f03e b6af 99bf 0173 07bf 1d33 533f
00000100: 95c7 55bf 9cc8 dd3d fb9f 0b3f be86 ba3d
00000110: ce9d edbb 5489 283f 6880 babd 89ca e4be
00000120: cf97 07be 76b5 a83e 8a00 8cbf 5e33 8dbf
00000130: e393 993e ed66 703f 866d 5d3f 34b9 11bf
00000140: 715b 683d 7072 233f c667 77be 6915 d3bd
00000150: f550 fcbc 6e09 9abe 7d9c 173e 96cb 743f
00000160: 92d8 58bf aa90 8d3e 1e40 353f 9aa9 b83d
00000170: a775 553f 3142 193f c422 88bf 660e 4cbf
00000180: 08c7 a73c 5588 b3bf c5ca 5f3e fe16 5b3e
00000190: c6ae d93e b723 bc3e c486 3b3e f997 2a3f
000001a0: c4ee 9b3e c069 0dbf 6b12 033f 2d78 973e
000001b0: b8aa 143e cfae bcbe 82f1 0e3f b768 85bf
000001c0: 1eaf bb3e 7985 63bf 26b8 16bf fea3 85be
000001d0: 4a26 ec3e 3712 0ebe 4667 f7bd 86d7 583f
000001e0: fa64 003f b505 d9be d553 873e 48e7 e43d
000001f0: 66d3 01be cdc6 c6be 0d06 6abc 78a8 443f
00000200: fd6e 43be 37ee b2be 4d24 ba3e 052e acbe
00000210: a5b2 5bbb 4f98 c83e f658 583e f639 993f
00000220: 819c 493f 97b3 12bf ef18 57bf 0d27 2f3f
00000230: 983f fe3e 029e aebe da51 143f 9134 f5be
00000240: bca7 dd3e fb60 2d3f 694b 4abf ee52 813f
00000250: a70c ae3e 7bb8 ab3d aed1 513f 80ba db3e
00000260: afd1 7abe 7964 703e 2ebb d83e 0147 efbd
00000270: 3360 a13d 7748 ff3e 914f 1cbf 092d 2e3e
00000280: 3676 853f e661 c33e cb5f ce3e efdb f03e
00000290: aff5 143f a3d9 653e 48a4 0abf 063a c0be
000002a0: feae 203e 85b8 1a3f 3465 c43e 41ab b4be
000002b0: dfa7 45bf a62c 4e3f 449f c0bd 03f0 973e
000002c0: 2ab6 9e3e 8cce 663f c44b b5be c25b 30bf
000002d0: 39d1 ccbe 32dd 193f 8682 41bf 89b7 203f
000002e0: 2182 9c3f 7a13 9b3e d967 01bf 9e13 e9bd
000002f0: e5eb 3cbf d4a4 53bf ac5b 453e 0fe2 4dbf
00000300: 7656 4f3f 1c30 05bf 09a7 0c3e 881b 4cbf
00000310: a9af 163e 86be 66bf d9ab f8be 92a4 edbe
00000320: ffbd 623e 90b7 de3e 8434 ec3c d911 3cbe
00000330: 4c55 053f 13bf 763f de13 073d f37e 203f
00000340: 9ef3 31be 8f9f 50bd c887 8e3e 565d a23f
00000350: ede2 2dbf 780d 98bf a532 2bbe b7fe 913e
00000360: 2aba 40bf 01c7 20be e11d 963d 92be 3b3f
00000370: ce52 e4be 02fc 363e f1ac 6abe 3a2c de3e
00000380: 138a e83e 6a6b adbc 1931 143f 34e6 b63e
00000390: bf9a 4cbd e3f4 8ebe 52fa 933e a412 0cbf
000003a0: 6152 6c3d 6fa3 943f 1dd5 f7be d656 4ebf
000003b0: 75a2 2ebe 42b6 ce3c dbd2 c2be d91f 35be
000003c0: 6bbf 47bf d409 e33d 3e87 553f 5d1e 63be
000003d0: ae62 36bf 4186 80bd 5f11 d93e 9730 753e
000003e0: c901 5b3e 380c 14be a312 a43f 85a1 b13f
000003f0: 72cb 1dbe 5b0d b1bd a43f a3be d2ee 1d3e
-0.46027526 -0.09170387 -0.7306168 0.09960262 0.17984526 -0.58258057 0.3294718 0.10424201
-1.0298569 0.5437774 -1.4412504 0.2481254 -0.062888205 0.26524928 0.3684336 0.85582274
0.40028062 -0.24366659 -0.23130593 -0.40286645 0.51070416 0.97908366 -0.10911263 -0.25216568
0.16856825 0.13680656 -0.69618165 -0.29561543 1.2650526 0.19515462 -0.900049 -0.2191017
-0.76596564 -0.06775197 0.24074447 -0.38510227 -0.053658284 -0.017512055 -0.1438679 -1.0467538
0.05545367 -1.1815448 0.20390229 0.18275715 0.37202248 0.5239064 -1.0102923 -0.14736776
-0.36921158 0.2727044 -0.22930038 -0.081100196 -0.34932286 0.66018206 0.27553597 0.4033932
0.304485 -0.4929753 -0.2223425 0.59218 0.4692685 -1.2006748 -0.5290986 0.8249987
-0.83507663 0.10829279 0.54540986 0.09107731 -0.007251478 0.65834546 -0.09106523 -0.44685772
-0.13241504 0.32950944 -1.0937665 -1.1031301 0.2999564 0.9390705 0.86495245 -0.5692322
0.05672783 0.6384649 -0.2416068 -0.10306818 -0.030800322 -0.3008532 0.1480579 0.9562315
-0.8470546 0.27649432 0.7080096 0.09016724 0.8338265 0.59866625 -1.063561 -0.7970947
0.020480648 -1.402598 0.21854694 0.2139549 0.42516154 0.36745998 0.18313128 0.6663814
0.304556 -0.55239487 0.5119998 0.29583874 0.14518249 -0.36852118 0.5583726 -1.0422581
0.3665704 -0.8887554 -0.5887474 -0.2610168 0.46122962 -0.13874136 -0.12080245 0.8470386
0.5015408 -0.42387167 0.26431146 0.11176926 -0.12678298 -0.38823548 -0.014283669 0.7681956
-0.19085307 -0.34947369 0.3635582 -0.3362886 -0.0033523228 0.39178702 0.21127686 1.1970813
0.7875443 -0.5730528 -0.8402242 0.6841896 0.49657893 -0.34104925 0.57937396 -0.47891667
0.43292034 0.67726105 -0.79021317 1.0103433 0.33994028 0.08384796 0.8196057 0.42915726
-0.2449405 0.23475827 0.42330307 -0.11683465 0.07879677 0.49859974 -0.6105891 0.17009367
1.04267 0.38160628 0.4030746 0.47042796 0.58187383 0.22446303 -0.54156923 -0.37544268
0.15691754 0.60437804 0.38358462 -0.35286906 -0.77209276 0.8053688 -0.094053775 0.29675302
0.30998355 0.90158916 -0.35409367 -0.6889001 -0.40003374 0.6010314 -0.7558979 0.6278005
1.2227212 0.30288297 -0.50549084 -0.11380695 -0.73797446 -0.8267338 0.19273251 -0.80423063
0.80991304 -0.52026534 0.13735594 -0.7972951 0.14715447 -0.90134466 -0.4856861 -0.4641462
0.2214279 0.43499422 0.028833635 -0.18366183 0.5208328 0.96385306 0.03297793 0.6269371
-0.17378089 -0.050933417 0.27837968 1.2684734 -0.67924386 -1.187911 -0.16718538 0.28514645
-0.75284064 -0.15700914 0.07329918 0.7333766 -0.44594425 0.17869571 -0.22917534 0.43393117
0.45417842 -0.021169383 0.5788742 0.35722506 -0.049952265 -0.2792121 0.28901917 -0.54715943
0.05769575 1.1612376 -0.4840478 -0.8060125 -0.1705416 0.025233392 -0.38051495 -0.1768793
-0.78026456 0.11085859 0.8340949 -0.22179551 -0.71244323 -0.06275607 0.42396066 0.23944317
0.213874 -0.14457786 1.2818187 1.3877417 -0.1540964 -0.086451255 -0.3188449 0.15423134

layers.1.bias f4 [256]
00000000: a2a7 62bf 3654 8dbf 9673 f8be 71c2 d83e
00000010: f779 913f c5fb cdbe 5fbf db3c cbc5 10c0
00000020: 6c6f da3f 089a 6f3f 82e2 81bf 75a3 5a3f
00000030: 8d1d ab3e 9770 4c3d fbaf 1dbe 0de4 c63e
00000040: 08eb 7abf 5f65 b53c 107f 2a3f fcfa 99bf
00000050: 3938 88bf cef5 d1bf a78d 293f e25a 6abf
00000060: ccba 51bf 85c1 3a3e 242c e43f ad52 ad3e
00000070: 775a 213f 74b1 833f d70d a03e a5ac 553e
00000080: feaa 99be b978 533e 4546 e1bd 47f2 593e
00000090: 72a3 7f3f 50f6 ab3f 0dd1 ef3e 1a44 8bbf
000000a0: af10 98bd 4201 a8be 6211 863e 3a03 f3be
000000b0: 1f37 973f 9cd6 363f a751 0e3f 2dd8 eabe
000000c0: fd93 f6be 6cae 8d3e 3303 583e 67d3 08bc
000000d0: 2311 ab3e 6e16 b23e abe8 1cbf 6e27 60bf
000000e0: cd98 473d 1f51 5cbf 9fed 45bf 361f 5f3f
000000f0: 286c 32bf 44a8 913e e1f3 b5be 4561 9f3f
00000100: 661c 5f3f 8302 b03e 56ef aabe 9d42 2cbe
00000110: fc8e b53e 8292 0ebf c3e9 663e 662d 833f
00000120: f3b5 a9be 9925 0dbe bd4f 00bf 3a57 11bf
00000130: af68 183e d1bf 22be 77a6 383f f209 90bd
00000140: 8bac 6cbd 3f55 8abf 0486 0340 1c7f 22bf
00000150: 7b45 d3be 2d63 ab3e c1b8 46bd 5b43 adbe
00000160: 34c5 5a3e b5d0 2cbf b4d2 f1be 5944 4ebf
00000170: 3f42 2bbd 12f4 a43d 4205 143f 435b 533f
00000180: b24e 7a3f d4c4 da3c 3e97 ea3d 93a4 88be
00000190: 006b 283f 2066 51be 7d8e c3bf 9a8a d63b
000001a0: fad5 563e d587 8e3e 276e b63d f948 00bf
000001b0: 0531 653f 15f3 b1be 3202 1e3f c223 bf3e
000001c0: d0df 11bf f739 903e 75ad 6a3e 9947 05bf
000001d0: 40c1 663e fb8e 9a3e 5f9b 373f 7bd4 0e3e
000001e0: a82f d8be 3281 893e d8dc 2b3f 9b6d e93d
000001f0: 7a49 e53e b6b8 e2bd 67f3 b03f b357 bebe
00000200: 7bc9 603f a63e a73f cc17 37be 626a 8d3e
00000210: a3d9 4ebf 7993 3ebf 6831 49bf cf6a 97be
00000220: 895e 0d3e 95b3 be3c f092 3c3f aa7f 493f
00000230: 75d5 9b3e 6f92 3ebf 16cd 02be 55d1 32bf
00000240: 47a7 9c3e d276 bb3e bed7 95be b6fe e93e
00000250: fb91 87be c458 57be c030 e6be db2d 0f3e
00000260: 1c82 c23f 31c7 f6be 3eb4 4abf 0856 953d
00000270: 85b9 f83d 2f73 07be 0126 4fbf 0701 f2be
00000280: 320f 25bf 75e0 b2be a649 34bf 0eba 11bf
00000290: 2edb 3a3f b7d9 a2be f676 49bf 5812 303f
000002a0: 8231 2c3f d396 a5be c06e 3e3f ea81 013f
000002b0: e8e8 f03e 968a 19bf 18b7 bd3d ec22 b8bd
000002c0: b534 c93e a5a1 153f d25a 17be 8f03 9a3d
000002d0: e08f 84bc 7007 7cbe 2972 043f 1f80 a33f
000002e0: bde6 cdbd fedf 543f 23a5 2d3d 8b14 44bf
000002f0: baa8 a5be 0764 a13f 2339 cfbe 37b2 5cbe
00000300: b7b0 19bf dd8c 5d3e 9373 6fbe f4ed 3dbf
00000310: 747f 013f b0d4 db3e b63f 11bf cf9b 32bf
00000320: 12c1 6ebc ff69 083f d6f2 903e 86f0 01bf
00000330: 1e8f 103f 1b24 303e 193d 45bf bd56 43be
00000340: 9014 5dbf 3400 d4bb 614b 93be f381 7d3e
00000350: 573d 41be 6614 f43d b3a2 073e f270 13bf
00000360: d514 92bf 6a5b af3d 4e91 42bf d489 603f
00000370: 40f6 de3d 8d7d e5bd 5624 a13e 1ed7 ef3e
00000380: 5b74 7cbf e3bb 27bf 7d8b 62bf 5dcd babe
00000390: 7506 183d 5f9a 463f f605 213f c73d 9ebd
000003a0: 7289 673e 9b97 5abf 47be 353f deab 803c
000003b0: 44b2 3cbf 4e5b 363e 95ed 08be a1c2 76bf
000003c0: 21f6 68bf e323 04bf 1a9f 04bf a930 ce3f
000003d0: 2c9c 09bf f567 8e3d 654d 0abf fc30 903e
000003e0: aad4 803e 2243 9e3e 45ba fcbe e7fc 9e3e
000003f0: 8e25 bdbe 7f03 61bf 492d 16bf dcdb acbe
-0.8853704 -1.1041324 -0.48525685 0.42335847 1.1365346 -0.40231147 0.026824651 -2.2620723
1.7065253 0.9359441 -1.014725 0.85405666 0.33420983 0.04991206 -0.15399162 0.38845864
-0.9801488 0.022143064 0.6660013 -1.2029719 -1.0642158 -1.6403139 0.6623177 -0.91544926
-0.81925654 0.18237884 1.7825971 0.3385214 0.63028663 1.0288529 0.3126056 0.2086664
-0.3001327 0.20651521 -0.10999731 0.21283828 0.9985877 1.3434544 0.4683918 -1.0880158
-0.07425057 -0.3281346 0.26185137 -0.474634 1.1813697 0.7142122 0.5559334 -0.45868054
-0.4815978 0.27672136 0.2109497 -0.0083511835 0.33411512 0.34782737 -0.61292523 -0.87560165
0.048729707 -0.8606128 -0.77315706 0.87157 -0.69696283 0.2844869 -0.35537627 1.2451559
0.8715271 0.34376916 -0.33385724 -0.16822286 0.3546065 -0.55692303 0.2255011 1.024823
-0.3314663 -0.13783874 -0.5012167 -0.5677372 0.14883684 -0.15893485 0.72129005 -0.07033147
-0.057781737 -1.0807265 2.0550547 -0.63475204 -0.41263947 0.33474103 -0.04851604 -0.3384045
0.2136429 -0.6750596 -0.47231066 -0.8057304 -0.041811224 0.08054365 0.5782052 0.8256113
0.9777633 0.026705183 0.114546284 -0.2668806 0.6578827 -0.20449114 -1.5277859 0.0065472843
0.20980063 0.27838007 0.08907729 -0.5011135 0.8952792 -0.3475577 0.617221 0.3733197
-0.56982136 0.28169224 0.22917731 -0.52062374 0.22534657 0.3018721 0.7172145 0.13948242
-0.4222386 0.2685638 0.67133856 0.11397859 0.4478262 -0.11070387 1.382428 -0.37176284
0.87807435 1.3065994 -0.17880172 0.27620226 -0.8080084 -0.74443775 -0.7859101 -0.29573676
0.13805594 0.02327899 0.7366171 0.78710425 0.30436292 -0.7444219 -0.12773547 -0.69850665
0.30596372 0.3661409 -0.2926616 0.45702142 -0.26478562 -0.21029955 -0.44959068 0.13982336
1.5195956 -0.48198846 -0.7918128 0.072918 0.1214476 -0.13227533 -0.80917364 -0.4726641
-0.6447631 -0.34936872 -0.7042488 -0.5692452 0.7299069 -0.31806728 -0.78697145 0.6877799
0.6726304 -0.32341632 0.7438774 0.5058886 0.47052693 -0.5997709 0.09263438 -0.08991036
0.39298025 0.58449775 -0.14780739 0.0752021 -0.016181886 -0.24612212 0.51736695 1.2773474
-0.100537755 0.83154285 0.042393815 -0.76593846 -0.3235529 1.2608651 -0.4047328 -0.21552359
-0.6003527 0.21635766 -0.23383932 -0.7419121 0.50585103 0.42935705 -0.5673784 -0.69768995
-0.014572399 0.5328674 0.2831027 -0.50757635 0.5646838 0.17201273 -0.7704635 -0.19076057
-0.863595 -0.006469751 -0.28768447 0.24756603 -0.18871056 0.11917953 0.13245659 -0.57594216
-1.1412607 0.08562358 -0.7600297 0.8771031 0.10886812 -0.112055875 0.31473035 0.4684381
-0.98615044 -0.6552107 -0.8849409 -0.36484805 0.037115533 0.775793 0.6289972 -0.07726627
0.22611025 -0.8538758 0.70993465 0.015706953 -0.7370951 0.17808267 -0.1337188 -0.9639073
-0.9100056 -0.5161726 -0.5180527 1.61086 -0.53753924 0.06953422 -0.54024345 0.28162372
0.2516225 0.30910593 -0.49360862 0.31052324 -0.36942714 -0.8789596 -0.5866285 -0.3376149

value_stream.weight f4 [1, 256]
00000000: 2f6a 1e3e 2afd 0bbe 9e8b 23be 64e5 95be
00000010: 9151 14be c8b6 acbe 6890 8a3e b326 a53e
00000020: 4149 72bf dc4c 47be c765 3a3f f713 0d3f
00000030: c93c 2e3e 0110 7e3e 609e f83d 1497 3ebe
00000040: ef62 ae3e 2a04 fbbd 0626 403e 39c4 3b3f
00000050: d2fc 653e cf0d c8be cada dabe 71d1 a83e
00000060: f5ce 613e aac2 42be 4260 96be e370 153d
00000070: fbc3 403e 8dcc cd3e 9f54 26be 339e 743f
00000080: 88f7 9ebe c4a6 e33d 0b28 57be b4ba 23be
00000090: ea68 42be 1630 d43e 8055 8fbe 84dd 553e
000000a0: fbc8 33be 55cd 9d3e 9e1a 83be 2273 04be
000000b0: 77a4 a6be 1cc5 033e fde1 243f bcfe b63d
000000c0: bcfe 19be a612 8bbe 122d 06bf 0f85 7f3e
000000d0: bce5 a7bd de52 f33d b597 463e 14da 043f
000000e0: ab94 22be fc27 863e 1bed 1b3d 482c 03be
000000f0: d146 eebe 1af9 993e bec4 173e 852d 1e3f
00000100: 55d5 5abe 79a3 d43e bc9f 3c3e 0951 0cbe
00000110: d153 1e3e caab 16be 73b8 153e 08ee 473e
00000120: 31aa 3a3e 92c8 bb3e 38bd 893e 4407 803e
00000130: 76f4 3b3e f3e0 91be 70dd 37be 6943 1d3e
00000140: 895f 083e 030f dd3e b1c0 093f e540 2b3f
00000150: 8309 ffbd 0376 a83e f66e 003e 75bc 003f
00000160: a88a de3e 76e8 50be 17ef 6c3e 9b6e 913e
00000170: aebe d03d 8074 7b3e f3fb 223e fc61 253f
00000180: 0f55 583e 222e 473e a0f5 6f3e 604e 423e
00000190: 8d5c 073e 9f76 5e3f b663 443e eee6 5abe
000001a0: 17cc 3b3e c0e6 81be d8da 82be e95a 6cbe
000001b0: 0583 b9be ffc7 2bbe d4cb c2bd 3075 17be
000001c0: 1afe 7fbe 5808 edbd 415c 1bbf 1e33 93be
000001d0: dee9 36be 71ee 3cbe 322b 87be afa8 47be
000001e0: 591e 6bbe 02a8 a33e d26f 2d3e 32ab 263e
000001f0: 8b5a 133d 025d 373e d267 af3f e458 763e
00000200: 7c0a 87be 9ea3 f6bd 9357 f4bd cb68 923e
00000210: 483a bdbe c769 243e 60ed b43e aba2 f3bd
00000220: 1649 b2be adbb ce3d e4c5 2b3e 36d0 293e
00000230: 8932 6cbe 73bc a13e f0b9 42be 7b8d 0e3e
00000240: 609c 7d3e 49a7 c0bc b3a5 58be f1af b53e
00000250: d99c e13e 4937 723e 2c30 21be 8bef 7abe
00000260: e079 8ebe 9d32 423e 23ef 443e fa65 1abe
00000270: 7295 083e 346c c53e 6b65 ce3e d0d2 1c3e
00000280: 30c1 5d3e d4d6 60be fc74 2c3f b078 e9bd
00000290: 558b 67be 7463 51be e2ec 243e ad7b 003f
000002a0: 7102 323f 5682 11be ca02 0cbe 39d2 ce3d
000002b0: bc64 9ebe a169 423e 692c 503e cb2a 15be
000002c0: b541 a4be e142 373e 3ab7 ee3d a4ca 573e
000002d0: 9497 e1bd 0994 973e b987 563e c62b 593e
000002e0: 83ba 0dbc efd3 e0bd dd85 8cbe ca68 d3be
000002f0: 2df2 a1be 5455 1e3e 5594 7bbe 70f4 c23d
00000300: ac00 47be 13b4 bc3d 4d82 e53e 8961 9d3e
00000310: 9c60 5fbe 9faf acbd 744b 173e be2a c0be
00000320: dadc 053f 2754 08be 0647 35be cb35 66bf
00000330: dee0 ecbd 6928 11be 2ad9 723e b4ef ae3d
00000340: efec 983d 5866 133e 5eed 893e d089 0d3e
00000350: 5e6d 243f 18d2 9bbd 0567 59be e96e 41be
00000360: 5df5 873e 1d7e 2b3e f9ad 543e 2101 85be
00000370: a0de 763d 62ce a0be c177 d2bd de98 cabe
00000380: c0e6 a13f 466f e43d 3ecd e03d 2d49 36be
00000390: aafa 19bf c137 433e 7e20 f9bd 1eca 4c3e
000003a0: 86d4 303e 4398 b0be 3b2a 96be 5f1b 513e
000003b0: 9869 92be a80c 66be d837 3ebe 8c74 60be
000003c0: b0f4 bd3f 997c 08be 0894 8b3e d9a3 45be
000003d0: 5a60 443e 58cc 6c3d 8694 bc3d 5341 ed3e
000003e0: 805b 773e e569 67be 1dc4 893e ac08 70be
000003f0: 3d5f ba3e 4364 a43e 7afa 92be 9f0d ac3e
0.15470193 -0.13670793 -0.15971228 -0.29276574 -0.1448424 -0.337332 0.27063298 0.32256088
-0.94643027 -0.19462913 0.7281155 0.5510859 0.17015375 0.24810793 0.12139583 -0.18612319
0.34059855 -0.122566536 0.18764505 0.73346287 0.22459725 -0.39073035 -0.42745048 0.3297229
0.22051604 -0.19019571 -0.29370314 0.03648461 0.1882476 0.40195122 -0.16243218 0.9555389
-0.31048226 0.111157924 -0.21011369 -0.1598919 -0.18985334 0.41442937 -0.2799492 0.20885283
-0.17557137 0.30820718 -0.25606245 -0.12934545 -0.32547352 0.1286816 0.6440733 0.089353055
-0.1503858 -0.27162665 -0.5241252 0.24953102 -0.08198115 0.1188104 0.19393809 0.5189526
-0.15877025 0.2620238 0.03806792 -0.1280986 -0.46538404 0.30072862 0.14821145 0.6178821
-0.21370442 0.4153097 0.18420309 -0.13702787 0.15461661 -0.1471397 0.14621143 0.19524395
0.18228985 0.3667646 0.26902175 0.25005543 0.18354973 -0.28491935 -0.17955565 0.15357746
0.13317694 0.43175516 0.5380965 0.66895896 -0.12452986 0.32902536 0.12542328 0.5028756
0.4346516 -0.20401177 0.2313808 0.28404698 0.10192619 0.2455616 0.15916423 0.6460264
0.21126197 0.19451192 0.23433542 0.1897521 0.13218899 0.8689975 0.19178662 -0.21377155
0.18339573 -0.2537136 -0.2555759 -0.23081554 -0.36232772 -0.16775511 -0.095115334 -0.14790797
-0.24999276 -0.11573857 -0.60687643 -0.28749937 -0.17862651 -0.18450333 -0.26400143 -0.19497941
-0.22960795 0.31964117 0.16937187 0.16276243 0.03597502 0.17906573 1.3703558 0.24057347
-0.26375186 -0.12042926 -0.11930766 0.28595576 -0.36958528 0.16055976 0.35337353 -0.11896261
-0.34821385 0.1009439 0.16774708 0.16583332 -0.23066153 0.31589088 -0.19016242 0.13921158
0.24766684 -0.023517268 -0.21156959 0.35485795 0.44064978 0.23653902 -0.15741032 -0.24505441
-0.27827358 0.1896462 0.19231848 -0.15077963 0.13338259 0.38559115 0.4031175 0.15314794
0.21655726 -0.2195695 0.67366004 -0.113999724 -0.22611745 -0.20448095 0.16105989 0.50188714
0.69534975 -0.14209875 -0.13672939 0.100986905 -0.3093623 0.18985607 0.20329441 -0.14567105
-0.3208138 0.17896606 0.116560414 0.21073395 -0.11015239 0.2960513 0.20950212 0.21208104
-0.008650425 -0.10977923 -0.2744588 -0.41290885 -0.31630078 0.15462238 -0.24568303 0.09519279
-0.1943385 0.09214034 0.44825974 0.30738476 -0.21814197 -0.084319346 0.14774877 -0.3753261
0.5229012 -0.13313352 -0.17702875 -0.8992583 -0.115663275 -0.14175572 0.23715654 0.085418135
0.074670665 0.1439451 0.2693891 0.13822103 0.6422938 -0.076084316 -0.21230705 -0.18889965
0.26554385 0.16747327 0.2076949 -0.25977424 0.060270905 -0.31407458 -0.102767475 -0.39569753
1.2648544 0.11154036 0.10976647 -0.17801352 -0.6014811 0.19064237 -0.121644005 0.19998977
0.17268571 -0.34491166 -0.29329094 0.20420597 -0.28596187 -0.22465765 -0.1857599 -0.21919459
1.4840298 -0.1332878 0.27261376 -0.19300784 0.1917738 0.057812065 0.09208016 0.463389
0.24155998 -0.2259899 0.26907435 -0.23440808 0.36400786 0.32107744 -0.28706723 0.33604142

advantage_stream.weight f4 [20, 256]
00000000: 175d 2c3e 6467 d3bd 13a2 41bd c8d5 213d
00000010: 924d 45bd 1711 9abd ae5a 563d 08e3 3c3e
00000020: faf3 a3be 5328 783d e21a 113d ad52 fb3d
00000030: 45d3 2e3e 6a3e 95bc 004e 29bd d681 5c3d
00000040: a005 68bd 5eab 62bb 208e a6bd 2985 a63e
00000050: fd96 c3bc 1ab8 7cbe ba30 5dbe 0049 223d
00000060: 102b d8bd 47de 213d 2345 f1bc 05c7 e5bc
00000070: f71e 94bd 298f 6b3d dcb8 d7bb d4d6 5b3e
00000080: b6bf 11be cf58 e13c 8a87 89bd b8c5 243d
00000090: 5b71 d2bd 802e d73d 0525 623d 0f00 a4bd
000000a0: 929b 1abd 5b08 6fbc d6b1 063d 58b5 cabc
000000b0: 2f31 b9bd aa3a d3bb 2030 343e bbe0 c83b
000000c0: a895 0bbe be9f 94bc f40f aebd f4d3 62bc
000000d0: b6b7 43bd 30b4 b23d df73 983c 71c2 cb3c
000000e0: c7c8 5fbd ade4 2dbd 9287 103d 3bda 783d
000000f0: f89a aa3e ae06 2cba 6d05 70bc bb21 9e3d
00000100: 5bb5 0f3d af77 883b db55 3e3e c2f6 b0bd
00000110: e645 863c c5c6 37bd 0732 5b3d ba50 1e3e
00000120: 342d 973c 71e1 813a 0fb1 ac3d 9eb7 92bd
00000130: 63a9 0ebd 2b0b eebd f699 dfbc b903 8dbd
00000140: 3ba1 94bc 3844 e83c 2bb8 bc3e 2feb 053e
00000150: c010 e6bb da33 173d f981 363d 7128 a33d
00000160: eb20 233e f3ab 0ebc d9ff 183c 4991 32be
00000170: 48d6 9cbd 5824 3cbc a231 e6bc e87e 68bb
00000180: 6942 4bbd 4a57 143d 7d70 ec3d e9fa 33be
00000190: 1de8 63bd 6e81 913d 0926 803d 9dfb 10bc
000001a0: d55b feba e0d4 21bc e905 98bd 79bf a53c
000001b0: e39c 603d cae2 7b3d 015a 473d 46d6 bebc
000001c0: 85f5 26be 8dd9 e93d ca42 4ebd 7a11 9abd
000001d0: 1afb c2bc 853d 3ebd e5b0 203c 88c3 35ba
000001e0: 4d8f 7f3d a6bb 603d c7fa 61bd 2553 b2bd
000001f0: a22f 85bd 3ea9 433d b6a7 eabc 314e ea3b
00000200: a26d 11bc 6ea6 473d e1c6 65bb f9c0 38bc
00000210: 9d4c 4fbe d90f 253e 9db0 81bd ed46 d43b
00000220: 3457 923d 353c 1cbd 1fe8 783c 3973 743d
00000230: b1f6 6a3c be11 b9bc a130 53bd 87ba d93c
00000240: ac29 2f3d 231d 39be 59cd 6b3d 4d58 883d
00000250: 6095 063d 2bd8 193c cdf3 713d d73f 4a3d
00000260: 55ec ac3c 1604 173e f40a c83c c0b5 22bc
00000270: 9d0a be3d dbe4 c73d 6383 fbbc eb48 8a3d
00000280: 6090 3a3c 1866 0e3d fe27 423d 87e1 73bb
00000290: 85c8 dcbc a4a1 ecbc 86ff f63c 3e3c 3abc
000002a0: 4798 7a3d 6f8d b33a c89a d5ba a55e e23d
000002b0: efc3 0d3e e44a bebd 14cc f53c 3479 c6bc
000002c0: 57ed 16bd da8c 1fbe f347 153d 545e 173e
000002d0: 6f09 d23c 3078 c73d 659b c63d 3eae 85bd
000002e0: 65d3 213d 4080 443d 59b6 3bbd e80b 2d3e
000002f0: 418c 13bc f842 323d 0b16 e5bd 6468 bcbc
00000300: f705 16bd 6df6 ffbc e037 35be 5835 003d
00000310: 7f44 7dbd d439 353c 354f 22be 24cc eebd
00000320: 3239 35be d5e4 d43c 95bf 0bbd 6114 28bd
00000330: 3100 52bc 450e ca3b 69e8 a63d df6b e83c
00000340: 9944 5f3b e8aa ac3d 873d 2d3d 3dc1 48bc
00000350: 7913 853e ac0b c0bd e012 413d 9bec 4bbd
00000360: 63dd c43d 2b72 2ebc c736 413e 5f59 383c
00000370: a2b3 5c3c 1d5d 7d3c 73d7 883b dc10 0cbe
00000380: bf40 b23e 1527 d8bb 8e90 40bc 748d 133d
00000390: 56d5 983d 993a 69bd d99a a1bd 5cbf 9a3a
000003a0: 23b0 8a3d cdcf 27bd 2251 c4bb 130a 33bd
000003b0: a42d b53d 6e9d ee3b 5c89 43bc 2fa7 07bc
000003c0: 4f6d a7bc 08a9 183d 19e3 013e 6d57 08bd
000003d0: ca5a 9d3c 0b82 9fbc 39c5 bcbc 5596 2a3e
000003e0: a554 6cbd 28cf 93bd cccd 083e 900f 04bd
000003f0: 180b b238 0e09 bb3d 8de4 a5bd 9137 adbd
0.16832386 -0.103224546 -0.047273707 0.03951052 -0.04816968 -0.07522791 0.052332573 0.1844598
-0.32022077 0.06058533 0.035426028 0.122716285 0.1707278 -0.018218238 -0.041334152 0.05383476
-0.05664599 -0.0034587006 -0.08132577 0.32523468 -0.023875708 -0.24679604 -0.21600619 0.0396204
-0.105550885 0.03951862 -0.029451912 -0.028049001 -0.072324686 0.057509575 -0.0065833163 0.21468669
-0.14233288 0.027508168 -0.06715305 0.04022762 -0.10275527 0.10506916 0.055211086 -0.08007824
-0.03774602 -0.014589394 0.03288444 -0.024744675 -0.09042584 -0.0064462023 0.17596483 0.0061303056
-0.13631308 -0.018142577 -0.084991366 -0.013844479 -0.047782622 0.08725774 0.01860994 0.02487299
-0.054634836 -0.04245441 0.03528554 0.060754996 0.33321357 -0.00065622746 -0.014649731 0.07721277
0.035085063 0.004164658 0.18587439 -0.08640815 0.016390752 -0.044867296 0.053514507 0.15460482
0.018454172 0.0009909106 0.08432209 -0.071639284 -0.03482951 -0.11623224 -0.027295094 -0.06885476
-0.018143287 0.028352842 0.3685926 0.13077997 -0.0070210397 0.036914684 0.044557545 0.07966698
0.15930526 -0.008707988 0.009338343 -0.17438234 -0.076580584 -0.011483274 -0.028099839 -0.0035476033
-0.04962388 0.036216058 0.11544893 -0.17576183 -0.055641282 0.07104765 0.06257255 -0.008849052
-0.001940603 -0.0098774135 -0.07423002 0.020232903 0.05483712 0.06149558 0.04866982 -0.023295533
-0.16304596 0.11418448 -0.050356664 -0.07522865 -0.023801375 -0.04644539 0.0098078 -0.00069337385
0.06239252 0.054866455 -0.0551708 -0.08707265 -0.06503226 0.047768824 -0.028644424 0.0071504344
-0.008876236 0.048742704 -0.0035061168 -0.011276477 -0.2024407 0.16119327 -0.063325144 0.0064781816
0.07145539 -0.038143355 0.015192061 0.059680197 0.014341042 -0.022591468 -0.051560048 0.026578201
0.04276435 -0.18077521 0.05756888 0.06657467 0.0328573 0.009389917 0.059070397 0.04937729
0.021108786 0.14747652 0.024419285 -0.009931028 0.09279368 0.097604476 -0.030702299 0.06752189
0.011386961 0.034765333 0.04740142 -0.0037213282 -0.026951084 -0.02888567 0.03015114 -0.011366902
0.06118038 0.0013698767 -0.0016296739 0.11053208 0.13844274 -0.09291628 0.030004539 -0.024227716
-0.03684744 -0.15581074 0.03644557 0.14782077 0.025639264 0.09739721 0.09697608 -0.06527375
0.039508242 0.04797387 -0.045828197 0.16899073 -0.009005607 0.043520898 -0.11185845 -0.022998996
-0.036626782 -0.031245435 -0.17697096 0.031300873 -0.0618329 0.011061151 -0.15850528 -0.116600305
-0.176976 0.025988022 -0.034118254 -0.04103506 -0.012817428 0.006166252 0.081497975 0.02837175
0.0034067987 0.08431035 0.042295005 -0.012253103 0.2599142 -0.09377226 0.04713714 -0.04978619
0.09612539 -0.010647337 0.18868552 0.0112517765 0.013470562 0.0154640945 0.004176074 -0.13678306
0.34815022 -0.006596456 -0.0117532145 0.036023572 0.074625656 -0.05694065 -0.07890863 0.0011806297
0.06771877 -0.04096966 -0.005991117 -0.04371078 0.08846596 0.0072819507 -0.0119346045 -0.008279606
-0.020437865 0.037270576 0.12684287 -0.0332865 0.01920833 -0.019471189 -0.023043262 0.1665891
-0.05769791 -0.07217246 0.13359755 -0.032241404 8.489768e-05 0.091325864 -0.08100233 -0.08457864

advantage_stream.bias f4 [20]
00000000: ddd8 383e 208e 5cbe 9695 003e 9ff3 e13e
00000010: 57d4 a83e 8c74 da3e eada 863e c666 013e
00000020: d316 b73e 1615 1b3e a283 a5bd d47d f4bd
00000030: 641b 1b3d 6750 88bd 110e 8b3d 3444 9cbb
00000040: 2d87 10bd d610 1a3c deb9 933e d51b a5bf
0.18051477 -0.21538591 0.12557063 0.4413118 0.32974502 0.42667043 0.26338893 0.12636861
0.357596 0.15144762 -0.080817476 -0.11938062 0.03786792 -0.066559605 0.06789792 -0.0047688726
-0.035285164 0.009403428 0.28852743 -1.2899119
