src/hockey-env/random_training_2/weights/episode_309.pth (torch, 307504 bytes, 7 tensors)

layers.0.weight f4 [256, 18]
000000 e4 45 fd bf 86 6d 34 3f 52 72 e8 be 9c a9 2f 3d
       -1.9786954 0.7047962 -0.4539972 0.04288636
000010 bf 95 89 bc 08 4a dd 3c 24 42 8d 3f a1 fc a3 be
       -0.016795037 0.02701284 1.103581 -0.32028678
000020 a5 fb b1 3e 60 45 94 bd 56 39 2a be 02 8c 2e 3e
       0.34762302 -0.07239795 -0.16623434 0.17045596
000030 74 72 78 3f b3 7a ec bd b6 ff a1 3d fc 27 ae be
       0.9704964 -0.115468405 0.07910101 -0.3401488
000040 e4 98 ad c0 e6 e7 a9 be 33 84 3c 3e b0 ff f8 bc
       -5.4249134 -0.33184737 0.18409805 -0.030395359
000050 f9 2b 34 be 37 27 65 bd a2 00 54 3c cf b8 e8 3b
       -0.17594899 -0.0559456 0.012939604 0.007102109
000060 a5 b3 07 40 1e 40 48 3f af 80 c8 bb e2 8d a3 bd
       2.1203396 0.78222835 -0.006118856 -0.079860464
000070 76 d4 4b 3e 2a 74 92 3d 8e 07 1b bf f5 ff 83 bf
       0.19905266 0.07151063 -0.605584 -1.0312487
000080 e7 dc f1 3d d1 87 75 be 90 86 47 3f 7e 1c 92 3f
       0.11809712 -0.23977591 0.779397 1.1414945
000090 6c c0 b0 be bb 2c 8b 3e 89 a4 c5 3e c7 43 2f bc
       -0.34521806 0.27182564 0.38602093 -0.010697312
0000a0 9e 39 30 3e ef f7 b7 3b 31 9c fa 3f 53 68 04 bf
       0.17209479 0.005614273 1.9578916 -0.51721686
0000b0 db 84 34 40 f3 23 d3 bd ca 84 d3 bc 83 cb f3 3c
       2.8206089 -0.10309591 -0.025820155 0.029760128
0000c0 48 8e 5c b6 6f 8c 19 3e 42 cc b0 3e 82 86 91 3e
       -3.2865373e-06 0.14994977 0.34530836 0.28422934
0000d0 4a d0 1a 40 3f df 0c 3f 40 a4 49 3f aa a8 28 bf
       2.418963 0.55028147 0.7876625 -0.6588236
0000e0 32 38 80 3f 68 f1 55 3c bb 9b 7e bd 80 09 6b bd
       1.001715 0.013058044 -0.062160235 -0.057382107
0000f0 bd 0f a3 bd 92 8a f9 3f 2f f5 07 bf c4 0c 86 be
       -0.07961986 1.9495413 -0.53108495 -0.26181614
000100 1f 2e 11 3e ab 16 d5 bd 0b a0 b5 3e 04 73 88 3f
       0.1417775 -0.10404714 0.35473666 1.06601
000110 e3 28 dd 3d 07 ab 13 3f 69 4b 13 be fd 5d a5 be
       0.10798814 0.5768284 -0.14384235 -0.3229827
000120 5a a6 3c 3e 6a c1 ca be 83 5a df be fd 15 d5 3c
       0.18422833 -0.39600688 -0.43623742 0.026011461
000130 4d 15 a9 3b bb f8 92 3c dc f9 93 3b ba 80 8f c0
       0.00516001 0.01794087 0.0045158695 -4.4844637
000140 97 0e ca bf 4e f1 4e bd ce a2 b2 be ad ee 34 3d
       -1.5785702 -0.050523095 -0.34889835 0.04417293
000150 0a 4d 47 3f 0a 57 59 3e c6 a7 4c 3e 3a 8f 98 3e
       0.7785193 0.21224609 0.19985875 0.29796773
000160 1f 49 62 3e fb ba 1b be f8 78 55 40 63 c5 19 c0
       0.22098206 -0.15208046 3.3355083 -2.4026725
000170 00 81 a2 3e 9b 0f 8f bc d6 db df bc 43 0e c6 3b
       0.31739044 -0.017463496 -0.027326506 0.0060441806
000180 38 89 4a 3e e3 74 0d 3f 42 2f d0 3e 79 0b 84 bd
       0.19778907 0.5525648 0.40661055 -0.06447501
000190 55 e4 9a bc 11 aa 98 3d 99 49 5a c0 40 58 11 40
       -0.018907705 0.074543126 -3.410742 2.2710114
0001a0 5c d6 11 3c b0 c5 8d 3d e5 fe 19 bf 60 f3 99 bd
       0.008901205 0.069224715 -0.60154563 -0.07517123
0001b0 42 48 66 bf f8 13 92 3f d6 01 66 3e a2 12 88 bc
       -0.89954007 1.1412344 0.22461638 -0.016610447
0001c0 18 a1 c8 3c 5b f2 b5 3d dc c3 cb 3f 58 27 c4 bf
       0.024490878 0.08884116 1.5919147 -1.5324507
0001d0 25 5c 81 3f ff 0f dd 3d 51 b0 c4 be 2f bb 92 bc
       1.0106245 0.10794067 -0.3841577 -0.017911522
0001e0 e5 0a cc be 2e 0f 37 be 1c 1b 8c be 48 71 b0 3e
       -0.39852062 -0.17876884 -0.27364433 0.34461427
0001f0 d0 4c 8a bf 25 70 c9 3e da ee 83 3f 17 5a 2c bf
       -1.0804691 0.39343372 1.0307267 -0.67324966
000200 38 54 28 3d db 26 d2 bd c3 03 e1 3d ac 93 f7 bd
       0.041095942 -0.10261317 0.109870456 -0.12088713
000210 55 cd 11 3f 53 33 7e bf 80 4e 1b c0 68 b8 53 bb
       0.56953937 -0.99297065 -2.4266663 -0.003230596
000220 2a 1e 9c bd db ae de be 83 88 01 3f fb a1 94 bd
       -0.07622941 -0.4349278 0.50598925 -0.07257458
000230 84 cb 83 3e 19 e8 37 bf 89 b2 26 3f 9c f8 20 3f
       0.25741208 -0.7183853 0.65116173 0.6287935
000240 62 c5 6c 3f df 2e 25 c0 d2 4d 03 be 1a 09 50 bd
       0.9248868 -2.5809858 -0.12822655 -0.05078993
000250 95 0c 85 be bc 73 8e 3c da 7f 98 3d 77 63 bf 3f
       -0.25986162 0.01738917 0.07446261 1.4952229
000260 0d d6 a4 3f 59 19 de 3b ee 3a 3b 3e f8 77 12 3d
       1.2877823 0.006777924 0.18284199 0.035758942
000270 5c fd 50 bd de 8a 23 3e 90 75 a9 bc 69 f8 6b bc
       -0.051022872 0.15970942 -0.020685941 -0.014402487
000280 e3 5f 15 bd a8 87 b6 bd 52 09 5a be 9d 26 4c 3e
       -0.036468398 -0.08912593 -0.21292618 0.19936605
000290 34 ef 64 3e d8 96 11 3c dd f3 1e bd fc 37 e7 bb
       0.22356874 0.008886062 -0.038806785 -0.0070562344
0002a0 c9 19 6f bf bc e1 d5 3d b1 4f 22 3e c4 06 e7 3a
       -0.9339872 0.10443446 0.15850712 0.0017625918
0002b0 d2 0c bf 3d 00 02 98 3c f7 da c6 3f fc 01 06 3f
       0.09328617 0.018555641 1.5535573 0.5234678
0002c0 8f 9d 8d 3e 2a 79 09 3e 93 33 a6 bf 6b 77 b6 bc
       0.2765927 0.13425127 -1.2984489 -0.02227374
0002d0 88 70 a2 bf 02 1c dc 3e 53 a5 73 3f 3d eb f4 bd
       -1.2690592 0.42990118 0.9517414 -0.11958931
0002e0 8a e7 a8 3d eb c0 65 3c ad 73 b7 3f b5 27 82 bf
       0.082472876 0.014023046 1.4332176 -1.0168368
0002f0 bd dd 00 bf 18 16 60 3e ba ff 6a bd 3a d0 a0 bd
       -0.50338346 0.21883428 -0.057372786 -0.07852216
000300 e4 b8 33 3f a0 ed 70 3e 35 8a 4b 3c 82 2a 99 3c
       0.70203996 0.23528147 0.012423088 0.018697027
000310 d0 d5 e4 be 4e d5 e2 3e 38 cc 28 3e fe b9 52 3e
       -0.44694376 0.44303364 0.16484153 0.20578763
000320 32 ef 70 3c 2c 75 79 bc 63 ae 97 3d 00 46 14 bd
       0.014705466 -0.01522569 0.074063085 -0.03619957
000330 52 56 b2 3e d6 f3 99 3e b2 c9 8e be 4a 4e b3 bd
       0.34831482 0.30068845 -0.27888256 -0.08755167
000340 33 01 d1 3d ca 84 5c 3d bf d8 e5 3f 08 50 30 3d
       0.10205307 0.053837575 1.7956771 0.043045074
000350 2b 77 2b 40 21 3e 11 3d df e9 aa 3f 71 5f 3d c0
       2.6791484 0.03545964 1.3352622 -2.9589503
000360 ab de 11 3f d9 bf 30 be 94 e0 12 3e 63 3d 0a bd
       0.5698039 -0.17260684 0.14343482 -0.03374995
000370 d3 ae 2e 3e 82 c9 84 bd 33 52 cd be 2a ee d3 3e
       0.17058878 -0.06483747 -0.40101776 0.41392642
000380 c7 e2 39 c0 4b 9b 9c be bc 02 5a bd bb 55 b6 40
       -2.9044664 -0.3058723 -0.053225264 5.697965
000390 d6 3e 24 bc d5 5b 11 bf 28 47 13 3e 77 7e 1b 3e
       -0.010024747 -0.5678075 0.14382613 0.15184961
0003a0 4d 3b 48 bf cd 8a 36 3e da ef 15 bf 50 72 d3 bf
       -0.78215486 0.17826386 -0.5856911 -1.651926
0003b0 f4 9c 31 3f 48 b4 62 3c 27 c3 48 be b4 3a 80 3d
       0.69380116 0.013836928 -0.19605695 0.06261197
0003c0 21 88 15 be 00 08 0b 3f 55 ea 82 be 69 75 f5 bc
       -0.1460271 0.5430908 -0.25569406 -0.029963212
0003d0 33 3b b3 3c e0 b3 c5 bd fc 2e 71 3f 82 88 88 3e
       0.021878814 -0.09653449 0.9421232 0.26666647
0003e0 47 f0 a7 3d 92 4d 13 bb 53 97 66 be be b3 92 3f
       0.08200126 -0.0022476655 -0.22518663 1.1461103
0003f0 b0 dd 89 3e 7e 81 64 be 56 7c c6 bc 16 86 0c 3d
       0.26926947 -0.22315022 -0.02422921 0.03430756

layers.0.bias f4 [256]
000000 87 85 8f 3d 3d 21 2a bf 99 f5 96 3f 5c fa 42 3f
       0.0700789 -0.6645697 1.17937 0.7616327
000010 0f 91 ae 3f 8f 32 0e c0 2d 29 cc 3f d4 ac 04 40
       1.3638018 -2.2218359 1.5950066 2.0730486
000020 58 f8 e0 bf 83 f7 20 c0 7d bd 23 40 3a d2 bf 3e
       -1.7575788 -2.515107 2.5584404 0.37465078
000030 25 8a 08 bf 12 ab 44 40 f6 85 4e bf 30 ca 05 c0
       -0.5333579 3.0729413 -0.8067316 -2.0904655
000040 04 38 2b 40 0d 29 9d bf cd c0 1e 3f af f8 8b 3f
       2.675294 -1.2278153 0.6201294 1.0935267
000050 6e 84 f0 be 0f 43 73 c0 eb 81 bf 3e 3a 13 7e 40
       -0.46976036 -3.800968 0.37403807 3.9699235
000060 65 8e 41 bf bf 19 09 c0 a2 5f 81 be 8e dd 4a be
       -0.756079 -2.1421964 -0.25268275 -0.19811079
000070 5e 90 b1 be ae 09 14 bf 17 28 a2 bf f5 52 b8 3f
       -0.34680456 -0.5782727 -1.2668484 1.4400316
000080 1f 5c 2d c0 f2 77 fa be 8e e7 00 3f 39 8d 17 bd
       -2.7087476 -0.48919636 0.50353324 -0.036999915
000090 81 61 03 c0 7d 68 7e c0 d4 d3 d3 bf c2 3f f1 3f
       -2.0528262 -3.9751275 -1.654902 1.8847582
0000a0 c3 2f 3b 3f 23 2c 2d 40 1a 5c 8d 3f 43 73 ee bf
       0.73119754 2.705819 1.1043732 -1.8628925
0000b0 f4 b5 84 3d 7f d5 92 bf 6a b5 61 bf 39 10 44 40
       0.06480017 -1.1471404 -0.8816744 3.0634902
0000c0 40 ba 2a 40 1e 76 c3 bf 19 9b c7 3f 29 33 88 bf
       2.6676178 -1.5270422 1.5594207 -1.0640613
0000d0 3d 00 f1 3e fe ae 53 3f ff d9 03 c0 83 71 a8 be
       0.47070494 0.8268889 -2.0601804 -0.32899103
0000e0 62 b5 9f 3f c5 38 4f 3f fb b3 fa 3f 66 c7 99 3e
       1.2477229 0.80946 1.9586176 0.3003494
0000f0 fc 16 6b 3f 44 ce 85 40 c5 e9 34 3f 31 b1 ed 3f
       0.91831946 4.181429 0.70669204 1.85697
000100 78 dc 3e 3e 85 4d e0 3e dc 46 31 3f fc c9 82 3f
       0.1863879 0.43809143 0.6924875 1.0217891
000110 08 1a 14 3f 9d df 53 bf a9 93 14 40 0e 80 16 bf
       0.5785222 -0.8276308 2.3215125 -0.58789146
000120 4f 5e 11 be f6 ca e2 bf 44 53 e2 bc 49 d5 b7 3e
       -0.14196132 -1.7718189 -0.027627595 0.3590491
000130 12 26 be bf d0 2d b8 3f 06 53 9d 3c fa 35 b0 3f
       -1.4855368 1.4388981 0.019204628 1.3766472
000140 c0 76 8d 3f 14 67 5a c0 51 ec f1 be b5 6f 10 3e
       1.1051865 -3.4125414 -0.47250608 0.14105113
000150 6b c7 e3 3d 81 de 5c 40 8a 52 bc 3e df da 2b bf
       0.1112202 3.4510806 0.36781722 -0.67130846
000160 be 1d f1 3f cb 3f b0 bf 28 2d 03 40 3f 08 a4 3f
       1.8837202 -1.3769468 2.049631 1.2815017
000170 93 ea 65 3f 0c 36 80 3f 25 68 ae 3f e5 d4 fb be
       0.89811057 1.0016494 1.3625532 -0.49185863
000180 47 62 d4 3e f7 08 90 bf ad 97 a9 bd c5 15 82 be
       0.4148123 -1.1252736 -0.08280883 -0.25407234
000190 7e d1 6e 40 60 e5 de 3f 88 21 6f be 23 f2 af 3e
       3.7315364 1.741375 -0.23352635 0.34364423
0001a0 6a fe 05 be 7b f6 b4 bf ef 18 a8 3f 84 d8 6b 3f
       -0.13085333 -1.413772 1.3132609 0.9212725
0001b0 2d 34 86 be f6 c6 5a 3f 13 75 84 c0 58 78 8f bf
       -0.26211682 0.8545984 -4.1392913 -1.1208601
0001c0 d0 6f 15 40 92 47 3b 3f 44 5c 2f 40 0f 03 c9 3f
       2.3349495 0.7315608 2.7400064 1.5704058
0001d0 5b 18 31 c0 0c fa 33 3e 94 77 ee 3f 46 e6 f5 be
       -2.7671115 0.17575854 1.8630242 -0.48027247
0001e0 d5 94 16 be 56 2c bb bf d0 89 e6 bf 21 e7 c8 3e
       -0.14705212 -1.4622905 -1.8010807 0.39238837
0001f0 29 51 8b bc 9e 0c ae 3f 07 43 cb bd e7 56 94 3e
       -0.017006474 1.35976 -0.09924894 0.2897255
000200 a4 f6 45 c0 78 46 35 bf ce 85 19 c0 45 c6 7e 3f
       -3.0931787 -0.7081065 -2.3987918 0.99521285
000210 f8 0b 06 c0 b2 2e 2a c0 4f 2a ca be f8 30 d4 3f
       -2.0944805 -2.6591 -0.39485404 1.6577444
000220 84 a8 a9 3f ca c8 95 3e 70 4e 46 3f b8 53 8c 3f
       1.3254552 0.29254752 0.77463436 1.0963049
000230 ed b6 23 40 34 2f 12 40 a0 05 29 c0 e2 93 e6 3f
       2.55804 2.284131 -2.6409683 1.801388
000240 5f af 00 c0 bd 34 30 bf 22 46 45 bf 75 5e 16 3f
       -2.0107038 -0.6883047 -0.7706014 0.5873788
000250 08 31 9c bf c1 ca d6 3f 5a 14 4b 40 28 2f 01 bf
       -1.2202463 1.6780626 3.1731172 -0.5046258
000260 b1 09 de 3f c8 2c e9 bf 2d 64 aa 3e 1b 36 fd 3e
       1.7346708 -1.8216791 0.33279553 0.49455342
000270 50 59 0a be de 11 b8 3f 32 bf 04 bf 4b 47 49 c0
       -0.13510633 1.4380453 -0.5185424 -3.1449764
000280 e3 ef 78 3e b5 19 58 40 72 a8 e2 bf 22 37 4c c0
       0.2431026 3.376569 -1.7707655 -3.190865
000290 1d a9 a3 3f df 43 f4 bf fd 93 06 40 b4 81 a4 bf
       1.2785984 -1.9083213 2.1027825 -1.2852082
0002a0 ae e6 29 3e 09 02 02 bf 24 82 ac bf 17 5a 3b be
       0.16591904 -0.50784355 -1.3477216 -0.18296085
0002b0 31 8d 02 40 91 a2 63 3f ed 07 64 3f 79 bd da bf
       2.0398676 0.8891993 0.89074594 -1.7089072
0002c0 80 60 20 bf a9 27 0a c0 8f dd 3f c0 09 32 35 40
       -0.6264725 -2.1586707 -2.9978979 2.831179
0002d0 78 58 f1 3e e0 d4 9e bf 14 7b 08 40 75 3c b6 bd
       0.4713781 -1.2408714 2.132512 -0.0889825
0002e0 67 97 34 be 44 cf 2d bf 1c 45 fd bf ea 18 ef 3c
       -0.1763588 -0.6789439 -1.9786716 0.029186685
0002f0 97 97 7c bf b1 8c 26 bf 82 ba 22 c0 11 d3 82 3f
       -0.9866881 -0.6505843 -2.5426335 1.0220662
000300 84 b4 74 bf 8b 94 84 be 14 ab 80 3e 87 63 1d 40
       -0.95587945 -0.2589458 0.25130522 2.4591997
000310 ed e4 b6 bf ca dc 01 40 d1 d4 9c bc 1e e8 57 40
       -1.4288613 2.029101 -0.019144448 3.3735423
000320 bf c4 14 40 7e 90 2b 40 1c b8 37 c0 92 72 82 be
       2.3245084 2.680694 -2.8706121 -0.25478035
000330 88 2d 72 3f 15 3d 75 bf b8 f3 0a 40 b7 6f 35 40
       0.94600725 -0.9579633 2.1711254 2.8349435
000340 9b ef 67 3f 3a 06 de 3f 90 78 e8 3f 4e 97 17 c0
       0.90599984 1.734565 1.8161793 -2.36861
000350 33 1e 2b bf 6d 6e 0c 3e f7 a2 4c 40 d3 88 7e c0
       -0.66842955 0.13713999 3.1974466 -3.977101
000360 fa e4 47 3f 5a 38 ab bf 60 ea de 3c 85 36 eb be
       0.78083766 -1.3376572 0.027211368 -0.45940033
000370 90 ad f3 3f 8c f6 83 3f f5 5b a2 3a ad 06 7d bf
       1.9037342 1.0309615 0.0012387024 -0.9883831
000380 78 68 be bf a5 a8 50 40 70 a0 7f bf c2 ef 08 be
       -1.4875631 3.2602932 -0.99854183 -0.1337271
000390 9e c8 91 3e c3 e1 54 40 86 d3 08 c0 f1 a6 16 3f
       0.2847337 3.3262794 -2.1379104 0.5884848
0003a0 03 b0 8c bf 3e 3c b9 3f 9a 47 3b 40 bc e6 13 3f
       -1.0991215 1.447151 2.9262452 0.5777395
0003b0 33 9a d4 bf 21 d4 99 3f 6c b5 84 3e 34 e1 4c 40
       -1.6609558 1.2017862 0.25919664 3.2012453
0003c0 df 12 3f bf b3 60 8e 3e 59 2e 89 3f 26 70 0d 40
       -0.7463817 0.2780815 1.0717269 2.20997
0003d0 34 51 e5 bf b0 66 71 bf 1a 58 a4 bf ac ba fe 3f
       -1.7915406 -0.94297314 -1.2839386 1.9900718
0003e0 4c e3 93 bf 92 e1 b6 bf 12 f8 32 bf a1 37 13 40
       -1.155374 -1.4287589 -0.69909775 2.3002703
0003f0 f3 4d 31 40 a2 fe 36 40 66 a9 a3 3f 03 0b 4e bf
       2.7703826 2.8592916 1.2786071 -0.8048555

layers.1.weight f4 [256, 256]
000000 9c 44 e4 be 16 6d e4 bd e4 4b 41 bf cd f5 4d 3c
       -0.44583595 -0.11153619 -0.75506425 0.0125708105
000010 21 80 74 3e 65 21 ff be ac 24 8f 3e f9 b9 09 3e
       0.23877002 -0.49830166 0.27957666 0.13449849
000020 a9 39 8a bf cd 8d 07 3f df aa c1 bf 40 50 84 3e
       -1.0798846 0.52950746 -1.5130271 0.25842476
000030 fa 0d 00 be da ae 8c 3e 71 72 b4 3e 43 b8 3b 3f
       -0.12505332 0.2747715 0.35243562 0.73328036
000040 b4 36 ba 3e 3f 68 61 be e7 99 b1 bd 97 eb bf be
       0.3636986 -0.22012423 -0.08671933 -0.37484428
000050 a8 3d ff 3e 88 bd 81 3f 12 08 ea bd cf 4a f0 bd
       0.49851727 1.0135965 -0.114273205 -0.117330186
000060 9e 70 86 3e 49 63 ca 3d c6 ab 58 bf 28 e9 85 be
       0.26257795 0.098822184 -0.84637105 -0.26154447
000070 50 ff 85 3f e6 e9 72 3e ce 8d 5b bf 31 14 62 be
       1.046854 0.23722038 -0.8576325 -0.22078015
000080 10 33 38 bf 39 99 c3 bd a7 e3 3e 3e 0a 0a d2 be
       -0.71952915 -0.09550709 0.1864153 -0.41023284
000090 a8 97 36 bd 31 89 19 bd 7e a5 16 be 9f ac 8b bf
       -0.044578224 -0.03748435 -0.14711568 -1.0912055
0000a0 2d c2 42 3d 21 35 8a bf 35 7c 2d 3e 20 12 25 3e
       0.04754846 -1.0797464 0.16941912 0.16120195
0000b0 09 02 87 3e 76 a2 19 3f 53 da 68 bf bb 3e 30 be
       0.2636874 0.6001352 -0.90958136 -0.1721143
0000c0 fb 78 df be 13 3f b9 3e e9 bc 78 be 9e 48 2d be
       -0.43646988 0.36180934 -0.24290814 -0.16922233
0000d0 30 6e a2 be f3 d9 44 3f 01 b0 8f 3e e4 d5 7e 3e
       -0.3172469 0.76895064 0.28063968 0.2488628
0000e0 5f c9 96 3e 0e 35 df be 81 08 b5 be aa 3f 09 3f
       0.2945051 -0.43595165 -0.3535805 0.5361277
0000f0 79 27 02 3f e1 0e 9b bf e8 22 02 bf 20 3b 2b 3f
       0.5084148 -1.2113916 -0.5083451 0.6688709
000100 e6 59 42 bf e1 4f 61 bd 9a 13 10 3f cf fc bf 3d
       -0.75918424 -0.05500782 0.5627991 0.09374391
000110 30 5c 72 3e 4f 01 43 3f 41 39 c9 bd ca b7 cc be
       0.23667979 0.7617387 -0.098253734 -0.3998397
000120 2f 18 a7 bd aa 0e b5 3e 1e a2 8f bf 2a fc 97 bf
       -0.081589095 0.3536275 -1.1221349 -1.1873829
000130 9f 97 ab 3e 26 e0 5a 3f 57 1e 53 3f f1 32 05 bf
       0.33514115 0.85498273 0.8246817 -0.52030855
000140 28 45 fb 3c da 95 20 3f d2 1b a1 be 48 21 aa bd
       0.030672625 0.62728655 -0.31466538 -0.08307129
000150 e8 f6 39 3d a0 d9 b7 be 5e 5c 82 3e c3 34 5f 3f
       0.045401484 -0.35908222 0.25461096 0.87189883
000160 32 8f 54 bf e3 d6 24 3e 3b d9 41 3f 05 02 73 3c
       -0.83031 0.16097598 0.7572209 0.014832024
000170 48 f2 33 3f cb 4a 2d 3f 24 41 87 bf 44 83 47 bf
       0.70291567 0.6769225 -1.0566754 -0.7793467
000180 70 9c b9 bd 7b 1d b5 bf 4b 9a 47 3e 1f f2 4f 3d
       -0.09063041 -1.4149622 0.19492452 0.050768014
000190 7c 8f 92 3e d4 b8 bd 3e 32 d2 0b 3e c7 84 29 3f
       0.28625095 0.37055075 0.13654402 0.6621823
0001a0 5e 21 bc 3e f8 58 0b bf de 03 c7 3e 75 8b ab 3e
       0.36744207 -0.5443263 0.38870138 0.33504835
0001b0 2d 15 19 3e a6 85 95 be 0f b1 13 3f ed c0 96 bf
       0.14949484 -0.29203528 0.57692045 -1.1777626
0001c0 bd d7 0a 3f 00 bc 4e bf d4 48 2f bf 1a 30 22 be
       0.5423544 -0.80755615 -0.684705 -0.15838662
0001d0 07 a6 b7 3e e5 d6 d1 bd 83 4d 45 be 99 9f 4c 3f
       0.35868856 -0.10246066 -0.1926785 0.79931027
0001e0 68 e9 f8 3e bf ce d7 be 85 4d 67 3e d5 7f 1f 3e
       0.48615575 -0.42149922 0.22588165 0.15576108
0001f0 d8 b5 08 be 12 ec db be 82 de c6 3c b6 64 32 3f
       -0.13350618 -0.42953545 0.024276022 0.6968492
000200 27 2c 5e be e0 4c ad be 21 69 cb 3e 8e 6d 8f be
       -0.2169653 -0.33847713 0.39728644 -0.2801327
000210 da 98 d5 bc b2 70 bb 3e cd e7 08 3e f8 bb 94 3f
       -0.026073862 0.36609417 0.13369675 1.1619864
000220 12 72 6b 3f 1a 92 02 bf 2a a6 48 bf dc df 38 3f
       0.9197093 -0.51004183 -0.78378546 0.7221658
000230 4e fe d8 3e 69 c1 9b be 00 f6 26 3f f6 7e d5 be
       0.4238152 -0.30420998 0.65219116 -0.41698426
000240 77 54 e2 3e 1c bf 1d 3f 6a 5b 56 bf fb 84 74 3f
       0.44205067 0.61619735 -0.83733237 0.9551541
000250 42 46 cf 3e 0d 16 2d bc 59 1d 42 3f 6c ff f4 3e
       0.4048329 -0.010564339 0.7582603 0.4785112
000260 60 ae dc be ed 85 7a 3e 4e 61 b8 3e c9 42 52 be
       -0.43101788 0.24465151 0.36011738 -0.20533289
000270 ab d1 a2 3e d9 1a 15 3f 48 b3 20 bf 4a be 6f 3e
       0.3180059 0.5824409 -0.6277356 0.23412433
000280 2f 8e 83 3f 78 d0 63 3e ed ea a9 3e 4a e6 de 3e
       1.0277766 0.22247493 0.33187047 0.43535072
000290 18 7e 2e 3f 73 89 49 3e 06 e3 0b bf bf db c8 be
       0.68161154 0.19681339 -0.54643285 -0.39230153
0002a0 1e 5d 6c 3e 58 8f 1b 3f 36 fc b4 3e f8 db ba be
       0.23082396 0.607656 0.35348672 -0.36495948
0002b0 4e c4 48 bf a7 38 58 3f af fe 96 bd 4d 7d b2 3e
       -0.7842454 0.84461445 -0.07372796 0.34861222
0002c0 2b 31 b1 3e c4 74 48 3f 95 4b 80 be 4e 02 45 bf
       0.34607825 0.7830317 -0.25057665 -0.7695664
0002d0 41 5b cc be f1 33 1f 3f 6b 77 4b bf eb cf 17 3f
       -0.3991337 0.6218863 -0.7947909 0.5930163
0002e0 e3 d9 99 3f 10 78 a5 3e d7 a6 bd be f9 65 06 be
       1.2019619 0.32318163 -0.3704135 -0.13124837
0002f0 60 1f 30 bf 2b 47 49 bf 64 92 48 3e 09 fa 27 bf
       -0.68797874 -0.7862422 0.19587094 -0.656159
000300 67 39 41 3f c2 05 fe be f4 d1 0a 3e 20 4c 44 bf
       0.75478214 -0.49613768 0.13556653 -0.7667866
000310 7d e3 35 3e 50 7b 92 bf 6c ac 11 bf eb 0e e3 be
       0.17762561 -1.1443882 -0.5690372 -0.4434732
000320 08 73 90 3e ea e7 b5 3e 0f b0 09 3d 0f 0c 5f be
       0.28212762 0.355285 0.03361517 -0.21781944
000330 a7 5e 1f 3f 45 81 6c 3f 6a 40 22 3d 19 c5 17 3f
       0.62253803 0.9238475 0.03961221 0.5928512
000340 1e fa 4a be 58 7a 88 bd 42 41 75 3e f6 83 a3 3f
       -0.19821975 -0.0666396 0.23950675 1.2774646
000350 e4 d4 2b bf 37 91 95 bf f2 91 4b be b6 5c b9 3e
       -0.6712172 -1.1684941 -0.19879892 0.36203545
000360 f1 7d 7c bf f8 a6 08 bd a1 f7 20 3e b9 5f 55 3f
       -0.9862967 -0.03336236 0.15719463 0.83349186
000370 7a d5 f2 be 2a 33 07 3e b6 db b5 bd 04 d7 04 3f
       -0.47428495 0.13203111 -0.08879797 0.5189059
000380 1f 1a 05 3f 9d 3a b6 bd 3d d6 1b 3f 9c 3c c6 3e
       0.5199298 -0.08897898 0.60873777 0.38718116
000390 f7 17 a2 bb 01 96 20 be 7b 26 6d 3e fb 25 19 bf
       -0.0049467045 -0.15682222 0.2315921 -0.5982358
0003a0 3f 10 06 3d d0 8d 9f 3f 01 c1 01 bf a3 f4 59 bf
       0.032730337 1.2465153 -0.50685126 -0.8513891
0003b0 89 ba fd bd 23 fc 28 3d d2 ae bf be 9a 72 a6 be
       -0.123890944 0.04125608 -0.37438065 -0.3250931
0003c0 18 3b 4f bf cc c3 fc bd 9e 8f 45 3f b8 56 77 be
       -0.80949545 -0.12342033 0.7717227 -0.24154174
0003d0 5d bc 36 bf e7 a5 db bd 63 93 f7 3e d6 f0 81 3e
       -0.7138117 -0.10725003 0.48354635 0.25379056
0003e0 a5 8b 82 3e 6e 38 14 be 0a be a7 3f f3 9b b4 3f
       0.25497165 -0.14474651 1.310487 1.4110092
0003f0 bb b0 33 be 7f 34 b2 bd a2 fa 5a be 7f 93 b0 3d
       -0.17547886 -0.08701419 -0.21384671 0.08621883

layers.1.bias f4 [256]
000000 6d 24 6f bf 14 e0 85 bf 32 cd ed be 14 f5 f5 3e
       -0.93414956 -1.0459008 -0.46445614 0.48038542
000010 c2 f9 9e 3f 4b fa d5 be 33 1a ac 3b bf d2 0d c0
       1.241997 -0.4179252 0.0052521466 -2.215988
000020 f8 8f e0 3f 3b d3 68 3f 24 bc 84 bf f4 91 60 3f
       1.7543936 0.9094731 -1.0369916 0.87722707
000030 df ab aa 3e d7 51 2c 3c 0e a4 17 be 31 7a c5 3e
       0.33334252 0.010517559 -0.14808676 0.38569787
000040 79 69 76 bf 66 94 75 3d 5f 21 19 3f 8a b1 9a bf
       -0.9625469 0.059955977 0.59816545 -1.2085431
000050 5c e2 8a bf 3c f5 d2 bf 9f 51 49 3f 25 eb 80 bf
       -1.0850329 -1.648109 0.7864017 -1.007176
000060 bc c7 5b bf 95 a3 60 3e 0f d2 e7 3f da 65 8d 3e
       -0.85851645 0.21937402 1.811098 0.2761677
000070 70 63 20 3f 6e 7d 82 3f f4 e4 92 3e 89 d5 71 3e
       0.6265173 1.0194528 0.28690302 0.23616613
000080 95 ed b9 be 1e 63 3a 3e 1b a7 31 bd 80 48 66 3e
       -0.36314073 0.18201873 -0.043372255 0.22488594
000090 62 44 7a 3f 6e 5d ac 3f 5c c0 e4 3e c4 e4 8d bf
       0.97760594 1.3466012 0.4467801 -1.1085439
0000a0 47 fe 72 bd 32 ec c1 be b2 46 80 3e 20 76 05 bf
       -0.05932453 -0.37875515 0.25053936 -0.5213337
0000b0 73 fb 94 3f 19 1c 3b 3f 26 ec 03 3f 0f aa f3 be
       1.1639236 0.7308975 0.5153221 -0.47590682
0000c0 c1 7a 07 bf 55 b4 9e 3e 33 11 52 3e bc c6 f3 3c
       -0.5292168 0.30996957 0.20514373 0.02975785
0000d0 49 4a ac 3e c5 15 bb 3e 9f 46 2d bf 65 ae 62 bf
       0.33650425 0.36540046 -0.67685884 -0.88547355
0000e0 23 e3 ab 3d aa be 69 bf 13 85 4f bf 10 49 72 3f
       0.08392932 -0.91306555 -0.8106243 0.94642735
0000f0 71 87 33 bf 71 be 7c 3e af 3a d1 be 50 16 9d 3f
       -0.7012854 0.24682023 -0.40865085 1.2272434
000100 2b 61 5c 3f 7a 3e a0 3e 14 23 bc be ab 50 52 be
       0.86085767 0.31297666 -0.36745512 -0.20538585
000110 64 fd ca 3e 26 dc 04 bf d4 1c 89 3e 13 34 88 3f
       0.39646447 -0.5189842 0.26779807 1.0640892
000120 82 7f a9 be d4 94 ae bd 16 9e 01 bf f5 14 15 bf
       -0.33105093 -0.085244805 -0.50631845 -0.582351
000130 be ae 20 3e 01 cc 22 be be b8 35 3f 83 59 a1 bd
       0.15691659 -0.15898134 0.7098502 -0.07878401
000140 77 0a b2 bd 52 83 8c bf b1 2e 05 40 a5 c9 28 bf
       -0.08693402 -1.0977576 2.0809748 -0.65932685
000150 fd 5b ce be a1 ce b8 3e e4 84 1b be 6d bb a7 be
       -0.40304556 0.36095145 -0.15187413 -0.32760182
000160 78 0f 55 3e db 18 3d bf 86 18 e0 be 1a b3 54 bf
       0.20806682 -0.7386605 -0.4376871 -0.8308579
000170 88 6d 3d 3c 2e d5 05 3e 3a f2 1d 3f 52 ef 56 3f
       0.011561759 0.13069603 0.61697733 0.83958924
000180 72 0e 7a 3f 27 0a 8c bb d9 62 07 3e 96 0e 30 be
       0.9767829 -0.004273671 0.13221301 -0.17193064
000190 b6 24 35 3f 7c e3 31 be b4 de c6 bf 3e 16 42 3c
       0.7075914 -0.17371935 -1.5536714 0.011846123
0001a0 98 02 81 3e 40 8e a4 3e 39 5d 06 3d f0 e3 00 bf
       0.2519729 0.32139778 0.032803748 -0.50347805
0001b0 56 2a 6a 3f cc 64 a1 be 51 d7 16 3f a3 f5 bc 3e
       0.9147085 -0.31522214 0.58922297 0.36906156
0001c0 f8 b3 0d bf 17 9a 7c 3e 7b 18 5a 3e 68 c7 12 bf
       -0.55352736 0.24668156 0.21298401 -0.5733552
0001d0 4c 42 3c 3e 09 76 b7 3e 6d 6a 37 3f 7e 81 3e 3e
       0.18384665 0.3583224 0.7164677 0.18604085
0001e0 90 02 af be 61 76 8d 3e c5 64 2f 3f 92 db f1 3d
       -0.34181643 0.27629378 0.6851314 0.11809458
0001f0 37 21 ec 3e e7 e3 8c bd b9 07 b7 3f a0 4a 99 be
       0.4611909 -0.068794064 1.4299232 -0.29939747
000200 75 a4 63 3f 5d 19 a2 3f 6e e5 56 be e3 fa 70 3e
       0.88922817 1.266399 -0.20985958 0.23533206
000210 a1 3a 58 bf ca 3b 3f bf 29 f6 63 bf a3 43 85 be
       -0.8446446 -0.74700606 -0.89047486 -0.26028165
000220 81 e6 41 3e 8e 30 7c bc 77 c0 43 3f b7 23 43 3f
       0.18935587 -0.015392436 0.76465553 0.7622637
000230 9d 1c b4 3e 67 79 3b bf ba 14 82 bc 17 25 42 bf
       0.3517808 -0.7323212 -0.015879024 -0.75837845
000240 ce f0 85 3e 3c a1 c9 3e d9 26 9a be 26 0d 05 3f
       0.26160282 0.39380825 -0.30107763 0.5197319
000250 61 9a 55 be f7 fe 85 be d1 59 00 bf 07 47 fe 3d
       -0.20859672 -0.26171085 -0.5013705 0.12415891
000260 ab 9b c4 3f 9b b1 03 bf 9f e6 52 bf f3 95 2b 3d
       1.5360006 -0.5144288 -0.8238315 0.04189105
000270 85 96 21 3e cd e8 02 be 85 70 5d bf e5 7d f5 be
       0.15780075 -0.12784119 -0.86499816 -0.47947612
000280 a8 75 27 bf cb 0d 90 be 68 9a 37 bf 1b 5b 12 bf
       -0.65413904 -0.28135523 -0.7171998 -0.57170266
000290 a8 d0 3f 3f 38 4f c7 be fc ed 3f bf f0 dc 33 3f
       0.7492776 -0.38927627 -0.7497251 0.70259
0002a0 97 83 31 3f 62 b4 a5 be 0a de 2e 3f 79 21 f5 3e
       0.69341415 -0.32364184 0.68307555 0.478771
0002b0 ce 3f f8 3e 7e 5c 33 bf cd 98 05 3e 13 a2 0b be
       0.4848618 -0.70063007 0.1304657 -0.13636045
0002c0 12 13 b6 3e 80 c3 18 3f b9 11 d4 bd ec c9 7c 3c
       0.35561424 0.5967331 -0.10354943 0.015429001
0002d0 3b e4 81 bd 0a 74 8c be 06 fa 18 3f 5d a2 a0 3f
       -0.0634236 -0.2743228 0.59756505 1.2549549
0002e0 19 01 34 be d5 08 57 3f 5d 48 3d 3d 52 a9 49 bf
       -0.17578544 0.8399785 0.04621159 -0.7877399
0002f0 ac b8 af be 2b 7b 9a 3f 05 63 c6 be e3 05 3b be
       -0.3432058 1.2068838 -0.3874742 -0.18263964
000300 1a c4 21 bf cb bd 19 3e e5 6e 27 be 39 e7 23 bf
       -0.6318985 0.15013807 -0.16350897 -0.6402469
000310 79 fd 18 3f d7 ab c3 3e a3 6f 20 bf 7d 14 2f bf
       0.5976177 0.3821704 -0.62670344 -0.6839064
000320 b2 4e d0 3c 03 e4 0d 3f a7 24 a1 3e 43 e0 f9 be
       0.02542815 0.55426043 0.31473276 -0.4880391
000330 9e fe 09 3f be c0 75 3e b1 03 56 bf fd 5c 82 be
       0.5390414 0.23999307 -0.8359938 -0.2546157
000340 26 76 4b bf 1f 42 1e bd d7 50 96 be fd f4 83 3e
       -0.79477155 -0.038637277 -0.2935855 0.2577285
000350 b7 72 0e be 80 b0 2a 3e 8b 14 4e 3e b8 dc 20 bf
       -0.13910948 0.16668892 0.20125024 -0.6283679
000360 c0 28 94 bf 95 28 da 3d b9 7d 37 bf a1 bf 6c 3f
       -1.1574936 0.10652272 -0.7167621 0.924799
000370 88 24 67 3d 74 da 18 be d5 f0 bc 3e de ca f5 3e
       0.056431323 -0.14927083 0.3690249 0.48006338
000380 7e 36 86 bf 58 fa 1e bf fc 36 59 bf 4f d3 c9 be
       -1.048538 -0.62100744 -0.84849524 -0.39419028
000390 ed 55 af 3c c1 b9 4a 3f 20 c0 39 3f d9 e3 0e be
       0.021403277 0.7918969 0.72558784 -0.13954104
0003a0 08 37 5e 3e 69 f4 6e bf cd 6d 40 3f bd 5a 7e 3c
       0.2170068 -0.9334169 0.7516754 0.015524563
0003b0 4b f7 35 bf 88 de 83 3e b7 be 31 be 9e ef 81 bf
       -0.71080464 0.25755715 -0.17357908 -1.015125
0003c0 a0 68 70 bf 6f 43 0c bf 27 8f 0e bf b5 f4 d2 3f
       -0.93909645 -0.54790395 -0.55687183 1.6480929
0003d0 03 f2 04 bf 76 6e 36 3d 53 9c 03 bf dd 03 85 3e
       -0.5193178 0.044538938 -0.51410407 0.2597951
0003e0 ce f8 8b 3e c5 37 86 3e 3d fc fd be d8 d0 97 3e
       0.2733826 0.26214424 -0.49606505 0.29651523
0003f0 d4 ba c9 be cf b8 61 bf 10 82 16 bf 9d 3c bb be
       -0.3940035 -0.8817262 -0.5879221 -0.36569682

value_stream.weight f4 [1, 256]
000000 92 cd 2d 3e 27 59 09 be 48 53 39 be 22 d2 61 be
       0.1697295 -0.13412915 -0.18098176 -0.22052816
000010 c3 a2 0c be 4c 8f 8f be 8f e6 3c 3e 97 65 99 3e
       -0.13733964 -0.28039014 0.18447326 0.2996032
000020 18 91 74 bf e9 1c 54 be 7c b6 33 3f fc bd 1e 3f
       -0.95533895 -0.20714153 0.70200324 0.62008643
000030 51 3b 36 3e 50 08 95 3e 5e f0 d7 3d 38 9f 4a be
       0.17796065 0.29107904 0.10543893 -0.197873
000040 a9 e3 98 3e fb d7 16 be 12 7e 66 3e 89 7b 40 3f
       0.2986119 -0.14730828 0.2250903 0.751885
000050 92 36 73 3e 36 98 d4 be 20 07 e5 be a2 ea 98 3e
       0.23751286 -0.41522378 -0.44731998 0.2986651
000060 3b e5 5b 3e 07 af 0a be 7e 06 9a be af 29 f4 3c
       0.21474163 -0.1354333 -0.30083078 0.029805033
000070 04 ff 27 3e 20 84 b1 3e 29 fb 30 be 67 cb 63 3f
       0.16405874 0.34671116 -0.1728331 0.8898224
000080 19 ce 86 be a0 12 c9 3d 84 a8 56 be 0f c5 2a be
       -0.26329115 0.098180056 -0.20962721 -0.16676734
000090 47 26 18 be 4d d3 f9 3e c9 6c 94 be 25 b9 70 3e
       -0.14858352 0.48794022 -0.28989246 0.23508127
0000a0 9b 0a 23 be b2 f9 a7 3e f4 dd 67 be 65 11 d1 bd
       -0.15922014 0.3280769 -0.22643262 -0.10208396
0000b0 73 40 b1 be b9 2a 25 3e e6 88 2d 3f 80 4f 1f 3e
       -0.34619483 0.16129579 0.67787015 0.1555767
0000c0 61 12 34 be 76 6c 60 be fa 31 03 bf 5a fd 64 3e
       -0.17585136 -0.21916375 -0.51248133 0.22362271
0000d0 c5 36 c0 bd 0f f3 48 3e 99 3d 6c 3e d5 17 03 3f
       -0.093854465 0.1962397 0.23070373 0.5120824
0000e0 79 fb 2d be ea c3 81 3e 70 2a 8d 3d 28 bd 02 be
       -0.1699046 0.25344783 0.0689286 -0.1276747
0000f0 c0 fa a1 be 7c 74 7f 3e f5 fa 16 3e 44 0f 13 3f
       -0.3163662 0.24946779 0.1474417 0.5744517
000100 34 1d 50 be 31 89 e0 3e 18 6c 43 3e 69 45 f4 bd
       -0.2032364 0.4385467 0.19084203 -0.119273014
000110 b8 26 27 3e f5 ad 25 be 17 a5 04 3e 27 9a 63 3e
       0.16323364 -0.1617964 0.12953602 0.22226773
000120 28 e7 46 3e 60 40 c0 3e 64 33 88 3e 8c 6c 72 3e
       0.19424117 0.37549114 0.26601708 0.2367422
000130 6c 69 3d 3e 03 f8 9c be 7a 10 81 be 6e d3 2e 3e
       0.18497247 -0.30657968 -0.25207883 0.17072842
000140 83 b6 f5 3d c7 ad c6 3e 46 6b 16 3f 3a df 33 3f
       0.11997702 0.38804457 0.58757436 0.7026249
000150 38 44 04 be 7f 7a 6e 3e a5 d9 0a 3e 2c 05 fd 3e
       -0.12916648 0.23288916 0.13559587 0.49418008
000160 14 93 d5 3e 92 2b 56 be d2 20 74 3e b0 86 99 3e
       0.41713774 -0.20915058 0.23840645 0.2998557
000170 69 b5 10 3e 03 f7 72 3e ee 54 3b 3e 8e ff 2b 3f
       0.14131702 0.2372704 0.18294117 0.6718682
000180 2b c9 70 3e d1 2e 45 3e aa c2 7e 3e 31 6e 4d 3e
       0.2351424 0.1925614 0.24878946 0.20061566
000190 5a 94 f9 3d c9 48 5c 3f 94 9e 64 3e 20 fe 84 be
       0.12186499 0.8604856 0.22326118 -0.25975132
0001a0 ea ec 3c 3e 54 45 6a be 81 b4 8b be 25 c0 64 be
       0.1844975 -0.22878009 -0.2728615 -0.22338922
0001b0 70 e1 bb be 1d cb 43 be be 65 d2 bd 97 36 14 be
       -0.36695433 -0.1912045 -0.10273312 -0.1447395
0001c0 50 2c b8 be d2 1c a7 bd 5c 8f 09 bf 61 1b 7a be
       -0.35971308 -0.08159794 -0.53734374 -0.24424507
0001d0 96 d2 31 be f7 32 37 be c5 3d 92 be ed 6f 42 be
       -0.17365488 -0.17890535 -0.2856275 -0.18988009
0001e0 6c c9 68 be b7 5e b9 3e f6 9f 1f 3e 84 8c f9 3d
       -0.22733086 0.36205074 0.15588364 0.12185004
0001f0 af 98 97 bc 81 c0 2d 3e 5b 0b a5 3f bd 48 68 3e
       -0.018505422 0.16967966 1.289409 0.22683997
000200 26 b3 82 be 17 19 6e bd 9c 40 02 be b0 af a2 3e
       -0.25527304 -0.058129396 -0.12719959 0.31774664
000210 4d 70 bb be 5a 06 4b 3e 43 3e a0 3e 91 86 09 be
       -0.36609116 0.19826642 0.31297502 -0.1343024
000220 98 93 e5 be 48 04 8e 3d a9 95 0a 3e ff 19 48 3e
       -0.44839168 0.0693441 0.13533653 0.19541167
000230 39 c6 69 be 74 f3 b9 3e 0e 6b 23 be 4c 95 3e 3e
       -0.22829522 0.36318552 -0.15958807 0.1861164
000240 41 08 8b 3e 2c 82 a7 bc 8c 98 63 be 69 8e b2 3e
       0.27154735 -0.020447813 -0.22226161 0.34874275
000250 1e b7 f5 3e e4 ad 63 3e 70 36 16 be 13 ce 83 be
       0.4799127 0.22234303 -0.14669204 -0.2574316
000260 bb d4 9d be da 61 55 3e ab c1 41 3e cd 01 4c be
       -0.30826363 0.20838109 0.18921535 -0.19922562
000270 52 14 f8 3d e0 ff cd 3e 42 e3 d8 3e d6 09 25 3e
       0.12113251 0.4023428 0.42360884 0.16117033
000280 b3 3e 6e 3e c5 d7 6b be 03 d8 48 3f 5a 8b c8 bd
       0.23266105 -0.23031528 0.7845461 -0.09792204
000290 8b 66 31 be 6e 02 7e be 76 d4 3b 3e 5c 86 f5 3e
       -0.17324273 -0.24805614 0.18342766 0.4795407
0002a0 0e 63 4c 3f 23 c8 23 be f0 49 2f be 21 e6 d9 3d
       0.79838645 -0.15994315 -0.17118049 0.10639597
0002b0 bf c7 9d be 41 47 3a 3e 6b 23 38 3e ef 7d 24 be
       -0.30816457 0.18191244 0.17982261 -0.16063665
0002c0 4c 0e 98 be d6 ab 45 3e 6e 66 00 3e 57 8c 6c 3e
       -0.29698408 0.19303831 0.12539074 0.2310041
0002d0 f0 37 0c be c6 1b 96 3e ae ef 56 3e 79 c5 4f 3e
       -0.13693213 0.29318064 0.20989868 0.20290174
0002e0 45 7d 82 bd 14 01 c4 bd 5d 62 86 be b2 5f c9 be
       -0.063715495 -0.09570518 -0.2624692 -0.39330822
0002f0 5d 7e a3 be 46 b0 17 3e cf 46 90 be 8d 95 b3 3d
       -0.31932345 0.14813337 -0.28179023 0.08768759
000300 c4 2a 40 be 53 50 9e 3d 1b a6 dd 3e d1 1e 9a 3e
       -0.18766314 0.077301644 0.4329079 0.30101636
000310 5c 4b 5a be bd b2 f8 bd 98 a2 53 3e 18 91 ce be
       -0.2131781 -0.121434666 0.20667493 -0.40345073
000320 57 d0 0c 3f 60 a0 f5 bd ce 48 26 be 8c 2d 6f bf
       0.550054 -0.1199348 -0.1623871 -0.93428874
000330 63 49 f7 bd 7a 1e 32 be 09 dd 79 3e 5e 78 9c 3d
       -0.12074544 -0.17394438 0.24400724 0.07640146
000340 f7 76 b3 3d e5 c5 1a 3e 98 59 66 3e 8a 8b 03 3e
       0.08762925 0.15114553 0.22495115 0.12846199
000350 77 cd 3a 3f f7 0b a7 bd fb 68 44 be f6 05 43 be
       0.72969764 -0.08156579 -0.19180672 -0.19045243
000360 ec 95 56 3e 9b b6 01 3e 01 e1 67 3e 29 1f 8c be
       0.20955628 0.12667315 0.22644426 -0.27367523
000370 1b 7f 91 3d 37 ce ac be 05 20 08 be 67 ec cc be
       0.071043216 -0.3375108 -0.13293464 -0.4002411
000380 8d 57 a1 3f 00 cb 24 3e 8b 89 9b 3d f1 93 61 be
       1.2604843 0.16093063 0.075945936 -0.22029091
000390 7c 98 09 bf 63 fb 23 3e f4 f4 1b be 6b ee 47 3e
       -0.537483 0.16013865 -0.15230161 0.19524543
0003a0 20 f3 27 3e 5a 28 a6 be a9 23 8c be 16 e0 6b 3e
       0.16401339 -0.3245266 -0.27370957 0.23034701
0003b0 f9 06 96 be 31 21 53 be 84 11 3e be 34 11 7d be
       -0.29302195 -0.2061813 -0.18561369 -0.24713594
0003c0 b0 3d be 3f 17 83 14 be 52 87 a6 3e 57 1c 60 be
       1.4862576 -0.14503132 0.32525116 -0.21885811
0003d0 09 ba 63 3e 2f 4d 89 3d 19 f7 da 3d c0 84 dc 3e
       0.22238936 0.06704175 0.106916614 0.4307003
0003e0 d2 04 50 3e 0e 9a 5a be a5 c7 9f 3e 90 0e 79 be
       0.20314339 -0.2134783 0.31207004 -0.24321961
0003f0 06 63 c0 3e e3 50 a3 3e cf 4b 98 be b1 26 99 3e
       0.3757555 0.3189765 -0.29745337 0.29912332

advantage_stream.weight f4 [20, 256]
000000 19 bd 18 3e 8d ec ce bd 7f 72 67 bd e5 10 e1 3c
       0.14915885 -0.10103712 -0.056505676 0.027473876
000010 c0 6f 33 3a f3 cc a8 bd cd 98 a1 3d 28 51 0a 3e
       0.000684496 -0.08242216 0.078904726 0.13507521
000020 aa f5 b9 be 43 75 e5 3c bf ca e7 b9 42 0f 0d 3e
       -0.3632024 0.028010016 -0.0004421081 0.13775352
000030 75 70 20 3e be 27 29 3c e0 67 e4 bd 95 76 81 3d
       0.15667899 0.010324417 -0.11152625 0.06321446
000040 0a 56 d6 bc d6 5e 15 bd 74 22 75 3c 17 09 b7 3e
       -0.026164073 -0.036467396 0.014961828 0.35749123
000050 b0 f1 83 bb a7 8c 5b be 61 ac 61 be b5 52 1d bc
       -0.004026614 -0.21440373 -0.22038414 -0.009602238
000060 5c 7a 03 be b2 d0 78 3c d4 41 96 bc 69 dd 2a 3b
       -0.12839645 0.015186476 -0.018341936 0.0026071912
000070 d6 13 3b bd 09 93 5e 3d 9f c7 9d 3c 5b 04 68 3e
       -0.045673214 0.054339442 0.019260226 0.22657911
000080 a9 8e bf bd 30 be fb 3c e9 eb 07 bd a8 9c 3b 3d
       -0.09353382 0.030730337 -0.033183966 0.045803696
000090 78 61 10 be 34 e9 de 3d c6 21 1b 3c 21 e5 81 bd
       -0.14099681 0.10884324 0.009468501 -0.06342531
0000a0 8d 45 92 bd 4a b9 98 bd 5c 9e 7c 3d 6e 2e 72 bd
       -0.07142172 -0.07457216 0.06167446 -0.05912631
0000b0 13 99 c6 bd 25 29 55 3d 4c e3 88 3e ba e3 d4 bb
       -0.09697165 0.05204119 0.26735914 -0.0064968737
0000c0 a5 f4 d8 bd 2f bf 05 bb f4 25 11 be 17 cb d3 3c
       -0.10593537 -0.0020408144 -0.14174634 0.025853677
0000d0 b1 33 c1 bd 0e d4 df 3c 5d 06 06 3d 04 66 c4 3d
       -0.094336875 0.027322795 0.032720912 0.095897704
0000e0 bc 40 dc bc e1 94 9c bd 69 f3 05 bc d7 a4 c9 3d
       -0.026886337 -0.07645584 -0.008175709 0.09845894
0000f0 b7 33 86 3e 51 a3 9e 3c eb 11 c2 bb a7 9a 7d 3d
       0.2621133 0.019364985 -0.005922546 0.061915066
000100 9f 19 4f 3c 9b e9 8d 3d cb a3 30 3e 72 1e 6a bc
       0.012640386 0.06929322 0.17249982 -0.014289485
000110 60 95 25 3c 40 bf 03 bd 48 8e de 3c 68 ec be 3d
       0.010106415 -0.032164812 0.027167454 0.09322435
000120 3e f9 19 bc 0b df de bc 37 29 d9 3d fd c2 d4 bc
       -0.009397803 -0.027205965 0.10603564 -0.025971884
000130 1c c0 1f bd c7 b1 ed bd 2c 76 e7 bc c0 9d aa bd
       -0.03900157 -0.11606174 -0.02825459 -0.0833087
000140 d9 78 26 3b 92 37 4f 3d 3c ed c3 3e e2 cf 0c 3e
       0.002540162 0.050590105 0.38266933 0.13751176
000150 e9 d6 bf bb 95 4f 0e 3b 9a 26 92 3d 2a bd 06 3e
       -0.0058544767 0.0021714915 0.07136269 0.13158098
000160 79 70 0f 3e 4d d4 bb 3c 4a f5 fc bc 04 37 16 be
       0.14007749 0.022928381 -0.030878682 -0.14669424
000170 26 94 a3 bc 9b d4 84 bc 48 d8 95 bd 1d 51 8d bc
       -0.019968104 -0.01621466 -0.07316643 -0.017250592
000180 6f 28 01 bd 69 f1 d8 3c 58 87 8c 3d 53 50 20 be
       -0.0315327 0.0264823 0.06861752 -0.15655641
000190 41 cd e7 bc 9a d0 bc 3d 4e 6c dc 3d 73 2c 97 bd
       -0.028296115 0.09219475 0.10762845 -0.07381525
0001a0 fb cd cc 3c 4c c7 02 bc 69 f8 59 bd e9 09 02 bb
       0.025000563 -0.007982086 -0.053215418 -0.0019842333
0001b0 34 03 c3 3d 93 98 15 3e c2 52 e9 3c 6d c9 83 bd
       0.09522095 0.14608984 0.028481845 -0.06434903
0001c0 a2 ec 15 be 81 eb 56 3d 62 45 02 bd 38 07 a4 bd
       -0.1464105 0.052470688 -0.03180445 -0.08009189
0001d0 1d ae 9e bc 5f b9 4c bd 23 3a 2f 3c bb 87 e9 bc
       -0.019370133 -0.04998147 0.010695013 -0.028507104
0001e0 7f bb 1a 3d 12 49 90 3d fa ad d0 bc 2a 7d ad bd
       0.037776466 0.07045187 -0.025473583 -0.08471139
0001f0 80 ce 55 bd 3c 1f 52 3d 2e 45 f6 bc c2 fb 0f 3d
       -0.052198887 0.05129932 -0.030062284 0.035152204
000200 5f d3 66 bd 05 f8 49 3c e0 61 9b bd 2f ea 6a bc
       -0.056353923 0.012327199 -0.075870275 -0.01433806
000210 27 e2 0f be f4 77 e0 3d 0b f3 80 bc 13 19 99 bb
       -0.14051114 0.10960379 -0.015740892 -0.0046721785
000220 5c 2a e9 3d cd 3c 19 3c f8 3d 8c 3c f2 03 3b 3d
       0.113850325 0.009352875 0.017119393 0.04565806
000230 a2 6f e6 3c dd de 70 3c f4 f8 ab bd e2 bd 2a bc
       0.028129403 0.014701572 -0.083970934 -0.010421248
000240 6d 25 19 3d 1b 00 13 be a6 94 53 3d b5 3a 89 3d
       0.037389208 -0.14355509 0.051655434 0.067006506
000250 d2 e8 a1 bb 9c 81 d4 bb 12 4e 32 3d 55 d6 06 3e
       -0.0049410844 -0.006485177 0.043531485 0.13167699
000260 9b 70 32 bc 08 43 aa 3d 59 d1 2a 3d 40 85 dd bc
       -0.010891105 0.083135664 0.041703556 -0.027041078
000270 08 78 a3 3d 7e 59 9f 3d c4 0f 49 bd 29 3f c9 3d
       0.079818785 0.07780741 -0.0490873 0.098265
000280 a9 94 0d 3c 06 1d 06 3d 69 27 07 3d ff 18 57 bd
       0.0086414 0.032742523 0.03299657 -0.052514073
000290 c4 f9 8c bc 95 eb a2 3c 95 f8 75 3c f4 ad 1b bd
       -0.017208941 0.019887725 0.01501288 -0.03800769
0002a0 46 c8 a2 3d 79 d4 10 3d 3d fc 77 bc c7 ca ed 3d
       0.079483554 0.03535888 -0.015135822 0.11610942
0002b0 44 02 23 3e f1 50 88 bd 44 cf cd 3c 04 78 3b 3d
       0.15918833 -0.06656063 0.025123246 0.045768753
0002c0 a8 cd f9 bc da 03 50 be 35 3d 59 bc dd d4 0a 3e
       -0.030493572 -0.20313969 -0.013259222 0.13557763
0002d0 0d 69 28 3d f3 68 ef 3d 2e e1 3a 3d 7d 7b c7 bd
       0.04111581 0.11689939 0.045624904 -0.097403504
0002e0 b7 f4 8b 3c a5 92 23 3d 34 5f 18 bd 1d 07 10 3e
       0.017084463 0.039934773 -0.037200168 0.14065214
0002f0 ad 44 a0 bc dc e3 a3 3d df e3 1e bd 0f 43 eb 3b
       -0.019563997 0.08002445 -0.038791534 0.007179625
000300 1b 4a 93 3c 64 c7 26 3c bf a8 3f be 8b c9 25 3b
       0.017979672 0.010179374 -0.18716715 0.002529713
000310 d8 1a da bd 9f 4e e1 bd 8a 1a 5b be 7b 22 1c be
       -0.10649651 -0.11001324 -0.21396843 -0.15247528
000320 e7 56 11 be d9 9d 19 3d dd c6 77 bd b5 e1 5a bd
       -0.14193307 0.03750405 -0.060492385 -0.053437907
000330 5f d6 fe bc 6c 8b a9 3c 39 b9 92 3d 7e 3d 12 3d
       -0.03110808 0.020696364 0.07164235 0.035703175
000340 af 14 9c bb bc 27 b6 3d f1 28 22 3d 49 3b b2 bc
       -0.004763208 0.088942975 0.039589826 -0.021756785
000350 ad d8 95 3e 35 8d a2 bc 7d 1e ff 3c 54 37 d6 3b
       0.29266873 -0.019842723 0.031142468 0.0065373573
000360 20 f2 e1 3d 63 c5 18 3d 09 73 db 3d bb 79 2a 3d
       0.1103251 0.037297618 0.107153006 0.041619997
000370 13 b0 e8 bc e4 e2 34 3d 1f ab a8 3c c5 2c 34 be
       -0.028404271 0.044161692 0.02058941 -0.17595203
000380 34 4c b9 3e 45 20 99 bc 26 91 12 3c 86 5b 9f 3d
       0.3619095 -0.018692145 0.008945739 0.077811286
000390 37 46 53 3c 2a ea 98 bd d0 7b fb bc 94 d5 48 3c
       0.0128951585 -0.07466538 -0.030698687 0.012257952
0003a0 d5 53 66 3d eb 55 27 bd d7 9e a3 3c cc 60 5b bc
       0.056232292 -0.040853422 0.019973202 -0.013389777
0003b0 91 4d 6d 3d 97 2a ee 3c d9 41 a5 bd 9e 28 1e 3d
       0.0579353 0.029073043 -0.080692 0.038612954
0003c0 1e 60 57 3a 44 e2 87 3c 5f f2 01 3e 6d 4f b9 bd
       0.00082159217 0.016587384 0.12690113 -0.090483524
0003d0 da de 00 bd aa 34 60 bd b5 cd ca bc bc 4a 46 3e
       -0.031462528 -0.054737724 -0.024756292 0.19364446
0003e0 5e 94 5a bd d9 4d b5 bd a6 4c 30 3e 04 f4 79 bd
       -0.05336415 -0.08852739 0.17216739 -0.061023727
0003f0 8a d7 8f bb a9 78 9a 3d 62 fd 8e bd d2 d7 ae bd
       -0.004389708 0.07542545 -0.06981923 -0.08537258

advantage_stream.bias f4 [20]
000000 83 52 2f 3e c6 eb 38 be 68 6e d7 3d d8 77 dc 3e
       0.1712132 -0.1805869 0.10519105 0.43060184
000010 82 82 a7 3e 07 19 ef 3e f7 31 93 3e 9f 69 03 3e
       0.32716757 0.46698782 0.28749058 0.1283326
000020 73 25 ca 3e 50 80 13 3e 68 15 b5 bd 3b fa 09 be
       0.39481696 0.14404416 -0.088419735 -0.13474362
000030 1d 1d 53 3d 1b 45 58 bd 0e 06 77 3d 79 8c 81 3b
       0.051541436 -0.05280028 0.06030851 0.003953513
000040 d9 65 04 bc 0a 41 86 bc f4 b6 8b 3e 3e f5 a7 bf
       -0.008080923 -0.016388435 0.2728802 -1.3121717
