src/hockey-env/random_training_2/weights/episode_103.pth (torch, 307504 bytes, 7 tensors)

layers.0.weight f4 [256, 18]
000000 61 35 07 c0 66 52 51 3f 3a 9f af be 50 c7 56 bd
       -2.112633 0.81766355 -0.34301168 -0.052436173
000010 8d d5 bb bd bb 24 b0 3c 11 d8 5f 3f ac a7 82 bf
       -0.09171591 0.02150189 0.87439066 -1.0207419
000020 21 eb 8a 3f c0 c6 9a 39 33 3a b6 bd a1 59 a2 3d
       1.0853006 0.0002952125 -0.08897819 0.079272516
000030 b0 0c 43 3f 3f 63 2c be cc 8e 0a 3e 8f ca 6a be
       0.76191235 -0.16834734 0.13531035 -0.22928832
000040 43 ac ab c0 69 89 a8 be 89 9c fa 3c c8 d7 aa 3d
       -5.364778 -0.32917336 0.03059222 0.08341938
000050 56 c8 1c be f8 e5 64 bc 43 98 7c 3c 01 e2 0e 3c
       -0.15310797 -0.013970844 0.015417161 0.008720876
000060 e8 fb ff 3f 68 32 88 3f 62 7e 60 be 87 61 68 3d
       1.9998751 1.0640383 -0.21923211 0.056733634
000070 12 b4 a8 3e df 7f 93 bd 76 4f 4b bf a7 ce 48 bf
       0.32949883 -0.07202124 -0.7941812 -0.78440326
000080 fb 2f 5c 3e a0 92 86 be ca 55 1b 3f 1d 28 7c 3f
       0.21502678 -0.2628374 0.6067778 0.9849871
000090 67 96 fa be 1d a1 92 3c 6b 38 87 3e 71 65 d3 bd
       -0.48942873 0.01789909 0.2641023 -0.10322083
0000a0 a6 aa 2c 3d b2 64 b1 3b 97 cb fa 3f 25 c6 c1 be
       0.04215493 0.005413615 1.9593381 -0.37846485
0000b0 f3 02 41 40 2b 3d 6c bd 6e fc 1e be a1 97 8f bd
       3.015805 -0.05767552 -0.15525982 -0.07011343
0000c0 25 ba 98 be e5 ac 33 3e c8 a8 af 3e e6 73 8e 3e
       -0.29829517 0.17546423 0.34308457 0.27822798
0000d0 74 e0 16 40 4f 56 23 3f 39 58 3a 3f 06 db fe be
       2.3574495 0.6380357 0.7279087 -0.49776477
0000e0 d1 05 2e 3f 9a 8f 8c bd 40 05 8a bb 80 ec 65 3d
       0.67977625 -0.06863327 -0.0042120516 0.056133747
0000f0 f5 9a 48 be f5 fa 06 40 d5 bf 9c be 60 63 87 be
       -0.19590361 2.1090672 -0.30615106 -0.26443005
000100 b8 48 36 3e 0a c3 04 be e3 f8 1f bd 77 97 94 3f
       0.17801178 -0.12965026 -0.039055716 1.1608723
000110 e9 d9 6e 3d 85 cb 02 3f 68 39 7d bb 3b 5e aa be
       0.058313284 0.51091796 -0.0038638953 -0.33275017
000120 b5 1e 92 bc 0e aa 60 be 30 e8 b2 be b6 dc 69 bd
       -0.017836908 -0.2193987 -0.3494277 -0.057095252
000130 48 7f 72 3c d7 56 60 3c 7b b1 bd 3d d7 f7 90 c0
       0.014800854 0.013692579 0.09262367 -4.530254
000140 36 41 d1 bf 5e 20 89 be 15 7e b9 be 51 e3 1e 3c
       -1.6348026 -0.26782507 -0.36229005 0.009697751
000150 92 f5 44 3f 01 49 76 3e 3a 03 af 3d 71 94 76 3e
       0.7693721 0.24051286 0.08545537 0.24080063
000160 81 7d e7 3c 73 5a 46 be 32 85 5b 40 e1 8b 12 c0
       0.028258087 -0.19370441 3.4300046 -2.2897875
000170 0b ca d5 3d de 69 7b 3d 51 e3 b8 bc 07 1a 15 3c
       0.10438927 0.06138026 -0.02256933 0.009100444
000180 13 b9 4e 3e 02 b3 cc 3e da cf 28 3f 76 79 27 3d
       0.20187788 0.39980322 0.65942156 0.04088732
000190 86 f1 44 bd fe 3a 0a bd d8 ae 5a c0 a0 66 0d 40
       -0.048081897 -0.033747666 -3.4169216 2.2093887
0001a0 3d a0 9d 3c 89 48 40 3d 05 ba 08 bf fc 1a bf bd
       0.019241447 0.046944175 -0.53408843 -0.09331319
0001b0 4d 0a 4c bf ca 61 a5 3f 1c 73 8b 3e ce 8a cc 3d
       -0.7970322 1.2920468 0.2723626 0.099874124
0001c0 b6 88 25 3e ed 21 aa bd a4 e6 bf 3f ef 8c ba bf
       0.16165432 -0.08307252 1.4992261 -1.457426
0001d0 db 08 56 3f ec d7 7a 3d 88 f3 4e bf e2 68 31 3e
       0.8360726 0.061241075 -0.8084035 0.17325166
0001e0 e9 32 a9 bd 78 fa 0f 3e dd 76 58 be 95 54 ac 3e
       -0.082616635 0.1406039 -0.21139093 0.3365828
0001f0 2a e5 9f bf 6c b6 ca 3e 35 17 83 3f 8b 36 cd be
       -1.249181 0.39592302 1.0241457 -0.40080675
000200 ba d1 3d be e7 d6 42 be 61 41 e6 3d 52 95 49 38
       -0.18537036 -0.19027291 0.11242939 4.80612e-05
000210 dc fb d0 3e 63 25 95 bf 69 84 3f c0 a5 ae f1 3d
       0.40817153 -1.1652035 -2.9924567 0.11800889
000220 27 2e 00 3d 83 5a b6 be 70 a4 03 3f 8d c9 af bb
       0.031294014 -0.3561593 0.51422787 -0.005364603
000230 6b 8b 70 3e f4 88 3c bf 16 2a 16 3f db 2a e6 3e
       0.23490684 -0.73646474 0.5865797 0.4495457
000240 36 cc 51 3f 7a b9 38 c0 86 f7 16 3e ed 61 97 3d
       0.81952226 -2.8863206 0.1474286 0.07391725
000250 cc d5 4c be 90 81 51 3b 23 a9 52 3e 00 fe f1 3f
       -0.20003432 0.0031968094 0.20572333 1.890564
000260 9b a1 ad 3f 5a a3 10 bd 44 c2 79 bd 7c 95 70 3d
       1.3564943 -0.035312034 -0.06097628 0.05873631
000270 ce 0f 86 be 68 f8 90 3e 04 7f d8 bb 94 e8 50 bc
       -0.26183933 0.2831452 -0.0066069383 -0.012750763
000280 92 e7 a2 3c d1 ca 24 bb 51 33 0e be 3b 7f 13 3e
       0.019885812 -0.0025145302 -0.13886763 0.14404003
000290 ee 42 74 3d 68 30 99 3d 07 d2 82 bd e0 f4 29 bc
       0.05963414 0.07479936 -0.06387716 -0.010373324
0002a0 02 c2 81 bf 2a 69 76 3d 73 45 60 bd 73 83 7f bd
       -1.0137331 0.060158886 -0.054753732 -0.06238122
0002b0 b4 8f b4 3d ec 2f 11 3e 92 90 e5 3f 6c a8 97 3e
       0.08816472 0.14178437 1.7934744 0.29620683
0002c0 a4 9a 47 3e 05 e7 6c 3d 09 77 aa bf 8f 8c 31 bd
       0.19492584 0.057837505 -1.3317577 -0.043346938
0002d0 01 d7 d8 bf eb cd e5 3d a3 e1 54 3f 7f 61 c8 bd
       -1.6940614 0.11220916 0.83156794 -0.09784221
0002e0 d5 93 bb bc 7f f7 16 3d cb c4 a8 3f 7b b7 62 bf
       -0.02289764 0.036857124 1.3185056 -0.8856122
0002f0 cc bc 6d bf c4 3c 13 3e e5 bd 0b be aa 3f a1 bd
       -0.92866206 0.14378649 -0.13646658 -0.07873471
000300 62 6a 1b 3f 0b ab de 3c 84 89 17 bc 73 c3 96 3d
       0.607092 0.027181169 -0.009249095 0.07361498
000310 27 70 e4 be 45 83 f9 3e 4c 53 11 3e 73 38 15 3f
       -0.44616815 0.48732963 0.14191931 0.5828926
000320 fc bb 2b be 5c b9 ea bb c5 df 85 3c e5 60 cd 3d
       -0.16770929 -0.00716321 0.016342053 0.10028247
000330 f7 d9 87 3e 3e 8e d0 3e 0a 18 21 bf f5 b1 b2 bd
       0.2653348 0.40733522 -0.62927306 -0.08725349
000340 a6 d4 cb bd 87 e2 99 3c e4 c9 ef 3f df a5 84 3e
       -0.09952669 0.018784774 1.8733487 0.259078
000350 a1 fe 2f 40 f3 43 e1 3d b2 57 c2 3f 73 49 1f c0
       2.7499163 0.109992884 1.5183012 -2.488858
000360 ee 78 c0 3e b1 fb 82 3e 1f 74 f7 bd b0 3d a8 bd
       0.37592262 0.2558265 -0.12082695 -0.08214891
000370 9d cd 2d 3e 41 33 ed 3b 14 df 98 bd 18 f8 3b 3e
       0.16972966 0.007238776 -0.07464424 0.18356359
000380 ea 0b 2c c0 30 91 c6 be f0 4b 50 ba c4 2e cc 40
       -2.6882272 -0.38782644 -0.0007945886 6.3807087
000390 12 7e e2 3d 06 27 51 bc ec 5b 92 3c 8c 08 c0 3d
       0.11059202 -0.012765652 0.017866097 0.0937663
0003a0 23 1a 1b bf 62 db 11 3e 9e 8c b6 bd 83 a9 ee bf
       -0.60586756 0.14243844 -0.08913539 -1.8645481
0003b0 29 50 74 3f db 7d 4e 3d ed d2 03 be 1c de bd 3d
       0.95434815 0.050412994 -0.1287343 0.092708796
0003c0 c3 63 3d be df 30 55 3f bd 1f 43 bf 81 5f 4d 3d
       -0.18495087 0.83277696 -0.76220304 0.050139908
0003d0 45 e0 b4 bd 08 8a 14 be aa 4c 8c 3f 76 d9 e4 3e
       -0.088318385 -0.1450578 1.0960896 0.4469716
0003e0 46 d3 f5 3d 90 db ae ba 36 77 66 be 07 01 7f 3f
       0.12003188 -0.0013340581 -0.22506413 0.9961094
0003f0 5e d0 bf 3e be 87 cb bd 95 3a e2 3d e8 c5 da bc
       0.3746366 -0.09938 0.1104633 -0.026705697

layers.0.bias f4 [256]
000000 9e b6 36 be 41 d9 1b bf e9 3f 95 3f e3 0a 82 3f
       -0.178431 -0.6087838 1.1660129 1.0159572
000010 30 3c b8 3f 3b bd 08 c0 aa 0c b7 3f 88 b3 fe 3f
       1.4393368 -2.1365497 1.430074 1.9898539
000020 e6 da d8 bf eb df 22 c0 52 48 26 40 b3 bb 84 3e
       -1.6941803 -2.5449169 2.598164 0.25924453
000030 7a 6c f2 bd 87 d2 3c 40 d1 6a 2c bf b9 d7 09 c0
       -0.118370965 2.9503496 -0.6735049 -2.1537917
000040 68 0b 2a 40 d4 5d 94 bf 15 ff 2a 3f 5a 69 81 3f
       2.6569462 -1.1591134 0.66795474 1.0110276
000050 35 4c fd be 02 d6 6b c0 d5 a1 94 3e 46 ab 74 40
       -0.49472204 -3.684937 0.29029718 3.8229537
000060 a0 98 66 bf 8f 12 04 c0 13 be 95 be 43 ec 5e be
       -0.9007664 -2.0636327 -0.29246578 -0.21769814
000070 ef c1 86 be 2c 13 d7 be 66 3d a9 bf 53 5c ac 3f
       -0.26319835 -0.42006814 -1.3221862 1.3465675
000080 4c cd 2b c0 98 89 d8 be 9f 0b fb 3e 3c f4 3c be
       -2.6844053 -0.42292476 0.49032304 -0.18452543
000090 ff 01 07 c0 1c b9 7f c0 88 69 d0 bf de e3 df 3f
       -2.1094968 -3.9956732 -1.6282206 1.7491415
0000a0 aa 22 31 3f 79 74 28 40 3e 07 8c 3f 59 04 f0 bf
       0.6919352 2.632109 1.093971 -1.8751327
0000b0 c2 6c 44 bd 06 0b 3a bf be 27 75 bf 72 8b 4b 40
       -0.047955282 -0.7267307 -0.95763767 3.180386
0000c0 94 9d 1a 40 0e 46 a9 bf 4e 6b b5 3f ce 7a a0 bf
       2.4158678 -1.3224504 1.4173372 -1.2537477
0000d0 4f af dd 3e 67 6a 65 3f c8 82 f8 bf bd 2f eb be
       0.43297812 0.8961548 -1.9414911 -0.4593486
0000e0 15 0a a6 3f 81 a7 6a 3f 72 9c ee 3f 15 14 eb 3e
       1.2971827 0.9166184 1.8641493 0.4591376
0000f0 7e 0f 9b 3f f1 a4 83 40 54 b3 3c 3f 10 c3 e3 3f
       1.2114103 4.1138844 0.73711133 1.7793903
000100 f9 88 8d 3e 70 4d bf 3e 65 ba 52 3f 65 52 56 3f
       0.27643564 0.37363768 0.82315665 0.83719474
000110 86 6d 8f 3e c6 0b 7a bf fc f3 0d 40 93 aa e3 be
       0.28013247 -0.97674215 2.2180166 -0.44466075
000120 4a 47 c4 be b7 ba d2 bf a0 ce 49 be 65 4b c9 3e
       -0.3833564 -1.6463231 -0.19707727 0.39315334
000130 1e 2f c1 bf d5 b2 b0 3f ff b8 aa bc 64 73 ad 3f
       -1.5092504 1.3804575 -0.020840166 1.355084
000140 3c b9 a2 3f df be 52 c0 53 cc f2 be be b7 b9 3d
       1.2712779 -3.2928998 -0.47421512 0.09068249
000150 ab 75 05 3d 0a bc 4f 40 d5 c5 f4 3e 62 de 32 bf
       0.03258292 3.245852 0.47807184 -0.6987058
000160 09 2d ed 3f c2 98 81 bf 7f 62 02 40 06 8b 8f 3f
       1.8529369 -1.0124743 2.0372617 1.1214302
000170 94 d8 57 3f cb 84 96 3f 93 e9 bf 3f 94 c3 28 bf
       0.84314847 1.1759275 1.4993156 -0.6592343
000180 b4 6f ad 3e f1 8e 8e bf d8 7e 91 bd 70 0c 87 be
       0.33874285 -1.1137372 -0.07104272 -0.26376677
000190 48 0a 63 40 3d 2f dc 3f 79 3d 8c be 60 d2 bb 3e
       3.5475025 1.7201916 -0.2739065 0.3668394
0001a0 55 84 8e bd 4c 7c b6 bf 66 42 b5 3f 29 9f 37 3f
       -0.06958834 -1.4256682 1.4160888 0.71727234
0001b0 ae 11 87 be 8e 44 38 3f 53 58 84 c0 3a cb 9c bf
       -0.26380676 0.71979606 -4.135782 -1.224952
0001c0 c5 32 10 40 c5 67 5b 3f 48 58 33 40 1a 0e bc 3f
       2.2530987 0.85705215 2.8022633 1.4691803
0001d0 30 99 36 c0 71 74 da 3d fd a0 d4 3f 3d d7 0f bf
       -2.8530998 0.10666741 1.661163 -0.561878
0001e0 22 01 e7 be 81 3c b8 bf d3 43 e1 bf 52 ea c9 3e
       -0.45118052 -1.4393464 -1.7598823 0.39436585
0001f0 c3 36 59 3d 68 f1 94 3f fa 98 09 be 45 5a 8b 3e
       0.05303074 1.1636171 -0.13437262 0.27217308
000200 1f 6a 47 c0 b1 ea 1d bf ec 47 0d c0 71 37 59 3f
       -3.115852 -0.61686236 -2.2075148 0.8485022
000210 de 9e 02 c0 b9 b6 24 c0 7e d0 b4 be c2 cf ce 3f
       -2.0409465 -2.5736525 -0.35315317 1.6157153
000220 98 c7 ae 3f 15 76 7e 3e 06 4b 72 3f 18 02 8b 3f
       1.3654661 0.24849732 0.94645727 1.0860014
000230 d4 5d 1b 40 3a ea 0c 40 94 de 24 c0 a7 88 ef 3f
       2.4276018 2.201796 -2.576085 1.8713578
000240 8b 5e d3 bf 76 e7 56 bf 33 24 56 bf b7 55 24 3f
       -1.6513227 -0.8394693 -0.83648986 0.6419329
000250 d5 df 9e bf 26 b8 d5 3f 6c b0 3a 40 45 e7 9f be
       -1.2412058 1.6696823 2.917018 -0.31231132
000260 13 b4 d6 3f 55 ca e9 bf 58 7c d7 3e e0 e6 10 3f
       1.6773704 -1.8264872 0.42087054 0.5660229
000270 63 40 17 be 49 6e c9 3f 1e a3 12 bf 1d 42 37 c0
       -0.14770655 1.5736781 -0.5728015 -2.8634102
000280 d0 6e 82 3e ca a1 56 40 10 8c e8 bf a7 49 48 c0
       0.25475168 3.3536248 -1.8167744 -3.1294954
000290 b5 b3 c2 3f 0a 87 ea bf 3d 64 ff 3f c3 96 bc bf
       1.5211092 -1.8322461 1.9952465 -1.4733509
0002a0 72 dd 70 3e 64 05 76 be f9 24 a6 bf bd 09 98 be
       0.23521975 -0.24025494 -1.2980033 -0.2969493
0002b0 1e e1 e4 3f de d2 74 3f 9e 53 64 3f 46 af c8 bf
       1.78812 0.9563426 0.8919009 -1.5678489
0002c0 33 bc 00 bf 08 ce ff bf 82 6e 3f c0 c9 ee 27 40
       -0.5028717 -1.9984751 -2.9911199 2.6239493
0002d0 7b 66 e6 3e 88 bd 9a bf ff f7 e0 3f 72 88 34 be
       0.4500006 -1.208909 1.7575682 -0.17630175
0002e0 a9 68 9d be 70 09 23 bf 24 09 fd bf 26 c9 3d 3e
       -0.30743912 -0.63686275 -1.9768414 0.18533763
0002f0 05 8c 5e bf 7a e7 01 bf 19 5a 14 c0 63 6c 52 3f
       -0.869324 -0.5074383 -2.3179991 0.82196635
000300 a6 c2 7c bf 11 af 84 3d 05 2a 8c 3e cc 2e 14 40
       -0.9873451 0.06478704 0.27375808 2.3153563
000310 ae 56 b5 bf 65 0f e6 3f fc 62 78 bd af 16 54 40
       -1.4167078 1.7973448 -0.060641274 3.3138845
000320 00 fa 08 40 70 a5 23 40 5c ea 1c c0 86 3d c2 bc
       2.1402588 2.5569725 -2.4518042 -0.023710977
000330 e3 e4 8c 3f 9e 8b 63 bf 38 ba 12 40 27 df 33 40
       1.1007351 -0.88884914 2.292616 2.8104951
000340 c9 2f 55 3f 0a 02 e0 3f 96 cd db 3f 4b 42 1c c0
       0.8327604 1.7500622 1.7172115 -2.4415462
000350 c7 2b 51 bf 47 39 ce 3e 30 76 48 40 8a 60 79 c0
       -0.81707424 0.40278074 3.1322136 -3.8965173
000360 63 56 46 3f fa 97 bb bf d8 2b ad bd 46 f5 11 bf
       0.77475566 -1.4655755 -0.08455628 -0.5701488
000370 f8 18 ec 3f f3 b8 8b 3f 0c c6 ba 3d f1 b1 52 bf
       1.844512 1.0915817 0.09119806 -0.8230277
000380 2b 92 a0 bf e1 86 45 40 17 e7 67 bf c5 92 74 be
       -1.2544607 3.0863574 -0.9058699 -0.23884113
000390 63 5d 95 3e f1 7f 4f 40 a0 e3 01 c0 13 9f e2 3e
       0.2917281 3.242184 -2.0295181 0.4426199
0003a0 74 c4 9a bf 62 54 a6 3f ce 73 36 40 87 16 f9 3e
       -1.2091203 1.2994502 2.8508182 0.4865
0003b0 14 47 d6 bf 1c 30 86 3f dc a2 04 3f 32 70 4c 40
       -1.6740441 1.0483432 0.51811004 3.1943479
0003c0 d8 09 62 bf bb 57 1b 3e 66 fa 5f 3f ed 07 11 40
       -0.8829627 0.15170185 0.8749145 2.2661088
0003d0 45 d8 ef bf ee 7d 8b bf f7 d9 9b bf b0 ed 06 40
       -1.8737875 -1.0897806 -1.2175893 2.1082573
0003e0 27 56 82 bf 43 06 9d bf 3d 6b 24 bf e3 08 0e 40
       -1.0182542 -1.2267536 -0.6422613 2.2192924
0003f0 39 1a 25 40 5f db 3d 40 7a 30 aa 3f f4 d1 07 bf
       2.5797255 2.9665143 1.3296044 -0.5305474

layers.1.weight f4 [256, 256]
000000 a7 3f 1a bf b3 43 0a be e7 28 7e bf f1 cc 49 3e
       -0.60253376 -0.13502388 -0.9928116 0.19707085
000010 40 f9 83 3e f5 83 54 bf 91 56 a2 3e fd b7 8f 3d
       0.257761 -0.8301385 0.3170667 0.07017515
000020 ee 0e 77 bf d9 64 07 3f e1 88 ac bf ef 0a 45 3e
       -0.96507156 0.52888256 -1.3479272 0.19242452
000030 9c 3f ce 3c 91 6e ca 3e 22 ea a2 3e de 28 57 3f
       0.025176816 0.3953748 0.31819254 0.84046733
000040 45 ba 6b 3e ee 61 2a be aa 2d 8e be 1f 16 b9 be
       0.23020275 -0.1663892 -0.27769214 -0.3614969
000050 f9 97 e6 3e cc a3 8e 3f 37 63 95 bc df 5f b2 be
       0.4503782 1.1143737 -0.018235786 -0.3483877
000060 50 96 35 3e d4 d2 19 3e 6a fb 18 bf 89 43 bd be
       0.17733121 0.15021831 -0.5975863 -0.36965588
000070 eb 95 89 3f 9d ff 1d 3e 76 31 84 bf 08 ad 15 be
       1.0748876 0.1542954 -1.0327594 -0.14616787
000080 ea 15 59 bf 67 18 42 be 4f f8 84 3e 8e 74 c4 be
       -0.84799063 -0.18954621 0.25970694 -0.38370174
000090 86 f7 21 bd 4f ac d3 bd d8 5f a9 be 5a ec 75 bf
       -0.039542697 -0.103356 -0.33080935 -0.9606377
0000a0 19 72 01 bd de 76 9e bf 42 9e a4 3e f0 72 0e 3e
       -0.031602953 -1.2380025 0.3215199 0.13911033
0000b0 71 93 17 3f 1a 5f 1f 3f e7 05 76 bf 46 05 8d bb
       0.5920935 0.6225449 -0.96102756 -0.004303607
0000c0 a5 f0 a7 be 22 5d d5 bd d3 1d dd bd 7f cb 17 bd
       -0.32800785 -0.10418154 -0.10796704 -0.037059303
0000d0 15 a4 b1 be e2 84 15 3f b2 52 81 3e b4 aa aa 3e
       -0.34695497 0.5840589 0.25258404 0.3333336
0000e0 a9 a0 d1 3e b4 d3 07 bf 2a d0 08 be 09 68 1b 3f
       0.40942886 -0.5305741 -0.13360658 0.6070562
0000f0 b7 27 06 3f 12 cd 86 bf 4a e1 22 bf 72 4c 78 3f
       0.5240435 -1.0531332 -0.63625014 0.96991646
000100 df 4e 62 bf 05 c2 3a 3d da 6d e6 3e 70 15 8b 3d
       -0.884016 0.045595188 0.45005685 0.06791198
000110 87 97 05 be f5 45 56 3f c0 b5 45 bd 20 f9 ef be
       -0.13046084 0.83700496 -0.048269033 -0.46869755
000120 dc 8d a2 be 78 1e 9b 3e 12 3c 86 bf 40 29 84 bf
       -0.31748855 0.30296683 -1.0487082 -1.0325089
000130 fb 48 c8 3e 1c b0 8e 3f 5a 65 67 3f 73 51 06 bf
       0.3911818 1.1147494 0.90389025 -0.5246803
000140 bc e5 17 3e 7a 9d 15 3f 2e b4 5d be 9c 58 59 be
       0.1483373 0.58443415 -0.21650764 -0.21225208
000150 fb 27 b4 bc 05 28 2a be f0 5d 29 3d 85 b9 51 3f
       -0.02199172 -0.16616829 0.04134935 0.81923705
000160 81 6c 4b bf 4b 2e c5 3e 6e dc 2b 3f ab a8 49 3e
       -0.7946244 0.3851188 0.67133224 0.19693248
000170 9d 22 5a 3f f1 e3 06 3f 04 c6 86 bf 22 c5 6d bf
       0.85209066 0.5269156 -1.052918 -0.92878926
000180 7c 1f 39 3e c2 c6 b6 bf 2b 11 67 3e 85 78 14 3e
       0.18078417 -1.4279406 0.22565143 0.144991
000190 a1 47 db 3e 14 ba 05 3e a4 74 66 3e 3a 67 33 3f
       0.42828086 0.13059264 0.22505432 0.70079386
0001a0 34 8b 9b 3e 0c 28 31 bf a5 ae 0f 3f d8 69 8b 3e
       0.3037964 -0.6920173 0.5612586 0.2722919
0001b0 cb 2c 0e 3e 5a 72 9b be b1 16 ca 3e 96 95 76 bf
       0.13884275 -0.3036068 0.39470437 -0.96322
0001c0 6f 42 c1 3e 95 5b 4a bf 3b 76 0b bf 71 7a 46 bd
       0.37745997 -0.79045993 -0.5447728 -0.048456613
0001d0 4c 06 10 3f 80 da 29 be fa 4a f1 bb 43 74 64 3f
       0.5625961 -0.16587257 -0.007363674 0.892399
0001e0 12 ed ab 3e a9 51 78 be 92 2e 91 3e 2d ec 5d bd
       0.33579308 -0.24249901 0.28355843 -0.054180313
0001f0 e2 2f 0f be 86 65 94 be 71 44 0c be a0 ad 06 3f
       -0.1398311 -0.28983706 -0.13697983 0.5260868
000200 6a a6 77 be 8a 7f a8 be b8 56 f6 3e ba 9d 44 be
       -0.24184576 -0.32909805 0.48113036 -0.19200793
000210 c4 80 58 bd 10 94 a8 3e 19 3f 99 3d 01 8c a1 3f
       -0.052857175 0.32925463 0.07482738 1.2620851
000220 68 32 33 3f 63 d1 0d bf 87 5d 43 bf 22 a9 19 3f
       0.6999879 -0.55397624 -0.76314586 0.600237
000230 27 cb f3 3e 7f 48 18 3c 49 60 03 3f 33 15 be be
       0.4761593 0.009294628 0.51318794 -0.3712555
000240 7f 45 9e 3e 28 19 2b 3f 21 3a 77 bf 76 17 77 3f
       0.30912396 0.6683526 -0.9657307 0.96520174
000250 41 17 54 3f f5 98 a3 3d 12 3d 66 3f fa 39 ad 3e
       0.8284798 0.079881586 0.89936936 0.33833295
000260 90 37 93 be 21 9d 27 3e 0c ea bd 3e 45 15 9a bc
       -0.28753328 0.16368534 0.37092626 -0.01880897
000270 94 5c 4a bc 13 83 af 3e d0 80 31 bf b2 19 e2 bc
       -0.012351174 0.3427969 -0.6933718 -0.027600143
000280 d2 2f 80 3f 63 6c cc 3e 6a 34 83 3e f0 d0 a7 3e
       1.0014594 0.39926443 0.25625926 0.32776594
000290 1e 95 04 3f 7b 77 09 3d 2f 38 0e bf b9 de ba be
       0.51790035 0.03356121 -0.5555448 -0.3649805
0002a0 a0 40 09 3d 16 07 13 3f e9 1b e1 3e 1d b7 c5 be
       0.033508897 0.5743269 0.43966606 -0.38616267
0002b0 da 86 54 bf 2b cb 61 3f 30 ac 07 bd 98 56 c2 3e
       -0.8301827 0.88200635 -0.033123195 0.3795669
0002c0 18 5c b3 3e 29 4b 67 3f 12 40 f4 be c1 2c 1e bf
       0.350312 0.9034906 -0.47705132 -0.6178704
0002d0 db df d0 be 5c bb 0d 3f 4b e4 34 bf d5 55 16 3f
       -0.40795788 0.5536401 -0.7066085 0.5872472
0002e0 4d 32 8b 3f 51 03 e0 3d 76 36 9f be 85 07 0e be
       1.0874726 0.109381326 -0.31096238 -0.13870056
0002f0 75 d7 3e bf e9 2c 50 bf f6 a9 c6 bd 0b d3 72 bf
       -0.7454751 -0.8131853 -0.09700386 -0.94853276
000300 a8 02 6b 3f 2c 23 01 bf e0 c9 5d 3e 36 65 21 bf
       0.9180093 -0.50444293 0.2165904 -0.6304506
000310 b9 dc e6 3d 82 e5 1f bf a4 9c d5 be 57 44 2f bf
       0.11272568 -0.62459576 -0.4172107 -0.68463653
000320 bc ef 79 3e 5e b2 16 3f 91 55 ee bd 4b c4 75 bd
       0.24407858 0.58865917 -0.11637414 -0.060001653
000330 8f e3 0a 3f 39 ab 61 3f 7b 3e a5 bd 94 e5 6e 3f
       0.54253477 0.8815189 -0.08068558 0.9331906
000340 f9 29 86 be cf 5a b7 3c 17 cf d8 3e a4 1a 9a 3f
       -0.26203898 0.022382168 0.42345497 1.203938
000350 bc 5f 04 bf d2 99 ad bf 5c fa eb bd 04 8c 55 3e
       -0.5170858 -1.3562567 -0.11522362 0.20854193
000360 27 a0 21 bf 13 fd 78 bd 4a 9c 0e be 91 bd 1b 3f
       -0.63135 -0.060788225 -0.13926807 0.6083613
000370 67 86 eb be ee fd 1a 3e 34 d6 cf bd f4 ba b6 3e
       -0.46000978 0.15135929 -0.10148278 0.3568951
000380 5f df fe 3e e6 16 0c be ec cc 07 3f e2 6f ab 3e
       0.49779794 -0.1368061 0.5304706 0.33483797
000390 b6 2b 99 bd f6 e5 81 be 2c c2 fd 3d 65 1a 01 bf
       -0.0747904 -0.2537076 0.12390551 -0.504309
0003a0 88 df b5 bd 93 e1 6a 3f 96 18 e0 be 05 00 44 bf
       -0.08880526 0.9175045 -0.43768758 -0.7656253
0003b0 ee 8f 11 bd ba d6 41 bd 71 45 ad be b6 50 64 be
       -0.035537653 -0.04732392 -0.33842042 -0.22296414
0003c0 fb 5b 4d bf c6 ad ba 3d 83 3c 6a 3f e9 5b 6b be
       -0.80218476 0.09115176 0.91498584 -0.2298428
0003d0 94 72 34 bf 6a 53 ea bd 2a c0 04 3f d0 5b 5c 3e
       -0.7048733 -0.11441691 0.5185572 0.21519399
0003e0 a6 77 64 3e 51 cb 93 be 3f d9 9e 3f 5d 2d ba 3f
       0.22311267 -0.28866056 1.2410048 1.4545094
0003f0 1e 9e 25 be ec 96 64 bd 09 1d c6 be ac 63 d4 3d
       -0.16173598 -0.055807993 -0.38694027 0.103705734

layers.1.bias f4 [256]
000000 16 93 50 bf f2 e0 72 bf a7 30 e2 be 7d b3 12 3f
       -0.81474435 -0.9487449 -0.44177744 0.5730513
000010 8f fc 8f 3f 4f 69 b3 be 6e 0a 2e 3e f2 2d 09 c0
       1.124895 -0.35041282 0.16996166 -2.1434293
000020 e4 26 da 3f e2 56 63 3f 23 e5 76 bf 5a c0 5b 3f
       1.7043118 0.8880445 -0.96443385 0.8584038
000030 19 d3 b4 3e 2d 85 e5 3c 09 c4 47 be 0d 55 c5 3e
       0.35317305 0.028017605 -0.19508375 0.3854145
000040 2f 24 6a bf 3c c2 e6 bc 56 af 21 3f 68 3d 94 bf
       -0.9146146 -0.02816879 0.63158166 -1.158124
000050 d5 b1 80 bf d5 de ce bf 60 95 10 3f ea f5 67 bf
       -1.005427 -1.6161753 0.5647793 -0.9060961
000060 24 87 39 bf 49 57 09 3e 29 6e dc 3f aa 0d 04 3f
       -0.72471833 0.13412203 1.7221118 0.5158335
000070 8d a0 13 3f c1 fb 80 3f e7 93 98 3e 5c 6a a7 3e
       0.57666856 1.0076829 0.2980034 0.32698333
000080 e2 55 8e be 67 1a 57 3e ed b8 cb bd 1c b0 08 3e
       -0.27799898 0.21006165 -0.09947381 0.1334843
000090 91 0b 8c 3f 3d ae a1 3f 28 9b e1 3e 64 79 85 bf
       1.094103 1.2631298 0.44063687 -1.042767
0000a0 f7 01 a3 3c 30 05 77 be 56 5d 61 3e fc 07 ff be
       0.019898398 -0.24123073 0.22008261 -0.4981078
0000b0 e7 03 92 3f 62 ea 47 3f 10 f8 0a 3f ef 86 f5 be
       1.1407441 0.78092015 0.54284763 -0.4795451
0000c0 6f 5c 02 bf 8f 4a b9 3e 3e c8 dc 3d 2d 34 85 ba
       -0.5092229 0.36189696 0.10780381 -0.0010162644
0000d0 37 9c a1 3e a1 7f ac 3e 39 43 1d bf 09 6f 3d bf
       0.31564495 0.33691123 -0.614307 -0.7399755
0000e0 3f 09 ec 3d 74 39 5e bf bd a8 4b bf 95 ad 3b 3f
       0.11525201 -0.86806417 -0.7955435 0.7331174
0000f0 d7 06 2d bf 6b 07 d5 3e 7a b9 d8 be 81 f1 99 3f
       -0.6758856 0.41607222 -0.42329007 1.2026826
000100 1a b4 50 3f ea b2 a3 3e 04 31 94 be 11 65 e6 bd
       0.81524813 0.31972438 -0.28943646 -0.11249746
000110 85 49 bb 3e 0d e0 0b bf 7e 8e 97 3e 4b 54 7f 3f
       0.36579528 -0.5463875 0.296009 0.99737996
000120 e0 47 83 be 07 80 c1 bc bc 35 11 bf 9e ce e3 be
       -0.25640774 -0.023620619 -0.5672262 -0.44493574
000130 01 dd eb 3d 42 ad 12 be 90 19 38 3f 47 bb 6c 3c
       0.115167625 -0.14323905 0.71914005 0.014448947
000140 ab b8 21 3c 19 9b 84 bf 26 6c fb 3f 6c 1a 17 bf
       0.009870688 -1.0359832 1.9642379 -0.5902469
000150 0a a4 be be 9f 8f b2 3e 4b 1d 86 bd e6 83 ab be
       -0.37234527 0.348752 -0.06548556 -0.33499068
000160 f0 8a fb 3d 15 23 2c bf 12 89 dd be d2 2e 68 bf
       0.122823596 -0.6724103 -0.4326864 -0.9069644
000170 54 fb 45 3d 07 86 03 3d 33 3d f1 3e e2 97 3c 3f
       0.04833539 0.03211024 0.47117004 0.73669255
000180 7a 6b 63 3f cb a0 8a 3d aa 1b 20 3e da 4d 68 be
       0.8883587 0.0676895 0.15635553 -0.22685948
000190 1b 4c 42 3f 6e 58 44 be 2d fa b0 bf ab fd c5 ba
       0.7589738 -0.19174358 -1.3826348 -0.0015105506
0001a0 4b a8 93 3e 79 9b 75 3e 7c 28 6c 3d db 58 0f bf
       0.28839335 0.2398509 0.057655796 -0.5599496
0001b0 93 89 4d 3f 4a aa ce be 09 d2 29 3f a3 f5 d2 3e
       0.80288047 -0.40364295 0.66336113 0.4120303
0001c0 05 44 22 bf 91 1b 97 3e 99 21 66 3e 86 f5 06 bf
       -0.6338504 0.2951322 0.22473754 -0.5271839
0001d0 6b d4 1d 3e 82 ba 92 3e a5 62 23 3f 6e 39 23 3e
       0.15413062 0.2865792 0.63822395 0.15939876
0001e0 a1 ba d5 be 9a ee 6c 3e 48 e2 4a 3f 0b 78 8c 3d
       -0.4174395 0.23137894 0.7925153 0.06858834
0001f0 d4 0e f9 3e bf 46 e4 bd 45 cf a1 3f 5f 05 c9 be
       0.48644125 -0.11146306 1.2641379 -0.3926191
000200 b1 fc 5d 3f e2 7b a4 3f da 6a 48 be ef cd 99 3e
       0.867137 1.2850306 -0.1957201 0.30039927
000210 a4 c4 3a bf 72 4f 33 bf b5 72 45 bf 42 e4 6a be
       -0.729563 -0.700431 -0.77128154 -0.22938636
000220 fc 4c 11 3e c2 19 23 3e 41 4d 3f 3f b5 5f 3f 3f
       0.14189523 0.15927795 0.74727255 0.7475541
000230 ad 74 67 3e ff 49 36 bf af 7d 07 be 3e fa 3d bf
       0.22603102 -0.7120666 -0.13231538 -0.74209964
000240 5a ce 90 3e eb 27 c0 3e 26 3e 58 be c2 b1 0f 3f
       0.28282434 0.37530455 -0.21117458 0.5613061
000250 ba ab 88 be 7a 1f 88 be c0 5e fb be 38 36 d6 3d
       -0.26693517 -0.26586515 -0.49095726 0.1045956
000260 3b 0e b7 3f 5a 9b 08 bf d8 21 3a bf fb d1 32 3d
       1.4301218 -0.5336205 -0.7270789 0.043657284
000270 e4 08 e7 3d ba 43 a7 bd 33 da 43 bf 45 54 e2 be
       0.112809926 -0.08167215 -0.7650482 -0.44204918
000280 2a a6 27 bf db 5d a7 be ee c1 23 bf 86 13 11 bf
       -0.6548792 -0.32688794 -0.6396779 -0.56670415
000290 10 a7 3d 3f 8f 1c dc be 23 cb 39 bf e3 d5 2b 3f
       0.7408304 -0.42990538 -0.7257559 0.6712324
0002a0 55 dc 0c 3f 27 33 ad be 1c ef 29 3f 9c 23 18 3f
       0.550237 -0.3382809 0.66380477 0.59429336
0002b0 11 2d 1c 3f 81 fd 01 bf b4 3b 3b 3e 91 8e bd 3c
       0.61006266 -0.5077744 0.18284494 0.02313927
0002c0 4d 09 b0 3e 2e 93 0a 3f 79 a4 33 be 1b 8c 12 3e
       0.34382096 0.5413083 -0.1754321 0.14311258
0002d0 2b ff c7 3c 05 36 45 be 39 94 17 3f 83 7b 9d 3f
       0.024413666 -0.19258888 0.59210545 1.2303318
0002e0 c0 37 85 be ac 9d 39 3f 7b 9e 0e bd 65 96 48 bf
       -0.26019096 0.72506213 -0.034819108 -0.78354484
0002f0 72 c0 cb be 32 26 9f 3f 0c 97 cc be fc 5d 3a be
       -0.39795262 1.2433531 -0.3995899 -0.18199915
000300 5a fe 1e bf ec cf 31 3e c2 2b 5e be 31 28 2f bf
       -0.6210686 0.17364472 -0.2169638 -0.684207
000310 55 69 03 3f d6 6c f4 3e 84 b5 0b bf c4 ba 19 bf
       0.513326 0.47739285 -0.54573846 -0.60050607
000320 c5 af dc 3d 70 cf d2 3e ea e5 70 3e 85 62 02 bf
       0.10775713 0.41173887 0.23525205 -0.5093158
000330 7c 2d 02 3f 25 07 39 3e 7f 59 24 bf 77 c7 4e be
       0.50850654 0.18069132 -0.6419906 -0.20193277
000340 f8 77 4b bf 30 36 d3 bc d6 0d 84 be 74 3c af 3e
       -0.7947993 -0.025782675 -0.25791806 0.3422581
000350 bd db 2d be f1 66 4b 3b 9b 96 91 3d 17 2f 23 bf
       -0.16978355 0.00310367 0.07108804 -0.6374373
000360 6c 07 8d bf dc 04 aa 3d 42 8e 3b bf 02 5c 4a 3f
       -1.101789 0.08301708 -0.73263943 0.7904664
000370 c4 ec 6c 3e 93 84 c6 bd 11 5c d6 3e 9e 3d ec 3e
       0.23137194 -0.09693255 0.41867116 0.4614076
000380 a3 28 58 bf d1 11 19 bf f0 6a 42 bf 38 a1 cd be
       -0.84437007 -0.5979281 -0.75944424 -0.40162063
000390 3e 04 94 3d c9 3c 21 3f 68 b0 0f 3f d7 53 ad bc
       0.07227372 0.62983376 0.5612855 -0.021158142
0003a0 d2 34 84 3e 28 1e 85 bf 34 a9 44 3f 00 58 69 3d
       0.2582155 -1.0399828 0.76820683 0.05696869
0003b0 b4 34 2a bf 46 70 03 3e 5b 27 40 be a5 f5 61 bf
       -0.6648667 0.12835798 -0.18765013 -0.8826545
0003c0 97 16 54 bf eb 1c 14 bf ce 81 02 bf c3 fc c9 3f
       -0.8284697 -0.57856625 -0.50979316 1.5780262
0003d0 86 5a 00 bf 6c 64 6d 3d ec da 1a bf bf 01 93 3e
       -0.5013813 0.057957098 -0.604903 0.2871227
0003e0 b2 f9 5a 3e dd 97 56 3e 63 a5 13 bf 60 2f 84 3e
       0.21384314 0.20956369 -0.57674235 0.25817394
0003f0 c3 e4 8f be b3 6c 5f bf c7 29 17 bf c2 2f 79 be
       -0.2810422 -0.87275237 -0.5904812 -0.24334624

value_stream.weight f4 [1, 256]
000000 28 34 37 3e 8e c3 0c be 35 db 28 be 04 2a 6d be
       0.1789099 -0.13746473 -0.16489871 -0.23160559
000010 40 47 22 be 71 3d 8a be 28 49 77 3e a7 be 91 3e
       -0.15847492 -0.27 0.24149 0.2846577
000020 8a 26 6a bf 19 5a 2d be 32 92 3d 3f 52 eb 0d 3f
       -0.91465056 -0.16928901 0.740512 0.55437195
000030 fe d6 10 3e 92 1f 8a 3e 0b c1 08 3e 91 5b 35 be
       0.14144513 0.2697721 0.1335489 -0.17710711
000040 0c 4a b8 3e 4d 7b e3 bd 32 1f 4f 3e d7 9d 1b 3f
       0.35993993 -0.11107502 0.20226744 0.6078772
000050 c0 b9 21 3e 63 9d d7 be 10 c3 b8 be fb b3 a4 3e
       0.15793514 -0.42112264 -0.3608632 0.32168564
000060 24 d1 64 3e 19 8b 0f be 67 7a 8c be 3a cc 61 3d
       0.22345406 -0.14017905 -0.27437136 0.055126406
000070 3e e3 6a 3e b3 b5 03 3f 34 a0 28 be 26 b4 76 3f
       0.22938249 0.51449126 -0.16467363 0.96368635
000080 93 60 b7 be 6e 3e ae 3d 4b e8 06 be 02 a6 46 be
       -0.35815868 0.08508001 -0.1317455 -0.19399264
000090 6b f0 76 be 7d 6b de 3e 14 d2 9c be 64 8b 67 3e
       -0.2411515 0.43441382 -0.30629027 0.22611767
0000a0 d5 8f 31 be 99 9f 8f 3e af 2b 86 be d8 ea f3 bd
       -0.17340024 0.2805145 -0.26205203 -0.11910027
0000b0 cf b7 92 be b8 81 e8 3d 3e 6b 12 3f 5e 8f 0b 3e
       -0.2865586 0.11352867 0.5719489 0.13628909
0000c0 6f 3b 23 be ac 3a bb be 60 9b 0f bf 84 87 2c 3e
       -0.15940641 -0.365682 -0.5609646 0.1684857
0000d0 01 3a 8a 3c ac dd 55 3e b5 10 0f 3e 93 82 f1 3e
       0.016873362 0.20885342 0.13971217 0.47169933
0000e0 4c 36 83 bd 29 e3 81 3e a9 8a 15 3d 39 9d ec bd
       -0.06406841 0.25368622 0.03650919 -0.11553425
0000f0 ec 4b 05 bf 88 92 84 3e af 0f 41 3e f5 5e 25 3f
       -0.5206897 0.25893044 0.18853639 0.6459802
000100 d2 08 5c be 8d dc 92 3e 4a ef 64 3e 05 02 f5 bd
       -0.2148774 0.28683892 0.22356907 -0.11963276
000110 98 3a 30 3e d0 8b 3c be 3b 42 11 3e 49 cc 8b 3e
       0.17209852 -0.18412709 0.14185421 0.27304295
000120 91 ed 30 3e 63 b5 9e 3e 3d 90 87 3e 20 20 91 3e
       0.17278124 0.30997762 0.26477233 0.28344822
000130 99 57 05 3e b8 81 8a be 8a 9a 10 be d0 84 3f 3e
       0.13021697 -0.27052093 -0.14121452 0.18703008
000140 b4 93 63 3e 80 32 03 3f 72 c6 fc 3e ee bc 18 3f
       0.22224313 0.5124893 0.49370152 0.59663284
000150 12 84 0d be 91 a4 a6 3e d8 0e 1c 3e 81 b7 d1 3e
       -0.13819912 0.3254743 0.15240037 0.40960315
000160 63 e7 ca 3e 7a 7c 4f be f0 b2 4c 3e d4 0c 98 3e
       0.3962966 -0.20262328 0.19990134 0.29697287
000170 09 6d fd 3d bd 03 50 3e ab 8a ea 3d 6b ed 16 3f
       0.123743124 0.20313926 0.1145223 0.5895602
000180 b2 62 60 3e b9 94 4a 3e 82 b0 77 3e 7f f7 03 3e
       0.2191265 0.19783296 0.24188426 0.12887381
000190 2a b3 25 3e 3c c5 35 3f 63 56 8e 3e f6 e0 80 be
       0.16181627 0.7100408 0.27800283 -0.25171632
0001a0 54 38 40 3e 0f f4 76 be 9d a0 7b be db b9 74 be
       0.18771487 -0.24116538 -0.24572988 -0.23899023
0001b0 0b 57 cc be b6 89 4e be ee 22 c0 bd 06 ef 1b be
       -0.3991016 -0.2016972 -0.09381662 -0.15227899
0001c0 87 ce 9d be 98 32 c8 bd 3a 3a 28 bf 8e 39 6f be
       -0.3082163 -0.09775275 -0.65713847 -0.23361799
0001d0 27 1f 35 be 03 72 12 be c6 3c 78 be 75 a7 3b be
       -0.17687665 -0.14301305 -0.24241933 -0.18325599
0001e0 68 e3 2f be 58 e1 99 3e 53 d5 5b 3e 67 c6 25 3e
       -0.17176592 0.30054736 0.21468095 0.16188966
0001f0 d4 7d 9d 3d 7a 7c 60 3e 84 bb b8 3f ee 90 53 3e
       0.076900154 0.21922484 1.4432225 0.20660755
000200 23 81 63 be ca 53 e6 bd 6c e5 e6 bd 8b f3 83 3e
       -0.2221723 -0.1124645 -0.112742275 0.25771746
000210 47 22 9e be 45 df fe 3d 49 b7 ae 3e 11 9d 16 be
       -0.30885527 0.12444929 0.3412421 -0.14708354
000220 b6 bb ba be aa 85 90 3d 1b b3 0e 3e 29 71 58 3e
       -0.36471337 0.070567444 0.13935511 0.21136917
000230 67 98 88 be 69 06 88 3e d8 9c 3c be 2d d0 01 3e
       -0.26678774 0.2656739 -0.18419206 0.12677069
000240 23 a1 74 3e 6e 05 72 3c d9 65 54 be 3d 28 a6 3e
       0.23889594 0.014771802 -0.20741977 0.32452574
000250 62 63 b5 3e 97 12 28 3e 02 5c 50 be 15 e6 54 be
       0.35427386 0.16413341 -0.20347598 -0.20790894
000260 cd 9e 8c be d2 91 2e 3e b7 29 4e 3e c4 63 bb bd
       -0.27464905 0.17047814 0.201331 -0.09149888
000270 e4 18 2c 3e 38 69 85 3e ad d9 d9 3e 6c 0b 1f 3e
       0.1680637 0.26056838 0.42548886 0.15531701
000280 4e 4a 69 3e cf f2 79 be 40 b8 33 3f d6 fa ba bd
       0.22782251 -0.2440903 0.7020302 -0.091298744
000290 05 60 b1 be 63 f3 61 be 3e 30 08 3e dc 87 da 3e
       -0.3464357 -0.22065501 0.13299653 0.42681777
0002a0 29 9c 19 3f de 01 eb bd d2 ea 37 be b3 75 f9 3c
       0.60003906 -0.114749655 -0.1796067 0.030451631
0002b0 f1 64 a2 be 3f 0b 36 3e 57 44 13 3e 3e a6 13 be
       -0.31717637 0.17777728 0.14381538 -0.14418885
0002c0 2e 03 9d be 92 a9 61 3e 80 2b 9b 3d 1e 51 7c 3e
       -0.30666488 0.22037342 0.07576656 0.24640319
0002d0 e5 90 15 be fc 2d 3c 3e 2b db 41 3e ad 1b 88 3e
       -0.14606054 0.18376917 0.18931262 0.26583615
0002e0 c5 9b 26 bd 57 fc ae bd 37 0b 9d be 18 7f 0a bf
       -0.040675897 -0.08544224 -0.3067262 -0.5410018
0002f0 68 7b b0 be 63 ce 3a 3e 17 01 6a be d5 7b 2a 3d
       -0.34469151 0.18242793 -0.22851978 0.041622
000300 86 54 9b be 6a 88 87 3d d5 ac e7 3e 41 65 7e 3e
       -0.30337924 0.06617816 0.45249048 0.24843313
000310 36 f8 4d be d5 50 a0 bd 01 77 1c 3e d0 b3 71 be
       -0.20114216 -0.078279175 0.15279771 -0.2360375
000320 b7 b3 c6 3e 80 04 ef bd b9 20 5a be b8 f4 6f bf
       0.38808987 -0.1167078 -0.21301545 -0.93732786
000330 e8 24 57 bd db 46 3e be 92 a9 75 3e 3f 28 e6 3d
       -0.05252543 -0.18581717 0.23990467 0.11238145
000340 67 d1 90 3d cf 17 ed 3d c2 c2 5e 3e 8b ee be 3d
       0.0707119 0.11576807 0.21753982 0.09322842
000350 48 1a 29 3f fb 8a fc bd 8d 70 5a be 19 08 55 be
       0.66055727 -0.12331196 -0.21331997 -0.2080387
000360 9b 4c 73 3e 11 4c 20 3e 3f a5 74 3e d6 53 67 be
       0.23759691 0.15654017 0.23891161 -0.22590575
000370 ee cd f1 3d 5d 89 76 be 91 1f e2 bd 0f 48 b7 be
       0.11806856 -0.24075837 -0.11041177 -0.35797164
000380 3f d2 8e 3f b3 f2 12 3e ed 6c 15 3e ca 3f 5b be
       1.1157912 0.14350395 0.14592333 -0.21411052
000390 64 50 23 bf 8b 32 34 3e e7 51 b3 bd a5 25 5c 3e
       -0.6379454 0.17597406 -0.08755856 0.21498735
0003a0 60 83 18 3e a9 83 63 be 63 db 92 be 51 84 36 3e
       0.14893866 -0.22218193 -0.28683004 0.17823912
0003b0 dc 65 b6 be 24 7a 7e be 42 c0 47 be 31 9a 2e be
       -0.35624588 -0.2485128 -0.19506934 -0.17051007
0003c0 bf d2 c1 3f 63 cd e1 bd 31 31 8f 3e aa d7 56 be
       1.514244 -0.110255025 0.27967218 -0.20980707
0003d0 4d 42 5b 3e b6 c3 84 3d 6e 20 df 3d 25 f8 e5 3e
       0.2141201 0.064826414 0.10894857 0.44915882
0003e0 0c 9d 36 3e 1e 8f 27 be f0 30 86 3e a3 e8 92 be
       0.17833346 -0.16363189 0.2620921 -0.28693113
0003f0 7f b2 a8 3e 52 7a 92 3e ed 65 90 be 13 41 ca 3e
       0.32948682 0.28608948 -0.28202763 0.39502773

advantage_stream.weight f4 [20, 256]
000000 6e d8 de 3d c1 79 8d bd e6 3f 1d be 0b bd b2 bd
       0.108811244 -0.06907988 -0.15356407 -0.08727463
000010 b7 bf 0d bd 6b d9 98 bd 9f f1 6d 3d aa 99 23 3e
       -0.03460666 -0.07463344 0.058091756 0.15976587
000020 af 7b 3b be a2 27 69 bc 85 4e 0c bc 7e 33 52 3d
       -0.183089 -0.014230641 -0.008563642 0.051318638
000030 90 35 39 3d e1 35 91 3d 68 e4 13 3d 82 cc c6 bc
       0.045217097 0.07090355 0.036106497 -0.024267439
000040 1b 24 0a be 42 66 46 bd d3 03 92 bd 42 b5 91 3e
       -0.13490336 -0.048437364 -0.07129636 0.284586
000050 15 71 82 bc 42 80 ea bd 9d 36 5e be 23 90 9f 3d
       -0.015923062 -0.114502445 -0.21700521 0.07791164
000060 b9 8e d4 bc e0 e8 d5 3d 1a bc 32 3d 96 a2 6f bd
       -0.025946962 0.10444808 0.04363642 -0.058504663
000070 37 d4 84 3c 0b 23 6f 3c a9 16 ad bc 4a 5f ff 3d
       0.016214473 0.014595757 -0.02112897 0.12469347
000080 06 d8 3d be a7 48 99 3d 46 5c d8 bc ed ec 50 3d
       -0.18539438 0.074845605 -0.026411187 0.0510072
000090 b3 11 ce bd 60 ec fa 3d 7e d4 af 3b 46 ea bf bd
       -0.100619696 0.12252116 0.005365907 -0.09370856
0000a0 ee 36 17 be 6a 13 94 bc 76 4d c0 bd 58 59 37 bd
       -0.14767048 -0.018075664 -0.093897745 -0.04476294
0000b0 48 43 88 bd 49 cd 51 bc d0 a2 0c 3e 26 89 4c 3c
       -0.06653458 -0.012805291 0.13733983 0.012483871
0000c0 7e 0d 05 be 65 f0 e5 3c 13 eb d6 bb 37 1b 46 3d
       -0.12993428 0.02806873 -0.0065587847 0.048365798
0000d0 b8 4d b5 bc 4b b1 b9 3d c2 c8 4f 3d 08 2a 18 bd
       -0.022131786 0.09067019 0.050728567 -0.03714946
0000e0 15 ca 68 bd 1e 5d 17 be 5f 36 18 3d a2 50 35 3d
       -0.056833345 -0.14781615 0.037161227 0.04426635
0000f0 55 2e b6 3e 0f 81 4d bd ad 3a 76 bd 13 f9 10 3d
       0.35582224 -0.050171908 -0.06011455 0.035393786
000100 e0 a6 cf 3d c6 ad 9d bc aa 7a 3b 3e 48 29 e9 bd
       0.10139251 -0.0192479 0.18308511 -0.11384827
000110 28 62 c2 bc 9a c2 1f 3c 38 4d 59 3d fb cb 09 3e
       -0.023728445 0.0097509865 0.053052157 0.13456719
000120 c6 53 af bd f1 1e d2 3d 94 3a ad 3b 92 83 17 bd
       -0.085609004 0.10259808 0.005286524 -0.03699071
000130 df 4f 8d bd 12 b7 a5 bd ea b1 2b 3c 22 dc 1a bd
       -0.069 -0.080915585 0.01047943 -0.03780759
000140 9c c8 c1 bd 7b 8f 10 3d a9 2c 35 3e 9c 6b e3 bc
       -0.09462091 0.035293084 0.17692818 -0.027761273
000150 8d 15 de bc 66 41 99 3b 1a e8 ac bc a9 b6 bd 3d
       -0.027109886 0.0046769856 -0.021106768 0.09263355
000160 71 23 02 3e c9 04 b1 bc 10 66 e8 bc b6 f2 3e be
       0.12708832 -0.021608727 -0.02836898 -0.18647274
000170 be fb 80 bd 64 fc db 3d 72 81 88 bd 88 a4 7c bd
       -0.06298016 0.10741499 -0.06665315 -0.061680347
000180 cc ab cb bd 47 17 dd 3d 71 57 ee 3d 24 f4 1f be
       -0.09944877 0.107954554 0.11637772 -0.15620476
000190 df 16 82 3c a6 15 16 3d 9a 7e be 3d 0e 24 a1 b9
       0.015880046 0.03664174 0.09301491 -0.00030735176
0001a0 c2 c9 f8 3c 75 c6 c7 3b 05 77 ee bd 7c 98 d6 bd
       0.030369643 0.006096656 -0.11643795 -0.10478303
0001b0 48 86 a3 3c 8f 19 0a bd 33 77 7b bb ec 65 0c 3d
       0.019961491 -0.03371578 -0.0038370609 0.034276888
0001c0 3d f6 70 bd 02 ea 92 3d bc 6c 3b bd c2 57 74 bd
       -0.05882858 0.0717354 -0.045757994 -0.059654005
0001d0 10 aa c3 3a 17 e3 b3 3c 96 f8 17 bd 7e f2 58 bc
       0.0014928002 0.02195887 -0.037102304 -0.013241408
0001e0 20 69 cc 3c 51 0b 51 3d ed 72 b4 3a 7d 8a 9d bc
       0.024952471 0.051036183 0.0013767161 -0.019231075
0001f0 e8 24 33 bd 1e d9 01 3e 63 c8 3e bd 45 34 73 bd
       -0.04373637 0.1268048 -0.046577822 -0.05937602
000200 37 2b 5f 3c 8d df 42 3c 14 5e 65 3d 18 69 02 bd
       0.013621143 0.011894119 0.055997923 -0.031838506
000210 57 17 3b be d2 f4 44 3e 23 16 6b bd 64 dd 0d bc
       -0.18270622 0.19234017 -0.057394158 -0.008658741
000220 80 18 b1 3d 5e 94 4b 3c 81 ba 5e bd 0e e7 23 3c
       0.08647251 0.01242551 -0.054377083 0.010003818
000230 be 0e 03 3d 42 b8 18 be dc a3 92 bc ec 10 86 3d
       0.03199648 -0.14914039 -0.0179004 0.06546196
000240 cd 24 25 bc e2 07 29 be 7e e5 63 3c 07 c7 ff 3c
       -0.010079575 -0.16506913 0.013909696 0.031222833
000250 27 66 b5 3d c2 48 29 bd d8 b9 21 3e 3f 3f bf bd
       0.08857375 -0.041329153 0.1579355 -0.09338235
000260 84 f2 0b 3d 07 c2 6f 3c ef 91 88 3c 2f f0 16 bd
       0.034166828 0.014633662 0.016671149 -0.03685015
000270 c4 28 35 3e 2c 69 87 3d 84 55 fd bc 75 76 dd 3c
       0.17691332 0.06611857 -0.030924566 0.027034024
000280 68 11 39 3c 21 e2 6b bc 41 8b cf 3d 1b db 5d bc
       0.011295654 -0.014397175 0.101339824 -0.013541008
000290 94 1d 5f bd 20 97 ff 3b 39 24 7d 3c 18 d7 b8 3d
       -0.054471567 0.007799998 0.015450531 0.09025401
0002a0 79 4d d9 bd d9 ce bf 3d c1 91 84 3d e5 21 8d 3d
       -0.1061048 0.09365625 0.06473113 0.068912305
0002b0 e7 55 50 3e 0f 14 e8 bd ae ab e3 3d ba fb 31 3b
       0.20345269 -0.11331951 0.1111673 0.0027158097
0002c0 29 08 33 bd 36 6f 41 be 2e 6e db 3d a6 24 03 3e
       -0.043708954 -0.1889008 0.107143745 0.12806949
0002d0 75 55 80 bd 6f 4d e4 bc da 80 56 3d b4 7a 8a bd
       -0.062663 -0.027868954 0.052368976 -0.06761685
0002e0 a7 91 e2 bb 81 c5 71 3d 21 96 99 bd 7b cd 34 3e
       -0.006914336 0.059026245 -0.07499338 0.1765651
0002f0 fb c4 b9 bc 2a 5a 43 bc 61 28 ed bc 8f 03 4a 3d
       -0.022676935 -0.011923352 -0.028949918 0.0493198
000300 e8 f4 ef bc b3 52 21 3d 4d 73 0b be c5 af 93 bc
       -0.029291585 0.03938551 -0.13618203 -0.01802815
000310 64 b6 a6 bd 5c 6b 32 3d 7f fe 1e be a1 af cc bd
       -0.08140257 0.043559417 -0.1552677 -0.09994436
000320 9c cd 50 be e0 7f 91 3d f7 7e f0 bc 6d a0 89 ba
       -0.20390934 0.07104468 -0.029357417 -0.0010500081
000330 df c5 44 3d a5 dc eb 3c 20 b4 05 3e 06 90 b0 3d
       0.048040267 0.028791735 0.13056993 0.0862122
000340 b3 91 59 3d 83 b0 ec 3b 87 a3 96 3d c9 9b 81 3c
       0.053117465 0.0072231903 0.07355409 0.015821354
000350 f0 78 f6 3d 49 67 80 bc cd 17 3a 3d 69 08 05 be
       0.12034786 -0.01567425 0.045432854 -0.1299149
000360 2c fe 01 3d 7f 6b d6 3b f7 c6 11 3e 91 93 5e bd
       0.031736538 0.0065435763 0.14236055 -0.05433995
000370 61 5f 99 3b 43 39 04 3d d3 dc af 3c 99 6e e5 bd
       0.0046805595 0.03228117 0.021467602 -0.112027355
000380 1d 1e 4e 3e 21 6d a8 bc 05 06 d0 bc cc d8 e1 bc
       0.20128675 -0.02055985 -0.025393495 -0.027569197
000390 ca e2 cc 3d 82 6c 34 bd 67 a5 96 bd 06 5d 0e 3d
       0.10004194 -0.044048794 -0.07355767 0.034756683
0003a0 12 33 14 3d 52 c8 91 bc 57 e7 8e bc 3b 98 28 3d
       0.036181517 -0.017795715 -0.017444296 0.041160803
0003b0 92 76 16 3d cf 3b 9a 3d d6 f6 35 bc c9 c1 4a bd
       0.03673417 0.07530939 -0.011106214 -0.049501214
0003c0 49 62 c5 bd ec 12 25 bd d1 a3 b6 3d 8c a6 24 bd
       -0.09637887 -0.04030125 0.08917964 -0.040197894
0003d0 15 fb 6a bc eb 72 04 3d 79 d2 da bc ce 5a c7 3d
       -0.014342089 0.032336157 -0.02671169 0.097341165
0003e0 b9 fa f8 3c 66 61 be bd 49 84 33 3d 12 25 8f 3d
       0.030392991 -0.09295921 0.04382733 0.069894925
0003f0 ee 9f a9 ba 74 43 82 3d b9 ee f5 bc 3a db 3c bc
       -0.001294134 0.06360522 -0.030021058 -0.011526877

advantage_stream.bias f4 [20]
000000 d0 b9 3c 3e 30 ed 84 be 64 5d 3d 3e 19 28 cd 3e
       0.18430257 -0.2596221 0.18492657 0.40069655
000010 a7 9e 96 3e c9 4f d2 3e aa 73 86 3e 33 e0 e2 3d
       0.29417917 0.41076496 0.2626012 0.11077919
000020 dc 0e c5 3e 41 82 c7 3d 78 8a e7 bd d9 8b 12 be
       0.384879 0.09741641 -0.11305708 -0.1431116
000030 30 0e db 3c a7 aa a2 bd 69 68 0a 3d 01 71 2e bd
       0.026740164 -0.079427056 0.03379098 -0.042588238
000040 a2 b5 46 bd 38 66 a3 3c 9f 19 99 3e 18 ee 94 bf
       -0.048513062 0.019946203 0.2990236 -1.163516
