src/hockey-env/random_training_2/weights/episode_166.pth (torch, 307504 bytes, 7 tensors)

layers.0.weight f4 [256, 18]
000000 5f 60 03 c0 6f 5b 32 3f da e9 3c bf 2e 21 6a bd
       -2.052757 0.69670767 -0.7379433 -0.05716055
000010 4b 18 e8 bb 68 ec 34 bd fc 28 81 3f 0d 48 65 bf
       -0.007082974 -0.044170767 1.0090632 -0.89563066
000020 1e 8c 45 3f a0 8f 02 bd 29 ff 96 be c2 c5 1c 3d
       0.77166927 -0.031875253 -0.29491547 0.038274534
000030 90 36 48 3f 1d da 5f be d4 e6 e6 3d 99 3f 5a be
       0.78208256 -0.21860547 0.11274496 -0.21313323
000040 f1 b0 ac c0 2c 5b b7 be da 84 ad 3d eb 70 00 3e
       -5.3965993 -0.35811746 0.08472605 0.12543075
000050 5f 87 9a be 6f 50 92 bd 97 a3 08 3d 07 42 ab b9
       -0.30181405 -0.07144248 0.033359136 -0.00032664856
000060 58 a7 fd 3f bb 43 6a 3f 52 c7 33 be 6e 9f 71 bc
       1.9816694 0.915096 -0.17556503 -0.014747484
000070 6d 0e 89 3e 28 ae 1e 3d 0c 93 46 bf 69 2d 6d bf
       0.26768818 0.038740307 -0.77568126 -0.92647415
000080 6d aa 43 3e 65 9f 83 be 67 4c 28 3f 48 3b 93 3f
       0.19107981 -0.25707546 0.6574158 1.1502466
000090 12 e7 cf be da 6c 51 3e a7 cd 1d 3e 0a 68 8a bc
       -0.4060598 0.2045168 0.15410481 -0.016895313
0000a0 12 26 c2 3c b2 d3 10 bd 90 10 fb 3f 54 70 f5 be
       0.023699794 -0.03535814 1.961443 -0.47937262
0000b0 ee c3 3e 40 6d 90 f9 bd 27 82 9f bd 0a e2 a9 bd
       2.9807086 -0.1218575 -0.077884965 -0.08295067
0000c0 85 2e c9 bd 78 dd 1f 3e 71 d1 bb 3e bb c6 8b 3e
       -0.09823326 0.15611827 0.3668323 0.27300057
0000d0 cf 0e 17 40 21 26 1c 3f 82 18 48 3f d0 d9 14 bf
       2.3602788 0.6099568 0.78162396 -0.58144855
0000e0 34 a0 50 3f dc ed 2e 3d c3 08 b8 bd 14 3b ac bc
       0.8149445 0.04270731 -0.08986046 -0.021024264
0000f0 89 cc 4e be 9a 2f 01 40 36 98 d7 be c8 f5 90 be
       -0.20195211 2.0185304 -0.42108315 -0.28312516
000100 c1 32 2a 3e f7 d8 ae bd 1b 88 cc 3d a5 59 81 3f
       0.16620924 -0.085374765 0.099868976 1.0105482
000110 43 b5 95 3d 18 38 13 3f f1 4f c6 bd 51 1b e9 be
       0.073099636 0.5750747 -0.09683216 -0.45528653
000120 72 69 84 3d f0 49 5d be 55 48 e6 be 0b 74 3f bd
       0.064654246 -0.21610236 -0.4497706 -0.046741527
000130 db 85 ae 3c 55 94 9f bc 17 82 9e 3d 58 05 8d c0
       0.021304062 -0.01947991 0.077396564 -4.4069023
000140 cd d8 d3 bf 2e 53 90 be 7c 91 ad be 8e 58 b3 3d
       -1.6550537 -0.2818846 -0.33900058 0.08757125
000150 dc cd 4b 3f 81 7c a0 3e 1e 13 d1 3d b1 8d 7e 3e
       0.7961099 0.3134499 0.102087244 0.24858738
000160 3e 31 0b 3e 72 ed 4f be d4 8f 5a 40 fc 67 0e c0
       0.13593003 -0.20305422 3.4150286 -2.2250967
000170 78 43 19 3e 4a 30 a7 bc fb fc 25 bd 3b 1e 4a 3c
       0.14967144 -0.020408768 -0.040524464 0.012336309
000180 ff fb 55 3e fd 22 f1 3e bc 8c 31 3f 33 06 25 bd
       0.2089691 0.47097006 0.6935537 -0.040289115
000190 63 38 99 bc a1 4a 37 bb a7 57 5b c0 cc 81 0e 40
       -0.018703645 -0.0027968066 -3.4272249 2.2266722
0001a0 77 3e 8e 3c eb 99 6d 3d 08 51 cb be 68 16 03 be
       0.01736377 0.058008116 -0.3971026 -0.12801516
0001b0 da 6e 77 bf e9 a0 96 3f dc 6e c9 3e ac f0 d4 3d
       -0.9665352 1.1767856 0.39342391 0.10397467
0001c0 9e cb 71 3d ac b9 f8 bc b1 9b c1 3f 46 8c b0 bf
       0.059032075 -0.030361973 1.5125638 -1.3792808
0001d0 71 c9 45 3f 0e 76 fe 3d 49 52 25 bf 73 f8 fe 3d
       0.772605 0.12424861 -0.6457868 0.12449732
0001e0 02 0b 53 be ba 3c b2 3d 00 32 8a be dc 91 aa 3e
       -0.20609668 0.08702989 -0.26991272 0.33314407
0001f0 e4 d7 9d bf cc a3 10 3f d1 6f 7e 3f cb 5b 13 bf
       -1.233151 0.56499934 0.9938937 -0.5756194
000200 71 d0 b1 be d9 e7 91 bd 7e 91 25 3d 0b ef 23 3d
       -0.3472934 -0.071242996 0.040421955 0.04002289
000210 a8 86 d3 3e 58 63 90 bf 02 9c 31 c0 1b 42 c7 3d
       0.41313672 -1.1280317 -2.775147 0.097294055
000220 3c 71 18 bd 90 1e ac be ac cc 1f 3f 6b 0a 0a be
       -0.037217364 -0.33617067 0.6242168 -0.13480537
000230 d0 85 7e 3e 0b 58 39 bf 5b e9 42 3f 90 8f 00 3f
       0.24855733 -0.7239997 0.7613732 0.5021906
000240 4d 6c 3e 3f 46 ad 37 c0 b0 4d 18 3d 69 21 1c 3d
       0.74384004 -2.8699508 0.037183464 0.0381178
000250 91 01 83 be 9a 5b 44 bd 27 91 df 3d 33 ff ff 3f
       -0.25587133 -0.04793892 0.109163575 1.9999756
000260 89 34 88 3f 10 e4 10 bd 91 07 6b bd 1f 21 83 3d
       1.0641032 -0.035373747 -0.057380263 0.06402802
000270 07 82 48 be ca b8 79 3e 1f 72 ac bc 8e 86 53 bb
       -0.19580851 0.24386898 -0.02105051 -0.0032276246
000280 58 9d 15 bd 21 56 33 3d d4 cf d9 bd 44 68 2b 3e
       -0.036527008 0.04378331 -0.10635343 0.16738993
000290 64 5b 29 3d 0e 68 2b bc ae 51 d4 bc e0 cd 91 ba
       0.041346923 -0.01046182 -0.025917854 -0.0011123978
0002a0 1a 94 74 bf 8e 6a da 3c 59 5b 4c 3d 9e f3 a1 bd
       -0.95538485 0.026662137 0.049891803 -0.079077944
0002b0 1f a4 cc 3d 9e 84 6f 3d 35 96 e6 3f fc 80 af 3e
       0.09992241 0.058476083 1.801459 0.34278095
0002c0 b4 84 56 3e 60 10 8f 3d 97 51 a9 bf 72 4d f4 bd
       0.2094906 0.06985545 -1.3228024 -0.11928834
0002d0 90 ea d7 bf f0 cb 13 3e 30 76 44 3f df bf 33 be
       -1.6868458 0.14433265 0.7674284 -0.17553662
0002e0 e7 a7 9e 3d 54 d2 d1 3d 85 49 a9 3f 82 a1 54 bf
       0.077468686 0.10245195 1.3225561 -0.8305894
0002f0 6f 2a 52 bf d5 8d 32 3e a9 46 36 be 25 e0 5a bd
       -0.82096 0.17436917 -0.17800392 -0.053436417
000300 27 44 09 3f ef d2 d8 3d 5d 4a b1 3c 99 2d 56 3c
       0.5361962 0.105871074 0.021641904 0.013072395
000310 ab a5 e2 be d3 66 f8 3e e2 61 36 3e c2 06 19 3f
       -0.4426702 0.4851595 0.17810777 0.59775937
000320 32 49 60 be 42 2c 29 ba f3 84 d3 3d a2 67 74 3d
       -0.21902922 -0.00064534333 0.103280924 0.059669144
000330 52 af 8e 3e 99 4a b4 3e 08 23 d7 be 63 1a de bd
       0.27868134 0.35213163 -0.42018914 -0.108448766
000340 9d 59 05 be 39 66 c5 3d 40 b3 e0 3f be e1 b0 3d
       -0.13022466 0.09638638 1.7554703 0.08636807
000350 43 e3 2f 40 f5 b0 e9 3d 64 c2 b5 3f de 70 2a c0
       2.748246 0.11410705 1.4199948 -2.6631389
000360 71 a7 cb 3e 01 b8 da 3d 9d 49 98 be d5 86 eb 3d
       0.39776185 0.10679627 -0.29743662 0.115003265
000370 4b 82 39 3e a1 83 c7 bd 47 72 2a be 76 37 44 3e
       0.18116109 -0.09741903 -0.16645156 0.19161782
000380 00 f4 38 c0 22 15 e0 be c6 40 76 3c 9d ee c4 40
       -2.8898926 -0.43766123 0.015030092 6.1541276
000390 74 48 16 3e 2b 7c ba bd f0 96 e3 3d ad bf ca bb
       0.14676076 -0.091057144 0.111127734 -0.0061874003
0003a0 b2 79 08 bf 7b 87 8a 3d e2 9b af be d8 93 de bf
       -0.5331069 0.06764122 -0.34298617 -1.7388868
0003b0 5a 63 65 3f 7f 96 6b 3d 45 99 21 be 5b 38 ef 3d
       0.89604723 0.05751657 -0.15781124 0.11680671
0003c0 d0 10 34 be 37 3b 53 3f 21 72 37 bf 5a 9e 39 3c
       -0.17584538 0.8251223 -0.7165852 0.011329258
0003d0 eb ad d4 bd 56 93 2f be 9a 42 64 3f 70 d3 c0 3e
       -0.10384735 -0.17146048 0.89164126 0.37661314
0003e0 5d 78 df 3d 9e 55 a7 bb 9d 41 5a be 39 88 99 3f
       0.10911629 -0.005106642 -0.21314092 1.1994697
0003f0 07 25 63 3e e0 d6 1e be ce 95 6f 3e db c6 9d 3d
       0.22182094 -0.15511656 0.2339699 0.07703944

layers.0.bias f4 [256]
000000 a1 c8 3c bd ab 67 2a bf 23 99 9c 3f 4e b4 5b 3f
       -0.046089772 -0.66564435 1.2234234 0.85822
000010 de 18 bc 3f f7 ba 08 c0 d8 ee be 3f 67 02 03 40
       1.4695089 -2.1364114 1.4916639 2.0470216
000020 68 b6 dd bf 49 75 22 c0 0a 4f 24 40 c8 75 74 3e
       -1.7321291 -2.5384085 2.5673242 0.23873055
000030 e3 cc 34 be d1 63 43 40 5d f0 27 bf ba 4f 07 c0
       -0.17656283 3.0529673 -0.6560114 -2.1142411
000040 31 f3 2b 40 1f e0 8f bf f7 2d 28 3f b6 aa 83 3f
       2.6867182 -1.1240271 0.65695137 1.0286472
000050 43 1a 06 bf 4e 4f 6d c0 f8 ca c1 3e 2d 03 76 40
       -0.5238382 -3.7079654 0.37850165 3.8439438
000060 2a f8 6c bf 6f e9 01 c0 a7 e6 a8 be f6 14 28 be
       -0.9256617 -2.0298727 -0.32988474 -0.16414246
000070 88 a3 ae be 3a 70 07 bf fb 64 b4 bf be 94 a9 3f
       -0.3410914 -0.5290562 -1.4093317 1.3248518
000080 44 78 2c c0 0a d6 d6 be 7c 26 06 3f 71 d8 a8 bd
       -2.6948404 -0.41960174 0.5240247 -0.08244408
000090 9d 49 08 c0 54 25 80 c0 ac 82 d1 bf b4 b1 db 3f
       -2.129493 -4.0045567 -1.6368003 1.7163606
0000a0 38 48 32 3f 39 d0 29 40 7e 5c 91 3f 89 56 e9 bf
       0.6964145 2.653334 1.1356351 -1.8229533
0000b0 5c 91 1b bd e1 d9 60 bf d1 a9 6c bf 78 e0 48 40
       -0.037980422 -0.87832457 -0.9244662 3.1387005
0000c0 c7 ab 17 40 8a 16 b0 bf e2 2b c4 3f 40 37 9a bf
       2.3698595 -1.3756878 1.5325892 -1.2048111
0000d0 6b 0b f2 3e 4a 78 63 3f fa ed fe bf 82 42 bf be
       0.47274336 0.8885542 -1.9916375 -0.3735543
0000e0 d6 f5 9e 3f cb 46 72 3f 0f 68 ec 3f fe e1 cd 3e
       1.2418773 0.9463927 1.8469256 0.4021148
0000f0 a5 1f 9c 3f 40 c2 83 40 f6 8d 3f 3f 73 d2 f0 3f
       1.2197157 4.117462 0.7482599 1.8814224
000100 14 65 f9 3d d3 c0 b7 3e b2 80 4b 3f 3c 89 71 3f
       0.12177482 0.358893 0.7949325 0.9435003
000110 37 85 fb 3e 82 0e 5c bf 59 f7 11 40 ce 00 04 bf
       0.49125072 -0.8595964 2.280722 -0.5156373
000120 ec 68 91 be 02 7d ca bf 25 2f e5 bd 26 55 a6 3e
       -0.28400362 -1.5819399 -0.11190633 0.32486838
000130 84 20 c5 bf aa bd af 3f f7 cf 90 bd 5b 89 b1 3f
       -1.5400548 1.3729756 -0.07070916 1.3870043
000140 63 22 8e 3f 6f 7d 55 c0 85 86 f5 be 94 26 8b 3d
       1.1104244 -3.3357809 -0.47954193 0.067944676
000150 ec 62 de 3d 44 f1 54 40 d8 84 ce 3e c7 00 2f bf
       0.108587116 3.3272257 0.40335727 -0.6836056
000160 aa 34 ec 3f 67 be 96 bf d4 9b 06 40 86 0b 8f 3f
       1.8453572 -1.1776856 2.103261 1.1175392
000170 1a 8d 4c 3f ab 7c 95 3f 37 d8 b8 3f 2c 67 2f bf
       0.79902804 1.1678671 1.4440984 -0.685168
000180 e5 4a a0 3e 3e 17 83 bf ce 8b 15 bd 0a cb 69 be
       0.3130714 -1.0241468 -0.03651028 -0.2283136
000190 59 de 67 40 55 93 de 3f 59 15 4e be 1d 5b be 3e
       3.622946 1.7388712 -0.20125331 0.3717889
0001a0 22 50 17 be 14 17 ac bf 40 ac be 3f 96 64 80 3f
       -0.14776662 -1.3444543 1.4896317 1.0030696
0001b0 20 9e 89 be 78 f7 47 3f 2d 63 83 c0 37 63 9b bf
       -0.26878452 0.7811198 -4.1058564 -1.2139653
0001c0 4a a5 0d 40 87 be 5e 3f 59 16 39 40 49 6d b6 3f
       2.2132134 0.8700947 2.891989 1.4252101
0001d0 f6 2b 37 c0 e0 17 11 3e e7 aa dc 3f df 9d be be
       -2.8620582 0.14169264 1.7239655 -0.3722982
0001e0 04 8a ae be bc a9 ba bf 5d a6 e1 bf 82 b9 bc 3e
       -0.34089673 -1.4583049 -1.7628895 0.3686028
0001f0 6d bc c4 3c 96 94 ac 3f 4b 9c 29 be c7 5f 76 3e
       0.02401563 1.3482845 -0.16563527 0.24059974
000200 12 e8 45 c0 89 09 2b bf e3 02 10 c0 b3 f2 53 3f
       -3.0922894 -0.66811424 -2.2501762 0.82792205
000210 10 56 03 c0 aa e9 26 c0 85 b3 8d be 3a 61 cd 3f
       -2.0521278 -2.6080117 -0.27676025 1.6045296
000220 10 50 ad 3f 09 95 7a 3e b5 c1 7d 3f 45 04 8d 3f
       1.3540058 0.24470915 0.991237 1.1016928
000230 fd 16 1b 40 ee f7 10 40 35 07 2c c0 dc f7 e5 3f
       2.423278 2.2651324 -2.68794 1.7966266
000240 32 4c e6 bf 3d 54 42 bf 59 a2 44 bf 71 0c 1f 3f
       -1.7992003 -0.7590979 -0.7681022 0.6212836
000250 c4 b8 a9 bf fd 0f de 3f a6 a9 3a 40 05 ab cc be
       -1.3259511 1.7348629 2.9166045 -0.39974228
000260 05 d9 de 3f 60 b6 e6 bf a1 73 b5 3e e4 9f f6 3e
       1.7409979 -1.8024406 0.3543978 0.48168862
000270 e4 d0 8f bd da 5b c8 3f 95 58 23 bf 4b 63 3e c0
       -0.070222646 1.5653031 -0.6380704 -2.9748104
000280 94 d4 a5 3e 66 51 57 40 6e 6a e9 bf 59 2c 4c c0
       0.32388747 3.3643432 -1.8235605 -3.1902068
000290 af 86 b6 3f 34 c9 e1 bf dd 07 04 40 0d f8 b7 bf
       1.4259852 -1.7639527 2.06298 -1.4372574
0002a0 4f a1 18 3e 21 e2 a5 be f4 c8 aa bf 56 f5 8e be
       0.14905284 -0.32399085 -1.3342576 -0.2792155
0002b0 f3 45 ed 3f cb d7 75 3f 46 83 71 3f 33 9c c9 bf
       1.8536972 0.960324 0.9434093 -1.5750793
0002c0 17 47 11 bf 71 6b 02 c0 38 7c 40 c0 db 19 2d 40
       -0.567491 -2.0378077 -3.0075817 2.704703
0002d0 d0 0f de 3e f5 be 97 bf d8 5c ff 3f bf 6e 24 be
       0.4337144 -1.185515 1.9950209 -0.16057871
0002e0 99 e5 a5 be 87 df 23 bf b0 81 fe bf 51 a8 d4 3d
       -0.32401732 -0.6401295 -1.9883327 0.10383666
0002f0 47 c5 72 bf 04 4e 0b bf e3 98 1e c0 54 9e 5b 3f
       -0.9483227 -0.5441592 -2.4780815 0.85788465
000300 9d 19 77 bf 1b 1e 73 bd a7 fc b1 3e 3e 15 1c 40
       -0.9652346 -0.059354883 0.3476307 2.4387965
000310 bb 1f c5 bf 87 41 f2 3f ef 0e 2c be d6 70 55 40
       -1.5400308 1.8926247 -0.16802572 3.335012
000320 ae 43 0d 40 9b fd 29 40 1a 7c 28 c0 af 17 e4 bd
       2.2072558 2.6561038 -2.6325746 -0.1113733
000330 93 c1 7f 3f b3 f1 53 bf 73 32 11 40 5d 13 35 40
       0.99904746 -0.8279068 2.2687042 2.8293068
000340 05 f2 48 3f a9 b2 d8 3f 96 c6 e1 3f 84 1b 1c c0
       0.7849429 1.6929523 1.7638729 -2.4391794
000350 4c 71 3d bf a1 7d a8 3e e5 bd 4b 40 45 bb 78 c0
       -0.74001 0.32908347 3.1834652 -3.88643
000360 da d8 4b 3f be f7 b9 bf 0e ec 90 3d 10 1a fa be
       0.79627764 -1.452873 0.07076274 -0.4884801
000370 89 fc f6 3f 8b 79 84 3f 27 07 f5 3c a5 5f 66 bf
       1.9295818 1.0349592 0.029910637 -0.8998969
000380 f1 7a b6 bf 78 15 45 40 bc 5a 80 bf 80 a6 68 be
       -1.4256269 3.0794353 -1.002769 -0.22719765
000390 35 8a 64 3e a5 8e 51 40 1a f0 05 c0 65 15 16 3f
       0.22318347 3.2743313 -2.0927796 0.58626395
0003a0 51 ef 9a bf 9c c5 ae 3f fa d7 34 40 a2 4e 01 3f
       -1.2104284 1.3654056 2.8256822 0.5051061
0003b0 ed 3e db bf eb 3f 9a 3f 04 46 ad 3e 01 a6 4e 40
       -1.7128578 1.2050756 0.3384248 3.228882
0003c0 d9 22 6b bf 3d 10 7b 3e e8 12 78 3f 62 cb 12 40
       -0.9185005 0.24517913 0.9690385 2.2936635
0003d0 17 6a f0 bf 86 70 7b bf 61 3a a4 bf c0 ad 07 40
       -1.8782376 -0.9821857 -1.2830316 2.1199799
0003e0 de 04 91 bf 3f 5c 9e bf 1b 9b 2d bf 89 15 12 40
       -1.132961 -1.2371901 -0.678148 2.2825644
0003f0 ab 1c 2a 40 5c 89 40 40 e6 0b b0 3f b9 79 1e bf
       2.6579998 3.0083838 1.3753631 -0.61904484

layers.1.weight f4 [256, 256]
000000 45 7c dd be a8 ba b9 bd 22 b9 4b bf dc 2f f2 3d
       -0.43258873 -0.09068805 -0.79579365 0.11825535
000010 a7 e5 84 3e bf 91 2f bf 17 42 af 3e 44 0c be 3d
       0.2595646 -0.68581766 0.3423011 0.09279683
000020 91 f7 88 bf 06 9d 09 3f e0 19 b2 bf 99 ad 8b 3e
       -1.0700551 0.53755224 -1.3914146 0.27280882
000030 16 cc 09 be e2 c8 12 3e 42 5f 9c 3e 23 7a 50 3f
       -0.13456759 0.14334443 0.30541426 0.81436366
000040 67 a6 c6 3e 17 86 34 be 3b f9 5b be 1d e1 c3 be
       0.3879883 -0.17629276 -0.21481793 -0.38257685
000050 e8 ab ec 3e 74 3c 8a 3f 62 9e b7 bc 19 9f a3 be
       0.46224904 1.0799699 -0.02241439 -0.3195732
000060 2f 15 80 3e 49 40 28 3e 3b ff 34 bf 61 27 a2 be
       0.25016162 0.16430773 -0.7070195 -0.3167067
000070 83 cf 98 3f c9 df 32 3e 77 51 80 bf 36 0a 81 be
       1.1938328 0.1746818 -1.0024861 -0.25203103
000080 02 20 58 bf 18 6e f7 bd 6c df 81 3e 6b d2 cd be
       -0.8442384 -0.120815456 0.2536577 -0.401996
000090 5e 1d f6 bd 9d 09 87 bd d6 1c 4b be 2f 7b 76 bf
       -0.1201732 -0.065936305 -0.19835219 -0.96281713
0000a0 5f e0 64 3c 82 21 a1 bf 47 35 89 3e 89 fd c5 3d
       0.01396951 -1.2588351 0.2679846 0.096674986
0000b0 5d 06 20 3f f5 f9 01 3f 9d 88 86 bf 23 95 e2 bd
       0.6250971 0.5077203 -1.0510441 -0.11063602
0000c0 d0 ab b7 be d9 66 e7 3c 79 e5 21 be 22 5b 63 bc
       -0.3587327 0.028247284 -0.15810193 -0.013876708
0000d0 d2 36 ac be 4d 32 24 3f 8b f3 82 3e 37 d5 b3 3e
       -0.33635575 0.6413925 0.25576434 0.35123608
0000e0 98 8d a5 3e 2b 1d 13 bf d0 b3 25 be b9 8c 24 3f
       0.3233459 -0.5746638 -0.16181874 0.64277226
0000f0 cf 32 fc 3e 8c 6c 8a bf 4d 92 2d bf 46 60 64 3f
       0.49257514 -1.0814376 -0.6780136 0.892094
000100 9d 02 5b bf 02 52 48 3e 04 85 ff 3e ca 75 a1 3d
       -0.8555086 0.19562533 0.4990617 0.078837946
000110 1b be 11 be 15 3d 0a 3f 01 7b 3e bd e8 ea f3 be
       -0.14232676 0.53999454 -0.046504024 -0.47640157
000120 48 a4 31 be 02 c4 91 3e ad 89 86 bf 93 b2 8f bf
       -0.17347825 0.28469855 -1.0510765 -1.1226372
000130 9b d7 c3 3e 0d aa 86 3f 3c 51 6a 3f 09 4c 20 bf
       0.3825043 1.0520645 0.91530204 -0.6261602
000140 9a 44 d2 3d 9e ae 11 3f 84 68 9c be 64 63 e3 bd
       0.10266991 0.5690707 -0.3054849 -0.11102942
000150 cd c2 c4 3c 57 13 81 be a8 b2 59 3d 98 53 56 3f
       0.02401867 -0.25210068 0.053148896 0.83721304
000160 30 5b 5a bf 38 b3 a3 3e 2f 3c 34 3f ae 18 39 3e
       -0.8529539 0.3197267 0.7040433 0.18075821
000170 38 b2 4a 3f 7d 1f 1c 3f 99 91 89 bf 5b 08 59 bf
       0.7917819 0.6098555 -1.0747558 -0.84778374
000180 ca 7c d1 3d 05 20 b3 bf cc d6 82 3e 82 09 7c 3e
       0.1022888 -1.3994147 0.25554502 0.24613002
000190 e8 56 af 3e 19 37 78 3e c7 11 62 3e d6 0b 28 3f
       0.34245992 0.24239768 0.22077094 0.6564306
0001a0 11 5c 8d 3e db 41 23 bf 63 f9 02 3f 81 44 b8 3e
       0.27609304 -0.6377236 0.51161784 0.35989764
0001b0 e8 49 ff 3d e7 1c a5 be e2 64 be 3e 4e 37 82 bf
       0.124652684 -0.32248613 0.37186342 -1.0173128
0001c0 f3 14 cc 3e e6 d0 5c bf e7 0d 19 bf c0 3a 26 be
       0.39859733 -0.86256254 -0.5978684 -0.16233349
0001d0 a8 e2 fb 3e 24 9c c2 bd c8 29 69 bd 65 a6 61 3f
       0.49196362 -0.09502438 -0.05692461 0.8814452
0001e0 06 3a d1 3e 2b ce b2 be 32 e5 8d 3e 97 c3 b6 bc
       0.4086458 -0.3492292 0.27713925 -0.022310061
0001f0 23 3b 3e be 3a 72 a1 be 19 03 67 bd fc e9 25 3f
       -0.18577246 -0.3153246 -0.05639944 0.64810157
000200 60 46 72 be 7e bd d0 be 08 f3 d9 3e 18 b3 9f be
       -0.23659658 -0.4076957 0.4256823 -0.31191325
000210 cb 2f 34 bc b8 4f b4 3e 15 3c 5c 3d da 39 96 3f
       -0.010997723 0.3521707 0.053768236 1.1736405
000220 47 43 37 3f 85 c8 0e bf 29 35 56 bf 03 ee 2c 3f
       0.7158703 -0.5577472 -0.83674866 0.6755068
000230 6e b0 01 3f 56 18 60 be ba 59 0b 3f 25 b5 e6 be
       0.50659835 -0.21884283 0.54433787 -0.45060077
000240 03 6f b2 3e f8 6d 28 3f 05 0e 58 bf 90 5e 78 3f
       0.3485032 0.657928 -0.8439639 0.9701929
000250 b4 92 01 3f 43 a4 e8 3d 23 51 6a 3f fe 66 be 3e
       0.50614476 0.113594554 0.91530055 0.37187952
000260 4c de 82 be 03 45 4d 3e 86 a5 d0 3e 7d d6 36 bd
       -0.25560224 0.20045857 0.40751284 -0.044638146
000270 2b 42 2f 3c 9c 44 bd 3e ba 19 21 bf d9 9a b5 3c
       0.010696928 0.36966407 -0.6292988 0.022168564
000280 7f c7 82 3f da af dd 3e 0c 8b a9 3e 8e 10 ed 3e
       1.0217131 0.43298227 0.33113897 0.46301693
000290 f4 c9 f7 3e e2 7f 00 3e fb 67 10 bf a7 60 9a be
       0.48396266 0.12548783 -0.5640866 -0.30151865
0002a0 8a a0 05 3e 56 9a 1f 3f 33 45 e9 3e c5 dc cd be
       0.13049522 0.6234487 0.45560607 -0.40207496
0002b0 96 f8 52 bf 2a 18 4f 3f f6 ae 2c bd ff 79 9c 3e
       -0.8241056 0.80896246 -0.042159043 0.30561826
0002c0 55 1d a6 3e 88 a4 5b 3f 3a 88 da be 3f 0a 25 bf
       0.32444254 0.8579793 -0.42682058 -0.6446876
0002d0 e5 79 e3 be 43 8b 14 3f 16 de 33 bf cd cb 04 3f
       -0.44428936 0.58024997 -0.7026075 0.51873475
0002e0 d7 0e 93 3f c1 a9 b5 3e b0 ef f5 be 14 4e b2 bb
       1.1488904 0.35481074 -0.4803443 -0.0054414365
0002f0 6e 85 4a bf 74 09 5f bf eb 96 a0 3c 2b 91 5f bf
       -0.7910985 -0.871238 0.019603213 -0.87330884
000300 a3 2e 5c 3f e3 78 08 bf 8d ba 18 3e 2e 13 50 bf
       0.8600866 -0.5330946 0.14914913 -0.81279266
000310 1d 40 22 3e a5 55 48 bf 53 c8 d9 be e8 1a 04 bf
       0.1584477 -0.78255683 -0.42535648 -0.51603556
000320 e8 90 8e 3e de 24 fc 3e 78 dd 35 bd a9 89 5c be
       0.2784493 0.49246877 -0.044400662 -0.21536888
000330 9e 6c 0b 3f 60 c2 60 3f e7 33 30 bc 20 9c 50 3f
       0.5446261 0.8779659 -0.010754562 0.8148823
000340 b9 b2 7b be 63 2a b2 bc a4 91 d6 3e 4e a1 a4 3f
       -0.24579896 -0.021748727 0.4190799 1.2861726
000350 6f f8 1b bf fc 97 a2 bf 17 b0 1d be 94 1f 70 3e
       -0.60925955 -1.2702632 -0.15399204 0.23449546
000360 ba 12 33 bf fc c6 f9 bd 13 a1 c4 3c c5 3d 35 3f
       -0.6995045 -0.121961564 0.024002587 0.7079738
000370 9e 2a ee be 04 c3 fc 3d 49 5a 35 be de 1f d7 3e
       -0.4651689 0.12341884 -0.17710222 0.420165
000380 42 33 ca 3e 18 b7 12 bd b1 ce 1e 3f 75 c0 c7 3e
       0.39492232 -0.035819143 0.62034136 0.3901402
000390 23 e2 b8 bd 42 d3 c2 be e3 c8 09 3e 36 74 f9 be
       -0.09027507 -0.38051802 0.13455538 -0.48721474
0003a0 3b f9 41 bd 8d f5 97 3f 42 8f e2 be 38 db 5a bf
       -0.047356825 1.1871811 -0.44249922 -0.8549075
0003b0 5c 9b 13 be 45 cd 96 3c 3b 3d b6 be 6a 72 19 be
       -0.14414734 0.018408427 -0.3559359 -0.14985052
0003c0 bb 0d 42 bf 21 9f b3 3d 43 ff 63 3f 94 38 57 be
       -0.758022 0.08770586 0.89061373 -0.21017677
0003d0 9d bb 29 bf 8d 2a 86 bd 3b 85 e4 3e 0a 91 77 3e
       -0.663019 -0.06551085 0.44632897 0.24176422
0003e0 cc d6 3e 3e c7 8d 9b be 38 d4 96 3f 75 cb ae 3f
       0.18636626 -0.30381605 1.1783514 1.365584
0003f0 2a 99 1b be 12 5d 4c bd 4c 29 e0 be 8e da f9 3d
       -0.15195146 -0.049893446 -0.43781507 0.12199889

layers.1.bias f4 [256]
000000 86 7e 55 bf 2f 07 87 bf 81 7f dc be ad de fc 3e
       -0.83396184 -1.0549067 -0.43066028 0.49388638
000010 68 4a 94 3f db ac b5 be 33 91 da 3d 22 55 0f c0
       1.1585207 -0.3548344 0.10672226 -2.239571
000020 ac 6b dc 3f 74 44 66 3f d1 1b 7b bf ef b4 5c 3f
       1.7220359 0.899482 -0.9808932 0.8621358
000030 f7 77 ae 3e 38 90 9c 3c 2c 2c 4f be f7 8a c4 3e
       0.340759 0.019111738 -0.20231694 0.38387272
000040 cc 8a 73 bf 0b 18 3c 3c dc 31 2e 3f 3f 19 96 bf
       -0.9513366 0.011480342 0.6804483 -1.1726454
000050 26 bc 83 bf 24 12 d1 bf ef a4 f7 3e 4c bf 6b bf
       -1.0291793 -1.6333661 0.48368022 -0.9208877
000060 aa ff 46 bf ac 51 24 3e 2c 8b e6 3f e9 c5 db 3e
       -0.7773386 0.1604678 1.8011222 0.4292443
000070 87 09 1b 3f ba da 84 3f fc 6e a0 3e 19 57 85 3e
       0.6056141 1.037925 0.31334674 0.26043013
000080 b1 9f 96 be f4 33 0a 3e 3b 45 bd bd c0 3f 22 3e
       -0.2941871 0.13496381 -0.0924172 0.15844631
000090 4b 2d 8f 3f 34 df a7 3f b2 f9 fd 3e a2 23 84 bf
       1.1185697 1.3114991 0.49604565 -1.0323374
0000a0 a9 52 1d bd e5 0d ba be 99 bc 5c 3e e6 b9 0b bf
       -0.03840891 -0.36338726 0.2155632 -0.54580534
0000b0 bf f4 95 3f 4e bc 3c 3f dc b3 06 3f 67 70 02 bf
       1.1715316 0.7372483 0.52618194 -0.5095276
0000c0 79 11 03 bf 8d e2 a3 3e d6 9a f5 3d 76 f6 4d bd
       -0.51198536 0.32008782 0.11992423 -0.05028387
0000d0 1c d0 a4 3e 7b d9 98 3e 8c 3f 1b bf 86 32 52 bf
       0.32190025 0.29853424 -0.6064384 -0.8210834
0000e0 b5 2b d1 3d 97 68 5b bf 9a 09 48 bf 00 f9 4e 3f
       0.102134146 -0.85706466 -0.7813965 0.80848694
0000f0 d5 00 39 bf 02 b2 b4 3e 59 87 c6 be 8f 17 9e 3f
       -0.72266895 0.3529206 -0.38775137 1.235094
000100 fe d4 5c 3f c6 e4 bb 3e 82 83 bc be 7f 74 3d be
       0.862625 0.36697978 -0.36819082 -0.18501471
000110 e7 ec b8 3e b7 ae 0f bf 4d 67 84 3e 77 d6 80 3f
       0.36118242 -0.5612597 0.25860062 1.006545
000120 e2 bd 8c be 2c 90 ee bd e5 db fc be 65 0f fe be
       -0.2748862 -0.11648592 -0.49386516 -0.4962112
000130 7c 45 1f 3e 46 52 00 be d2 9f 3c 3f 82 67 68 bd
       0.1555385 -0.12531385 0.73681366 -0.056739338
000140 20 fa 3f bd f9 27 88 bf 02 f8 fc 3f d0 5d 27 bf
       -0.046869397 -1.0637199 1.9763186 -0.6537752
000150 9d ce cb be 9e e4 a4 3e 43 1d 59 bd da dd c0 be
       -0.3980607 0.3220567 -0.05300642 -0.3766926
000160 4a cc 38 3e d8 9a 2c bf 6b 49 e8 be 58 6c 54 bf
       0.1804668 -0.6742377 -0.45368513 -0.8297782
000170 5d 21 00 3d e5 7e 81 3d 9d c1 04 3f dc f5 4e 3f
       0.031281818 0.06323031 0.5185793 0.808439
000180 44 29 60 3f 4e 2d 79 3d 46 da eb 3d 93 49 73 be
       0.87562966 0.06083422 0.11516242 -0.23758535
000190 f9 85 24 3f 44 c2 64 be 55 84 b7 bf 16 22 37 3c
       0.64266926 -0.22339731 -1.433726 0.01117756
0001a0 e9 c5 8c 3e 2a 82 81 3e d3 41 bc 3d ca 4f e3 be
       0.27494743 0.2529462 0.091922425 -0.44396812
0001b0 93 5d 56 3f 14 4c bc be 4b 07 2a 3f 5d 06 c2 3e
       0.8373653 -0.36776793 0.6641738 0.3789548
0001c0 01 33 1e bf 08 ff 88 3e 5c e2 75 3e 07 3e 04 bf
       -0.61796576 0.26757073 0.2401213 -0.51657146
0001d0 70 bb 7c 3e 66 88 78 3e d9 01 2c 3f 64 a1 1b 3e
       0.24680877 0.24270782 0.6719032 0.15198284
0001e0 47 68 d2 be f0 87 5a 3e e1 6c 3e 3f e6 ca e1 3d
       -0.41095182 0.21340919 0.74384886 0.11025028
0001f0 fd cc fe 3e 69 fe 0f be bf ad a4 3f 0f 44 c1 be
       0.4976577 -0.14061894 1.2865523 -0.37747237
000200 79 90 5f 3f e6 18 aa 3f be c2 6c be 24 ec 6e 3e
       0.8732982 1.3288848 -0.23121163 0.23332268
000210 7f 69 3d bf fc 1a 41 bf 47 43 40 bf 87 84 84 be
       -0.739891 -0.754318 -0.7510266 -0.2588236
000220 28 ae 15 3e 65 8c d8 3d 9a 57 43 3f b9 d8 36 3f
       0.14617217 0.10573653 0.76305544 0.7142444
000230 d8 95 8a 3e fa f5 3f bf 2b 67 46 be 14 57 45 bf
       0.27067447 -0.74984705 -0.19375293 -0.77085996
000240 07 bb a3 3e 6b f3 ba 3e cb 80 6c be 6c 03 05 3f
       0.31978628 0.36513838 -0.23096006 0.51958346
000250 0b c1 83 be 16 04 5f be d4 c3 e0 be 0b 2e 89 3d
       -0.25733218 -0.21778902 -0.43899405 0.06698235
000260 2d cc bd 3f 6e 77 01 bf 65 06 50 bf c0 68 41 3d
       1.4827935 -0.5057286 -0.8125976 0.047219038
000270 89 a2 cd 3d f9 17 11 be 5a 03 48 bf b4 db dd be
       0.10040767 -0.14169301 -0.78130114 -0.43331683
000280 6f dc 32 bf 0f ff ba be 3e c3 2a bf f1 71 16 bf
       -0.69867605 -0.3652272 -0.66704166 -0.5876761
000290 50 93 33 3f f8 b8 be be e2 4b 43 bf 5a de 2a 3f
       0.70146656 -0.37250495 -0.76287663 0.6674553
0002a0 92 50 23 3f 0e f7 a2 be b6 33 3c 3f ee 88 ff 3e
       0.63794816 -0.31829113 0.73516405 0.49909157
0002b0 70 3e 0d 3f be 7b 01 bf d5 c2 2b 3e d9 06 8a 3c
       0.551734 -0.5057944 0.16773541 0.016848968
0002c0 a7 32 c1 3e f8 9e fa 3e 72 e3 41 be 52 6e e9 3d
       0.37733957 0.4894941 -0.1893442 0.11397995
0002d0 fb 8b d7 3b 1a 4f 52 be a0 99 15 3f f1 6a 9f 3f
       0.0065779663 -0.20537987 0.5843754 1.2454511
0002e0 d8 b1 37 be 8f 27 4c 3f d9 f7 1c 3d 38 20 4f bf
       -0.17938936 0.7974786 0.038322303 -0.80908537
0002f0 61 2f be be 6c 12 98 3f 42 6e c2 be 3d 7a 5a be
       -0.37145522 1.1880622 -0.37974745 -0.21335693
000300 0f c6 1b bf 98 48 e4 3d a6 6b 5d be 7b 84 37 bf
       -0.6084909 0.11146659 -0.21623096 -0.71686524
000310 5b 8f fc 3e 58 b1 d8 3e 93 8e 0f bf 18 04 18 bf
       0.49328122 0.42322803 -0.56076926 -0.59381247
000320 bf bf 3e 3d dc 81 ff 3e 58 ac 7e 3e 92 a8 01 bf
       0.046569582 0.49903762 0.24870431 -0.5064784
000330 16 34 07 3f 98 8a 1f 3e e2 a8 2b bf 54 ba 3c be
       0.5281385 0.15580213 -0.6705457 -0.18430454
000340 36 f9 4f bf a8 6c 37 bd 08 5f 9d be f6 29 73 3e
       -0.8123964 -0.044781357 -0.30736566 0.23746476
000350 a2 6e 30 be 2a d9 27 3d 05 75 0e 3e 08 a0 1d bf
       -0.17229703 0.04097859 0.13911827 -0.61572313
000360 a0 81 8f bf d3 e6 6d 3d d2 ef 3a bf 87 76 58 3f
       -1.1211433 0.05808146 -0.73022187 0.8455586
000370 76 0e 34 3e 48 8f ee bd 15 d7 b0 3e b8 39 f5 3e
       0.17583641 -0.116484225 0.34539095 0.47895598
000380 c6 10 6e bf ad 48 22 bf 90 57 51 bf 01 7a b0 be
       -0.92994344 -0.63392144 -0.81774235 -0.34468082
000390 ef 2e c9 3d 70 5e 2b 3f fd 0d 1a 3f 8e 42 0e bd
       0.09823405 0.66940975 0.60177594 -0.03473144
0003a0 24 ea 61 3e c4 36 74 bf 87 e9 3d 3f 41 5f 22 3c
       0.22061974 -0.95396066 0.7418446 0.009910406
0003b0 38 ef 34 bf 5c 7d 5d 3e 37 42 20 be 70 9b 64 bf
       -0.7067752 0.21629852 -0.15650259 -0.8929968
0003c0 d1 42 63 bf ba 93 0a bf 73 42 01 bf a7 7e cc 3f
       -0.8877383 -0.5413166 -0.5049202 1.5976151
0003d0 1e 8c 00 bf 2c 0f 7c 3d 41 be 0c bf f0 94 8e 3e
       -0.502138 0.061537907 -0.54977804 0.27848005
0003e0 ed ec 45 3e 3e c7 84 3e 9d c9 08 bf c6 90 8a 3e
       0.19328661 0.2593326 -0.5343264 0.27063578
0003f0 09 d4 af be 30 9b 62 bf d9 78 17 bf c9 31 9b be
       -0.34341457 -0.8851805 -0.59168774 -0.3031142

value_stream.weight f4 [1, 256]
000000 ad 81 30 3e 33 2d f2 bd 0d 10 47 be 2e 37 85 be
       0.17236967 -0.11825027 -0.19439717 -0.2601866
000010 15 46 1b be df 71 9c be aa da 85 3e 33 2d 90 3e
       -0.15163453 -0.30555627 0.2614339 0.28159484
000020 d1 d8 65 bf 2a df 3d be f5 53 31 3f ca 81 09 3f
       -0.8978396 -0.18542162 0.69268733 0.5371367
000030 88 43 16 3e 96 00 6e 3e b1 5e d6 3d 9f b3 22 be
       0.14674199 0.23242411 0.1046728 -0.15888833
000040 26 92 9c 3e fb fc 05 be 8b e3 45 3e 88 18 2c 3f
       0.30580252 -0.13084786 0.19325082 0.6722493
000050 e3 18 1c 3e c0 fb d1 be fa 10 cb be 81 0a 88 3e
       0.15243869 -0.41012383 -0.3966139 0.26570514
000060 bf e1 5c 3e c4 5b ec bd fd 9c 93 be ee fc 05 3d
       0.2157049 -0.115409404 -0.2883071 0.032711916
000070 db 7c 73 3e 3c bd d6 3e ce d7 47 be cc ee 7b 3f
       0.23778097 0.4194125 -0.19515917 0.9841125
000080 1d f1 b2 be 61 4a 20 3e ae 0a 10 be a4 56 4d be
       -0.3494958 0.15653373 -0.14066574 -0.20052582
000090 10 87 66 be 0f 00 c8 3e 7d 82 90 be 95 36 67 3e
       -0.2251246 0.39062545 -0.28224555 0.22579415
0000a0 5c 59 14 be ba 2d 9d 3e b5 65 7d be dd 81 24 be
       -0.14487213 0.3069895 -0.2474583 -0.16065164
0000b0 c2 09 8e be ff 55 f8 3d 05 85 1e 3f 26 a9 ad 3d
       -0.2774182 0.121257775 0.6192172 0.08479528
0000c0 77 ef 0d be 2d bd 9e be 80 4c 01 bf cf e5 4e 3e
       -0.1386088 -0.31003705 -0.50507355 0.20204853
0000d0 89 31 57 bd 7d 0f 12 3e 36 fe 19 3e 6b 07 f8 3e
       -0.052537475 0.14263721 0.1503838 0.4844316
0000e0 bd eb 9a bd fb 45 96 3e d4 1d 72 3d ef c8 d9 bd
       -0.07564495 0.29350266 0.059110478 -0.10634028
0000f0 e3 4e e0 be 28 16 8c 3e 05 3d 2b 3e f6 14 24 3f
       -0.43810186 0.27360654 0.16722496 0.64094484
000100 38 ed 5a be a9 cf 8e 3e 86 a4 4e 3e cb 96 be bd
       -0.21379554 0.27892807 0.20179948 -0.09306105
000110 48 9a 2a 3e 97 27 31 be 2c cb 1d 3e d4 c7 5e 3e
       0.16660416 -0.17300259 0.15409535 0.21755916
000120 b1 39 3f 3e b7 45 a6 3e 20 19 8a 3e c7 6e 7c 3e
       0.18674351 0.32475063 0.26972294 0.24651633
000130 54 2b 2f 3e a8 c1 7a be b8 29 2a be f0 08 2d 3e
       0.17106372 -0.24487936 -0.16617477 0.1689794
000140 2e 25 39 3e 0b 2b eb 3e 0c c1 0a 3f f1 8f 1a 3f
       0.18080589 0.45931277 0.54200816 0.6037589
000150 63 89 12 be e9 f9 b0 3e e1 82 12 3e 65 b1 e6 3e
       -0.14310221 0.34565666 0.14307739 0.45057216
000160 6e 3c d3 3e 4c 93 2b be 8a ec 6c 3e 7b f6 9d 3e
       0.41257042 -0.16755408 0.23137107 0.30852112
000170 9e 88 00 3e 08 72 5e 3e e0 6e 05 3e c6 fb 12 3f
       0.12552115 0.21723187 0.13030577 0.57415426
000180 f4 cb 56 3e 63 ad 2d 3e 9b 0f 41 3e e6 26 10 3e
       0.2097624 0.16960673 0.1885361 0.14077339
000190 d5 07 24 3e 02 2d 42 3f fd 75 80 3e b7 36 83 be
       0.16018613 0.75849926 0.25090018 -0.25627682
0001a0 c5 2d 2b 3e 89 e9 83 be 40 e4 77 be 22 60 60 be
       0.16716678 -0.2576411 -0.24208164 -0.21911672
0001b0 b8 80 be be dc 18 61 be 44 8c 9f bd 10 cb 1d be
       -0.3720758 -0.2198214 -0.077904254 -0.15409493
0001c0 ce 3b 8a be 09 ab 9e bd 30 4b 1c bf c6 cb 81 be
       -0.26998752 -0.07747466 -0.6105223 -0.2535078
0001d0 93 b9 3d be 39 4c 05 be b0 a9 85 be 6f 93 3a be
       -0.18527822 -0.13017358 -0.26106024 -0.18220304
0001e0 e4 3b 4c be 2a d3 95 3e 80 cc 0f 3e c2 9e 1e 3e
       -0.19944721 0.29262668 0.14042854 0.15490249
0001f0 1a 35 57 3d dc 80 52 3e b2 71 b0 3f 5a 39 51 3e
       0.052540876 0.20556968 1.3784697 0.20432034
000200 29 e0 7d be cc f0 f7 bd 4d 4b f4 bd 54 50 85 3e
       -0.24792542 -0.12106475 -0.11928425 0.26037848
000210 a1 15 a7 be ce 77 23 3e 39 1f a8 3e a8 2a 15 be
       -0.3263369 0.1596367 0.3283632 -0.14567053
000220 27 6b b3 be 57 ce e2 3d 09 e5 29 3e 74 ca 24 3e
       -0.35042688 0.110745125 0.16591276 0.16092855
000230 ec 3a 77 be 86 ce 8b 3e c6 fe 57 be 4c ad 21 3e
       -0.2414357 0.27306002 -0.21093282 0.15788764
000240 f1 a1 8f 3e 92 fb 17 3c 09 87 72 be 10 92 a8 3e
       0.2805324 0.009276288 -0.23684324 0.32923937
000250 91 82 b1 3e 1d b5 49 3e 72 cb 27 be 48 4c 66 be
       0.34669927 0.19697995 -0.16386202 -0.22490036
000260 23 37 82 be ec 89 41 3e 14 b5 4c 3e c0 13 ce bd
       -0.2543269 0.1890027 0.19990951 -0.10062361
000270 b9 29 13 3e c3 56 b1 3e 35 8c d6 3e 64 b6 0a 3e
       0.14371385 0.34636506 0.41903844 0.13546139
000280 73 bb 74 3e f6 9a 63 be 5b 66 2e 3f 57 f7 f0 bd
       0.23899631 -0.22227082 0.6812493 -0.11765926
000290 37 52 67 be 39 06 3b be 7c 07 15 3e 14 f0 05 3f
       -0.22589956 -0.18264093 0.14553636 0.52319455
0002a0 af 1c 1d 3f 2c 4a 32 be eb 66 2a be 05 de ba 3d
       0.6137189 -0.17411107 -0.16640823 0.09124378
0002b0 25 6e a2 be ce eb 3a 3e e5 35 11 3e b7 13 23 be
       -0.3172466 0.18254015 0.14180715 -0.1592549
0002c0 b0 92 ad be 7a 2f 4c 3e 77 00 95 3d b3 f6 43 3e
       -0.33900976 0.19939986 0.07275479 0.19137077
0002d0 c0 6b 04 be de 3c 62 3e ef 60 72 3e 0f 74 6f 3e
       -0.12931728 0.22093531 0.2366979 0.23384117
0002e0 ca b6 32 bd 0b d6 db bd f6 5c 9d be 4b 27 f9 be
       -0.043631352 -0.10734185 -0.30734986 -0.4866279
0002f0 3d 0e 97 be ac 09 26 3e b0 c2 83 be 55 9c 8a 3d
       -0.2950305 0.16214627 -0.25734472 0.06768099
000300 ec e4 58 be 00 cf b7 3d 6a 0e e6 3e d7 50 96 3e
       -0.21181077 0.08975029 0.44932872 0.2935855
000310 fc 35 70 be b5 9c 99 bd cd a5 3b 3e 50 48 8a be
       -0.23458093 -0.075005926 0.18324967 -0.27008295
000320 17 16 dd 3e 89 0c f7 bd 94 6b 4f be 0d e8 68 bf
       0.43180916 -0.12062938 -0.20255882 -0.9097908
000330 4b d4 9d bd af a0 4a be 71 0c 94 3e 96 0b 04 3e
       -0.07706507 -0.19787858 0.28915742 0.12895045
000340 f1 8d af 3d 27 26 2e 3e c3 6f 7a 3e d4 15 ae 3d
       0.08571995 0.17006741 0.24456696 0.08500257
000350 a8 4a 23 3f c9 cd d4 bd 0e da 4d be c8 cc 2b be
       0.6378579 -0.10390813 -0.20102713 -0.16777337
000360 07 4e 64 3e 9d 8a 22 3e 22 23 64 3e 36 75 5b be
       0.2229539 0.1587319 0.22279027 -0.21431431
000370 af aa b7 3d d1 22 50 be fc 39 06 be f9 99 c3 be
       0.08968102 -0.20325781 -0.13108057 -0.3820341
000380 45 44 94 3f e8 23 1b 3e c3 8f 04 3e c4 c8 1e be
       1.1583334 0.15150416 0.12945466 -0.15506274
000390 60 a6 1a bf 88 bc 45 3e d1 5a a7 bd d1 80 5b 3e
       -0.6041012 0.193102 -0.08171619 0.21435858
0003a0 2e 0a 2d 3e fb e4 51 be 25 67 a1 be ff bb 60 3e
       0.16898414 -0.20497505 -0.31524006 0.21946715
0003b0 2c e2 a5 be 09 a5 86 be 2e f3 66 be 58 82 4b be
       -0.32399118 -0.26297787 -0.22553703 -0.19873941
0003c0 da 58 c5 3f c3 29 0e be 91 e4 94 3e b7 d3 69 be
       1.541774 -0.13883118 0.29080632 -0.22834669
0003d0 38 58 3d 3e 24 39 81 3d a7 b3 d0 3d b3 4e e9 3e
       0.18490684 0.06309727 0.10190516 0.45567855
0003e0 01 28 52 3e 62 e8 41 be c9 24 79 3e b3 e9 95 be
       0.20523073 -0.18936303 0.24330439 -0.2927986
0003f0 19 fb b2 3e 05 c2 9c 3e b4 43 83 be 46 00 a6 3e
       0.34957197 0.30616775 -0.2563759 0.32422084

advantage_stream.weight f4 [20, 256]
000000 35 e9 9c 3d 11 fd e2 bd 99 42 12 be 98 71 81 bd
       0.07661668 -0.11083425 -0.14283217 -0.063204944
000010 50 e4 5d bd 44 bd c8 bd d0 96 37 3d 3a 77 6f 3e
       -0.054172814 -0.098017246 0.04482156 0.23385325
000020 0e 4c 87 be bd fc e1 3b b7 90 c1 3a 3d 96 f7 3d
       -0.26425213 0.006896584 0.001476786 0.120892026
000030 dc 52 6b 3d 43 47 da bc c1 3e d8 bc 85 13 88 3c
       0.057452068 -0.026645308 -0.02639711 0.01661087
000040 0e e7 f8 bd d7 d4 09 bc a6 85 8d bd 60 f5 b0 3e
       -0.12153445 -0.008412561 -0.06910257 0.34562206
000050 c7 b5 12 bd 4f 2b 64 be 04 23 61 be e8 bd 35 3d
       -0.035817888 -0.22282146 -0.21986014 0.04437056
000060 4f a2 b4 bd d0 1c ac 3d 22 e6 06 3d 1f b1 40 bb
       -0.088200204 0.08403933 0.032934316 -0.0029402447
000070 1d fb dc 3b ee d8 63 3d 27 03 be bb 3d e5 00 3e
       0.006743802 0.055626802 -0.0057987156 0.12587447
000080 00 36 26 be 55 19 ad 3c 69 df ff bb 76 cd 44 3d
       -0.16231537 0.021130243 -0.007808615 0.048047505
000090 96 47 2a bd 9d 18 da 3d 18 c0 0c bc a3 97 ae bd
       -0.041572176 0.10649226 -0.008590721 -0.08525016
0000a0 2c fb 79 bd 78 c1 09 bd 13 f9 9a bd 90 66 d7 bc
       -0.06103055 -0.03363177 -0.075670384 -0.026294023
0000b0 dc 2f 7a bd eb ab e8 bc 01 6c 06 3e d5 05 21 bc
       -0.0610808 -0.02840229 0.13127138 -0.009828051
0000c0 55 7b 40 be af 70 2b 3d 72 c2 96 bd f9 1f d8 3c
       -0.18797047 0.04185551 -0.07361306 0.026382433
0000d0 d4 ab 3d 3c 7c 4c a9 3d c1 06 8a 3c 26 8e c0 bc
       0.011576612 0.08266541 0.016848924 -0.023505282
0000e0 1a 44 33 bd 81 79 75 bd 8d 58 fd 3c ed 0f 44 3d
       -0.04376612 -0.05993033 0.030926013 0.04786675
0000f0 32 53 a9 3e 48 a5 54 bd e9 bb c2 bc b6 e8 2d 3d
       0.33071285 -0.051915437 -0.023771243 0.04245826
000100 e5 49 39 3d db 45 95 bd d8 25 35 3e fd 40 a7 bd
       0.045236487 -0.072887145 0.17690217 -0.081666924
000110 bc 19 4a 3b 27 c4 ff 3c 30 bd 07 3d b7 6c fe 3d
       0.0030838093 0.031221462 0.033139408 0.124230795
000120 67 c3 3f bd 7d ec a5 3d a1 0e d2 3c a5 2c 79 bd
       -0.04681721 0.08101747 0.025641741 -0.060833592
000130 aa 77 d3 bd b6 dd bb bc 98 bf 04 3c f1 de 7f bd
       -0.103255585 -0.022932868 0.00810232 -0.062468473
000140 f2 ab e2 bc e4 56 5d ba 7e be 93 3e ea a7 67 3d
       -0.02766988 -0.00084434287 0.28856272 0.05655662
000150 a9 11 f0 bc 6b 76 0f bc 8d fa 6a bd 2c 14 e0 3d
       -0.029305296 -0.00875626 -0.05736785 0.109413475
000160 02 dc 2f 3e c3 89 92 bc cb 8f c9 bb a6 0a 47 be
       0.1717377 -0.017887956 -0.0061511747 -0.19437656
000170 ee 3c 90 bd b4 97 1e 3d 48 cc b8 bd 6d 71 4e bd
       -0.070428714 0.038718894 -0.090233386 -0.05040114
000180 12 fe 80 bd cd 7f 7d 3d 7d 80 e5 3d 2c d6 e6 bd
       -0.0629846 0.06188946 0.11206148 -0.11271319
000190 f9 06 3c 3d 8d 6d b8 3c 77 1a ab 3d 17 f7 23 bd
       0.045905087 0.022513175 0.08354657 -0.040030565
0001a0 2f cf 43 bc 3c 44 d7 bb 46 7b b3 bd 0c d7 55 3d
       -0.011951252 -0.0065694135 -0.08763747 0.052207038
0001b0 3d db 45 3d a5 33 13 3d 7c 6d 54 bc 06 6f fc bc
       0.048304785 0.035937924 -0.012965556 -0.030814659
0001c0 df 69 ba bd b4 c9 01 3e 3b a2 68 bd e7 02 d5 bd
       -0.091022246 0.126746 -0.05679534 -0.10400944
0001d0 f9 66 ad b9 2e c6 14 bd 97 4a 95 bd f6 4b be 3c
       -0.00033073852 -0.03632181 -0.072896175 0.02322958
0001e0 c4 41 fe 3d a9 33 99 3d f0 20 2b 3c 0c 2b d4 bd
       0.124148875 0.074805565 0.010444865 -0.10359773
0001f0 fb 3f a4 bd d8 04 0a 3e ae 16 66 bd f3 59 42 3c
       -0.08020016 0.1347841 -0.056173973 0.011862266
000200 a6 bf 3f 3d 44 a4 e2 3b 85 a5 c0 3c e4 66 0f bd
       0.04681363 0.0069165546 0.023516426 -0.035010234
000210 66 23 60 be 40 f4 20 3e 6e fd c2 bd 85 b6 f0 3c
       -0.21888503 0.15718174 -0.09520994 0.029383907
000220 e6 2c b6 3d 8c 3e 2c 3d 7c e9 10 bd c9 7a ec 3c
       0.088952824 0.042051837 -0.035378918 0.028867142
000230 46 06 24 3d 26 b1 83 bd 15 dc 57 bd d9 f3 d0 3d
       0.040045045 -0.06430273 -0.05270012 0.1020276
000240 2d dd 26 3d 4b 90 6e be 23 1c 27 3d 27 0f b8 3d
       0.040738273 -0.23297231 0.040798318 0.08987265
000250 b6 44 06 3d aa 17 1c bd 7e d6 07 3e 69 1f 81 bb
       0.03278037 -0.038108505 0.13265416 -0.003940512
000260 8f 45 84 3b 5b d4 c3 3d 9c 2c 91 3c 4e fa cf bc
       0.0040366123 0.09561988 0.017721467 -0.02538791
000270 f7 2b 35 3e 10 b7 16 3d 37 71 5b bd e4 e3 bf 3c
       0.17692553 0.036795676 -0.053574767 0.023424096
000280 1a 15 c7 3d fa 9a 20 3c a7 71 a0 3d d3 fd fc 3c
       0.09720822 0.009802574 0.078341775 0.030882752
000290 30 02 31 bd c1 81 1d bd 32 38 87 3b d1 d6 bb 3c
       -0.043214977 -0.03845382 0.004126572 0.02292958
0002a0 b1 23 f3 3c e3 53 52 3d 91 57 3c 3d 75 a9 b4 3d
       0.029680105 0.05134953 0.045981947 0.08821384
0002b0 81 b9 25 3e b2 f5 b3 bd b7 89 0a 3e 88 84 2c bd
       0.16184045 -0.08787097 0.13529097 -0.04211858
0002c0 74 77 49 bd 7f 66 0a be a8 85 c7 3d 16 61 25 3e
       -0.049186185 -0.13515662 0.0974229 0.16150317
0002d0 06 f4 06 3a 13 c6 11 3d c2 8f a1 3d 24 14 92 bd
       0.00051480567 0.03558929 0.07888748 -0.07132748
0002e0 f0 70 93 3d c6 cc 42 3d 1e d6 d3 bd 67 3a 41 3e
       0.071992755 0.04755857 -0.10343574 0.18869935
0002f0 9d 8c d2 bc 22 82 17 bd 81 9b bc bd 6a 11 c9 bc
       -0.025701815 -0.03698934 -0.092093475 -0.024544436
000300 68 25 9f bd ef 03 dd bb d7 df 15 be c0 28 36 bc
       -0.077708066 -0.0067448537 -0.1463617 -0.011118114
000310 23 c2 bf bd 36 0d aa 3d da 7a 01 be d7 85 d5 bd
       -0.093632005 0.08303301 -0.1264452 -0.104259185
000320 73 b3 33 be 64 27 90 3c ab 6b 22 bd b9 13 05 bd
       -0.17548923 0.017596908 -0.03965346 -0.032489512
000330 c9 03 2a 3d 43 9e 53 bc 93 f0 d6 3d c1 a0 2f 3d
       0.041507516 -0.0129161505 0.10495105 0.042877916
000340 3d ad 8e 3c d5 0f 6e 3c db 90 52 3c 0e e3 29 3d
       0.01741659 0.014530142 0.012851919 0.0414763
000350 77 51 16 3e bd fc f2 bc 86 e5 d4 3c f4 d2 b9 bd
       0.14679514 -0.02966153 0.025988352 -0.09073439
000360 c0 55 ca 3d 1b c8 b8 3c 6a e8 15 3e 7b 67 90 bd
       0.09879637 0.022556355 0.1463944 -0.07050987
000370 2a 8f c3 3c 3e 35 83 3c 79 af 0f bd c7 35 21 be
       0.023871977 0.016016599 -0.035079453 -0.1574317
000380 a0 1f 9e 3e 5a 4f d1 bc d6 57 73 bc 12 b5 54 3d
       0.30883503 -0.025550533 -0.014852485 0.051930495
000390 27 99 b8 3d 53 98 40 bd 84 91 91 bd 25 f7 c3 3b
       0.090135865 -0.047020268 -0.07107833 0.0059803897
0003a0 bf 58 df 3d 69 43 24 bd 95 68 cf b9 c2 66 58 bc
       0.10905599 -0.04010335 -0.00039560036 -0.013208093
0003b0 c5 65 93 3d 21 dc 77 3d b7 c3 dc bc a8 19 b6 bd
       0.071971454 0.060512666 -0.026948793 -0.08891612
0003c0 39 16 89 bd 18 06 a5 bc be 68 eb 3d 77 c1 c4 bd
       -0.06693692 -0.020144507 0.11494587 -0.09607213
0003d0 e3 50 80 bc 43 48 65 bc 35 1f a2 bd cf d2 ea 3d
       -0.01566357 -0.013994279 -0.079161085 0.1146599
0003e0 fc 6b 4c 3b 05 c1 d5 bd c3 68 51 3d 4f 03 5b 3d
       0.0031192293 -0.10437206 0.0511253 0.053469952
0003f0 ec 40 06 bd 33 00 85 3d 3b 57 b1 bc 23 ed ef bc
       -0.032776758 0.064941786 -0.02164804 -0.02928788

advantage_stream.bias f4 [20]
000000 45 69 35 3e 60 3e 66 be 6e 7c 32 3e 6d 12 d4 3e
       0.17715938 -0.22484732 0.17430279 0.41420308
000010 3d be 9a 3e bd cd cc 3e 6e c2 84 3e c0 dc 02 3e
       0.30223265 0.40000716 0.25929588 0.12779522
000020 9c e9 c0 3e 95 a7 e9 3d 53 aa d9 bd 49 5b 0b be
       0.3767823 0.11408917 -0.1062819 -0.13609041
000030 32 8d 3d 3d 6c 4d 9a bd 3a 6c 8a 3d 0a 85 ac bc
       0.046277232 -0.07534298 0.06758924 -0.021059532
000040 c5 f8 4c bd 6d d0 9a bb 14 da 90 3e 4c 63 9a bf
       -0.050041933 -0.0047245533 0.2829138 -1.2061553
