src/weights/random_training_5/weights/episode_1200.pth (torch, 307516 bytes, 7 tensors)

layers.0.weight f4 [256, 18]
0	0x3d885f4f	0.06658804
1	0xbead9e76	-0.3390996
2	0xbdb437a1	-0.08799673
3	0xbb775722	-0.0037741144
4	0xbd829354	-0.06375757
5	0xbbf1133c	-0.0073570292
6	0x3eb04ce6	0.3443367
7	0x3f799356	0.9749044
8	0x3e530c27	0.20610105
9	0xbc942774	-0.018085219
10	0x3d948715	0.07252327
11	0xbb564c57	-0.003269931
12	0x3f514164	0.81740403
13	0xbebb477e	-0.36577982
14	0x3f6f06af	0.93369573
15	0xbec6a20d	-0.3879551
16	0xbfe1b8a4	-1.7634473
17	0x3f6a7082	0.91577923
18	0x3e048996	0.1294311
19	0xbf168cfc	-0.58808875
20	0x3d5cd457	0.05391344
21	0x3d834a76	0.06410687
22	0xbd3ef067	-0.046615984
23	0xbc1c4e02	-0.009540083
24	0x3f97f432	1.1871397
25	0xbefa92ea	-0.48940212
26	0x3cc622e9	0.024186568
27	0x3e0db6a5	0.13839205
28	0xbd3e7dca	-0.04650668
29	0x39b72c83	0.00034937644
30	0xc0029385	-2.0402539
31	0xbf33cdb5	-0.7023576
32	0xbe82b0d6	-0.2552554
33	0xbe0b42c7	-0.13599692
34	0x3f9f8403	1.2462162
35	0x3f844cde	1.0335958
36	0xbef39cdc	-0.47580612
37	0x3ef7793b	0.4833468
38	0xbf16a293	-0.5884182
39	0x3c47464b	0.012162755
40	0xbdc5e730	-0.09663236
41	0xbd5017ad	-0.05080383
42	0x3f052ff0	0.5202627
43	0xbe2b3cf5	-0.16722472
44	0x3ec3e42d	0.38260022
45	0x3d42fee7	0.047606375
46	0x3d1828c5	0.037148256
47	0x3daf55f4	0.08561316
48	0x3f4c69e4	0.79849076
49	0xbf22f2c5	-0.63651687
50	0x3f02f017	0.511476
51	0xbf0d536d	-0.5520542
52	0x3eb5b3aa	0.35488635
53	0x3ef211f9	0.47279337
54	0x3f071c46	0.52777517
55	0x3efab428	0.48965573
56	0xbe726737	-0.23672186
57	0xbd44e5ca	-0.048070706
58	0x3d0f5349	0.034991536
59	0xbdb13c71	-0.086541064
60	0xbdb7abbb	-0.08968302
61	0xbdf141a4	-0.11780098
62	0x3e465289	0.19367422
63	0x3b9d5884	0.0048018117
64	0xbd38581a	-0.045005895
65	0xbaf0db8b	-0.0018375976
66	0xbf122ac0	-0.5709648
67	0xbe439a47	-0.19101821
68	0xbdf94030	-0.12170446
69	0x3d5b56ff	0.053549763
70	0x3c9ddc15	0.019269982
71	0x3ea68bf9	0.32528666
72	0xbd8660f2	-0.065614596
73	0xbde3bcc9	-0.11119992
74	0xbebf4ca8	-0.37363172
75	0xbe1681ec	-0.14697999
76	0x3de3b13e	0.11117791
77	0x3be50208	0.0069887675
78	0xbed16314	-0.40895903
79	0xbd972cae	-0.07381569
80	0xbe53906c	-0.20660561
81	0xbac1cf98	-0.0014786599
82	0x3b9ed774	0.0048474614
83	0x3d621bd6	0.055202328
84	0x3fa40bec	1.2816138
85	0x3e9180a7	0.28418466
86	0x3fc82399	1.5635864
87	0x3e2b1f05	0.16711052
88	0x3f89e4f2	1.0772994
89	0x3f7f4eaf	0.99729437
90	0x3effaeee	0.49938148
91	0xbd164888	-0.036690265
92	0x3dcc9323	0.099890016
93	0x3d39c3c9	0.04535273
94	0xbc8045f1	-0.01565835
95	0xbc2107c0	-0.009828508
96	0x3f326e6c	0.6969974
97	0xbdf900f4	-0.12158385
98	0x3da34d83	0.079737686
99	0x3e747b84	0.23875242
100	0xbe614ab6	-0.22001156
101	0xbbdec061	-0.0067978357
102	0xbfa3ede3	-1.2806972
103	0xbe60dd4a	-0.21959415
104	0xbef7baaa	-0.483846
105	0xbe94b097	-0.29040977
106	0xbc585a14	-0.01320507
107	0xbfdaf11f	-1.7104834
108	0xbe3db856	-0.1852735
109	0xbeb61cd5	-0.35568872
110	0x3da62260	0.08112025
111	0x3d147572	0.036244817
112	0xbd842408	-0.06452185
113	0x3c310f14	0.010806818
114	0x3dfdae35	0.12386743
115	0x3d9460dd	0.07245038
116	0x3e7442dd	0.23853631
117	0x3dd9df18	0.10638255
118	0x3d78f69c	0.06078206
119	0x3d392e63	0.045210253
120	0xbeba0353	-0.3633066
121	0x3fa7da49	1.311349
122	0xbe955044	-0.291628
123	0x3f4fb669	0.8113771
124	0xbf62b6d7	-0.8856024
125	0x3cc81165	0.024422357
126	0x3edcac39	0.43100145
127	0xbfc8b93d	-1.568153
128	0x3e482863	0.19546656
129	0x3c7f3099	0.015575551
130	0xbd99bd70	-0.075068355
131	0xbc94dba8	-0.018171147
132	0xbbd9aaae	-0.006642661
133	0xbbd59c28	-0.0065188594
134	0xbe4e4217	-0.20142399
135	0xbc7932af	-0.015209838
136	0x3d66aec9	0.056319032
137	0xbc993fb0	-0.018707126
138	0xbca3202a	-0.019912798
139	0x3f2e65e6	0.68124235
140	0x3c4027c0	0.011728227
141	0x3da0b889	0.07847697
142	0xc01040c6	-2.2539535
143	0x3e569d86	0.20958528
144	0x3e5b1ec4	0.21398455
145	0xbeb11679	-0.34587458
146	0xbe1bdc41	-0.15220739
147	0x3d937767	0.072005086
148	0x3c98053d	0.018557185
149	0xbd1d28c0	-0.03836894
150	0x3cc39f9e	0.023879822
151	0xbdd2f5ea	-0.10300811
152	0x3e92bea8	0.28661084
153	0x3c2e26d1	0.010629372
154	0x3cb11102	0.021614555
155	0xbc7f2238	-0.015572123
156	0xbf943ab7	-1.1580418
157	0xbc7a9875	-0.015295138
158	0xbf8e986e	-1.1140268
159	0x3e9a7a3b	0.3017138
160	0xc076d4ba	-3.8567338
161	0xbfdd0bde	-1.7269247
162	0x3f0b6758	0.54454565
163	0xbf20c4d9	-0.62800366
164	0x3e58c15d	0.21167512
165	0x3dcbf071	0.0995797
166	0xbd20615f	-0.03915536
167	0xbcfee94e	-0.031117108
168	0xbe965e26	-0.29368705
169	0x3f1e0269	0.6172243
170	0xbdf5d82b	-0.120041214
171	0x3d041ccf	0.032254037
172	0x3d17caf6	0.037058793
173	0x3b04a0bd	0.002023741
174	0x3dd5668e	0.104199514
175	0xbe6ab701	-0.22921373
176	0xbe772ac2	-0.24137405
177	0xbe9651df	-0.29359338
178	0xc051d325	-3.2785122
179	0xbf234ad8	-0.6378608
180	0x3e04debf	0.12975596
181	0x3d909f7c	0.07061669
182	0xbdd0c7ff	-0.10194396
183	0xbd8d204c	-0.06890926
184	0xbbd03b14	-0.006354699
185	0x3bb6c390	0.005577512
186	0x3f2c558e	0.67318046
187	0xbe9ae840	-0.30255318
188	0xbe040bac	-0.12895077
189	0x3c3a6482	0.011376502
190	0xbd301418	-0.042987913
191	0x3d15bd68	0.036557585
192	0xbf4c156a	-0.79720175
193	0xbe35c8b4	-0.17752343
194	0x3e8dde2f	0.27708575
195	0xbec32ce9	-0.381202
196	0x3ef655f2	0.48112446
197	0x402aacc6	2.6667953
198	0xbd4576fe	-0.048209183
199	0xbeb92100	-0.3615799
200	0xbce130e5	-0.027489135
201	0xbbc370fa	-0.0059643956
202	0xbc9968af	-0.018726675
203	0xbbf610a2	-0.007509307
204	0xbef4fc0b	-0.47848544
205	0x3fe411cb	1.781793
206	0xbd5b2477	-0.053501572
207	0x3d866e11	0.06563962
208	0x3e8308a3	0.25592527
209	0xbbd98c97	-0.006639074
210	0x3f1c23ab	0.60991925
211	0x3e2429d7	0.16031586
212	0xbf800287	-1.0000771
213	0xbb0b99d8	-0.0021301415
214	0x3f050246	0.51956594
215	0xbfda7093	-1.7065605
216	0x3e95d86a	0.29266673
217	0xbfcb311d	-1.5874363
218	0xbe3f564b	-0.18685262
219	0x3d0b74ea	0.034047045
220	0xbe577f90	-0.21044755
221	0xbba17c8b	-0.0049281768
222	0xbea9d13a	-0.3316744
223	0x3fc64689	1.5490276
224	0x3fe8a52c	1.8175406
225	0xbd5c7108	-0.053818733
226	0xbc912edb	-0.017722538
227	0x3e170bc3	0.1475058
228	0x3ef9037c	0.4863547
229	0x3f17f1ac	0.59353137
230	0x3e4d572e	0.20052788
231	0x3f5beb6e	0.8590611
232	0xbf7a5f18	-0.9780135
233	0xbb842dd6	-0.0040337844
234	0xbedba3ba	-0.4289835
235	0xbea03ba4	-0.31295502
236	0xbf05bf1b	-0.5224473
237	0xbe142f02	-0.14471057
238	0x39913d6f	0.00027702327
239	0xbcb511a8	-0.022103146
240	0xbe5df3a3	-0.21674971
241	0x3f4263e9	0.759337
242	0xbea00f69	-0.31261757
243	0xbdc97c9c	-0.098382205
244	0x3e1d0e1c	0.15337414
245	0xbe04b5b3	-0.12959938
246	0x3f0ed04c	0.55786586
247	0x3f2f51c0	0.68484116
248	0x3f1286a4	0.57236695
249	0xbde8f01a	-0.11373921
250	0x3e1c70e5	0.15277441
251	0x3f7b72da	0.98222125
252	0x3e67f248	0.22651017
253	0xbd6831a6	-0.056687973
254	0x3e052fce	0.13006517
255	0xbc9ab9b9	-0.018887388

layers.0.bias f4 [256]
0	0xbfa57d91	-1.2928945
1	0x3f40c680	0.75302887
2	0x401e63db	2.4748447
3	0x3f1c2f80	0.6100998
4	0x3f8d4005	1.1035162
5	0xbfbabb19	-1.4588348
6	0x3f5267d7	0.821897
7	0xbfb916e4	-1.4460111
8	0xbf483b33	-0.7821533
9	0xc02460aa	-2.5684
10	0x40865828	4.1982613
11	0xbf1a0fa3	-0.6018011
12	0x3fe37be3	1.7772182
13	0x3f60fcf0	0.8788595
14	0xbfee034e	-1.8594759
15	0x3f9fa927	1.2473496
16	0xbd96f0a5	-0.07370118
17	0x404a6ae3	3.1627738
18	0xc00713e3	-2.1105888
19	0xbfe687f6	-1.8010242
20	0x401d67f2	2.4594693
21	0x3c43701f	0.011928587
22	0xbf6f7cc7	-0.9354977
23	0x4065a686	3.5882888
24	0xc01bd457	-2.4348352
25	0x401e99dd	2.478141
26	0x3f1c88df	0.6114635
27	0xbf3ffba5	-0.74993354
28	0x401bd438	2.4348278
29	0x3f2c7da5	0.6737922
30	0x3fa8f73a	1.3200448
31	0x403eb860	2.9800034
32	0xbf8f2a8d	-1.118486
33	0x3df3a194	0.11896053
34	0xbfa84839	-1.3147041
35	0x402f7572	2.7415433
36	0xc0387fc5	-2.8827984
37	0x3f6b42c2	0.9189874
38	0xbfe12353	-1.7588905
39	0x3cc2dae7	0.023786021
40	0xbfaf9e27	-1.3720139
41	0x3f81a279	1.0127708
42	0xbee9d533	-0.4567047
43	0xbeffe11c	-0.49976432
44	0xc0286567	-2.631189
45	0xbfe7b72d	-1.8102776
46	0xbff95535	-1.9479128
47	0x3f69543f	0.91144174
48	0x3fddae70	1.7318859
49	0x3ed881b4	0.42286456
50	0xbd921ded	-0.07134614
51	0xbfab44af	-1.3380336
52	0x3fb2b1f8	1.3960562
53	0xbece4074	-0.4028355
54	0x4028f1db	2.6397617
55	0xbfa94b7b	-1.322616
56	0x3f2586a3	0.64658564
57	0x4018b4c3	2.3860328
58	0x3ffc5a91	1.9715139
59	0x4036d2a8	2.8566074
60	0x3f8e5bdf	1.1121787
61	0xc025feaf	-2.5936697
62	0x3f936edd	1.1518208
63	0x40268604	2.6019297
64	0xc0238484	-2.554963
65	0x3eb0a525	0.34500995
66	0xbf79c126	-0.97560346
67	0x40350d96	2.8289542
68	0x405724d5	3.361623
69	0xbe813022	-0.25232035
70	0x3e556b7d	0.20841785
71	0xbf4c6a51	-0.79849726
72	0x3db19b6e	0.08672224
73	0xbe87985b	-0.26483425
74	0x3fb99d6c	1.4501166
75	0x3fa8e02e	1.3193414
76	0xbfbe3af3	-1.486174
77	0x3fa1e2fe	1.2647398
78	0xbfbaf6a4	-1.4606519
79	0x4031c3c9	2.7775748
80	0xbf8edd71	-1.1161329
81	0xbf9833f5	-1.1890856
82	0x402512c2	2.57927
83	0xbf0fe37f	-0.56206506
84	0x407d91e2	3.962029
85	0x406db6d8	3.714285
86	0x3e490a5a	0.19632855
87	0x3f7ef80b	0.99597234
88	0x400212e8	2.032404
89	0x3eb26d94	0.34849226
90	0x3e821a9d	0.2541093
91	0x3ea68f49	0.32531193
92	0x3f0e6c2c	0.5563381
93	0x3faf8f8b	1.3715681
94	0x3fcccb6e	1.5999582
95	0x40449d5c	3.0721045
96	0x3fedc285	1.8574988
97	0xbf0818aa	-0.53162634
98	0xc01e971a	-2.4779725
99	0x3fb3689b	1.4016298
100	0x3f8b6226	1.0889328
101	0x4034694c	2.8189268
102	0xbe95cbee	-0.29257149
103	0x3f98b742	1.1930926
104	0xbf53fd3b	-0.82808274
105	0xbe27c7b3	-0.16384773
106	0xbe7ef1d0	-0.24896932
107	0xbf53566c	-0.82553744
108	0x404abafe	3.167663
109	0xbf77f6bd	-0.9686087
110	0xbfd199cc	-1.637506
111	0xc002576c	-2.0365858
112	0x3e0814e9	0.13289227
113	0x3f9b1378	1.2115316
114	0xbfdbfa27	-1.7185715
115	0x3fd5944f	1.6685885
116	0x3f1cff9b	0.61327523
117	0xc006dfdc	-2.1074133
118	0x400b9e2e	2.1815295
119	0x3daccd30	0.08437574
120	0xbe01475b	-0.12624876
121	0x3f9d3e35	1.2284609
122	0xbecf044a	-0.4043296
123	0x3ef09388	0.46987557
124	0xbfa2b912	-1.2712729
125	0x3f3188b3	0.6934921
126	0x3f9f7993	1.2458977
127	0x3f4b0443	0.7930338
128	0x3dbfa463	0.09357526
129	0xc04003c1	-3.0002291
130	0xbef1a205	-0.47193924
131	0x3f25fee7	0.64842075
132	0x40822033	4.0664306
133	0xc0489220	-3.1339188
134	0x3f6fb406	0.9363407
135	0x3fdd4988	1.7288065
136	0xbffbda21	-1.9675943
137	0x3fbcc891	1.4748708
138	0xbf1e05e6	-0.6172775
139	0xbe012a03	-0.12613682
140	0xbf852519	-1.0401946
141	0x40348b9b	2.8210208
142	0x40359fd6	2.8378806
143	0xbf59f293	-0.85135764
144	0xbe65b2c8	-0.22431481
145	0x401c2c1e	2.4401927
146	0xbfd9c6d4	-1.7013803
147	0x3b97edba	0.0046364935
148	0x3f5f3264	0.87186265
149	0x40070d52	2.110188
150	0x4008eae1	2.1393359
151	0x4003468c	2.0511808
152	0xc0215f7c	-2.521453
153	0xbeeb4259	-0.45949057
154	0xbeae7b87	-0.3407862
155	0xc00bcc95	-2.1843617
156	0xbe591a10	-0.21201348
157	0x3fbf6b1e	1.4954565
158	0x402d6ce9	2.7097723
159	0xc026a80a	-2.6040063
160	0x3f9a9b9c	1.2078738
161	0x402782a4	2.6173487
162	0x3dc502a7	0.096196465
163	0xbf887ded	-1.066343
164	0xbf6f9a04	-0.93594384
165	0xbfd6e37c	-1.6788173
166	0x40255f9d	2.5839608
167	0x3fae5111	1.361849
168	0xbe8fd700	-0.2809372
169	0x400e72f4	2.2257662
170	0x4009d613	2.153691
171	0x3f9fcc84	1.2484288
172	0xbfef5260	-1.8697014
173	0x3f9b97bb	1.215568
174	0x3f864838	1.049079
175	0xbf85bb20	-1.0447731
176	0x3e814b47	0.25252745
177	0x3ea74568	0.3267014
178	0x3ec16cad	0.37778226
179	0x4027a488	2.6194172
180	0x405f714b	3.4912899
181	0xbfa0466d	-1.2521492
182	0x400481d7	2.0704248
183	0x400438d3	2.0659683
184	0xbf19eb7a	-0.60124934
185	0xbea48258	-0.32130694
186	0xc00db7be	-2.2143397
187	0x3f319bfb	0.6937863
188	0x3faa15cc	1.3287902
189	0xbe87e45a	-0.26541406
190	0xc03ffdcc	-2.9998655
191	0xbf37cd60	-0.7179775
192	0x3fd5022b	1.6641287
193	0x3ff7fcb8	1.9373999
194	0xbf827117	-1.0190762
195	0x3f39615c	0.72414184
196	0xc0007bd6	-2.0075583
197	0x3f42a2a9	0.7602945
198	0xbf801fae	-1.0009668
199	0x400d3622	2.206429
200	0x40056921	2.0845416
201	0x3fd4ffc4	1.6640553
202	0xbf55ea9a	-0.835611
203	0x3ec6abe3	0.38803014
204	0x3fa78b01	1.3089296
205	0xbea58a74	-0.32332194
206	0xbfc6b359	-1.5523483
207	0xc00fce2d	-2.246959
208	0x3f1d3924	0.61415315
209	0xbead4689	-0.33842877
210	0x3fee6867	1.8625611
211	0xbf3bbcca	-0.73334944
212	0x3ee766ac	0.4519552
213	0xbe99b732	-0.3002258
214	0xbfe999d1	-1.8250066
215	0xbea5acbb	-0.32358345
216	0x3ec40242	0.38282973
217	0x3f70a171	0.9399634
218	0xbfd20f72	-1.6410964
219	0xbf43da4a	-0.7650496
220	0xc00c2d8a	-2.1902795
221	0xbfc2779a	-1.519275
222	0x3f8b8d5f	1.0902518
223	0xbe59f490	-0.212847
224	0x3f460d9d	0.7736452
225	0x3f9b8582	1.2150118
226	0x3fb3a5d3	1.403498
227	0x3fb370b3	1.4018768
228	0xc030afcc	-2.7607298
229	0x40078523	2.117501
230	0x3fb9e4a0	1.4522896
231	0x3fcbabc0	1.5911789
232	0xbef5ab44	-0.47982228
233	0x405285fc	3.2894278
234	0x3e51e803	0.20498662
235	0x3f3500b2	0.70704186
236	0xbfcb87c4	-1.5900807
237	0xc02c3a1e	-2.6910472
238	0xbffef8cb	-1.9919676
239	0x3f9dbc64	1.2323117
240	0xbfe93266	-1.8218505
241	0xbebb7fb6	-0.36620873
242	0x3f80d45f	1.006481
243	0xbfe259f3	-1.76837
244	0x3ff59845	1.9187094
245	0xbfc47a16	-1.5349758
246	0xbf4c811c	-0.79884505
247	0x3fc7ac1b	1.5599397
248	0xbfea4139	-1.8301154
249	0xbf29f83e	-0.6639441
250	0xc0165278	-2.3487835
251	0x3f7cd3d2	0.9876071
252	0x3d14504f	0.0362094
253	0x3ee3518e	0.4439816
254	0x402b4b44	2.6764688
255	0xbfb32e82	-1.3998568

layers.1.weight f4 [256, 256]
0	0x3fa84ea3	1.3148998
1	0xbe0f8633	-0.14016037
2	0xbcca9ef4	-0.024733998
3	0xbdf5a0aa	-0.11993535
4	0xbe5d141b	-0.21589701
5	0xbf0d8a45	-0.5528911
6	0xbe1e5730	-0.15462947
7	0xbf096b9b	-0.5367982
8	0x3f8493e8	1.0357637
9	0xbe8503e9	-0.25979546
10	0xbe3b2bed	-0.18278475
11	0x3d54ac82	0.05192233
12	0x3ec2d338	0.38051772
13	0xbf4383dd	-0.7637308
14	0x3ef85eb1	0.48509744
15	0xbe5f798a	-0.21823707
16	0x3f9e322d	1.2359062
17	0x3fa91113	1.3208336
18	0x3e2576c6	0.1615859
19	0x3fae5107	1.3618478
20	0x3e9be4ca	0.3044799
21	0xbea65724	-0.32488358
22	0x3f8dd677	1.1081074
23	0xbe69465a	-0.22780743
24	0xbebfe5a7	-0.37479898
25	0xbde44bb4	-0.11147252
26	0x3dfda666	0.123852536
27	0xbdb2cf45	-0.0873094
28	0xbe746b06	-0.23868951
29	0xbe2b2844	-0.16714579
30	0x3f0fef2e	0.56224334
31	0xbef43381	-0.47695544
32	0x3e2d2854	0.16909915
33	0x3ec54cc0	0.38535118
34	0x3e77fcae	0.24217483
35	0xbe6ce825	-0.23135431
36	0xbe886bdb	-0.26644787
37	0x3f959885	1.168717
38	0x3f248b9a	0.64275515
39	0xbd0288b1	-0.03186864
40	0xbefe0406	-0.49612445
41	0xbe84dc5e	-0.25949377
42	0xbf020a10	-0.50796604
43	0xbf187359	-0.59551007
44	0x3fa6aea3	1.3022045
45	0xbdea069e	-0.114270434
46	0xbf22030d	-0.63285905
47	0xbe9e998e	-0.30976528
48	0x3f16bef7	0.5888514
49	0xbe40a2fa	-0.1881217
50	0x3e46599f	0.19370125
51	0xbf790424	-0.97271943
52	0x3e9c4cb8	0.30527282
53	0xbf14706a	-0.5798403
54	0xbf5f51e8	-0.87234354
55	0xbd19fb4c	-0.03759317
56	0xbe69b5ae	-0.22823212
57	0x3eb5e51f	0.35526368
58	0xbf7fac97	-0.99872726
59	0xbf6a4b6d	-0.9152134
60	0xbe121dfe	-0.14269254
61	0xbd7b63aa	-0.061374344
62	0xbf01e931	-0.50746447
63	0x3f949f84	1.161118
64	0x3f853062	1.040539
65	0xbee91fb6	-0.45532006
66	0x3efc074e	0.49224323
67	0x3fb7b9b9	1.4353553
68	0x3e9a642e	0.30154556
69	0x3f2f8d85	0.68575317
70	0x3e8f9f26	0.28051108
71	0x3ed804cc	0.4219116
72	0xbf18e882	-0.5972978
73	0x3dd61763	0.104536794
74	0x3f4fe0aa	0.81202185
75	0xbe9ae87b	-0.30255494
76	0x3f83785f	1.0271109
77	0x3cdd78c4	0.027035125
78	0x3bbdc123	0.005790846
79	0x3f91a8d5	1.1379648
80	0xbe3ad9db	-0.18247168
81	0x3f5e1942	0.8675729
82	0x3f1b13ab	0.60576886
83	0x3e895630	0.26823568
84	0xbfab0223	-1.3360027
85	0xbe9315ec	-0.28727663
86	0xbea9bfca	-0.33154136
87	0xbe3fd501	-0.18733598
88	0xbfb1a93f	-1.3879775
89	0xbce733bd	-0.028222913
90	0xbe75a8e3	-0.23990206
91	0xbf190c1e	-0.59784114
92	0xbf87512e	-1.0571649
93	0x3e08603b	0.13317959
94	0x3f01eacd	0.507489
95	0x3ee8197b	0.4533194
96	0xbe140b56	-0.1445745
97	0x3e37e7e0	0.17959547
98	0x3f7834a1	0.96955305
99	0x3f20b6e4	0.6277907
100	0xbcaeffce	-0.021362212
101	0x3f44e16d	0.7690647
102	0x3bb6ee66	0.0055826185
103	0x3e69ae0a	0.22820297
104	0xbea222c5	-0.31667152
105	0xbf06a2bc	-0.5259206
106	0x3f177377	0.5916056
107	0xbef6338a	-0.48086196
108	0xbe915de9	-0.2839196
109	0x3ee41c4a	0.44552833
110	0x3ef385ae	0.47562927
111	0xbe94fbe0	-0.29098415
112	0x3e9092ca	0.2823699
113	0xbed69548	-0.41910768
114	0xbc483e4e	-0.012221886
115	0x3e84669f	0.25859544
116	0x400043ee	2.004146
117	0x3e0ef2ba	0.1395978
118	0x3ee8681f	0.45391938
119	0x3ee5aa27	0.44856378
120	0xbdaa487d	-0.08314607
121	0xbe868236	-0.26271218
122	0x3d1937da	0.03740678
123	0xbe03fc27	-0.12889157
124	0x3fdc66ce	1.7218874
125	0xbdc0e85a	-0.094193175
126	0xbe911df0	-0.28343153
127	0xbdb4685e	-0.08808969
128	0xbf037741	-0.5135384
129	0x3eb41e2e	0.35179275
130	0xbf0b6064	-0.54443955
131	0x3f25fa98	0.648355
132	0x3ee4ee8f	0.44713256
133	0x3f034f03	0.5129244
134	0x3e59cd36	0.21269688
135	0x3dfab2e8	0.12241155
136	0x3f866068	1.0498171
137	0x3e9992a4	0.2999469
138	0xbf24ea5b	-0.644201
139	0x3f1a2cc9	0.60224587
140	0x3dc467bb	0.095900975
141	0x3f7129fe	0.942047
142	0xbf099f5b	-0.5375878
143	0xbe3625fc	-0.17787927
144	0x3de6d733	0.11271515
145	0xbe3772ea	-0.1791493
146	0xbe951cfe	-0.29123682
147	0xbd148b31	-0.036265556
148	0xbf159219	-0.5842605
149	0xbf9a4920	-1.2053566
150	0xbf61b9c2	-0.8817407
151	0x3f70c11a	0.9404465
152	0xbe918c68	-0.28427434
153	0x3fa82e0e	1.3139055
154	0xbc39146b	-0.011296372
155	0xbdee8017	-0.11645525
156	0xbf00357d	-0.50081617
157	0x3bb96e90	0.005658932
158	0xbf026ccb	-0.50947255
159	0x3f82bee5	1.0214506
160	0xbf00aa1c	-0.50259566
161	0x3f0f475e	0.5596827
162	0x3ed9d2b0	0.42543554
163	0x3deefaec	0.11668953
164	0xbea31fe9	-0.31860283
165	0x3f0212db	0.5081002
166	0x3f4274aa	0.75959265
167	0xbf85e5d7	-1.0460767
168	0xbf39a6b8	-0.7252002
169	0x3f0a7c2c	0.5409572
170	0xbe7db924	-0.24777657
171	0x3e8ef707	0.27922842
172	0x3f225c8c	0.63422465
173	0x3d4d6263	0.050142657
174	0x3ea8f174	0.32996714
175	0xbf670d19	-0.9025436
176	0x3cbf1f1b	0.023330262
177	0x3f73c947	0.95229
178	0x3b6d48cd	0.0036206723
179	0xbebb3c2b	-0.36569342
180	0x3d1e3df1	0.03863329
181	0x3e1a5c12	0.15074185
182	0x3efc2ac3	0.49251375
183	0xbf043c66	-0.5165466
184	0x3f29d62b	0.6634242
185	0x3ed9abcf	0.42513892
186	0x3ed4875a	0.41509515
187	0xbe909bdd	-0.28243914
188	0xbeb45b98	-0.3522613
189	0x3ed1bf68	0.40966344
190	0xbe4e624a	-0.20154682
191	0x3f034b13	0.5128643
192	0x3da532d1	0.08066333
193	0x3e87c454	0.26516974
194	0xbf8b3ec0	-1.0878525
195	0xbec51050	-0.38489008
196	0xbeb27ee4	-0.34862435
197	0xbea6c284	-0.3257028
198	0x3f951dbc	1.1649699
199	0xc014c291	-2.3243754
200	0xbe0cf014	-0.13763458
201	0x3ccb02be	0.024781581
202	0xbe2ee288	-0.17078602
203	0xbf8c37d5	-1.0954539
204	0x3f2ccc02	0.6749879
205	0xbce292af	-0.027657835
206	0xbfe4fb1f	-1.7889136
207	0x3f0dd528	0.55403376
208	0x3f4ef8f1	0.80848604
209	0x3cc69685	0.024241695
210	0x3e116ecb	0.1420242
211	0xbe99f94c	-0.3007301
212	0xbe5c540a	-0.21516433
213	0xbecc5f8a	-0.3991664
214	0x3f1428cc	0.5787475
215	0x3f369d19	0.7133346
216	0x3eca8a21	0.3955851
217	0x3f3836e4	0.71958756
218	0x3ea8fadf	0.330039
219	0x3e59c31b	0.21265833
220	0xbe082c2e	-0.13298103
221	0xbd0cd600	-0.034383774
222	0x3f07e7a8	0.53087854
223	0x3d5ac907	0.05341437
224	0x3f261fa7	0.6489205
225	0x3d595cf4	0.053067163
226	0x3f2bf656	0.67172754
227	0xbd8ee757	-0.06977718
228	0xbf1bc628	-0.6084924
229	0x3f1efbbd	0.6210287
230	0x3de74886	0.112931296
231	0x3e553f3a	0.208249
232	0x3e3efdc4	0.18651491
233	0x3ee94e6b	0.4556764
234	0xbef2c60f	-0.47416732
235	0x3d42e439	0.04758093
236	0x3f96c186	1.1777809
237	0x3eddb505	0.4330217
238	0x3f107bf7	0.56439155
239	0x3f3925e6	0.72323453
240	0x3d454499	0.048161123
241	0xbe834e9b	-0.2564591
242	0xbf3fe339	-0.7495609
243	0xbfa96016	-1.3232448
244	0x3f4f1d9d	0.8090456
245	0xbe080aaf	-0.13285325
246	0x3f81c783	1.0139011
247	0x3db68700	0.08912468
248	0x3e9adf29	0.30248383
249	0x3f2f000c	0.68359447
250	0xbf310a22	-0.69156086
251	0x3e0889a6	0.13333759
252	0x3e3b291e	0.18277404
253	0xbe11a67b	-0.14223664
254	0x3e8ce89e	0.27521223
255	0xbf348083	-0.70508593

layers.1.bias f4 [256]
0	0x3f09ce59	0.53830487
1	0x3e083881	0.13302805
2	0x3f3df0db	0.7419564
3	0x3f3dfbd2	0.7421237
4	0x3e86bc1e	0.26315397
5	0xbe675f9c	-0.22595066
6	0x3f4441d5	0.7666295
7	0x3d83be6a	0.06432803
8	0xbec4e831	-0.38458398
9	0x3ef60a48	0.4805472
10	0xbf3d74f3	-0.74006575
11	0x3d188e08	0.037244827
12	0xbea756b7	-0.32683346
13	0x3f5a78d5	0.85340625
14	0x3e09110e	0.13385412
15	0x3efc3a90	0.4926343
16	0xbf6f7bb5	-0.93548137
17	0xbe71a02b	-0.23596255
18	0x3f16b194	0.5886471
19	0xbe9c8cb7	-0.30576107
20	0x3ee3c4cb	0.4448608
21	0x3df0c2e2	0.11755921
22	0xbfc14d26	-1.5101669
23	0x3d9beaa7	0.07613116
24	0xbf73bb61	-0.9520779
25	0xbf0f68bc	-0.56019187
26	0xbf4cc922	-0.79994404
27	0x3e4e2c69	0.20134129
28	0x3f67846b	0.9043643
29	0x3f80207c	1.0009913
30	0x3fa57817	1.2927274
31	0x3f430a3a	0.7618748
32	0x3e83de87	0.25755712
33	0xbf267abc	-0.6503103
34	0xbf40f6cd	-0.7537659
35	0x3e46ef6d	0.19427271
36	0x3f8e138c	1.1099715
37	0x3faf2ed1	1.3686162
38	0xbf381577	-0.7190775
39	0xbee5c845	-0.44879356
40	0xbb862e52	-0.0040948773
41	0x3ec8b934	0.392038
42	0xbf8c5052	-1.0962012
43	0xbf6a5855	-0.91541034
44	0x3ee3dd87	0.4450495
45	0x3f8f715e	1.1206472
46	0x3eb13593	0.34611186
47	0x3ed4001c	0.41406333
48	0x3e54ff25	0.20800455
49	0x3e97edda	0.29673654
50	0xbefd6e24	-0.49498093
51	0x3e77c49c	0.24196094
52	0x3f07482f	0.5284452
53	0xbf149931	-0.5804625
54	0x3f2b00a6	0.66797864
55	0xbfc78a93	-1.5589164
56	0xbe3afd1b	-0.18260615
57	0xbf1c1c17	-0.6098036
58	0x3dc137e5	0.09434489
59	0xbe25bd2d	-0.16185446
60	0x3e3a163b	0.18172543
61	0x3fd6cf57	1.6782025
62	0x3f6b8318	0.9199691
63	0x3f7f6926	0.9976982
64	0xbf40d862	-0.75330174
65	0xbebd99fa	-0.37031537
66	0xbf2ec5be	-0.6827048
67	0xbf637968	-0.88857126
68	0x3f254994	0.64565396
69	0x3eccde1c	0.40013206
70	0xbf96bec5	-1.1776968
71	0x3ec22a3d	0.3792285
72	0xbdc46a8c	-0.09590635
73	0x3f25598c	0.6458976
74	0x3d754440	0.05987954
75	0x3e9b849e	0.30374616
76	0x3f13fad7	0.57804626
77	0x3e471ad1	0.19443823
78	0xbf7e931c	-0.9944322
79	0xbf7cf34c	-0.9880874
80	0xbe8c01f0	-0.27345228
81	0xbfa7a9dd	-1.3098713
82	0x3f71d872	0.94470894
83	0xbecc9030	-0.39953756
84	0xbf086538	-0.5327945
85	0x3ec54e6e	0.385364
86	0xbee834cc	-0.4535278
87	0x3f4b8ef0	0.7951498
88	0xbf141541	-0.5784493
89	0x3f702326	0.9380363
90	0x3e9977f9	0.29974344
91	0x3f154430	0.5830717
92	0x3c86cb9f	0.016454516
93	0xbe9d9f09	-0.30785397
94	0xbea900d9	-0.3300846
95	0xbe5e5da4	-0.21715409
96	0xbe831ced	-0.25608006
97	0xbebf9dcd	-0.3742508
98	0xbf5cfe42	-0.86325467
99	0xbdd22c9e	-0.10262416
100	0xbf9e818b	-1.2383283
101	0xbe5a57b0	-0.21322513
102	0x3e8b7e34	0.27244723
103	0xbfa2b0e7	-1.2710236
104	0xbf99358a	-1.1969464
105	0x3f41d896	0.7572111
106	0x3e924207	0.28566
107	0xbe8c049b	-0.27347264
108	0x3faaf7f9	1.3356925
109	0xbfdec57d	-1.7404019
110	0xbe8c6fe2	-0.2742911
111	0x3ef98b42	0.48739058
112	0xbfc672d6	-1.5503795
113	0x3e7c17d7	0.24618469
114	0x3e7e86b4	0.24856073
115	0x3ff1d480	1.8892975
116	0x3e597116	0.21234545
117	0xbed7c470	-0.42142057
118	0x3eed8a4d	0.46394578
119	0xbe6bc5a1	-0.23024608
120	0xbe8282f2	-0.25490528
121	0x3e6830d7	0.22674881
122	0x3dea41c7	0.11438327
123	0x3de8e49c	0.11371729
124	0x3f6a93e5	0.9163192
125	0x3f9b5a48	1.2136927
126	0x3fc1499f	1.5100592
127	0x3f228c18	0.63495016
128	0x3f5d0072	0.86328804
129	0xbc5988b4	-0.0132772215
130	0xbe864e4b	-0.26231608
131	0x3f90eb1a	1.1321747
132	0xbe6f581d	-0.23373456
133	0xbe2e5ed6	-0.17028365
134	0x3f59868b	0.8497092
135	0xbe03d490	-0.12874055
136	0xbf0ebb0e	-0.5575417
137	0x3f6624d9	0.89899975
138	0x3f59d8d4	0.8509648
139	0x3f912d1d	1.1341892
140	0xbf93eaa2	-1.1555979
141	0xbf0fae74	-0.5612557
142	0xbf66c72e	-0.90147674
143	0xbf57cc61	-0.8429623
144	0x3f32a909	0.6978918
145	0x3d2a69d6	0.04160484
146	0x3f25a359	0.64702374
147	0x3e5a264e	0.21303675
148	0x3f8f08ae	1.1174524
149	0xbf7db196	-0.990991
150	0xbed36667	-0.41289064
151	0xbf9ece18	-1.2406645
152	0xbe887a58	-0.2665584
153	0x3e406133	0.18787079
154	0xbf428085	-0.75977355
155	0xbd19c619	-0.037542436
156	0x3eb50408	0.35354638
157	0x3f5bfbaa	0.85930884
158	0x3f33d699	0.70249325
159	0xbf9dc3a5	-1.2325331
160	0xbf02595a	-0.5091759
161	0x3fa8ffe4	1.3203092
162	0x3f4a4b2d	0.7902096
163	0xbe9c468c	-0.30522573
164	0x3f145d33	0.5795471
165	0x3ec65564	0.38737023
166	0x3f876300	1.0577087
167	0xbf7f5d42	-0.99751675
168	0x3f48b312	0.7839824
169	0xbeb3e42b	-0.35135016
170	0xbf87a0df	-1.0595969
171	0xbe943f47	-0.28954527
172	0x3f4b5340	0.79423904
173	0x3f8a398d	1.0798813
174	0x3f96a2e0	1.1768456
175	0xbf81036b	-1.0079168
176	0x3e2bf195	0.16791375
177	0xbe17bfef	-0.1481931
178	0xbfc2cbb2	-1.5218413
179	0xbfa3de3b	-1.2802194
180	0xbcdf0c1b	-0.027227452
181	0xbf4bb617	-0.7957472
182	0xbf9ea956	-1.2395427
183	0xbdbbc340	-0.091681
184	0x3f3b8a6e	0.732581
185	0x3ec5f4be	0.38663286
186	0x3f7c3868	0.9852357
187	0x3e5723fc	0.2100982
188	0x3f999933	1.1999878
189	0x3ef41d29	0.47678497
190	0xbf8cf4af	-1.1012172
191	0xbefd9c51	-0.49533322
192	0x3f13bcfb	0.57710236
193	0x3f48f63d	0.7850073
194	0xbf8f8178	-1.1211386
195	0xbe6da128	-0.23206007
196	0xbe128346	-0.1430789
197	0x3e8f3be7	0.2797539
198	0x3d523a04	0.05132486
199	0x3e3214a8	0.17390692
200	0x3faf87ef	1.3713359
201	0xbfd95155	-1.6977946
202	0xbe5f29a1	-0.21793224
203	0xbf0077d6	-0.50182855
204	0x3e96ef4f	0.29479453
205	0xbed6dcb8	-0.4196527
206	0x3ed0e9d7	0.40803406
207	0x3fcad60d	1.5846573
208	0x3e9594bc	0.29215038
209	0xbdf54e40	-0.11977816
210	0x3efe1e1c	0.49632347
211	0x3ed63712	0.4183889
212	0x3dbbe020	0.09173608
213	0x3e7d439c	0.24732822
214	0x3e2df803	0.1698914
215	0xbf58c43b	-0.84674424
216	0xbea0b724	-0.31389725
217	0x3e832f57	0.25622055
218	0x3e1355ff	0.14388274
219	0xbf5103a9	-0.8164621
220	0xbf05eddc	-0.5231607
221	0x3be4c8c3	0.0069819405
222	0xbf752b72	-0.9576942
223	0x3c951644	0.018199094
224	0x3f2674b9	0.65021855
225	0x3f444059	0.76660687
226	0x3f8ed2a7	1.1158036
227	0xbf833421	-1.0250283
228	0xbf6742e2	-0.9033643
229	0xbef52b37	-0.47884533
230	0x3f04d1a6	0.518824
231	0xbfaf5c07	-1.369996
232	0xbecdcced	-0.40195408
233	0x3fcfec71	1.6244031
234	0x3f60906e	0.8772038
235	0x3e66a3db	0.22523443
236	0xbeec0dd4	-0.461043
237	0x3f0e3f20	0.5556507
238	0x3de4f24f	0.11179029
239	0xbe8df57f	-0.2772636
240	0xbec1d45a	-0.37857324
241	0x3dfa2099	0.12213249
242	0x3e0a397a	0.13498488
243	0xbf7d14aa	-0.98859656
244	0xbe9babb6	-0.30404443
245	0xbecba0c1	-0.39771083
246	0xbe06aa78	-0.13150966
247	0xbed83f62	-0.42235857
248	0x3edbb3c9	0.42910603
249	0xbf87fc11	-1.06238
250	0x3f0f641a	0.5601212
251	0xbf44088e	-0.76575553
252	0x3ea2f53a	0.31827718
253	0x3de8070b	0.11329468
254	0xbead25f3	-0.33818015
255	0xbf0460e8	-0.5171037

value_stream.weight f4 [1, 256]
0	0x3e169094	0.1470359
1	0xbd9ce2be	-0.07660435
2	0x3e6a1ed4	0.22863322
3	0x3e7e8461	0.24855186
4	0x3f14ed4b	0.5817458
5	0xbeac1b53	-0.33614597
6	0xbeaec316	-0.34133214
7	0x3e9bf1ee	0.30458015
8	0xbee18532	-0.44046932
9	0xbe5d4133	-0.21606903
10	0xbe4caf4d	-0.19988747
11	0x3e50d8bc	0.20395178
12	0xbebbed0a	-0.36704284
13	0xbeb1ca2f	-0.34724566
14	0x3dae8d53	0.08523049
15	0xbe96d28e	-0.29457515
16	0xbe90aa6e	-0.28255028
17	0x3e3b7205	0.18305214
18	0x3de99552	0.11405434
19	0x3f80ec38	1.0072088
20	0x3e3cc4b7	0.18434416
21	0xbef3ead4	-0.47640097
22	0xbe3c9132	-0.18414763
23	0xbe0da58b	-0.13832681
24	0xbdc8adb3	-0.097987555
25	0xbe70658a	-0.23476234
26	0xbe8cc0bd	-0.27490798
27	0x3e6734bb	0.22578709
28	0xbe3d3085	-0.1847554
29	0x3e273337	0.1632813
30	0x3dd94be7	0.1061018
31	0x3ddc2d68	0.10750848
32	0xbf14bbc3	-0.58099
33	0xbe3330cd	-0.17499085
34	0xbe9a60a5	-0.3015186
35	0x3ddbbcc7	0.10729366
36	0xbe69aae0	-0.2281909
37	0x3f0ec765	0.55773
38	0xbebddd1d	-0.3708276
39	0x3e9cd403	0.30630502
40	0x3e45081a	0.19241372
41	0x3ec654b3	0.38736495
42	0xbed19bd9	-0.40939215
43	0x3f0d59c1	0.5521508
44	0x3e9c16b6	0.30486077
45	0x3ddb149d	0.10697291
46	0x3e7471cc	0.23871535
47	0x3eaf62f8	0.34255195
48	0xbfab2920	-1.3371925
49	0x3e3363b0	0.17518497
50	0xbdf6f813	-0.12059035
51	0xbed06ad8	-0.40706515
52	0xbe43e53d	-0.19130416
53	0x3f007b26	0.5018791
54	0x3e34e269	0.17664494
55	0xbdf9a846	-0.12190299
56	0xbf34eef3	-0.7067711
57	0x3e979cdf	0.2961187
58	0xbea0729d	-0.31337443
59	0xbe51744f	-0.20454524
60	0xbeb453f0	-0.3522029
61	0x3e1e8c0d	0.15483113
62	0x3e383d41	0.17992117
63	0x3edd8c4c	0.432711
64	0xbe62f964	-0.22165447
65	0xbdada0ed	-0.0847796
66	0xbe22fb05	-0.15916069
67	0x3e12017e	0.14258382
68	0x3eaa623e	0.33278078
69	0xbe75fa3c	-0.24021238
70	0xbe1e2c40	-0.15446568
71	0xbe368957	-0.17825828
72	0x3ec641ef	0.38722178
73	0x3e751b1f	0.23936127
74	0x3dcb6fa3	0.099334024
75	0x3eb315f6	0.34977692
76	0x3f5f82c6	0.8730892
77	0xbe9ecc28	-0.31015134
78	0x3ec16742	0.37774092
79	0xbed144cd	-0.40872803
80	0xbe631d00	-0.22179031
81	0xbe45dd75	-0.1932276
82	0x3e0cf90e	0.13766882
83	0x3e7075a4	0.23482376
84	0xbe8e57ef	-0.27801463
85	0x3e54ced0	0.20782018
86	0x3eb71fbc	0.357664
87	0x3ddfa834	0.10920754
88	0x3ed4f147	0.4159033
89	0x3edb5251	0.4283624
90	0xbe310443	-0.17286782
91	0x3e7b1791	0.24520709
92	0xbdd9790e	-0.106187925
93	0xbe83d882	-0.2575112
94	0xbc8dcc29	-0.017309265
95	0xbd280916	-0.04102429
96	0x3e66374c	0.22482032
97	0x3e1da124	0.15393502
98	0xbea6b80e	-0.32562298
99	0x3e69501a	0.22784463
100	0x3e808268	0.25099492
101	0xbe5ca091	-0.21545626
102	0x3cbe02e3	0.023194736
103	0xbf38467b	-0.71982545
104	0xbe6532ea	-0.22382703
105	0x3ec453ff	0.38345334
106	0x3e62c011	0.2214358
107	0xbe15d3c9	-0.14631571
108	0x3eec1e53	0.46116886
109	0x3d65feb2	0.0561511
110	0x3da66451	0.081246026
111	0x3e4425d0	0.1915505
112	0x3c1f8db5	0.009738375
113	0xbecf6df5	-0.40513578
114	0xbe724b26	-0.2366148
115	0xbf11bc40	-0.5692787
116	0x3e48496d	0.1955926
117	0xbd85a3dc	-0.06525394
118	0xbe2daeb4	-0.16961175
119	0x3e4cadbd	0.19988151
120	0xbdda8a16	-0.10670869
121	0x3e9d8f0b	0.30773196
122	0x3e60ea3b	0.21964352
123	0x3eb2cf96	0.34924
124	0x3f87cbc7	1.0609063
125	0x3eec82ee	0.4619364
126	0x3e8f653a	0.28006917
127	0x3e82d7fc	0.25555408
128	0xbe566271	-0.2093599
129	0x3e28c8d2	0.16482857
130	0x3e314b0f	0.17313789
131	0x3e365f1c	0.17809719
132	0xbebc23a6	-0.36745948
133	0x3e4c42cc	0.19947356
134	0x3e14c7c5	0.14529331
135	0x3f2cfb86	0.67571294
136	0xbe7635e5	-0.24043997
137	0x3eebb372	0.46035343
138	0x3edf375b	0.4359692
139	0xbebae3c0	-0.36501884
140	0x3e2cda5e	0.16880175
141	0xbe59e75d	-0.21279664
142	0x3e3d0e02	0.18462375
143	0xbe63577a	-0.22201338
144	0x3dd50b5e	0.10402559
145	0xbe4b7efc	-0.1987266
146	0xbe0db40b	-0.13838212
147	0x3e7a9643	0.24471383
148	0xbe94b9a4	-0.29047883
149	0xbe3672a1	-0.17817165
150	0xbe207d09	-0.15672697
151	0xbe809ce6	-0.25119704
152	0xbf10a7ca	-0.56506026
153	0xbe436586	-0.19081697
154	0x3e4af756	0.19820914
155	0x3ea85ca2	0.32883173
156	0x3dde8bd4	0.10866514
157	0xbe364732	-0.17800596
158	0x3b532c96	0.003222262
159	0x3e262f6b	0.16229026
160	0x3ed42340	0.41433144
161	0x3dec0ddf	0.11526083
162	0x3e7e7ed1	0.24853064
163	0xbeb765da	-0.35819894
164	0xbe2e38a6	-0.17013797
165	0xbe3a6965	-0.18204267
166	0x3e82cfc5	0.2554914
167	0xbe3e15d3	-0.18563013
168	0x3def521d	0.11685584
169	0x3e0763bc	0.1322164
170	0xbf1f1988	-0.6214833
171	0x3eb6b0d2	0.35681778
172	0x3ed87ca7	0.42282602
173	0x3e9f2957	0.31086227
174	0x3ec63d55	0.38718668
175	0xbed9ea70	-0.42561674
176	0xbed0eca2	-0.40805537
177	0x3ec64368	0.38723302
178	0xbe1e85c1	-0.1548071
179	0x3e69c95e	0.22830722
180	0xbed55e19	-0.41673353
181	0x3ea8d4aa	0.3297475
182	0x3ecec075	0.40381208
183	0x3dbd9aa3	0.0925801
184	0x3eca58b1	0.3952079
185	0x3de5f33c	0.11228034
186	0x3e91809f	0.28418443
187	0x3e71988d	0.2359335
188	0xbf396374	-0.7241738
189	0x3e8d8293	0.27638683
190	0xbe672e94	-0.22576362
191	0x3db87ba2	0.09007956
192	0xbe191e34	-0.14952928
193	0xbe799ec9	-0.24376978
194	0x3ed18907	0.40924856
195	0x3e8bc9e6	0.27302474
196	0x3ef6589d	0.48114482
197	0xbe4a590f	-0.19760536
198	0xbec87a54	-0.3915583
199	0x3ec3218f	0.3811154
200	0x3f25bcc8	0.6474118
201	0xbeaa1e5c	-0.33226287
202	0xbf19b87a	-0.60047114
203	0x3f126604	0.57186913
204	0x3ea8d7b1	0.3297706
205	0xbdce6907	-0.10078626
206	0x3edff0d8	0.43738437
207	0x3dcc63f6	0.099800035
208	0x3e01c9de	0.12674662
209	0x3e069c2a	0.1314551
210	0x3dbf2c78	0.093346536
211	0x3e3355c1	0.17513181
212	0x3e5a15b2	0.21297339
213	0x3e3c42a9	0.18384804
214	0xbe045bba	-0.12925616
215	0xbf511104	-0.8166659
216	0x3e4eb043	0.20184426
217	0x3e5cd600	0.2156601
218	0x3e0246d3	0.1272233
219	0x3ed517c7	0.41619703
220	0x3e19e29e	0.15027854
221	0xbeb3bd34	-0.35105288
222	0xbf10a66c	-0.5650394
223	0x3e221350	0.1582768
224	0x3e779090	0.2417624
225	0x3eccf04c	0.40027082
226	0x3e7a4235	0.24439318
227	0x3e892bbe	0.26791185
228	0xbd53fafb	-0.051753026
229	0x3f88b2f6	1.0679615
230	0xbf47fb30	-0.78117657
231	0x3e8d5b8d	0.2760891
232	0xbd3a286c	-0.045448706
233	0x3e4d6aec	0.20060319
234	0x3e03a26b	0.12854926
235	0xbe940cf0	-0.2891612
236	0x3e1e3eb5	0.15453608
237	0xbece0330	-0.40236807
238	0x3d737b6f	0.059443887
239	0xbe036595	-0.12831719
240	0xbefae3de	-0.49001974
241	0xbe32174a	-0.17391697
242	0x3ece2b98	0.40267634
243	0xbe3944f5	-0.18092711
244	0x3e632035	0.22180255
245	0x3eb585be	0.354536
246	0x3f68856a	0.90828574
247	0xbf976156	-1.182658
248	0xbf2a0239	-0.6640964
249	0xbe917723	-0.28411207
250	0x3c6ed0dc	0.014576163
251	0xbfa9a53f	-1.3253554
252	0x3e3bf47c	0.18354982
253	0x3e52654f	0.20546459
254	0x3e551043	0.20806985
255	0xbe47f16e	-0.19525692

advantage_stream.weight f4 [20, 256]
0	0x3d96a904	0.07356456
1	0x3d3336ce	0.043753438
2	0x3e39b07e	0.18133733
3	0xbe24c4e8	-0.16090739
4	0xbccc28ea	-0.024921853
5	0xbe7c513a	-0.2464036
6	0xbe094f04	-0.13409048
7	0x3e3e037d	0.18556018
8	0x3e1c8a8d	0.15287228
9	0x3b55c78b	0.0032620158
10	0xbe11240f	-0.14173912
11	0xbddba1c5	-0.107242145
12	0x3cbc122e	0.022957888
13	0x3d0ae29e	0.033907525
14	0xbdb94d46	-0.09047942
15	0xbe052f28	-0.1300627
16	0xbe07d83a	-0.13266078
17	0xbcdf2c7a	-0.027242888
18	0x3d3d1b6e	0.046168737
19	0x3e8e7c71	0.27829316
20	0x3e46adeb	0.19402282
21	0x3e65e2aa	0.22449747
22	0x3e3bb714	0.18331558
23	0x3f09a62e	0.53769195
24	0xbd5889a2	-0.052865632
25	0x3d93b897	0.07212942
26	0x3e0e78ca	0.13913265
27	0x3cb0b74f	0.021571783
28	0xbdd93b8f	-0.10607063
29	0x3dfe6bd3	0.124229096
30	0x3d65c123	0.056092393
31	0xbe0c6633	-0.13710861
32	0xbe0f578b	-0.13998239
33	0xbdf0a293	-0.117497586
34	0xbe962282	-0.29323202
35	0x3e0c9e99	0.13732375
36	0xbd247bc2	-0.040157087
37	0xbd88e3bc	-0.06684062
38	0xbcfacd39	-0.030615436
39	0xbea1406c	-0.31494462
40	0xbd0c8df3	-0.03431506
41	0x3c9030c6	0.017601382
42	0xbb17e79c	-0.0023178821
43	0x3ea42fa5	0.320676
44	0x3dca0a20	0.098652124
45	0xbe179a24	-0.14804894
46	0x3ad70ea3	0.001640756
47	0xbd354736	-0.044257365
48	0x3d1d18ab	0.038353603
49	0xbd76fade	-0.06029784
50	0xbd91773d	-0.07102821
51	0xbd19d0c1	-0.0375526
52	0xbd831da7	-0.0640214
53	0x3a974983	0.0011542294
54	0x3dbaaecd	0.09115372
55	0xbd093881	-0.033501152
56	0xbdd5f7e3	-0.10447671
57	0xbd20a575	-0.039220292
58	0xbde032d4	-0.10947195
59	0xbdb2c2af	-0.08728539
60	0xbdff0306	-0.124517485
61	0xbe0119dd	-0.12607522
62	0xbe0e0d3b	-0.13872235
63	0x3e6afe81	0.22948648
64	0xbd3666ac	-0.04453151
65	0xbc9f26e3	-0.019427722
66	0x3ddcfa9f	0.1078999
67	0x3de23254	0.110447556
68	0x3ef72ed1	0.48277906
69	0xbd9fb050	-0.07797301
70	0xbdb287ac	-0.087172836
71	0xbe2d1c46	-0.16905317
72	0x3e0aa478	0.13539302
73	0x3cc93d1b	0.02456527
74	0xbcad753b	-0.021174064
75	0x3e350dfc	0.17681116
76	0xbe668916	-0.22513232
77	0xbe62df3c	-0.2215547
78	0x3c95ffaa	0.018310387
79	0xbea2d8cc	-0.31806028
80	0x3d8737cb	0.066024385
81	0xbe73005d	-0.23730607
82	0x3b94d223	0.004541652
83	0x3b5a662b	0.0033325057
84	0xbc62789c	-0.013822701
85	0x3e926d83	0.28599176
86	0x3ce3ac04	0.027791984
87	0xbb99f704	-0.004698636
88	0x3d888872	0.0666665
89	0x3c4c44b8	0.012467556
90	0xbe27318b	-0.16327493
91	0x3eab7ab5	0.33492056
92	0xbd915408	-0.07096106
93	0x3d58f9bc	0.05297254
94	0x3da28e70	0.07937324
95	0x3ee34882	0.44391257
96	0x3cc5f79f	0.024165927
97	0xbdc0fbf2	-0.09423055
98	0x3e196819	0.14981116
99	0x3cd3a4af	0.025835363
100	0xbcdbe4a1	-0.026842417
101	0xbe32f23f	-0.17475222
102	0xbcce784c	-0.025203846
103	0x3e019413	0.12654142
104	0x3d2f0f96	0.042739473
105	0x3e24a3ad	0.16078062
106	0x3d4eb825	0.050468583
107	0x3dc66d16	0.09688775
108	0xbdc44ac6	-0.095845744
109	0x3d728138	0.059205264
110	0x3dd013e8	0.10160047
111	0x3cc67cec	0.02422949
112	0xbcbf6ef3	-0.023368334
113	0xbcdf2225	-0.027237961
114	0xbf01be62	-0.50681126
115	0xbebd5ba3	-0.36983976
116	0x3d1823a7	0.037143376
117	0xbe484e52	-0.19561127
118	0xbdf8c483	-0.12146857
119	0x3e0561da	0.13025609
120	0xbd52918a	-0.051408328
121	0x3c8da425	0.017290184
122	0xbd5db158	-0.054124206
123	0x3e3abfaa	0.18237177
124	0xbe3f21bc	-0.18665212
125	0xbd1cb928	-0.038262516
126	0xbdbb75bb	-0.09153315
127	0x3d613c74	0.054989293
128	0xbde6e0ab	-0.11273321
129	0x3d155f73	0.03646798
130	0x3db9c425	0.09070615
131	0x3b644ae7	0.0034834684
132	0xbcec8f46	-0.028876912
133	0xbd81923c	-0.0632672
134	0x3e62867a	0.22121611
135	0xbc5bb8bc	-0.013410743
136	0x3de8c422	0.11365534
137	0xbd73e4c8	-0.059544355
138	0x3e144abc	0.14481634
139	0xbd9ee0d7	-0.077577285
140	0x3d9563fe	0.072944626
141	0xbd6da0f1	-0.058014814
142	0xbde399f7	-0.11113351
143	0xbdbd1337	-0.092321806
144	0x3e235187	0.15949069
145	0x3e6267e7	0.22109948
146	0x3e1c720f	0.15277885
147	0x3dcd82c9	0.10034711
148	0xbe4f836b	-0.20264976
149	0x3c2f1811	0.01068689
150	0xbdce5aaa	-0.100758865
151	0xbda303ad	-0.079596855
152	0xbe4eb9a4	-0.20188004
153	0xbab1bf33	-0.001356101
154	0xbc9dab1c	-0.01924663
155	0xbe4f62a9	-0.2025248
156	0x3dc6ff34	0.09716645
157	0x3dbf6e86	0.093472525
158	0x3d7a0153	0.06103642
159	0x3db17a3b	0.08665892
160	0x3dc79a13	0.09746184
161	0x3e10af32	0.14129332
162	0xbd481474	-0.04884763
163	0xbeb1600f	-0.346436
164	0xbd2bee5f	-0.041975375
165	0xbca97593	-0.020685947
166	0x3ebeeea7	0.37291452
167	0xbdfe952a	-0.124307945
168	0x3dd7481f	0.10511803
169	0xbe1ab057	-0.15106331
170	0xbe000a4d	-0.1250393
171	0x3eb6d264	0.3570739
172	0xbd5bb1a0	-0.053636193
173	0x3e6e3b86	0.23264894
174	0xbdec3841	-0.11534167
175	0x3b7a9639	0.0038236512
176	0x3da26511	0.07929433
177	0x3e97e0dd	0.29663745
178	0xbdb915be	-0.0903735
179	0xbd908b7b	-0.07057854
180	0xbda23fbf	-0.07922315
181	0xbdb30034	-0.08740273
182	0x3aacae3f	0.0013174488
183	0x3e1d8ca2	0.15385678
184	0xbcf4766a	-0.02984162
185	0xbcfab183	-0.030602222
186	0x3e05c03a	0.1306161
187	0x3dde5ae5	0.108571805
188	0xbe5de98c	-0.21671122
189	0xbd850f42	-0.06497051
190	0xbd4ec6e9	-0.050482664
191	0x3d83f97f	0.06444072
192	0x3c415d4f	0.011802032
193	0xbeaf5ce4	-0.34250557
194	0xbe2b3e64	-0.16723019
195	0x3e31b03f	0.17352389
196	0xbda9cc82	-0.0829096
197	0xbddf62b5	-0.10907499
198	0xbe8e0b12	-0.2774282
199	0x3e2fae9d	0.17156453
200	0xbe9973cd	-0.2997116
201	0xbd8de849	-0.069290705
202	0x3f2262c9	0.63431984
203	0xbe03ab1a	-0.12858239
204	0xbc3be170	-0.011467323
205	0x3da3511f	0.07974457
206	0x3e5163cd	0.20448227
207	0x3dbffa27	0.09373885
208	0x3e27a34b	0.16370885
209	0xbcfc45ab	-0.030794939
210	0xbe5b2d55	-0.21404012
211	0xbdc73af2	-0.0972804
212	0xbcec3dbf	-0.028838037
213	0x3d7c889d	0.061653722
214	0x3e0e29b7	0.138831
215	0x3dfc0455	0.12305514
216	0xbdc7fc83	-0.0976496
217	0xbdd6dd9b	-0.10491487
218	0x3d9ae42d	0.07563052
219	0x3e0c8c98	0.13725507
220	0xbdbca45f	-0.09211039
221	0xbdfe2bbe	-0.12410687
222	0xbecfd65e	-0.40593237
223	0xbdc3b623	-0.09556224
224	0x3e32d871	0.17465378
225	0x3e7f671a	0.24941674
226	0xbdf0b1ef	-0.11752688
227	0x3b9a59ca	0.0047104107
228	0xbe0d80bc	-0.1381864
229	0x3ec2c822	0.38043314
230	0xbf8ac68c	-1.0841842
231	0x3e1fe265	0.15613706
232	0x3dbe61d5	0.09296004
233	0xbc99f363	-0.018792814
234	0x3c6d55f5	0.014485826
235	0x3ea9bace	0.33150333
236	0xbb7c414e	-0.0038491073
237	0x3e383b12	0.17991284
238	0x3d876252	0.0661055
239	0x3d1a88c4	0.037728086
240	0xbeb325b1	-0.34989694
241	0xbe176911	-0.14786173
242	0xbdc2ca72	-0.0951127
243	0xbd125146	-0.03572204
244	0x3cbe9535	0.023264507
245	0x3eb4dda0	0.35325336
246	0x3df3ebfd	0.119102456
247	0xbe4d0aa0	-0.20023584
248	0xbdb501ac	-0.088382095
249	0xbc3c7044	-0.011501376
250	0xbdbd4c55	-0.09243075
251	0x3dd5db52	0.10442223
252	0x3e763fae	0.2404773
253	0xbd99fa73	-0.075184725
254	0x3dcbdebd	0.09954593
255	0xbe6fa6b1	-0.23403431

advantage_stream.bias f4 [20]
0	0xbe8855c8	-0.26627946
1	0x3e8a0370	0.26955748
2	0x3ec49572	0.38395268
3	0x3e973bd0	0.2953782
4	0xbf132989	-0.5748525
5	0x3e670d20	0.225636
6	0x3e3257f0	0.17416358
7	0x3d5c8eef	0.05384725
8	0x3d286b2f	0.041117843
9	0x3e9cf63a	0.30656606
10	0xbd9f868d	-0.077893354
11	0xbd5493ab	-0.05189864
12	0xbdde2e74	-0.10848704
13	0xbd3b37ab	-0.045707386
14	0x3eba3655	0.36369577
15	0xbe03cd08	-0.12871182
16	0x3e1c1ea2	0.1524606
17	0x3d9984d4	0.07496038
18	0x3e6f3db3	0.2336338
19	0x3d23d250	0.03999549
