src/remake/Noisy_Dueling_DQN_n_step_1_vs_weak/weights/most_recent.pth (torch, 834930 bytes, 11 tensors)

layers.0.weight f4 [256, 18]
00000000: e159 883d d56e 64bf 13d1 303e 23d0 56bd
00000010: 7e6a 203c 6440 5739 f8ac 15bf e830 e8be
00000020: c79c 21be 41d4 43bc 8505 013e 6c5e 803d
00000030: 3d90 8cbf 6528 54bf db5f 15bf a5f8 27bf
00000040: 8f7c a6bf 5fc8 b2be 6150 4abc 5d94 afbe
00000050: dca8 21bd f4ee 9ebd 8f33 42bd 4fff c53c
00000060: b6e1 93bf 3e1e 9fbf e6e7 88be 60cf f1be
00000070: 7769 13be b426 77bd b41a f63e 3e97 50bf
00000080: 2478 4c3e 2ef3 eebe b781 f1bd 38ed 68bd
00000090: 55c2 fa3d 667a a63e 9c86 d4be 2b27 8abd
000000a0: d2e4 cb3d c614 0cbd 93a1 673b ba9e a53f
000000b0: 66b7 433d b861 923e 1cb1 06bf 29ba a83c
000000c0: 39a7 df3d 5998 e63e 2d45 0d3f b258 1b3f
000000d0: 4fe1 09bc 331f d3bd b9bf 99bd 82cf 8c3e
000000e0: 06bb 4a3e b364 653d d4d6 ab3d 5f8a cd3c
000000f0: 09f9 8e3d 2719 7bbe 71a0 c6be 4d79 753d
00000100: 0e6d e2be efe6 13be c59d 37bf d67e 9bbf
00000110: 0287 dcbe 19ee 49bf 01bc 2b40 7fe6 593f
00000120: a46c e3bc 72b3 d53d 6d96 ac3c 4d52 5b3c
00000130: 29d3 c1bd 2d0c 3bbc a183 52bf 88eb e0be
00000140: 4753 3740 8b2c 063d 5230 9cbe 450e 55be
00000150: 3fed 493f 3533 6dbf 1707 fb3e a4aa 23bf
00000160: 306a 7c3e c4c5 9c3e 30dd da3e 0105 4bbd
00000170: d07e c2be 58d9 453e 25dc b4bc a71f 16bd
00000180: 6a21 2abe a468 813f 4a75 113f c89a 52bd
00000190: 6093 9e3e da28 57be 915c 383e 52d3 52bf
000001a0: 59cf e3be 9d3a 49bf 46fe 68c0 0060 2540
000001b0: 72bb 93be 204d d13c 8ff5 6dbe 4e7c 7b3d
000001c0: 6d3e 593e dae2 483b b395 823e 8c03 9bbe
000001d0: 0692 b53f dc10 a7bd 247e b53e 2bc1 afbb
000001e0: 23a5 a13e 14ad 463f c1df 9f3d 050d c63e
000001f0: a162 60c0 334a 54be bc3f 4c3f cb03 2cbd
00000200: 3a97 c3bc fa81 e03d 2922 6b3d c75d 95bd
00000210: 71c7 7dbf 20f9 96bc 5373 98bf 9792 a33e
00000220: 4521 bbbe 2ba6 d8bd 08c2 b0be 7c94 823e
00000230: 72b6 50bf 77f8 57be 9312 213d eb86 1c40
00000240: 4522 6abf 7e66 863e 833d 83bd 5f04 d5bd
00000250: e62c 9d3d eb40 3bbd 4311 45bf 4371 d0ba
00000260: a7b0 f5bd 8016 80be f312 ff3e 1ce1 cabd
00000270: aadc 51bf 9d2e a7bd db71 dbbc 1ddc e33d
00000280: 8dcc 073e c1c2 863f 654d 8a3d d808 3ebe
00000290: b8c5 523b 4abf e3bc fc04 5e3b c032 2e3b
000002a0: 9a28 c13e 0979 3f3e 2b4b d0be c99a 043e
000002b0: dc79 213e fb17 07be bdd7 803f 6f6a f8bf
000002c0: df03 b53d a0fa 33be 1c0a 3bbe 907a 293e
000002d0: 8644 233c 375c 0bbe 388e 873d dc42 04bd
000002e0: 000e 0e3d 6694 8d3d 9be1 103f eb01 ccbe
000002f0: 5c75 79bf 5334 b53e 4b8a fe3e 750d 003e
00000300: 8207 8b3e 94db a2bf 68d4 de3d 8538 50bf
00000310: 6104 373d 6bb7 733c cae6 8dbe b0c6 c13e
00000320: 790d d53e ce07 43bd 4165 ae3e 7cbc a93c
00000330: 5c61 adbe 3d84 e93d bb76 aabf 4424 afbd
00000340: 85ce f63e 7236 33be fbf0 83bd cb07 86bb
00000350: b401 70bf 0c08 87be 2eae 10bf df5e f2bf
00000360: 8a64 9c3e e5c6 82bd 340e 79be 63d6 bd3d
00000370: 9c44 f23c c89d 7ebd 0302 ee3d d183 ac3f
00000380: e366 cd3f 1d69 103c ebe0 d33e d1d3 96be
00000390: 47d6 e8be 998d a0bf 462b cebe d4c5 5fbf
000003a0: c198 8cbc 0432 2d3e 85ec 723f 7116 e43b
000003b0: 9c04 debe 8a3e 083e 8091 09be 2d61 57bd
000003c0: 6b12 c83c fc99 bcbf 2c18 f73e 1f6c 283e
000003d0: 2df6 9ebe 9cf7 b63d f9f7 893f 1a21 aabc
000003e0: 0161 7c3d 50a3 80bd 19c9 37bf 0fd3 14bf
000003f0: 9669 9abd 3682 a0bd 32bb 7bbd 6f82 db3c
0.06657768 -0.89231616 0.17267255 -0.05244459 0.009791015 0.00020527985 -0.58467054 -0.45349813
-0.15782462 -0.011952461 0.12599762 0.062680095 -1.0981518 -0.8287414 -0.5834939 -0.65613776
-1.3006762 -0.34918496 -0.012348265 -0.3429288 -0.039467677 -0.077604204 -0.04741245 0.024169592
-1.1553257 -1.2431104 -0.26739424 -0.47228527 -0.143957 -0.060339645 0.48067248 -0.8148078
0.19967705 -0.46669906 -0.11792319 -0.056866854 0.12244097 0.32515258 -0.4150895 -0.06745752
0.099557534 -0.0341995 0.0035344108 1.2939065 0.047782324 0.28590178 -0.52614 0.02059658
0.10920567 0.45038107 0.5518368 0.60682213 -0.008415534 -0.10308685 -0.07507271 0.27502066
0.19797906 0.056004237 0.083905846 0.025090395 0.069810934 -0.24521314 -0.38794282 0.059930135
-0.44223827 -0.14443563 -0.7172511 -1.2148082 -0.43071753 -0.78878933 2.6833498 0.85117334
-0.027761765 0.10434617 0.021067822 0.013386321 -0.09464104 -0.011416477 -0.822321 -0.43929696
2.8644578 0.032757323 -0.30505615 -0.20806225 0.78877634 -0.9265626 0.49028847 -0.6393225
0.24649882 0.30619633 0.42746878 -0.04956532 -0.37987375 0.19321191 -0.02207763 -0.03665128
-0.16614309 1.0110059 0.56819594 -0.051417142 0.30971813 -0.21011677 0.18004061 -0.823537
-0.4449413 -0.7860506 -3.6405196 2.5839844 -0.28853947 0.025549471 -0.23238204 0.061397843
0.2121522 0.0030652792 0.25504836 -0.30276144 1.4185188 -0.081575125 0.354478 -0.0053636036
0.31571302 0.77607846 0.078063495 0.38681808 -3.5060198 -0.2073143 0.7978475 -0.041995805
-0.023875821 0.10962291 0.057405625 -0.07293277 -0.9913245 -0.018429339 -1.1910194 0.31947777
-0.3654882 -0.10578569 -0.34523034 0.2550391 -0.8152839 -0.21090876 0.039324354 2.4457347
-0.9145854 0.2625007 -0.06408217 -0.10401224 0.07674579 -0.045716207 -0.76979464 -0.0015902895
-0.119965844 -0.25017166 0.49819145 -0.099062175 -0.8197733 -0.08163188 -0.026787689 0.11125968
0.13261624 1.0528184 0.06753043 -0.18558061 0.0032161307 -0.027801175 0.0033877483 0.0026580542
0.3772629 0.18698515 -0.4068235 0.12949671 0.15769142 -0.13192742 1.0065838 -1.9407481
0.08838629 -0.17576075 -0.18265575 0.1655066 0.009965068 -0.13609396 0.06618923 -0.032290325
0.03468132 0.069130704 0.56594247 -0.39845213 -0.974447 0.35391483 0.49714884 0.12505133
0.27154166 -1.272326 0.10880357 -0.8133624 0.04468191 0.014875273 -0.2771514 0.378469
0.4161184 -0.047614865 0.34061626 0.02071976 -0.33863342 0.114021756 -1.3317484 -0.08551839
0.48204437 -0.17501238 -0.06442448 -0.0040902845 -0.937526 -0.26373327 -0.5651578 -1.8935202
0.30545455 -0.06385592 -0.24321824 0.09269407 0.029573731 -0.06216219 0.116214775 1.3477727
1.6047024 0.008814123 0.41382536 -0.29458478 -0.4547598 -1.2543212 -0.4026739 -0.87411237
-0.017162682 0.1691361 0.9489215 0.006960683 -0.43362892 0.13305107 -0.1343441 -0.05258291
0.024422845 -1.4734492 0.4826063 0.16447495 -0.31047192 0.089339465 1.07788 -0.020767737
0.061615948 -0.062811494 -0.71791226 -0.5813455 -0.0753967 -0.07837336 -0.06145782 0.026795594

layers.0.bias f4 [256]
00000000: 59fd 673f 9181 9b3f 01af e03f c368 663f
00000010: 8f61 5bbf fb76 8cbe 0aed bf3e 23c3 27bf
00000020: 0749 24bf 4ab4 a93f 8e39 253e b7ac 1d3e
00000030: 9dc7 b73e 813d 9dbf a3b2 c3be d95a ca3e
00000040: bed4 503f 64dc 1e3f 0f06 7e3e e71d 94bb
00000050: b1db e6bf 75f6 72bf b5b0 c3bf aabe 9a3b
00000060: 15f5 ce3e 389e 89bd 3546 693f a1a3 dc3e
00000070: 7712 0f3f c719 afbf 5264 a43f d83f 183f
00000080: 092e fa3d 80d6 e4bf f1d5 30bf 4570 093f
00000090: 3b47 e1bd 02cb c43f b200 9bbf 9385 b63f
000000a0: 65a5 ba3f ae58 433f 38bf 82c0 aed1 2c3b
000000b0: 685a d63f 2e8a 1dc0 d8f4 853d 7723 d13f
000000c0: 96fb 2fbf f800 233e e464 32bf f2ef 1fc0
000000d0: 230e 04bf f4dc 483f c28d e63f 4122 d83d
000000e0: 1d82 a53e 8635 933f 67a3 bf3e a70b a43f
000000f0: 2a6b 893e d817 443e f8d3 aebd d7f7 afbe
00000100: a062 a43f 128e e33e f6ca b83f 2620 f03e
00000110: d149 82bc ab16 8f3f c023 82bf 3d31 cb3e
00000120: 2157 4c3f 2dd1 113f 77e7 9fbf 2057 23c0
00000130: c3f9 dc3f bec4 3abe 942a 90bf 7cea 803c
00000140: 774c e33e e929 92bf 5757 483f d5b1 a63f
00000150: cc3d 52bf 392c 303f d8a6 7dbf c0ed 8ebd
00000160: 3259 d7be 0f95 c9bf bae3 98bf 017d 70bf
00000170: f357 9d3f 622d 5b3f 0bf3 c8be 37ce d7be
00000180: 75cb 0cbf 7c48 823f 85d7 efbd 0973 9c3f
00000190: 4294 7fbf 9804 5cbf d17f a5be 9bf8 f8bf
000001a0: 424a 46bf 612d 8dbe ebdd 853f 2464 7fbe
000001b0: 9b1c 8bbf ffa1 b93f 6e21 2b3e 84ca 783e
000001c0: dda3 9fbe 526d 30bf e276 1bbf d9a9 e43e
000001d0: 323e 7fbf 2c09 c63f ce46 c9be ace7 293f
000001e0: ce9f 89be 4364 acbf f8cc 65bf 96b1 843d
000001f0: 4a2c b1bf e92f d9be 0dbd e3bf 1068 973e
00000200: f855 9e3f 9ba1 42bf d03c c1bf e0a7 a9bd
00000210: 8792 0bbf f884 8a3e 80b6 173e 40b2 dfbc
00000220: d62a 96be 315f fdbe 88df 24bf 0029 a13e
00000230: 16ab 4a40 b023 253f 4a1c 71be d49f 6f3e
00000240: bede fcbe e121 cabf c182 97bf f8c1 363f
00000250: 6daa c9bf fa19 86bf 2373 d13f ecd9 f2ba
00000260: 1e98 a4bf c56a a0be 8923 673e d944 0140
00000270: 864a 0bbf f76c 80bf ffc4 c1bf 8825 3d3d
00000280: 5e8f 1340 53ab 8c3f 28f5 893e fc6d 913f
00000290: e7b7 bf3d d696 4a3f f813 bf3f a78e 733f
000002a0: 0517 e7be 10fa dcbe 68be e83e ca1a bf3f
000002b0: 15ce 1f3f 8304 48c0 e76d d8bf 0463 cdbf
000002c0: 0b1a a13f 15a1 653f 01b5 4a3f 7fde c33d
000002d0: 72a7 f63e 84e4 8bbf 8573 773f 23e9 bc3d
000002e0: f186 a6bd 1005 5c3f 6763 21bf 2227 853e
000002f0: 046c c1bf f5b9 723b 4a28 abbf b23f c9bd
00000300: 2c5b 17bf 53cf 483f 7bab 5f3f 512e 073f
00000310: fc01 24be b522 65bf 59ba 56bf 686a f6bf
00000320: 19a0 4dbe 4a6a 98bf 08e0 43be b78a b03e
00000330: ab2a 993f 89e6 a7bf 713a 2b3f 8401 a13f
00000340: e6f0 68bf 9b6b 1b3e 3f54 0dbf 89fa 8abf
00000350: 8d0a c83b a72e 6d3e 4b85 d3bd 5b86 5cbf
00000360: ad42 59c0 9547 cb3f 2f8d 593f 4a78 95bf
00000370: 5f5c 023e a249 013f ecc7 0f3f 84e0 d13d
00000380: ddd7 8a3f 3bc8 a53f 9f3b 24bc 3096 05c0
00000390: 0f3f f5be b05d 413f 328b e03f c2ea a2be
000003a0: 0373 653f 53ab 97be a0bc e9be 0bec 2fbf
000003b0: 5600 de3f 8dff 393f b290 a4bf 05f9 67bf
000003c0: 4473 e43f 4a8b c4be d7b1 88bf c5c1 7fbf
000003d0: 009d 963f 2979 65bf b222 00c0 2c9b b43d
000003e0: d13a 283e 4316 f73e c19c e23e 410f abbd
000003f0: 8a35 d03f f421 9b3f 50b5 853f 11d6 cebf
0.9062095 1.2148916 1.7553407 0.90003604 -0.8569574 -0.27434525 0.37485534 -0.6553213
-0.6417393 1.3258145 0.16135237 0.15397917 0.3589448 -1.2284395 -0.38222227 0.39522436
0.8157462 0.6205504 0.24806999 -0.004520166 -1.8035794 -0.94907314 -1.5288302 0.004722436
0.40421358 -0.06719631 0.9112275 0.4309359 0.5588755 -1.3679742 1.2843115 0.5947242
0.12215812 -1.787796 -0.6907645 0.53686935 -0.10999914 1.5374453 -1.2109587 1.4259514
1.4581724 0.7630719 -4.085842 0.0026370096 1.674634 -2.4615588 0.06540841 1.6338948
-0.68743265 0.15918338 -0.69685197 -2.49902 -0.5158407 0.7846215 1.8012011 0.105534084
0.3232583 1.1500709 0.37429354 1.2816056 0.26839572 0.1914972 -0.085365236 -0.34368774
1.2842598 0.4444433 1.4436939 0.46899527 -0.015904339 1.1178793 -1.016716 0.39686003
0.7982045 0.569598 -1.2492512 -2.5521927 1.7263721 -0.18239114 -1.1262994 0.01573681
0.44394276 -1.141904 0.7825827 1.302302 -0.82125545 0.6881748 -0.9908271 -0.06978941
-0.42060238 -1.5748614 -1.1944497 -0.9394074 1.2292465 0.85616124 -0.39247927 -0.42149517
-0.5499795 1.017837 -0.11711029 1.2222606 -0.998356 -0.8594451 -0.3232408 -1.9450868
-0.7745706 -0.27573684 1.0458349 -0.24940544 -1.0868105 1.4502562 0.16711971 0.24296004
-0.31179705 -0.6891681 -0.60728276 0.44660833 -0.9970428 1.5471549 -0.39311832 0.6636913
-0.26879734 -1.3468097 -0.8976588 0.06479184 -1.3841641 -0.42419365 -1.7792069 0.2957158
1.2369986 -0.7602784 -1.5096684 -0.08283973 -0.5452046 0.27054572 0.14815712 -0.027306676
-0.29329556 -0.49486688 -0.6440358 0.31476593 3.1666923 0.6450758 -0.23545948 0.23400813
-0.4938869 -1.5791589 -1.1836778 0.7138972 -1.5755135 -1.0476677 1.6363262 -0.001852808
-1.2858922 -0.3133146 0.2257215 2.0198271 -0.5441059 -1.0033253 -1.5138243 0.04617837
2.3056254 1.0989784 0.26944852 1.136169 0.093612485 0.7913641 1.4927969 0.95139545
-0.4513475 -0.43159533 0.45457768 1.493005 0.6242383 -3.1252754 -1.690854 -1.6045842
1.2586073 0.89698917 0.7918244 0.09563922 0.48174626 -1.0929112 0.96660644 0.09224155
-0.08131207 0.85945225 -0.630423 0.26006418 -1.5111089 0.0037037109 -1.337167 -0.09826602
-0.5912349 0.7844135 0.87371033 0.5280505 -0.16016382 -0.89506084 -0.83878094 -1.9251223
-0.20080604 -1.1907437 -0.1912843 0.3448083 1.1966146 -1.3117229 0.6688605 1.2578588
-0.9099258 0.15177767 -0.55206674 -1.0857707 0.0061047734 0.23162328 -0.10328158 -0.8614251
-3.3946946 1.588122 0.84981054 -1.1677334 0.1273055 0.5050298 0.5616443 0.10247901
1.0847126 1.295173 -0.01002398 -2.0872917 -0.47899672 0.7553358 1.7542479 -0.3181973
0.8962862 -0.29622898 -0.45651722 -0.6871955 1.7343853 0.72655565 -1.2856658 -0.9061435
1.7847676 -0.3838752 -1.0679272 -0.99905044 1.1766663 -0.89638 -2.0021176 0.08818659
0.16428687 0.48259172 0.4426022 -0.08352519 1.6266339 1.2119737 1.0445957 -1.6159078

layers.1.weight_mu f4 [256, 256]
00000000: d5ec 893f 6ca5 063f eb34 863e 316b a83f
00000010: de61 b13d 6c1e c73c 40f1 643f aee5 bebe
00000020: 29d6 dabe e955 23be 0476 103f c9b0 0c3f
00000030: 1700 8b3e 4e81 b4bf 9f95 ffbd e60d bdbe
00000040: 6cd2 3fbe 48e6 d33e 2790 8a3f c31a ad3f
00000050: 965a 043d f28f 26be ed77 d8bf 0734 8abe
00000060: 382b a83e 4dd9 fdbe d29f 16bf a21e 1a3f
00000070: ed6e 8d3e 6afd 8e3d dfdf 573f c1d3 1d3e
00000080: 6ab7 0abf a061 0d3f 265a a73d 62fd c63e
00000090: e13b b7bd 4381 9f3f 71e5 f23e 8b90 98bd
000000a0: 9435 823e 99ed 63bd ecea dd3f 058a 8abe
000000b0: 5a3e 71be aa86 8cbf 5e19 03be b5c8 963d
000000c0: a266 07be 4dc6 d2be cb72 7cbd 9db9 e43e
000000d0: b406 233e efc8 2f3e 5dc0 8c3c de4f 013f
000000e0: d1b0 d23d cd38 5abf 5ae5 5d3e f787 ad3e
000000f0: 1dc2 07bf 6cc3 5b3e 7b4a 223e 894c 10bd
00000100: 35fb e73d 258f 863f 1be2 263f cb09 d93e
00000110: eee1 f03e b45c 4abe caa0 16bf 407f 2dbf
00000120: e308 8e3f 535d a53f 626c ed3e c67a 47bf
00000130: b91a 42be a3de 2bbf 75c1 15be eb35 9dbe
00000140: 9157 35bb e613 f4be 82f8 58be 04f3 b43d
00000150: 3717 89bf 40f6 0e3e be58 3e3f 9749 10bf
00000160: bc2b 593d 79ff d73e 8b32 cb3e b845 443f
00000170: 27be 00bf 2a3e 7fbe 1440 85bb 79e7 4e3e
00000180: a272 9d3f 97c6 7abe bacc 123f 7059 3bbe
00000190: ad0a 8f3f 3347 843e fb46 153d 9205 0a3f
000001a0: 48a5 373e 7cc2 b43e 0ca1 ae3e 01f0 31bf
000001b0: 98e1 553e 63b0 25bf fb55 9dbd 004c 853e
000001c0: d6a3 f4bd f825 a3be 401b 7d3e b7ec 75be
000001d0: a988 48bb a1fb 2ebf 253b 4ebf 5445 893b
000001e0: f43b 3ebd 2bb7 14bf fa9d 8bbf e4cc 533e
000001f0: 47cf 86be be54 d7bb 31c6 ba3d b3d8 163d
00000200: fb82 40be 04c0 463e 7b46 59be a6c2 85be
00000210: a5fc d9be 81bc 95be ff80 eebe 9352 e8be
00000220: cb26 383f dc3c 65be 4ef7 de3c 487a 89bd
00000230: 7cc2 efbd 0491 0a3d 7b07 50bd b3b4 54be
00000240: 0cde c33d 267e debd de0b a6bd 48ce 1d3f
00000250: b4f1 38be e6f4 e2bd 2645 a63e c6ce 4bbe
00000260: e724 cabe 4853 a33e ea91 4ebd a2b0 583b
00000270: d568 a63d db63 f03e fc07 903e 610f 603e
00000280: c87e cebe fdb6 983e 9682 efbe 39e6 0b3d
00000290: 73ec 62bf 4352 c3bf c200 1a3e 3f8d 0fbf
000002a0: d696 a9bd 74bf 383c 61d8 c3be 0bf6 563e
000002b0: ee99 1fbe 8b2f 91be 2d8d 18be b79c 843f
000002c0: 0ba9 04bf 45c3 f7be 7867 053e b2fd b73d
000002d0: a443 a7be e508 2dbe 36c4 123f 6b4d 5a3f
000002e0: 1b66 a63d 049e 39be 976f 193f 8b9f c73e
000002f0: c74e 393d 0e93 2d3f 98eb 69bf 3ad7 543e
00000300: 175c 88bf 8cc9 fa3e 08ea f03e a1a2 203e
00000310: f333 2f3e c36e 5b3e 1d9f b43e cddd 7cbe
00000320: c8ac 9f3c 318d 98be 5e21 713e ed3f bb3c
00000330: 1b06 c2bd 9070 763e adf1 483f c64f 9cbe
00000340: 62fb df3d 8cc5 953e 86ec 913d 0755 883c
00000350: 8c40 a5be 81c2 803f 8156 fcbc 1725 8cbe
00000360: 7b27 b93f c68a 203f 5d36 fcbe b722 8f3e
00000370: 449c e13d 497a 2abf cae0 7ebb 40e6 1abf
00000380: 5293 7e3e af7f f23e 16e9 bcbb 2d1d 553e
00000390: 7a1b 17be 185a 9d3f 4213 b5be bb57 123e
000003a0: 5e09 613e 3e31 943e c096 47be 5897 bc3e
000003b0: 8d4a 153f ed6c 40be 7ae3 68be f88f cbbd
000003c0: b90b f5bd da70 c73e 1223 e23d 5e4a 9e3f
000003d0: cc00 6c3f 0119 07bf b6b0 c73e 4b50 df3d
000003e0: 0d39 68be 2f76 c5be 766c ffbe fd54 153f
000003f0: 3e60 acbd 7313 083f 92b4 b83d 3eda fc3e
1.07754 0.52596164 0.26212248 1.3157712 0.08661245 0.024306498 0.8943062 -0.37284607
-0.42741516 -0.15950741 0.5643008 0.5495725 0.27148506 -1.4101961 -0.1247971 -0.36924666
-0.18732613 0.41386628 1.0825242 1.3523792 0.032312952 -0.16265848 -1.6911598 -0.2699282
0.32845473 -0.4957985 -0.58837616 0.6020299 0.27623692 0.06981929 0.84325975 0.15412809
-0.5418612 0.5522709 0.08171491 0.3886519 -0.08946968 1.2461323 0.47440675 -0.074494444
0.25431502 -0.055646513 1.7337317 -0.27058426 -0.23558941 -1.0978596 -0.12802646 0.073625006
-0.13222745 -0.41166916 -0.061632913 0.44672862 0.15920526 0.17166494 0.01718157 0.5051249
0.10287631 -0.8524292 0.21669522 0.33892795 -0.5303057 0.21461266 0.15848725 -0.03522924
0.11327211 1.0512434 0.6518876 0.42390284 0.4704737 -0.19761926 -0.58839095 -0.67772293
1.1096462 1.2919105 0.46371752 -0.7792171 -0.18955506 -0.6713659 -0.14624579 -0.307052
-0.0027670602 -0.4767143 -0.21188548 0.08835414 -1.071021 0.13961124 0.7435416 -0.5636229
0.053020224 0.42187098 0.39687 0.7666888 -0.5029015 -0.24926057 -0.0040664766 0.20205487
1.2300608 -0.24489819 0.5734364 -0.18295836 1.1175133 0.2583557 0.036444645 0.5391475
0.17934144 0.3530463 0.34107244 -0.6950684 0.20886838 -0.6472227 -0.07682415 0.26034546
-0.11945312 -0.31864905 0.24717426 -0.24016081 -0.0030599034 -0.68352705 -0.80559 0.0041891728
-0.046443895 -0.5809199 -1.0907586 0.20683628 -0.26330015 -0.0065713814 0.09119833 0.036827754
-0.18799965 0.19409186 -0.21218292 -0.26125067 -0.42575565 -0.2924538 -0.4658279 -0.453755
0.71934193 -0.22386497 0.027217533 -0.067127764 -0.11707017 0.033829704 -0.050788384 -0.20772056
0.095638365 -0.10863905 -0.08107732 0.61642885 -0.18060952 -0.11081867 0.3247463 -0.19903097
-0.3948128 0.31899476 -0.050432123 0.0033064266 0.08125464 0.46951184 0.28131092 0.21880867
-0.403311 0.2982711 -0.46779317 0.034155104 -0.8864204 -1.5259479 0.15039352 -0.560749
-0.08280723 0.011276115 -0.38251022 0.20992295 -0.15586063 -0.28356585 -0.14897604 1.0360326
-0.5182044 -0.48391166 0.13027751 0.089839354 -0.32668793 -0.16897924 0.57330644 0.8527438
0.08124944 -0.18126684 0.599359 0.3898891 0.045241144 0.6780251 -0.9137511 0.20785227
-1.0653104 0.48981893 0.47053552 0.15687038 0.17109661 0.21428971 0.35277644 -0.24693985
0.019491568 -0.2979522 0.23547885 0.02285763 -0.09473821 0.24066377 0.7849377 -0.30529612
0.10936619 0.2925228 0.071251914 0.016642107 -0.32275808 1.0059358 -0.030802967 -0.27372047
1.4465173 0.6271175 -0.49260226 0.27956173 0.110161334 -0.6659284 -0.003889131 -0.60507584
0.24860886 0.4736304 -0.0057650907 0.20811911 -0.14756575 1.229312 -0.35366255 0.14291279
0.2197623 0.2894382 -0.194911 0.36834216 0.5831688 -0.18791552 -0.22743025 -0.09939569
-0.119651265 0.38953286 0.110418454 1.2366445 0.92188716 -0.5277253 0.39002007 0.109039865
-0.22678013 -0.3856673 -0.49887437 0.58332807 -0.08416794 0.5315468 0.09018816 0.49385256

layers.1.weight_sigma f4 [256, 256]
00000000: 14d5 f13c ce18 99bb 0f70 3a3c 511e 99bc
00000010: cb36 9ebc 1500 1c3d 4db1 f33a b853 153b
00000020: 85d8 9bba 9544 8abd c66c 20bd 5944 6fbd
00000030: 2ce3 bdbd 48ac 60bd 1d4f 88bc 0493 36bd
00000040: 6ec8 e6bc c68d 8abc 497b ccbc 3a8d 75bc
00000050: adfd 6f3d 9030 453d 1f70 c9bc e151 f03c
00000060: 72c1 e7bc 1cbd a4bc bf2a 533c 3561 1a3d
00000070: 5252 9fbc 66bd 04bd 5430 21bd d775 16bd
00000080: 5b97 8b3c 9201 a93d 708c ac3d dd01 9d3a
00000090: accc 87bc 8d03 913d e0c9 c3bb f313 6b3d
000000a0: c9b6 a43b 1b56 523c dd4e 013d 6587 eabb
000000b0: 4c2f 263c 04ec 443d 202d 003c a6f6 5a3c
000000c0: 772a 993c 0072 273b 5ddd c7bb b5c6 413d
000000d0: c7bf 0dbc df1b 383d ee63 db3c dbcf 87bb
000000e0: 4a8f a43b ea12 75bc 688b 913c 7c87 10bc
000000f0: aa73 31bd cd50 083d 4f29 99bc e2b8 aabd
00000100: 7807 353c df7c 1fbd f605 7cbd 2d22 b5bc
00000110: 4b2c eebc 705c c4bc 5396 39bc 031a 7b3d
00000120: 5df9 37bd cb6b 21bb bb9c 5d3c 3f72 553d
00000130: 8890 5dbd a083 a83d aa1d 913c 5e8c 213c
00000140: c241 13bd 887f cfbc 696f d0bb 9322 9fba
00000150: 98e1 423d ff07 90bc 44cc 543d 9ad1 06bd
00000160: fe8a 1abd 7770 063b 9b25 ecbc e330 d6bb
00000170: c289 293d b168 503d 34f9 fb3c 7f39 a83c
00000180: 57c7 b73c a96a 923c 1d3b e33c 0a8b 0ebd
00000190: 977a bbbc 8d03 c3bb 58ed da3a a52e 9cbd
000001a0: 2d52 db3c 9dd7 3fbc 05c7 723b 167e 903c
000001b0: 4838 81ba 9fb4 a03a 353c 30bd fb68 eeb9
000001c0: df52 2ebd b660 4c3c f4b7 2d3d 0041 e1bb
000001d0: 70ec eebc f0c7 f83c 5834 923d 9c88 413d
000001e0: fc67 f73c 6d0a 7e3b b78a b5bc b895 2cbc
000001f0: 746b bf3c 4f25 723c 5a93 af3c fae4 d23c
00000200: b80e 543c 3cbc 94bb 6d7b d63c 1027 76bd
00000210: e347 07bd a90e 2c3d a882 81bd cd99 bd3b
00000220: fbc8 e8ba 38fb 77bc 94c3 a4bc bcbd 0b3d
00000230: 5091 a53d 401d c7bc cb49 3b3c edde a83c
00000240: 1707 ad3c 95c6 9abb 7ce1 61bd d4cf a1ba
00000250: b2b0 20bc cd84 94bc e447 d4bb 4351 563d
00000260: 4c72 20bd 445d fd3c 21f7 b43d c441 d93b
00000270: 0407 453c e1e3 9e3d ec79 10bc 1feb 34bd
00000280: 3b37 643d 8c77 63bd 3944 2f3d ebc8 483d
00000290: 4ef8 8aba 7759 e2bb 1725 81bd 6889 58bc
000002a0: c6bf 4fbd 4675 91bb 737c 18bd 8b68 013d
000002b0: 91cc 0c3c 86f1 4dbd 897b 083d 3a37 24bd
000002c0: fbc7 cfbc 4d78 81bd ff56 903d 7624 c1bc
000002d0: 8457 383d 01ce 7f3d a246 28bd 7760 e83c
000002e0: c636 513d 420f 7a3a 5686 df3b 95b1 acbc
000002f0: eefd 463d 1a24 21bd a661 c7bc 0167 043d
00000300: db59 56bc f0dc c6bc 24d8 abbb 178f 9dbd
00000310: d786 bc3b d8a5 a53b 4dde ce3c a81a 7e3c
00000320: 4cd6 49bd ae79 98bc 7a42 5a3d 8c77 793c
00000330: b1f9 5ebd ef7b 58bd 0776 2e3d 566a 0f3d
00000340: 4c28 a9bc 5eac 273c 7d8b 9bbb 9ecb ea3b
00000350: 666c b2bc bb14 36bd 7841 77bd 7a0f edbb
00000360: 857a 5c3d 0a49 da3a c121 083d 57af 753c
00000370: 8219 9abc 88a3 a4bb ae05 223d e656 1d3d
00000380: c986 943c e45c fdbc f43f 543a d624 49bd
00000390: 1ef0 da3c cc83 42bd e4db c0bc 4369 0bbd
000003a0: 6a90 a33c 4ab8 c33c 1078 39bc dda6 05bc
000003b0: 0389 a13c bb9f 663c 1cd7 263d ffdc cd3c
000003c0: df1b 713c 692d bc3b 37c0 32bd 6fcf edbc
000003d0: 8f7e 1c3d 538e 68bd 2e19 2fbd 851c 003d
000003e0: d72a e2bb 3f6e aeba 12fe 663d fd27 b73c
000003f0: 68dc 97bc 75d0 773d c63a 88bd fd2a 96bd
0.029520549 -0.0046721464 0.011379256 -0.018691214 -0.019313237 0.038086016 0.0018592268 0.0022785496
-0.0011890089 -0.06751362 -0.039166234 -0.05841479 -0.09271845 -0.0548518 -0.016639287 -0.0445738
-0.028171744 -0.016913306 -0.02496113 -0.014987284 0.058591533 0.048142016 -0.024589596 0.029335918
-0.028290484 -0.020109706 0.012888609 0.03769036 -0.019448433 -0.032407187 -0.03935273 -0.036733475
0.017039945 0.08252253 0.08425224 0.0011978705 -0.016577087 0.070807554 -0.005974993 0.057392072
0.0050266725 0.012837912 0.03156935 -0.0071572536 0.010143112 0.048076645 0.007823259 0.01336447
0.018697007 0.0025550127 -0.0060993866 0.047308642 -0.00865168 0.044948455 0.026781049 -0.0041446513
0.005021964 -0.014958123 0.01776667 -0.0088213645 -0.043323196 0.033280183 -0.018696455 -0.08336045
0.011049144 -0.038937446 -0.061529122 -0.022111023 -0.029073855 -0.023969859 -0.011327344 0.061304104
-0.044915546 -0.00246309 0.013526137 0.052110907 -0.054092914 0.082282305 0.01771434 0.009860126
-0.035951383 -0.025329366 -0.0063609374 -0.0012141041 0.047578424 -0.017581938 0.051952615 -0.032914735
-0.03773021 0.0020513812 -0.028826525 -0.0065365895 0.04139114 0.05088109 0.030758478 0.020535229
0.02243392 0.017873125 0.027738148 -0.034800567 -0.022885604 -0.005951351 0.0016702814 -0.07626084
0.026772583 -0.011709121 0.0037044894 0.017638247 -0.0009858692 0.001226086 -0.043026168 -0.00045473114
-0.0425595 0.01247423 0.04241176 -0.0068742037 -0.029165477 0.030368775 0.0713889 0.04724942
0.03020095 0.0038763538 -0.022160871 -0.010533743 0.023366667 0.014779403 0.021432567 0.02574395
0.012942962 -0.004539041 0.0261819 -0.060095847 -0.03302754 0.04200617 -0.06323749 0.0057861567
-0.0017760092 -0.015135579 -0.02011279 0.03411649 0.08084357 -0.02430594 0.011431168 0.020614112
0.021121545 -0.00472338 -0.05514668 -0.0012345263 -0.009807752 -0.01812973 -0.0064782966 0.05232359
-0.039171502 0.030928262 0.088361986 0.0066301543 0.012025598 0.07758308 -0.008818131 -0.04416954
0.055716734 -0.05553393 0.04278967 0.049019735 -0.0010602565 -0.0069076377 -0.063059025 -0.013216354
-0.05072 -0.004439029 -0.03722806 0.03159384 0.008593694 -0.050279163 0.033320937 -0.04009173
-0.025363913 -0.06321774 0.07047843 -0.023576956 0.045005336 0.06245232 -0.041082986 0.02836631
0.051077627 0.0009539017 0.006821434 -0.021080771 0.04858201 -0.03934107 -0.024338555 0.032324795
-0.013082947 -0.024275273 -0.005244272 -0.07693308 0.005753379 0.0050551705 0.025252486 0.015509285
-0.049276635 -0.018612709 0.053286053 0.015226256 -0.054437343 -0.052852567 0.04259303 0.03501352
-0.020649098 0.010233967 -0.004746853 0.0071653863 -0.021780204 -0.044453364 -0.06036517 -0.007234511
0.05382778 0.0016653847 0.033235315 0.014995418 -0.018810991 -0.0050243773 0.039556198 0.03841295
0.018130677 -0.030928083 0.0008096688 -0.049107395 0.026725825 -0.047488973 -0.023542352 -0.034035932
0.019966323 0.023891587 -0.011320129 -0.008157459 0.019718653 0.014076169 0.040732488 0.025129793
0.014716118 0.005742718 -0.04364034 -0.029029576 0.038206633 -0.056776356 -0.042748623 0.0312772
-0.0069020796 -0.0013308002 0.056394644 0.022357935 -0.018537715 0.060501534 -0.06651835 -0.07332418

layers.1.bias_mu f4 [256]
00000000: c0d0 00be 26ee d0be 6e1c 0a3f 84c4 90bf
00000010: 5a62 2bbf 8bb0 3dbe ce7b 23bf c5fa 80bc
00000020: b0df 2f3f e832 89bf ace0 50be 57e8 c13e
00000030: b627 ba3e 9796 ee3e d216 9a3f b48e 023f
00000040: df55 40bf 8f2d e13e 867c b03e 9c69 87bd
00000050: fb85 4abe 48f3 fa3e 5010 cdbe 5524 393d
00000060: f7e2 133f 3bc7 793e 3c5b 373e 8968 87bc
00000070: 22b3 b2be a5c8 47bf a636 fa3e b6c1 f93e
00000080: 0ba8 833e 72f2 54bf 8f08 253f 768d 51bd
00000090: 3fb1 f23e bc16 d13e 0364 8d3e deeb 7abe
000000a0: 400c 1b3e 05d2 153f 4967 133f 237d 3e3f
000000b0: 8f75 1d3f cc9d e8be b303 873e c1df 563f
000000c0: 854b 14bf bb1f babe de64 753e ef9d d3bd
000000d0: 8cdd a23e 8db1 4e3f 06e5 993e b0ef 58be
000000e0: 429c 62bf b72c ff3e 645f d33e f917 673e
000000f0: 78a9 bf3c 6d24 b43f 922a afbe 4e86 133f
00000100: b6a6 903f f2b6 c43e 854d c73e 03ae c63d
00000110: 998a 1a3f 10c0 1b3e 9feb 00be 7c3d bb3e
00000120: 70be 4dbf f47f d6be b440 173f 076f 02be
00000130: 2a2a 9d3f 783e 893c f1fd 0bbf 0d77 1abf
00000140: ba0f 883e 7ae0 1abf c255 ed3e df79 103f
00000150: 9132 fc3d fd33 cfbe 580f 1a3f 49e7 db3e
00000160: 7deb 553f 7229 1a3f 4216 883e f84d bbbf
00000170: bdcf 553f 0f54 ea3e 7eca 2c3e 7765 96bf
00000180: f470 063f 5bcf adbf 4ae0 683f 9d4b acbd
00000190: cf7b 40be d90d 3abf 87d2 ecbc 0d20 28bf
000001a0: f2a4 33be 355d a6be 9591 8ebd caaf 08bf
000001b0: eb37 2fbe 3272 823f 6737 eb3e c9ad c63d
000001c0: fe53 063e 2548 c6be d8d8 8dbe 51d1 86bd
000001d0: 201c dc3e 1d01 913d 42c4 d73d a04f 27bd
000001e0: a788 73bf a5bd ad3e 73e9 7dbf dc8a 973f
000001f0: 76a2 8abf e10d 103f 9fc0 aabd b3a1 b1bd
00000200: 3008 2cbf 303e 023f 15f1 19bf 74d6 0cbe
00000210: 3f8e 983f 46c3 b5be 21a3 c73d fda3 b5be
00000220: 14a0 7dbe 92e9 3c3e 51f7 8f3e 4ee5 c0be
00000230: 08ff fd3e cd00 193e 9a2b 82bc 11da f03e
00000240: bb66 8fbd 89e8 2d3f 78b5 303f 5cc1 bbbd
00000250: 2e69 17bf c276 223f 3505 0a3e 7b81 3bbf
00000260: b51a 44bf 1fab bbbf dad0 373e 409b 3ebf
00000270: 4fd6 04be 90de 73bf 0140 013f 1ad5 8fbd
00000280: bbef 0d3e b0b7 f73e 44b3 65be 3f8f c63e
00000290: dffc c2be 51aa 3fbf fa68 c6be 05b6 633e
000002a0: f1ae 6d3f 9548 c53e 9969 46bf 46ed 0fbc
000002b0: 9bea 8f3d 28bf 09bf 4dc9 7d3f 3639 80bf
000002c0: a7b6 4ebf 6f49 433e df7e 0ebe a283 5d3f
000002d0: bc75 0f3e 590e e5be 7646 e4be fc3b 37be
000002e0: 747f 9f3f c910 4f3e a5a4 c03e 689e 553e
000002f0: 0e35 cbbe e499 123e c40c ffbe 0989 81be
00000300: c99e bc3e 64f0 2b3f badb f73e 06de 133f
00000310: d07e 10be 796f 60bf b7a7 57bd 38ff 88bc
00000320: 307b c83e 0189 843f 554c 2abf 5a53 053f
00000330: d79a 99bf e396 d5be 31f3 0dbf f02b 463f
00000340: 6dcf 86bf c672 283f 231c b13d a59d 0bbe
00000350: d9c2 09bd 0c9f 57bf 9814 aabf 6cca da3e
00000360: b689 3b3e 4af7 ff3d d257 f3bd ce17 2f3f
00000370: 6103 903d 1751 9ebe e7dc 26be 0325 ee3d
00000380: 5518 44bf f72c 5cbf 735c 51bf 865c c5bf
00000390: e01b 7d3f 82c3 19bf 9737 193e d4b3 c63f
000003a0: c815 8ebe 44ec 1c3e 3746 0dbf f6ad 7c3f
000003b0: 1eae 51bd 60dd 6e3e fcf5 f83b e81e ef3e
000003c0: 0ce5 0b3f 5174 1c3d 80e0 013e 52c7 ec3e
000003d0: 3440 41be c8e9 a63e 8fd5 7c3f 010f 66be
000003e0: 8e19 54bf 2a17 b7bd c1e0 61bd 04b1 bc3d
000003f0: 4bfa 87be 8f8c 2ebf 54a8 763f 9128 5a3f
-0.12579632 -0.40806693 0.5394963 -1.1309972 -0.6694695 -0.18524377 -0.63860786 -0.015744576
0.68700695 -1.071866 -0.20398206 0.37872574 0.36358422 0.46599266 1.2038214 0.50999
-0.7513103 0.4398007 0.34470004 -0.0661194 -0.19777672 0.49013734 -0.40051508 0.045200665
0.57768196 0.24392407 0.17905897 -0.016529338 -0.34902292 -0.78040534 0.48869818 0.48780602
0.25714144 -0.8318244 0.64466184 -0.0511603 0.47400853 0.40837657 0.27615365 -0.24504039
0.15141392 0.5852359 0.57579476 0.74409693 0.61507505 -0.4543289 0.2637001 0.8393517
-0.57927734 -0.36352333 0.23964259 -0.10332858 0.31809652 0.8073967 0.30057544 -0.21185184
-0.8851968 0.49838802 0.41283715 0.22567739 0.023396239 1.4073616 -0.34212166 0.5762681
1.1300876 0.38420826 0.3892633 0.09701159 0.60367733 0.15209985 -0.12589882 0.36570346
-0.8036871 -0.41894495 0.59083104 -0.12737666 1.2278492 0.01675342 -0.5468436 -0.6033791
0.26574498 -0.60498774 0.4635449 0.5643596 0.12314332 -0.4046935 0.6017966 0.42949894
0.8356245 0.6021949 0.2657948 -1.4633169 0.8352011 0.45767257 0.1687412 -1.1749715
0.525161 -1.3578905 0.9096724 -0.084128596 -0.18797229 -0.7267738 -0.028908981 -0.65673906
-0.1754339 -0.32492986 -0.06961361 -0.5339323 -0.17111175 1.01911 0.45940706 0.09701116
0.13117978 -0.38726917 -0.277045 -0.06582893 0.42990208 0.070802905 0.1053548 -0.04084742
-0.9513039 0.3393375 -0.9918434 1.1839252 -1.0830829 0.5627118 -0.08337521 -0.0867342
-0.67199993 0.5087614 -0.60133487 -0.13753682 1.191841 -0.35500544 0.09747911 -0.35476676
-0.24768096 0.18448475 0.28118375 -0.37674946 0.49608636 0.14941712 -0.015889931 0.4704137
-0.07002016 0.67932945 0.690269 -0.0916774 -0.59144866 0.6346246 0.13478549 -0.73244447
-0.7660325 -1.4661597 0.17950764 -0.7445564 -0.12972377 -0.9526148 0.5048829 -0.07023068
0.13860981 0.4838233 -0.22431666 0.38781163 -0.3808355 -0.7486926 -0.38751966 0.22237404
0.92845064 0.38531938 -0.7750488 -0.008784598 0.07027169 -0.53807306 0.99135286 -1.0017459
-0.80747455 0.19070981 -0.13915585 0.8652898 0.14009756 -0.4473751 -0.44585007 -0.17893976
1.2460771 0.20221247 0.37625614 0.20861208 -0.39688915 0.14316517 -0.49814427 -0.25299862
0.36839893 0.6716368 0.48409826 0.57760656 -0.14110875 -0.87670094 -0.05265018 -0.01672326
0.39156485 1.035431 -0.66522723 0.5208031 -1.2000378 -0.4171668 -0.55449206 0.77410793
-1.0532051 0.6580013 0.08647945 -0.13634355 -0.033633087 -0.8422706 -1.3287535 0.4273256
0.18314251 0.124983385 -0.11881985 0.683957 0.070318945 -0.30921242 -0.16295205 0.11628153
-0.7659963 -0.8600611 -0.8178169 -1.5418861 0.9887066 -0.60063946 0.14962612 1.5523629
-0.27750993 0.15324503 -0.55185264 0.98702943 -0.05119144 0.23326635 0.007597683 0.46703267
0.5464637 0.038196865 0.12683296 0.4624582 -0.18872148 0.32600236 0.98763365 -0.22466661
-0.82851493 -0.08939965 -0.055145983 0.092134506 -0.26558146 -0.68183225 0.963506 0.8521815

layers.1.bias_sigma f4 [256]
00000000: 8b86 60bc b3a2 38bd 6767 f23b 34fd 16bd
00000010: ae89 723b f7f2 a13b 8d8b 733c bf77 5aba
00000020: e94a d0bc 09b1 d93c d5fb a6bb 8f75 453c
00000030: 2668 7f3d c734 223c 0f4a 38bc a440 3a3c
00000040: b1c5 2ebc 817e bdbc 9031 8bbc 03f3 72bc
00000050: 0d89 51bd 3d35 c23c 3187 1e3c 7a76 683c
00000060: d1cd c63b ffc0 9b3d 3c12 7437 d498 1fbc
00000070: 2f39 323d 4e24 533c 24de 023d 99be 33ba
00000080: af03 d33c b267 8cbc 2697 c63b fddf 983c
00000090: 3ca5 cfbc c23c 97bc 164d 64bc b4b1 063d
000000a0: effd 40bd e629 fdbb 271c b23c 6e5f d33b
000000b0: ff91 bcbc 0c10 38bc 8fa8 aebc cf37 a7bc
000000c0: c986 1ebb df7d 95bc e1c5 45bb 8f7e 353c
000000d0: 6469 4c3b cac9 873d 6549 f0bc 81ff b5bb
000000e0: af3f 33bc b8ce c7bc ff09 493b 357a d0bc
000000f0: a9fa b83c 358e 19bc 263c cd3c c9fa 253d
00000100: 05c7 6cba 468d 4b3b c4f1 a23c b0b0 efbb
00000110: a0b7 b8bc 2469 2a3b c5c4 4cbc c02b 67bb
00000120: d9a5 e4ba da5d 09bd 724b a03c c560 42bc
00000130: 38c3 d13c a224 0cbd ae50 0a3b 2d5b 583c
00000140: a49b d53c 84db 24bd 0a9f 61bc afea bcbc
00000150: a3a2 6dbb 4cfc 02bd d6b8 cbbb 7c54 28bc
00000160: 2018 d63b 2bfb 92bc 3843 1b3c 1a0e cf3c
00000170: c069 d2bc 06dc 21bc c8c1 77bd 2df5 85bd
00000180: cf26 163d 5be7 bcbd 2693 97bc 2aa2 54bc
00000190: 073c 0cbc c06e dc3c 79d9 893d fba5 04bc
000001a0: 99ba c6bc 7270 15b8 b364 7fbc 8452 37bd
000001b0: 1c91 973c 309b 9abd 55b8 eeba ddcc af3c
000001c0: 128f dd3c 06ad ab3c 6a3b 7e3c 80cf c93c
000001d0: 8fdb 06bc a9b8 353c 2592 83bd e617 82bc
000001e0: 79d1 d93b 05c2 b0ba c854 a3bc 9fbb 4c3c
000001f0: cb1f 90bc 351b a2bc a5e8 d7bb de24 a3bb
00000200: cabd 9a3b e9ec 57bb a8c8 1bbc 1b00 1ebc
00000210: 5c7c d5bb 27ac 573d 68c7 f93b a896 5ebc
00000220: 3825 0a3d 097e 9ab9 20bb 91bc cbab 083d
00000230: 34f3 eabc e12f 093c cbb4 803c ff85 e93b
00000240: d3ca 463d 6159 903c 60e2 fa3c 4b4f 4bbd
00000250: 0f67 df3c 75ef b83a aa0e c0bc b0b6 fc3b
00000260: 4afc 333b 785f c03b 2a3d babc 098b 91bd
00000270: b1e8 8838 210a c2bb af0a e43b be14 873b
00000280: 3805 3bbc 535c 45bc f142 cdbc 701a 59bd
00000290: e8d2 ccbc aff9 7b3c 290e 5ebd 5efe 15bd
000002a0: 08c4 c83a 531d 12bc c724 923c 3f9f fe3c
000002b0: 6f7d dc3b 11f5 433d a3b2 4f3c ad76 8bbc
000002c0: ebb6 60bb 88ee 093d 672f 95bc 7a0d c8bc
000002d0: 76dd f7bb b003 91bd c0aa 743c 4159 643c
000002e0: 26a6 963c b725 50bc 0dbd 04bc 08fc 4f3d
000002f0: f273 ccbc 9e3d d83c 4448 4dbb 0176 f13c
00000300: ce8a 96bc cd15 a8bb 56ac b8bb 4014 a2bc
00000310: 1659 fdba f553 f4bc 0fd0 febc d4e3 a8bb
00000320: 6864 5bbb d79d 5739 cc29 20ba f91f c93b
00000330: 1fc0 83bc 1d64 9fbd 2b76 aab8 ad54 bb3c
00000340: 1307 a73b c8a9 88ba 27a6 55bd c93d 303c
00000350: 71eb 92bc cffa c93c afd4 a1bc c377 babc
00000360: 6788 36bc 99fe 86bc 6ddb bf3c 1810 18bd
00000370: e1eb 58bd 313c 4c3d 6e4a 893d ca24 cabc
00000380: 5338 9c3c 9099 ac3c a566 ba3c 5257 ac3c
00000390: 37f9 26bb 8789 d63c 9911 8abc 294b 803b
000003a0: 160d cf3c e3eb d63c 6e36 cabc 8656 0b3d
000003b0: 3e02 d73a b283 fb3c ee17 e13b 9974 d1bb
000003c0: b3d1 ecbc d2d2 d5bb 7080 773d 6a35 103d
000003d0: f7af 02bd 1af0 dfbc deb2 12bb ddd0 39bd
000003e0: 54c9 ce3c 07f0 563c d664 fbbc d6c2 93bc
000003f0: 7cf1 1e3c f0da dd3b da86 b4b8 661f 633c
-0.013703953 -0.045077037 0.0073975804 -0.036862567 0.0037008333 0.0049422937 0.0148648145 -0.00083338836
-0.025426345 0.026573675 -0.0050959387 0.012051954 0.062355183 0.009900278 -0.011248126 0.011367951
-0.0106672505 -0.02313161 -0.016991407 -0.014828446 -0.051156092 0.023707027 0.009675787 0.014188403
0.0060670157 0.076051705 1.4547779e-05 -0.009741027 0.043511566 0.012887074 0.03195013 -0.00068567094
0.025758592 -0.01713929 0.0060604988 0.018661493 -0.025347345 -0.018461589 -0.013934394 0.032884315
-0.04711717 -0.007725942 0.02174194 0.006450585 -0.023018835 -0.011234295 -0.02132061 -0.020412354
-0.0024189225 -0.018248497 -0.003017776 0.011077537 0.0031190747 0.06630285 -0.029331872 -0.00555414
-0.010940476 -0.024390563 0.0030676124 -0.025448898 0.022580462 -0.009372284 0.025053095 0.04052237
-0.0009032342 0.0031059547 0.019890673 -0.007314764 -0.022548497 0.002600261 -0.012498085 -0.003527388
-0.0017444446 -0.03353677 0.019567225 -0.011863892 0.025605783 -0.034214623 0.0021105218 0.013205332
0.026075192 -0.04024841 -0.013770828 -0.023061125 -0.003626027 -0.03197889 -0.0062171025 -0.010274049
0.0065336376 -0.017942032 0.009476475 0.025275279 -0.025685191 -0.009879118 -0.06048754 -0.06540904
0.036658105 -0.09223815 -0.018502783 -0.012978116 -0.0085592335 0.026908278 0.06730933 -0.008096213
-0.024258899 -3.562909e-05 -0.015587973 -0.044756427 0.01850181 -0.07549131 -0.0018212894 0.021459991
0.02704576 0.020956527 0.015517095 0.024635077 -0.008231058 0.01109139 -0.06424359 -0.015880536
0.0066472855 -0.0013485557 -0.019937888 0.012495904 -0.017593285 -0.019788364 -0.0065890127 -0.00497876
0.0047223317 -0.0032947606 -0.009508289 -0.00964358 -0.006515069 0.05265441 0.007622648 -0.013585724
0.0337269 -0.00029467072 -0.017789423 0.03336696 -0.028680421 0.008373232 0.015711209 0.0071265693
0.048533272 0.017620744 0.030625522 -0.049636167 0.027270822 0.001410945 -0.023444492 0.0077122077
0.0027463608 0.0058707558 -0.022734243 -0.07106597 6.5283275e-05 -0.0059216176 0.0069592814 0.0041223457
-0.0114148185 -0.012045938 -0.025056334 -0.05300373 -0.025002912 0.015379353 -0.054212723 -0.036619537
0.0015317211 -0.008918124 0.017839802 0.031081794 0.00672882 0.047841135 0.012676868 -0.017024362
-0.0034288715 0.033674747 -0.01821108 -0.024420489 -0.007564242 -0.070807815 0.014933288 0.013937295
0.018389773 -0.012704304 -0.008101714 0.050777465 -0.02495763 0.026396569 -0.0031323591 0.029475214
-0.018376734 -0.005129552 -0.0056357784 -0.019785047 -0.0019328918 -0.02982519 -0.03110507 -0.0051541124
-0.0033476595 0.00020562798 -0.0006109744 0.0061378446 -0.016082821 -0.07782767 -8.128242e-05 0.022867525
0.005097279 -0.0010426575 -0.05216041 0.010756918 -0.017934533 0.024655728 -0.019754736 -0.022762185
-0.011140919 -0.016478823 0.02342006 -0.037124723 -0.052959327 0.04986209 0.067036495 -0.024675746
0.019069826 0.021069318 0.022754023 0.021037731 -0.0025478133 0.026188625 -0.016854094 0.00391521
0.025274795 0.026235526 -0.024684157 0.034018062 0.0016403866 0.030702446 0.0068693077 -0.0063920734
-0.028908586 -0.006525376 0.060425222 0.03520719 -0.031906094 -0.027336169 -0.0022384445 -0.045365203
0.025242485 0.01311875 -0.03068773 -0.018037241 0.009701129 0.006770484 -8.608187e-05 0.013862466

layers.1.weight_epsilon f4 [256, 256]
00000000: 0cd2 813f 2194 86bf c993 f1be 5ddd 933f
00000010: 9ce7 3dbf 0eb2 ca3e 937c 583f 6cd7 43bf
00000020: 8297 7ebf cb60 e2bf d73b 2f3f fc4e 3fbf
00000030: f9a4 88bf 3f84 9d3f 286d ec3f ba6e 233f
00000040: 859e aa3f 0278 f8bf c161 09bf b26d c03e
00000050: 493b 853f 3005 debf 4538 14bf 5194 a7bf
00000060: 1d11 63bf 02fc 853f 84a0 9bbf 3a87 bf3f
00000070: 7e94 053f fd24 943f 9049 8ebf c260 0abe
00000080: 6db2 8c3f a02f 3dbf 3844 0bbf a607 6b3f
00000090: f9b9 463f 99f6 89bf 04df 573f 823c e7bf
000000a0: 3df4 80bf 4b2e 893f ec42 84bf 6c4f 943f
000000b0: ca24 4bbf b393 8dbf 2fa1 673f 8eb2 7fbf
000000c0: bf25 0e3f 6b16 bebf c700 19bf f923 0c3f
000000d0: 27d8 ad3e e707 a23f 9e08 893e 8567 57bf
000000e0: d26e 8bbf 4761 803f ed2e dc3e a396 04bf
000000f0: 2b84 b23f 65cb 8ebf afb6 a1bf aa27 833f
00000100: aefb 0abf 7ba0 ba3e f42f abbf 162e e8be
00000110: 87b2 c33e 1230 193f 2cd2 68bf 9663 acbd
00000120: 44b3 553f f3d1 563f 540a 083f 59c7 60bf
00000130: 6f6d 92bf d5cf 8e3f b286 c83e f655 ae3f
00000140: da3e bc3f c448 1c3f cdcc febe c213 40bf
00000150: 1a3e 823f 7276 ae3f 51df 453f da94 30bf
00000160: ca75 84bf 8684 8b3f b326 41bf 5468 2bbf
00000170: 972a 543f 2b81 6c3f aa1c 913f be25 b83e
00000180: cfe2 bbbe f234 8dbf a84e 83bf 9d2f 91bf
00000190: 888d c03f 9863 c0bf d72f 4ebe 801b 25bf
000001a0: a208 863f 6fbf 5f3f cc29 d13e eaa3 88bf
000001b0: 8ae4 9dbf 94b0 bb3f 6501 a1bf 1aea 7bbf
000001c0: 4287 0d3f 708c debf ff32 fc3e b174 173f
000001d0: 1741 67bf 2c3c 6abf 1661 81bf ac98 943f
000001e0: a58d 693f db84 833f 75a7 223f 826c 86be
000001f0: a146 a6bf 540d c03f 8ddb 0b3f 4160 0d3f
00000200: 4e45 5fbf 57fc 28bf 3050 3fbf 7de8 863f
00000210: d621 c6be 4d41 9dbf b3c3 77bf d9b2 863f
00000220: 3869 75bf b9a6 c1bf 2ae1 a83f d095 7ebf
00000230: b522 a3bf 087d 12bf dbb9 2e3f 0b6e 1e3f
00000240: d165 cc3f 0eb0 9cbf 4a6b 583f 0dcb aebf
00000250: 61af 7e3f 5aed 94bf 1369 d73f d0b4 5fbf
00000260: ba28 773f ede2 973f c8ff 853f aad9 0cbf
00000270: 5678 783e e0bd 2e3f 92e4 533f 42ef 443f
00000280: 78cd 32bf 64e0 cd3f 68d9 82bf 40b2 bcbf
00000290: b4ef ce3f 3e40 a5bf 3cc1 88bf bddd 563e
000002a0: d077 5b3f db11 a3be ddca 5fbf 048f 073f
000002b0: f2a4 293f 29bd 33bf 9c1b 903f dd12 b1bf
000002c0: 463f 8f3f 0c2f b03f a5cd 9a3f 394e 46bf
000002d0: a02e 96bf ce88 6bbd 0e1b 823f 4777 a83f
000002e0: ada4 843f 9085 ff3e 83f7 aabf a45c 033f
000002f0: 1ab2 43bf 0aef e5be 7666 b13f 761a 8dbf
00000300: 1a68 b8be b009 6c3f 4db2 86bf c796 a43f
00000310: 0f15 51bf 256b 993f b1e6 233f 86ca 2ebf
00000320: f021 acbf 3d1f 323f fead 37bf e42f 6c3f
00000330: e88e b1bf 0b04 a03f 5471 9a3f 1dab 32bf
00000340: 1959 f33e fa98 7abf e12f 953e dc96 bbbf
00000350: 535f 413f 1503 3ebf dc04 9dbf 5bf2 06bf
00000360: 610b fc3e 9431 5a3f 2e9c 20bf bf2c 3cbf
00000370: 5050 ca3f addf 95bf 66d5 813f f975 323f
00000380: ff89 00bf e2ce 423f 7e44 893e 7b5b f9be
00000390: fef4 a13f 90a6 653f e06f 003f 4604 1d3f
000003a0: 1949 463f c69d a1bf 9c32 633f 9bf4 103f
000003b0: 84dc 2c3f f0e6 353f db11 5dbf ad8c ce3e
000003c0: 0446 6fbf 2872 743f b09f 583f 44a0 953f
000003d0: e977 cebf c807 43bf 9318 89bf 861f fc3e
000003e0: 91dd f0be bfa1 4ebf 2024 0dbf c3ec 753f
000003f0: 552b 533f 5409 3a3f 52f9 793f a4ea 6cbf
1.0142226 -1.0513955 -0.47183064 1.155193 -0.7418153 0.3958897 0.84565085 -0.7650058
-0.9944993 -1.7685789 0.68450683 -0.74729896 -1.0675346 1.2305983 1.8470812 0.6384083
1.3329626 -1.9411623 -0.53664786 0.3758369 1.0408717 -1.7345333 -0.5789836 -1.3092138
-0.8869799 1.0467532 -1.215836 1.4963143 0.52179706 1.1573788 -1.11162 -0.13513473
1.0991951 -0.73900795 -0.5440097 0.91808546 0.7762752 -1.0778381 0.8432467 -1.806534
-1.0074536 1.0717252 -1.0332923 1.1586738 -0.7935301 -1.1060699 0.9048032 -0.9988183
0.55526346 -1.4850591 -0.5976681 0.5474239 0.33953974 1.2658662 0.26764387 -0.84142333
-1.0893195 1.0029687 0.43004552 -0.51792353 1.3946584 -1.1155821 -1.2633876 1.024648
-0.5429028 0.36450562 -1.3374009 -0.4534766 0.38222143 0.59838974 -0.90945697 -0.08417432
0.8347666 0.8391411 0.5314076 -0.8780418 -1.1439646 1.1157175 0.39165264 1.3619983
1.4706681 0.6104853 -0.49765626 -0.7503015 1.0175202 1.3629897 0.7729388 -0.6897713
-1.0348446 1.0899818 -0.75449675 -0.6695607 0.82877487 0.92384595 1.1336873 0.35966295
-0.3669648 -1.1031783 -1.0258379 -1.1342655 1.5043192 -1.5030394 -0.20135437 -0.64495087
1.0471385 0.8740148 0.408522 -1.0675023 -1.233537 1.4663262 -1.257855 -0.98404086
0.5528451 -1.7386608 0.49257657 0.5916243 -0.90333694 -0.91498065 -1.0107753 1.1609092
0.9123176 1.0274919 0.6353677 -0.2625466 -1.2990304 1.5004067 0.5463188 0.55224997
-0.87215126 -0.6601004 -0.7473173 1.05397 -0.3869769 -1.2285553 -0.9678299 1.052333
-0.95863676 -1.5129005 1.3193715 -0.99447346 -1.2744967 -0.5722203 0.6825234 0.6188666
1.5968572 -1.2241228 0.8453871 -1.3655716 0.99486357 -1.1634934 1.6828941 -0.8738527
0.9654652 1.1866127 1.0468683 -0.5501963 0.24264655 0.68258476 0.82770646 0.7692758
-0.6984477 1.6084104 -1.0222597 -1.4741898 1.6166902 -1.291023 -1.068397 0.20983024
0.85729694 -0.3184956 -0.8741892 0.529526 0.6626731 -0.7021051 1.1258426 -1.3833882
1.1191185 1.3764358 1.2094008 -0.7746311 -1.1732979 -0.057503514 1.0164506 1.31614
1.0362755 0.49906588 -1.3356785 0.51313233 -0.76443636 -0.44908935 1.3859394 -1.10237
-0.36016923 0.9220228 -1.0523163 1.2858514 -0.8167276 1.1985823 0.6402388 -0.68277776
-1.3447857 0.69578916 -0.71749866 0.92260575 -1.3871737 1.2501234 1.2065835 -0.6979235
0.47528914 -0.97889674 0.2913809 -1.4655414 0.7553608 -0.7422345 -1.2267108 -0.52713555
0.4922743 0.852319 -0.6273831 -0.7350578 1.580576 -1.1708885 1.0143249 0.6971126
-0.50210565 0.7609693 0.26810068 -0.48702607 1.2652891 0.8970728 0.5017071 0.61334646
0.7745529 -1.2626274 0.887491 0.5662324 0.6752398 0.7105551 -0.8635537 0.40341702
-0.9346621 0.9548669 0.84618664 1.1689534 -1.6130344 -0.7618375 -1.0710624 0.492428
-0.47044042 -0.80715555 -0.5513325 0.96064395 0.82487994 0.72670484 0.9764606 -0.92545533

layers.1.bias_epsilon f4 [256]
00000000: fe76 8abf 70a5 c7be 6590 53bf e2d6 9abf
00000010: 94dc b5bf 291c 7fbf 2945 683f 3732 433f
00000020: db37 69bf 7583 643f 856c 19bf cd8c 0f3f
00000030: 6890 a3be bee7 93bf 5047 783f 360b 81bf
00000040: 039c 76bf 7f68 49bf 22e6 223f c703 e13e
00000050: 3a48 243f 2a17 66bf 8b51 e5be dcf2 dcbe
00000060: b38e 7d3f 3978 733e dd73 603f 3d17 01bf
00000070: e585 5d3f 3228 edbe 629e 1dbf b231 69bf
00000080: 5f56 31bf 73b8 8b3f 50df ff3d d1ef 783f
00000090: 2535 71bf 6ed5 753f 89fe 863f d21d be3f
000000a0: 60de a1bf 5a24 e63e b4e3 473f 0e40 81bf
000000b0: b219 b93e f651 10bf 5a96 5d3f a057 403f
000000c0: 0099 36bf 3533 8bbf 5431 343f 724d 513f
000000d0: 0201 85bf f4f6 893f 9f89 8abf 6017 003f
000000e0: 8c7d 14be f95d 6c3e 9f72 373f f88d 9bbf
000000f0: 184f 5f3e 8247 26bf 400d 03bf 0d55 a6bf
00000100: cde3 06bf 5398 eebe c6d3 87bf 2742 2cbf
00000110: 9a1d 893f 297e 813e 805d 78bf ebc5 18bf
00000120: e907 7fbf 5d1a 8ebf c91d 31bf b14d 96bf
00000130: 6c25 933e 13a5 673f 3ba2 143e f248 703f
00000140: 6123 d4be aad2 00bf 40b4 1a3f 4f07 80bf
00000150: 4a33 99bf e09d cbbe 10e3 573f 892e 7b3e
00000160: bf93 2bbf 957f b3bd 380f 41bf d5b8 7bbf
00000170: 5130 2c3f 7e46 c9be a4c7 363f 5510 1e3f
00000180: f5e4 8bbf 0c85 d43e 1a29 713f a90a 39be
00000190: 5a3a ddbe 4364 8abe 22b9 1f3f 0dc0 9b3f
000001a0: baa0 463e c2c1 293f 003f 89bf 9c7f 84bf
000001b0: 4fac 35bf c0f2 ef3e 8713 8d3e 3cb8 26bf
000001c0: b478 433e a140 a43f 348c 51bf b443 8d3e
000001d0: 0389 6f3f 9e00 523f 1ff9 e03e 8b79 153f
000001e0: d4f0 2abf f0e7 4d3f 79af f7be ec48 353f
000001f0: d55d 543f acf7 2bbf 09e5 a73f f4d0 9cbf
00000200: b43b c63e 94a4 143f 8769 743f ade5 39bf
00000210: aad8 803f 68d8 f3be 4de3 9dbf 0e68 8abf
00000220: 5e21 093f 603d 453f d653 a4be b1bb d23e
00000230: f791 283e 0afa 45bf 75ca af3f 612f 3abf
00000240: f5fc babe 2c2b 43bf 7f68 05bf 5ff3 83bf
00000250: 2c4f 8c3f 003c 17bf b2d5 93bf 54b9 7dbf
00000260: bc11 a4be 7c2a 15bf 7534 5fbf 2179 773f
00000270: c8ee 84bf 756a 5cbf 3277 953f d7c5 1d3f
00000280: 81c2 9abf 9ef2 07bf f118 b13f 1368 28bf
00000290: c597 8dbf cd44 2dbe 0338 84bf 152f 7cbf
000002a0: bf9e 9cbe 82fe 673f efd5 373f 8890 90be
000002b0: fd25 6d3f 1afc 3ebf 07b4 b7bf 1821 7a3f
000002c0: 2be8 b2bf d66a 0bbf a478 57bf 810d 81bf
000002d0: 3da5 823f 6226 ad3f f494 583f a434 dfbe
000002e0: ce20 ce3e 2a55 bbbe d224 033f 1cbe 333f
000002f0: 57c3 843f f06c 393f 13d8 fa3e 6f6c 97bf
00000300: a774 c03e d76c 72be 308c a0bf 8415 38bf
00000310: 8203 f33e 36c7 08bf c8b1 713e 0be9 773f
00000320: e3e4 143f f4d8 f9be 83af 8dbf f16d 203f
00000330: ead7 66bf ad6f a73f c337 a4bf 7dd1 82bf
00000340: 34fb 53bf d113 5a3f 6097 0cbf 85b0 92bf
00000350: 2f2d 74bf c224 9a3f 4703 453f 5aa6 e73e
00000360: 93ef 02bf 8c38 793f 3361 c73e c41a 8fbf
00000370: a78d 0a3f b92d c7be 1b56 213f 5112 893f
00000380: 23d4 a4be fd00 62bf 983a 723d b10b 793f
00000390: 14e9 ba3e 5ce2 40bf f9fe 9c3f ad2f 65bf
000003a0: 325d 10bf e920 89bf c596 99bf e1eb ab3e
000003b0: 6ee7 023f 7c1c 35bf 3290 953f 6e4f 823f
000003c0: 8a55 993f 142f 8c3f c042 543f bb7d 6d3f
000003d0: fe2a 493f fedf 993e a20d 8b3f cd46 b1bf
000003e0: 26bd 463f e8f7 6cbf a75c 193f 49df a0be
000003f0: d2f6 9c3f b094 8e3f fd31 34bf ad16 1fbf
-1.0817564 -0.38993406 -0.82642204 -1.2096827 -1.420794 -0.99652344 0.9073053 0.76248497
-0.91100854 0.8926309 -0.5993121 0.5607422 -0.3194611 -1.1555097 0.96983814 -1.0081546
-0.96331805 -0.78675073 0.63632405 0.43948194 0.6417271 -0.89879096 -0.44788775 -0.43154037
0.99045867 0.2377633 0.87676793 -0.50426084 0.8653243 -0.4631973 -0.615698 -0.91091454
-0.69272417 1.0915664 0.12493765 0.9724093 -0.9422172 0.9602879 1.0546428 1.485285
-1.2645988 0.4494961 0.7808182 -1.0097673 0.36152416 -0.5637506 0.86557543 0.75133705
-0.7132721 -1.0875002 0.7038777 0.817588 -1.0390933 1.0778489 -1.0823249 0.5003567
-0.14501017 0.23082723 0.7165927 -1.21527 0.21807516 -0.6495286 -0.5119209 -1.2994705
-0.52691346 -0.4660059 -1.0611503 -0.6728844 1.0712159 0.25291565 -0.9701767 -0.59677
-0.99621445 -1.1101795 -0.69186074 -1.174246 0.28739488 0.9048626 0.14515011 0.93861306
-0.41433242 -0.5032145 0.6043129 -1.000223 -1.1968777 -0.39768887 0.84330845 0.2452947
-0.6702232 -0.08764569 -0.75413847 -0.98328906 0.67261225 -0.39311594 0.7139838 0.6174367
-1.0929247 0.41507757 0.9420334 -0.18070473 -0.4320858 -0.2702962 0.62391865 1.2167984
0.1939725 0.66311276 -1.0722351 -1.0351443 -0.7096605 0.4686489 0.2755396 -0.6512487
0.19089013 1.2832223 -0.8185456 0.27590716 0.9356844 0.8203219 0.43940064 0.58388585
-0.66773725 0.80432034 -0.48376063 0.70814395 0.82955676 -0.6717479 1.3116771 -1.2251267
0.38717425 0.58063626 0.9547352 -0.7261608 1.0066121 -0.47626042 -1.2334992 -1.0813005
0.5356654 0.77046776 -0.32095212 0.41158822 0.16461931 -0.77334654 1.373366 -0.72728544
-0.36521116 -0.7623775 -0.52112573 -1.0308646 1.0961661 -0.5907593 -1.154959 -0.99110913
-0.3204478 -0.5826795 -0.8718942 0.96669203 -1.038537 -0.8609994 1.1677 0.61630005
-1.2090608 -0.5310458 1.3835737 -0.65783805 -1.1061941 -0.16920777 -1.0329593 -0.9850934
-0.30589864 0.90622723 0.7181081 -0.2823527 0.9263609 -0.74603426 -1.4351815 0.9770675
-1.3977102 -0.54459894 -0.8416846 -1.0082246 1.0206677 1.3527339 0.84602284 -0.4359485
0.40259403 -0.36588413 0.5122806 0.7021196 1.0372113 0.7243185 0.48992977 -1.1829966
0.37589 -0.23674332 -1.2542782 -0.7190783 0.47463614 -0.5342897 0.23602974 0.9683997
0.58161753 -0.48798335 -1.1069187 0.6266776 -0.9017321 1.3080956 -1.2829517 -1.0220181
-0.8280518 0.8518649 -0.5491848 -1.146012 -0.95381445 1.2042468 0.76958126 0.45244104
-0.5114681 0.9735191 0.38941345 -1.1180043 0.54122394 -0.3890207 0.6302201 1.0708715
-0.32193097 -0.8828276 0.05913791 0.97283465 0.3650595 -0.75345397 1.2265311 -0.8952587
-0.56392205 -1.0713168 -1.1999136 0.335784 0.51134384 -0.7074659 1.168463 1.018049
1.197923 1.0951867 0.8291435 0.92769974 0.78581226 0.30053705 1.0863535 -1.3849732
0.7763237 -0.92565775 0.59907 -0.31420353 1.2262824 1.1139126 -0.70388776 -0.62143975
