src/hockey-env/random_training_1/weights/episode_294.pth (torch, 307504 bytes, 7 tensors)

layers.0.weight f4 [256, 18]
00000000: 587d 963e 2d8f ae3e 4207 4bbe 07bf 1e3d
00000010: b1ca b83c 910f 6dbc 2360 8f3e 9090 763f
00000020: d136 663f 2b36 81bd 4bad e43c 1f34 2d3e
00000030: 661f 2d3f d58f 82be f984 593f e64c 82be
00000040: 85c8 f5bf e5e1 963f 5a2b f2bd 4aed 76bf
00000050: 3a93 d73d 4a42 d6ba 4ff3 913a 3b77 95bb
00000060: e6c6 693f 6d5f 3ebf 0f3f 50bd 4f4b af3d
00000070: 76cf a3bd 42dd 943d 4477 0dc0 bcec 30bf
00000080: 4e28 6abe 7d46 e8bd 70f8 6d3f f724 153f
00000090: f5cc b8be d6ef eb3e 679c a6bd f2bd 0abe
000000a0: eb82 163e 2028 b4bd da97 cf3f 52b8 d13d
000000b0: ffc3 4f3f 145f 2a3e 1d66 c1bd e04d ed3d
000000c0: 75c0 633e d683 a0be 2a81 d93e 4f52 88bc
000000d0: 39c6 0f3e a62d 903e 9526 9e3e 5191 8c3e
000000e0: 580f 89bf 3d63 413d 0092 703b 93c3 5dbe
000000f0: caa7 48be ff49 f33d 6b21 a63a 8a2f 4c3c
00000100: 9c28 e2bb 1f1b 68bd e6ae 21be e28b 4abe
00000110: e78a 883c 9a39 65bc 9b1b 5b3c 9c1b 753d
00000120: 4374 4ebe 1683 4abe 6a40 3fbd de6e fbbd
00000130: 59b4 25be 25fc 043d e0aa e7bc 9f89 24bf
00000140: 62ed 803e 0e45 55be 48c7 123c 7ace 8f3d
00000150: 6b59 8e3f 9908 9abe fb18 893f 6088 09bf
00000160: ca0d 613f c0c5 9e3f f7bc ea3e 308a 793d
00000170: 8d8e 183f 541f de3d d508 11bc a4b4 e9bb
00000180: a31c 733f 6c90 15bf aaea 6f3e 53a2 773d
00000190: ace0 acbd 64ba 093d fb7f 72bf 5150 e8be
000001a0: 2164 f4be b5b8 85be f77a 1cbe 044b 9abf
000001b0: e229 18bf 63d9 6cbe 84fb 8e3e c241 923d
000001c0: f613 13bd 0f38 7abd ca85 243e 15c5 0a3f
000001d0: 610d 84be c1de 123e 5dd3 d0bd 1d19 8fbc
000001e0: a358 d5be 506d 913f 3c0a b9be 0af7 503f
000001f0: 6a7e 15bf 1497 923e d4e2 a1bc 240d 01c0
00000200: cfcf edbc 6d3a 9b3d fced 4fbe 16b6 153c
00000210: ad5f 9cbd fd52 b23f d241 bebe 1a9c 73bc
00000220: 3d1c d03c ae9f 043d 8cf3 163f e7dc d83e
00000230: 8cfb 073d 259f ad3c 908f c7bf 2b02 dc3d
00000240: d59e a23e 1e8e f0bd 24a0 803e ac35 1c3d
00000250: 9014 5bbd 4eab f03c fbbf 203d ee9e d63e
00000260: a496 b33e 75f6 9bbd e042 a53d abb6 fabc
00000270: eb6e 89bf 2410 863c f741 81bf 5564 0a3f
00000280: 60e6 23c0 d7bf acbf f5f0 f93c a02e 57bf
00000290: f142 073c 2da0 a83d 9eea 223c 4f37 49bc
000002a0: 7b04 0cbf 0fb3 283f 1fa8 5a3e 84cf ecbd
000002b0: a2f7 a03e a66a 9eba cfa4 883d 21b2 bb3e
000002c0: 9bee f5be 1dbe 87be ab45 5ac0 1723 ffbe
000002d0: 16bf 733c 4b85 b9be 8992 76be c409 b43c
000002e0: c2bf b83c f5e5 9e3c 53ce 043f 4aac cb3e
000002f0: 0b99 46be 4704 e83d 1c67 9ebe 955d 1e3e
00000300: 4069 38bf 1ffd dc3d 4aca 3c3f 458e 20bf
00000310: e2e6 813e 6e2f 7a3f ebef 273e 0b62 3cbd
00000320: 463f 5abc 4344 97bd fc5f adbd ef9b b63c
00000330: 4e84 0abf 903a cf3f d563 51bf e69b 013d
00000340: 4e0b 313f 050b c1bc f469 843c 5805 313d
00000350: 69a7 55bf 2f8c e7be 3c2d 803f 11a4 c6bf
00000360: a43f 9b3e 5348 05c0 6505 623e c310 803d
00000370: 194d 18be 63d0 3c3d 82d1 90be 80d0 df3f
00000380: b391 2440 3145 363d 6113 bf3e 2b76 8b3d
00000390: 7ad3 b33e 0a58 443f ae2c 3bbe 0028 233f
000003a0: ecca eabe 0fe3 523e 08a3 97be ce12 51bf
000003b0: b0d7 963d 2b5c 053d 79e9 62be 3df7 9e3b
000003c0: 5889 1f3e 8804 673f e911 913f a42b 8ebd
000003d0: 3076 093e 80d7 1e3d 5d99 143e a94b c0bd
000003e0: 1d9a b83e 7db1 c9be 7102 1a3f 6516 bf3f
000003f0: 3d8e 0c3f e4c5 383e 3a93 b7bd 3c0a 84bb
0.29392505 0.3409361 -0.19826987 0.038756397 0.022557588 -0.014469043 0.28003034 0.96314335
0.89927393 -0.0630916 0.027914664 0.16914414 0.67626035 -0.2550036 0.84968525 -0.25449294
-1.9201819 1.1787688 -0.11824675 -0.96455824 0.10526128 -0.001634666 0.0011135134 -0.0045613325
0.9131912 -0.7436436 -0.050841387 0.08559286 -0.079985544 0.07268764 -2.2104044 -0.6911123
-0.22866938 -0.113415696 0.9295721 0.5825953 -0.3609387 0.46081418 -0.081353 -0.13549021
0.14698379 -0.08796716 1.6218216 0.102402344 0.8115844 0.16637832 -0.09443305 0.11587119
0.22241385 -0.31350583 0.42481357 -0.01664081 0.1404046 0.28159827 0.3088881 0.27454618
-1.0707808 0.04721378 0.0036708117 -0.21656637 -0.19595256 0.11879348 0.0012674754 0.012462506
-0.0069018137 -0.05666649 -0.15789375 -0.19779924 0.016667796 -0.013990784 0.013373281 0.059840783
-0.20161538 -0.19776568 -0.04669229 -0.122770056 -0.16182078 0.032467026 -0.028279722 -0.64272493
0.2518111 -0.20827124 0.008958645 0.07021804 1.1121038 -0.30084684 1.0710748 -0.53723717
0.87911665 1.2404099 0.45847294 0.0609228 0.59592515 0.10845819 -0.008852203 -0.0071321297
0.9496557 -0.58423495 0.23429361 0.06045754 -0.0844129 0.03362502 -0.9472653 -0.45373777
-0.47732642 -0.26117483 -0.15281282 -1.2054143 -0.5943891 -0.23129801 0.27926266 0.071414486
-0.035907708 -0.061088618 0.16066661 0.54206973 -0.25791457 0.14342786 -0.10196564 -0.01746803
-0.41669187 1.1361485 -0.3614062 0.8162695 -0.5839602 0.28630888 -0.01976148 -2.016427
-0.029029755 0.07579503 -0.20305628 0.009137651 -0.07635436 1.3931576 -0.37159592 -0.0148687605
0.02540409 0.032378845 0.58965373 0.42356035 0.03319888 0.02119405 -1.5590687 0.10742601
0.31761804 -0.11745857 0.25122178 0.038137123 -0.053486407 0.02937856 0.039245587 0.4191813
0.35075867 -0.07615367 0.08069396 -0.030604681 -1.0736974 0.016365118 -1.0098256 0.54059345
-2.560936 -1.3496045 0.030510405 -0.8405552 0.008255706 0.08233676 0.009943632 -0.012281253
-0.54694337 0.6589822 0.21353196 -0.11563018 0.3143893 -0.0012086227 0.0667206 0.3665934
-0.48033604 -0.26512232 -3.4105022 -0.4983146 0.014877101 -0.36234507 -0.24079336 0.021977313
0.022552375 0.019396761 0.51877326 0.39779884 -0.19394319 0.11328941 -0.3093804 0.15465386
-0.720356 0.107904665 0.7374617 -0.62717086 0.25371462 0.9772862 0.16400115 -0.04599194
-0.01332075 -0.07386067 -0.08465573 0.022291152 -0.5410813 1.6189747 -0.81792957 0.031642817
0.69157875 -0.023564825 0.016163804 0.043217987 -0.8345857 -0.4522414 1.0013804 -1.5518819
0.3032199 -2.0825393 0.2207237 0.06253197 -0.1487316 0.04609717 -0.28284842 1.7485504
2.5713928 0.04449958 0.37319472 0.06809648 0.3512228 0.76696837 -0.18278763 0.6373291
-0.45857942 0.20594428 -0.2961657 -0.8166932 0.07365358 0.0325586 -0.22159375 0.0048512504
0.15579736 0.9024129 1.1333591 -0.069419175 0.13423991 0.038779736 0.14511628 -0.09389431
0.3605508 -0.39393225 0.60159975 1.4928709 0.5490454 0.1804424 -0.08963628 -0.0040295403

layers.0.bias f4 [256]
00000000: 7f4e dfbf 8133 8c3f c4b5 3940 5645 583f
00000010: 7ea5 7e3f 3603 d9bf eb10 963f 588f abbf
00000020: 8d31 7fbf 7dc5 06c0 38c6 5340 3bbe 07bf
00000030: 67ec eb3f a732 693f d883 8cbe 5d2a 903f
00000040: 21b7 d53e 3071 2d40 c19d d8bf 6ef8 04c0
00000050: 378c e03f cb45 49be cb95 ccbe 9927 5f40
00000060: 4a5c 0dc0 6b28 eb3f 6789 0a3f 6ce1 0cbf
00000070: 5fe7 e03f 89ea debd 9abb d13f 3e9c 2d40
00000080: 888c acbf 09ed f8bd 8bbb 2fbf fce6 2f40
00000090: 721b 26c0 d852 273f 692c dcbf 3dde 1c3f
000000a0: 78f8 39bf 6b1a 703f c2a5 7cbf cdfd 0bbf
000000b0: 99b3 bfbf 1d89 cabf 1f99 f9bf 5e51 023f
000000c0: 46ad d33f a8cb f63e e722 babd d7b9 a4bf
000000d0: 9634 6c3f 8692 8abe 8bb6 fd3f b944 b7bf
000000e0: 774a 723f 48cd 1140 0c90 1440 85f1 e83f
000000f0: 7aa1 c73f 8565 2ac0 22aa a13f a561 3640
00000100: 24e2 29c0 9188 4ebc 1733 c8be ab8b 3240
00000110: fae7 3a40 0530 d9be 4a21 d03e ca65 5dbf
00000120: 5953 30be 7d84 72bd 9c7c 0b40 db7a de3f
00000130: 4434 dabf 73e0 0140 86a2 c5bf 7162 4340
00000140: 8cf3 bcbf 28a1 dabf ae41 4440 2b27 07bf
00000150: 21f6 7c40 ef82 6e40 68df 68be 6d1e 903f
00000160: a0ce f53f 708e e43e 2e08 96bd 5412 653f
00000170: b0c1 fe3e 4f70 b13f 4953 953f 43a3 1f40
00000180: 1667 0640 c9cc 82bf d785 dbbf b162 a13f
00000190: e706 a43f 19b4 0a40 96cc b43d 4fe7 6e3f
000001a0: a1ef 05bf f5cc e53e cedf e0be fe1a fdbe
000001b0: d625 4d40 1806 3cbf 8e4d c5bf c552 e1bf
000001c0: bd86 203f c771 b23f 61a3 b4bf c28f b13f
000001d0: 37a0 263e 7c3e 10c0 1fba fa3f a67a 3e3d
000001e0: b827 90bc 3fd2 8b3f 7d5a f2be 78e4 ee3e
000001f0: 2f15 72bf 7064 043f 2343 a13f 9c2a 0a3f
00000200: 72c0 52be 3d05 47c0 23e7 75bf d5d3 513f
00000210: 429a 7940 5b2c 59c0 acb4 a13f 2b13 ef3f
00000220: 8e2d 0ec0 0f4a ba3f 5b3f 0cbf b60f 6cbf
00000230: b633 8a3c ec84 1840 ef89 2c40 0dbb c4bf
00000240: 0fc5 2fbd 14d6 903f 0547 87bf aac8 443e
00000250: c4ad b03f 6090 1b40 c2b5 1840 fb02 f93f
00000260: ff1c 28c0 386b 0bbf 5e65 d43c 5fd5 d8bf
00000270: 64f6 91be 4a84 3d3f ce66 3640 71ea 00c0
00000280: 7cac a83f 53fb 4f40 1b1d 6bbe 48ea 33bf
00000290: 40dc d6be bc0e d0bf da54 1d40 6604 d13f
000002a0: 0850 5fbd 5076 e13f 3c8b cf3f 1011 6e3f
000002b0: 82cb d1bf b7f7 6e3f 5c53 923f bb35 a3bf
000002c0: 4037 373f 36ac 653e 561b 173e 25b1 4640
000002d0: dbde 3240 eecb 14c0 d10d d13f 2540 de3f
000002e0: 2d3f 03bf 423b a0be 3197 cabf 1f2c 8d3f
000002f0: ff35 bc3f 124c 4dbe b478 13c0 cdae 0fbf
00000300: c1ab be3f 59f3 0540 83d9 163e 317e 0f3f
00000310: b1b2 15c0 5fdf 783f a0e3 2ebf 1a04 0540
00000320: f51a f83f faec 1940 e737 79bf 7d44 5b3e
00000330: 5cea 4a3f dba3 1abf e352 d1bf ed1f 1bc0
00000340: 021b 073f 28c2 91be 71ff c43f 468f 41bf
00000350: b084 283e ebe8 c1bf 4cde 96bf 226f 81be
00000360: ac5b d93d 60f4 9f3f 03ec e6bf 19ba 64bf
00000370: 2668 00c0 a0dc cabf 5029 263f 81c2 d63d
00000380: 4152 9a3e dec8 c73f deac 8e3f eb78 be3f
00000390: 43de 19c0 e415 fe3f a1da 843f 00e4 c73f
000003a0: 3ac6 80be aba9 1f40 1531 463e af6d 3f3f
000003b0: f359 c5bf d71a fcbf 0ed3 ddbf 611c 8a3f
000003c0: f2a9 06c0 ba6c 62bf 1d5f 873f c3d3 34bf
000003d0: 5387 ed3f 262a fcbf 45d4 2fbf 946f c73f
000003e0: a510 aabf 9d9a 5bbf c41b 3bc0 14f9 613f
000003f0: 7954 2f3e cb69 053f c65c fd3f d46c d8bf
-1.744583 1.0953218 2.901719 0.844808 0.9947127 -1.6954105 1.1723913 -1.340312
-0.99684983 -2.1058037 3.3089733 -0.53024644 1.8431519 0.91092914 -0.2744434 1.1262928
0.4174128 2.7100334 -1.6923143 -2.077663 1.754279 -0.1965553 -0.39958033 3.4867918
-2.2087579 1.837171 0.5411591 -0.55031466 1.7570609 -0.10884578 1.6385376 2.7126613
-1.3480387 -0.12154586 -0.6864554 2.7484732 -2.5954251 0.65360785 -1.7201053 0.6127661
-0.7264476 0.9379031 -0.98690426 -0.54684144 -1.4976684 -1.5823094 -1.9499854 0.50905406
1.6537254 0.48202252 -0.09088688 -1.2869214 0.9226774 -0.27064914 1.9821333 -1.4317847
0.94644874 2.2781544 2.321292 1.8198706 1.5596154 -2.6624463 1.2630045 2.8497097
-2.6544275 -0.012605802 -0.39101478 2.7897747 2.9204087 -0.42419448 0.40650398 -0.8648344
-0.17219295 -0.059208382 2.1794806 1.7381243 -1.70472 2.0293243 -1.5440223 3.0528834
-1.4761825 -1.7080431 3.0665088 -0.5279414 3.9525225 3.7267416 -0.22741473 1.1259285
1.9203682 0.4463992 -0.07325779 0.8948109 0.49757147 1.3862399 1.1666042 2.4943397
2.1000419 -1.0218745 -1.715022 1.2608243 1.2814606 2.1672423 0.08828084 0.933217
-0.5231877 0.44882932 -0.4392075 -0.49434656 3.2054343 -0.734468 -1.5414293 -1.7603384
0.62705594 1.3940972 -1.4112359 1.3871996 0.16272055 -2.2538137 1.958805 0.046503685
-0.017597064 1.0923537 -0.47334662 0.46658683 -0.94563574 0.51715755 1.2598614 0.53971267
-0.20581225 -3.1096947 -0.9605581 0.81963855 3.9000401 -3.3933322 1.2633262 1.8677725
-2.2215304 1.4553851 -0.5478417 -0.92211473 0.01687036 2.383113 2.6959188 -1.5369583
-0.04291254 1.1315331 -1.0568548 0.19217172 1.3803029 2.430687 2.3860936 1.9454035
-2.6267698 -0.5446048 0.025927242 -1.6940116 -0.28508294 0.7402998 2.8500247 -2.0143092
1.3177638 3.2497146 -0.22960322 -0.7027936 -0.41964912 -1.6254497 2.458304 1.6329467
-0.054519683 1.7614231 1.6214366 0.92994785 -1.6390231 0.9334673 1.1431689 -1.2750772
0.7156868 0.22428975 0.14756522 3.104562 2.794852 -2.3249469 1.6332341 1.7363325
-0.51268274 -0.3129521 -1.582739 1.102909 1.4703978 -0.2004855 -2.3042421 -0.561261
1.4896165 2.0929778 0.14731412 0.5605193 -2.3390315 0.9721584 -0.6831608 2.0783753
1.9383227 2.405089 -0.97350925 0.21412845 0.79263854 -0.60406274 -1.635342 -2.4238236
0.52775586 -0.28468442 1.5390455 -0.7560924 0.16456866 -1.5149206 -1.178659 -0.252801
0.10613188 1.2496452 -1.8040775 -0.8934646 -2.0063567 -1.584858 0.6490679 0.104863174
0.3014088 1.5608175 1.1146505 1.4880651 -2.4041908 1.985043 1.037922 1.5616455
-0.25151235 2.4947307 0.19354661 0.7477674 -1.5418075 -1.9695691 -1.7330034 1.078991
-2.1041226 -0.88447154 1.0575901 -0.7063562 1.8556923 -1.9700363 -0.6868327 1.5580926
-1.328633 -0.85782796 -2.9235697 0.8827069 0.17122068 0.5211455 1.9793937 -1.6908212

layers.1.weight f4 [256, 256]
00000000: df36 7d3f d9c5 2abe 7e05 8dbe 960c 853e
00000010: e370 acbe 0737 dcbe 0042 52bd e342 d73e
00000020: 1f74 7b3f 760e 3fbd 85c4 94be 3e31 92bd
00000030: 263e da3e 13d7 26bf edcf 393f 71fb fbbd
00000040: 0e4d a23f 6ff3 fd3e 51f7 873e a112 913f
00000050: 14dd af3e 71f2 003d 7587 7b3f a24c 99bf
00000060: 1719 babd 8641 0dbf e477 503e 838f 193e
00000070: b6fe 383e 4ac0 c4be eab9 0f3f 7269 88bd
00000080: 25ff 8d3e 05ab a5bc 83c0 973c cf5d 15bf
00000090: 1a08 98be 1b2a 993f 8674 433f 02fc c1be
000000a0: b6ca d2be 73a5 0cbf 7702 3abe 8d71 dbbe
000000b0: 82d5 733f d529 bdbd 72bd c6bd 3d33 703d
000000c0: 2293 0a3f 68c0 3fbe 509e 03be 2c77 bbbe
000000d0: 055b d93e 7380 f13e 6bec 60bf 9a67 ecbe
000000e0: 85f9 74be fc7b 5b3e 33ed b3bf f04f 8dbf
000000f0: 6e00 1f3e bc6b 86be 0a6c a6be 118c 1a3f
00000100: 9548 723f d069 b2be 49b9 e23e f5ca 963f
00000110: d6da 3b3e 98e4 e03e 6a6d d63e f5f0 3a3e
00000120: 662b abbf 0822 3d3e fed7 4a3e 9398 18bf
00000130: 9e9a 3b3f 48c2 1c3e 2dbc 003f 354c 853f
00000140: 377a 113e 1e2e 9c3f 144a db3e 8df9 d53e
00000150: 9cb5 afbf 0c56 4fbe 74f4 2fbe ab7f 943e
00000160: 68bc c8bf c4f2 cabd a116 75be 95ac 96bd
00000170: 9a01 8fbf 6341 b5be 5ed6 6a3e 507b e13e
00000180: 7848 b23e 200d 8abe 5bcf c33e dc33 ed3e
00000190: 621a 02bf cd6f 20be 98c8 c7be 13b5 3f3e
000001a0: 1274 443d ade1 30bf 76dc 6d3d 34e1 03bd
000001b0: cc3a acbe 3354 f03e c27f 733f a537 bf3d
000001c0: 5b97 763e 6f98 2dbf 650b 3bbc 606b 6ebe
000001d0: 130c e63f b0ea 763e 8ddd b13e 381c 543e
000001e0: bd1c 2ebf 6950 ccbe 791e 70be 9c98 9f3e
000001f0: 391b b13f dcfe 2e3f 4c50 e6bc b420 f6bd
00000200: f0a4 d4be 2bb1 db3e c9eb e93e 7f11 a93e
00000210: 74f2 993e f563 8f3e ef0b dc3e 6de9 29bd
00000220: 0707 823f e525 4c3f 556c 54bf 845f 7d3f
00000230: 31d6 e43d 3bad 013f 4923 45bd 3a68 02bf
00000240: ada7 0bbd 75de 2dbe b284 3abf 3d73 a9bc
00000250: 978c ffbc 1658 2fbf 11f1 76bf fedf 8f3f
00000260: 1a53 85bd 6b05 b33f 31be 00bf ee5e b6be
00000270: deaa 1abf 921e 2c3e 896b 37bf 8dbe 583f
00000280: 6664 bdbb 1ce7 053f b9c8 d13e 21c1 2a3f
00000290: 1aa0 0bbf be54 8a3f 9c02 8ebd abbe 50bf
000002a0: 8445 01bf d309 b63e b8d8 89be ff96 493f
000002b0: 13fd 093f 0da1 77be dbaf 033f 0ea2 87bf
000002c0: df79 cd3e 8c46 4d3f 081c 44bf b6d0 ccbe
000002d0: 95c0 6cbe 9a6b 133e 04d0 a7bd c326 31bf
000002e0: 05e5 06bd 7912 e53e 7a76 f6bd af45 7ebe
000002f0: 8f58 06bf f906 453d 6f6a 933e 0a51 b93e
00000300: 719c f9be d247 803e 3ac7 60bf ce2e 0abe
00000310: bd5e 9ebd 0b28 d4be 45ad ee3e caed 28c0
00000320: 837f 4dbe 83ae 11be 3091 16bf cb56 21bf
00000330: 8d1c 203f 585e 75be 9880 67bf ed5a 9e3e
00000340: 6d72 8d3f 0df9 a73d d119 553e 5873 873d
00000350: 2610 04bf 7ade 933e 6c38 4d3f 9d98 5a3e
00000360: c0a6 263e 4aa6 9d3f f07f d53e 5120 25bb
00000370: 8961 08bf 8dfe 283e 1718 a8be a7cc 92be
00000380: 2beb b53e c524 753e 8d03 93bc ecfd 61bd
00000390: c9bf e6be 1be2 2f3f 9d34 963e 5598 a7be
000003a0: 33ef c83e efdc a73e 6a70 4abe c182 1a3e
000003b0: f695 ef3e 23c5 c93e 110c 433f 3730 f63e
000003c0: b0aa d23e a1d2 1cbf d735 1fbf 6cdd 88bf
000003d0: 2b81 6c3f 1597 c03e 74a1 573f 478b a73e
000003e0: bb3c 5d3e 4a66 353f ecef a1bd 7b38 393d
000003f0: 7ffc 893e 92c0 fdbe 5b44 bd3e fe81 82bf
0.9891185 -0.16677035 -0.27543253 0.25986165 -0.33679876 -0.43010733 -0.051332474 0.42043218
0.9822406 -0.04664465 -0.29056183 -0.071382985 0.4262554 -0.6517193 0.72582895 -0.12303818
1.2679765 0.49599788 0.26555875 1.133381 0.34348357 0.03148121 0.98253566 -1.1976511
-0.09086817 -0.55178106 0.20358235 0.14996152 0.18065915 -0.38427955 0.5614306 -0.06660737
0.27733722 -0.02022315 0.018524414 -0.58346266 -0.2969368 1.1965975 0.76349676 -0.3788758
-0.4117028 -0.54939955 -0.18165003 -0.4286007 0.9524766 -0.092364945 -0.097041026 0.058642615
0.54130757 -0.18725741 -0.1285336 -0.36614358 0.42452255 0.4716831 -0.87860745 -0.46172792
-0.23923309 0.21434015 -1.4056762 -1.104002 0.15527508 -0.2625407 -0.32504302 0.60369974
0.94642 -0.34846354 0.44281986 1.1780688 0.18345198 0.43924403 0.4188035 0.1825598
-1.3372619 0.18470013 0.19808957 -0.5960781 0.732828 0.15308487 0.50287133 1.0413882
0.14206778 1.2201574 0.42829955 0.41791955 -1.3727298 -0.20247668 -0.17183095 0.29003653
-1.5682497 -0.09909585 -0.23934413 -0.07357136 -1.1172364 -0.3540145 0.22933337 0.44039392
0.34820914 -0.2696314 0.38244137 0.46328628 -0.50821507 -0.15667649 -0.39020228 0.18721418
0.047962256 -0.69094354 0.058071576 -0.032197192 -0.33638608 0.4693924 0.9511682 0.09336785
0.24081175 -0.6781072 -0.011416291 -0.23283148 1.7972435 0.24112964 0.34739342 0.2071389
-0.680126 -0.39905098 -0.23449124 0.3117112 1.3836433 0.68357635 -0.02811446 -0.120179564
-0.41532087 0.42908606 0.45687702 0.3302116 0.3006779 0.2800595 0.42977855 -0.041482378
1.0158395 0.7974532 -0.829778 0.9897387 0.11173666 0.50654954 -0.048129354 -0.5094029
-0.034095455 -0.16979392 -0.72858727 -0.020684833 -0.031194968 -0.68493783 -0.9646159 1.1240232
-0.06509991 1.3986028 -0.5029021 -0.356193 -0.6041697 0.16808537 -0.7164846 0.8466576
-0.0057797907 0.5230577 0.40973452 0.6670094 -0.5454117 1.0807111 -0.069340914 -0.81540936
-0.504967 0.3555437 -0.26923156 0.78746027 0.53901786 -0.2418253 0.5144021 -1.059633
0.40132043 0.8018577 -0.7660527 -0.40002984 -0.23120339 0.14396515 -0.08193973 -0.6919977
-0.032933254 0.44740656 -0.12034316 -0.2483127 -0.5247888 0.048102353 0.2879214 0.3619464
-0.48752168 0.25054795 -0.87803996 -0.13494417 -0.07732914 -0.414368 0.4661657 -2.6395135
-0.20068173 -0.14226727 -0.5881529 -0.6302306 0.62543565 -0.2396177 -0.90430593 0.30928746
1.1050545 0.082017995 0.2081063 0.06613797 -0.5158714 0.28880674 0.8016422 0.2134728
0.16274548 1.2316372 0.4169917 -0.0025196264 -0.53273827 0.16503353 -0.3283088 -0.28671762
0.3553098 0.23939808 -0.01794603 -0.0551738 -0.45068195 0.68704385 0.29337016 -0.32733408
0.39244995 0.32785746 -0.19769445 0.15088941 0.467941 0.39408216 0.76190287 0.4808366
0.4114585 -0.61258894 -0.6219153 -1.0692573 0.92384595 0.37615266 0.8423073 0.32723448
0.21605198 0.70859206 -0.079070896 0.04521988 0.26950452 -0.49560982 0.36966214 -1.019592

layers.1.bias f4 [256]
00000000: b2cc d23e 5197 dbbc e730 513f fe41 ae3e
00000010: d079 d43e 6eaa 93bd b055 f43e 8e46 e83d
00000020: ca5a 18bf 752d 8a3e 8f9b ffbe 54b8 cb3a
00000030: 7609 97bc ce2c 583f 31af d7bd 3f7d a13e
00000040: eb76 44bf caf6 93bd b3c7 2e3f a01d efbe
00000050: 60d9 ac3e a918 5cbe 932d 35bf d21a 2e3e
00000060: af84 68bf fb9b 1fbf 05eb 1cbf 10bb ae3d
00000070: 680d 613f fdea 603f 68b1 8a3f 34d4 fd3d
00000080: dfc7 af3e 8a28 09bf f694 3dbf 0466 d63e
00000090: 7a2a 4a3f f5f9 683f dbdd 13bf e314 55be
000000a0: 8fed abbd a7e4 ba3e fbbe 42bf 87b8 49bf
000000b0: 9276 283f 49bb 853f de1c 8d3e 8754 1b3f
000000c0: 4fd5 553e 630b 203e 5b8b 5cbf cf8b 103e
000000d0: 622b 9a3d 1c2c 0cbf da94 613f 2241 88bf
000000e0: 05b6 fa3d 5015 0abf bfe3 ec3d 8911 74be
000000f0: 0af8 8f3e 891d be3f 125b 483f cfcc 743f
00000100: 9928 41bf 2eb7 c5be 4f93 42bf 8d12 1dbf
00000110: e7a6 ad3e cbdc da3e f8a5 77bf 7b37 213f
00000120: 7894 01be 774b f83e 8793 5e3e 2d9f ec3c
00000130: 68fa f93e 0d52 6e3e 8dbc 42bf e511 96bf
00000140: 7305 1fbe 265b 81bf ece2 503f 861b 96be
00000150: 6b32 27bf 0866 c63e d8d7 3ebf 991a c23e
00000160: 127e 5bbf 9f24 863f 6722 213f f900 423f
00000170: 2ab7 63be 0301 8a3e ec8b f0bd 25e5 ecbc
00000180: 7a04 f43d e01e e8be 6401 12bf 864f 58be
00000190: 2741 97bf 1e79 b8be 6c2f bd3e 8573 aabf
000001a0: 011c 4abf 7612 0f3f 9bc1 053e db0a 45be
000001b0: 75f9 ae3f e01a c7bf 664c 25bd 2818 0b3f
000001c0: 527a 8fbf 1394 0f3f 32a5 a53e 7532 c53f
000001d0: 0104 203f 7f96 38bf 65e9 9b3e 0fd6 f5be
000001e0: 9079 b63d 5c3f 083f 6dac e53d 30d3 c73e
000001f0: fbf2 353f 2c55 b23f e5d1 b93f d84a 27bd
00000200: d763 1a3f a388 843e 2532 0abf 3f20 6e3f
00000210: 07fa 95be 2656 0ebf 50bb e73e 7b7b b3bd
00000220: 1551 7dbe 5a78 063f 02ab 5b3f bf0f ab3f
00000230: 27d9 a7bf b5f3 fdbe dbc7 23bf 7d53 dbbe
00000240: e016 863e 1519 09bc 5547 bb3e d987 1d3f
00000250: ef31 8e3f 8f29 3cbf 6d39 adbe de22 7cbf
00000260: a296 45be afcd 9e3d 48c7 2abf 0c75 d1be
00000270: cc52 aa3e 9484 313f be90 0e3f 0a2d bcbf
00000280: 0ed8 28bf a4fe a63f b453 9a3f c4e6 79be
00000290: 9cf5 143f 0d5a e13d 43f5 833f d716 3dbf
000002a0: 4515 493f 32dc d3bd c5c5 92bf b126 59be
000002b0: 46af 293f 5e2e 5b3f f978 b43f d750 46bf
000002c0: 16f5 aabe 095a 7abe e36e cebf 73ee abbf
000002d0: a679 7fbe e8ee 7bbf 80f6 9ebf 81c3 95be
000002e0: b2d0 f13e 08c0 173e 323f 0c3f e2d3 acbd
000002f0: bb92 593f 1b96 f43d c33e 92bf fb10 1fbf
00000300: db89 583f 3e8e 8f3f 7ed6 c7bf 1e50 abbe
00000310: 949f d7bc 0403 ac3e 34bc 51be 116e 303e
00000320: 51df 973f a00b adbf ecaf bcbd 992b 58be
00000330: 263f 753e a53b 56bf 7780 123e 6eb4 bc3f
00000340: 3dbe c63e d9fc b53e 091b 503d 1738 b43e
00000350: 8c04 e23e c8f7 efbc 88b4 a03e 8339 f2be
00000360: 08e0 54bf 2780 1d3d e638 3f3e 54bb 73bf
00000370: 235e 7bbf 688b 8e3e 7838 4abf 7544 88be
00000380: 9d57 173f cbfe 243f 18f5 293f 40ea 68bf
00000390: 12fe 52bf 6291 87be 9163 463f 8a9a 73bf
000003a0: 1337 d2be 396c 8e3f a52b 583f d9e4 e73e
000003b0: bd2f c3be b412 193f 93c5 843e 0632 80bd
000003c0: 8e94 d4be 0e06 2b3e 3fd1 6d3e 7358 69bf
000003d0: 0624 21bd 5a1e 89bf 9ee9 fbbe 5c1c bdbe
000003e0: 57c6 2d3d b7b8 87bf c5da 3a3f 5f89 27bf
000003f0: 0489 613f 1907 e4bd 760f 02bf 39c9 0ebe
0.41171795 -0.026805552 0.81715244 0.34034723 0.41499186 -0.07210241 0.47721624 0.11341582
-0.59513533 0.26987806 -0.4992337 0.0015542605 -0.018437129 0.84443367 -0.10531462 0.31540868
-0.76743954 -0.07224806 0.68273467 -0.4670229 0.33759594 -0.21493782 -0.70772666 0.17002419
-0.9082746 -0.6234738 -0.6129611 0.08531773 0.8791108 0.87858564 1.083539 0.1239399
0.34332177 -0.5357748 -0.7405542 0.41874707 0.78971064 0.91006404 -0.577604 -0.20808749
-0.0839492 0.36502573 -0.76072663 -0.7879719 0.65805924 1.044778 0.27561086 0.60675853
0.20882152 0.15629344 -0.8615014 0.14115833 0.07527806 -0.54754806 0.88117754 -1.0644877
0.12241749 -0.5393877 0.115668766 -0.23834814 0.28118926 1.4852763 0.7826396 0.95625013
-0.7545257 -0.38616318 -0.76006025 -0.6135643 0.339164 0.42746577 -0.96737623 0.6297528
-0.12654293 0.48495075 0.21735965 0.028884495 0.48823857 0.23273487 -0.76068956 -1.1724211
-0.15529422 -1.0105941 0.81596255 -0.29317874 -0.65311307 0.3874972 -0.745481 0.37910917
-0.85739243 1.0479926 0.6294312 0.75782734 -0.2223784 0.26953897 -0.11745438 -0.028917858
0.11914916 -0.45336056 -0.5703337 -0.21124086 -1.1816758 -0.36029905 0.36950243 -1.3316504
-0.7894898 0.55887544 0.13062136 -0.19242422 1.3669878 -1.5555077 -0.040356062 0.54333735
-1.1209204 0.5608532 0.32352597 1.5406023 0.6250611 -0.7210464 0.30451503 -0.48014876
0.08909905 0.5322168 0.11214528 0.3902831 0.71073884 1.3932242 1.451718 -0.04084286
0.60308594 0.25885496 -0.53982764 0.93017954 -0.29292318 -0.556002 0.45260096 -0.087637864
-0.24737962 0.5252739 0.8580781 1.336418 -1.3113145 -0.49599996 -0.6397683 -0.42837134
0.26189327 -0.008367796 0.3657786 0.6153541 1.1108989 -0.73500913 -0.33832875 -0.98490703
-0.19295743 0.07754075 -0.6671033 -0.40909612 0.33266294 0.69342923 0.5568961 -1.4701245
-0.65954673 1.304646 1.2056794 -0.24404436 0.5818727 0.11003504 1.0309223 -0.73862976
0.7854808 -0.10344733 -1.1466604 -0.21206166 0.6628307 0.85617626 1.4099418 -0.774671
-0.3339011 -0.24448408 -1.612759 -1.3432144 -0.24948749 -0.98411417 -1.2418976 -0.2925072
0.47229534 0.14819348 0.5478393 -0.08438851 0.8498952 0.11942693 -1.1425403 -0.62135285
0.8458535 1.1215284 -1.5612333 -0.33459562 -0.02632121 0.3359605 -0.2048195 0.17229487
1.1865026 -1.3519173 -0.09213242 -0.21110381 0.2394987 -0.8368476 0.14306818 1.4742563
0.38817015 0.3554447 0.050807033 0.35199043 0.44144094 -0.029292956 0.31387734 -0.47309503
-0.83154345 0.038452294 0.18674049 -0.95207715 -0.98190516 0.27840734 -0.78992414 -0.2661473
0.5911806 0.64451283 0.6638961 -0.9098244 -0.8241893 -0.26478106 0.77495676 -0.9515768
-0.41057643 1.1126777 0.84441596 0.45291784 -0.3812236 0.59794164 0.25931987 -0.06259541
-0.41519588 0.16701528 0.23224352 -0.9115059 -0.039340995 -1.0712388 -0.49201673 -0.369357
0.04242548 -1.0603245 0.72990066 -0.65443987 0.88099694 -0.11134166 -0.5080484 -0.13943948

value_stream.weight f4 [1, 256]
00000000: 725d ac3d b2ea cebd 0563 ed3d ccb5 fb3d
00000010: 382b 143f f0d6 4cbe 213b 31be fc5b 513e
00000020: b59b 8dbe fadf 0abe e5e4 b9bd 9ab3 163e
00000030: 881a a1be 088b a23d d7f0 a13d 9434 30be
00000040: 1e5e 4bbe 1e2a 0a3e 78f2 b13d 81ad 273f
00000050: c771 363e aa8f 76be dd31 a5be f56f 363e
00000060: ffaf 4cbe d7a0 29be 82cd 80be 2c0d 813e
00000070: 7f67 b03d 679d 653e e24c 193e e135 d63d
00000080: 19d1 55be f522 81be 5535 39be 3468 653e
00000090: 0c4b 9dbe c9a4 b53d 55b2 eebe ef43 063e
000000a0: 21b0 433e ad49 f53e b25e b7be 7067 8f3e
000000b0: 7f2b 043e 93ed 2d3e 8fe6 8e3e ca41 9f3e
000000c0: 7018 93bf 38bd 833e 92f6 5dbe 9d99 0ebf
000000d0: bc39 f43d 3991 9a3e ad6d 103e aff6 72be
000000e0: cb30 24bf 2d2b 833e 0394 f6bd 6ffa 44be
000000f0: 1389 25be c099 d23d 7e3b cb3e 3f92 cd3e
00000100: dc6f 97be 73f4 15be efb0 7cbe 3e18 29be
00000110: 041c 1f3e 0c54 aebe ba1a 64be 5ab3 aebe
00000120: b583 5c3e 247f 763e 9040 473e 75b0 813e
00000130: 20a5 3a3f 6ac3 43be 2f1a d63e 478e 95be
00000140: 534c 12be 3f72 24be 40d3 223e 13c6 0f3e
00000150: e009 37be 6cdb 113e 4a02 6a3e dde5 143e
00000160: a6e1 8f3e 4c6c fa3d 2701 97be 7c79 eb3d
00000170: 21e3 d6bd e91a 6fbe 209d 55bd 9517 f2bd
00000180: 166b 613e 8255 253e faf4 6fbe 7b1b c73d
00000190: 2601 8c3e 4c68 2bbe 8224 993e 1639 86be
000001a0: afb7 c33c b853 c53e 4eab 593e b712 58be
000001b0: 5892 9c3e 00a0 673d 1c55 263e 84ad 3e3e
000001c0: 7710 85be b2d7 c2bb 997f 45be a336 14bf
000001d0: 57bf da3c 252c 27be 3196 a6be 965e 513e
000001e0: fbc5 36be d076 753e c308 823e 6696 593e
000001f0: 41f4 853f 8e6a d83e bbdd d03e 1c7b 3a3e
00000200: 6922 8fbe d763 0c3e 973b 793e 8d2a 513e
00000210: 69c6 68be 3a61 a03e cdf9 213e 92e0 f93e
00000220: f10c 4abe ccb6 a23e 59e7 893e 54de a2be
00000230: 7cc8 02be dd0f 2fbe 1df6 8c3e 3eea 0fbe
00000240: 1231 023e d9f5 86be 9307 26be f29a 513e
00000250: 9078 3d3e f365 6ebe 54df 30be 6295 f5bd
00000260: 5f11 9cbe d4d7 01be 9407 f93e 6112 7f3e
00000270: 171f d13d 2551 92be 6a22 0b3e ee98 953e
00000280: c087 913e 83cf 753d 8d82 133e a1ea b5be
00000290: 64e5 16be de6d 8cbe 7280 af3e ed8d b5bd
000002a0: a790 3c3e 42f8 143e b33d cbbe d1d8 273e
000002b0: 2b20 803e 05e5 c63e 05e0 163e 5b88 8cbe
000002c0: e7d5 b1be 9d12 2a3f abab 4d3d 5a16 a23e
000002d0: b6ef 63be eb0c 973e e060 0f3f 4848 463e
000002e0: 8e7d 1f3e d374 923e 67d5 143e 4ae7 753e
000002f0: 7852 f8be b7f1 773e 381f 73be 2216 40be
00000300: da8f 02be 3a8f 60be f184 eb3e af2c 2e3e
00000310: 536a b53e 5a03 db3d a424 b9be 1567 0b3f
00000320: 02ac d43e d714 70be 8cb6 51bf 263d cc3e
00000330: 3387 ac3e 84f8 78bd 6964 e73e a2b6 fa3c
00000340: 44f4 8d3e bc81 0a3e 3323 523d 8aab 803e
00000350: c228 aa3e 7908 7a3e 7231 8abe 7334 e6be
00000360: 024c 4b3e 9c63 0b3e 4cf3 1f3e 1e48 9c3d
00000370: 2fac e03d 7cb9 15be 3bca b2be 75d2 893e
00000380: 5457 323e 6b00 523e aeea 7b3e 834a 603e
00000390: 2f24 4cbd 88f2 9e3e adc4 edbe 111f 383e
000003a0: 0d42 41be 355e 343e ecd3 0f3e 0c1a ccbd
000003b0: 25c3 7e3e 0b38 26bf 2d5d 64bc 182d b6be
000003c0: 2280 20be aedc 9fbe 8413 ad3e 48d5 1fbe
000003d0: 1a12 613e 3286 233e 95f6 3c3f eca3 90bf
000003e0: f574 a5be 1dfc 58be c294 2ebe c883 74bf
000003f0: f54a ae3d e16b 013e 9f72 34be 194e 11be
0.08416261 -0.10103358 0.11591152 0.122905344 0.57878447 -0.20003867 -0.17307712 0.20445246
-0.27657858 -0.13562003 -0.09076861 0.1471695 -0.31465554 0.07936674 0.07907265 -0.17207557
-0.19860122 0.13492629 0.08688825 0.6549912 0.1781684 -0.24078241 -0.32264605 0.17816146
-0.19989012 -0.16565262 -0.2515679 0.25205362 0.0861349 0.22423325 0.14970735 0.10459495
-0.20880546 -0.25221983 -0.18086751 0.22403032 -0.3072132 0.08869321 -0.46620432 0.13111852
0.19110157 0.47907773 -0.35814434 0.28008604 0.12907217 0.16985159 0.27910277 0.3110488
-1.1491833 0.257303 -0.2167609 -0.55703145 0.119250745 0.3018892 0.14104338 -0.23726915
-0.6413695 0.25618878 -0.1203995 -0.19236158 -0.16165571 0.10283232 0.39693826 0.4015064
-0.2957753 -0.14644031 -0.2467687 -0.16513154 0.15538031 -0.34048498 -0.2227582 -0.3412121
0.21534617 0.24071938 0.19458222 0.2532994 0.7290821 -0.19117513 0.41816851 -0.29210111
-0.14286928 -0.16059206 0.15900898 0.14040403 -0.17874861 0.14243859 0.22852436 0.14540811
0.28101844 0.12227687 -0.29493067 0.11497781 -0.1049254 -0.23350109 -0.0521518 -0.11820904
0.22013506 0.161459 -0.23433295 0.09722038 0.27344626 -0.16739005 0.29910666 -0.26215428
0.023891298 0.38540435 0.21256754 -0.21100889 0.305804 0.056549072 0.16243404 0.18620878
-0.25989124 -0.005946123 -0.19286956 -0.5789587 0.026702566 -0.16325434 -0.32536462 0.20446238
-0.17848961 0.23971105 0.2539731 0.21248779 1.0465165 0.42268795 0.40794167 0.18211025
-0.2795594 0.13709961 0.24339138 0.20426388 -0.22731937 0.31324178 0.15817948 0.48804146
-0.19731499 0.31780088 0.26934317 -0.31810248 -0.12771791 -0.17095895 0.2753152 -0.140542
0.12714031 -0.26359442 -0.16213827 0.20469263 0.18503022 -0.23281078 -0.17272693 -0.11991383
-0.30482003 -0.12679988 0.48638594 0.24909355 0.10211008 -0.28577533 0.13587347 0.2921824
0.28423882 0.06001235 0.1440527 -0.3553057 -0.14735943 -0.27427572 0.34277683 -0.08864961
0.18414555 0.14547828 -0.3969551 0.16391303 0.25024542 0.38846603 0.14733894 -0.2744778
-0.34733507 0.6643465 0.050212543 0.31657678 -0.22259411 0.29502043 0.56007195 0.1936351
0.15575239 0.28604755 0.14534532 0.24014011 -0.4850042 0.242133 -0.23742378 -0.18758443
-0.12750188 -0.21929637 0.45999864 0.17009233 0.3543268 0.10693999 -0.36160767 0.54454166
0.41537482 -0.2344545 -0.8191917 0.39890403 0.336969 -0.060783878 0.45193794 0.030604664
0.27725422 0.13526052 0.0513031 0.25130874 0.3323422 0.24417295 -0.2699085 -0.4496189
0.19853213 0.13612217 0.15620154 0.07630943 0.109703414 -0.14621538 -0.34919915 0.26918378
0.17416126 0.20507972 0.24601242 0.21903424 -0.049839195 0.31044412 -0.46439114 0.17980601
-0.18872853 0.17614062 0.14045686 -0.099659055 0.24879129 -0.64929265 -0.01393823 -0.3558128
-0.15673879 -0.31223053 0.33803952 -0.15608704 0.21979561 0.1596916 0.73813754 -1.1300025
-0.32315794 -0.21189924 -0.17048934 -0.9551358 0.08510391 0.12638809 -0.1762185 -0.14189948

advantage_stream.weight f4 [20, 256]
00000000: b908 873c 4cde a6bb 7c5d 2fbe 65c7 00bd
00000010: 5122 973c 5d88 82be 0f1f 4bbd af4c 81bb
00000020: 0bf6 e63c 5569 24bd 8b68 73be 3c96 ad3d
00000030: b411 493d bb36 433d bbd2 16bd 40ce 4f3d
00000040: c522 86bc 4986 233e 2bb8 0cbd 6c4b c3bb
00000050: 1f80 c53c 7a4b cdbc 16d9 42be ce1f ec3e
00000060: 512b 85be 6ba8 8dbd 0339 4b3c 2d42 8e3d
00000070: 5212 643e 1d9d 503c 59e7 463e 4af7 28bd
00000080: 9e25 1abd 3eeb c53d deb8 4c3e 3550 053e
00000090: 07ee d7bd 3474 253e fb48 253d c484 aabe
000000a0: 2616 8c3e 48e9 f93e 0709 8c3d 8d4f a73d
000000b0: 18f1 9a3d edc2 85be 8fbd ec3d 32a8 dbbd
000000c0: 675b b83d dbd7 2c3e d5bf cbbd 449b eebd
000000d0: f869 053d 074d 74bd 1804 68ba 0906 c6be
000000e0: fde8 e03c 7dac 35bd 4bc2 2a3d 5642 e9bd
000000f0: 8d2a 84be 6193 073d fe6a f13d dff2 83bc
00000100: c38d f23c 10bb 963d adbc 63bd b4a1 023d
00000110: f6c4 b83e 7dc4 8dbd 7329 abbd 8496 433c
00000120: 0511 3d3e 8ea3 0c3e 9d72 1c3c a766 933d
00000130: 8079 383d 83ff 16be eb1b 8a3d e207 00bf
00000140: 30ac 9abc b281 9abe aef1 063e 4c4b 12bd
00000150: b8aa ed3a 1ff9 663e b08b 893e 471f 10bd
00000160: 3f1a 9d38 0618 8dbd ea55 63bd c618 963e
00000170: e700 edbd 1509 f63d dc0f ed3c 5f36 333e
00000180: 39e9 0f3e 6875 c13b 98b4 bd3d 7ca8 473d
00000190: 2ef2 dc3d 8570 17bd 9234 39bd be12 ee3d
000001a0: ff1d 44be 8fa3 ec3d f6f3 b13d 183c 0e3e
000001b0: 7389 4cbc 08c8 b93e 8d5e 213e 3eef 32bd
000001c0: 5aef 06be 8355 58be 3804 d0be 1397 b8be
000001d0: 1d6e 90bd 35c6 37bd f7c3 0dbe 6912 3e3e
000001e0: d633 8a3d bd7b 84be 5fa5 52be 14d3 b03c
000001f0: 5cdb ecbd 07df 31be 04fb 89bc 32b7 f63d
00000200: fa4c 183d ce66 f33c b700 7b3e 777e 8ebd
00000210: 561d 58bd 6236 9a3e 7da9 7d3e 02a3 ed3c
00000220: 7b33 953d a8df 973d bfa8 cfbd b3cc 60be
00000230: 2eb4 f83d c6d4 0ebe 9981 923e 44fd 94bc
00000240: 1eed f23b 1a39 3fbe 083a 053e cf97 223e
00000250: bb8f 65bb 81b9 4fbd e887 9abd 7fe1 213e
00000260: 7f06 a2be 27bb c03d 6520 13be b223 733c
00000270: a4da be3d aaee a23e d09d 95bd 60cf 08be
00000280: 7c97 483e 988f 133e 577d 303d 2e74 86be
00000290: ed96 b8be e174 273d 6372 473e 6183 363b
000002a0: 8bba 0d3e 8df6 d4bd 2448 9dbc e3e8 f33c
000002b0: 1553 423d c17b dbbd 9af3 babc 10f1 ba3d
000002c0: 0dda fcbb 82b0 4c3e 015d 9cbe 01fe 603e
000002d0: fde3 4cbc 1bb3 4b3c 7404 133e 8477 0f3e
000002e0: fc29 6e3d 9cef 743e 7be2 163d afc0 cf3c
000002f0: 57e4 8dbe 2960 683d 413f 443c 5119 10be
00000300: 5c7c b2be 4169 00be 298a d9bb 03b8 4fbd
00000310: 0414 e83c a81b e63c 21a0 cbbd 3b7b f13d
00000320: a2ef d4bd 3942 1b3d a10f 0d3f 959c 263e
00000330: c7bc a53d 3250 f9bb 3d59 573d 902f 463d
00000340: f3c2 9a3e 2d45 203e 3881 33bd c2f5 89be
00000350: 1d69 8e3e 1e70 6c3e 0cee 15be 20cf 5a3e
00000360: 947c 343e f415 39be c2f0 1cbc 8e6e 8ebd
00000370: cd93 ecbd 0a20 51bd 86b0 83be f903 b83e
00000380: 71d5 eb3d 8a25 08be 810f b5bd 9a15 5dbc
00000390: 01f5 c8bc 59b9 643e 46cc 53bd 5507 913c
000003a0: 0f2c 51be 8b40 273e a8da 183e b469 d43e
000003b0: 7a3b 0fbd ecce 10be 31dc 5a3e d2fa 2cbe
000003c0: 1147 89be ad36 43be 0839 0bbe 253a 2f3e
000003d0: 9529 c03c 2ddf 9b3e cf6f f73d d9ae 77be
000003e0: a4b0 783b 3a29 60bd b6e4 963b e8a4 003e
000003f0: 3845 043e 98ca 183d 36eb 283e c79f bfbc
0.016483651 -0.005092418 -0.17125505 -0.031440157 0.01844898 -0.25494662 -0.049590167 -0.003945909
0.028193494 -0.040139515 -0.23770349 0.084759206 0.04908915 0.047659617 -0.036822062 0.050733805
-0.016374001 0.15969194 -0.034355324 -0.0059599187 0.024108944 -0.025060404 -0.19028124 0.46118015
-0.2600961 -0.06916889 0.012403729 0.06946216 0.22272614 0.012732771 0.1942419 -0.04125146
-0.03763353 0.096640095 0.19992396 0.13018878 -0.10543447 0.16157609 0.040352803 -0.33304417
0.27360648 0.48810792 0.06837659 0.0816947 0.07565516 -0.2612528 0.11559593 -0.1072544
0.090018086 0.16879217 -0.099486984 -0.11650708 0.032571763 -0.05964377 -0.00088507077 -0.3867648
0.027454847 -0.04435395 0.0416892 -0.11389606 -0.25813714 0.033099536 0.11787985 -0.01610702
0.029608613 0.07359898 -0.055599857 0.031892493 0.3608777 -0.06922243 -0.08357515 0.011937741
0.18463524 0.13734266 0.00954881 0.07197314 0.045037746 -0.14745907 0.06743606 -0.5001203
-0.018880934 -0.30177075 0.13178131 -0.03571634 0.0018132543 0.2255597 0.26864386 -0.03518608
7.491232e-05 -0.06889348 -0.055501856 0.29315776 -0.11572438 0.12013451 0.028938226 0.1750121
0.14053811 0.0059038885 0.09262961 0.048744664 0.107883796 -0.03697254 -0.04521615 0.116246685
-0.19152068 0.11554634 0.0868911 0.13890111 -0.012483942 0.36285424 0.15758725 -0.04368519
-0.13177243 -0.2112637 -0.4062822 -0.3605276 -0.070522524 -0.04486676 -0.13844286 0.1856171
0.06748168 -0.25875655 -0.20570897 0.021585025 -0.11565277 -0.17370234 -0.016843326 0.120466605
0.037182786 0.029712107 0.24511991 -0.06957715 -0.052762352 0.30119616 0.24771686 0.029008392
0.0728521 0.07415706 -0.10139608 -0.21953087 0.121437415 -0.13948354 0.286145 -0.018187173
0.0074135205 -0.18674126 0.13010418 0.15878223 -0.0035028297 -0.05071402 -0.07545453 0.15808676
-0.3164558 0.094106965 -0.14367826 0.014840053 0.09319046 0.3182271 -0.07305491 -0.13360357
0.19589037 0.14410245 0.043088283 -0.26260513 -0.36052647 0.04088295 0.19477229 0.0027849304
0.13840692 -0.10398588 -0.019199438 0.029774135 0.047442514 -0.107169636 -0.022821236 0.0912801
-0.0077164234 0.19989207 -0.30539706 0.21971895 -0.0125055285 0.012432839 0.14357167 0.14010435
0.05814551 0.23919529 0.036837082 0.025360433 -0.27713272 0.05673233 0.0119779715 -0.14072157
-0.34860504 -0.12540151 -0.0066387844 -0.050712597 0.028329857 0.02808936 -0.099426515 0.117910825
-0.10397269 0.03790495 0.5510197 0.16270669 0.08092647 -0.007608437 0.05257534 0.048385203
0.3022686 0.15651388 -0.043824404 -0.2694531 0.2781457 0.23089644 -0.14641589 0.21368074
0.17625648 -0.1807478 -0.0095788855 -0.069546804 -0.11551628 -0.051055945 -0.25720614 0.3594053
0.1151532 -0.1329557 -0.08840848 -0.01349392 -0.02453089 0.2233633 -0.051708482 0.017703691
-0.20426963 0.16333215 0.1492716 0.41486895 -0.03496883 -0.14141434 0.21373059 -0.16892555
-0.26812032 -0.19063826 -0.13595974 0.17112024 0.023457328 0.30443707 0.12081873 -0.24187793
0.0037947083 -0.054726817 0.004604901 0.12562907 0.1291703 0.037302583 0.16495976 -0.023391617

advantage_stream.bias f4 [20]
00000000: f70f c1be 5a0a 433e f368 503e f836 323e
00000010: 2f84 883e d9bd 463e a2e5 2a3e b084 d23d
00000020: 3b7a fabc f06f 0fbc 353a 1f3e 97a1 20be
00000030: ceb6 07be ee97 28be 6b24 783e 657f e9bb
00000040: 77cd d13d ee12 353e 8420 7c3d 168c 98bd
-0.37707493 0.19046918 0.20352535 0.17403781 0.26663348 0.19408359 0.1668916 0.102792144
-0.030575862 -0.008754715 0.15549548 -0.15686642 -0.13253328 -0.16464207 0.24232642 -0.0071257823
0.102442674 0.17683002 0.061554447 -0.07448594
