src/hockey-env/random_training_1/weights/episode_412.pth (torch, 307504 bytes, 7 tensors)

layers.0.weight f4 [256, 18]
00000000: e065 393e 0fbd cf3d 7f58 60be e709 56bd
00000010: bfc5 3f3d 38c5 d83a 7f00 883e 58b5 783f
00000020: 7414 253f 70a7 56bd bbe6 fd3d d73d ee3d
00000030: c660 3e3f 2d81 68be bc7e 533f 1264 a5be
00000040: ac30 04c0 df27 9c3f 24f3 0fbd d83d 71bf
00000050: 15a7 6c3d ff20 003d e1e1 83bc c9ce 853c
00000060: 9261 603f c8d3 e8be d858 1bbe c708 b43d
00000070: 4638 d3bd 881d 333d 5e8c 0bc0 d2d1 37bf
00000080: d1fc 66be 53a7 e7bd 2e05 5f3f 95d7 023f
00000090: 3059 5dbe 4ce8 843e dd60 5a3e 0e16 86bc
000000a0: a861 fb3d dcd3 d53a 2162 c83f c83e 303e
000000b0: ab49 263f cae3 0fbd e09e b33c 3653 e73c
000000c0: fd5a e33d b3bb acbe 4a7b dc3e fa15 35bd
000000d0: 099c e33c 96ad 6d3e 991d 983e 79c1 b83e
000000e0: 191b 95bf ef45 573d 8c2e da3c 829d 7bbe
000000f0: b159 0cbe 6718 553e 9e01 7b3e c3ef a5bc
00000100: 29b5 803c f7a0 98bd 6052 1cbe 553f 26be
00000110: 791d a63c 8191 51bc 18ac 303d 4efe ab3c
00000120: c25f 0cbe 06c8 8cbe 2686 393e ce0d 5b3b
00000130: adc4 66bd 5c7a 94ba 39f4 49be 1c68 61be
00000140: 0408 cf3d 848a 92bd 2738 fd3d d3ef 093c
00000150: 21b9 8a3f aade 44be 72a0 9c3f 52b5 f6be
00000160: 9b5d 4c3f ad39 bc3f e883 1d3f d244 08bb
00000170: 2823 dd3e ba79 993d 3ca0 3cbd 4d2e 0c3d
00000180: 18bf 5a3f 6ee0 3abf a31c dc3e b272 413d
00000190: 9458 a6bd e536 d43d 3a00 70bf 2f2c 08bf
000001a0: ed03 03bf 7710 99be 1ae0 a7bd b8a0 bfbf
000001b0: 38b0 b7be a074 abbe cd9e 663e 95fa 3dbd
000001c0: 7022 7a3d 6c1a 3fbb 3129 093e dc38 ea3e
000001d0: 6215 d6be 57e0 a33d f9de 00be 1d86 53bd
000001e0: 0f5b b2be a39d 963f 1981 9bbe 12fc 5f3f
000001f0: 8a8b 1ebf 8d0d ea3e 280f 8b3c b1b2 efbf
00000200: 5ce7 9d3c 4ffb 8f3d 40b0 5ebe df6b 85bc
00000210: e609 63bd c97f bc3f 3a6d adbe 9126 b7bd
00000220: f4d8 24bb 5062 23bd a3aa dc3e 1a8d a93e
00000230: 52cc 243d cb7c 7a3c 03ed c4bf e9bf 453e
00000240: 03bb a83e 0d2b 29be e0dd 863e 3e71 8a3d
00000250: fc6a ca3a 747b a33a dca4 243d dfd4 863e
00000260: 1152 fd3e 1a58 41be 9d2c 0a3c 1cde 153c
00000270: 4a1c 82bf ba9c 9dbe 433c 84bf 234a 0b3f
00000280: 5013 20c0 bc52 b1bf ce1e 6b3d 10e7 6ebf
00000290: d7aa 33be 7a9e 33bd 203a abbd 8dac ad3c
000002a0: 3b13 24bf 7812 d33e d4e0 29be 8c9c a0be
000002b0: 8f9b 873e e1cd b2bc b36c 39be e4f5 0c3f
000002c0: 87ac c6be 0ee7 78be a947 5ac0 dce3 1bbf
000002d0: 3cd5 42be 9d2c 45be a52d c53d 8a3e 503c
000002e0: 70a4 89bd 141d 30bd 3b25 073f 0d4a 023f
000002f0: 37fe 17be 6855 9e3a fda5 d2be 1b59 813d
00000300: 561b 33bf 9f53 783e c1e4 373f bc32 0fbf
00000310: 816d ab3e 613e 8b3f 7602 3b3e 7aab 88bd
00000320: 6a31 82be d40d 793d 5428 19be c16d 5cbd
00000330: d971 03bf 8bba df3f 1613 04bf 7aa4 ba3d
00000340: 1a23 2b3f 14eb abbd 6849 1a3e a2a6 aebd
00000350: e49a 59bf 3b02 b2be af06 783f e487 b8bf
00000360: ab80 b13e 42c2 04c0 8560 1d3e 241d 483d
00000370: f176 80be 3b02 6d3d 8c53 52be 9220 e03f
00000380: 462b 1940 fb01 a33d c771 2d3e 8ac7 0e3e
00000390: 8d98 e03e 46fe 3d3f bbd7 27be 15f7 203f
000003a0: 338d ecbe 18c5 363e ad8c 9ebe 1c48 59bf
000003b0: 68cd 5fbe 6a22 093d 004c f0bd 7096 1a3d
000003c0: b3ed 823e a6b6 603f b603 5d3f 84c6 a63d
000003d0: 155a 37bd 7afd 08bd 92b0 4f3e 25bc b6bd
000003e0: 2ba6 bb3e 5fe4 ddbe 6cce 0a3f cb35 b23f
000003f0: fdb0 c13e 5329 c13d 5006 e4bd 6f04 4fbd
0.18105268 0.10143482 -0.21908759 -0.052255537 0.046819445 0.0016538268 0.26562878 0.9715171
0.64484334 -0.052405775 0.12397524 0.11632889 0.74366415 -0.22705527 0.82615256 -0.3230291
-2.0654707 1.2199668 -0.035143986 -0.9423499 0.05777653 0.031281468 -0.016098918 0.016333954
0.8764888 -0.45474076 -0.1517061 0.08790737 -0.10313468 0.043729335 -2.1804423 -0.71804535
-0.2255738 -0.113112114 0.8711728 0.511102 -0.21616054 0.25958478 0.21326013 -0.016367938
0.12274486 0.0016313749 1.5654947 0.17211449 0.6495616 -0.035129346 0.021926343 0.02823792
0.11101339 -0.33736953 0.43062812 -0.04421041 0.027784364 0.23210749 0.2971008 0.36085108
-1.1648895 0.05255693 0.026633523 -0.24571803 -0.1370609 0.2081009 0.24512336 -0.020255929
0.015711384 -0.074525766 -0.15265799 -0.16235097 0.020277726 -0.0127910385 0.04313287 0.020995285
-0.13708404 -0.27496356 0.1811758 0.0033424976 -0.05633991 -0.001132797 -0.1972207 -0.22012371
0.10108951 -0.07155326 0.12364226 0.008418995 1.0837747 -0.19225565 1.2236464 -0.4818521
0.7983033 1.4705101 0.615294 -0.0020792973 0.43190885 0.074939206 -0.04605125 0.034223843
0.85447836 -0.729987 0.42990598 0.047228523 -0.08122364 0.10362033 -0.93750346 -0.5319242
-0.51177865 -0.29895374 -0.08197041 -1.4970922 -0.35876632 -0.33487415 0.22521515 -0.04638155
0.061068 -0.0029160036 0.1339462 0.45746505 -0.4181319 0.08001774 -0.12585057 -0.051641572
-0.34835097 1.1766857 -0.3037193 0.87494004 -0.6193167 0.45713463 0.016975 -1.8726407
0.01927536 0.07030355 -0.21746922 -0.016286789 -0.05542936 1.4726497 -0.33872396 -0.08942903
-0.0025153728 -0.03988868 0.43098935 0.33115464 0.040233918 0.015288542 -1.538483 0.19311489
0.3295518 -0.16520329 0.26341152 0.067598805 0.0015443261 0.0012472705 0.040196285 0.26334283
0.49476674 -0.18881264 0.008433488 0.009147193 -1.0164883 -0.30783635 -1.033089 0.5441
-2.5011787 -1.3853374 0.057402425 -0.93321323 -0.17545639 -0.043852307 -0.08360696 0.021200443
-0.64091843 0.41225028 -0.16589671 -0.31369436 0.2648587 -0.021826686 -0.18107872 0.550627
-0.38803503 -0.2430689 -3.4106238 -0.6089456 -0.19026655 -0.192553 0.09627847 0.012710223
-0.06720817 -0.04299648 0.52791184 0.5089424 -0.14843069 0.0012079896 -0.41142264 0.06315824
-0.69963586 0.24250649 0.71833426 -0.5593679 0.33481982 1.0878412 0.18262658 -0.066733316
-0.25428325 0.060804203 -0.1495679 -0.053815607 -0.5134559 1.7478803 -0.5159162 0.09113403
0.66850436 -0.08394447 0.15067065 -0.085278764 -0.8500197 -0.34767327 0.968852 -1.441647
0.34668478 -2.0743566 0.1536885 0.048855916 -0.25090745 0.057863455 -0.20539683 1.750994
2.3932662 0.07959362 0.16937934 0.13943306 0.43866387 0.74216115 -0.16390888 0.6287702
-0.46201476 0.17848623 -0.30966702 -0.84875655 -0.218557 0.033480085 -0.11733246 0.037741125
0.25571975 0.877787 0.8633379 0.081433326 -0.044763643 -0.03344486 0.202822 -0.089226045
0.36650214 -0.43338296 0.54221225 1.3922666 0.37830344 0.0943171 -0.111340165 -0.050541338

layers.0.bias f4 [256]
00000000: adf9 d8bf 8b03 953f a3d0 3f40 02b3 583f
00000010: e738 743f de63 e3bf 3000 9e3f 0d20 b4bf
00000020: 083b 7dbf 5fdc 0ec0 83c0 6140 9d48 03bf
00000030: b949 fb3f 28e0 873f 2acd 65be 1fb1 853f
00000040: 6060 cb3e 39ca 3240 36e5 e7bf 5e07 01c0
00000050: be27 f23f 180b 14be b22e e3be 8db3 6040
00000060: d377 0dc0 f225 e33f de83 083f e11a 2bbf
00000070: a876 e63f 5e05 b6bd ff2b cf3f fe47 2f40
00000080: eff4 a3bf 9901 91be 1c0f 4abf cd47 3240
00000090: 9bae 2dc0 5f57 273f 8ee6 d5bf 674f 1f3f
000000a0: f24e 48bf 71f8 643f cfb1 71bf d7bd 13bf
000000b0: 3b9d d0bf f345 d1bf 15a4 fdbf b16f 0c3f
000000c0: 44d6 c33f 0450 ee3e d6f8 f8bd 1263 9ebf
000000d0: 68d2 743f b4af 39be 507d f43f aa32 c2bf
000000e0: 3833 413f bcde 1840 db01 1840 82af f83f
000000f0: 949a b83f fdf8 30c0 d3b9 873f c370 3240
00000100: 27d9 27c0 d441 513d 81c9 cbbe 8149 2c40
00000110: e4b8 3d40 4027 81be d666 df3e 2c3c 5cbf
00000120: afbb 23be 1089 99bd ee75 0940 3e4a e23f
00000130: c498 dabf efce f83f 22e0 bbbf 04b5 4140
00000140: 62d5 c4bf 9d20 f5bf 300c 3f40 fbcd f6be
00000150: 6d4e 7c40 554e 6f40 f232 41be c0f9 a13f
00000160: 69ae fa3f 34df da3e 94e3 1dbd abff 543f
00000170: bff5 f13e cde9 b03f f640 9e3f 8da7 2840
00000180: 811e 0a40 235b 89bf d036 e7bf bd67 b33f
00000190: 98fb ab3f 9253 1240 287c 9fbd cade 813f
000001a0: a94d 00bf a311 f13e baef c0be 81a3 18bf
000001b0: 0b59 5140 b9f5 16bf 23aa b4bf e1a5 e2bf
000001c0: 7e19 2b3f c11c a33f 59fa a8bf b9ee b53f
000001d0: c5e4 db3d 68f0 12c0 06d8 f63f e1bf 803d
000001e0: abcb 7abd 4aa9 933f 8757 06bf cfc9 9d3e
000001f0: d792 7abf aae3 153f 6ec9 a83f ee1b 263f
00000200: 603e f2bd 4057 46c0 d145 7ebf 43df 433f
00000210: c92a 7f40 5df8 57c0 e578 ae3f 392a f63f
00000220: dbce 05c0 bbce ba3f 875b 42bf ea44 58bf
00000230: 64b6 3a3b 3982 2340 b3fb 3040 8e47 d6bf
00000240: 1fcd d93d e4d0 973f d52f 92bf a7bc 473e
00000250: c586 ae3f 37a4 1740 82a2 1a40 2f5b ea3f
00000260: 86db 28c0 88d5 e0be c4c5 c73c 5e9d ebbf
00000270: d531 23be 11d9 4e3f 4001 3040 f644 fbbf
00000280: 2adb a33f ec73 4f40 600e f7bd de15 24bf
00000290: ebbe 01bf 723a c6bf 25c9 1740 14a7 da3f
000002a0: 48b5 1bbd dd3f ea3f b6d7 c13f 672d 773f
000002b0: 927d ccbf 8253 6d3f 28c6 803f 54a9 9fbf
000002c0: 2ae2 453f 4592 483e 35e4 663e 1b3d 4a40
000002d0: 2d6f 4140 dd98 1bc0 eb94 cb3f b8d2 d93f
000002e0: ae0c f1be 8d3d 9ebe 61e4 bfbf f7cf 823f
000002f0: 96a5 ac3f bfc5 37be ab4d 0fc0 ec7d f8be
00000300: cf68 c23f 3837 1040 feea bb3d 8f39 ca3e
00000310: 19ce 23c0 8067 653f 16d3 27bf ffee 0440
00000320: 7608 0540 d412 2240 c706 92bf 2774 a43e
00000330: 9744 553f 62c7 f1be 759c d8bf d8ed 1fc0
00000340: 8f4e 3a3f bd27 98be dd45 c73f ae3a 52bf
00000350: 8402 583e 1ba8 c2bf e983 94bf 5e33 a2be
00000360: 208c 553e 2083 9f3f 8d38 eabf cf2e 70bf
00000370: 2621 00c0 6fea debf 4016 533f 4848 0e3c
00000380: 76e4 2b3e 423e c73f 48b2 903f e0f0 c73f
00000390: a76f 1fc0 0914 0540 f991 833f 0d58 c13f
000003a0: 3422 c0be b7a0 2040 dbe9 9a3c 6850 433f
000003b0: 6dae c2bf 2c41 00c0 4eb6 e8bf eba9 9e3f
000003c0: 2244 06c0 087d 69bf 47d8 883f 6e35 4bbf
000003d0: 64fe f73f de1a f1bf c36e 44bf 701d c13f
000003e0: 6ac6 c3bf 98d8 66bf eeb6 35c0 fbed 6a3f
000003f0: 10cf 643e 1337 fb3e 2c0b f93f dc8a d3bf
-1.6951195 1.1641706 2.9971092 0.84648144 0.95399326 -1.7764852 1.2343807 -1.4072281
-0.989182 -2.2322004 3.527375 -0.51282674 1.9631873 1.0615282 -0.22441545 1.0444678
0.39721966 2.7935927 -1.8116825 -2.0160747 1.8918378 -0.14457357 -0.44371563 3.510959
-2.2104385 1.7745955 0.53326213 -0.6683789 1.8004961 -0.088877425 1.6185302 2.738769
-1.2809123 -0.2832153 -0.78929305 2.7856324 -2.713782 0.6536769 -1.6710985 0.62230533
-0.7824546 0.8944159 -0.9441194 -0.5771155 -1.6297983 -1.6349472 -1.9815699 0.5485793
1.5299764 0.46545422 -0.12156837 -1.2373984 0.95633554 -0.18133432 1.9100742 -1.5171711
0.7546878 2.3885946 2.3751132 1.9428561 1.4422174 -2.765197 1.0603584 2.7881324
-2.622629 0.05108817 -0.39802173 2.6919863 2.9644098 -0.25225258 0.43633145 -0.86029315
-0.15989564 -0.07496846 2.1478229 1.7678907 -1.707787 1.9438151 -1.4677775 3.0266733
-1.5377619 -1.9150578 2.9851189 -0.48204026 3.9422867 3.739156 -0.1886709 1.2654343
1.9584476 0.42748415 -0.038547114 0.8320262 0.47257802 1.382135 1.2363575 2.6352265
2.1581118 -1.0730938 -1.8063602 1.4016033 1.3436155 2.2863507 -0.07787353 1.0146115
-0.501185 0.47083768 -0.37682897 -0.5962449 3.2710598 -0.58968693 -1.4114422 -1.7706872
0.66835773 1.274315 -1.32014 1.4213477 0.10736994 -2.2959232 1.9284675 0.06286598
-0.06122939 1.1536038 -0.52477306 0.3081803 -0.9788031 0.5855051 1.3186471 0.6488637
-0.11828303 -3.0990753 -0.9932528 0.76512545 3.9869864 -3.374534 1.3630644 1.9231635
-2.0907505 1.4594339 -0.7592091 -0.84480155 0.002849006 2.5548232 2.7653625 -1.6740587
0.10634827 1.1860623 -1.1420847 0.19505559 1.3634878 2.3693979 2.4161687 1.8309077
-2.6383986 -0.4391291 0.024386294 -1.84074 -0.15936978 0.8079997 2.7500763 -1.963042
1.2801259 3.2414503 -0.12063289 -0.64095867 -0.5068194 -1.5486586 2.371652 1.7082238
-0.03801468 1.830074 1.5143955 0.96553653 -1.5975821 0.9270555 1.0060472 -1.247355
0.77298224 0.19587047 0.22547992 3.1599796 3.0224106 -2.431205 1.5904821 1.7017431
-0.47079986 -0.30906335 -1.4991571 1.0219716 1.3488033 -0.17946528 -2.2391155 -0.4853357
1.5188235 2.2533703 0.091756806 0.3949704 -2.5594542 0.89611053 -0.65556467 2.0770872
2.0786414 2.5323992 -1.1408318 0.32119867 0.83307785 -0.4722243 -1.6922747 -2.4988918
0.7277612 -0.29717818 1.5568196 -0.8212079 0.2109471 -1.5207552 -1.1602756 -0.31679815
0.20854235 1.2461891 -1.8298508 -0.93821424 -2.0020232 -1.7415293 0.82455826 0.008684225
0.1678637 1.5565875 1.1304407 1.5620384 -2.4911897 2.0793478 1.0278922 1.5104996
-0.37526095 2.5098093 0.01891034 0.76294565 -1.520948 -2.0039778 -1.8180635 1.2395605
-2.0979085 -0.9120641 1.0691003 -0.793784 1.9374509 -1.8836324 -0.7673151 1.5087109
-1.5294926 -0.90174246 -2.8392901 0.9176938 0.22344613 0.49065456 1.9456534 -1.6526752

layers.1.weight f4 [256, 256]
00000000: b163 803f 8c94 87bd 1b85 45be c4df 7e3c
00000010: 1db4 cbbe 8420 f0be 68ac e2bc 00df 133f
00000020: 1a3f 843f 5f7d 183c 4f72 a0be 8d96 f7bd
00000030: e606 453e 9c0a 2ebf 16bd 383f bb82 93be
00000040: 11b4 9a3f 71c0 253f cbe6 a63e 06ff 8e3f
00000050: 7601 d53e a200 803d 459e 7b3f 7ff6 92bf
00000060: c842 8dbd 9404 f8be 4243 4f3e 3526 533e
00000070: 9339 7ebb 1782 01bf fed5 163f ebfc b2bd
00000080: e8c8 a13e 4f84 c2bd 98ad 863d 1123 0dbf
00000090: a663 bdbe 7178 933f 16f2 453f 9a5b 44be
000000a0: 051c d6be 14ba f5be 9ed2 febc 97b3 eebe
000000b0: 89a6 793f 1b47 cbbd 75cb 553d f709 a03d
000000c0: 7e53 063f 2ebf 333d 3520 09be 21ad f7be
000000d0: 9818 f23e c3ab 053f e872 5ebf 10ad d4be
000000e0: c9ae c2be 09fc 493e c820 bcbf 309b 81bf
000000f0: 23f9 d93d 5efb d1be cb8c c6be e9c9 053f
00000100: 7fc4 863f aa87 d0be cc70 b73e ad24 963f
00000110: 5eaf a83e ad7d 9a3e 56c2 b03e 8421 6b3e
00000120: 2a02 a4bf 156b 073e 9599 183e 74e5 febe
00000130: 4a8a f83e 3061 1a3e 3223 b23e 9ac0 773f
00000140: 3e6c 013e 4a45 9c3f 121a 1d3f 9356 f93e
00000150: d827 afbf b2f0 1cbc c23f 13be dc4b 553e
00000160: 2341 d1bf f7f0 75be 4800 dabd 8222 81bd
00000170: b0ea 87bf 2fd6 bfbe 8320 383e 2463 773e
00000180: 3169 f43e cac1 57be 4518 7f3e 2441 1d3f
00000190: 9d8a acbe 787b 09be c94a 99be 8948 0e3e
000001a0: 131b 01bd e52d 45bf 3330 163e 1dda 60bc
000001b0: fce0 90be eaf9 013f 8d46 773f 5a4c 823d
000001c0: 1de6 ae3c 4681 07bf 42e7 583d 740b 69be
000001d0: f24b ed3f 7d0e ba3e 946b 853e d1a9 c93d
000001e0: 267e 26bf f1ff f2be e936 29be c777 9e3e
000001f0: 5fa8 ac3f 334a 193f d905 c83c 4309 26be
00000200: da57 dcbe b798 d93e 551f a23e f3ae d53e
00000210: a09c ea3e e2a1 873e ef70 e53e 4797 353c
00000220: 76ee 903f 190b 523f 3ada 53bf 2182 803f
00000230: fb8c 643e 5003 2f3f c8a9 4abc 285a ffbe
00000240: f543 e23b fc40 20be f6c2 49bf dc72 c43d
00000250: 4d65 a23c f4ad 37bf f60d 7fbf be1b 893f
00000260: b614 a7bc e2c3 b23f 065d 0abf 81f8 35be
00000270: b087 26bf 5d26 783e 4cd3 3fbf 4659 5a3f
00000280: dcb1 70bd f734 4f3f 860c 043f b8df 0b3f
00000290: ec05 efbe 4f81 863f d285 52bd 177a 46bf
000002a0: c731 0fbf e736 d93e fad9 aabe 27b8 363f
000002b0: f40a 013f d97e a0be fd42 243f 88ba 70bf
000002c0: 278c 193e 434f 183f 4c23 50bf b5a5 f5be
000002d0: 0232 5abe 108f 67bd f79c 03be 35d2 30bf
000002e0: 4e5a d83c b7b2 cf3e e093 08be 27f2 48be
000002f0: 32e6 15bf daa3 bb3d ac17 463e b98e cf3e
00000300: f5be 0dbf 4f58 833e 85b8 5cbf 7520 31be
00000310: 18bc 8cbe 8d7a 05bf 3c3c d93e 5244 26c0
00000320: b80c 6bbe 1059 23be 2097 2ebf 06eb 01bf
00000330: fd1b 1d3f 586a e8be 0790 4bbf 0e92 a03e
00000340: 8213 8d3f fab3 153c 8d0e a53e dee0 8abc
00000350: f4fa d9be 2494 c03e c750 6d3f 1d02 723e
00000360: 2311 603e baaf a93f b13c ae3e 0229 f0bc
00000370: 96a7 eabe 0dd2 573e d589 c5be 14be b4be
00000380: f6a9 c43e 0f95 653e 78ab 44bd 978b 85be
00000390: fb19 dfbe a277 413f 2627 6c3e eeb9 9abe
000003a0: 6996 f73e 1ef5 a13e 2306 91bc 4838 523e
000003b0: 5a04 073f 856b a03e 1b5a 443f 3f8f fe3e
000003c0: 32cb d63e 1e44 22bf 94e8 2bbf 9ee5 84bf
000003d0: 9145 573f 13d2 ab3e 3dbf 843f 226c ad3e
000003e0: 6868 3c3e 0905 393f 42ea c7bd 972d 57bd
000003f0: 85bd 823e b1c6 71be f368 343f e32b 64bf
1.0030423 -0.0662013 -0.19289057 0.01555628 -0.39785853 -0.46899807 -0.0276701 0.57762146
1.0331757 0.009307235 -0.3133721 -0.12089262 0.19240913 -0.6798494 0.7216352 -0.28810677
1.2086202 0.6474677 0.32597956 1.1171577 0.41602677 0.06250121 0.98288375 -1.1481475
-0.06897503 -0.48440993 0.202405 0.20620044 -0.003879164 -0.50589126 0.58920276 -0.087396465
0.31598592 -0.09497892 0.06576079 -0.5513163 -0.36990088 1.1521131 0.7732252 -0.19175568
-0.41818252 -0.4799353 -0.03110629 -0.4662139 0.9751974 -0.09925672 0.052195985 0.07814401
0.5247115 0.043883495 -0.13391192 -0.48374274 0.4728439 0.5221521 -0.86894083 -0.41538286
-0.38023975 0.1972505 -1.4697504 -1.0125484 0.10643222 -0.4101209 -0.38779292 0.52261215
1.0528716 -0.40728503 0.35828245 1.1729943 0.32946295 0.30174008 0.34523267 0.22962004
-1.281316 0.13224442 0.14902337 -0.49784434 0.48543006 0.15076137 0.34792477 0.9677826
0.12638947 1.2208645 0.61367905 0.48698863 -1.3684034 -0.009578871 -0.1437979 0.2082972
-1.6348003 -0.24017702 -0.10644585 -0.0630541 -1.0618496 -0.37468097 0.17981152 0.24158913
0.47736505 -0.21070018 0.24911602 0.6142752 -0.33699504 -0.13426006 -0.2993987 0.13894857
-0.03151996 -0.77023154 0.14666824 -0.013723877 -0.2829665 0.50771964 0.96592027 0.06362219
0.021349961 -0.5293163 0.05295492 -0.22758275 1.8538802 0.3633918 0.26058638 0.09846843
-0.6503624 -0.47460893 -0.16524853 0.30950758 1.3488883 0.59878844 0.02441685 -0.1621447
-0.43035775 0.42499325 0.3166453 0.41735038 0.4582262 0.26490694 0.44812724 0.011083431
1.1322773 0.82048184 -0.8275486 1.0039712 0.22319405 0.6836443 -0.012369581 -0.4987347
0.0069050738 -0.1564979 -0.7881311 0.0959222 0.019823695 -0.71749806 -0.9963068 1.0711591
-0.020395618 1.3966029 -0.5404819 -0.17770578 -0.6505079 0.24233384 -0.7493179 0.8529247
-0.05876337 0.8094019 0.5158161 0.5463824 -0.46684206 1.0508212 -0.051397152 -0.77530044
-0.5593533 0.424247 -0.33369428 0.71374744 0.5040734 -0.31346777 0.64164716 -0.94034624
0.1499487 0.59495944 -0.8130386 -0.47977987 -0.21308139 -0.05653292 -0.12852846 -0.6907075
0.026410248 0.40566036 -0.1333766 -0.19623624 -0.58554375 0.091621116 0.19344968 0.40538576
-0.553695 0.25653312 -0.86219054 -0.17297538 -0.27487254 -0.5214012 0.42428768 -2.59792
-0.2295407 -0.15951943 -0.6819935 -0.5074924 0.6137083 -0.45393634 -0.79516643 0.3136143
1.1021578 0.009137148 0.32237664 -0.016952928 -0.42574275 0.37613022 0.9270138 0.23633619
0.21881537 1.3256752 0.3403068 -0.029316429 -0.45830983 0.21076222 -0.3858172 -0.35301268
0.3841092 0.22420143 -0.048015088 -0.2608306 -0.4357451 0.7557317 0.23061809 -0.30219978
0.4835694 0.31632322 -0.017703122 0.20529282 0.52741015 0.3133203 0.7669999 0.49718663
0.419519 -0.6338519 -0.6715176 -1.0382574 0.84090525 0.3355871 1.0370861 0.3387156
0.18399203 0.7227331 -0.09761478 -0.052533712 0.25535217 -0.23610951 0.7047264 -0.89129466

layers.1.bias f4 [256]
00000000: 13eb 113f b2ac 163d aecd 403f a03d a23e
00000010: bb27 de3e 92d4 7abc b28a e43e 3634 0a3e
00000020: f36c 2bbf ce38 893e 1b1f 21bf 4a0f ebbc
00000030: 5ed8 01be 75f8 603f fa8f ccbd d50f 993e
00000040: 5577 40bf 7453 ddbd 5e77 3e3f ffdd e2be
00000050: d63a 943e b57a 95be 0f02 5cbf 03a0 2b3e
00000060: 305f 65bf 6242 2bbf bcc6 1abf 11e1 2f3d
00000070: 0dd9 773f d530 463f de74 7c3f 892e cd3d
00000080: ea63 833e 0a2f 00bf f200 28bf dc6a 033f
00000090: 6274 3c3f 045e 763f e71b 24bf 5a06 34be
000000a0: 9c79 96bd 7bbc c83e 19c7 4fbf c575 46bf
000000b0: d7eb 3a3f 56be 893f d1b9 8e3e 5e20 183f
000000c0: c59d 5e3e b3ad 343e 85b6 64bf b150 133e
000000d0: ea5d 033d 2215 20bf b41b 663f c089 88bf
000000e0: 3c3b 933d 5011 16bf e8ce b83d a3a0 75be
000000f0: 2703 613e 8af4 c23f 2d63 4b3f 9fa5 833f
00000100: bc88 3dbf d589 efbe 9666 48bf fa55 20bf
00000110: 3af2 dc3e e8bc f03e 67e0 63bf 1b53 2d3f
00000120: 0b02 30be 84ab 033f f465 233e 7eec 8f3d
00000130: 5f10 043f ca17 593e 16f5 4cbf c3a6 9cbf
00000140: ec83 febd 0f21 90bf 1037 593f 2462 bbbe
00000150: 17b9 17bf 1551 9f3e 73d3 66bf a480 ae3e
00000160: 1457 4bbf d0a4 8a3f bfab 243f a91c 313f
00000170: 0090 70be 2e8f 8d3e fbcb 2fbe b6e3 5e3d
00000180: edab 233d 899d ccbe 87ee 22bf 4c6f a3bd
00000190: 4a64 95bf d63f cfbe c46d ed3e 624f a8bf
000001a0: 2465 49bf ca4d 293f 90cf 913d f812 26be
000001b0: 19fa bc3f bf7b c6bf 39e7 0fbd 4d77 223f
000001c0: fa36 94bf ddab 013f 9986 b63e 79fe c53f
000001d0: 9aed 243f 54e5 37bf 2ab6 8c3e 1c10 f6be
000001e0: 4cc0 453d 7aa1 083f 1cda eb3d 3ee8 093f
000001f0: 5103 4a3f 3e85 ba3f baa3 b83f 340b b43b
00000200: ab8b fd3e 56c1 673e 1d55 07bf 846e 723f
00000210: f64f 46be a585 1ebf fadc c73e 3bf7 dbbd
00000220: b3ef aabe 160a 0b3f f491 693f 74c4 a43f
00000230: bb8b a8bf c8ee 10bf 2e81 16bf bd7d e5be
00000240: c9fb 8c3e ba67 713d a65e d03e 3c37 2f3f
00000250: d690 8e3f 567c 3fbf ef40 d6be 1764 83bf
00000260: f7f5 b9be b44f 193d d3b0 22bf 1184 f9be
00000270: 8c01 ab3e ce93 2e3f bc29 033f 421d bcbf
00000280: 2a27 1abf 8d60 b63f 027b a13f e506 97be
00000290: 7744 033f 3c40 543e fee9 653f 57f1 5cbf
000002a0: 8d1c 643f ff5f 08be 1115 96bf 2763 8abe
000002b0: fd85 3c3f ca13 563f 1abe bc3f 4a9f 5bbf
000002c0: 269e bfbe b384 48be 95d9 ddbf c645 a9bf
000002d0: b8d2 8cbe 482e 67bf 4e47 a4bf 826b 9ebe
000002e0: 4979 dc3e 5326 163e e99c 153f fcf5 ccbc
000002f0: d661 693f 42e4 f23d 4d26 92bf ff42 31bf
00000300: 3626 5f3f c861 913f 3aaa cfbf 157e 75be
00000310: df3d 56bd cdd9 9f3e 2342 8cbe 16eb 493e
00000320: 243d 9a3f 4ee9 bebf 6599 abbc d313 97be
00000330: 6c31 a43e 6963 48bf 04ab 0a3e 9ffa cc3f
00000340: fc2d 923e 8199 eb3e a4bc a53d 1ee4 b03e
00000350: 1318 e03e 9b5f 7c3d 0eb4 8e3e ed8a 07bf
00000360: a0be 55bf 4f9b f43d 4a65 753e 3d96 77bf
00000370: 64ee 62bf cf4e 853e a39d 4cbf 0489 42be
00000380: e8f5 383f 1746 173f 97ee 053f 1e8a 77bf
00000390: ac17 3cbf 0eda bebe 4a64 523f ee48 7fbf
000003a0: 3eaf afbe 41ff 9e3f be4b 5d3f 88c4 043f
000003b0: 3a44 c0be ea65 193f de0b 903e 26ac babd
000003c0: 84bf cabe b590 dc3d 880b 7d3e f8bf 43bf
000003d0: edd4 b3bd bfba 95bf 59a0 01bf c75b d6be
000003e0: 9756 013e 1ffb 90bf eda8 403f df03 2dbf
000003f0: 4377 553f 3371 abbd 2de3 07bf 61ad 5dbe
0.5699932 0.03678579 0.7531384 0.3168764 0.43389687 -0.01530947 0.44637066 0.1349648
-0.6696312 0.2680115 -0.6293809 -0.028693814 -0.12680194 0.87879115 -0.09988399 0.2989489
-0.75182086 -0.10806933 0.7440089 -0.44309995 0.28951138 -0.2919518 -0.8594064 0.16760258
-0.8959837 -0.6689817 -0.60459495 0.04293925 0.9681557 0.7741826 0.98615825 0.100186415
0.25662166 -0.50071776 -0.6562644 0.5133493 0.73615086 0.96237206 -0.64105076 -0.17580548
-0.07347414 0.392063 -0.81163174 -0.7752345 0.73016113 1.0761211 0.27876142 0.5942439
0.21739872 0.17644386 -0.89341 0.1438625 0.032071985 -0.62532246 0.8988602 -1.0667038
0.071890324 -0.58620167 0.09023839 -0.2398706 0.21973859 1.5230877 0.79448205 1.0284919
-0.74036765 -0.46784845 -0.78281534 -0.6263119 0.43153554 0.47019124 -0.89014286 0.67704934
-0.1718828 0.5143359 0.15956861 0.07027529 0.5158748 0.21200481 -0.8006147 -1.2238392
-0.12427506 -1.1260089 0.84849644 -0.36598313 -0.592668 0.31116548 -0.90166396 0.3408252
-0.79429746 1.0831547 0.64324564 0.69184357 -0.23492432 0.276483 -0.17167656 0.05441638
0.039958883 -0.3996394 -0.63645214 -0.079802126 -1.1671231 -0.4047839 0.46372807 -1.3149226
-0.78669953 0.6613432 0.071196675 -0.16218174 1.4763824 -1.5506514 -0.03513262 0.6346329
-1.1579278 0.5065287 0.35649565 1.5468284 0.6442505 -0.718343 0.2748273 -0.48059165
0.04827909 0.53371394 0.115162104 0.5387 0.7891131 1.4571912 1.4424965 0.0054944996
0.4952062 0.22632346 -0.5286425 0.94699883 -0.1936644 -0.61922675 0.3903578 -0.10740515
-0.33386 0.54312265 0.9123833 1.2872453 -1.3167642 -0.5661435 -0.5879086 -0.44822493
0.27535847 0.058936812 0.4069721 0.68443656 1.113795 -0.74799097 -0.41846415 -1.026492
-0.3632047 0.037429526 -0.6355106 -0.4873357 0.33399618 0.6819428 0.51235557 -1.4696429
-0.6021601 1.4248215 1.2615664 -0.29497448 0.51276344 0.20727628 0.8981017 -0.86305755
0.89106065 -0.1331787 -1.1725179 -0.27028772 0.7364195 0.83623946 1.4745514 -0.8578993
-0.37425345 -0.1958187 -1.7332026 -1.3224418 -0.27504516 -0.90304995 -1.283426 -0.30941397
0.43061283 0.14663057 0.5844255 -0.025019638 0.9116491 0.11859943 -1.1417938 -0.6924285
0.8716768 1.1357965 -1.6223824 -0.23973878 -0.0523051 0.31220856 -0.27394208 0.19718584
1.2049909 -1.4914949 -0.020947168 -0.29507312 0.32068956 -0.7827669 0.135418 1.6013983
0.28550708 0.46015552 0.08092621 0.3454904 0.43768367 0.061614614 0.27871746 -0.5294636
-0.83493996 0.11943685 0.2396442 -0.9671362 -0.88645005 0.2603669 -0.79928035 -0.1899758
0.72250223 0.59091324 0.52317184 -0.96695125 -0.7347362 -0.37275738 0.8218428 -0.99720657
-0.34313387 1.2421647 0.864437 0.5186238 -0.37552053 0.59921134 0.28134054 -0.09114866
-0.3959924 0.10769788 0.2471143 -0.76464796 -0.08780847 -1.1697615 -0.50635296 -0.41866896
0.12630688 -1.1326636 0.7525776 -0.6758403 0.83385104 -0.083712004 -0.5308102 -0.2164817

value_stream.weight f4 [1, 256]
00000000: dcea cc3d 0f91 dbbd 17d4 d43d 47d2 f13d
00000010: 2705 313f 0daa 13be 17da 4fbe 51df 803e
00000020: f9f4 96be 4cd3 18be 173e d9bd fc58 053e
00000030: ee38 b8be 4d03 883d 36e2 473d 0c67 35be
00000040: 9128 45be b627 083e ca84 233d a36f 453f
00000050: f6c0 383e 90cf b0be 5b25 8ebe b8ed 553e
00000060: 6956 54be 56af 27be a35f 88be 166b 893e
00000070: 1733 813d c6b0 953e 05be 363e 5a2e df3d
00000080: 415b 8bbe 3f57 7abe 3592 6cbe c54e 853e
00000090: 996c a3be 39a1 083e f6e0 08bf 8958 1a3e
000000a0: e313 2b3e 9fc8 0d3f 9bf0 ddbe f512 a43e
000000b0: 68a9 ce3d 61f1 433e 619e a43e c2f4 b43e
000000c0: 0906 9fbf 1de1 843e d7b0 58be 7f8b 1abf
000000d0: 9f93 7f3d e31c b23e 20be 053e 4ce1 42be
000000e0: 466b 36bf 1cdd 6c3e 7cb2 15be 0a86 23be
000000f0: f9de 47be 34f4 143e 898a de3e 5741 d23e
00000100: cd61 98be 99e5 fcbd e258 3fbe 711b 18be
00000110: 4c13 773e 4f16 92be 5935 86be 0016 c4be
00000120: 1ae9 8a3e 2447 5d3e e768 733e 97ff 9f3e
00000130: 7b36 513f 715e 31be d46b 073f 0579 aebe
00000140: 9588 0abe c2c6 0bbe e2cc 403e b90e 413e
00000150: 807a 5fbe 5e37 173e c3b2 833e 3819 b53d
00000160: 2517 b63e 1c38 063e 350b 91be 1e2f 4a3e
00000170: b01c b9bd 6669 80be 52e8 59bd f8b5 d6bd
00000180: 5639 343e 6256 293e d519 71be fd16 213e
00000190: f490 643e db31 15be 0f58 ae3e d2b2 93be
000001a0: e213 4e3d 9a39 a03e 2100 2a3e 53c1 70be
000001b0: ef81 ab3e d723 b83c a0bb 143e 83c5 6b3e
000001c0: cb26 9cbe 5e3a 5fbd 87e6 59be 0e20 22bf
000001d0: dc0a 033e 53f4 87be 30d5 a7be 25fd 633e
000001e0: 7c46 39be c29d 6e3e 0287 753e 5236 7d3e
000001f0: 0133 8a3f 6b28 e93e 9ca7 f53e a383 523e
00000200: 7de8 bcbe 3c1f d03d 71c3 863e 6e91 bc3e
00000210: 3afe 99be 67c4 ae3e 7244 073e b658 023f
00000220: 3aa5 22be 6ff3 c93e 9556 893e c85d e4be
00000230: fcce eebd 87ee 2cbe d4e4 9b3e c8a6 02be
00000240: e148 103e 4c51 93be d5fa 2fbe 6f01 423e
00000250: 8269 2f3e 3758 75be fc8f 43be ec95 1cbe
00000260: 9224 9bbe 018b 38be fff4 cd3e d886 843e
00000270: 7776 e13d 2ce8 a7be c1b9 f13d 3f25 973e
00000280: c0cc 8f3e cff9 fb3d 717a 1f3e 260d c3be
00000290: b544 34be 8170 84be e2f2 cb3e 8cf4 d8bd
000002a0: 4492 363e c29a 0d3e eaac e0be 9c65 683e
000002b0: b929 8e3e 4dde c13e 0470 4d3e b096 9fbe
000002c0: 72d5 c1be d7d2 393f ddf1 a0bc cfec ab3e
000002d0: 0cef 82be 6140 933e 03cb 233f d470 483e
000002e0: 6f1e 3c3e 6459 bf3e 7477 cc3d ca34 9a3e
000002f0: e784 12bf e5bf 5a3e a263 60be 8593 4ebe
00000300: 2ef0 43be ac73 8bbe 359c ec3e 8ea0 773e
00000310: 8e62 d63e e71f 143e 84c1 c1be 2e0b 333f
00000320: f7eb f23e 3c5f 95be 6476 5abf 7a0b eb3e
00000330: 3979 a03e 0d1f 653b 73c1 0d3f 1625 cb3d
00000340: c881 853e 7115 2b3e 28e5 553d 8a10 673e
00000350: 2e29 ae3e 9ee7 8f3e 38e3 85be 8fc8 14bf
00000360: c49d 4c3e 3410 d23d f21e f23d c19b 973d
00000370: 3a5b eb3d 243e 18be f0ff d8be a628 b03e
00000380: d20e 253e 8877 693e ae71 8a3e c80f 733e
00000390: 28a3 c4bd 684c 963e f01a ecbe 1898 5b3e
000003a0: 0756 75be c515 6d3e 61a1 5c3e d964 46be
000003b0: a69c 683e dd9c 17bf d926 0fbd c23a a8be
000003c0: 02f4 56be 294a 7abe 290a 913e e395 28be
000003d0: 563e 923e 05ea d73d 8907 523f 297c 93bf
000003e0: 9810 c2be 6b47 79be f5de 5fbe 51b2 81bf
000003f0: 5980 a23d 70ca b43d 5e2b 88be c764 1abe
0.10005733 -0.10721027 0.103920154 0.11807685 0.69148487 -0.14420338 -0.20298038 0.25170377
-0.29483774 -0.14924353 -0.10607546 0.13022226 -0.35980934 0.066412546 0.048799716 -0.1771509
-0.19253756 0.13296399 0.03992156 0.7712347 0.18042359 -0.34533358 -0.27762875 0.20891464
-0.20736088 -0.16375479 -0.26635465 0.26839513 0.06308573 0.2923643 0.17845924 0.10897513
-0.2721806 -0.24447344 -0.23102649 0.2603666 -0.3191879 0.13342752 -0.53468263 0.15072836
0.16706805 0.5538425 -0.4334763 0.32045713 0.100909054 0.19135047 0.32152084 0.35342985
-1.2423717 0.25952998 -0.21161209 -0.60369104 0.06239664 0.34787664 0.13060808 -0.19031256
-0.71257436 0.23131222 -0.14618868 -0.159691 -0.19518651 0.14546281 0.4346507 0.41065475
-0.29762116 -0.1234848 -0.1868625 -0.14854218 0.24128455 -0.28532645 -0.26212576 -0.38298035
0.27130967 0.21609169 0.23770486 0.31249687 0.81723756 -0.17321183 0.5289891 -0.34076706
-0.13528664 -0.13650039 0.18828157 0.18853272 -0.21824074 0.14767215 0.25722322 0.08842701
0.35564533 0.13107342 -0.28328863 0.19744536 -0.09038675 -0.25080413 -0.053200074 -0.104839265
0.17599997 0.16536859 -0.2354501 0.15731426 0.2232092 -0.145698 0.34051558 -0.28847367
0.05031193 0.31293947 0.16601612 -0.23511247 0.3349757 0.022478027 0.14524698 0.23024563
-0.30498347 -0.054499023 -0.21279345 -0.6333016 0.12797111 -0.26553592 -0.32779837 0.22264536
-0.18093294 0.23302367 0.23977283 0.24727753 1.0796815 0.4553865 0.47979438 0.20558028
-0.36896124 0.101622075 0.26320985 0.36829704 -0.30076772 0.34134218 0.13209704 0.5091661
-0.15883341 0.39443538 0.2682387 -0.446028 -0.11660573 -0.16887866 0.3044802 -0.12758934
0.14090301 -0.28772962 -0.17185529 0.1894586 0.17130092 -0.23959433 -0.19097894 -0.15291566
-0.30301338 -0.18021776 0.4022598 0.25884128 0.110089235 -0.3279432 0.11803008 0.29520604
0.280859 0.123035066 0.15574051 -0.3809597 -0.17604335 -0.25867084 0.39833742 -0.105935186
0.17829233 0.13828567 -0.43881923 0.22695011 0.27766207 0.37864915 0.20062262 -0.31169653
-0.37858158 0.7258734 -0.01964658 0.33579108 -0.25573003 0.28760055 0.63981646 0.1957429
0.18370984 0.37372887 0.099837214 0.301184 -0.5723404 0.21362264 -0.21913007 -0.20173462
-0.1913459 -0.27236688 0.46212927 0.2418234 0.41872066 0.14465295 -0.37842953 0.69938934
0.47445652 -0.2917422 -0.853369 0.45907193 0.31342486 0.0034961135 0.55373305 0.09919183
0.26075578 0.16707398 0.052220494 0.22564903 0.34015793 0.28106397 -0.26149917 -0.5811853
0.19982058 0.10256997 0.118223086 0.074027546 0.114920095 -0.14867455 -0.42382765 0.34406012
0.16118935 0.22799504 0.27039856 0.23736489 -0.09601432 0.29355168 -0.46114302 0.21444738
-0.23958598 0.23152836 0.21545936 -0.19374408 0.22716007 -0.5922373 -0.034949157 -0.3285733
-0.20991519 -0.24442352 0.28328064 -0.16463427 0.28563184 0.105426826 0.8204275 -1.1522266
-0.37903285 -0.2434365 -0.21862395 -1.0132543 0.079346366 0.088276744 -0.26595587 -0.15077506

advantage_stream.weight f4 [20, 256]
00000000: 032d ef3c 15fa bcbb 4553 2abe 36ac 35bc
00000010: 2443 b93c 43b1 8cbe 63a9 0bbd 423f c9bc
00000020: 7582 6b3d e899 31bd ca86 95be fec9 1b3d
00000030: e955 613d 3112 b13c 9b7e 3dbd a22d 9b3b
00000040: f8cf 503d bff5 203e 0dcb aa3b 1a4a ac3c
00000050: 4cc9 923d 91f8 b9bc a4a8 9bbe cc1d d33e
00000060: 19ad 8dbe d3a5 4a3c 8fba 30bd 349e c03d
00000070: 0e68 5a3e c9e9 03bd a8c4 2d3e f490 7cbd
00000080: 4a6d 823c fe12 493d a3df 093e 7b47 053e
00000090: 7c09 33be b64e 1c3e a7ae b33c 7cb8 80be
000000a0: a8e1 4c3e 8031 033f 05e0 b13d 98f6 42bc
000000b0: 4d9d 613d 879d 9cbe ddc0 e23d 9821 38bd
000000c0: 22eb ba3d 7050 d23d 4a8d f4bd 54ad 07be
000000d0: 1629 fd3c a574 d3bc 3fe5 e4bc 689e d4be
000000e0: 6f59 12bd 6b16 d2ba d774 9e3d 0571 48be
000000f0: 39bf 8bbe a916 693d 3b5e 3a3e 974d ed3c
00000100: d56a 843d bdf4 4d3d 4ba1 22be 2db5 3e3d
00000110: 4726 a63e 908e 42bd 9066 09be f154 2b3d
00000120: 9792 143e ab7d 283e 6fa6 18bc 878f 443d
00000130: 9dae a13d 3650 09be b426 613d 548c f6be
00000140: c2e4 b0bc 4e76 96be e2ef 9d3d bba0 f1bc
00000150: 2efe 5a3d 6e16 2b3e 5aee 4a3e 1801 053c
00000160: 65f2 303d a5af a4bd 45ff 07bd 0602 723e
00000170: 2219 76bd 7912 003e abef 7fbc daba 373e
00000180: c4d7 bd3d ab94 e4bc 5f19 083e b442 453d
00000190: 1f49 d6bb 0d32 b4bd 57fe f3bc d4b7 d83c
000001a0: 07ff 49be 0c1c 613e 8b59 c93d 0af1 c73d
000001b0: 0ecc 0d3d a48d 0b3e 9cbd 053e f48f 07bd
000001c0: 262b 07be a678 73be d6a6 b0be cc33 a5be
000001d0: b8eb 6abd bfd7 6cbc c261 04be 31cc 063e
000001e0: 341a 163e dd15 9abe 0fc0 31be a6fa eb3b
000001f0: 26dc 12be 6fb3 5ebe 4f54 54bd 1910 a93b
00000200: f01e 833c 65b5 233d edb4 853e c5be 3bbc
00000210: 914e ae3a 14b8 933e e71b 863e 14a9 293d
00000220: afd4 e03d 85d0 123d 9fff 1bbe c925 7dbe
00000230: 6e26 273e 89e2 f6bd 85eb 823e d7e8 583c
00000240: 1065 c73c d572 ecbd 5539 0f3e 0eb6 083e
00000250: 02cf 3bbd 89aa 05bd 76f0 9dbc e2c3 de3d
00000260: bc8e fbbd 3c30 053d 05a5 4fbe 3e24 823c
00000270: a449 ee3d ed8b a43e 8af8 a7bd cc79 36be
00000280: 01b8 3f3e c34f 973d a43c fa3c 0a51 8abe
00000290: cb01 abbe 0ae2 2e3d 3814 163e 786e c83c
000002a0: 5458 0a3e 2421 05be f9b5 cdbc e765 cfbd
000002b0: 3846 f73c 9b0f 1abe fd86 83bd 205b a73c
000002c0: 3c8a 0fbd d8d1 743e 45d0 a6be b583 393e
000002d0: bfb0 1cbd f7d6 b8bc 5f8a 483e 29a5 b0bc
000002e0: e7bf 463d a88f 7b3e c0ec de3c 3808 253b
000002f0: b159 9fbe 15c9 c73c e3a7 cdbc 23d7 0ebe
00000300: 85ef 9bbe 2589 f0bd ed00 a8bc 4bd7 4dbd
00000310: 3cb9 533c ddfd 163c 28b8 e2bd ed6a e33c
00000320: f405 afbd 3440 903d 489e 2a3f 44f5 d43d
00000330: d1ea e43d 8557 8cbd 57b1 a1bc 12c4 f5bc
00000340: 425e 9e3e c311 c23d 287d a6bd 3bc6 59be
00000350: 1385 a13e 8b80 0a3e 745b 20be d424 153e
00000360: 0751 613e 5771 41be 49a3 8c3d a909 f6bd
00000370: f5d4 aebd 4139 3dbd ee69 46be bf5c a93e
00000380: a27a 603d ed1c dcbd 1685 69be 6bee 103d
00000390: b081 bbbd e5c7 ac3e da1c 1ebd 373e 9fbc
000003a0: d5c0 32be 0abf 3f3e ec92 303e 6834 ac3e
000003b0: c604 033b c90e 32be 86af 653e d120 30be
000003c0: 5345 4bbe 6a91 0abe 42cc f0bd 55eb 5e3e
000003d0: e225 f63b 9368 9c3e c55b e03d 4018 6bbe
000003e0: abad 833d 5499 d8bd a304 97bd ae2d 1e3e
000003f0: a64e 2a3d a911 f83d 9fd1 2e3e 6f5d 0c3d
0.029196268 -0.005767117 -0.16633327 -0.011088422 0.022615023 -0.2747899 -0.034097087 -0.024566296
0.05749746 -0.043359667 -0.29204398 0.03803443 0.05501357 0.02161512 -0.04626332 0.0047356645
0.050979584 0.15718745 0.005212194 0.021031428 0.071673006 -0.022701534 -0.304021 0.4123367
-0.27671126 0.012368637 -0.043146666 0.09405175 0.21328756 -0.032205377 0.1696955 -0.061661676
0.015921254 0.049090378 0.13464217 0.13015549 -0.17484087 0.15264401 0.021933867 -0.2514075
0.20007956 0.51247406 0.086853065 -0.011899613 0.055081654 -0.30588934 0.11071942 -0.044953912
0.09126879 0.102692485 -0.11941011 -0.13249713 0.03090338 -0.025812456 -0.027941344 -0.41527104
-0.03572982 -0.001602841 0.07737129 -0.19574364 -0.2729433 0.056906376 0.18200009 0.028967662
0.06465689 0.05028223 -0.15881841 0.0465595 0.32451078 -0.04749924 -0.1341803 0.041829053
0.14509045 0.16454189 -0.009317025 0.04798844 0.07894633 -0.13409504 0.05496855 -0.48153937
-0.021593455 -0.29387134 0.0771177 -0.029495588 0.05346506 0.16707775 0.19817486 0.008117937
0.043199915 -0.08041314 -0.03320243 0.23633584 -0.060082562 0.12507047 -0.015621106 0.17942372
0.0926967 -0.027902922 0.13290928 0.048159316 -0.0065394784 -0.08798609 -0.029784365 0.026454844
-0.19726191 0.21983355 0.09831532 0.097627714 0.03461843 0.1362825 0.13060611 -0.03309627
-0.13200054 -0.23776492 -0.34502286 -0.3226608 -0.057353705 -0.014455735 -0.12927917 0.1316383
0.14658433 -0.30094805 -0.17358421 0.0072015105 -0.14341792 -0.21748136 -0.051838215 0.0051593897
0.016005963 0.039967913 0.26114598 -0.011459057 0.0013298561 0.28851378 0.26193163 0.04142101
0.10978066 0.03584339 -0.1523423 -0.24721445 0.16323254 -0.12054927 0.25570312 0.013239107
0.024340183 -0.1154534 0.13986714 0.13350698 -0.045851715 -0.032633338 -0.0192797 0.108772054
-0.12283084 0.032516703 -0.20277794 0.015886422 0.116351396 0.32138005 -0.08201702 -0.178199
0.18722536 0.0738826 0.030546494 -0.27014953 -0.33399805 0.042696036 0.1465615 0.024466738
0.13510257 -0.13000923 -0.025111185 -0.10126858 0.03018485 -0.15045016 -0.06422231 0.020429194
-0.03504394 0.23908174 -0.32580772 0.18116648 -0.038254496 -0.02256344 0.19584034 -0.02156313
0.048522856 0.2456652 0.0272125 0.00251819 -0.31123117 0.024387876 -0.025104469 -0.13949256
-0.30456176 -0.11744908 -0.020508254 -0.050254147 0.012922581 0.009215799 -0.11070281 0.027760947
-0.08546057 0.07043496 0.6664777 0.10398343 0.111776 -0.068526305 -0.019737883 -0.03000072
0.30931288 0.09476044 -0.081293404 -0.21267025 0.3154684 0.13525598 -0.15659887 0.1456483
0.22003566 -0.18890892 0.06867082 -0.12013561 -0.08536712 -0.04619718 -0.19376346 0.33078572
0.05480445 -0.10747705 -0.22804675 0.035383623 -0.09155595 0.33746257 -0.038601734 -0.019438846
-0.17456372 0.1872522 0.17243546 0.33633733 0.001999186 -0.17388453 0.22430238 -0.17200018
-0.19850664 -0.13532034 -0.11757709 0.2176946 0.00751184 0.30548534 0.10955004 -0.2295847
0.06429609 -0.1057612 -0.07373931 0.15447113 0.04157891 0.121127434 0.17072152 0.034268793

advantage_stream.bias f4 [20]
00000000: 1216 c3be 6887 453e 01e2 5a3e 5d63 553e
00000010: 4833 883e d05d 623e 6262 3c3e ef46 6bbc
00000020: 44a4 68bd 8e75 0fbc 4595 0d3e 8db7 18be
00000030: a72c 45bd 8ae0 50be 18f6 623e a035 e3bc
00000040: 8184 bf3d 8715 503e d930 c23d fe2a b0bd
-0.38102776 0.19289935 0.21375276 0.20838685 0.26601624 0.22106099 0.18396905 -0.014360174
-0.05679728 -0.008756055 0.13826473 -0.14913769 -0.048138287 -0.20398155 0.2216419 -0.027735531
0.09351445 0.20320712 0.09481973 -0.0860195
