src/hockey-env/random_training_1/weights/episode_93.pth (torch, 307492 bytes, 7 tensors)

layers.0.weight f4 [256, 18]
000000 37 ab c4 3e 13 bb 7b 3e 12 0b 91 bd f7 22 cc 3b
       0.38411877 0.24583082 -0.070821896 0.006229754
000010 ec 63 0f 3e 8c 3b 7a bb 3d fc ff 3e a8 63 d4 3e
       0.14002961 -0.0038182465 0.4999713 0.41482282
000020 74 66 94 3f 79 57 dc 3d af 3b 46 be 98 52 8f bb
       1.1593766 0.107588716 -0.19358705 -0.0043738596
000030 3b 1b 12 3f 79 5e c6 be 5a 50 4f 3f 69 8b 91 be
       0.570728 -0.38743952 0.8098198 -0.28426674
000040 26 b6 fe bf 88 28 67 3f c5 a9 49 be 69 c3 73 bf
       -1.9899337 0.9029622 -0.19693668 -0.9522005
000050 45 01 89 3e ab be 9c 38 7f d1 f0 bb cd 7b dc bb
       0.2675878 7.474174e-05 -0.0073491926 -0.0067286254
000060 74 f4 82 3f 57 0e 35 bf 80 56 08 be ca bb 33 3d
       1.0230851 -0.70725006 -0.13314247 0.04388026
000070 a2 33 ef bd 16 ae 8c 3c 21 e7 0e c0 c1 c2 2c bf
       -0.1167977 0.017172854 -2.232857 -0.6748467
000080 8d 17 5e be 66 fc ca bd 87 00 21 3f 49 29 28 3f
       -0.21688671 -0.099114224 0.6289143 0.65687996
000090 05 bd b1 be 13 6c 16 3f 79 fa 80 be fb da d3 bd
       -0.34714523 0.5875866 -0.25191095 -0.103445016
0000a0 50 d3 de 3d 3f 0b 35 bd b2 76 bb 3f 31 2e 97 be
       0.108801484 -0.04420018 1.4645598 -0.2952743
0000b0 12 ee 47 3f e6 31 ae 3e 1e d1 00 be ef ca 02 3e
       0.7809764 0.34022444 -0.12579772 0.12772726
0000c0 04 d1 d6 3c 74 56 0f bf 8a 3e 0d 3f f9 57 0a bd
       0.026222713 -0.5599129 0.5517355 -0.033775304
0000d0 f9 23 9d bd a2 45 1c 3f a6 6b a7 3e df b8 8d 3e
       -0.07672877 0.6104375 0.32699317 0.27680108
0000e0 02 b7 21 bf b7 de db 3d 4f ad 51 3c e4 7d 25 be
       -0.6316987 0.10735839 0.012797668 -0.16161305
0000f0 cc 22 9a be b7 17 bc bb 03 06 24 bd 66 92 16 3c
       -0.30104673 -0.0057401317 -0.040044796 0.009190178
000100 6e b1 f0 bc f5 7d bf 3c 43 d8 37 bd 0b 7c 0b bd
       -0.02938148 0.02337549 -0.044883978 -0.034053843
000110 33 7e 73 bc b4 26 a9 bc 0d f1 41 bb 2d b4 27 3e
       -0.014861631 -0.020648338 -0.002959314 0.16377325
000120 76 4f c6 be f8 23 ac be b0 9b 8f 3d a5 ec 22 be
       -0.387325 -0.33621192 0.07012117 -0.15910585
000130 1a 48 8f bb 5b 40 13 bc 71 5c d9 3c e1 ab f3 be
       -0.004372609 -0.0089875115 0.026533337 -0.4759207
000140 90 2f c9 3e 4b 86 d9 3d 46 27 5f 3d 0a b5 c3 3c
       0.392941 0.106213175 0.054480813 0.023890037
000150 d8 ac 88 3f 4a 65 96 be d0 53 89 3f d6 60 e5 be
       1.0677748 -0.29374152 1.0728703 -0.44800442
000160 e2 ff 43 3f 22 bb 9d 3f 38 3c ee 3e 85 37 84 3e
       0.7656232 1.2322733 0.46530318 0.25823608
000170 28 65 da 3e db f0 e4 3c 85 6a 8d bb cc 3b 5f bc
       0.426553 0.02794688 -0.0043156766 -0.0136250965
000180 f1 f4 77 3f b4 e9 27 bf 48 ba 97 3e 53 8d 40 bd
       0.96858126 -0.6559098 0.2963431 -0.047009777
000190 5e 8f f3 bd 5e 45 de bd 00 39 77 bf 62 6d b2 be
       -0.118925795 -0.108530745 -0.9657135 -0.34849077
0001a0 1d 4c eb be 45 9e 91 be 64 f0 d1 3d 65 39 ac bf
       -0.45956507 -0.28441063 0.10250929 -1.3455015
0001b0 fe 6a c0 be ab 4e c7 be ca e2 2a 3e fe d3 a3 ba
       -0.3758163 -0.38927206 0.16688076 -0.0012499092
0001c0 90 b8 9c 3b 60 49 39 bd 2f 4b 2d 3e 03 2c ec 3e
       0.0047827438 -0.04523599 0.16923212 0.46127328
0001d0 b5 d1 e6 be 76 e5 ea bc 1d 0d 90 bd 93 46 5b 3c
       -0.4508187 -0.028673869 -0.07033751 0.013383525
0001e0 59 39 9f be 3e b8 c3 3f 8b 37 b6 be 23 fa 27 3f
       -0.3109844 1.5290601 -0.3558925 0.65616053
0001f0 01 ad 51 bf 39 9e ec 3d 4c 6a e4 bd 82 cc 08 c0
       -0.8190461 0.11553616 -0.11153087 -2.1374822
000200 cc 80 54 3d 5d f6 9b bc 7c 83 0f be 5d a2 d4 bb
       0.051880643 -0.019038374 -0.14015001 -0.006489082
000210 9e 48 07 3e 23 29 c3 3f 5a 42 80 bf a7 d0 e7 3c
       0.13211295 1.5246929 -1.0020249 0.028297735
000220 9a 87 22 3e 13 3a b5 3b 71 f6 c2 3e 51 17 b7 3e
       0.1587204 0.0055306046 0.38078645 0.35759977
000230 7c 83 ee 3c 36 20 5e 3d 12 3b ef bf 7c b1 1c 3e
       0.029115431 0.054229937 -1.8689902 0.1530208
000240 20 45 c5 3e 52 78 41 bd 88 56 6e bc 11 23 a4 3d
       0.385293 -0.047233887 -0.014546998 0.08014501
000250 b4 6b 8b 3c 58 f0 a4 ba d5 ee 7d bd e9 98 f4 3e
       0.01701913 -0.0012583835 -0.061995346 0.4777291
000260 60 d6 30 3f 96 fd da 3c 1b 81 e4 bc 71 e6 00 bd
       0.6907711 0.026732247 -0.027893594 -0.031469766
000270 4d c0 91 bf 71 5a e3 3d eb b1 81 bf f4 6a f9 3e
       -1.138681 0.11101235 -1.0132421 0.4871441
000280 35 bf 22 c0 c1 6b 96 bf 32 87 f1 3d 38 de 0a bf
       -2.5429204 -1.1751634 0.117933646 -0.5424533
000290 ed ef e1 3e 8e 65 88 3d 7b eb ba bd 08 30 96 bc
       0.4412836 0.06659995 -0.091269456 -0.01833345
0002a0 e3 fe 21 bf 81 82 89 3f 5c b9 af bd c3 1d 06 be
       -0.6327955 1.0742952 -0.08580276 -0.1309729
0002b0 71 64 08 3f 8c 9a 60 bd 7d 9a ab bd 4c d8 c9 bc
       0.5327826 -0.054834887 -0.08379076 -0.024639271
0002c0 49 6e d4 be 00 4b 29 be 39 12 5a c0 e0 61 24 bf
       -0.4149039 -0.16532516 -3.4073622 -0.64211845
0002d0 b3 00 37 be 5c 37 10 be 39 bb 47 3c b5 8c 38 bd
       -0.1787136 -0.14083618 0.012190633 -0.045056064
0002e0 1a cc b5 3d f1 2d bd 3c 30 2f 25 3f 3b 4f 68 3e
       0.0887682 0.023093196 0.6452513 0.22686474
0002f0 95 bb e3 bd 49 c7 4d 3e d2 07 09 bf 81 e8 87 3d
       -0.11119763 0.20095553 -0.5352756 0.066361435
000300 86 dd 71 bf 60 3b 36 bb ac 6d 32 3f 4c 37 1e bf
       -0.9447864 -0.0027806386 0.69698596 -0.61803126
000310 ca 5c c4 3e d5 3c 7c 3f f6 31 5c 3e 95 07 90 be
       0.38352042 0.9853032 0.21503434 -0.28130785
000320 8f 93 4d 3e 4d 0e 56 bd e8 af e3 3d ab b7 d8 3b
       0.2007582 -0.052259732 0.11117536 0.006613692
000330 b6 9b d5 be 32 36 86 3f 4f 9b 91 bf 80 f1 86 3d
       -0.4172036 1.0485289 -1.1375521 0.06589031
000340 22 11 62 3f 7b 65 be 3d f3 1c 66 bd d1 b5 24 3d
       0.8830739 0.092966996 -0.056179952 0.040212456
000350 ba 92 61 bf 1b c5 d4 be 6a 33 9d 3f 2f ba dc bf
       -0.8811451 -0.4155663 1.2281315 -1.7244319
000360 4c 72 63 bd da c5 f4 bf 12 70 d8 3d ad 0b 04 3e
       -0.055528924 -1.912288 0.10568251 0.12895079
000370 72 19 61 bd f7 35 19 bc c7 0b f3 be c6 7b 0d 40
       -0.054955907 -0.009351245 -0.47469923 2.2106795
000380 d6 e0 1d 40 46 36 60 3c ba 09 06 3f f8 a9 2a bd
       2.466848 0.013684815 0.5235859 -0.041666
000390 ea 51 b7 3e 58 53 90 3f 33 20 1f be 96 9c 23 3f
       0.35804683 1.1275434 -0.15539627 0.63910806
0003a0 df e1 f9 be 71 0a bd 3d be 89 a5 be f3 4a 56 bf
       -0.48805138 0.09230507 -0.3233165 -0.83708113
0003b0 84 11 25 3d 76 56 14 be 48 f6 59 be 17 83 21 bd
       0.040299907 -0.14486107 -0.21285355 -0.039431658
0003c0 0e 1e e8 3d 6b ff 76 3f c8 bb a0 3f 15 f9 40 3b
       0.113338575 0.96483487 1.2557306 0.002944534
0003d0 2d 64 4b 3e fb 4f c1 3d 20 2e bd 3e 72 ab 1d be
       0.19862433 0.09439083 0.36949253 -0.15397432
0003e0 09 0e bf 3e b5 e2 ac be 30 dd ca 3e 5f 8f ab 3f
       0.37315395 -0.33766714 0.39621878 1.3403128
0003f0 bd 29 68 3f 9e b5 2d 3e 90 ed 95 be 67 f5 0e 3d
       0.9068869 0.16963813 -0.29282808 0.034902003

layers.0.bias f4 [256]
000000 c3 ee d5 bf 73 22 86 3f 68 5c 30 40 31 96 4a 3f
       -1.6713489 1.0479263 2.75564 0.79135424
000010 07 06 90 3f 02 0e cb bf 20 e7 92 3f cf cb a0 bf
       1.1251839 -1.586365 1.1476784 -1.2562197
000020 52 7f 88 bf b6 78 0c c0 83 13 4b 40 d2 67 9a be
       -1.0663855 -2.1948676 3.173066 -0.30157334
000030 d4 17 da 3f 86 af 55 3f 67 d5 ba be 53 35 84 3f
       1.7038522 0.8347095 -0.36490938 1.0328773
000040 86 1d d6 3e 2d 7a 21 40 ff 22 dd bf 50 87 0a c0
       0.418194 2.523082 -1.7276305 -2.1645088
000050 47 b2 cb 3f 15 7c 39 be e8 90 0c bf 31 38 4a 40
       1.5913781 -0.1811374 -0.5490861 3.1596797
000060 59 b1 0d c0 a9 23 ef 3f e6 39 b0 3e fb 1b 12 bf
       -2.2139494 1.8682758 0.34419173 -0.57073945
000070 1a 6b e1 3f a6 5a db 3d e7 7a bb 3f 4c 6b 27 40
       1.761081 0.10710649 1.4646882 2.615924
000080 f3 ef ab bf 6c cd 52 3e 89 90 3a bf b8 93 2b 40
       -1.3432602 0.20586175 -0.72876793 2.680891
000090 2d 9f 16 c0 1b 71 16 3f e6 17 ed bf bb 9d f5 3e
       -2.3534653 0.58766335 -1.8522918 0.479719
0000a0 ac db 41 bf cc 1c 79 3f 81 16 72 bf 7f e1 da be
       -0.7572582 0.97309566 -0.9456559 -0.42750165
0000b0 f7 24 a5 bf 7a 91 ed bf 38 28 f1 bf 7f 78 29 3f
       -1.2901906 -1.8560021 -1.8840399 0.6619949
0000c0 ba a1 ce 3f 59 ab f8 3e b5 8c 56 be ed 28 a6 bf
       1.6143105 0.48568228 -0.20952113 -1.298124
0000d0 77 a1 81 3f 0d 2e 3c be 5c 2a fc 3f 46 97 c2 bf
       1.01274 -0.18376942 1.9700427 -1.5202415
0000e0 95 e5 90 3f 22 8b 12 40 9a c1 1f 40 58 55 e1 3f
       1.1320063 2.289742 2.4961915 1.760417
0000f0 9b 4c b0 3f 8b 9d 22 c0 e2 bf 9c 3f 5d 4c 40 40
       1.3773378 -2.5408657 1.2246058 3.0046608
000100 50 11 37 c0 a0 be 8f bd c2 ec e7 be 56 95 36 40
       -2.8604317 -0.07018781 -0.4529782 2.8528647
000110 86 81 33 40 26 bd d4 be 38 35 0a 3f 7b 23 53 bf
       2.8047805 -0.4155056 0.53987455 -0.82476014
000120 b9 3a 30 bd ec 23 31 bd cf 6e 0c 40 cc 3e d4 3f
       -0.043024752 -0.04324715 2.1942632 1.6581664
000130 cd e0 de bf 6c ce 10 40 ae f8 c1 bf 8f 40 43 40
       -1.7412354 2.262599 -1.5154016 3.0508153
000140 94 20 d2 bf 50 2a bf bf 34 f5 47 40 e7 3c ec be
       -1.6416192 -1.4934788 3.124341 -0.46140215
000150 14 e4 7d 40 b9 26 6f 40 d5 28 40 be 2e 80 a1 3f
       3.9670458 3.7367384 -0.18765576 1.2617242
000160 e5 94 fe 3f 68 66 dd 3e ef 8b de bd a4 d3 60 3f
       1.9889189 0.43242192 -0.10866534 0.8782294
000170 af 4c fb 3e 1a c0 a9 3f 9d a8 86 3f fa 6d 09 40
       0.49081942 1.326175 1.0520207 2.1473374
000180 9f eb f3 3f 1b f7 5a bf eb e3 ce bf e4 7c ac 3f
       1.9056281 -0.85533303 -1.6163305 1.3475614
000190 59 3d a3 3f 1f 66 f9 3f fe b2 5f 3c a1 a6 5d 3f
       1.2753097 1.948429 0.013653515 0.8658238
0001a0 ee 41 03 bf 04 76 c9 3e f7 97 f1 be 42 30 0f bf
       -0.51272476 0.3934785 -0.47186252 -0.5593301
0001b0 c2 d4 48 40 f7 14 22 bf 1f 87 b9 bf a1 2b d5 bf
       3.1379857 -0.6331324 -1.4494361 -1.665394
0001c0 51 c2 37 3f 3e f7 bb 3f 4b e9 af bf f9 b1 96 3f
       0.7178088 1.4684827 -1.374307 1.1773063
0001d0 d6 27 38 3e 3b a4 07 c0 fa d7 f6 3f 81 a7 5b 3e
       0.17983946 -2.1193988 1.9284661 0.21450616
0001e0 9c 10 a8 3d 29 b0 84 3f 0e b3 02 bf cf 72 e9 3e
       0.08206293 1.036626 -0.51054466 0.45595405
0001f0 3d a7 7d bf d9 fb 0f 3f cd f6 a4 3f ad 7d fa 3e
       -0.9908331 0.56243664 1.2887818 0.48924008
000200 f0 7a 25 be a9 8e 48 c0 4b 65 6b bf 43 43 3d 3f
       -0.16160178 -3.1337073 -0.91951436 0.7393076
000210 16 8d 6b 40 b4 5e 59 c0 15 a4 9f 3f 38 66 e8 3f
       3.6804862 -3.3964052 1.2471949 1.8156195
000220 00 a7 08 c0 b2 33 b3 3f 9e a7 d0 be 58 fe 79 bf
       -2.1351929 1.4000151 -0.40752882 -0.9765372
000230 73 1f b4 bd cb 3f 03 40 78 b3 26 40 ba ae bc bf
       -0.08795061 2.0507686 2.604704 -1.4740822
000240 fb 37 b4 3e 7e 79 b4 3f a3 27 51 bf d7 e5 71 3e
       0.3519896 1.4099576 -0.81701106 0.23622833
000250 0e 20 8b 3f 95 e0 17 40 fe 8e 1b 40 ba fb e6 3f
       1.0869157 2.3730824 2.4306026 1.8045571
000260 b4 b9 25 c0 6c 9e 0e bf c6 bb 57 3e 40 da dd bf
       -2.5894594 -0.5571048 0.21067724 -1.733223
000270 6d c1 f6 bd 84 2b 33 3f 77 40 37 40 f1 16 07 c0
       -0.12048612 0.69988275 2.8633096 -2.1107752
000280 27 c9 b4 3f 5d 8f 56 40 d8 ae 4d be 60 27 25 bf
       1.4123887 3.3525002 -0.20086229 -0.64513206
000290 f8 93 d9 be f0 c5 da bf b7 60 1f 40 cf 3f e6 3f
       -0.42495704 -1.7091656 2.490278 1.7988223
0002a0 71 5c 9d bd ca a1 e5 3f 64 f6 d5 3f 4e 5c 69 3f
       -0.076836474 1.7939999 1.6715817 0.9115647
0002b0 86 4c d2 bf 80 87 4b 3f 92 37 8e 3f a3 d4 89 bf
       -1.6429603 0.7950363 1.1110709 -1.0768017
0002c0 8c 62 50 3f 3c 1e c0 bd 86 cc 90 3e dc d0 49 40
       0.8140037 -0.09380767 0.2828104 3.1533728
0002d0 36 dd 1e 40 b8 ad 11 c0 89 8c cc 3f 5f 80 f6 3f
       2.4822516 -2.276228 1.5980388 1.9257926
0002e0 58 7d 18 bf d5 4d 88 be af 4f cb bf 0e 21 8a 3f
       -0.5956626 -0.2662188 -1.5883693 1.0791337
0002f0 2d 24 b8 3f 89 d1 38 be 62 69 19 c0 e8 c9 2e bf
       1.438604 -0.18048681 -2.397057 -0.68276834
000300 a9 5e c0 3f 36 07 da 3f 39 a3 ed 3d d9 1a 2a 3f
       1.5028888 1.7033451 0.11603398 0.66447216
000310 1d 46 1b c0 3c 70 af 3f 64 7a 3a bf ed ab 04 40
       -2.4261544 1.3706126 -0.72843003 2.0729935
000320 d8 53 f2 3f 81 26 06 40 1d 87 8d bf ff dc be 3e
       1.8931837 2.0961 -1.1056858 0.37277982
000330 7e 75 07 3f 98 28 ab be e5 57 c6 bf fa 4c 19 c0
       0.52913654 -0.33429408 -1.5495573 -2.3953233
000340 22 8d 0f 3f 3a 22 2e be 3a 81 dd 3f 0d 29 09 bf
       0.56074727 -0.17005244 1.7305062 -0.53578264
000350 62 4d e0 3d 98 1a c1 bf b7 8d 94 bf 00 86 89 be
       0.109522596 -1.5086241 -1.1605748 -0.26860046
000360 54 30 ab 3d 56 08 99 3f b8 23 e5 bf c7 2c 5c bf
       0.08358827 1.1955669 -1.7901525 -0.86005825
000370 5c cc f8 bf c3 e6 c6 bf a5 30 61 3f 17 de c2 bd
       -1.9437366 -1.5539173 0.8796485 -0.095150165
000380 46 11 76 3e d3 5c c1 3f 80 89 63 3f d2 de c3 3f
       0.24030027 1.5106453 0.88881683 1.5302374
000390 a2 f3 1a c0 12 70 06 40 aa 53 73 3f 76 d8 c3 3f
       -2.4211202 2.1005902 0.95049536 1.5300434
0003a0 2d 71 97 be aa 15 12 40 d2 4a a3 3e e9 d0 3c 3f
       -0.29578534 2.2825723 0.3189302 0.7375627
0003b0 fe f2 cc bf 1b 47 db bf e0 51 c1 bf 6a 36 7c 3f
       -1.6011655 -1.7131075 -1.5103111 0.9852053
0003c0 6e 53 f6 bf d4 f1 28 bf 15 0b 87 3f eb cd 1a bf
       -1.9244211 -0.65994 1.0550257 -0.60470456
0003d0 0b 7d db 3f bd 42 f1 bf cc 0f fc be 0a 81 bf 3f
       1.7147535 -1.8848492 -0.49230802 1.4961255
0003e0 a5 7c 88 bf 6c 67 82 bf 7c 55 33 c0 40 07 30 3f
       -1.0663038 -1.0187812 -2.8020926 0.6876106
0003f0 e0 32 f8 3d f3 0b f4 3e bb 9a 08 40 ff 87 d5 bf
       0.12119079 0.47665367 2.134444 -1.6682128

layers.1.weight f4 [256, 256]
000000 42 d8 9e 3f 0e 67 1f bd ec b1 00 be 7d e3 47 3e
       1.2409747 -0.03891664 -0.12567872 0.19520374
000010 ca aa 90 be 14 f8 c6 be a8 42 d6 3b fc 24 87 3e
       -0.28255302 -0.38861144 0.0065387078 0.26395404
000020 3a e8 76 3f e3 74 11 be f9 c9 5a be 3d e2 31 be
       0.964481 -0.14204745 -0.21366109 -0.1737146
000030 b1 91 12 3f c3 8c 33 bf b7 a7 55 3f 3d 01 fe bb
       0.5725356 -0.7013666 0.8345904 -0.0077516125
000040 c5 a5 93 3f b4 60 28 3f 56 84 70 3e f7 f0 90 3f
       1.1534964 0.6577256 0.23487982 1.1323537
000050 40 00 a1 3e c5 b5 c3 bd ce 10 7d 3f f0 e0 9d bf
       0.31445503 -0.09556154 0.98853767 -1.233427
000060 bf cb 13 be 56 15 f6 be 5d e8 a8 3e 8e ac 9d 3c
       -0.14433192 -0.48063153 0.3298978 0.01924732
000070 34 6a 85 3e 5f 08 6a be 5a 99 be 3e a3 d6 ad bd
       0.2605759 -0.22854756 0.37226373 -0.08488204
000080 d2 ec 15 3e 02 63 0e bd ab c9 de 3d ab 57 06 bf
       0.14641121 -0.03476239 0.10878309 -0.5247752
000090 84 f6 84 be 48 a7 95 3f f6 1c 27 3f ee d2 99 be
       -0.25969326 1.1691675 0.65278566 -0.3004374
0000a0 50 d3 c6 be 0b 72 29 bf e4 e7 8c be 41 2f f9 be
       -0.38833094 -0.6618964 -0.27520669 -0.48668864
0000b0 08 72 70 3f 6a ad 02 be 8e 01 82 bd a1 75 b5 3d
       0.93924 -0.12761465 -0.06347953 0.088603266
0000c0 dd 75 41 3f cc 7a 77 bc 64 d5 d6 be 83 ba b6 be
       0.7557047 -0.015104961 -0.4195968 -0.35689172
0000d0 15 c1 95 3e 6c 5e d1 3e bc 93 57 bf ef 83 dc be
       0.29248872 0.4089235 -0.842098 -0.43069407
0000e0 28 fa a0 bd 13 64 9b 3e 7a bc 9c bf 54 7d 8f bf
       -0.078602135 0.30349788 -1.2245018 -1.1210122
0000f0 d3 22 02 3e 20 96 16 be d2 e7 0b bf de 27 12 3f
       0.12708597 -0.14705706 -0.54650605 0.5709208
000100 1d 8f 56 3f f0 ba b6 bd 85 15 41 3d 35 e1 b0 3f
       0.83812124 -0.08922374 0.047139663 1.3818728
000110 b7 40 83 3e 5a 02 01 3f ae 50 04 3f 27 8d 3e 3e
       0.2563531 0.50394213 0.5168561 0.18608533
000120 22 ea a4 bf ff 3d 95 3e a1 28 b3 3e 38 b3 1f bf
       -1.2883952 0.29148862 0.34991935 -0.6238284
000130 83 67 34 3f 67 fd 89 3e 2f e5 11 3f 6d 56 89 3f
       0.70470446 0.26951143 0.5699033 1.07295
000140 19 5a 0d 3e 81 0e 88 3f c3 cb de 3e 83 e4 21 3e
       0.13803901 1.0629426 0.43514833 0.15809827
000150 88 6c 9c bf 3d aa 02 be 6f ba 6d bd 2d 7d 9a 3e
       -1.2220621 -0.12760253 -0.058039125 0.30173627
000160 26 0a b5 bf d4 e9 35 bd 09 15 79 be 13 cd 7f 3d
       -1.4143722 -0.04441245 -0.2432443 0.062451433
000170 6e 82 8d bf 14 d6 b3 be 4a cb 97 3e f6 b7 1d 3f
       -1.1055429 -0.35124266 0.29647285 0.6160883
000180 20 c6 9e 3e 25 e9 3d be 1e 94 f4 3e 9f 4d f8 3e
       0.31010532 -0.18545969 0.47769254 0.4849672
000190 b2 6d d7 be c6 86 a2 bd c9 5a f6 be 8d 5d 80 3e
       -0.42075878 -0.07935862 -0.4811614 0.25071374
0001a0 4f 72 d0 bd 2e d6 4a bf 30 76 38 3e 49 00 39 3d
       -0.10178053 -0.7923306 0.18013835 0.045166288
0001b0 0b a4 8e be 4a 0f dc 3e 93 8b 6b 3f 5f 5c 96 3d
       -0.2785953 0.42980415 0.9200985 0.07341837
0001c0 4f a9 81 3e 84 18 0b bf 43 57 ae be 0b 1e 15 be
       0.25324485 -0.5433428 -0.3405095 -0.14562242
0001d0 cc 05 e4 3f d4 92 12 3e e9 35 e3 3e a8 5a 99 3d
       1.7814269 0.14313823 0.44377068 0.074879944
0001e0 f8 bd 12 bf 6a 97 19 bf 41 4f 85 be a0 f7 8d 3e
       -0.5732112 -0.59996665 -0.26037028 0.27727985
0001f0 46 c2 b1 3f d2 64 2a 3f d1 b0 65 bc 54 6f cf bd
       1.3887413 0.6656009 -0.014019207 -0.10128656
000200 ae 1e 9c be e0 ad d0 3e cf 63 88 3e e7 ee c7 3e
       -0.30492157 0.40757656 0.26638648 0.39049456
000210 b3 23 76 3e bc e9 7d 3e 78 bd 19 3f 44 1b 17 3e
       0.24037056 0.24796194 0.6005473 0.14756495
000220 34 65 8e 3f 13 a0 50 3f 54 94 50 bf 80 9e 5b 3f
       1.1124635 0.81494254 -0.8147633 0.85788727
000230 5b fc cb 3e b7 d7 ee 3e 40 d5 25 be 18 4e d0 be
       0.3984097 0.46648952 -0.1619463 -0.4068458
000240 e4 39 65 bd 52 a5 41 be 0f 42 16 bf b6 bb 8a be
       -0.055963412 -0.18910721 -0.5869455 -0.27096337
000250 f8 d5 3d be 43 7f 34 bf 6b 6a 6e bf de 54 9f 3f
       -0.18538654 -0.70506686 -0.9313113 1.2447774
000260 46 59 e0 bd 6d 33 c3 3f 65 37 d3 be 8d 99 ee be
       -0.109545276 1.5250069 -0.412532 -0.46601525
000270 46 d6 0c bf 1c b7 18 3e f6 07 37 bf 57 ee 50 3f
       -0.55014455 0.149136 -0.7149652 0.8161368
000280 99 c9 74 be 88 c4 25 3f b5 83 da 3e c6 a1 17 3f
       -0.23905028 0.6475301 0.4267861 0.5923122
000290 95 60 f8 be 12 6c 55 3f 11 ad c2 3d 42 22 86 bf
       -0.48511186 0.8336803 0.09505666 -1.0479205
0002a0 b9 fd d1 be 40 8b 20 3f d8 a9 a3 be 2b 4b 4c 3f
       -0.41013888 0.6271248 -0.31965518 0.798022
0002b0 cc a2 fd 3e 3e 30 14 be d9 18 d5 3e 07 ea 88 bf
       0.49538267 -0.14471528 0.4162052 -1.069642
0002c0 37 4f b1 3e 00 9c 80 3f 86 0c 51 bf 24 ff 30 be
       0.3463075 1.0047607 -0.81659734 -0.17284828
0002d0 99 f5 56 be 85 c7 76 3e 20 fb 63 be 49 e6 49 bf
       -0.20992126 0.24099548 -0.22263765 -0.7886701
0002e0 47 19 0d be 07 60 02 3f 8a 20 31 3e 42 43 d3 bd
       -0.13779174 0.50927776 0.17297569 -0.10315563
0002f0 a4 25 02 bf ad a2 9f 3d 6d 62 95 3e 01 2b ea 3e
       -0.50838685 0.077947 0.29176655 0.45735934
000300 bb 6d b8 be 20 7f 66 3e e9 ab 4b bf 8c e6 2f be
       -0.36021218 0.22509432 -0.7955919 -0.1717779
000310 6e ce 1c 3e 37 71 70 be 5c f5 02 3f e5 0f 30 c0
       0.15313122 -0.23480688 0.5115564 -2.7509701
000320 0b 9c 1a be 23 e9 39 be 10 63 e4 be 20 e3 12 bf
       -0.15098588 -0.18155341 -0.4460683 -0.57377815
000330 3b f5 2a 3f db a1 af be f8 24 8f bf 9e 1f 21 3e
       0.6678044 -0.34303173 -1.1183157 0.15734717
000340 53 9a 8c 3f 59 33 42 be eb 2a 3d 3e 1f 45 1d 3e
       1.0984596 -0.189649 0.18473403 0.15358399
000350 0e 6d ea be c7 0e a3 bd 80 1a 28 3f 60 2b 48 3d
       -0.45786327 -0.07961803 0.65665436 0.04886949
000360 20 d9 ec 3d 53 38 9b 3f dd 98 9a 3e 20 0f f7 3d
       0.11564851 1.2126564 0.3019475 0.12063432
000370 fe 5f f6 be 77 d2 a0 3d 38 f6 89 be 48 7c f5 bd
       -0.4812011 0.07852643 -0.26945662 -0.119865954
000380 10 1b 5c 3e e0 96 82 3e 44 f5 bb bc 04 75 15 be
       0.21494699 0.25505733 -0.0229441 -0.14595419
000390 97 ec 03 bf 08 41 41 3f 26 62 ce 3e 17 96 61 3d
       -0.5153288 0.75489855 0.40309256 0.055074777
0003a0 02 53 99 3e 09 7a 67 3e e2 67 1e be 0d 39 a6 3d
       0.29946142 0.22605146 -0.15469316 0.0811635
0003b0 01 79 fe 3e 81 ac cd 3e cc ff 32 3f c9 e1 03 3f
       0.49701694 0.40170673 0.69921565 0.51516396
0003c0 d8 6f cf 3e 6e c5 04 bf 4c 70 8e be 64 7a 88 bf
       0.40515018 -0.51863754 -0.2782005 -1.0662351
0003d0 cc dc 6b 3f e1 e4 9f 3e 69 a3 4c 3f 60 c3 d7 3e
       0.92133784 0.31229308 0.79936844 0.42141247
0003e0 1d 29 59 3e 06 7c 11 3f 97 d4 10 be 00 11 3d 3e
       0.2120709 0.5682987 -0.14143597 0.18463516
0003f0 bd 63 c5 3b 6d 53 fb be 71 cc be 3e 3a 1f 9f bf
       0.0060238526 -0.49087086 0.3726535 -1.2431405

layers.1.bias f4 [256]
000000 c1 70 f3 3e e9 bf 33 3d ec 87 20 3f a5 17 ba 3e
       0.47546962 0.04388419 0.627074 0.36346164
000010 a6 8c b4 3e 20 ab 84 bd a7 fa 06 3f 5c a3 99 bd
       0.35263556 -0.06477952 0.52726215 -0.075018615
000020 a5 e1 fa be bd 59 b0 3e 71 de 00 bf 0e 8c d6 bd
       -0.49000278 0.34443465 -0.5033942 -0.10475932
000030 ab 5b b6 bd 43 b6 53 3f 6d a7 94 be 07 77 b0 3e
       -0.08904203 0.82699984 -0.29033986 0.3446581
000040 a2 e5 58 bf a3 c5 05 be 78 19 45 3f b8 60 e7 be
       -0.8472539 -0.13063674 0.7699199 -0.45190978
000050 fd f9 f4 3e 6f db 6b bd 2e b6 37 bf 59 65 8d 3d
       0.47846976 -0.057582315 -0.7176236 0.06904096
000060 28 e9 50 bf fb db 0f bf 1f b8 1c bf 0b 75 1b 3e
       -0.8160577 -0.5619504 -0.61218446 0.15181367
000070 5e b2 71 3f d2 f9 5e 3f c7 d8 88 3f 95 e7 ad 3d
       0.9441279 0.87099946 1.0691155 0.084914364
000080 46 40 df 3e a3 23 e9 be 1f 20 4d bf 1a ab d8 3e
       0.43603724 -0.45535 -0.8012714 0.4231804
000090 cc 38 44 3f 91 49 21 3f 24 ff 08 bf de e9 85 be
       0.76649165 0.6300288 -0.53514314 -0.2615499
0000a0 61 d9 91 3c 44 c0 b9 3e 1b 2c 33 bf 8a 86 59 bf
       0.01780385 0.362795 -0.69989175 -0.84970915
0000b0 39 b3 24 3f f6 a0 59 3f 4f 54 a8 3e 4e d8 26 3f
       0.6433597 0.8501123 0.32876822 0.65173805
0000c0 ff 31 6e 3e 89 56 0b 3e 1a 94 49 bf 29 b1 93 3d
       0.2326126 0.1360723 -0.7874161 0.07211525
0000d0 cb 62 38 3e 59 f3 02 bf 3d df 5b 3f d7 07 92 bf
       0.18006437 -0.5115257 0.8588751 -1.1408643
0000e0 74 b5 09 3e 92 13 ca be 92 ef 17 3e c7 ff 76 be
       0.13448125 -0.39468056 0.14837483 -0.24121009
0000f0 fe 12 9c 3e b7 40 ba 3f 1d 26 2f 3f 1f 88 6c 3f
       0.3048324 1.4550999 0.6841753 0.92395204
000100 ee f0 33 bf da 87 c0 be 08 25 1a bf 11 22 12 bf
       -0.70289505 -0.37603647 -0.60212755 -0.5708323
000110 37 7e a3 3e 39 89 b2 3e 25 a3 83 bf de 50 25 3f
       0.31932232 0.34870318 -1.0284163 0.6457652
000120 2d 1f 99 be 17 a9 f0 3e f7 8d 58 bc a0 9f 12 3e
       -0.29906598 0.47004005 -0.013217441 0.14318705
000130 5d 16 a7 3e 33 64 62 3e 1d ca 48 bf d5 08 90 bf
       0.3263425 0.22108535 -0.784334 -1.1252695
000140 68 35 13 be a7 1c 59 bf 54 b6 33 3f f2 bd e4 be
       -0.14375842 -0.84809345 0.70200086 -0.44676167
000150 30 2d f0 be a8 78 e0 3e 74 ea 10 bf ed db a2 3e
       -0.46909475 0.43842053 -0.5660775 0.31808415
000160 84 ec 35 bf b4 ae 85 3f e8 56 2f 3f e9 9d 29 3f
       -0.7106402 1.044394 0.68491983 0.66256577
000170 cf d5 07 be 7b fd 56 3e d7 f1 93 bd e3 02 89 bd
       -0.13265155 0.20995133 -0.07223862 -0.06690004
000180 85 13 83 bd de 0f c5 be 8f bc 18 bf fe b0 85 be
       -0.064002074 -0.38488668 -0.5966272 -0.26111597
000190 2c f5 9a bf 59 c5 a5 be f5 21 a3 3e 0d 70 98 bf
       -1.210607 -0.32377127 0.31861845 -1.1909195
0001a0 20 07 39 bf 0f 92 15 3f 14 9e b8 3d d5 c4 33 be
       -0.72276497 0.5842599 0.09014526 -0.17555554
0001b0 ab b7 a4 3f 24 37 c2 bf 71 b6 a3 3d 48 7c 13 3f
       1.2868551 -1.5173078 0.07993782 0.57611513
0001c0 c1 a4 8d bf ec 83 2a 3f 34 a7 5b 3e 72 6b d1 3f
       -1.1065904 0.66607547 0.21450502 1.6360915
0001d0 44 1d 16 3f 0b 2e 1e bf fb 4a a4 3e aa 8a 0a bf
       0.58638406 -0.61789006 0.32088456 -0.54117835
0001e0 e8 b0 89 3d d1 ff ae 3e a7 99 ab 3d 9f 1c b1 3e
       0.06723195 0.34179547 0.08378916 0.3459215
0001f0 9f 5e 27 3f 06 38 9b 3f 7d 2a b2 3f 53 fc d6 3a
       0.65378755 1.2126472 1.3919216 0.0016402103
000200 73 ec 25 3f c8 59 bf 3d b8 89 02 bf d0 6c 43 3f
       0.6481392 0.09343296 -0.5099139 0.7633791
000210 47 32 a0 be b1 10 0d bf d2 3a ec 3e 6e be 04 be
       -0.3128836 -0.55103594 0.46138626 -0.12963268
000220 07 4d 9d be f0 19 16 3f a6 95 30 3f 65 b8 9a 3f
       -0.3072283 0.5863333 0.68978345 1.2087523
000230 62 02 8d bf 7e 3b 15 bf 58 5e 4f bf 20 29 b4 be
       -1.1016352 -0.582939 -0.8100333 -0.35187626
000240 4a 3e 89 3e e1 d2 17 bc c2 c8 a9 3e cb 58 0e 3f
       0.26805335 -0.009266586 0.3316098 0.5560424
000250 f9 9d 75 3f f9 9f 38 bf 98 2c b0 be 12 ab 6e bf
       0.9594417 -0.721191 -0.34409022 -0.9322978
000260 bf 42 22 bd 82 53 fc 3d da 15 3b bf 0c 4a f7 be
       -0.039614435 0.12320615 -0.7308022 -0.4829868
000270 e6 8c 46 3e 37 de 48 3f b5 ac 02 3f 40 d4 a3 bf
       0.19389686 0.7846407 0.5104478 -1.2799149
000280 8e 04 24 bf bc 10 a6 3f fe 77 9b 3f 62 33 19 be
       -0.6406945 1.2973857 1.2145994 -0.14961007
000290 4e 95 16 3f 71 58 4b 3d a8 f6 7a 3f 3f b9 41 bf
       0.5882157 0.04964489 0.9803262 -0.7567329
0002a0 81 a5 40 3f 8c 68 07 bd b8 fd 8b bf 91 53 60 be
       0.7525254 -0.033058688 -1.0936804 -0.21906878
0002b0 5a 35 15 3f e5 02 46 3f 1f cd 9a 3f ff 43 57 bf
       0.58284533 0.77348167 1.2093848 -0.8408813
0002c0 eb 59 a6 be d8 ac 19 be fa f8 b6 bf 9c 07 a1 bf
       -0.32490477 -0.15007341 -1.4294732 -1.2580447
0002d0 2c 7a 94 be f0 f0 71 bf 34 1f a1 bf 6a 34 b1 be
       -0.2899946 -0.94508266 -1.2587647 -0.346103
0002e0 37 a6 fb 3e 9e b5 87 3e fa 45 02 3f 05 16 95 bd
       0.4915025 0.2650575 0.50888026 -0.072795905
0002f0 18 5b 26 3f 13 2c f7 3d 2b a2 90 bf 6b c2 1c bf
       0.6498275 0.12068953 -1.129949 -0.6123416
000300 b9 80 53 3f ce a4 71 3f bb 24 c6 bf 19 09 99 be
       0.8261829 0.94392097 -1.5479959 -0.29889753
000310 16 9d 57 3d ac 6d 89 3e b4 43 01 be 03 25 44 3e
       0.052640043 0.26841486 -0.12623483 0.19154744
000320 a5 1d 87 3f 83 f6 89 bf fa 15 89 bd da 34 29 bd
       1.0555922 -1.0778354 -0.06693645 -0.04131017
000330 f7 60 12 3e 15 9b 49 bf 64 62 70 3d 17 2f c4 3f
       0.14294802 -0.7875226 0.058687583 1.5326871
000340 41 1f bd 3e 3b 88 2b 3e b0 65 1e 3d e0 b3 9c 3e
       0.36937907 0.16751187 0.038671196 0.30605984
000350 42 d7 ca 3e d6 ce 9a bd e0 22 a0 3e ab 8f f5 be
       0.39617354 -0.07558982 0.31276608 -0.47961172
000360 b9 29 32 bf 5f cd 53 be 83 59 67 3e b3 b2 8c bf
       -0.69594914 -0.20683812 0.2259274 -1.0992035
000370 27 d4 61 bf ea 5b 59 3e 9b 6f 2c bf ef 42 8e be
       -0.88214344 0.21226469 -0.67357796 -0.2778544
000380 fa b0 f0 3e d3 7f 08 3f 2e 4a 3c 3f a7 a0 83 bf
       0.47010022 0.53320044 0.7355069 -1.0283402
000390 56 92 4b bf 28 9a 50 be 1e 83 41 3f 65 e3 84 bf
       -0.79520166 -0.20371306 0.75590694 -1.0381895
0003a0 ce 4a bd be bc 2e 85 3f c8 84 4d 3f 67 f4 93 3e
       -0.36971134 1.0404887 0.80280733 0.28897402
0003b0 d8 51 df be 26 04 1c 3f ab 89 3d 3e 02 7d aa bd
       -0.4361713 0.6094383 0.18509547 -0.083246246
0003c0 c8 98 94 be 33 b2 33 3e 66 de 1d 3e 4e a6 6f bf
       -0.29022813 0.17548446 0.1541687 -0.93613136
0003d0 18 bf 69 3d 17 c6 8c bf f2 35 e3 be bc d6 bf be
       0.057067007 -1.0997952 -0.44377095 -0.37468517
0003e0 23 0c 49 3d 2e 0a 76 bf 52 8d 47 3f 87 82 16 bf
       0.04908384 -0.9610928 0.7795001 -0.5879292
0003f0 ed 50 4d 3f e8 3b 07 be b4 f1 a2 be b1 0e 32 be
       0.8020161 -0.13206446 -0.3182503 -0.17388417

value_stream.weight f4 [1, 256]
000000 23 b9 e4 3d 62 fe 82 bd 52 5a 2d 3e 25 8a cd 3d
       0.111681245 -0.06396176 0.16928986 0.100361146
000010 09 82 c1 3e 5a f1 25 be ca 70 1a be fa 61 3a 3e
       0.3779452 -0.1620535 -0.15082088 0.18201438
000020 8d 7a 89 be 9c af d4 bd b7 0e d1 bd a9 b4 37 3e
       -0.2685131 -0.10385057 -0.10207885 0.1794001
000030 a2 8e 40 be f4 96 b2 3d 60 f6 22 3e 1d a5 29 be
       -0.1880441 0.08720198 0.15914297 -0.16566892
000040 42 74 1b be 7e c3 e0 3d 9f 07 c6 3d 73 23 1b 3f
       -0.15181068 0.10974787 0.09669422 0.60600966
000050 88 3c 36 3e af 0f 59 be c2 56 1e be 65 e1 1d 3e
       0.17796528 -0.21197389 -0.15462783 0.15418012
000060 83 84 0f be b0 8f 0a be 61 1b 38 be 6e 28 39 3e
       -0.14015393 -0.13531375 -0.17979194 0.18081829
000070 e5 3e 7f 3d 50 4a 28 3e a2 85 40 3e 5a ab 95 3d
       0.06231584 0.16434598 0.18800977 0.07308073
000080 f8 5b 3d be c6 c5 5c be 3d 3c d3 bd b9 46 54 3e
       -0.18492115 -0.2155982 -0.10314224 0.20730104
000090 ba 9d 9d be 71 10 13 3e 23 ac b6 be 67 4d e8 3d
       -0.30784398 0.1436174 -0.35678205 0.11342888
0000a0 04 54 19 3e d6 72 97 3e 14 7b 65 be e2 f2 26 3e
       0.14973456 0.295798 -0.22410232 0.1630359
0000b0 d7 1f 09 3e fd a2 47 3e 88 cf 82 3e b8 7d 95 3e
       0.13391052 0.19495769 0.2554896 0.29197478
0000c0 30 13 8e bf de 0d 30 3e f0 67 62 be 7b 23 0f bf
       -1.1099606 0.1719279 -0.22109962 -0.55913514
0000d0 19 2a f2 3d e8 94 47 3e 8b 45 01 3e 2e 94 48 be
       0.11824436 0.19490397 0.12624185 -0.19587776
0000e0 8f 43 dd be 87 d5 63 3e 2c fd 22 be 92 52 18 be
       -0.43215606 0.22249423 -0.1591689 -0.14875248
0000f0 df 84 da bd b3 5d b9 3d f8 9c 8f 3e c0 3e ac 3e
       -0.106698744 0.09051075 0.28049445 0.33641624
000100 2f 46 1f be a7 f6 e8 bd c0 d0 2e be 68 65 b3 bd
       -0.15554117 -0.1137517 -0.1707182 -0.08759576
000110 6c 64 07 3e f3 ea 82 be fe d8 33 be e9 ac 7f be
       0.13221902 -0.25569877 -0.17563245 -0.24968304
000120 ee b8 80 3e 44 b8 15 3e 09 f4 21 3e 84 a6 2b 3e
       0.2514109 0.14621073 0.15815748 0.1676274
000130 6e ff fe 3e 69 cf 94 be 6c ff 7e 3e 79 f4 57 be
       0.49804252 -0.2906449 0.24902123 -0.21089353
000140 bc e7 bf bd 81 67 77 bd d2 5b 14 3e 69 c3 17 3e
       -0.09370372 -0.060401443 0.14488152 0.14820637
000150 dc d8 f6 bd 78 85 e8 3d 2a 2f 19 3e 7f 3f c3 3d
       -0.120530814 0.11353582 0.14959398 0.09533595
000160 a6 3d 37 3e 6b 18 31 3e 66 8c 84 be ac 59 ed 3d
       0.17894611 0.17294471 -0.25888366 0.11589369
000170 42 50 d9 bd bb 3d 67 be a1 94 7c bc dd 7c 54 bd
       -0.10611011 -0.22582142 -0.015416295 -0.05187689
000180 7d 7b 40 3e 17 96 16 3e 8e 21 1c be 17 e9 be 3d
       0.18797107 0.14705692 -0.15247175 0.09321802
000190 7e f8 6c 3e 42 05 3d be 24 7e 87 3e 74 5b 3a be
       0.23141667 -0.18459037 0.26463425 -0.18198949
0001a0 fa bf 0a be 95 35 94 3e f8 dc 3c 3e f7 d1 3b be
       -0.13549796 0.2894713 0.18443668 -0.18341814
0001b0 cd b6 ab 3e f3 2a 4f bc 39 ac e1 3d 7c 3b 24 3e
       0.33537903 -0.012644517 0.11019177 0.16038316
0001c0 9f c4 3b be 21 45 0a be 69 fa 16 be a0 ac 20 bf
       -0.18336724 -0.13502933 -0.14743961 -0.62763405
0001d0 5f cc 92 bd e2 f2 d8 bd e6 b5 87 be fb 06 12 3e
       -0.07167887 -0.10593201 -0.26505965 0.14260475
0001e0 90 d4 10 be 08 23 11 3e 79 10 19 3e 89 5d 0a 3e
       -0.14143586 0.1417352 0.1494769 0.13512243
0001f0 a8 61 89 3f d4 6d b3 3e a3 16 6d 3e 96 a5 4b 3e
       1.0732927 0.3504473 0.23153166 0.19887385
000200 6e 39 2f be 45 c7 25 3e 49 db 30 3e 15 55 19 3e
       -0.17111751 0.16189297 0.1727115 0.14973862
000210 d8 57 1d be 2b 8f 70 3e dc fb 31 3e 67 31 c4 3e
       -0.15365541 0.23492114 0.17381233 0.3831894
000220 3c f7 43 be 6f f6 75 3e 59 97 bd 3e 2d d8 22 be
       -0.19137281 0.24019788 0.37029532 -0.15902777
000230 aa d1 0d be 5c 26 0f be 19 2e 29 3e d7 29 c2 bd
       -0.13849512 -0.13979477 0.16521491 -0.094806366
000240 a7 86 20 3e e2 a5 2b be f6 06 f3 bd a2 c8 5b 3e
       0.15676366 -0.16762498 -0.11866562 0.21463254
000250 e8 cd f4 3d e4 59 63 be 5a 4c 14 be 7a ce 02 be
       0.11953336 -0.2220226 -0.14482251 -0.12774077
000260 98 a4 a0 be 1a 61 e8 bd 31 5d ca 3e c2 a8 3c 3e
       -0.31375575 -0.11346646 0.39524224 0.18423751
000270 f7 67 09 3e 5f 21 59 3a 61 c3 1b 3e 61 58 a6 3e
       0.13418566 0.0008282866 0.1521125 0.32489303
000280 26 5e 92 3e 06 ad 29 3d b7 37 98 3d 0c 17 9a be
       0.28587455 0.041424774 0.07432502 -0.30095708
000290 06 84 f3 bd 6f 5d 13 be e2 97 6b 3e 64 55 e9 bd
       -0.11890416 -0.14391111 0.23007157 -0.1139324
0002a0 d6 7a f5 3d 59 7f 35 3e 04 84 cb be 3c f6 24 3e
       0.1198632 0.1772436 -0.39749157 0.16109556
0002b0 0e ac 66 3e 39 d4 92 3e 6c 6a e1 3d 46 57 6e be
       0.22526571 0.28677538 0.110066265 -0.2327548
0002c0 01 38 42 be d2 8d 10 3f a5 68 98 3d 0e 6c 8e 3e
       -0.18966676 0.564664 0.07441834 0.27816814
0002d0 59 ed 41 be e6 5f 68 3e 00 0e a5 3e 9c 68 5c 3e
       -0.18938197 0.22692832 0.32237244 0.2152428
0002e0 b2 bc 6a 3e 27 0a 76 3e 16 d9 e1 3d 21 31 0d 3e
       0.22923544 0.2402731 0.11027734 0.13788272
0002f0 41 db af be 31 1e 41 3e 20 9f 80 be 67 29 b9 bd
       -0.34346965 0.18859173 -0.25121403 -0.090411
000300 12 f0 18 be 00 f0 1b be 3e 74 04 3f 64 ee 4d 3e
       -0.1493533 -0.15228271 0.5173987 0.2011047
000310 6e d1 76 3e c4 26 df 3d 9d 49 9d be cb ef c6 3e
       0.24103329 0.10896066 -0.30720225 0.38854823
000320 d8 5a b4 3e b5 46 31 be 15 34 51 bf 81 5f 92 3e
       0.35225558 -0.17312129 -0.81720096 0.2858849
000330 c4 5e c2 3e 5b 20 1f be b5 4d a7 3e 38 7e bd 3d
       0.37962925 -0.15539686 0.32676473 0.0925259
000340 a5 a3 1f 3e 1d 02 1e 3e b7 50 50 3d 46 f9 10 3e
       0.15589769 0.15430494 0.050858226 0.1415759
000350 4e 6a 92 3e 9c f0 51 3e 24 f6 44 be a1 d1 e1 be
       0.2859673 0.20501941 -0.1923452 -0.44105247
000360 9b 18 43 3e 7a 32 dc 3d 5b 3e ea 3d f6 28 ea 3d
       0.19052355 0.10751815 0.114376746 0.11433594
000370 f6 90 91 3d 39 1a 13 be 5b 90 7e be 6f d5 5d 3e
       0.07107727 -0.14365472 -0.24859755 0.2166345
000380 8b f9 d6 3d e1 70 0a 3e e0 90 94 3e 27 49 4b 3e
       0.10496815 0.13519622 0.2901678 0.19852124
000390 a8 35 d8 bd 38 68 c8 3e 07 8c 9f be 79 44 c0 3d
       -0.10557109 0.39142013 -0.3116152 0.0938806
0003a0 49 a6 26 be b6 86 ff 3d 36 af 6a 3d 0e b1 bc bd
       -0.1627437 0.12476866 0.057296 -0.09213458
0003b0 48 44 73 3e 88 f3 2d bf 56 b8 f8 3c 5e 70 9f be
       0.23756516 -0.67949724 0.030361336 -0.31140417
0003c0 d0 cb 0d be 95 12 99 be 92 51 7e 3e ba fc f1 bd
       -0.1384728 -0.2989699 0.24835804 -0.11815782
0003d0 fe 44 5b 3e bf 1a a6 3d 05 73 27 3f a8 bf 81 bf
       0.21413037 0.0811057 0.6540988 -1.0136614
0003e0 a7 eb 47 be e0 59 5a be 9b 02 c4 bd c9 43 60 bf
       -0.19523488 -0.21323347 -0.095708095 -0.8760343
0003f0 fd 01 0f 3e 09 13 0c 3e e9 dd f7 bd e7 fa 0a be
       0.13965602 0.13679136 -0.12102873 -0.13572274

advantage_stream.weight f4 [20, 256]
000000 51 8d 8e 3d 37 2d 70 3a 31 d0 23 be e6 b7 8b bd
       0.06960548 0.0009162011 -0.15997387 -0.06822185
000010 7b fd 64 3d ca 06 07 be ec ce 8d 3c e1 87 ed 3c
       0.0559058 -0.13186184 0.017310582 0.028995456
000020 91 ef 81 3c ac 4e bf bd 5b 58 41 be 6d 5b a3 bc
       0.015861304 -0.09341177 -0.18881361 -0.019941056
000030 ec ea 91 3d b7 a8 05 3e 0d c4 93 3d d6 b5 8d 3c
       0.07124886 0.13052641 0.07215128 0.01729862
000040 c1 e1 a3 bc 4e 86 1e 3e d7 e3 40 3d 60 1d 1f bc
       -0.020005109 0.1548092 0.047092285 -0.009711593
000050 7d ee 39 3e d8 49 22 bc eb 72 ea bc 22 fb ea 3e
       0.18157382 -0.009905301 -0.02861925 0.45894724
000060 80 6f f8 bd bc 3d da bd 4b 0c e7 bd 61 96 97 3d
       -0.12130642 -0.10656306 -0.112816416 0.074017294
000070 4c 10 a1 3e 5d 4f 55 3d 28 b0 39 3e 17 e0 87 3d
       0.31457746 0.05207764 0.18133605 0.066345386
000080 e2 ad a7 bb 0c 77 fa 3c 95 0e c6 3d fd c9 2e 3e
       -0.005117164 0.030574344 0.0967075 0.1706924
000090 10 b7 02 be 96 1b f4 3d dd 8d df 3c 60 33 46 be
       -0.12765145 0.11919324 0.027289325 -0.19355536
0000a0 1c ba 66 3e 55 b8 11 3f ce c0 8b bd 86 c6 f2 3d
       0.22531933 0.56921893 -0.06823884 0.118542716
0000b0 fe 10 50 3d 75 48 7c be 8c 90 e7 3d 26 8d 81 bd
       0.050797455 -0.24637015 0.11306867 -0.0632575
0000c0 26 fd fe 3d 4f aa 8e 3e c8 cd 1d bd 36 c8 0f be
       0.12450628 0.2786431 -0.038526326 -0.14041218
0000d0 ed 56 85 3c 55 7a c9 3c 05 dd 76 3c 18 b3 2d be
       0.016276801 0.024594465 0.015067344 -0.1696285
0000e0 45 c9 78 3d 6b 0e aa bc 86 e0 ca bc c9 bc 15 be
       0.06073882 -0.020758828 -0.024765264 -0.14622797
0000f0 89 6a 96 bd 66 bb 83 bc 96 75 04 3e 8f 01 5e 3c
       -0.07344539 -0.01608057 0.1293548 0.013550176
000100 5d 33 a7 bd 77 ae 62 3e d7 ed 9e bd 23 75 6c 3d
       -0.08164094 0.22136866 -0.07760208 0.057728898
000110 95 3f 8a 3e 63 af 38 be 1c 00 96 bd f0 a8 7e bd
       0.27001634 -0.18035655 -0.073242396 -0.06217283
000120 85 17 cf 3d 3a 8e 16 3e 1d 33 11 bb 12 a1 ba bb
       0.10111908 0.14702693 -0.002215571 -0.0056954706
000130 5c 15 94 3d 76 28 9e be bb 96 36 3e 3b 09 f7 be
       0.072306365 -0.30890244 0.17830937 -0.4824923
000140 16 72 e2 3c c2 0f c7 be d5 ba 60 3d cf 5e 84 bd
       0.027642291 -0.3887921 0.054865677 -0.06463396
000150 ca 0e 26 bd 76 04 99 3e f7 5e 42 3e d7 7a e3 3c
       -0.040541448 0.29886216 0.18981539 0.027768536
000160 b2 60 93 3d 55 2c 8f bd 7b 9a 33 bd b3 24 44 3e
       0.071961775 -0.069908775 -0.043848496 0.19154625
000170 db 10 e8 bc cd 6e 0f bd a8 2d ad 3c 38 b8 8b 3e
       -0.02832835 -0.035017777 0.021139935 0.27288985
000180 66 f0 9c 3d 0a 38 09 be 29 65 e4 bc a2 ed 26 3d
       0.0766304 -0.13400283 -0.027880268 0.040753968
000190 58 5e 55 3d 92 f3 56 bc 64 af cf bc e3 27 54 3e
       0.052091926 -0.013119595 -0.025352187 0.2071834
0001a0 4c fb 89 bd 1b e5 9f 3d b1 22 29 3e 66 95 21 3e
       -0.06737384 0.0780737 0.1651714 0.15779647
0001b0 35 42 29 3d 38 e2 99 3e 0e 9d d0 3d 4c db c7 3d
       0.041322906 0.30055404 0.10186206 0.097586244
0001c0 15 21 e2 bd 3b c9 81 be 53 26 02 bf 6f ed 63 be
       -0.11041466 -0.2534884 -0.5083973 -0.22258542
0001d0 ac 09 3e bd 90 bb 39 bd 8e 1b d2 bd e8 2f 18 3e
       -0.046395943 -0.04534489 -0.10259162 0.14862025
0001e0 5b 33 f3 39 b6 37 25 be ab c4 88 be 77 69 64 3d
       0.00046386835 -0.16134533 -0.26712546 0.05576464
0001f0 72 c5 ea 3d 8f 18 c1 bd 60 ed 25 bd e9 af a0 3d
       0.11463441 -0.09428512 -0.04050958 0.07846052
000200 d3 e9 94 3d cd 02 8e 3d 2c e8 55 3e e0 c7 de bc
       0.07271161 0.06934128 0.20889348 -0.027194917
000210 08 06 44 bd 1b 39 a4 3e d0 a6 88 3d 71 a4 92 3d
       -0.047857314 0.32074818 0.06672442 0.07160271
000220 28 15 4b 3d ee af e5 3d e8 1f b0 bb 9c 90 83 be
       0.049580723 0.112151965 -0.0053748973 -0.25696266
000230 74 9e dd 3b 7b eb 4a be 3e 2f 5c 3e e8 6c 8c bd
       0.006763274 -0.19816391 0.21502396 -0.0685671
000240 13 42 aa bd 6f 25 f9 bd 54 0e 27 3e 6d 12 84 3d
       -0.08313384 -0.12165343 0.1631406 0.06448827
000250 fe 12 3e 3d 7d c1 1c 3c ee 5e 5c bd b7 f2 18 3e
       0.04640483 0.009567616 -0.05380147 0.14936338
000260 3a cc 2e be 3f aa 26 3d 92 e8 0a bd 8c 78 1d 3c
       -0.17070094 0.040689703 -0.033913203 0.00961126
000270 51 a2 e6 3d 73 a2 95 3e bb 4c 8d 3d a5 b9 3d 3c
       0.11261428 0.292255 0.06899401 0.011579906
000280 e4 f5 04 3e 57 5a bf 3d 69 62 a9 3b 6a 6d 23 be
       0.12984425 0.09343403 0.005169202 -0.15959707
000290 da 00 f1 bd e4 47 37 bd 13 88 30 3e db 80 9b bd
       -0.117677405 -0.044746295 0.17239408 -0.075929366
0002a0 56 65 34 3e 6f b6 b3 bd 9c 28 96 bc 83 56 41 bd
       0.17616782 -0.08775031 -0.018329911 -0.047201645
0002b0 1c c8 fa 3d 28 c1 9b bd b1 3c 21 3c 39 a9 07 3d
       0.12245199 -0.07605201 0.00984113 0.033120368
0002c0 37 c5 da bd 2d 62 cd 3d b0 cf 92 be 97 ca 57 3e
       -0.10682147 0.10028491 -0.28674078 0.21073376
0002d0 e4 ed f3 bb 37 e0 d6 ba 80 7e 6c 3e 6d 66 b5 3d
       -0.0074441303 -0.0016393726 0.23095131 0.08857427
0002e0 75 0c cc 3c c5 c1 0c 3e a3 7c 57 bd f1 0a 69 3d
       0.024908284 0.13745792 -0.052609097 0.0568952
0002f0 68 0f 37 be 53 85 13 bd b8 c6 ba bc 1b 72 52 bd
       -0.17876971 -0.03601582 -0.022799835 -0.05137835
000300 d0 c3 84 be 69 ce 2d be c2 ad ec 3d e1 70 ee 3d
       -0.25930643 -0.1697327 0.11556579 0.11642624
000310 95 e3 cd 3c d0 27 d2 3c 52 fa 26 bd 3d cb 6e 3d
       0.025132934 0.02565375 -0.040766068 0.058299292
000320 41 05 bd bd e3 97 4b 3d 2d 3c 99 3e 0c 62 10 3e
       -0.09229518 0.049705397 0.29928723 0.14099902
000330 8e e7 82 3d 7c 06 80 bd 75 04 60 3d 25 c4 93 bb
       0.06391822 -0.06251237 0.05469175 -0.0045094662
000340 39 80 5e 3e f7 d9 32 3e 5f 02 88 3d 17 e4 ce bd
       0.217286 0.1746596 0.06641077 -0.101020984
000350 99 7f 43 3e d7 db f3 3d 7f 1d e6 bd bf 06 40 3e
       0.19091643 0.119071655 -0.11236095 0.18752573
000360 55 b5 87 3d f0 b8 4c be aa ae e1 bc 21 00 d7 bb
       0.06626383 -0.19992423 -0.027549107 -0.0065612947
000370 73 bd 9f bd 91 4b 5a bd e9 32 bb be 82 f0 8e 3e
       -0.077998064 -0.053294722 -0.3656228 0.27917868
000380 ae 04 10 3e ec 30 b3 bd bf 47 24 bd a9 d4 0c 3d
       0.14064285 -0.087495655 -0.040107485 0.034382496
000390 80 07 11 be 96 3a 63 3e 79 f5 21 bd 01 8d cd bd
       -0.14163017 0.22190318 -0.03954074 -0.1003666
0003a0 b8 80 58 be 23 ee ee 3d ca 34 04 3e 33 8e 96 3e
       -0.21142852 0.11666515 0.12910762 0.29405364
0003b0 e8 39 40 3d 81 dc 64 be 3c 34 43 3e c0 38 e8 bd
       0.046930224 -0.2234974 0.19062895 -0.11338949
0003c0 8f d4 90 be 74 1d 00 be ce 5a 2c bd fa a8 f9 3d
       -0.2828717 -0.12511235 -0.042078786 0.12190433
0003d0 1d ba 60 bc 34 c6 a2 3e 9d f8 1a 3e 4e 9e 32 be
       -0.013716248 0.31791842 0.15133901 -0.17443201
0003e0 f5 7e af bd f7 0b e7 bc 51 d0 f5 bc c2 55 c4 3d
       -0.08569137 -0.028203947 -0.03000656 0.095866695
0003f0 be 9f 02 3d 82 cb 86 bb 25 c9 7d 3e ff a5 87 3c
       0.031890623 -0.0041136155 0.24783762 0.016558645

advantage_stream.bias f4 [20]
000000 c0 e3 ba be 65 f4 1f 3e 00 eb fd 3d 32 d8 bc 3d
       -0.36501884 0.15620573 0.12398338 0.092209235
000010 6b 94 fe 3d 87 b5 00 3e 3c ca 1b 3e b5 66 7c 3d
       0.12430652 0.12569247 0.15213865 0.061621387
000020 43 8c 78 3d 40 5c 31 3d 16 ce 98 3d 73 2d 36 be
       0.06068064 0.043300867 0.07461183 -0.17790775
000030 46 86 bb bd e4 58 6c bd d5 68 5f 3e 9a 08 c8 bc
       -0.0915647 -0.05770196 0.21817334 -0.024418164
000040 3a 15 19 3e 00 d8 05 3e 5e 90 b1 3d b3 1d c1 bc
       0.14949504 0.13070679 0.08670114 -0.023573732
