src/hockey-env/random_training_1/weights/episode_522.pth (torch, 307504 bytes, 7 tensors)

layers.0.weight f4 [256, 18]
00000000: 997e bd3d b8b5 083c 024d 31bd 8ad5 09bc
00000010: fd45 14ba 6554 c53a bc5d 903e d6c5 803f
00000020: 5702 3d3f 2393 61bd 4b4a f03d c6bc 8e3d
00000030: 216d 133f 2250 9bbe a6d5 623f ae9a 8abe
00000040: 4987 0cc0 cb5c b13f 1105 c83c 59b1 70bf
00000050: a1b2 bf3d 5f79 70bd 9029 ad3c 63ca 5fbc
00000060: fbaa 723f 3875 adbe c824 893d 4fd2 3b3d
00000070: 592f fcbd c3b5 e2bc 4618 09c0 dba1 28bf
00000080: 04b8 66be aa54 03be fdbe 4a3f 6a4d af3e
00000090: 4f1d efbd 13d5 003e 0b06 ba3e b9d6 03be
000000a0: 77ca ec3c ac70 b43c e2c0 be3f cc72 813e
000000b0: 06e5 073f 9d6a 773d 923b 06bd 2d82 5f3b
000000c0: fa4b 103e c193 39be f254 e53e 7679 5fbd
000000d0: 7f4c d63c ad73 2c3e a0d3 a43e 5ed0 ae3e
000000e0: eb66 a8bf 2887 4b3c 9ed4 503d 1f5b 7fbe
000000f0: fbb9 bcbd 7a1b d43d 53e3 383d e871 dcbc
00000100: d3cf 843d 01da c0bc a962 e2bd 134d 83be
00000110: f3db 683c 662b 25bc 41f4 a53c 1033 ccbb
00000120: 3e66 5e3d f8b9 9a3c cae1 693d 8acb 72bc
00000130: 8f8c 473d 977e 7ebc a764 11be f2ab edbd
00000140: 4bc9 853c e24c d2bc d2ca 273d 5a91 e53b
00000150: ce8f 683f d898 28bd a999 ae3f bec2 febe
00000160: dfc3 1b3f 80d4 d13f 55ed e93e d905 2cbe
00000170: 81e0 ec3e dc66 c33d 97a5 fabd 6ce1 053d
00000180: 5a68 6c3f 7e45 84bf 7ade 493e 42d4 583d
00000190: e19f 71bd b110 3f3a 976f 85bf 25df 06bf
000001a0: ccb4 c6be 0713 90be fd92 0fbe 54b2 b8bf
000001b0: 82a5 8cbe 32e5 85be 9451 023e 2fb7 0dbd
000001c0: be1a 1d3e bc96 bbbc 1c59 363e 423c ec3e
000001d0: 4b3f 7bbe c538 123e 0ea7 8abd 096e bcbd
000001e0: 9fa6 d7be c7db 9e3f a62d 63be dc90 533f
000001f0: b3ed 54bf ea94 cb3e 5dea 8bbd 4c03 ecbf
00000200: 19ca 12be 7fec 343d dfcb 2abe 08f2 05bd
00000210: 49fa 33be 5771 a53f 3195 f0bd f4e9 c6bd
00000220: fabd a33d 36e7 bebc d143 273f f160 923e
00000230: a9b8 0b3d 6b35 913c 6f29 9abf 2151 313e
00000240: 0e54 8a3e 6678 00bc 7e1b 593e 7976 b43d
00000250: d54c 333d 9953 3c39 fbc6 2d3c 7f77 663e
00000260: f985 013f f356 d1bd 05bc 2ebc 111b 0a3e
00000270: 0500 77bf 8593 9fbe 0112 89bf ada9 0b3f
00000280: bd35 29c0 d1ba b1bf 7e28 5e3e bac1 6dbf
00000290: f841 9d3c 32ff 4b3d b643 cdbb b713 5d3d
000002a0: 181e 3dbf 4032 cd3e 7de1 d23d 2d9b 43be
000002b0: 0853 cc3d 2ebd 46bd 7992 70be 54f6 163f
000002c0: eb12 c6be 179a 54be 39de 59c0 dd6b 3fbf
000002d0: d158 6abe da7f f9bb 61d6 2a3e 0cce 113d
000002e0: cdad bc3d 24eb 33bd 11d2 043f 423e d73e
000002f0: 9bc3 45be 883d dcbd f83b a6be c63a 043e
00000300: a067 31bf 8df2 023e ebb1 303f 1a75 08bf
00000310: 13c9 1e3e 0feb 9d3f 6055 a53e 6895 803d
00000320: 2015 13bf 7946 9a3c 723c 90bd ed26 32bd
00000330: 5805 09bf eb76 0640 edff c0be ce46 47bc
00000340: 4165 f03e 16f8 dbbd f96b 153e b257 4d3e
00000350: 6108 45bf 61a8 c7be 3195 623f 2bf1 b8bf
00000360: 81ec be3e e07d f3bf b512 01bd 1b31 b9bc
00000370: 321e 64be 2829 71bc 2513 a2be ac53 ec3f
00000380: 9e4f 1a40 f7ca 983d b706 303e cdc2 063c
00000390: 20f6 cb3e 5cd5 693f d574 30be 6c41 263f
000003a0: 07a0 22bf c300 1b3e 360c 4abe 6a45 4dbf
000003b0: 17ad 05bf de4e db3d 3207 9cbc 5368 e9bc
000003c0: e1ae 103e e3dc 453f 29f9 583f eba7 113d
000003d0: 385c 31bd b0d4 ba3c ec15 263e a166 85be
000003e0: 27c6 e03e 14ee d0be b0b7 f03e 353a c13f
000003f0: e39f aa3e 859e 97bd 72ae 5c3d d946 903c
0.09252662 0.008344106 -0.04328633 -0.008412728 -0.0005656181 0.0015055059 0.28196514 1.0060375
0.73831695 -0.05507196 0.1173292 0.069695994 0.5758839 -0.30334574 0.8860725 -0.27071136
-2.1957572 1.3856443 0.024416478 -0.9402061 0.09360243 -0.0587095 0.021137983 -0.013659093
0.94792145 -0.33878493 0.066964686 0.045854863 -0.12313718 -0.027674561 -2.1421065 -0.6587197
-0.22531134 -0.12825266 0.79197675 0.3423875 -0.11675512 0.12581281 0.36332735 -0.12874879
0.028905137 0.022026382 1.4902613 0.25282896 0.5308384 0.06040441 -0.032771654 0.003410469
0.14091483 -0.1812277 0.4479137 -0.054559194 0.026159523 0.16841002 0.32192707 0.34143347
-1.3156408 0.0124223605 0.050984018 -0.24937104 -0.092151605 0.10356803 0.04513867 -0.026909783
0.06484952 -0.023541452 -0.11053974 -0.2564474 0.014212596 -0.010081148 0.02025807 -0.006231673
0.054296724 0.018887505 0.057100095 -0.014819035 0.04871803 -0.015533111 -0.14198552 -0.116050616
0.016331336 -0.025671426 0.04096491 0.0070058526 0.9084443 -0.04116139 1.3640643 -0.49757951
0.6084575 1.6392975 0.45688882 -0.16799106 0.46265033 0.09541103 -0.12238615 0.032685682
0.9234673 -1.0333707 0.19713774 0.0529368 -0.058990363 0.0007288559 -1.042468 -0.5268424
-0.38809812 -0.28139517 -0.14020915 -1.4429421 -0.27470022 -0.26151425 0.12726432 -0.034598526
0.15342233 -0.022899024 0.1780743 0.46139723 -0.24535863 0.14279468 -0.067701444 -0.09200675
-0.4211931 1.2410821 -0.22185382 0.8264291 -0.831752 0.3976205 -0.068318106 -1.8438506
-0.14334907 0.044170853 -0.16679333 -0.032701522 -0.17575945 1.2925214 -0.11747206 -0.09712592
0.079952195 -0.02330361 0.65337855 0.28589585 0.034111653 0.017725667 -1.2043895 0.17316104
0.27017254 -0.007841205 0.21201894 0.08811659 0.043774445 0.0001796022 0.010606523 0.22506522
0.5059505 -0.10221662 -0.010664945 0.13486888 -0.96484405 -0.31167236 -1.0708619 0.5455578
-2.643905 -1.3885137 0.21695134 -0.9287373 0.019196495 0.04980392 -0.0062641753 0.05397388
-0.73874044 0.400774 0.10296915 -0.19102164 0.099767745 -0.04852026 -0.23493375 0.58969617
-0.38686308 -0.20761906 -3.4041884 -0.7477396 -0.22885443 -0.007614118 0.16683342 0.035596892
0.09212837 -0.04392542 0.51883036 0.42039686 -0.19312899 -0.10753924 -0.32467628 0.12913045
-0.69298744 0.12787838 0.6902148 -0.5330368 0.15506391 1.2337359 0.32291698 0.06278497
-0.5745411 0.018832432 -0.07042779 -0.043494154 -0.5352378 2.1010082 -0.37695256 -0.012162877
0.4695225 -0.10740678 0.1459197 0.20052984 -0.7696591 -0.3899565 0.885089 -1.4448599
0.37289813 -1.9022789 -0.03151198 -0.022606423 -0.22277144 -0.014719285 -0.3165523 1.8463035
2.4111094 0.074605875 0.17190062 0.008225155 0.39836216 0.91341186 -0.17232068 0.64943576
-0.6352543 0.1513701 -0.1973122 -0.8018404 -0.5221724 0.10708402 -0.0190464 -0.028492128
0.14129211 0.7729017 0.8475519 0.03556053 -0.043300837 0.022806495 0.162193 -0.26054862
0.43901178 -0.4080664 0.47015142 1.5095888 0.3332511 -0.07403282 0.0538773 0.017611908

layers.0.bias f4 [256]
00000000: cafe d1bf 9742 9e3f ce9a 4140 9ee3 553f
00000010: c98e 643f 3219 e2bf 03f4 b33f e3e3 b8bf
00000020: 0ed1 7fbf 0058 18c0 653d 6640 ceb8 0bbf
00000030: 77e4 f43f d83c 843f 092b 25be ea11 943f
00000040: 2b1b b63e d3c1 3040 f2e0 dfbf 350d ffbf
00000050: f615 fc3f 2980 ecbd 6066 e2be 6cfb 6240
00000060: e207 13c0 7c2a e83f de62 123f 4bfb 1dbf
00000070: c7a3 eb3f 9525 573d 5f3b cb3f cf93 3340
00000080: 6d6f a0bf 2ade 9bbe b129 46bf eda6 2d40
00000090: ba49 34c0 aa5e 493f 84f9 e0bf e978 263f
000000a0: 1be5 51bf 5a36 6a3f fa3d 7fbf 9ccb afbe
000000b0: de65 ddbf 09a3 ccbf 865f fbbf 4f46 d03e
000000c0: b404 ba3f d136 dd3e cbbc 59bc d15c a2bf
000000d0: aa52 813f afdd 7bbe e5cd fc3f cc3c b8bf
000000e0: 5fc6 373f f360 1940 6ce7 1540 497a 0440
000000f0: b792 9e3f 06a4 37c0 8cb1 923f 2dd3 3140
00000100: 92d9 25c0 5f31 683c aaff c3be 2fcf 2f40
00000110: 8602 4440 31ef 98be 584e d93e ea90 58bf
00000120: a149 1abd 7ce0 8cbc 4afc 0340 28f6 eb3f
00000130: bcea e0bf 1ed4 e73f 8b8b cabf 9275 4940
00000140: 52a8 b6bf 6d5d f0bf 4dd9 4b40 cca7 adbe
00000150: 7412 7d40 13cd 6e40 a01d 84be 9ef8 a13f
00000160: 0d60 fd3f 747d 003f da5e 0dbe 1cb0 593f
00000170: 44ab eb3e 7cc6 b33f 749c a53f aff4 2d40
00000180: 4cfe 0940 d888 a2bf 478e eabf 1950 c03f
00000190: 3867 a73f 2888 1540 34a5 0ebe a8fb 923f
000001a0: 5359 debe 3023 fc3e 0d19 cbbe d06a 00bf
000001b0: 211c 5640 0409 00bf 14ca bfbf 11fa e2bf
000001c0: 7696 1d3f 1152 b93f fd08 bdbf 61c2 b43f
000001d0: a442 393e 0d76 14c0 7c58 f03f 4718 1d3d
000001e0: 826d de3b bb69 8f3f e4b2 0cbf 3c84 993e
000001f0: 6164 87bf 7ea6 203f fe6d ae3f a398 273f
00000200: a4d3 61bd 145c 49c0 e18c 89bf 432b 333f
00000210: b7eb 8040 0873 55c0 1029 c13f 65fb 0040
00000220: 98f3 0bc0 350f c53f 5b25 65bf 7b85 65bf
00000230: d128 14be e60b 2f40 fbef 3540 2045 c8bf
00000240: 1682 4abd b1f8 a83f d71d 91bf eaaf de3d
00000250: b2f1 a93f 97ab 1440 3861 1c40 c6fe eb3f
00000260: 8133 1dc0 e9b7 e0be 8e2c f33c d577 f2bf
00000270: 6573 f2bd a8a2 653f a843 3140 0f9b 03c0
00000280: bb05 ab3f f2f3 4b40 26ff 01be 138e 2ebf
00000290: 146f d1be 8868 c5bf 26b0 2040 31bd d43f
000002a0: 48bc 70bc 9b37 0140 883a d33f 3323 773f
000002b0: 0171 d3bf f4a7 873f 84ff 773f 6691 97bf
000002c0: 3f6d 563f 0c24 623e 4850 383e 75f6 4440
000002d0: e8f3 4740 3065 1ec0 574b c93f 1315 e83f
000002e0: 84fb cdbe 72e1 d3be 65c5 cbbf 6948 6e3f
000002f0: bd88 9f3f 33cc 57be ee93 11c0 51eb dfbe
00000300: b809 ca3f 0f0e 1e40 2108 313d 9940 fb3e
00000310: 746a 21c0 3bc6 523f 4464 23bf 93b9 0740
00000320: e34c 0640 bf6b 2440 409d a0bf 8ddd b83e
00000330: c860 493f b2f0 f8be eb38 dbbf a545 29c0
00000340: 55eb 333f c034 99be 9f9f c43f fc39 39bf
00000350: fa92 343e fc20 c5bf 8e99 8fbf 807d 8bbe
00000360: ba6b 063e b6b1 9a3f 6c76 e2bf e371 64bf
00000370: 72a3 06c0 60a9 e3bf b166 503f b9de 6a3c
00000380: 7ef9 963e 134a be3f 7c9d 9f3f 324d cb3f
00000390: b7f2 29c0 450b 0040 ca4f 803f 392d cb3f
000003a0: 7f66 cfbe 3e8e 2c40 175d 99bd 7cc3 543f
000003b0: a2f2 c7bf d6da f1bf c79a f3bf 2d41 b83f
000003c0: 951a 0bc0 a06e 74bf 4582 813f 2bdb 45bf
000003d0: 6ec5 fd3f b1b7 e8bf 23fe 46bf 0396 be3f
000003e0: ac45 cfbf f666 44bf 350a 3bc0 1c07 7e3f
000003f0: 94ff d33e 9eb2 093f 8368 ea3f d1b7 dbbf
-1.640588 1.2364072 3.0250735 0.8355044 0.8928037 -1.7663939 1.4058841 -1.4444546
-0.9992837 -2.380371 3.5974972 -0.54578865 1.9132222 1.0331068 -0.16129698 1.1567967
0.35567603 2.76183 -1.7490523 -1.9925905 1.9694202 -0.11547882 -0.4421873 3.5465956
-2.2973561 1.8137965 0.5718211 -0.6171157 1.8409356 0.052526075 1.5877494 2.8058965
-1.2534004 -0.30442935 -0.77407366 2.7133133 -2.817 0.7866007 -1.7576146 0.65028244
-0.8199021 0.91489184 -0.99703944 -0.3433503 -1.7296712 -1.5987254 -1.9638526 0.4067864
1.4532685 0.43205884 -0.013289641 -1.2684575 1.0103352 -0.24596284 1.9750334 -1.4393554
0.71787065 2.3965423 2.3422499 2.0699637 1.2388524 -2.8693862 1.1460433 2.7785141
-2.5914044 0.014171927 -0.38280994 2.7470205 3.062654 -0.2986999 0.42442584 -0.8459612
-0.037667874 -0.017196886 2.0622735 1.8434496 -1.7571635 1.8111608 -1.5823835 3.147801
-1.4270117 -1.8778511 3.185138 -0.3391708 3.9542513 3.7312667 -0.25803852 1.2653997
1.9794937 0.50191426 -0.13805714 0.85034347 0.46029103 1.4044948 1.2938371 2.7180593
2.156146 -1.2698011 -1.832467 1.5024444 1.3078375 2.3364353 -0.13930207 1.1483049
-0.43427524 0.49245596 -0.3966755 -0.5016298 3.3454669 -0.50013757 -1.4983544 -1.7732564
0.6155771 1.447817 -1.4768368 1.412182 0.18091828 -2.3197052 1.8777003 0.03835323
0.0067879567 1.1204141 -0.54960465 0.299837 -1.0577508 0.62754047 1.3627317 0.6546728
-0.055133477 -3.146245 -1.0746118 0.6998789 4.028774 -3.335146 1.5090656 2.015344
-2.1867428 1.5395266 -0.89510125 -0.896568 -0.14468695 2.7351012 2.8427722 -1.5646095
-0.049440466 1.3200895 -1.1337231 0.10873397 1.3276885 2.322973 2.4434338 1.8437126
-2.4562685 -0.43890312 0.029684331 -1.894282 -0.11838416 0.8970132 2.7697544 -2.056339
1.3361124 3.1867642 -0.12694988 -0.6818554 -0.40905058 -1.5422525 2.5107512 1.6620237
-0.014693327 2.019019 1.6502237 0.96538085 -1.6518861 1.059813 0.9687426 -1.1841247
0.83760446 0.22084063 0.17999375 3.0775425 3.1242619 -2.474926 1.5726117 1.8131431
-0.40230954 -0.4138294 -1.5919615 0.9307924 1.2463604 -0.2107399 -2.274654 -0.4373422
1.5784216 2.469608 0.043220643 0.49072722 -2.5221224 0.82333726 -0.6382487 2.1207016
2.0984428 2.5690763 -1.2547989 0.3610653 0.786633 -0.48621136 -1.7126745 -2.6448758
0.70280963 -0.29923058 1.5361212 -0.723541 0.17634192 -1.5400691 -1.1218736 -0.27244186
0.13127032 1.2085483 -1.769239 -0.8923628 -2.103726 -1.7786064 0.81406695 0.014335328
0.29487222 1.4866356 1.2469935 1.5882933 -2.6554391 2.0006878 1.002435 1.5873176
-0.40507886 2.6961818 -0.074884586 0.83110785 -1.5620921 -1.8894908 -1.9031609 1.439489
-2.1734974 -0.954813 1.011788 -0.7728755 1.9825876 -1.8181058 -0.7773153 1.488953
-1.6193137 -0.76719606 -2.922498 0.992296 0.41405928 0.53788173 1.8313144 -1.7165471

layers.1.weight f4 [256, 256]
00000000: a9ef 813f 91c2 20bd 6b19 38bd 211d 84bd
00000010: 40cc cebe a6f2 11bf 55e5 75bd 9fa9 ef3e
00000020: e586 793f cdfb e5bd e515 a9be 8112 2a3d
00000030: b74b 8c3e 7ac3 1cbf 2401 0e3f b361 1bbe
00000040: 6370 923f 96ff 2e3f 6dee 843e 6b3c 923f
00000050: fa76 1b3f 3f48 243e 4c32 7f3f 4ce3 8bbf
00000060: a7de 05bd 1714 29bf 9c4b 2a3e 7050 723e
00000070: d905 18bd 9c49 3abf 29b0 0b3f 78f4 9cba
00000080: 42d3 893e b72f 26be 3720 85bd a3f4 14bf
00000090: adc8 36bf 8e1d 9f3f 232f 413f 730d 7bbd
000000a0: ee19 bbbe 45f4 dfbe e544 cdbc 6ac2 bcbe
000000b0: be52 813f 92e3 76bd 5c05 96bd e4ce 223e
000000c0: 3131 013f 3c51 4d3d 9d84 81be 7548 cabe
000000d0: dee6 f23e a10c df3e 5537 49bf 04fa f1be
000000e0: c76b bdbe 64ff 103e 7caa babf 9c1a 78bf
000000f0: 99dc 2a3d f573 c9be 886d 18be 4394 0f3f
00000100: e796 7a3f 0e2b 39be 9125 ce3e 6c67 8f3f
00000110: 6e78 ed3e 6cc1 d63e 9399 5e3e 3bfd 9c3e
00000120: 3ddc 9fbf 0d59 0cbd 1c7a 973e dc4d d0be
00000130: 182f ed3e 117e 813e 63c9 553e 3f11 663f
00000140: d0a2 df3d 9cc3 933f 3f69 263f 5dba 063f
00000150: ea75 a6bf 8fbd 2d3e 0480 01be 1ebc 6f3e
00000160: 2657 d3bf 8c5b 4abe 3555 0dbd 7562 54bd
00000170: aeec 8abf 0c53 b3be df29 193e a766 4f3e
00000180: 4d8b 163f 8c6b 61be 9bfe 4f3e 19ab 1d3f
00000190: dad6 80be 6b75 14be 5c30 26be e12d ca3d
000001a0: 745d 483d 614a 49bf 7c78 383e 134e 54bd
000001b0: eedd 89be 18e6 0a3f bd77 473f 8dbb cf3d
000001c0: af2c 533d 7c94 03bf 6d90 3ebe cc3b 56be
000001d0: fe9c f03f 7934 cb3e 589e 833e 8aa5 193e
000001e0: 536c 4cbf f11e c9be d6e4 3abe 85c3 df3e
000001f0: b358 af3f 2613 1a3f 6a2d 7d3e a6f4 b3bd
00000200: 2219 06bf aeec d73e 4f0d 7a3e b3d7 8f3e
00000210: dbc7 e33e 96c3 06bc b442 033f a07a 713d
00000220: 5338 873f dc3a 5c3f 895b 77bf fef0 843f
00000230: 22fc ae3e 5eaa 363f dec0 31be 8df8 ddbe
00000240: b55d 0a3d 1e0b 05be 6d4d 39bf f1bb d43d
00000250: 8d02 6a3d a7df 2fbf d9ee 82bf 8d2d 833f
00000260: 0672 153b f95f a93f 2d61 12bf 42f8 6cbe
00000270: 62b0 5cbf 7506 073e e5ea 35bf 867a 833f
00000280: 1725 c93d 8e31 513f dad4 d43e b3f7 173f
00000290: a85e 0ebf 12dd 723f 34e4 26be bba1 24bf
000002a0: 623d 21bf 09a7 013f d942 74be 7be0 253f
000002b0: faea 033f 8c40 c0be 30b7 593f 6281 86bf
000002c0: f0bc 8e3d 87c7 463f c6de 22bf 087f e8be
000002d0: bb4a 0abe cc47 6a3d 284c 52be db2c 3bbf
000002e0: 96cf 553e db58 fe3e 5a62 aebd fd23 0ebe
000002f0: 6b18 12bf 7528 b93d 65ab 0a3e d24e a83e
00000300: ff9d 18bf 4cf3 b23e 133f 5cbf fe1f 26be
00000310: e7ef 87be af8f c1be aef2 f33e 48fa 24c0
00000320: b1d8 7abe 8f61 68be a006 2dbf 0ded 75be
00000330: e74f 1a3f d111 08bf 030c 6abf 29cf a53e
00000340: 928b 993f 2a12 f33d 886c 8d3e 2401 263e
00000350: c293 f5be 3055 163f 0af9 363f 1e1d 7b3e
00000360: 7bd4 a83e 4b76 a53f 55d7 b63e 4499 b9bd
00000370: 810a e9be fe52 7c3d 315e ddbe e2a4 0abe
00000380: 8c69 ba3e e04c 913e 162d b43d 0def 72be
00000390: 7ea4 bfbe 6929 463f 8e52 a73e eeeb 88be
000003a0: 8447 203f 311e 403e aceb f0bc 18da 703e
000003b0: dbd2 143f fc85 4b3e 9930 3e3f 60b5 003f
000003c0: 660a 6f3e 6271 3cbf 3487 3bbf 17e3 86bf
000003d0: 3a92 683f 028d d93e d14c 933f 44cc 973e
000003e0: 7c89 66bc d297 353f 8040 49be 105a 1ebd
000003f0: 63fb 5c3e f7e8 03be 3674 2e3f dbbd 61bf
1.0151263 -0.039248053 -0.044946115 -0.064508684 -0.40390205 -0.5701088 -0.06003316 0.46809098
0.9747146 -0.11229668 -0.33024517 0.041521553 0.27401516 -0.61235774 0.5547049 -0.15173988
1.1440548 0.68358743 0.25963154 1.1424688 0.6072842 0.16043185 0.9968612 -1.092874
-0.03268304 -0.6604628 0.16630405 0.23663497 -0.03711495 -0.7276857 0.54565674 -0.0011974713
0.2691899 -0.1622914 -0.06500285 -0.58185786 -0.71399957 1.2430894 0.7546255 -0.061292123
-0.3654322 -0.4374105 -0.025057266 -0.36867076 1.0103376 -0.06027562 -0.07325241 0.15899235
0.50465685 0.0501263 -0.25296488 -0.39508405 0.47441763 0.43564323 -0.78600055 -0.4726106
-0.3699629 0.14159924 -1.4583278 -0.969156 0.041714285 -0.3934628 -0.14885533 0.56085604
0.9788651 -0.1808283 0.40263036 1.1203437 0.46380943 0.41944444 0.21738271 0.3066195
-1.2489086 -0.034264613 0.2958535 -0.40684402 0.46324992 0.25291494 0.20877604 0.89870065
0.10919726 1.154407 0.6500434 0.5262812 -1.3004735 0.16966842 -0.1264649 0.23411605
-1.651097 -0.19761485 -0.034505088 -0.05185171 -1.0853479 -0.35024297 0.14957379 0.20254003
0.58806306 -0.22013682 0.20311968 0.615892 -0.2516392 -0.14497916 -0.16229385 0.09872032
0.04891725 -0.7862912 0.18014711 -0.05183227 -0.2692713 0.54257345 0.7791708 0.10143194
0.051556285 -0.51398444 -0.18609782 -0.20921248 1.879791 0.3968847 0.25706744 0.15004554
-0.7985279 -0.3928142 -0.18251356 0.43703857 1.3698944 0.6018547 0.24724355 -0.08786897
-0.523821 0.4217276 0.2441914 0.28094253 0.44488415 -0.008225342 0.51273656 0.058954835
1.0564064 0.8602731 -0.96624047 1.0386045 0.34176737 0.7135371 -0.17358729 -0.43353692
0.033780772 -0.12992522 -0.7238377 0.103874095 0.05713134 -0.6870064 -1.022914 1.0248276
0.002280356 1.3232414 -0.5717953 -0.23141578 -0.8620664 0.13186057 -0.71061546 1.0271766
0.098215275 0.8171624 0.41568643 0.59362334 -0.55613184 0.94868577 -0.1629799 -0.6430928
-0.6298429 0.506455 -0.23853625 0.64795655 0.5153042 -0.37549245 0.85045147 -1.0508235
0.06969631 0.77648205 -0.63621175 -0.45409417 -0.1350507 0.057197377 -0.20536864 -0.7311532
0.20879969 0.49677166 -0.08514853 -0.13880916 -0.5706851 0.0904092 0.13541944 0.32872635
-0.5961608 0.34951246 -0.86033744 -0.16223142 -0.26550218 -0.37804934 0.47646087 -2.577776
-0.24496724 -0.22693466 -0.67588234 -0.24016209 0.6027817 -0.53152186 -0.9142458 0.32384613
1.1995718 0.11868699 0.27621865 0.16211373 -0.47964293 0.58723736 0.71473753 0.24522826
0.3297461 1.2926725 0.3571116 -0.09062436 -0.45515826 0.061602585 -0.43235925 -0.1353946
0.3640865 0.28378963 0.08797662 -0.23724003 -0.37430185 0.77406937 0.32680172 -0.267425
0.62609124 0.18761517 -0.029409252 0.23520696 0.5813424 0.1987533 0.74292904 0.50276756
0.2334381 -0.7361051 -0.7325318 -1.0538052 0.90848124 0.42490393 1.1507818 0.2964803
-0.014070865 0.70934784 -0.19653511 -0.03866011 0.21580271 -0.12881838 0.68146074 -0.8818032

layers.1.bias f4 [256]
00000000: 2512 373f 83bf 2bbd df7b 4d3f 1c52 aa3e
00000010: a9dc e53e c91b 893d 092a d13e 5aa1 243e
00000020: e167 36bf 1f8e 833e 056d 15bf 9073 7f3c
00000030: 42a9 70bd b1c4 5b3f 6d43 1dbe 90d1 983e
00000040: bd1d 3ebf f08c e0bd 34a1 493f 539f ebbe
00000050: dca3 7b3e 9cbf 99be bab2 7bbf b5fe f63d
00000060: 0186 77bf 2539 18bf adcc 25bf dc46 ca3d
00000070: a15b 6c3f cac7 303f 5351 843f d1e2 233e
00000080: ad5d 853e b250 1ebf 4748 10bf ff1f fb3e
00000090: 8b81 3d3f 0609 7b3f 2a35 24bf e667 25be
000000a0: c6cd e1bd 887e de3e 0157 3dbf 25a1 3bbf
000000b0: 0db7 483f adef 8a3f 02fe 603e 8a67 143f
000000c0: e02d 753e ce06 673e 5623 58bf 60ef d13d
000000d0: fdfe a83d f2bb 18bf bb71 673f 10d9 8bbf
000000e0: 25b5 1a3e 5a0f 03bf a63c 5cbc bae3 9fbe
000000f0: 8f0b 783e 02ec bf3f a5da 433f 61fa 863f
00000100: cb20 4bbf 0cf3 febe 7a2b 58bf e65e 2fbf
00000110: 313c ea3e 4579 dd3e 7134 5abf eec0 363f
00000120: 6e2c 58be 50d6 103f 8f7d 0a3e f779 893d
00000130: 1a70 043f 329d 383e 3f2d 4cbf 7af8 97bf
00000140: 8a30 07be 7956 8fbf 14a5 4c3f 8943 a8be
00000150: 2d30 25bf 88bd 943e 934b 54bf 5827 b43e
00000160: c616 49bf e4c3 823f f142 1c3f 4433 463f
00000170: 0d9f 6fbe b6e5 953e 78e2 48be ab51 0b3e
00000180: 84e9 a83a b8c9 bebe 2838 33bf d650 5cbd
00000190: 7136 8dbf 0b8d e7be a8c8 fc3e 441d adbf
000001a0: b112 49bf a1f1 2b3f be41 0c3d 5c9d 72be
000001b0: 7a70 b83f 4c6c c7bf 4674 7abd aaa6 243f
000001c0: 2d8c 8ebf 32f7 f03e 5028 ae3e a0f4 c73f
000001d0: 6ecd 243f ec9d 29bf 53ac 853e 8c45 fabe
000001e0: 1d13 f93d 2a2c e33e 1b42 223e d0a3 343f
000001f0: ac4a 493f 00f4 ba3f 4105 c13f 8f69 d03d
00000200: 6e79 b83e 3005 4d3e 00c8 eebe 1124 7e3f
00000210: 4041 17be c5e6 1dbf d2cd d53e 0b7b a8bd
00000220: 8e13 f4be 7b24 253f 0204 703f 2d8c a23f
00000230: fe86 a3bf 2726 29bf 2ba0 13bf bb6f fcbe
00000240: 9b33 b33e 6ffa a03d 4528 d93e c326 223f
00000250: bd86 963f 8132 35bf 9f43 f3be e7e2 8bbf
00000260: c29c e8be a4a1 a43d 08b2 21bf c5c9 f1be
00000270: 290d cd3e aea3 2b3f 1c41 fe3e 82df c0bf
00000280: 5026 12bf d2e5 ca3f 9d75 a23f 0956 a1be
00000290: e6ca f13e 8a51 f13d 447f 563f 4e67 70bf
000002a0: e319 753f 4718 0cbe b22b 94bf bcf3 9abe
000002b0: a69c 3e3f 66d7 5f3f 4151 c23f 0ce8 6abf
000002c0: 9c63 91be cddf 84be 12db d7bf 77ff a3bf
000002d0: a155 96be e34e 65bf 85f9 a3bf 222a 9dbe
000002e0: be60 e33e 4c63 c93d 6a3b 1a3f 2b51 943d
000002f0: 80a9 743f 76d8 ef3d 98ee 98bf c7c0 33bf
00000300: 49e1 6f3f 0e13 9a3f 9b09 d4bf 9b42 5ebe
00000310: 3078 efbd bab4 dc3e 72b9 a0be b17f 6d3e
00000320: 1a1d 983f 295d cdbf f298 553b 7d54 97be
00000330: de71 8c3e 5174 56bf 2b96 0c3e 7283 ca3f
00000340: fad4 ab3e cc83 eb3e d041 c23d 221e 9b3e
00000350: aed7 e53e e977 003e 5818 923e d244 15bf
00000360: ad2e 61bf 3f8a 0a3e b768 f33d 8d9a 6abf
00000370: 745a 74bf 383a 463e 9eb8 53bf 2ac3 b5bd
00000380: 1e69 4f3f ef00 153f dae4 003f 4462 74bf
00000390: 2b4a 3bbf 65f3 bebe 002a 493f 8e5d 7ebf
000003a0: 66d8 bfbe 734f a23f 7120 633f 2216 063f
000003b0: 8a1b a2be 1086 313f 81f1 733e bcf0 95bc
000003c0: c93c b7be 27f3 5f3d ca91 973e 9b39 44bf
000003d0: f34c eabd b9ba 8cbf 97c8 e3be 01db bebe
000003e0: 4d83 d03d b13d 86bf 17a1 533f 0680 44bf
000003f0: 0e57 5b3f 7984 0ebe a0ec 17bf 75a9 8ebe
0.7151206 -0.041930687 0.8026714 0.3326577 0.44894913 0.06694753 0.40852383 0.16077176
-0.71252257 0.25694367 -0.58369476 0.015591517 -0.058755167 0.85847 -0.15357752 0.29847383
-0.74264127 -0.10964382 0.787616 -0.46019992 0.24574226 -0.30029 -0.9831959 0.120603
-0.9668885 -0.59462196 -0.64765435 0.098767966 0.92327315 0.69054854 1.0337318 0.16004492
0.2604803 -0.6184188 -0.56360286 0.4904785 0.7402579 0.98060644 -0.6414362 -0.16152915
-0.11025576 0.4345591 -0.7396088 -0.7329276 0.78404313 1.0854393 0.21971896 0.5797049
0.23943281 0.2256119 -0.8442892 0.10250735 0.0825176 -0.5966178 0.90407914 -1.0925617
0.15108164 -0.511953 -0.013442194 -0.3122843 0.24223159 1.4993899 0.765055 1.054516
-0.79346913 -0.49794805 -0.8444134 -0.6850418 0.45749047 0.43256584 -0.8523627 0.7138814
-0.21110699 0.56577015 0.1352446 0.06712716 0.51733553 0.18028715 -0.7975654 -1.1872704
-0.1320211 -1.1198264 0.7993939 -0.32864025 -0.64526635 0.2905085 -0.8292782 0.35186267
-0.78550375 1.0216031 0.61039644 0.77421975 -0.23400517 0.29276818 -0.19617641 0.13605373
0.0012886976 -0.37263274 -0.7000756 -0.05378803 -1.1032239 -0.45224795 0.4937184 -1.3524556
-0.78544146 0.6716557 0.034242384 -0.2369284 1.4409325 -1.5579925 -0.061146043 0.6431681
-1.1136528 0.47063595 0.3401513 1.5621529 0.6437596 -0.66256595 0.26108035 -0.48881185
0.12161849 0.44369632 0.1584553 0.7056246 0.78629565 1.4605713 1.5079728 0.10176384
0.36030143 0.2002151 -0.46636963 0.9927378 -0.14770985 -0.6168025 0.4175859 -0.082265936
-0.4767117 0.6450879 0.93756115 1.2699028 -1.2775571 -0.6607384 -0.5766627 -0.49303994
0.3500031 0.078602664 0.42413536 0.63340396 1.1759869 -0.7078019 -0.47512528 -1.092862
-0.45432097 0.08038643 -0.6316228 -0.4722425 0.40049103 0.6704663 0.4965905 -1.5068209
-0.5708971 1.5851386 1.2692143 -0.31510952 0.47225112 0.117831305 0.8378794 -0.9390763
0.95742625 -0.13681136 -1.1575835 -0.3026408 0.74457777 0.87438047 1.5181047 -0.91760325
-0.28396308 -0.25951996 -1.686373 -1.2812337 -0.29362205 -0.89573497 -1.2810522 -0.30696207
0.44409746 0.098333925 0.6024691 0.07242044 0.95571136 0.117112085 -1.1947813 -0.7021603
0.9370313 1.2037065 -1.6565431 -0.21705095 -0.11692846 0.43106633 -0.31391484 0.23193242
1.1883881 -1.6044055 0.0032592383 -0.29556647 0.27430624 -0.83771235 0.1372916 1.5821364
0.33560926 0.4599899 0.09485209 0.30296427 0.44891113 0.12545742 0.28534198 -0.58308136
-0.87961847 0.13529299 0.11885207 -0.91642076 -0.9545052 0.19358146 -0.8270358 -0.08875115
0.8101977 0.5820455 0.503492 -0.9546244 -0.73160046 -0.3729507 0.7857971 -0.99361503
-0.37469786 1.2680496 0.88721377 0.5237752 -0.31661636 0.6934519 0.23822595 -0.018303268
-0.35788563 0.054675248 0.29603416 -0.766504 -0.11440458 -1.0994483 -0.44488975 -0.37276462
0.10181294 -1.0487577 0.8266768 -0.7675785 0.8567971 -0.13917722 -0.59345436 -0.2786366

value_stream.weight f4 [1, 256]
00000000: 6c33 073e fb72 0ebe 2ebf aa3d 84e2 283e
00000010: 180f 4f3f be50 3dbe 1e41 6dbe 056d 473e
00000020: 2a3a 97be b8a3 16be 5248 cfbd a578 103e
00000030: c7d9 aebe f132 8d3d 680f bebb 8e89 36be
00000040: 16a8 3dbe a6d5 043e 2ec1 7cbd b8b0 533f
00000050: 43a4 613e c5c6 cbbe 55e5 adbe 5cda 3e3e
00000060: 3134 4ebe d06b d4bd f3c5 77be b480 5b3e
00000070: 3220 093d e652 b73e 7cbc 453e d164 203e
00000080: 7bf2 54be ca00 65be 2f77 80be 0311 5d3e
00000090: 1b99 92be 025b 433e fe4d 0bbf 25c6 4c3e
000000a0: a3bb 933e 49c7 1b3f 3f7e d9be 44fe b23e
000000b0: 50cd 8a3d 4ba8 e73d 1040 8d3e bb7c 983e
000000c0: 5c1d a4bf 3370 8d3e 3eaf 6fbe 3ad5 22bf
000000d0: d6bb b63d e66f b23e adfc 043e fc02 2abe
000000e0: e8b8 44bf ef71 4b3e 1a40 25be 502c 3bbe
000000f0: 4432 62be 7d50 163e e0fa f93e 9bd5 e63e
00000100: 292b 8bbe c622 c6bd f360 46be 1c50 30be
00000110: c681 7d3e ae6b 7ebe 0163 46be 5b27 c5be
00000120: b43e 933e 240f 563e 0166 a03e 4628 b23e
00000130: acea 533f b9fc 36be 0395 0f3f 2be1 cfbe
00000140: eb32 08be 1bd9 09be 20c3 233e d4d7 383e
00000150: a169 a0be 786e fb3d 2f25 9d3e 18fa de3d
00000160: 003b c73e f8c6 023e a78f b6be 2ea1 3c3e
00000170: 18c1 e1bd e7f8 7abe a1a3 62bd 7d0e ecbd
00000180: eb1d 6d3e f2df 2f3e d991 80be 10c9 063e
00000190: 20bb 3d3e 2f7f 35be 50ad b53e ceb2 93be
000001a0: 4b29 073d f379 bf3e 7f6a 413e f853 7ebe
000001b0: 3668 ab3e 64b5 793d 99b0 e73d a640 2d3e
000001c0: 3cac a1be 10cc a6bd f711 72be 8f85 28bf
000001d0: 32ae 313e f63b 71be b266 90be 1c91 5d3e
000001e0: eb1d 5dbe d3ac 623e 611a 873e 4053 6f3e
000001f0: 18cc 883f 4fef f33e f952 e63e f446 5a3e
00000200: 8841 d8be 7898 0b3e 1900 7f3e 8fe9 a63e
00000210: 3018 7bbe ebec 8c3e 14a0 b63d 21e8 133f
00000220: 8e44 63be 03ae c23e 51f9 833e c970 e9be
00000230: 2e9c b2bd 6d39 4ebe 8a9b 883e 392a e5bd
00000240: ac53 2b3e 0a3d 9abe f2d4 12be 8a58 1e3e
00000250: 1673 383e 5830 29be dafd 65be bbf0 0ebe
00000260: 8e18 aabe 29a7 38be 135b d83e fad3 493e
00000270: 7749 173e 566f cebe acb8 d33d 76a8 c93e
00000280: 0e71 883e 75eb d43d 700e 293e 1008 e0be
00000290: 01d1 3fbe 7bbd 95be ce1b bc3e 1131 eebd
000002a0: 0679 5c3e d446 123e 6c51 f4be 9c5f 5d3e
000002b0: b9f3 853e c01f bc3e 5c1f 403e e07a 7cbe
000002c0: db6e d7be 002a 3f3f 602d afbc bea7 9b3e
000002d0: 8720 7fbe ccd2 903e ed79 113f 1f7e 613e
000002e0: f3a9 153e 8fd6 b53e 6902 ea3d 1dc0 953e
000002f0: 7d90 17bf f93a 4a3e 0fa2 6fbe 830e 62be
00000300: 9908 1dbe 1e46 b3be 0b1d 073f e5e1 753e
00000310: 2bc3 df3e bd6d c83d ed01 d0be 98c4 233f
00000320: a031 fe3e e178 54be 4074 5fbf 12e9 d73e
00000330: 4153 af3e ba9c c13b 9b1b 073f 24df 443d
00000340: 59e8 aa3e f897 1b3e 02c0 ba3d ad39 8c3e
00000350: 209b ae3e 6599 893e da32 94be 74bb 25bf
00000360: 2130 4a3e 44c7 af3c 11cd 483e d65b 023e
00000370: 9454 eb3d aaa2 1dbe c451 edbe d85b bd3e
00000380: 4e94 e13d e597 5b3e 26ae af3e 6659 863e
00000390: 86db ddbd ff16 983e bd53 e2be fefc 323e
000003a0: 273a 82be b590 4c3e 2753 263e 789c 5abe
000003b0: 7449 533e e202 17bf cb97 acbd 5f55 a6be
000003c0: 4ea1 5bbe 59cb 7ebe 74aa a13e 9792 18be
000003d0: 892b 783e 20f8 da3d e510 613f 0c6c 95bf
000003e0: 080d bfbe 27c9 81be 0be0 89be 1c03 90bf
000003f0: 3443 053e b52e ec3d 39c2 9bbe 38f2 2ebe
0.1320321 -0.13911049 0.08337246 0.16492659 0.80882406 -0.18487832 -0.23169371 0.19475181
-0.29536563 -0.14710891 -0.10121216 0.14108522 -0.34150526 0.06894482 -0.0058001764 -0.1782591
-0.18521151 0.12972125 -0.061707668 0.82691526 0.22035317 -0.39800087 -0.3396403 0.18637985
-0.20137097 -0.10372126 -0.24196605 0.21435815 0.03347797 0.35805434 0.19310182 0.15663458
-0.20795624 -0.22363582 -0.2509093 0.2158852 -0.28632435 0.19077685 -0.5441588 0.19997461
0.28854093 0.6085096 -0.4247913 0.34959614 0.067774415 0.11311396 0.27587938 0.29782662
-1.282146 0.27624664 -0.23406693 -0.6360661 0.089225456 0.34850997 0.12987013 -0.16602701
-0.76844645 0.19867681 -0.16137734 -0.18278623 -0.22089487 0.14679141 0.48824215 0.45084843
-0.27181366 -0.09674601 -0.1937292 -0.1721806 0.24756536 -0.24845764 -0.19373704 -0.38506588
0.28758776 0.20904213 0.31327823 0.3479635 0.82779956 -0.17869844 0.5608675 -0.40601477
-0.13300674 -0.13461725 0.15992403 0.18051082 -0.31330588 0.122769296 0.3069243 0.10887545
0.389122 0.12771213 -0.35656473 0.1842086 -0.11023158 -0.24509011 -0.05533183 -0.11526201
0.23155944 0.17175272 -0.25111273 0.13162637 0.18528414 -0.17724298 0.3548379 -0.28847355
0.032998364 0.37397727 0.18888281 -0.24836719 0.33477944 0.060964003 0.1131298 0.16919193
-0.31576717 -0.081443906 -0.23639666 -0.65828794 0.17351606 -0.2355803 -0.2820335 0.21637386
-0.21593444 0.2213624 0.26387313 0.23371601 1.0687284 0.47643515 0.44985178 0.21316129
-0.42237496 0.13632381 0.24902381 0.32600066 -0.24520946 0.27524504 0.08917251 0.57776076
-0.2219412 0.38023385 0.2577615 -0.4559386 -0.08721195 -0.20139094 0.26681167 -0.11189694
0.16731137 -0.30124694 -0.14339045 0.15463462 0.18012652 -0.16522348 -0.22460118 -0.13959019
-0.3322186 -0.18032517 0.42256984 0.19709769 0.14774118 -0.40319318 0.10337958 0.39386338
0.26648754 0.10396472 0.16509414 -0.4375615 -0.18732072 -0.29246125 0.36739963 -0.116304524
0.21530542 0.14284831 -0.4771837 0.21618503 0.26162508 0.36742973 0.18761963 -0.24656248
-0.42076764 0.7467346 -0.021383941 0.30401415 -0.24914752 0.28285825 0.5682667 0.22020768
0.14615612 0.35515258 0.11426241 0.29248133 -0.59204847 0.19749059 -0.23401664 -0.22075848
-0.15335311 -0.35014433 0.5277869 0.24011953 0.4370359 0.09786556 -0.4062647 0.63971853
0.49647236 -0.20749237 -0.8728676 0.42170006 0.34243205 0.005908576 0.527765 0.048064366
0.33380392 0.1519469 0.09118654 0.27387753 0.34102726 0.26874843 -0.28945047 -0.64739156
0.19744922 0.021457322 0.19609477 0.12730345 0.11490741 -0.15394083 -0.46351445 0.36984134
0.11014615 0.21444662 0.34312552 0.2624008 -0.108328864 0.29705045 -0.44204512 0.17479321
-0.25434992 0.19977076 0.16242658 -0.2134875 0.20633489 -0.58988774 -0.0842739 -0.32487008
-0.21448252 -0.24882258 0.31575358 -0.1489967 0.24235357 0.10691857 0.87916404 -1.1673598
-0.3731463 -0.2534878 -0.26928744 -1.1250949 0.13013917 0.11532346 -0.30421618 -0.17084587

advantage_stream.weight f4 [20, 256]
00000000: ccb8 c03d b18f 3b3d e8ac a3bc c7af 18be
00000010: ef4f 133d 6b60 5abe d903 6bbd b015 4a3c
00000020: c222 923d 7df2 82bd eb33 92be 79db 79bd
00000030: cdb0 633d b56b 83bc 6e50 bebd 6643 babc
00000040: 4b9c 5b3d b664 0b3e 48ee de3c 153c 713d
00000050: 9b09 31bc 2be8 45bc dfb8 b4be 68af a83e
00000060: 2e37 55be 1e1c 37bd 68fd 8ebd 37f3 e63d
00000070: cc90 863e 3bc3 ebbd f0ef 013e 8150 7abd
00000080: 9bdd 3abd 8a8c 2e3b 8e8b d43d c754 fb3d
00000090: 00d8 7ebe c070 0c3e 0549 11ba 2b11 5ebe
000000a0: dd7a 153e a52e fb3e 82ac 843d bdc4 0fbd
000000b0: c2d4 9e3d 3b70 92be e505 eb3d b698 9abd
000000c0: e7df 943d fe70 783d 98ea 30be 286e b0bd
000000d0: a493 a83d e7b8 763c fed2 953c 23c9 adbe
000000e0: c5c0 ce3b c704 e2bc 4678 493c 9a52 51be
000000f0: 7a57 60be bce1 8cbc a684 e83d 2b41 b83c
00000100: 913f 453d e5ec ea3c 5019 adbd aa40 3e3d
00000110: c6ac a93e 221e 90bb 518f 08be fc53 133d
00000120: 9e86 383e b854 223e 0b7e 68bd 8dc5 e43d
00000130: e3ce eb3d 8e9b b1bd 8f36 483d 636a edbe
00000140: b3fa 62bd e83a abbe 31fd cf3c 1230 22bd
00000150: 002f eb3c 9bcf 2f3e c5ca ef3d 96b5 4e3d
00000160: b23e 2d3d 1903 08be 41ca 2abd 385a b63e
00000170: 93ce 53bd b9ae 093e 30eb ec3b ca90 773e
00000180: 62b6 d5bc 6607 78bc 4983 0f3e 3e92 d63d
00000190: 9697 403e f55f 9dbd c246 8fbd 5b47 063d
000001a0: 7168 50be d769 133e 6d1c ba3d e7e9 df3d
000001b0: 3908 debc 7986 2c3e c678 9f3d 7e06 83ba
000001c0: 0c87 18be 013a 99be 12e6 7abe 2319 acbe
000001d0: 8375 5ebd 3eb5 cabc dfda 70bd 2401 283e
000001e0: f3b1 513e f26b 37be de4c 3fbe f346 133d
000001f0: d949 54be 1726 37be 21c8 3abd ef09 25bd
00000200: 45ce c0bc f268 de3c eeda 873e 30d9 dd3c
00000210: a6a5 48bd 0d34 933e 1f96 593e 722c c13c
00000220: 874b ba3d f190 433d 5fbc 1bbe 8a5f 4ebe
00000230: 9e26 3f3e f7c9 2fbd e189 7c3e cde5 263c
00000240: e15b 943c 81ce c1bd 0e0f 0f3e 23f6 323e
00000250: 4fd9 33bd e270 d1bb 2261 ca3b 56f5 173e
00000260: 6147 0dbd 850e 0cbd a48b 75be 00bf 71bc
00000270: 2fee 213e 1860 943e 6177 b6bd a3ec 3bbe
00000280: c60b 003e 0849 683d a9a8 403b b842 5fbe
00000290: e823 a2be c8da f13d 7015 e43d d36a 623c
000002a0: 2c4f 9c3d ff63 f5bd 18ed a4bc b72d febd
000002b0: 865d 4c3d a9b6 12be 81fd 56bd 09c9 fd3d
000002c0: f758 a1bc 5ba8 843e fa56 8ebe 0e65 133e
000002d0: 2a3b 20bc 1e27 183d 3efc eb3d df58 e03c
000002e0: f154 bd3d fdb1 603e 5331 6f3d f757 5c3c
000002f0: 29c0 cabe 4ae8 5e3d c0c3 c7bc 91b9 d8bd
00000300: 5ede 92be b4a8 03be 6353 c63d a598 99bd
00000310: e82b 82bc d035 96bd ca3a fbbd 5f86 c4bc
00000320: 0485 e6bd dc1f 0d3d 53f3 2a3f 9714 fa3d
00000330: a043 183e cd74 0bbd 68e9 a9bc f2df 7f3b
00000340: d085 893e e812 823d 572e 17bd 88bc 82be
00000350: 0ee3 673e fb92 1b3e 2f9a fbbd 3adb 313e
00000360: fc78 7f3e f00e 77be 2a9c 40ba 28b2 3fbd
00000370: 61ae adbc 4898 62bd 5cd2 12be 7ce6 7b3e
00000380: 5a9d b6ba f591 eebc 66e3 8cbe 69ea 153d
00000390: cf80 f7bd 0eee 9f3e 7bf0 303c 5ef2 193d
000003a0: 2932 17be a27a 043e 1c5e 343e 6a76 893e
000003b0: ff14 b7bd d8b2 09be 6deb 253e a28f a9bd
000003c0: 40f5 45be 6eec adbc ed92 08be 5be5 2a3e
000003d0: 8b87 903c 0b1a 5f3e 28aa bf3d afe2 52be
000003e0: 9211 3f3d 0ddc 37bd 42ef 2cbd 0bf6 083e
000003f0: e71b 9f3c 3c19 843d 34d1 293e 1c4d cf3c
0.09410247 0.04579133 -0.019979909 -0.14910804 0.035964902 -0.21325843 -0.057376716 0.012334272
0.07135536 -0.06393907 -0.28555235 -0.06100032 0.055588532 -0.01604257 -0.092926845 -0.022737216
0.05361585 0.13612637 0.02721323 0.05889519 -0.010805513 -0.012079279 -0.35297295 0.32946324
-0.2082183 -0.04470455 -0.06981927 0.11276858 0.26282346 -0.11511847 0.12689185 -0.06111193
-0.045621496 0.002663406 0.103781804 0.12272029 -0.24887085 0.13714886 -0.0005542192 -0.21686237
0.1459765 0.49059024 0.06478216 -0.035099734 0.07755424 -0.2860125 0.11475734 -0.075486585
0.072692685 0.060654633 -0.1727699 -0.08614761 0.08231285 0.015058733 0.018289085 -0.33942518
0.006309601 -0.027590169 0.012296742 -0.20441666 -0.2190837 -0.017197482 0.11353426 0.022492012
0.048156325 0.028677413 -0.084520936 0.046448387 0.33139628 -0.0043981234 -0.13335921 0.035968766
0.18020102 0.1585263 -0.05676083 0.11170492 0.1151407 -0.08672248 0.048880156 -0.4637023
-0.055414867 -0.3344338 0.025389286 -0.039596625 0.028708935 0.17169039 0.11708597 0.050466143
0.04229612 -0.13282432 -0.04169679 0.35615706 -0.051710676 0.13445558 0.007230185 0.24176326
-0.026087943 -0.015138483 0.14014925 0.10477112 0.18807825 -0.07684318 -0.06995918 0.032782894
-0.20352341 0.14395843 0.09087453 0.10933285 -0.02710353 0.16848172 0.077867076 -0.0009996442
-0.14895266 -0.29927066 -0.24501827 -0.33612928 -0.054311287 -0.024744626 -0.05880248 0.16406685
0.20478038 -0.17912272 -0.18681666 0.035956334 -0.20731296 -0.17885624 -0.045601014 -0.040292677
-0.023535857 0.027149651 0.26534218 0.027081102 -0.0489861 0.2875065 0.21248673 0.023580763
0.09096437 0.04774565 -0.15208577 -0.20153633 0.18667075 -0.042917218 0.24661972 0.010186625
0.018110218 -0.094632156 0.13970587 0.17476706 -0.043908413 -0.0063916305 0.00617613 0.14839682
-0.0344919 -0.034193534 -0.2397905 -0.014755011 0.15813516 0.28979564 -0.089094885 -0.18351988
0.12504491 0.056710273 0.0029397404 -0.21802795 -0.3166802 0.11809307 0.111369014 0.013819414
0.07632288 -0.11981963 -0.020132586 -0.12411063 0.04989388 -0.14327492 -0.052487854 0.1239186
-0.019695742 0.25909695 -0.27800733 0.14394018 -0.009779731 0.03714668 0.11522721 0.027386127
0.09244717 0.21942897 0.05839665 0.013448707 -0.39599732 0.054420747 -0.024385333 -0.10582269
-0.28685278 -0.12857324 0.096838735 -0.07499818 -0.015890077 -0.07334483 -0.122670725 -0.023989854
-0.112558395 0.03445421 0.66777533 0.122109585 0.14869547 -0.034046937 -0.02074118 0.0039043394
0.26859903 0.06351262 -0.036909427 -0.25534463 0.22645208 0.15192787 -0.122852676 0.17368785
0.24948496 -0.24126792 -0.0007347489 -0.046800762 -0.021201314 -0.055321008 -0.14338058 0.24599642
-0.0013932392 -0.029122332 -0.2751724 0.036600504 -0.12085115 0.3123631 0.0107995225 0.037584655
-0.14765228 0.12937406 0.17614025 0.26848155 -0.089395516 -0.1344713 0.16203089 -0.08279349
-0.19331837 -0.021230903 -0.13337298 0.16689055 0.017642757 0.21787278 0.093586266 -0.20594285
0.046647616 -0.04488759 -0.04222036 0.13375108 0.019422485 0.064501256 0.16583711 0.025305323

advantage_stream.bias f4 [20]
00000000: f246 a6be 4d9f 553e c781 673e a26a 4c3e
00000010: ad2b 823e c74c 633e 090b dd3d 718e 27bd
00000020: 95c4 03be 904e 0a3b 81ca f43d 29b4 55be
00000030: 2d70 883c 238b e7bd dacf 6a3e 3ab6 cabc
00000040: cfc2 bc3d a421 293e e1dd d03d 9771 2abe
-0.32476002 0.2086155 0.226081 0.19962552 0.25423947 0.22197257 0.107931204 -0.040907327
-0.12867959 0.0021103956 0.11952687 -0.20869507 0.016655052 -0.11305835 0.22930852 -0.024745096
0.09216844 0.16516739 0.1019857 -0.16644894
