src/hockey-env/random_training_1/weights/episode_256.pth (torch, 307504 bytes, 7 tensors)

layers.0.weight f4 [256, 18]
0.3251212 0.29201323 -0.21080731 0.029896287 0.06933816 -0.0037656014 0.29703128 0.8785578
1.0002489 -0.043289516 -0.039978854 0.08141745 0.6183575 -0.26754972 0.858199 -0.26332626
-1.9706057 1.0969415 -0.109038845 -0.9814737 0.13039964 0.009517822 0.006331435 -0.020627296
0.9150649 -0.7225572 -0.087983035 0.102026515 -0.08904273 0.017481675 -2.236019 -0.68726736
-0.22040424 -0.10933473 0.8762262 0.58942443 -0.33767763 0.45778182 -0.25807413 -0.12224739
0.14667699 -0.0404934 1.5775983 0.046921264 0.9498749 0.13214335 -0.08576765 0.0151157975
0.2423037 -0.32033646 0.46679574 -0.0495128 0.15601446 0.35084242 0.35121906 0.21577097
-1.0237515 0.05904553 -0.042003255 -0.18770778 -0.20408073 0.108938605 0.025766417 -0.020961657
0.04556842 -0.053132713 -0.14104843 -0.18708804 0.017128821 0.01731108 0.01412428 0.045871597
-0.2770653 -0.3129476 -0.09996119 -0.10864203 -0.13665335 -0.031972297 -0.007483478 -0.83761084
0.35394195 -0.15075551 0.03627783 0.025367454 1.0060247 -0.3263379 1.0753009 -0.4807393
0.8946596 1.330486 0.45648533 0.18861865 0.61499006 0.038493853 0.013614461 -0.034385122
0.930813 -0.58275676 0.38773155 -0.014447021 -0.08497945 0.081783146 -1.0102118 -0.3892711
-0.4548889 -0.25359845 -0.1157309 -1.3826009 -0.53491825 -0.18175557 0.24939996 0.038666114
-0.06397858 -0.05458731 0.21583238 0.39436927 -0.21646935 0.12127405 -0.13380057 0.06553198
-0.39017555 1.2453871 -0.31896996 0.82212687 -0.6595241 0.23154524 -0.041692615 -2.0926723
0.17642727 0.07855238 -0.18530001 0.0001946411 -0.015357585 1.4804423 -0.45061564 -0.002045608
0.05150055 0.010647495 0.54418254 0.39055425 0.049540624 0.028122157 -1.6258956 0.14469765
0.32800418 -0.08663762 0.13368587 0.040523987 -0.08759664 -0.00073954184 0.009205785 0.4710706
0.44235018 -0.07729713 0.051837567 -0.03919884 -1.0234473 -0.062353283 -1.0466396 0.515876
-2.545241 -1.2753122 0.112850815 -0.8333816 0.030953756 0.11619967 -0.071081184 -0.023284512
-0.6041538 0.71778566 0.099110626 -0.10568852 0.32774356 0.049431853 0.119757935 0.30478722
-0.45069295 -0.21488947 -3.4103608 -0.57109874 -0.05882816 -0.465217 -0.32330668 0.07653345
-0.016459633 -0.020619938 0.4949545 0.31851742 -0.005806492 0.06466532 -0.24611953 0.08887292
-0.85047555 0.051029563 0.74738044 -0.6042607 0.33924237 0.85421824 0.21519667 0.0251923
-0.12941116 -0.07243751 -0.07243431 0.041094273 -0.5306045 1.4168752 -0.7932384 0.059933756
0.6829231 -0.008300138 0.037659973 0.18688467 -0.82014555 -0.42944854 1.138618 -1.5928987
0.2729495 -1.9803355 0.26256827 0.020508347 -0.05829879 0.05921667 -0.28748414 1.9031992
2.5660417 0.044373266 0.4291601 0.049876615 0.4156705 0.7819845 -0.16326554 0.65914387
-0.50788945 0.21235137 -0.32178596 -0.8909002 -0.050765436 -0.063528486 -0.23306023 0.0011182867
0.14683188 0.8741902 1.2122324 -0.044735383 0.07820391 0.07506757 0.21738994 -0.23897834
0.32557544 -0.3714477 0.6399057 1.3960689 0.6203838 0.22550645 -0.13994054 0.055572994
00000000: 4976 a63e c282 953e dfdd 57be 0fe9 f43c
00000010: 2a01 8e3d 4fc8 76bb 7c14 983e 2ae9 603f
00000020: 2808 803f 5950 31bd dec0 23bd 31be a63d
00000030: ad4c 1e3f 47fc 88be eeb2 5b3f b3d2 86be
00000040: cf3c fcbf 9468 8c3f c24f dfbd dc41 7bbf
00000050: 7c87 053e a4f0 1b3c ed77 cf3b 93fa a8bc
00000060: b141 6a3f 82f9 38bf 7330 b4bd 47f3 d03d
00000070: 095c b6bd bb35 8f3c ef1a 0fc0 c1f0 2fbf
00000080: a6b1 61be e3ea dfbd 5c50 603f 85e4 163f
00000090: 15e4 acbe 6162 ea3e 4b22 84be d75c fabd
000000a0: 7e32 163e 68dc 25bd beee c93f 8330 403d
000000b0: 002b 733f 9650 073e f3a6 afbd 40a8 773c
000000c0: 761e 783e 2403 a4be daff ee3e efcd 4abd
000000d0: 41c2 1f3e 9ea1 b33e fcd2 b33e 11f3 5c3e
000000e0: 4a0a 83bf bad9 713d 9b0b 2cbd 7836 40be
000000f0: 8afa 50be 341b df3d 1814 d33c c8b7 abbc
00000100: f4a5 3a3d b0a1 59bd 006f 10be 0294 3fbe
00000110: be51 8c3c f7cf 8d3c 8669 673c dbe3 3b3d
00000120: 81db 8dbe ab3a a0be 74b8 ccbd b67f debd
00000130: dbee 0bbe 62f5 02bd f737 f5bb aa6d 56bf
00000140: e137 b53e a75f 1abe 1098 143d 68cf cf3c
00000150: 6bc5 803f c315 a7be 76a3 893f 7623 f6be
00000160: 6908 653f 5e4d aa3f 72b8 e93e 3f25 413e
00000170: fd6f 1d3f bbab 1d3d 300f 5f3c 6ad7 0cbd
00000180: c349 6e3f 8c2f 15bf c084 c63e 33b3 6cbc
00000190: b509 aebd ec7d a73d 9f4e 81bf 8b4e c7be
000001a0: 33e7 e8be a8d7 81be 5204 edbd 11f9 b0bf
000001b0: 67f0 08bf 221e 3abe b462 7f3e 5c60 1e3d
000001c0: 3407 83bd f196 5fbd 2a03 5d3e c5ea c93e
000001d0: 24aa 5dbe 875e f83d 0403 09be a135 863d
000001e0: 17c5 c7be d868 9f3f 0850 a3be e876 523f
000001f0: 92d6 28bf 321a 6d3e e0c5 2abd 58ee 05c0
00000200: 5aa9 343e 12e0 a03d 49bf 3dbe 9318 4c39
00000210: 619e 7bbc 227f bd3f 18b7 e6be 9b0f 06bb
00000220: 3ef2 523d d572 2e3c 8c4f 0b3f baf6 c73e
00000230: 1ceb 4a3d 7060 e63c 591d d0bf 9f2b 143e
00000240: 2af0 a73e 116f b1bd f3e4 083e 7bfc 253d
00000250: de65 b3bd d0dd 41ba dcd3 163c 2a30 f13e
00000260: b97b e23e f54d 9ebd a153 543d f68e 20bd
00000270: 5200 83bf 2866 7fbd 49f8 85bf 7310 043f
00000280: 3be5 22c0 6e3d a3bf 541e e73d 7f58 55bf
00000290: bb92 fd3c 18fa ed3d 0393 91bd 29bf bebc
000002a0: d3a9 1abf cdc0 373f 83fa ca3d 3973 d8bd
000002b0: 01ce a73e 0e79 4a3d a643 f53d 120d 9c3e
000002c0: 3ac1 e6be fc0b 5cbe 5a43 5ac0 8733 12bf
000002d0: ccf5 70bd ec30 eebe 7488 a5be 92bd 9c3d
000002e0: 5ad6 86bc 25eb a8bc ad6a fd3e b714 a33e
000002f0: 6344 bebb 406f 843d c206 7cbe 0103 b63d
00000300: c4b8 59bf 6004 513d 5354 3f3f d4b0 1abf
00000310: 2db1 ad3e 0cae 5a3f 845c 5c3e 1560 ce3c
00000320: 5c84 04be 1e5a 94bd 7158 94bd 7852 283d
00000330: b2d5 07bf 2b5c b53f ac11 4bbf 197d 753d
00000340: 0cd4 2e3f 4dfd 07bc 5841 1a3d b25e 3f3e
00000350: 0ff5 51bf aee0 dbbe 3cbe 913f 1be4 cbbf
00000360: 09c0 8b3e a27b fdbf 596f 863e 1f01 a83c
00000370: b6ca 6ebd 2e8d 723d 1f31 93be 089c f33f
00000380: 073a 2440 bec0 353d dfba db3e 6c4b 4c3d
00000390: c4d2 d43e 2330 483f 152f 27be a7bd 283f
000003a0: 0b05 02bf a372 593e 21c1 a4be 0912 64bf
000003b0: 6bef 4fbd 391b 82bd 57a7 6ebe 7a93 923a
000003c0: 195b 163e eeca 5f3f 6e2a 9b3f 733c 37bd
000003d0: 5f29 a03d 07bd 993d 789b 5e3e bdb6 74be
000003e0: d3b1 a63e 652e bebe dcd0 233f 63b2 b23f
000003f0: 79d1 1e3f 2aeb 663e 934c 0fbe 82a0 633d

layers.0.bias f4 [256]
-1.736255 1.0847371 2.8392339 0.7915469 1.0974287 -1.7137194 1.1848035 -1.300906
-1.0656128 -2.131431 3.2998881 -0.5671789 1.8304197 0.95958626 -0.26328316 1.0362632
0.44251132 2.68015 -1.5859631 -2.0978074 1.7510954 -0.1512074 -0.4326323 3.4679182
-2.248203 1.8572173 0.5249229 -0.5687165 1.7575977 -0.0733997 1.6053531 2.6505673
-1.3368355 -0.06541166 -0.6236967 2.7617755 -2.564529 0.61307496 -1.7311697 0.5927959
-0.7652045 0.9733455 -0.936019 -0.47554493 -1.551623 -1.5766659 -1.9025601 0.5559951
1.6703912 0.43742028 -0.0933508 -1.2656885 0.9162652 -0.24372007 1.9981087 -1.482121
0.96733826 2.3044355 2.380567 1.8492006 1.529662 -2.6130447 1.2415223 2.8636024
-2.701045 -0.021646855 -0.47654045 2.8624191 2.9467351 -0.3838258 0.46593082 -0.83975667
-0.17678244 -0.061928764 2.172844 1.6529895 -1.664152 2.077357 -1.6082712 3.0221434
-1.4578241 -1.660515 3.0485275 -0.56445867 3.9331143 3.7151685 -0.267386 1.1245462
1.9419893 0.4185984 -0.031362154 0.90366554 0.48726994 1.328812 1.1861966 2.4583278
2.1059017 -0.99297404 -1.7012469 1.2473465 1.2382752 2.132943 0.065258965 0.94340044
-0.55180323 0.43173456 -0.48132527 -0.4998098 3.1980538 -0.75104624 -1.5113865 -1.7492062
0.6256571 1.2735182 -1.3874233 1.367453 0.20207314 -2.1956968 1.8817326 0.029655794
0.014583364 1.1107872 -0.4947017 0.49580118 -0.94667256 0.54916763 1.2801636 0.52910405
-0.2484573 -3.1155682 -0.978349 0.8395769 3.8947694 -3.399396 1.2593411 1.8719018
-2.24575 1.5340624 -0.5319509 -0.95117587 0.07611742 2.3557024 2.6633937 -1.5562074
-0.03636981 1.1462773 -1.018619 0.1724686 1.2753483 2.4482424 2.3404555 1.9042883
-2.5361555 -0.539386 0.04778085 -1.6954614 -0.27162635 0.62823 2.841458 -2.023107
1.3620175 3.2749708 -0.20786294 -0.6683791 -0.45891252 -1.6569605 2.4320786 1.6859573
-0.081903316 1.7746915 1.6425912 0.9737435 -1.6946924 0.8826985 1.0847409 -1.2395968
0.71803355 0.15568662 0.16394736 3.1663322 2.7525458 -2.346017 1.6487033 1.7772458
-0.52184874 -0.3327611 -1.6035243 1.0918199 1.4571259 -0.23282266 -2.3684993 -0.5930185
1.456518 1.9907931 0.16591893 0.56153667 -2.2958202 1.0355884 -0.64525056 2.0940938
1.9015378 2.3464696 -0.9744844 0.20963311 0.7832529 -0.533621 -1.6135904 -2.4414816
0.5489551 -0.24339633 1.5526018 -0.7840179 0.18535413 -1.5243852 -1.1829574 -0.2696724
0.1798629 1.2109302 -1.7906976 -0.89858705 -1.9530536 -1.6385592 0.70827776 0.001549427
0.35491425 1.521136 1.0655518 1.4850467 -2.3262107 2.0174432 1.0301934 1.5344112
-0.25193015 2.4414327 0.20379819 0.718108 -1.5433924 -1.9094557 -1.6259403 1.1599096
-2.0723937 -0.85311675 1.0354954 -0.6828551 1.8012202 -1.9085016 -0.6455705 1.5635607
-1.2709978 -0.8778306 -2.8865938 0.8190442 0.12834609 0.53208 1.9742653 -1.62986
00000000: 9b3d debf aad8 8a3f 02b6 3540 d1a2 4a3f
00000010: 8b78 8c3f 285b dbbf a4a7 973f 1684 a6bf
00000020: 0066 88bf 5e69 08c0 5e31 5340 a332 11bf
00000030: 314b ea3f 72a7 753f 0dcd 86be 46a4 843f
00000040: d890 e23e 9487 2b40 d700 cbbf 7a42 06c0
00000050: e523 e03f 1dd6 1abe fb81 ddbe 5ff2 5d40
00000060: 8fe2 0fc0 4cb9 ed3f 5961 063f 6897 11bf
00000070: f6f8 e03f 9552 96bd 367c cd3f e5a2 2940
00000080: 6d1d abbf 8cf6 85bd 96aa 1fbf eec0 3040
00000090: 3e21 24c0 7bf2 1c3f f896 ddbf 79c1 173f
000000a0: 71e4 43bf 2c2d 793f f19e 6fbf a07a f3be
000000b0: 959b c6bf 30d0 c9bf 1787 f3bf b255 0e3f
000000c0: 61cf d53f 8df5 df3e b42e bfbd 1502 a2bf
000000d0: 5b90 6a3f c191 79be 07c2 ff3f 24b6 bdbf
000000e0: 7ba3 773f df7b 1340 365b 1840 9bb2 ec3f
000000f0: f7cb c33f 203c 27c0 34ea 9e3f 4345 3740
00000100: ecdd 2cc0 bf54 b1bc 1cfd f3be e031 3740
00000110: 4f97 3c40 d184 c4be 7c8e ee3e 4bfa 56bf
00000120: 7506 35be 04a9 7dbd e00f 0b40 2995 d33f
00000130: ef02 d5bf 6bf3 0440 d5db cdbf cc6a 4140
00000140: fb99 babf c18b d4bf 131b 4340 5d80 10bf
00000150: 25b8 7b40 52c5 6d40 d1e6 88be 21f1 8f3f
00000160: 1b93 f83f 8852 d63e 9a75 00bd a056 673f
00000170: 727b f93e 8316 aa3f 4ad5 973f 3e55 1d40
00000180: 18c7 0640 8c33 7ebf 75c2 d9bf 0da9 9f3f
00000190: cd7f 9e3f 2382 0840 7ea6 853d b182 713f
000001a0: fa42 0dbf 500c dd3e 4470 f6be 12e7 ffbe
000001b0: eaac 4c40 9144 40bf 1d75 c1bf fde5 dfbf
000001c0: 102b 203f a502 a33f 1697 b1bf b308 af3f
000001d0: 43ec 4e3e 4c86 0cc0 9ddc f03f b5f0 f23c
000001e0: 10ef 6e3c 462e 8e3f 8b49 fdbe a7d9 fd3e
000001f0: 2259 72bf 4096 0c3f 67dc a33f 5d73 073f
00000200: 976b 7ebe 7865 47c0 1475 7abf 83ee 563f
00000210: e743 7940 b48f 59c0 1732 a13f 7a9a ef3f
00000220: 5eba 0fc0 285c c43f ef2d 08bf 4380 73bf
00000230: 73e3 9b3d d4c3 1640 0b75 2a40 ce31 c7bf
00000240: 83f8 14bd 37b9 923f 1b62 82bf 9c9b 303e
00000250: 9d3e a33f 01b0 1c40 06ca 1540 b8bf f33f
00000260: 5f50 22c0 3315 0abf dab5 433d e104 d9bf
00000270: 9c12 8bbe aed3 203f 73da 3540 967a 01c0
00000280: 9756 ae3f 1f99 5140 06da 54be e51a 2bbf
00000290: 95f6 eabe 4817 d4bf 2da7 1b40 73cd d73f
000002a0: edbc a7bd 1729 e33f 6e40 d23f 4147 793f
000002b0: aeeb d8bf 87f8 613f cad8 8a3f 1cab 9ebf
000002c0: 0cd1 373f 506c 1f3e d1e1 273e 30a5 4a40
000002d0: b629 3040 2425 16c0 b608 d33f ca7c e33f
000002e0: e197 05bf aa5f aabe 4940 cdbf c1c0 8b3f
000002f0: 1a83 ba3f 1069 6ebe 7e95 17c0 0fd0 17bf
00000300: 2f6f ba3f 4fd2 fe3f a7e6 293e dec0 0f3f
00000310: b8ee 12c0 298e 843f 242f 25bf a205 0640
00000320: 9765 f33f 8f2c 1640 cf77 79bf 10aa 563e
00000330: 4383 483f 639b 08bf 218a cebf 3c41 1cc0
00000340: 5288 0c3f e33c 79be a8bb c63f 66b5 48bf
00000350: 79cd 3d3e 0e1f c3bf 266b 97bf 8012 8abe
00000360: fb2d 383e c3ff 9a3f 9435 e5bf cd09 66bf
00000370: a9fd f9bf 4fbc d1bf b151 353f 2516 cb3a
00000380: 52b7 b53e 96b4 c23f 0064 883f 0316 be3f
00000390: a3e0 14c0 ca1d 0140 61dd 833f 9667 c43f
000003a0: fdfc 80be 6f40 1c40 79b0 503e edd5 373f
000003b0: e28d c5bf 0b69 f4bf d01e d0bf eb77 943f
000003c0: 19a2 04c0 dc65 5abf 1d8b 843f 98cf 2ebf
000003d0: 628e e63f c849 f4bf 1c44 25bf c222 c83f
000003e0: 0eb0 a2bf 82b9 60bf f4bd 38c0 e1ac 513f
000003f0: 286d 033e 6536 083f bab4 fc3f 419f d0bf

layers.1.weight f4 [256, 256]
1.0058638 -0.12458511 -0.2880676 0.211002 -0.32710087 -0.44094738 -0.033040497 0.38172898
0.97056866 -0.072299846 -0.28502998 -0.14215085 0.3934841 -0.6245343 0.7895727 -0.06890638
1.2794716 0.47135642 0.24121568 1.1151474 0.38367996 0.015295602 0.9914123 -1.2383713
-0.109492905 -0.4891849 0.2556914 0.14427817 0.22686622 -0.38758773 0.53103775 -0.114486724
0.2778541 -0.043988883 0.055147402 -0.62652236 -0.29037043 1.2273809 0.7603698 -0.5022458
-0.43053216 -0.52569187 -0.25713003 -0.4523418 0.94106615 -0.16100775 -0.135723 -0.0012106841
0.6488719 -0.15695882 -0.17892584 -0.3831793 0.43377033 0.46697554 -0.8558303 -0.49293274
-0.1494498 0.2459314 -1.409235 -1.078347 0.089074895 -0.20322882 -0.4230836 0.58328974
0.99934363 -0.35982475 0.33060348 1.1484855 0.13798049 0.48715436 0.4288904 0.16764063
-1.3127799 0.16564101 0.2439532 -0.5838756 0.72480065 0.19748518 0.41761371 1.0488309
0.116611816 1.2370682 0.38772753 0.33806473 -1.3181343 -0.26217088 -0.18831503 0.2942225
-1.5378381 -0.1462443 -0.20528361 -0.05239555 -1.0417643 -0.32491225 0.24526253 0.44558325
0.32196835 -0.19323392 0.32803482 0.46409398 -0.48841944 -0.103684776 -0.3965252 0.20756127
0.012809369 -0.69539994 0.09390058 0.048774663 -0.3482047 0.5172907 1.0676237 0.19367597
0.35837215 -0.73829085 -0.044809807 -0.2066094 1.7650803 0.24124327 0.41913304 0.24525681
-0.7026036 -0.44125235 -0.20092218 0.2700518 1.3609098 0.63977635 0.021048918 -0.11807124
-0.42047924 0.39363906 0.44781122 0.3277577 0.24429962 0.30014348 0.41354764 -0.028007135
1.0554317 0.86286867 -0.8724606 0.99795747 0.19304878 0.47838265 -0.03377427 -0.5049443
-0.02895193 -0.16193439 -0.7147691 -0.07304971 -0.08061652 -0.64810514 -0.9229132 1.1419631
-0.09008092 1.3878773 -0.46860993 -0.38456455 -0.60339856 0.16461594 -0.67060125 0.8305898
-0.08429259 0.54586184 0.41227186 0.6380705 -0.5934095 1.0997759 -0.007736592 -0.81811583
-0.5143269 0.35961336 -0.3125646 0.85939586 0.50598687 -0.17436676 0.4861623 -0.9777081
0.3850801 0.85092425 -0.8515113 -0.30006373 -0.14130612 0.13271181 -0.089950144 -0.717841
-0.11045132 0.4285818 -0.044505537 -0.23857465 -0.55733526 0.104745984 0.3376933 0.3767209
-0.4589327 0.24745321 -0.9017105 -0.16553523 -0.055969797 -0.3049154 0.4836327 -2.6356647
-0.20115647 -0.20647876 -0.5388274 -0.6361009 0.6387993 -0.28755906 -0.8094215 0.309372
1.091548 0.037229925 0.19523121 0.12893973 -0.49777195 0.16462892 0.8432703 0.15204445
0.19061908 1.1892262 0.40283638 0.06589801 -0.5024014 0.1848271 -0.24207737 -0.2943192
0.32803497 0.23502411 -0.009407375 0.00885844 -0.51535755 0.7418791 0.33400953 -0.23515552
0.39362466 0.21566716 -0.17216654 0.13577181 0.5117037 0.3232373 0.77270883 0.50718313
0.35123244 -0.6032532 -0.52751297 -1.0675335 0.9135281 0.36342597 0.8530554 0.4197823
0.22737084 0.7282376 -0.06629026 0.086399384 0.35047737 -0.42686468 0.4323724 -1.0884572
00000000: 25c0 803f 7a26 ffbd 997d 93be e910 583e
00000010: c479 a7be dbc3 e1be 7955 07bd fb71 c33e
00000020: 3077 783f f111 94bd 73ef 91be fe8f 11be
00000030: bf76 c93e 7be1 1fbf 7021 4a3f ca1e 8dbd
00000040: bac5 a33f a155 f13e 3e01 773e 26bd 8e3f
00000050: b371 c43e 689a 7a3c 32cd 7d3f f382 9ebf
00000060: d13d e0bd 7176 fabe fce9 823e a8bd 133e
00000070: 9e4f 683e e671 c6be 17f2 073f 0478 eabd
00000080: e542 8e3e b02d 34bd 3ee2 613d c563 20bf
00000090: 6fab 94be d11a 9d3f 98a7 423f 2e93 00bf
000000a0: b66e dcbe be93 06bf 8ca6 83be 5899 e7be
000000b0: b6e9 703f 37df 24be f8fa 0abe d1af 9eba
000000c0: 781c 263f d0b9 20be 5638 37be 1430 c4be
000000d0: 2517 de3e 6b17 ef3e b217 5bbf ae61 fcbe
000000e0: 5e09 19be 71d5 7b3e d061 b4bf 4607 8abf
000000f0: e66c b63d 371b 50be 6a9e d8be 7a52 153f
00000100: fcd4 7f3f f33a b8be dc44 a93e 9301 933f
00000110: c24a 0d3e 4c6c f93e 8697 db3e fca9 2b3e
00000120: 2c09 a8bf cc9d 293e dece 793e df78 15bf
00000130: 898c 393f 8e39 4a3e 77d1 d53e 1740 863f
00000140: 2dd2 ee3d 4058 9e3f 3984 c63e d216 ad3e
00000150: a0b8 a8bf 433b 86be a8d5 40be 55a4 963e
00000160: e1d7 c4bf 11c1 15be de35 52be b79c 56bd
00000170: 8858 85bf e65a a6be 1a26 7b3e 7d23 e43e
00000180: 09d9 a43e 1ddf 45be 2ef4 a73e ba9d ed3e
00000190: 1d12 fabe af58 d4bd 5a05 cbbe f18a 543e
000001a0: 63de 513c bb05 32bf f34e c03d f1c7 473d
000001b0: e347 b2be 2a6d 043f e5a7 883f fe52 463e
000001c0: 8e7c b73e a100 3dbf 7d8a 37bd 6a91 53be
000001d0: 27ee e13f 7a08 773e 9b98 d63e 9a24 7b3e
000001e0: d4dd 33bf d4eb e1be 8bbe 4dbe 3b44 8a3e
000001f0: 4b32 ae3f 62c8 233f c86e ac3c 56cf f1bd
00000200: 0e49 d7be 0f8b c93e 8347 e53e dbcf a73e
00000210: ae29 7a3e 68ac 993e 84bc d33e 386f e5bc
00000220: 6318 873f f6e4 5c3f 9459 5fbf 247a 7f3f
00000230: 94ae 453e 92ee f43e e456 0abd 0844 01bf
00000240: 992c edbc 21d2 25be 1cfb 36bf 169b 95bd
00000250: 461a a5bd 38ea 25bf 0a44 6cbf d92b 923f
00000260: 587c b8bd f7a5 b13f a4ed efbe a5e5 c4be
00000270: 5478 1abf 1591 283e 86ac 2bbf 88a1 543f
00000280: 98a1 acbd 9abd 0b3f 4c15 d33e 9758 233f
00000290: afe9 17bf 75c5 8c3f 3d83 fdbb 0a70 51bf
000002a0: edaa 03bf 3e1f b83e 7808 a0be 5e01 5c3f
000002b0: 5b88 013f 338d 32be 44ea f83e 144b 7abf
000002c0: 3829 c53e 2cd6 593f a5fc 59bf f4a1 99be
000002d0: 8db2 10be 9be5 073e c837 b8bd 6ec4 37bf
000002e0: 4d34 e2bd 136f db3e 704b 36bd ea4c 74be
000002f0: 86ad 0ebf 1085 d63d 23e6 ac3e 90e1 c03e
00000300: 3af9 eabe 6064 7d3e 80d6 66bf 1182 29be
00000310: 9640 65bd df1d 9cbe b59e f73e bbae 28c0
00000320: f6fb 4dbe 2b6f 53be 98f0 09bf 82d7 22bf
00000330: 5a88 233f f13a 93be 3f36 4fbf 0266 9e3e
00000340: d8b7 8b3f 687e 183d b1ea 473e c708 043e
00000350: f7db febe 7c94 283e 90e0 573f 8ab1 1b3e
00000360: a631 433e 9038 983f 9240 ce3e 89f5 863d
00000370: 619d 00bf 5143 3d3e 21e3 77be 02b1 96be
00000380: 33f4 a73e 29aa 703e 6421 1abc fe22 113c
00000390: 79ee 03bf caeb 3d3f 4c03 ab3e 9ccc 70be
000003a0: 2c89 c93e dad7 5c3e 6d4c 30be c407 0b3e
000003b0: 04ff 023f 5c7f a53e 3fd0 453f c1d6 013f
000003c0: bdd4 b33e cd6e 1abf 170b 07bf f0a4 88bf
000003d0: fadc 693f f812 ba3e d761 5a3f b5ed d63e
000003e0: e7d3 683e c86d 3a3f 30c3 87bd 29f2 b03d
000003f0: c571 b33e 028e dabe ea5f dd3e 9152 8bbf

layers.1.bias f4 [256]
0.36283067 -0.014616534 0.80000556 0.32494858 0.41291785 0.01324986 0.46567813 0.03682869
-0.63408047 0.26596877 -0.4968438 -0.013455176 -0.04259276 0.8300784 -0.1773864 0.32811055
-0.8348835 -0.08303991 0.698827 -0.47029042 0.34948373 -0.21168466 -0.705177 0.14433889
-0.84923583 -0.60851717 -0.60756665 0.06764267 0.9276048 0.8390578 1.063333 0.10433039
0.40068567 -0.48668355 -0.6861736 0.4128498 0.83053577 0.8264227 -0.53218603 -0.20523486
-0.11292513 0.3714965 -0.7308168 -0.8204238 0.67112076 0.99782205 0.25716117 0.5538574
0.21360207 0.12763995 -0.8462189 0.13828821 0.17496254 -0.53498435 0.8651159 -1.0748278
0.13536836 -0.47727913 0.09024507 -0.24973643 0.2737308 1.4405892 0.7893513 0.97875303
-0.76606786 -0.36503822 -0.71069664 -0.6088973 0.35424203 0.4057224 -0.9687372 0.6147287
-0.13446659 0.49449313 0.17880203 0.039467927 0.45681423 0.23020543 -0.7629924 -1.1872458
-0.072696 -0.99525934 0.80426353 -0.32690927 -0.6103788 0.3758854 -0.73087686 0.39789233
-0.8092317 1.031766 0.6022148 0.71269965 -0.21425211 0.314501 -0.11128467 -0.051104806
0.10754954 -0.4580308 -0.5892646 -0.2184222 -1.1893079 -0.35101813 0.4023226 -1.310197
-0.7838821 0.5592257 0.12782322 -0.2064987 1.3505888 -1.5697964 -0.041475188 0.57795274
-1.0717001 0.6171791 0.28161243 1.5513424 0.59338516 -0.70626915 0.28240165 -0.4712229
0.104181856 0.48495173 0.10177112 0.34315345 0.67186415 1.3889542 1.4405247 -0.023265833
0.6322937 0.18041024 -0.5550753 0.8464372 -0.26028755 -0.59710294 0.4588884 -0.099915795
-0.2721924 0.54433364 0.8580469 1.3804375 -1.278614 -0.51948076 -0.74570537 -0.38324466
0.23678444 -0.028034674 0.34765673 0.5925607 1.0574133 -0.73119617 -0.3483042 -0.99113995
-0.19502416 0.065194644 -0.6526194 -0.42773318 0.31570283 0.7832037 0.5172638 -1.4556419
-0.65552294 1.3095964 1.1412231 -0.23294137 0.5518076 0.15152328 0.9836591 -0.7100762
0.7583024 -0.08518853 -1.1210555 -0.19473147 0.63440764 0.8185313 1.399016 -0.8076544
-0.340072 -0.2528038 -1.5637089 -1.3456872 -0.25734553 -1.0464835 -1.2489356 -0.33094758
0.4673347 0.16773179 0.58821356 -0.1086342 0.7909133 0.1326775 -1.1241059 -0.62224394
0.9499645 1.1128752 -1.5556308 -0.33635813 -0.05616959 0.28550613 -0.19144887 0.11484787
1.1491425 -1.2984588 -0.09806749 -0.18081507 0.23506337 -0.8037602 0.10232724 1.4756817
0.33796567 0.30287194 0.021240467 0.37053716 0.41873625 -0.053551253 0.35898048 -0.37152937
-0.8081399 -0.0883038 0.19837938 -0.94624984 -0.9450809 0.26632905 -0.8124999 -0.24036711
0.5600173 0.59753317 0.5972915 -0.9367596 -0.75902045 -0.25185 0.75659883 -0.98557544
-0.43880066 1.1839651 0.8488938 0.38364136 -0.40701774 0.5531933 0.2627625 -0.11189073
-0.3689082 0.16193455 0.21114966 -0.90588754 -0.016704854 -1.0466737 -0.5239562 -0.34726745
0.07537963 -1.0725371 0.73891205 -0.5809801 0.8437718 -0.09649831 -0.47279105 -0.13068263
00000000: f1c4 b93e 307a 6fbc 2acd 4c3f a95f a63e
00000010: f869 d33e f115 593c 5d6d ee3e aed9 163d
00000020: 1953 22bf 0f2d 883e 5062 febe 1973 5cbc
00000030: bf75 2ebd 0580 543f c8a4 35be 1bfe a73e
00000040: edba 55bf d410 aabd 54e6 323f e8c9 f0be
00000050: 88ef b23e ddc3 58be 7b86 34bf 93cd 133e
00000060: 8567 59bf c8c7 1bbf 7d89 1bbf 3d88 8a3d
00000070: 8277 6d3f 7ecc 563f 4c1b 883f 2cab d53d
00000080: ac26 cd3e 962e f9be 13a9 2fbf 0d61 d33e
00000090: fe9d 543f 7090 533f 583d 08bf 1629 52be
000000a0: 4a45 e7bd ca34 be3e cf16 3bbf 4b07 52bf
000000b0: 92ce 2b3f 4471 7f3f a1aa 833e 99c9 0d3f
000000c0: 80ba 5a3e 0cb4 023e cda1 58bf 6d9b 0d3e
000000d0: 6129 333e bcf4 08bf 3c78 5d3f f593 89bf
000000e0: 019e 0a3e ee5d f4be 68d2 b83d e8ba 7fbe
000000f0: 7226 8c3e 3a65 b83f ed12 4a3f 8f8f 7a3f
00000100: 061d 44bf 4ae6 babe 37f0 35bf b2e0 1bbf
00000110: 365f b53e d9ba cf3e 29ff 77bf dc5e 1d3f
00000120: 9cb1 09be 342e fd3e e117 373e 1fa9 213d
00000130: 8ee3 e93e f9ba 6b3e 7853 43bf acf7 97bf
00000140: a4e1 94bd 51c9 7ebf 37e4 4d3f a760 a7be
00000150: c941 1cbf 0d74 c03e bf1a 3bbf 8bb8 cb3e
00000160: cf29 4fbf e910 843f c02a 1a3f 7c73 363f
00000170: e864 5bbe 4606 a13e 38e9 e3bd 4653 51bd
00000180: ef42 dc3d 0383 eabe 0bda 16bf 12aa 5fbe
00000190: 3e3b 98bf a6b8 b3be 3afd cd3e 89b4 a7bf
000001a0: 7fac 48bf 6a29 0f3f 17e4 023e 6574 53be
000001b0: 18e0 ac3f 17ef c8bf e3e1 29bd b6f4 133f
000001c0: 782d 89bf 73ff 1d3f 812f 903e 6392 c63f
000001d0: 17e8 173f 0ece 34bf f396 903e 2144 f1be
000001e0: 4c5d d53d 984b f83e 616d d03d cfb1 af3e
000001f0: 4aff 2b3f 40c9 b13f 1d63 b83f fd97 bebc
00000200: 00de 213f 76bd 383e 6a19 0ebf 1cb0 583f
00000210: 6944 85be bddb 18bf 6cf3 ea3e a7a0 ccbd
00000220: cd5c 8bbe 7359 0b3f f6a8 5b3f 2db2 b03f
00000230: a0a9 a3bf b1fc 04bf 8ce6 3ebf a538 c4be
00000240: 9f77 723e f9a8 e5bc 1000 b23e 0fb2 173f
00000250: 5259 873f ac2f 3bbf ee54 b2be 59bb 7dbf
00000260: 6ab4 47be c584 853d 1112 27bf d8ff dabe
00000270: cda3 a13e 0a80 483f 676b 043f 7952 babf
00000280: 5ad0 27bf dba0 a73f 9913 923f 2f88 6ebe
00000290: 4343 0d3f eb28 1b3e 15d1 7b3f 8ec7 35bf
000002a0: 1b20 423f 5377 aebd bf7e 8fbf b067 47be
000002b0: 8a68 223f 448b 513f f512 b33f 70c2 4ebf
000002c0: eb1d aebe 806f 81be 9d27 c8bf 7a3f acbf
000002d0: cbc2 83be 2cf3 85bf 1fdd 9fbf f671 a9be
000002e0: 7e46 ef3e e2c1 2b3e 2a95 163f 9c7b debd
000002f0: 4b79 4a3f 9cdc 073e b4e2 8fbf 614b 1fbf
00000300: e030 733f b272 8e3f e91e c7bf 2237 acbe
00000310: 1612 66bd dc2d 923e 2c0b 44be 5c35 eb3d
00000320: 1a17 933f e633 a6bf 9cd7 c8bd 9627 39be
00000330: 74b4 703e 3ac3 4dbf f290 d13d 23e3 bc3f
00000340: d609 ad3e 0812 9b3e 7d00 ae3c 0cb7 bd3e
00000350: 9964 d63e 8f58 5bbd 4acc b73e 1939 bebe
00000360: 42e2 4ebf 9fd8 b4bd f723 4b3e 6e3d 72bf
00000370: d2f0 71bf 485c 883e feff 4fbf cc22 76be
00000380: 4b5d 0f3f eff7 183f 19e8 183f 7acf 6fbf
00000390: 2a4f 42bf 7cf2 80be 76b0 413f ac4e 7cbf
000003a0: 7baa e0be 2b8c 973f 1b51 593f a46c c43e
000003b0: a164 d0be 139e 0d3f ce88 863e f826 e5bd
000003c0: 89e1 bcbe 2cd2 253e 9e37 583e 3fe8 67bf
000003d0: 9ed8 88bc 67f9 85bf fe21 06bf 0acd b1be
000003e0: a360 9a3d e548 89bf 5729 3d3f 1dbb 14bf
000003f0: 6e01 583f e8a0 c5bd ab11 f2be abd1 05be

value_stream.weight f4 [1, 256]
0.10187863 -0.086910985 0.09620192 0.11202885 0.56427944 -0.19113311 -0.16418804 0.20106338
-0.3341752 -0.15671484 -0.07659661 0.16668925 -0.30616325 0.10921456 0.084353305 -0.19266021
-0.19416888 0.12197668 0.08597906 0.6581115 0.16791463 -0.24650384 -0.28078818 0.14868689
-0.2045774 -0.14653495 -0.21302117 0.24432616 0.11309011 0.23751725 0.16166994 0.06750254
-0.23035736 -0.2899617 -0.1602489 0.22582024 -0.28748876 0.11110197 -0.45643228 0.094915375
0.20752858 0.43477613 -0.36899504 0.26324865 0.1290527 0.1942536 0.2778135 0.33886877
-1.1535339 0.21776381 -0.22360036 -0.58564633 0.10003086 0.28783625 0.16103224 -0.21403973
-0.5769515 0.1866342 -0.14758427 -0.17467247 -0.16049257 0.12523963 0.3894583 0.37020856
-0.2710198 -0.12698689 -0.21887958 -0.12703387 0.15864089 -0.3107257 -0.22041753 -0.33107504
0.1955512 0.21709552 0.19029362 0.23372945 0.7043956 -0.19919823 0.37666783 -0.25908098
-0.07682921 -0.12743583 0.15421472 0.1929894 -0.18474235 0.1476598 0.23729336 0.09148235
0.24686438 0.11908686 -0.33219308 0.10488321 -0.088927135 -0.22341931 -0.062959686 -0.076195374
0.17876823 0.17488657 -0.17210905 0.103575036 0.27157155 -0.15125008 0.26859555 -0.2220065
-0.033888757 0.34392425 0.19378783 -0.19412985 0.30128145 0.043950215 0.14229512 0.1831173
-0.23758177 0.01044473 -0.17189917 -0.57562065 0.0059351334 -0.1855531 -0.27837154 0.19417389
-0.15680064 0.21227631 0.25972137 0.2220534 1.0632036 0.4236572 0.37565312 0.16161324
-0.21738245 0.11413833 0.1894162 0.1854103 -0.24553762 0.2601311 0.15291643 0.47876677
-0.19396932 0.3589887 0.294996 -0.3151127 -0.1326263 -0.1619437 0.24033245 -0.17872913
0.12827355 -0.2643393 -0.17187229 0.16923828 0.15257888 -0.22555375 -0.19975571 -0.15079556
-0.3179022 -0.11612625 0.4389275 0.21036918 0.10246985 -0.20587 0.14695649 0.30119824
0.29671153 0.0349821 0.119918734 -0.34303796 -0.14008938 -0.21398671 0.32914814 -0.079770066
0.16709575 0.15479665 -0.39930108 0.18368995 0.2669209 0.37709698 0.11411036 -0.3093968
-0.36958522 0.66102797 0.025036808 0.28257734 -0.21723819 0.30428872 0.51654285 0.23883717
0.15163425 0.24708365 0.13966526 0.21239671 -0.46182677 0.20627016 -0.20438541 -0.19122534
-0.12642524 -0.2099974 0.5291551 0.16959181 0.34083188 0.11023013 -0.31716082 0.5343553
0.38657165 -0.20422362 -0.7992546 0.36468008 0.3145832 -0.051377576 0.4034386 0.06069857
0.26295447 0.11489078 0.024698852 0.25919762 0.33460727 0.27323058 -0.2592184 -0.44693387
0.22361246 0.1241716 0.13125595 0.11811953 0.11145117 -0.15511662 -0.34722018 0.28401092
0.17511138 0.19265598 0.29832584 0.17661242 -0.09079979 0.28625455 -0.41455546 0.15440385
-0.1476824 0.18329014 0.12119593 -0.13228095 0.25274852 -0.663249 0.021319587 -0.38091537
-0.11088216 -0.2829589 0.3154839 -0.11824861 0.21436132 0.17228459 0.72786564 -1.1234891
-0.25739616 -0.22903806 -0.15082635 -0.9262231 0.10763353 0.10786723 -0.19369657 -0.15042186
00000000: bea5 d03d 63fe b1bd 8305 c53d 626f e53d
00000010: 9e74 103f 66b8 43be e920 28be 8fe3 4d3e
00000020: 0319 abbe db79 20be afde 9cbd 96b0 2a3e
00000030: 6ec1 9cbe e2ab df3d 6dc1 ac3d b848 45be
00000040: 35d4 46be e9ce f93d ca15 b03d ff79 283f
00000050: d0f1 2b3e 816b 7cbe 78c3 8fbe 6041 183e
00000060: bd7c 51be 420d 16be 3922 5abe a330 7a3e
00000070: ca9b e73d b937 733e ce8c 253e c63e 8a3d
00000080: cde2 6bbe dc75 94be 4a18 24be 6c3d 673e
00000090: ba31 93be 6e89 e33d 7eb1 e9be fe62 c23d
000000a0: 5f82 543e fa9a de3e ebec bcbe 87c8 863e
000000b0: 6426 043e 6aea 463e 923d 8e3e 3580 ad3e
000000c0: 00a7 93bf 7afd 5e3e 7ef7 64be ebec 15bf
000000d0: fbdc cc3d 465f 933e a3e5 243e 3b2d 5bbe
000000e0: 18b3 13bf 091d 3f3e 5520 17be 57dd 32be
000000f0: 2a58 24be d13e 003e 1467 c73e fa8b bd3e
00000100: 1bc3 8abe da08 02be f821 60be 2b15 02be
00000110: c272 223e 7017 9fbe 22b5 61be ab82 a9be
00000120: 933e 483e 4a4e 5e3e 55dc 423e c656 6f3e
00000130: 4553 343f 9ffa 4bbe 9bda c03e 43a6 84be
00000140: a258 9dbd 8a7e 02be 77ea 1d3e 039f 453e
00000150: 192d 3dbe 2134 173e 08fd 723e 195b bb3d
00000160: 04ca 7c3e d0e3 f33d 3615 aabe 02cd d63d
00000170: 6e1f b6bd 08c8 64be 02f1 80bd 520c 9cbd
00000180: 050f 373e 7715 333e 5b3d 30be 261f d43d
00000190: 6d0b 8b3e 4de1 1abe 5b85 893e ac55 63be
000001a0: f0ce 0abd d716 b03e 5170 463e fac9 46be
000001b0: 9041 9a3e 2405 343d d0b5 113e 1a83 3b3e
000001c0: a348 73be 5f20 2b3c 5606 30be e05b 13bf
000001d0: 827b c23b a201 3ebe b786 8ebe 85d5 463e
000001e0: 5990 20be f65e 593e 33fa 843e f761 633e
000001f0: 0e17 883f 99e9 d83e 9b55 c03e f17d 253e
00000200: 8199 5ebe 5bc1 e93d 52f6 413e 33dc 3d3e
00000210: 376e 7bbe e72f 853e 2096 1c3e eb20 f53e
00000220: e59f 46be 5ecd b73e b709 973e 7456 a1be
00000230: 30cf 07be 92d4 25be b619 763e c504 37be
00000240: 245a 033e 7b57 87be 4aff 2fbe cd4c 2d3e
00000250: a33d 1c3e 90f7 66be c38c 4cbe 276a 1abe
00000260: 14c4 a2be 99d3 edbd 1bbb e03e 056b 573e
00000270: b6db d13d 96cf 52be c37b 163e a836 9a3e
00000280: 93ea 973e 6449 0f3d f497 f53d aca2 afbe
00000290: 9773 0fbe 551f 5bbe 1b86 a83e 7d5e a3bd
000002a0: 261b 2b3e 0383 1e3e 3171 ccbe 3819 3c3e
000002b0: dba9 883e db12 c13e b1b2 e93d 4269 9ebe
000002c0: 463a bdbe 2139 293f fe19 cd3c faad 903e
000002d0: b073 5ebe bbcb 9b3e 273c 043f bb91 743e
000002e0: 0246 1b3e 7f03 7d3e 6904 0f3e 867e 593e
000002f0: 8f74 ecbe 7c38 533e 694a 51be 93d0 43be
00000300: 9e75 01be 8f09 57be b576 073f 7aa9 2d3e
00000310: 8481 ae3e 56c0 e13d e762 a2be 82cb 083f
00000320: b8ec c53e ff1f 51be f39b 4cbf 59b7 ba3e
00000330: 0d11 a13e 4b71 52bd 818f ce3e 109f 783d
00000340: f8a1 863e db4b eb3d 3f55 ca3c 8db5 843e
00000350: a551 ab3e e1e4 8b3e 46b8 84be 84d4 e4be
00000360: aafa 643e ae4d fe3d f667 063e a7e8 f13d
00000370: 8340 e43d e4d6 1ebe d8c6 b1be e169 913e
00000380: 6650 333e 9c47 453e 2abe 983e e3d9 343e
00000390: 3ef5 b9bd f58f 923e 9d40 d4be 0b1c 1e3e
000003a0: 0e3a 17be 69b0 3b3e 9235 f83d a874 07be
000003b0: 4168 813e b0ca 29bf 6aa6 ae3c 5707 c3be
000003c0: 3016 e3bd fddf 90be 1b87 a13e 542c f2bd
000003d0: 8981 5b3e 5f6b 303e 6755 3a3f 7ece 8fbf
000003e0: 6ec9 83be f488 6abe 3972 1abe f51c 6dbf
000003f0: f86e dc3d 7fe9 dc3d 6558 46be 3008 1abe

advantage_stream.weight f4 [20, 256]
-0.004833141 -0.0010132825 -0.20050362 -0.07011449 0.032201137 -0.21957444 -0.047858745 0.040027145
0.0720651 -0.057710227 -0.15992978 0.038570106 0.07697579 0.061267458 -0.016496893 0.0008727812
-0.0015746333 0.118007876 -0.03971786 -0.013845627 0.03368358 -0.036521394 -0.16203177 0.4619265
-0.24558808 -0.009976376 -0.036758233 0.03742834 0.2621119 0.07333607 0.25039265 0.0034664073
-0.071075216 0.115434736 0.1889292 0.10478357 -0.14151202 0.14962739 0.0076892097 -0.35730663
0.24300143 0.462329 0.06700838 0.080974184 0.07809619 -0.25777605 0.120553754 -0.099546134
0.09409644 0.20401753 -0.05486864 -0.12107177 0.02444461 -0.03056591 -0.013437954 -0.38553348
0.023810018 -0.04051338 0.0061038616 -0.092760056 -0.22804357 0.0038234983 0.14433111 -0.0025918242
0.022549333 0.14785708 -0.11072503 0.012884051 0.37960592 -0.11865227 -0.071342394 -0.0074252286
0.09768893 0.12164059 -0.026240086 0.07804608 0.056951545 -0.15235081 0.07396042 -0.49270484
0.008769638 -0.33093944 0.07890364 -0.060500633 -0.04248408 0.23886782 0.27989584 -0.018339112
0.0064232294 -0.0932039 -0.01697019 0.29230902 -0.09452896 0.010269875 -0.010784199 0.17736587
0.16589378 -0.027947629 0.07083267 0.081543975 0.07911944 -0.030284954 -0.037751574 0.18189408
-0.21114959 0.1442675 0.14269097 0.12652475 -0.009064205 0.34671092 0.22912084 0.024979282
-0.119267024 -0.17072257 -0.41672975 -0.32507068 -0.08797732 -0.0387822 -0.1617354 0.19672902
0.0562915 -0.20777167 -0.23762481 0.04788128 -0.055417106 -0.12312442 -0.023047619 0.1341826
0.03547095 0.012706725 0.26075554 -0.085612975 -0.054175023 0.31948727 0.23271713 0.055146094
0.059689026 0.06820036 -0.070334114 -0.2525196 0.07432852 -0.14613555 0.31245747 -0.06331904
0.009301051 -0.19342257 0.1350706 0.12846814 0.084306814 -0.07529507 -0.062088866 0.120793894
-0.3018959 0.08682444 -0.115135364 0.034216546 0.13761154 0.2783356 -0.05660112 -0.13623787
0.2156166 0.121157296 0.03944255 -0.27662373 -0.32891566 0.023789482 0.15233403 -0.024292527
0.16173664 -0.06483125 0.014915877 0.0134378 0.07984829 -0.08525023 -0.03058276 0.09722431
-0.08354442 0.22179557 -0.2921504 0.16718078 -0.0036970242 0.009301221 0.11100065 0.096393846
0.06169424 0.2196489 0.029348496 0.02467016 -0.26606277 0.08798549 -0.015596103 -0.14107879
-0.23605342 -0.14403403 0.020176334 -0.0041013923 0.0012164131 0.010340612 -0.1083091 0.09665534
-0.13133113 0.031791426 0.5255865 0.21104975 0.07526669 -0.00980241 0.07193601 0.035426386
0.2941579 0.19796039 -0.012451747 -0.23878428 0.2725994 0.24494097 -0.16855921 0.23376796
0.19637913 -0.17599913 -0.00047931744 -0.071238786 -0.09253077 -0.036361188 -0.26315132 0.3220446
0.093651354 -0.12984084 -0.0590103 -0.02295945 -0.05388599 0.2182883 -0.07446452 0.0010161925
-0.21481821 0.19675027 0.15041037 0.4394326 0.022837745 -0.14884108 0.27873725 -0.2043586
-0.25719097 -0.23465425 -0.12296136 0.16956067 -0.03307616 0.34932405 0.13045296 -0.22559825
-0.025027 -0.07492946 0.027002068 0.15118526 0.16640235 0.1433644 0.20893475 -1.1775695e-05
00000000: 535f 9ebb 1ed0 84ba d250 4dbe 3098 8fbd
00000010: 57e5 033d 1fd8 60be 8807 44bd 81f3 233d
00000020: de96 933d 8f61 6cbd a2c4 23be b0fb 1d3d
00000030: 7ca5 9d3d 96f3 7a3d 7e24 87bc 5bcb 643a
00000040: ed63 ceba 1dae f13d 32af 22bd c5d8 62bc
00000050: cbf7 093d 7597 15bd a8eb 25be a181 ec3e
00000060: 717b 7bbe f473 23bc cd8f 16bd 764e 193d
00000070: 8833 863e 3931 963d 7733 803e aa2c 633b
00000080: e28f 91bd 0c69 ec3d a876 413e c598 d63d
00000090: 87e8 10be ec37 193e c4f5 fb3b e5f0 b6be
000000a0: 5ed5 783e 63b6 ec3e b13b 893d cbd5 a53d
000000b0: e5f0 9f3d 39fb 83be e3e4 f63d d8de cbbd
000000c0: a2b5 c03d f9e9 503e f0bd 60bd 7af4 f7bd
000000d0: 1040 c83c 5c65 fabc dd2a 5cbc a564 c5be
000000e0: 3a0d c33c 5cf1 25bd e702 c83b fcf8 bdbd
000000f0: 4184 69be a893 7a3b 89cb 133e 98db 29bb
00000100: 61b9 b83c d967 173e cec3 e2bd a017 533c
00000110: b55b c23e f6ff f2bd f61b 92bd 554f f3bb
00000120: 2211 c83d b41e f93d 73f5 d6bc a0d6 9f3d
00000130: 0646 693d da01 1cbe 9078 973d cf43 fcbe
00000140: 87ae 0f3c e570 a9be 3b98 a13d 83cf 77bd
00000150: c903 2ebd c499 743e 824e 8f3e e83b 96bc
00000160: f479 d23b b0e1 bebd 1105 8bbc 87a9 953e
00000170: 6698 c1bd fa42 283c 36b0 30bc 669f 353e
00000180: 0fe0 293e 6df2 e4bc b810 913d 8700 a73d
00000190: 5f09 a23d 2718 f8bc 65a1 1abd 7142 3a3e
000001a0: 9937 58be dcba 133e 951d 123e b48f 013e
000001b0: 0882 14bc 1884 b13e a79e 6a3e 5aa1 cc3c
000001c0: 4542 f4bd e6d1 2ebe 9a5d d5be aa6f a6be
000001d0: 742d b4bd 16da 1ebd f79d 25be 5573 493e
000001e0: ea91 663d 19c2 54be eb53 73be 291f 443d
000001f0: 0cfd 62bd a828 fcbd 5cce bcbc 2a67 093e
00000200: fd49 113d de2f 503c c081 853e db55 afbd
00000210: a1e6 5dbd d693 a33e 664d 6e3e dfe0 613d
00000220: 7b7c 743d a1ac 8b3d 550b 90bd 404a 81be
00000230: 8d39 983d 8fa4 15be 6dfa 9f3e 6aad 81bd
00000240: 6f63 183c 9110 46be f34f 0a3e 278d 033e
00000250: 0da9 ac3d 4d34 9abd e550 7ebd ca62 f73d
00000260: 1992 9abe 03d1 b13d 17cc ebbd a626 0c3d
00000270: 0aea 0c3e 0182 8e3e 93d6 67bd f181 0bbe
00000280: 99ca 5c3e 5121 f83d 838e 213d a0a1 8dbe
00000290: a267 a8be 29e2 c23c 74fd 1b3e 1f01 c7bc
000002a0: 4a9e 253e 3fc6 84bd b961 743c 382a 5c3c
000002b0: 8087 a33d ac97 aebd b288 fabc 8a1d c73d
000002c0: 5619 abbd 611e 633e bd94 95be 7031 2b3e
000002d0: c649 72bb 2664 183c 4f54 e33d 236a c53d
000002e0: 19b3 7c3d a4eb 603e 426c f03c 1319 ca3c
000002f0: 6139 88be bd31 b43d cc86 7fbc f576 10be
00000300: fdb7 71be a87d 13be d748 a53c f964 86bb
00000310: 0d70 9f3a ac6b 293c 29d1 ddbd 3cf3 c53d
00000320: ab7b 06be ba37 023d d68c 063f 6d1d 583e
00000330: 6c25 9a3d 4a9a 20bc 3053 933d 421b 113d
00000340: dd9b 963e 21b6 4a3e 6a02 4cbc de83 74be
00000350: 2692 8b3e ced1 7a3e c99a 2cbe de60 6f3e
00000360: 9c17 493e 1e39 34be e64c fbb9 a4e5 91bd
00000370: c680 bdbd 78ef 14bd c5bb 86be 08e3 a43e
00000380: 48cc bf3d fff4 04be c9b4 71bd 7515 bcbc
00000390: 8eb7 5cbd f886 5f3e db80 98bd c331 853a
000003a0: 4ef9 5bbe e778 493e 2d05 1a3e 4ffd e03e
000003b0: 3916 bb3c cc69 18be a6b6 8e3e 6143 51be
000003c0: 89ae 83be 3449 70be 2ad3 fbbd 50a1 2d3e
000003d0: de7a 07bd 9ada b23e 7695 053e 3a03 67be
000003e0: 6c05 cdbc 9e74 99bd 7133 dd3c 4fd0 1a3e
000003f0: 6165 2a3e 1ece 123e fef2 553e 3a90 45b7

advantage_stream.bias f4 [20]
-0.36945486 0.20010601 0.199821 0.1515693 0.24353983 0.19093 0.14573939 0.07405326
-0.007204238 0.014110924 0.135361 -0.13675363 -0.17080295 -0.16180722 0.2580537 0.024582965
0.14251466 0.19145279 0.06362091 -0.08301193
00000000: 3029 bdbe 97e8 4c3e e09d 4c3e fc34 1b3e
00000010: 8162 793e 2783 433e b53c 153e 3ca9 973d
00000020: 8711 ecbb 8131 673c 139c 0a3e 2509 0cbe
00000030: f8e6 2ebe cbb0 25be 9d1f 843e 3762 c93c
00000040: 5def 113e 330c 443e ae4b 823d 2902 aabd
