src/hockey-env/random_training_1/weights/episode_574.pth (torch, 307504 bytes, 7 tensors)

layers.0.weight f4 [256, 18]
00000000: 7ccf c33d 0d06 783d 3476 f2bd 8e4f 1f3d
00000010: d30c be3c d443 89bc 684b 653e 0c40 5f3f
00000020: 84c3 0a3f 3bde acbd 8e98 d23d b614 663d
00000030: bb90 023f b49c 2bbe c67c 633f 4454 89be
00000040: 4e74 0fc0 f796 bb3f b2e2 b23d ec9e 61bf
00000050: 6222 f93c 06bb bdbc 188a 8837 590a 31bc
00000060: 6a26 793f 40cd 80be c63a ddbb de8c 4c3d
00000070: e8ba f5bd 0107 f93c a565 06c0 52fa 32bf
00000080: 1896 60be d600 e5bd 4fbc 393f 07e4 9e3e
00000090: bc51 b3bc 737c 78b9 7209 ad3e e22d 91bd
000000a0: ca68 043d 41b1 573c bb3f b83f 27e6 c93e
000000b0: b471 043f 6469 b13d 9465 bdbc 318e 30bc
000000c0: a502 c33d cd01 41be f233 f03e 465a 8dbd
000000d0: ef33 b23d 03d8 2f3e 1068 893e 9722 b53e
000000e0: 2315 b2bf 908a 363d dd0f 083d b94e 83be
000000f0: c532 7bbd 7090 ed3c df1f 7fbd c970 aebb
00000100: 7927 a23c f492 28bd e16d d2bd 711f 89be
00000110: 86c8 863c bdb9 93bc fec8 1f3d 1b02 23bd
00000120: b1ef e7bc 049d e43c 2e94 3bbd 06eb 78bd
00000130: df6f 3ebc 1a1f 9e3c 83e8 28be ddfd e5bc
00000140: 64a2 aabc a00c e8bd 11ee ddbd 4b42 153d
00000150: eb94 543f 68d7 aa3d 6e46 b03f 29d1 debe
00000160: 19e3 273f 510c e83f ac1b 083f cb7f 29be
00000170: 8c61 a93e 3982 c03d 7c3a 9cbd a5ac 023c
00000180: 4e3d 663f 4ad0 85bf 51da e63e 4773 5c3b
00000190: 8e3c 87bc c076 473d 6f5c 7dbf 0c47 a9be
000001a0: b49f d5be aa3c 81be 5992 6fbe aae1 b1bf
000001b0: b09a 34be 11ed b2bd 99fd e2bd d14f b8bc
000001c0: 9e66 b13d 5bb3 123d fd02 473e 3456 c63e
000001d0: 448c e1bd 470b 133e 93ae 30be ae9f 3dbd
000001e0: f770 eabe 9374 a33f 9e96 81be d848 563f
000001f0: 7119 43bf e9a6 de3e b960 d7bc e055 d8bf
00000200: 031e 02be 04b3 bd3d b7d9 55be 00a6 fdbc
00000210: ae77 29be 612b a83f cb7e 93be 2596 c0bd
00000220: 9d23 f83d da3f 73bd ae1e 143f 4218 5d3e
00000230: efb6 bf3c 7c57 a93c 734f b2bf 5fc2 cc3d
00000240: 36c6 7c3e 7551 18bd a5f6 1e3e 093a b83d
00000250: 46f7 b0bc 9afd 6cbd 37c9 45bd e8b4 073e
00000260: 1f24 fe3e da15 5abd 34ae 143d ef00 5e3e
00000270: cf38 7ebf 9dd6 c5be 2cfb 88bf ddce fb3e
00000280: 28e7 29c0 ad59 b5bf 832a 943e 241c 89bf
00000290: 9bb2 6b3e 1ebf 023e 90a1 83bb 2dea 4e3d
000002a0: 1b74 29bf 87ed 9b3e 4f90 ab3d 20c4 54be
000002b0: e162 013e dbf9 0cbc 4d94 8bbe 210f 013f
000002c0: e9ee b6be 9c0e 65be bcdf 59c0 bf79 35bf
000002d0: 9467 a3be 542f aebd 9cf9 9b3e a7cd 0e3d
000002e0: 75a6 353d f597 59bb 7f85 e43e 098b 1c3f
000002f0: e665 56be 8ee5 84bd 53fd aabe 7afd 5e3d
00000300: 7d1d 5ebf ac3f 5c3c a42d 293f bdc3 07bf
00000310: 9127 653d f258 993f 785c a13e 9d4a 7b3d
00000320: e3b4 fdbe 046c 58bb 168c 463c def5 15bd
00000330: df32 f9be 7416 0140 5801 58be 20e8 54bd
00000340: 4433 f53e 60f1 acbd 12b6 393e 59e1 873c
00000350: e813 46bf 4998 c1be 45e7 773f 1a98 b6bf
00000360: 5f2d 973e 2004 f1bf cd6e 023c 5664 493d
00000370: e9ba adbe 3ebf 923c a1ba a0be dd5d e43f
00000380: aca3 2040 017e 92bc 7e5b bf3d 48f7 92bd
00000390: 02ec a53e a2b4 603f a274 34be 89d2 2a3f
000003a0: 6755 1cbf 4557 6e3d 272d 5bbe a911 41bf
000003b0: bab1 e5be f8f7 d23d 0308 33bc ba2c 8fbc
000003c0: 19a8 893e 395d 473f 4617 2c3f de78 21bd
000003d0: cb5a e1bc 9e10 06bc 1a49 8e3e c2ce 91be
000003e0: d1c4 d13e 35b8 e1be 1b10 e53e 0fdf b63f
000003f0: b899 9b3e 0265 e5bd a77c cabd f133 493c
0.09561059 0.060552645 -0.11838952 0.03889423 0.023199474 -0.016755976 0.22392046 0.872071
0.54204583 -0.084408246 0.10283004 0.056172095 0.5100209 -0.16758996 0.88862264 -0.26822102
-2.2414737 1.4655446 0.08734645 -0.8813312 0.030411903 -0.023160469 1.6276768e-05 -0.01080569
0.9732424 -0.25156593 -0.006751391 0.04993903 -0.1199854 0.030398848 -2.099954 -0.6991321
-0.21932256 -0.111818 0.7255296 0.31033346 -0.02188956 -0.00023697484 0.3379627 -0.070888296
0.032326497 0.013164819 1.4394449 0.39433405 0.51736 0.0866268 -0.023119725 -0.010776089
0.09521989 -0.18848343 0.4691463 -0.06901984 0.08701312 0.17172246 0.26837206 0.35377952
-1.39127 0.044565737 0.033218253 -0.25645998 -0.061327714 0.028999537 -0.062286254 -0.0053235036
0.019794213 -0.04115577 -0.10274864 -0.267818 0.016453039 -0.018032903 0.03901004 -0.03979693
-0.028312536 0.027906902 -0.045795612 -0.06077101 -0.011623352 0.01930194 -0.16494946 -0.028075153
-0.020829387 -0.11330533 -0.10836423 0.036440175 0.8303973 0.08341867 1.3771493 -0.43518952
0.655809 1.8128759 0.53167224 -0.16552655 0.33082235 0.09399838 -0.076283425 0.007975732
0.89937294 -1.045419 0.45088437 0.0033638047 -0.016508367 0.048697233 -0.9896917 -0.33062017
-0.41723406 -0.25241596 -0.23395671 -1.3896992 -0.17637134 -0.08736623 -0.11083526 -0.022498997
0.08662151 0.035815578 0.19434734 0.38737643 -0.11013082 0.1435977 -0.17254095 -0.04629486
-0.4578931 1.2769951 -0.25310224 0.837049 -0.76210696 0.43486717 -0.026291238 -1.6901207
-0.12706761 0.0926266 -0.20883833 -0.030962944 -0.1654956 1.3138238 -0.28807673 -0.09403638
0.12116168 -0.059387065 0.57859313 0.21591285 0.02340266 0.020671599 -1.3930496 0.09998011
0.24684986 -0.03718706 0.15523775 0.08995444 -0.021602284 -0.05785904 -0.048287597 0.13252604
0.49636933 -0.053243496 0.036298946 0.21680044 -0.99305433 -0.386403 -1.0701652 0.49181262
-2.6547337 -1.4167992 0.28938684 -1.0711713 0.23017351 0.12768218 -0.0040170625 0.050516296
-0.6619279 0.30454656 0.08377134 -0.20777941 0.12635376 -0.008604492 -0.27261582 0.5041371
-0.3572915 -0.22368854 -3.4042807 -0.70888895 -0.3191496 -0.08505121 0.30463874 0.034864094
0.0443482 -0.0033202146 0.446331 0.6114965 -0.20937309 -0.064890966 -0.33396396 0.054440953
-0.86763746 0.013442915 0.6608527 -0.5303305 0.055945937 1.1980269 0.3151586 0.061350454
-0.49552068 -0.0033023367 0.01211836 -0.03661143 -0.48671624 2.0169954 -0.21094263 -0.051979184
0.47890675 -0.08444476 0.1813586 0.016586946 -0.77374125 -0.37811497 0.96837264 -1.4265168
0.29526803 -1.8829384 0.007960987 0.049167953 -0.33931664 0.017913457 -0.31392387 1.7841145
2.5099897 -0.017882349 0.093436226 -0.071760714 0.32406622 0.87775624 -0.17622617 0.667275
-0.61067814 0.058188695 -0.21403943 -0.7541757 -0.44862157 0.103012025 -0.010927203 -0.017477382
0.2688606 0.7787662 0.6722301 -0.03942191 -0.027509114 -0.008182673 0.27790147 -0.28478056
0.40970472 -0.4408585 0.4473885 1.4286822 0.30390716 -0.11200906 -0.09887057 0.01228045

layers.0.bias f4 [256]
00000000: 90cf d7bf b853 a13f fd0b 3d40 5699 503f
00000010: 8000 6c3f 5368 e5bf bda7 ae3f 4c21 cabf
00000020: 6f14 86bf 16c4 13c0 ce9c 6340 be67 07bf
00000030: c573 f53f 55aa 923f fa1d 38be d565 983f
00000040: 2477 bc3e 4420 2f40 87dd d6bf 1ced 02c0
00000050: 6d6d 0240 2fc8 cb3d f88e afbe f395 6440
00000060: 2852 15c0 b57a dc3f ffe3 103f b0f5 14bf
00000070: e2da ea3f bc07 2a3d ac89 ca3f 7c52 3840
00000080: a8c8 93bf db8b 94be 471e 4cbf 8d8a 2f40
00000090: fd6c 31c0 893a 493f 2ff3 d9bf 9934 1a3f
000000a0: 5e96 59bf 82e0 553f a7a1 81bf 3909 a0be
000000b0: 190d cfbf 9aa7 d2bf 3f33 f8bf dbca da3e
000000c0: 2d81 bb3f a716 eb3e 440e b13d c9de 9cbf
000000d0: 2e6a 863f 3872 80be df27 0140 574b b9bf
000000e0: 0dfe 2c3f 947b 1d40 2c7a 1540 6efb 0a40
000000f0: 0698 9e3f 3e7d 37c0 1c77 8f3f c832 3040
00000100: fc61 22c0 5313 abbd e5d2 d2be 3ebe 3040
00000110: 21a2 4540 bd77 80be e9c6 d73e b44c 53bf
00000120: 5474 6c3b 3ad7 973a f075 0240 48d8 d93f
00000130: 3d57 e0bf 0357 dd3f 1207 d2bf eef8 4840
00000140: 70cf b0bf 0d09 efbf ce9f 4540 c53a acbe
00000150: d6ee 7c40 925f 6f40 5b80 6fbe 0042 a73f
00000160: ca12 f63f dc8a 193f 50c4 46bd 6008 553f
00000170: c019 0b3f 81f2 b83f 0046 a83f 85fa 2e40
00000180: 889c 0b40 e2aa 9fbf 45b6 eebf 448e c43f
00000190: 1241 aa3f 60b8 1c40 d234 a7bd 9800 863f
000001a0: 9a5a edbe 21a0 ff3e c8bf 9ebe 8b64 02bf
000001b0: 8acb 5840 fc1d 14bf e963 bdbf a904 d9bf
000001c0: 6dc9 0f3f c9af b63f b671 c1bf 3894 b53f
000001d0: d886 4e3e 646f 14c0 fda8 f43f 4a4e 213d
000001e0: 0bc1 9f3d 9dc5 923f 1418 2ebf 4661 ab3e
000001f0: f675 8cbf cd88 223f 3b07 ae3f de9a 373f
00000200: 3408 3d3c dc20 49c0 e594 8ebf 6e4c 313f
00000210: 7c3b 8140 0c1f 56c0 589d c53f f8e7 0240
00000220: ab81 0ac0 1f1b c53f ef77 85bf 96dc 6abf
00000230: 0eda 7dbe 5a80 3340 9063 3340 407f cbbf
00000240: 80f8 3abe 9812 be3f 479f 91bf 3e91 693e
00000250: 74d8 9c3f 786b 1440 5836 1a40 5c59 ea3f
00000260: 4bae 1cc0 e97f cabe 819f d63c c850 efbf
00000270: 71c5 37be 2b54 5f3f 428e 3040 2c43 00c0
00000280: 7031 a63f a647 4840 c758 14bd 4671 36bf
00000290: 0b35 d9be 6b1d c3bf 3121 1b40 f4b4 d23f
000002a0: 1977 93bd c922 0440 f429 d13f 720c 6f3f
000002b0: 78a1 d0bf 9584 873f ef5f 733f 6700 8fbf
000002c0: 6b2b 5a3f 2108 533e 2976 413e dd26 4140
000002d0: 4e42 4840 172e 1ec0 b8b2 d63f 55c0 ec3f
000002e0: 335d bbbe 4d91 d7be 10e3 d4bf 67a9 6b3f
000002f0: 04cd a73f ccc8 67be 07a2 16c0 ea80 dbbe
00000300: f895 c53f edec 2540 0392 753d afbb 173f
00000310: 2284 20c0 9742 4a3f 00c7 20bf a80a 0540
00000320: 0daa 0b40 74e3 2140 e57d a2bf ffe5 a03e
00000330: 425f 5d3f 28ec e8be 7ee8 ddbf 8afc 2bc0
00000340: 9853 413f d852 9cbe 29f6 bb3f 0da2 3cbf
00000350: d5ad 4f3e dbbe d4bf 2cd9 8cbf 0c76 78be
00000360: 8272 bf3d c58d 993f 9ef2 e2bf c672 58bf
00000370: 8086 08c0 3c48 e8bf e314 543f d575 9b3d
00000380: 3035 db3e 4ed2 bc3f cbba a43f d335 cc3f
00000390: 7c9d 2dc0 cecb 0440 11a4 6b3f 7ff9 d03f
000003a0: d5dd c0be cbb3 2d40 abc1 b7bd 5c91 5e3f
000003b0: d1a6 c5bf e0f8 fdbf 682b fabf 89f8 cb3f
000003c0: b483 0bc0 66f8 6abf 19f4 8d3f b4b6 55bf
000003d0: 0925 f93f e515 e7bf f445 48bf a2c0 bd3f
000003e0: 4683 d0bf a994 59bf 9f66 39c0 84bb 783f
000003f0: 89ab d23e 390f 163f 4b1b f23f 1bf4 e0bf
-1.6860218 1.2603674 2.9538567 0.8148397 0.9218826 -1.7922462 1.364494 -1.5791411
-1.0474986 -2.3088431 3.5564456 -0.52892673 1.9175955 1.1458231 -0.17980185 1.1906077
0.36809647 2.7363443 -1.6786355 -2.045722 2.0379288 0.09950291 -0.34288764 3.5716522
-2.3331394 1.7224947 0.56597894 -0.5818739 1.8348048 0.041511282 1.5823264 2.8800344
-1.154561 -0.2901295 -0.797337 2.7428315 -2.772277 0.7860494 -1.7027339 0.6023651
-0.8499507 0.83545697 -1.0127457 -0.31257036 -1.6175872 -1.6457398 -1.9390639 0.4273289
1.4648796 0.4591572 0.08645299 -1.2255489 1.0501153 -0.25087142 2.0180585 -1.4476117
0.6757515 2.4606676 2.3355818 2.171596 1.2390144 -2.8670192 1.1208224 2.7530994
-2.5372305 -0.08353295 -0.41176525 2.7616115 3.0880206 -0.25091353 0.42143944 -0.82538915
0.003608008 0.0011584528 2.0384483 1.7019129 -1.7526623 1.7292179 -1.6408408 3.1401935
-1.3813305 -1.8674637 3.0878787 -0.33638588 3.9520774 3.7402081 -0.23388807 1.3067017
1.9224484 0.5997751 -0.048527062 0.83215904 0.54336166 1.4449006 1.3146362 2.7340405
2.181429 -1.2474024 -1.8649374 1.5355916 1.3301108 2.4487534 -0.081643716 1.0468931
-0.46358186 0.49926856 -0.31005692 -0.50934666 3.387423 -0.5785825 -1.4796115 -1.6954547
0.56166726 1.4272395 -1.5112827 1.4185858 0.20168626 -2.3192987 1.9114071 0.039381303
0.07800492 1.1466557 -0.6800549 0.3347265 -1.0973499 0.6348999 1.3595957 0.71720684
0.0115376 -3.1426306 -1.1139189 0.6925725 4.0385113 -3.345645 1.5438643 2.0454082
-2.1641643 1.5398902 -1.0427226 -0.9174284 -0.24790213 2.804709 2.8029518 -1.5898209
-0.18258858 1.4849424 -1.1376733 0.22809312 1.2253556 2.3190594 2.4095669 1.830852
-2.448138 -0.39550713 0.026199104 -1.8696527 -0.17946412 0.87237805 2.7586827 -2.0040998
1.2983837 3.129373 -0.036217477 -0.7126659 -0.4242328 -1.5243353 2.4239008 1.6461473
-0.072004505 2.064623 1.6340928 0.93378365 -1.6299276 1.0587336 0.9506826 -1.1171998
0.852225 0.2060857 0.18892731 3.017997 3.129047 -2.471563 1.6773291 1.8496195
-0.36594543 -0.42103043 -1.6631794 0.9205536 1.3109441 -0.22635192 -2.3536394 -0.4287179
1.5436392 2.5925858 0.0599537 0.5927076 -2.5080647 0.7900786 -0.6280365 2.0787754
2.182254 2.5295076 -1.269467 0.31425473 0.86473477 -0.45492673 -1.7336576 -2.6872888
0.7551818 -0.30531955 1.4684497 -0.7368477 0.20281155 -1.6620744 -1.1003776 -0.24263781
0.093480125 1.199639 -1.7730291 -0.8455013 -2.1332092 -1.8147044 0.8284437 0.07590834
0.42814016 1.475168 1.2869505 1.5953926 -2.712737 2.0749393 0.9204722 1.632614
-0.37669244 2.7140987 -0.08972486 0.8694055 -1.5441533 -1.9841576 -1.9544497 1.5935222
-2.1799135 -0.91785276 1.1090118 -0.8348191 1.9464427 -1.8053557 -0.7823174 1.4824412
-1.6290061 -0.8499246 -2.8968885 0.97161126 0.41146496 0.5861698 1.8914579 -1.7574495

layers.1.weight f4 [256, 256]
00000000: 7e43 7d3f 0863 fdbd bd41 36bd d257 aebd
00000010: 6f7b d7be 47e6 08bf b637 d4bd 5da7 ff3e
00000020: 3946 6d3f 5a8a 0cbe c4f8 afbe 37f0 fa3d
00000030: e710 a13e 9088 1dbf beb9 e43e 595e adbd
00000040: 2823 893f 6a64 233f 7dae 973e b8c3 8f3f
00000050: ff12 1c3f 5263 273e 1a97 7a3f ce0e 97bf
00000060: 99c8 cbbc e115 2ebf 6655 053e cb0b 523e
00000070: f6e8 babd 4461 34bf 07ec ed3e cc9d 053d
00000080: f57a 9a3e 9329 08be 703e b43d f3d0 11bf
00000090: f6be 20bf e38c 9f3f 8353 373f e424 703b
000000a0: 4089 bbbe 8d85 e0be 5ee9 f5bc 3c80 bcbe
000000b0: f9ee 723f 6452 64bd abfe d8bd 4b49 3a3e
000000c0: 5fb2 e63e d9f0 c13c e58a 84be 6527 a6be
000000d0: 0098 003f ae72 d13e 0ef3 48bf 3233 16bf
000000e0: 6cff cebe 1ca2 443e eaf8 c8bf 5855 7cbf
000000f0: bc19 d0bc 7ded aabe 9e24 8abe f69d 0f3f
00000100: 5236 863f 1022 4fbe 9aa9 053f 9be1 8b3f
00000110: a4d9 ea3e b754 c93e 6877 763e 2ab0 2d3e
00000120: 8b02 a4bf ae86 07bb 4fad ce3e 1ccd f5be
00000130: ae23 f93e eadb b83e 45b6 313e 97eb 483f
00000140: e6b9 c83d dd0d 873f 2a10 1f3f f721 043f
00000150: e121 a0bf 93db 7e3e 09d6 14be de84 7c3e
00000160: 7f51 d8bf 3723 84be b11a 66bc ffec bdbd
00000170: e385 91bf bfcc a3be 5ff1 213e ea7e 583e
00000180: 6661 263f 8e28 afbe e3df bb3d 06ad 193f
00000190: 6b9d 57be 8fda febd 99b8 04be 529f af3d
000001a0: 83d5 093e 8dc6 4fbf 1479 2e3e 4205 b9bd
000001b0: fe20 8bbe 2e30 283f 4219 233f 2f4d ee3d
000001c0: 83b6 0c3e e8d5 02bf 3a26 56be a528 d5bd
000001d0: 3fa4 f33f d4c7 013f b6f8 793e f74f f83d
000001e0: af2f 41bf 7b39 a8be ac32 59be fc84 d23e
000001f0: 8d91 ad3f c40b 183f e387 2e3e 5343 1abd
00000200: e773 04bf e0f3 c93e 79aa 873e ba8a 943e
00000210: 1a8b cd3e d4c0 3f3b c4e0 073f 77a1 1e3c
00000220: ee78 893f 36bb 5c3f 6379 88bf e17c 7d3f
00000230: e696 c83e 9559 0c3f ee28 28be 4435 f3be
00000240: d88f 5c3c d021 b7bd 0c36 27bf 1411 9f3d
00000250: 9481 8e3d b6ae 18bf 8bfb 82bf 9268 8e3f
00000260: f6a6 9e3d ac40 aa3f e13d 15bf ee2e 9dbe
00000270: 8a24 58bf d7b5 743d 6c0a 2bbf 599b 883f
00000280: 3d47 b83d 2418 463f 733f ce3e 2276 063f
00000290: 794e 15bf 3909 633f 9c23 64be 6029 20bf
000002a0: 2fc6 14bf 62d4 db3e f459 1bbe 4b4e 233f
000002b0: b325 073f ceb0 a5be d92a 483f 1bea 89bf
000002c0: 6823 753d ff11 423f 76ae 0cbf 9490 e5be
000002d0: be98 1bbd c265 1a3e c4bb a8be bb11 30bf
000002e0: 5be1 1a3e 20f1 e03e a656 cebd 5ded 23be
000002f0: 6dca 14bf 5ace db3d 74aa 9dbc c8ac b23e
00000300: f6c0 17bf fadc ed3e 110d 69bf 5c70 2dbe
00000310: 58e9 d5be cd00 85be a67d f23e c6c5 21c0
00000320: fa54 91be 96a9 8abe 89f7 36bf 4ad4 87be
00000330: bdc1 133f f257 e5be 70de 89bf 1699 aa3e
00000340: 3401 a03f 12fc ee3d 09dc 833e 613c 113e
00000350: 87d4 e6be b091 383f 84c2 313f 0ad6 473e
00000360: 4533 903e 90f5 a83f ebb9 ef3e 4e6b 5abd
00000370: a25f eabe c428 2a3c 706a fabe affc dbbd
00000380: bc0d f43e 0097 9c3e 9246 c93d 9f49 79be
00000390: cd6f cfbe 648a 493f f211 c03e 9fce 56be
000003a0: 824d 133f b3e8 b73d aea1 cebd 7caf 7d3e
000003b0: 016f 1e3f 27ad 373e 27fc 393f 87a5 033f
000003c0: dbae 3e3e 7336 48bf 9c89 33bf 14fd 89bf
000003d0: 41d3 5d3f 7396 bc3e 54a9 a13f f3e0 a43e
000003e0: 2657 24bd cb6c 353f 1643 40be 0f42 863d
000003f0: 51fa 833e e446 21bc c5f3 2b3f 155b 59bf
0.9893111 -0.12372404 -0.044496287 -0.08512844 -0.4208636 -0.53476375 -0.103621885 0.49932376
0.92685276 -0.13724652 -0.3436948 0.122528486 0.31458208 -0.615365 0.4467296 -0.08465261
1.0713854 0.63825095 0.29625311 1.1231604 0.60966486 0.16346481 0.9788681 -1.1801393
-0.024875926 -0.68002135 0.13020858 0.20512311 -0.09126465 -0.70460916 0.46469137 0.03262119
0.30171934 -0.1329711 0.088009715 -0.56959456 -0.62791383 1.246487 0.71611804 0.0036643082
-0.3662815 -0.4385189 -0.030018505 -0.36816585 0.94895893 -0.055742636 -0.10595449 0.18192022
0.4505796 0.023674415 -0.25887218 -0.3245193 0.50231934 0.40907806 -0.7849587 -0.5867187
-0.40429246 0.19202465 -1.5700963 -0.98567724 -0.025402896 -0.33384314 -0.26981062 0.56100404
1.0485327 -0.20227838 0.52211916 1.0928224 0.45869172 0.39322445 0.24068987 0.16961733
-1.2813276 -0.002067964 0.403666 -0.4800805 0.48660034 0.3610528 0.17354687 0.7848448
0.09801082 1.0551106 0.6213404 0.51614326 -1.2510339 0.24888448 -0.14534773 0.2466006
-1.6899871 -0.25808117 -0.01404445 -0.09273719 -1.1368984 -0.31992146 0.15814732 0.21142164
0.6499237 -0.34210628 0.091735624 0.6002964 -0.21056144 -0.124440305 -0.12961043 0.0857531
0.13460355 -0.8116234 0.17038375 -0.09034206 -0.2717361 0.65698516 0.63710415 0.11635815
0.13741498 -0.51107645 -0.2091302 -0.10408143 1.9034499 0.5069554 0.24411282 0.12124627
-0.75463384 -0.32856354 -0.21210736 0.41117084 1.3560044 0.5939295 0.17044024 -0.03766186
-0.5173935 0.39443874 0.26497248 0.2901209 0.4014519 0.0029259222 0.5307734 0.009682051
1.074003 0.8622316 -1.0662044 0.99018675 0.39177626 0.5482419 -0.16421863 -0.47501576
0.013462029 -0.08941996 -0.65316844 0.07766929 0.06958309 -0.5964159 -1.0233015 1.1125662
0.07746689 1.3300986 -0.58297545 -0.30699867 -0.84430754 0.05974373 -0.6681278 1.0672408
0.089979626 0.77380586 0.40282783 0.52524006 -0.58322865 0.8868595 -0.22279209 -0.62563133
-0.58114904 0.42935473 -0.15171033 0.6379134 0.527919 -0.32361454 0.7819038 -1.0774568
0.05984822 0.7580871 -0.54953706 -0.44836867 -0.037987463 0.1507788 -0.32955754 -0.68777055
0.15125029 0.43933964 -0.10075121 -0.16008516 -0.5812138 0.10732718 -0.019246317 0.34897447
-0.5927881 0.46457654 -0.9103556 -0.16937393 -0.4177959 -0.25977173 0.47361487 -2.5276961
-0.28385144 -0.2708251 -0.7147146 -0.2652915 0.57717496 -0.4479366 -1.0771008 0.3331992
1.2500367 0.11669172 0.2575381 0.14183189 -0.4508402 0.720973 0.6943743 0.19515243
0.28164116 1.319994 0.46821532 -0.05332499 -0.45776087 0.010385696 -0.4890933 -0.10741555
0.47666728 0.30583954 0.09827913 -0.2434449 -0.40514985 0.7872679 0.3751369 -0.20977257
0.5754014 0.08979931 -0.10089432 0.24773973 0.6188813 0.17937146 0.7265038 0.5142445
0.1862139 -0.7820808 -0.7013185 -1.0780358 0.8665047 0.36833534 1.26298 0.32202873
-0.040122174 0.7086913 -0.18775591 0.065555684 0.25776914 -0.009843562 0.6716884 -0.84904605

layers.1.bias f4 [256]
00000000: aa71 343f 212f 4bbd 176f 543f 7695 9d3e
00000010: 3664 fb3e d5a9 793d 5032 c83e ac12 583e
00000020: 4fb3 3ebf f90d 793e ad63 16bf 59bc 7c3c
00000030: beca 0ebe 0d67 5e3f cc21 57be 4f39 833e
00000040: 2b0b 3dbf 2e79 e6bd ff83 4f3f c17c f3be
00000050: 3018 9e3e 1813 97be 52b0 83bf e97c 203e
00000060: d517 79bf d2c9 16bf f07e 15bf 129a db3d
00000070: c00d 813f 3eea 3c3f 9dd2 833f 7523 5e3e
00000080: db1c 873e aa16 29bf ad02 1abf 0d12 043f
00000090: 8157 453f 4acd 823f 6b0e 21bf a78c 71be
000000a0: 78b2 27bd e653 ff3e 3496 3bbf c648 36bf
000000b0: fc47 3f3f a685 8c3f 5d0e 593e 8a10 0d3f
000000c0: 6a7b 7e3e a70e 843e 714b 4fbf 25bc 253e
000000d0: 9b38 d83d d3aa 1fbf 6f2e 663f 2c94 8dbf
000000e0: a2a6 b63d a347 00bf 6bd0 db3c 1d40 9fbe
000000f0: 136a 733e 7008 bb3f 0002 453f eebb 883f
00000100: 01d9 4bbf 93b7 fabe fd71 62bf e885 32bf
00000110: f0a0 ed3e bbc9 f63e f52a 59bf 1f79 313f
00000120: baf5 8dbe 2805 0f3f a3bd a53d 88aa cc3d
00000130: 9027 0f3f 75b5 473e 40d5 55bf 4e49 9fbf
00000140: eccf 53be 3b44 93bf a653 543f 2a5f b8be
00000150: 0958 30bf 85f4 8a3e fbcb 5bbf 58e2 c93e
00000160: 1cb2 52bf 5c0d 813f ec08 163f e067 563f
00000170: 4c30 71be 4ce7 6b3e ac80 5abe 95ed dc3d
00000180: bff9 ef3c a3d8 d2be b181 39bf 92a6 cabd
00000190: c1e4 91bf 818f d6be b8b1 ff3e c3f1 adbf
000001a0: 7a46 4abf 51d7 1d3f a000 013e e23a 7bbe
000001b0: 624f be3f 848b c4bf a859 edbd 1eb3 203f
000001c0: 1b5a 89bf 913d ce3e 19e2 a13e 1f73 cb3f
000001d0: 5751 263f b2e5 25bf 29c5 823e 0091 03bf
000001e0: 785b d83d ee94 df3e e19a 143e c900 493f
000001f0: 77d8 443f c4f5 b63f 4253 c03f 54b3 133e
00000200: cb9c a83e 4f00 463e b2c3 f8be c05e 7a3f
00000210: d0ef 20be 8a45 2dbf f39c c73e fb79 7ebd
00000220: 8892 f1be 3317 303f 0a37 603f 743c a73f
00000230: 90f4 9ebf bb67 25bf 2b8c 24bf 5059 f4be
00000240: 3406 b53e 415b f43d ec16 de3e d181 173f
00000250: 303d 963f ecb8 32bf f2d1 febe b03b 91bf
00000260: dd48 dfbe b25b a43d 0f95 26bf 3f94 f5be
00000270: 7501 e53e 2653 333f 0a21 f03e 8525 c1bf
00000280: 79bc 23bf 685b ce3f b976 a93f d3f0 a7be
00000290: 6f84 da3e 65d8 bd3d 6893 553f 816d 69bf
000002a0: f81f 843f 73d2 2dbe 1097 96bf 4ef0 90be
000002b0: 32cf 473f 1cfe 5a3f 03f7 cb3f abac 70bf
000002c0: e188 8dbe 5fb3 73be ef64 dabf 8744 a2bf
000002d0: b962 9ebe e0b6 6cbf 537e a0bf 7e11 93be
000002e0: 835a eb3e 63f6 b13d 570f 323f c046 be3d
000002f0: 8923 713f 359e a13d f9a7 97bf ed47 3dbf
00000300: c0d0 713f 9d82 983f e059 d3bf 7ac4 63be
00000310: 7803 c1bd d9bd d43e dced acbe d84f 373e
00000320: 8c26 983f 4d13 ccbf 396f 8f3c a460 87be
00000330: 677d 803e e5e9 5ebf 3b3c 0e3e b7b7 ca3f
00000340: da53 d33e 28a2 e43e 2b5c b13d 89a2 993e
00000350: db0b e53e 4c82 c13d 5eae a43e de97 28bf
00000360: 80da 67bf c64f e53d 3f96 263e bf31 6fbf
00000370: 728e 77bf 1585 413e ef0b 54bf 368d 87bd
00000380: 305b 4b3f 6e62 1c3f 3561 f73e 5534 81bf
00000390: 448a 2ebf 3cc3 b6be 04d4 473f 739f 7dbf
000003a0: 935b e6be 342a a43f d521 603f 628e ef3e
000003b0: 8bcb 8bbe 94af 183f 7947 a23e e27f 0bbc
000003c0: e773 aabe aa0d 503b 4924 823e ba6a 4fbf
000003d0: b825 09be 172e 8bbf 0782 edbe bfc5 c4be
000003e0: 0975 e23d a4d1 88bf 8007 573f 17fe 48bf
000003f0: 3882 5b3f 7d90 dabd 9e13 1bbf 453e a0be
0.7048594 -0.049605493 0.8298201 0.30778092 0.49099892 0.06095298 0.39100885 0.21100873
-0.74492353 0.24321736 -0.58745843 0.015425765 -0.13944528 0.86875993 -0.21008986 0.2562966
-0.73845166 -0.11253582 0.81060785 -0.47556117 0.3087783 -0.29506755 -1.0288184 0.1567265
-0.9730199 -0.58901703 -0.58396816 0.10722746 1.0082321 0.73794925 1.0298649 0.21693213
0.26389202 -0.6605021 -0.6016033 0.51590043 0.77086645 1.0218899 -0.62912625 -0.23588811
-0.040941685 0.49868697 -0.73276067 -0.71204793 0.74719214 1.0978286 0.21196885 0.5510336
0.24851766 0.2579243 -0.8097449 0.16185053 0.10557672 -0.6237003 0.899146 -1.1060843
0.089185014 -0.5010931 0.02683278 -0.31103602 0.23770933 1.461195 0.76956177 1.0682352
-0.79627997 -0.4896818 -0.8845518 -0.69735575 0.46411848 0.48200783 -0.8483117 0.6932544
-0.27726537 0.5586724 0.08092811 0.09993464 0.5591974 0.19502814 -0.8352852 -1.2444246
-0.20684785 -1.1505197 0.8294014 -0.36010104 -0.6888433 0.2713968 -0.85858124 0.394305
-0.82303023 1.0082202 0.58607364 0.8375225 -0.2355358 0.23037452 -0.21338147 0.10787503
0.029293893 -0.41180906 -0.7246352 -0.09895052 -1.1397935 -0.4190636 0.49940276 -1.3589405
-0.7901379 0.6165667 0.12597895 -0.24534181 1.4867976 -1.5355077 -0.11589366 0.6277331
-1.0730623 0.40281346 0.3161781 1.5894507 0.64967865 -0.6480361 0.25541046 -0.5139313
0.10564321 0.43668312 0.14512207 0.78516823 0.768928 1.4293752 1.5025408 0.14423877
0.32932124 0.19336055 -0.48586804 0.9780083 -0.15716481 -0.67684233 0.3898693 -0.06212805
-0.47182107 0.687854 0.8758398 1.3065324 -1.2418385 -0.64611405 -0.6427638 -0.4772439
0.35356295 0.11931468 0.43376863 0.5918246 1.1737423 -0.6981342 -0.4976955 -1.134634
-0.43610278 0.08025302 -0.65071195 -0.47964665 0.44727674 0.7004875 0.46900207 -1.5089575
-0.6395946 1.6121645 1.3239356 -0.32800922 0.42679164 0.092697896 0.8342805 -0.91182715
1.0322256 -0.16974811 -1.1764851 -0.28308338 0.7805053 0.8554399 1.5934757 -0.9401347
-0.27643493 -0.23798893 -1.7062052 -1.2677163 -0.30934694 -0.92466545 -1.2538551 -0.28724283
0.45967492 0.08689573 0.69554657 0.09290838 0.9419485 0.07891504 -1.1848136 -0.73937875
0.9445915 1.191486 -1.6511803 -0.22242919 -0.0942449 0.41551092 -0.33775222 0.17901552
1.1886764 -1.594339 0.01750909 -0.26440918 0.25095674 -0.87075645 0.13890164 1.5837315
0.4127491 0.44654965 0.08660158 0.30006817 0.44735608 0.0944868 0.32164282 -0.6585673
-0.9056778 0.11196856 0.16268252 -0.9343528 -0.9670173 0.18898423 -0.8283071 -0.06618731
0.79436016 0.6108769 0.4831635 -1.0094095 -0.68179727 -0.35695827 0.78057885 -0.99071425
-0.4499174 1.2825379 0.87551624 0.46788317 -0.27303728 0.5964291 0.31695154 -0.008514376
-0.3329155 0.0031746426 0.25418308 -0.81022227 -0.13393295 -1.087344 -0.46388265 -0.38432118
0.11057479 -1.0688977 0.8399582 -0.7851271 0.85745573 -0.1067209 -0.6057681 -0.31297508

value_stream.weight f4 [1, 256]
00000000: 21ec 033e 229f d0bd 8122 b63d 9bee 233e
00000010: 0761 493f 61c0 5abe 55c4 89be 4146 783e
00000020: fbac 93be 4d95 fbbd ad3a 02be 5d44 c03d
00000030: 9ca8 b3be 9cc9 8b3d 20eb 883c fd57 61be
00000040: 8b3f 30be 9b01 003e 3b5d fbbd 1b04 493f
00000050: b4ae 7c3e f67f d8be 8415 95be 53b0 413e
00000060: d75e 53be 00e3 ddbd 790c 68be 17b6 6a3e
00000070: 060b 053d 4caa d13e 658f 3d3e 21e7 613e
00000080: 9e0e 33be 6d81 8bbe 0437 84be 8685 6e3e
00000090: 7cd5 70be a07a 263e afb7 06bf 288d 563e
000000a0: c11a a23e 6fbe 143f 356b c3be a06e a13e
000000b0: 86bd 973d 89d9 2b3e 932f 8f3e 20fe 923e
000000c0: 9e9a a5bf 96c6 6c3e e585 77be d02e 0cbf
000000d0: 24b5 7a3d 70d7 ae3e b495 ee3d 0045 34be
000000e0: d77d 50bf 678c 363e 2af0 3fbe 1ab4 2ebe
000000f0: 3ecd 57be 3970 fa3d d15b e73e 5bbe e23e
00000100: a5f9 87be c1ed efbd fc9f 3ebe 9403 61be
00000110: 9c53 933e 774d 90be 3f9d 3cbe f6e4 abbe
00000120: 8e3b a03e cde6 493e 7301 853e e942 9a3e
00000130: 6c65 5a3f f432 47be 6714 163f c054 dabe
00000140: 231f 9fbd a2ed f8bd d2f5 203e 9a4f 413e
00000150: 17c3 a0be 6c94 de3d ea07 a33e 5136 da3d
00000160: aac0 af3e 7541 873d da5c a2be 8f92 603e
00000170: 4f1d c3bd 9e7c 5dbe 767d 69bd 103a 8ebd
00000180: ff53 5f3e d678 423e 219d 4cbe 91ba 113e
00000190: 4591 653e 1b19 27be 5748 a63e a899 7abe
000001a0: 479a 143d cdbd 9c3e 74be 123e 2055 8bbe
000001b0: 0db5 b43e f268 163d 8d9d fa3d bc5c 523e
000001c0: a888 9bbe 94b3 d6bd 7f14 83be 7a1d 18bf
000001d0: 811e 233e 1510 83be c10d 8bbe 2f4b 843e
000001e0: 9587 65be fe14 7f3e b0c5 653e a943 683e
000001f0: 21bf 823f 84ed ff3e a7da e43e a898 3e3e
00000200: d914 e8be e2bd 0f3e 4b5b 693e 1140 b43e
00000210: ec33 9cbe 057c 923e e162 ad3d 0c2d 103f
00000220: b203 80be 9b82 c53e 714b 8c3e 2862 e2be
00000230: 0f53 a7bd 380c 2cbe 91ce 7d3e a050 21be
00000240: 8ef9 0e3e 209e 93be 43a0 1abe 352f 2c3e
00000250: b222 023e 3a5b 14be e878 55be 1f11 3fbe
00000260: 72f1 a5be 794d 50be 2a48 d93e 10c8 6a3e
00000270: ab60 2b3e 0ca0 debe 6874 b33d c56f bb3e
00000280: c5fb 953e 6aae 163e 0c94 813e 9a53 d5be
00000290: a94c 3ebe d9fa 73be 5bbb b43e 9805 0dbe
000002a0: 32cb 433e 79e7 233e e4a2 f5be a1ec 773e
000002b0: db74 873e 2f56 b33e 95ae 373e 71d6 84be
000002c0: 520c e5be d190 3a3f b6be 9cbc 7121 933e
000002d0: 9f50 72be 34c1 973e bef6 203f 85c3 753e
000002e0: 156e 203e 304c c73e fcf5 ea3d c36c ae3e
000002f0: fe11 21bf 3b34 683e c815 46be 878e 52be
00000300: 348d e4bd 0572 b3be 99dc fb3e 94e7 5a3e
00000310: c9c8 d03e a7bb b63d 07e6 e9be 7b0c 233f
00000320: 23c6 f53e 4090 efbd a1b0 60bf 8668 b63e
00000330: ed00 ad3e a0f0 5e3c c5a3 0d3f 51c3 7d3d
00000340: 6e3a 9c3e 4f78 0d3e 4ef6 aa3d 5297 783e
00000350: 4823 993e 44ac 803e 2724 96be 9cb8 20bf
00000360: 570a 3a3e 4f19 653d bb50 263e 3eee 0f3e
00000370: 6e7e de3d 6053 31be 1422 ffbe f0ad b63e
00000380: 1248 053e 5e2c 743e 38b3 a13e f4e7 8a3e
00000390: a7b6 cabd abee aa3e 7b0e cebe 2e97 513e
000003a0: 8016 67be 3447 333e 8322 0c3e f228 51be
000003b0: 2bac 573e a272 0dbf c5ed c9bd eba2 9abe
000003c0: 4406 90be fa7e 8abe bd7d a73e 0c65 0dbe
000003d0: ebf1 3e3e 2da4 d53d fc01 683f fbce 91bf
000003e0: 8575 bebe 112d 54be 89dc 76be 5439 91bf
000003f0: 44b9 313e 9851 0e3e 2c5b 99be c489 2dbe
0.12883045 -0.10186602 0.088933 0.1600899 0.78663677 -0.21362449 -0.26907602 0.2424555
-0.2884291 -0.12284336 -0.12717696 0.09388039 -0.35089576 0.06825563 0.016713679 -0.22006221
-0.1721174 0.12500612 -0.12273642 0.7852189 0.24676019 -0.42285126 -0.29117978 0.18914919
-0.20641647 -0.108343124 -0.22661008 0.22921024 0.032481216 0.4095024 0.18511732 0.22060825
-0.17486045 -0.27247182 -0.25823224 0.23293123 -0.23518938 0.16257715 -0.5262403 0.20952284
0.31661037 0.5810308 -0.3816773 0.31529713 0.074091956 0.16782202 0.27965984 0.28709507
-1.293781 0.2312263 -0.2417217 -0.5475893 0.061207905 0.3414874 0.11649647 -0.17604446
-0.81442016 0.17826997 -0.18743959 -0.17060891 -0.21074387 0.12228436 0.45187238 0.44285855
-0.2655765 -0.1171527 -0.18615717 -0.21974021 0.28774726 -0.281841 -0.1841936 -0.3357312
0.31295437 0.1971695 0.25977668 0.30129173 0.8531101 -0.19453031 0.5862488 -0.42642784
-0.07769611 -0.121547 0.15718773 0.18878022 -0.31398842 0.10868153 0.31841975 0.10654891
0.3432668 0.06604282 -0.31711465 0.21930908 -0.095270745 -0.21629569 -0.057004414 -0.06944668
0.21809386 0.18991408 -0.19981815 0.14231326 0.22418697 -0.1631817 0.32477066 -0.24472678
0.036279943 0.30613557 0.14330465 -0.27213383 0.3529438 0.036721177 0.12237082 0.20543188
-0.30377698 -0.104834706 -0.25601575 -0.5941998 0.15929605 -0.25598207 -0.2715893 0.2583861
-0.22415002 0.24910352 0.22438693 0.2268206 1.0214578 0.49985898 0.44698068 0.18612921
-0.45328405 0.14037278 0.22788732 0.3520513 -0.30508363 0.28610244 0.08466125 0.56318736
-0.2500282 0.38576207 0.27401307 -0.44215512 -0.08170139 -0.16801536 0.2478583 -0.15753412
0.13962385 -0.28831577 -0.15100197 0.16814883 0.12708548 -0.14487925 -0.20846903 -0.18658875
-0.3241077 -0.20342053 0.4243787 0.2292788 0.16736095 -0.4348148 0.08762437 0.3660871
0.29293647 0.14714971 0.25308263 -0.41665345 -0.18583931 -0.2382616 0.3529919 -0.13771665
0.19120482 0.16006269 -0.47975838 0.2421136 0.2645634 0.3502669 0.17937692 -0.25944856
-0.44735962 0.7287722 -0.019133907 0.2873645 -0.23663567 0.2963959 0.628765 0.24000366
0.15666993 0.38925314 0.11472699 0.34067354 -0.6291808 0.22676174 -0.19344246 -0.20562182
-0.11159745 -0.35047927 0.4919174 0.21377403 0.40778187 0.089225106 -0.4568331 0.6369092
0.4800273 -0.116974354 -0.87769514 0.3562662 0.3378977 0.013607174 0.5532802 0.061953846
0.30513328 0.13815425 0.0834776 0.24276474 0.2990973 0.25131428 -0.29324457 -0.6278169
0.18168007 0.05593234 0.16241734 0.14055726 0.10863958 -0.17316961 -0.49830687 0.3567958
0.13015774 0.2384505 0.31582046 0.2713009 -0.098981194 0.33385214 -0.40245423 0.20467827
-0.22567177 0.1750763 0.1368504 -0.20425776 0.2106177 -0.5525304 -0.09859804 -0.30202422
-0.2812978 -0.2705 0.32713118 -0.13808078 0.18646972 0.10431705 0.9062803 -1.139129
-0.37199035 -0.20720316 -0.24107565 -1.134562 0.1735583 0.13898313 -0.2995237 -0.16947085

advantage_stream.weight f4 [20, 256]
00000000: 763c e53d bd19 5c3b 9b72 0cbb 9620 25be
00000010: d313 373d a590 49be c07f 86bd 1873 06bd
00000020: 9894 833d 0d90 31bd 6e68 95be 0843 a9bd
00000030: 5b28 913d 74c4 73bc a772 5ebc eec4 ce3c
00000040: 7f72 173d 8b40 c23d db34 2f3d f1c3 143e
00000050: 1e45 0cbd f050 443b faa4 97be 4a45 a03e
00000060: 64ae 6bbe 5b5d 9cbd c90c 88bd 6249 d03d
00000070: 8c40 933e 70f7 0fbe 5d27 f03d 1ed0 b8bd
00000080: 579e 673c 0538 06bc 5cbb b63d b675 d63d
00000090: f644 54be 890a 203e ace6 383c 47a8 9ebe
000000a0: 3282 2b3e 3850 ff3e 17e7 893c d989 c8bc
000000b0: f867 813d d0fb 87be 1559 d03d d550 f3bd
000000c0: ee0d 5d3d 1141 873d 29fb 16be 7de1 89bd
000000d0: b1e7 ce3c de84 1f3d 4006 483d 754e bcbe
000000e0: a946 f83c 51ca c73c c736 b33c 6840 1dbe
000000f0: 1bb4 77be 12c8 cd3c 9ee4 af3d 252d d1bb
00000100: c2a3 163c 5e05 8c3c 6cb4 37bd e0a9 733d
00000110: 1e76 a13e 0187 4dbc 920b 20be 1796 ee3b
00000120: 4571 493e cbe9 0b3e 132f 66bd 7a8b 253e
00000130: a2c9 ff3d 8025 b5bd d277 9a3d 9fdd edbe
00000140: f750 c7bd 26df 9ebe 44e8 883c 2f8e c43a
00000150: 8989 a23c 2856 313e e666 b63d 9b9d 4e3d
00000160: e61e 473d 602e 29bd ea1e 4cbd 3887 aa3e
00000170: be80 e2bc 25cd cc3d b25e af3c d15e 9b3e
00000180: 1433 693c d099 01bd 706d 0e3e f94d c03d
00000190: 2c76 423e b2f5 e4bd 0b53 8abd 994c b43d
000001a0: 8b39 1dbe 93d1 053e 0289 753d 61ac 9d3d
000001b0: eabf 05bd 1521 073e 94e5 963d 8597 f83b
000001c0: c8f4 27be 6824 95be fe16 6cbe 4c72 a1be
000001d0: 0340 5fbd 535a 54bc 8b13 15bd d4ec 343e
000001e0: 2943 103e 55c9 41be ee89 3bbe 78a1 003d
000001f0: 10ed 26be 9aef 32be 3b88 8abd 5b1f 37bd
00000200: d616 05bd 6278 1e3b dfb9 8f3e 295e 8b3c
00000210: 169a 1abd 1695 9b3e a411 9c3e f72c 1dbc
00000220: f65f 6b3d 48b2 2a3d a8fd 32be 9ffc 5fbe
00000230: 6b65 1d3e bd44 33bd b7b7 633e 790c bbbb
00000240: 6c0d 9ebc e6ed d7bd 15d7 f53d bd8d 3c3e
00000250: ddbf 68bd 7253 53bb 6c33 67bc 21ec a83d
00000260: 6b7e f83b fc7c 43bc be8e 6abe b7e4 41bc
00000270: c9a9 073e 9296 903e 49bb 5dbd 1a14 3abe
00000280: 1a27 da3d fa0a 883d e1f2 e23c f48b 4fbe
00000290: fb8a 91be 53e7 c03d aa0c a23d 182e e9bc
000002a0: b2d4 653d 9af0 01be 2e4b a0ba 939d bcbd
000002b0: 50ad 1a3d e05d 1dbe d033 62bd 56d9 293e
000002c0: 964a 24bd fe7e 8b3e d382 5ebe 89dd 7b3d
000002d0: 0c1c 99bb 57a6 373d 9640 c03d 2dfc 643d
000002e0: 12c5 3a3d 17bc 5b3e accf 903d 95c8 0c3c
000002f0: 785c c4be 000b 9e3d 64bc 56bd 8fb9 4dbd
00000300: 8fca a5be 6557 25be 18f7 b43d 5b4e 8ebd
00000310: be27 26bd 21ec 93bd dc55 cbbd e92b c9bc
00000320: 244e f0bd c8bb 32bb bcc6 323f 2c8e 013e
00000330: 0945 083e e34f 11bd c9c0 d4bc b6bc a5bb
00000340: 86ef ab3e 33ab 793d e01f 84bb 07b5 6abe
00000350: 540d 6b3e 30b2 143e 9824 e3bd e025 0c3e
00000360: 9bed 603e 53c8 90be 9dd1 823d c8ac 8fbd
00000370: 8c5e bcbc 78a0 96bd 568a 09be a66e 0e3e
00000380: 98f5 1c3d 3782 053c 8207 2ebe a2cf 273d
00000390: 759c debd 5a15 a03e a492 863c f79f 013d
000003a0: 328b e6bd 5278 e23d 4ced 2d3e b659 893e
000003b0: 7eb7 a4bd cbbf e5bd 3397 103e d6d1 a7bd
000003c0: 6a41 3ebe 2453 c2bc 64d2 c8bd dc57 113e
000003d0: be80 963d 23f7 5b3e 1a54 033e fe78 7dbe
000003e0: 203e d83c 3c3b b0bc 858b 8bbd f920 133e
000003f0: a746 dfbc 6d30 1e3d d4af 243e e2bd 573d
0.11193173 0.0033584677 -0.0021430615 -0.16125712 0.04469664 -0.19684084 -0.06567335 -0.032824606
0.064248264 -0.04335027 -0.29181236 -0.08264738 0.07087775 -0.014878381 -0.01357714 0.025240388
0.036974426 0.09484967 0.042775016 0.1452787 -0.034245603 0.002995547 -0.29618055 0.31302863
-0.23015743 -0.07634994 -0.066430636 0.10170247 0.28760183 -0.14059234 0.11726258 -0.0902407
0.014136872 -0.008192067 0.08922455 0.1047167 -0.20729432 0.15629019 0.011285465 -0.3098776
0.16748884 0.4986589 0.016833825 -0.024479793 0.063186586 -0.26559305 0.10173241 -0.11880652
0.053968363 0.06604207 -0.14744247 -0.067324616 0.025256963 0.03894507 0.048834085 -0.36778608
0.03030713 0.024388464 0.021876706 -0.153566 -0.24189799 0.025119815 0.08588527 -0.0063835555
0.009194316 0.017092403 -0.044849798 0.059488177 0.3153543 -0.0125443945 -0.15629414 0.0072810757
0.19672115 0.13663404 -0.056197237 0.16166487 0.1248963 -0.08845043 0.07542385 -0.46458146
-0.0973224 -0.31029624 0.016712315 0.0014995987 0.019840972 0.17318022 0.08906345 0.050443273
0.04861345 -0.041303992 -0.04983417 0.3330629 -0.02764928 0.10000066 0.021407459 0.30345777
0.014233369 -0.031640828 0.13908935 0.09389872 0.18990391 -0.11179675 -0.067541204 0.08803672
-0.15353982 0.13068227 0.059945114 0.07698894 -0.032653727 0.13196214 0.07368007 0.007586422
-0.1640197 -0.29129338 -0.23055646 -0.31532514 -0.054504406 -0.012960988 -0.03639559 0.17668468
0.1408812 -0.18924458 -0.18314335 0.03140399 -0.1630137 -0.17474213 -0.06764265 -0.044707637
-0.03249248 0.002418064 0.28071496 0.017012672 -0.037744604 0.3038718 0.3048221 -0.00959324
0.057464562 0.04167393 -0.17479575 -0.21873711 0.15370719 -0.043766726 0.2223805 -0.005708274
-0.01929351 -0.105434224 0.12003914 0.18413444 -0.0568236 -0.0032245782 -0.014111381 0.08248163
0.0075834296 -0.011931654 -0.22906014 -0.011834315 0.13248362 0.28239876 -0.054133687 -0.1817173
0.10651989 0.066427186 0.027703704 -0.20268232 -0.28426346 0.094191216 0.07912572 -0.028464362
0.056111045 -0.12689438 -0.0012229437 -0.092097424 0.03776294 -0.15367842 -0.055225194 0.16586813
-0.040110193 0.27245325 -0.21729593 0.06149057 -0.004672533 0.04483637 0.09387319 0.055904556
0.045598097 0.2145847 0.0707086 0.008592744 -0.38351798 0.07716942 -0.052425757 -0.05022579
-0.32381102 -0.1614662 0.08836192 -0.06948539 -0.040565245 -0.072227724 -0.09928486 -0.02455707
-0.11733654 -0.002727257 0.69834495 0.1265189 0.13307585 -0.035476577 -0.025970833 -0.0050578965
0.3358118 0.060954284 -0.00403212 -0.22920619 0.22954303 0.14521098 -0.11090964 0.13686323
0.2196564 -0.28277835 0.06387637 -0.07015377 -0.022994302 -0.07354826 -0.13431677 0.13909397
0.038320154 0.008148721 -0.16995052 0.0409695 -0.108696856 0.3126629 0.016427346 0.031646695
-0.11257018 0.110581055 0.16985053 0.26826257 -0.08042811 -0.11218222 0.14120178 -0.0819432
-0.18579641 -0.023721285 -0.09805754 0.14193672 0.073487744 0.21480994 0.12825051 -0.24753186
0.026396811 -0.02151262 -0.068137206 0.14368047 -0.02725537 0.0386204 0.16082698 0.05267132

advantage_stream.bias f4 [20]
00000000: 33f8 95be 451f 463e 3a19 413e ea97 5a3e
00000010: 8f56 5e3e f478 5a3e 4cbf f93d 62aa 6cbd
00000020: 04e3 0bbe 7d49 59bc aac2 173e b40a 5fbe
00000030: b6db e93c 0b4e c3bd 5b77 793e a06a 59bd
00000040: e105 d03d 1ddd 353e 5ffe ce3d 7c4c 2ebe
-0.29290923 0.19347866 0.1885728 0.21347013 0.21712707 0.21335202 0.1219469 -0.057779677
-0.13660818 -0.01326215 0.14820352 -0.21781427 0.02854715 -0.0953637 0.24361937 -0.0530802
0.10157371 0.1776013 0.10107111 -0.17021364
