src/hockey-env/random_training_1/weights/episode_872.pth (torch, 307504 bytes, 7 tensors)

layers.0.weight f4 [256, 18]
0.014765106 0.118622035 -0.15626389 -0.01449601 0.05324305 0.02717128 0.10626575 0.6967222
0.36234674 -0.033785235 0.1512668 0.059864733 0.71727186 -0.112535484 0.9862281 -0.22659867
-2.3476229 1.6364926 0.17398103 -0.6385592 0.22076392 0.05419851 -0.013341803 -0.0008474868
0.9519838 -0.2940561 0.26048344 0.06534647 -0.056719996 0.027050251 -2.00361 -0.67301714
-0.23147595 -0.12715688 0.4120612 0.17123611 -0.046883825 0.0166809 -0.014096585 -0.045760304
0.052570477 -0.021809949 1.314577 0.85216254 0.4427219 0.041242033 -0.060082387 0.11085847
0.21670182 -0.12989073 0.465706 0.037821136 0.28067437 0.19499171 0.08010989 0.38684863
-1.3309777 0.05477803 0.05576625 -0.21299598 -0.13000461 0.23039249 -0.1429816 -0.0038239222
-0.04338999 -0.033479337 -0.09372084 -0.33599845 -0.005851075 -0.028028514 0.015460964 0.07993622
-0.079018876 0.34199342 0.031322803 -0.027816195 -0.044340223 -0.026776832 -0.047485784 0.11497046
-0.17267816 -0.10142434 -0.07039198 -0.11011712 0.9307905 -0.024683647 1.2594477 -0.47774997
0.92943907 1.8670155 0.31462553 0.008335237 0.11704351 0.12935098 0.013070434 0.010083539
0.93315566 -0.47855005 0.28805673 0.0546083 -0.092735276 -0.019388061 -0.83283305 -0.05669797
-0.5923957 -0.35449716 -0.112163015 -1.3953669 -0.12886122 0.080758944 -0.23601893 -0.020230241
0.012679361 -0.015550313 0.14686608 -0.042251952 0.64390945 0.14703098 -0.04985157 0.027259197
-0.19317718 0.87353987 -0.28322512 0.9931819 -0.7172912 0.40988126 -0.309876 -1.3404756
-0.20364372 0.02035321 -0.17173967 -0.010070414 -0.11809918 1.7895753 0.08171043 -0.0013877244
0.15803327 0.05465429 0.50779414 0.24555634 0.062012684 0.03687675 -1.731792 0.10344695
0.02395624 -0.23285355 0.09531785 0.0034641114 -0.022285324 -0.00038701508 0.09880554 0.2261073
0.12944312 -0.018495126 0.16246341 -0.02072448 -0.8591979 -0.017841065 -1.275306 0.4480209
-2.9499655 -1.393352 0.6118796 -0.97779727 0.14513132 0.19044185 -0.08054122 0.022233622
-0.6211931 0.26206255 0.47849536 0.00012412609 0.040065613 0.0405387 -0.29343992 0.5351032
-0.3997528 -0.22691345 -3.4042935 -0.5586713 -0.3859138 -0.12275084 0.32084894 0.085498415
0.0051467395 0.011526456 0.55495834 0.23879421 -0.14245102 0.01883429 -0.13288349 0.010743327
-0.86565536 0.0003031793 0.5255073 -0.5144338 0.095842704 1.0741055 0.1785905 -0.046530105
-0.03389826 -0.07107664 0.01213502 -0.0032805142 -0.49814174 2.0887775 -0.3201063 0.093818225
0.36261153 0.011023888 0.7255608 0.556811 -0.6716059 -0.5777042 0.7905208 -1.5929341
0.2500275 -1.8457025 0.050942976 0.20299941 -0.18431515 0.0014187543 -0.193411 1.7161025
2.1883101 0.11857302 0.08954504 0.14041312 0.3651782 0.6292556 -0.1467773 0.8319361
-0.72194076 0.001567501 -0.30572653 -0.42262265 -0.019768417 0.13476369 0.05289953 -0.011435399
0.3164126 -0.008180984 0.49577028 -0.018282952 -0.06797009 -0.1663452 0.3722895 -0.5100617
0.45752096 -0.4834768 0.32118055 1.4383498 0.049013488 -0.013093277 0.0015517047 -0.08895638
00000000: 58e9 713c 1cf0 f23d a403 20be ac80 6dbc
00000010: 6215 5a3d 4e96 de3c dca1 d93d 635c 323f
00000020: 8385 b93e 6362 0abd afe5 1a3e b934 753d
00000030: 219f 373f 0179 e6bd 7279 7c3f 7b09 68be
00000040: 743f 16c0 9778 d13f 1528 323e 9e78 23bf
00000050: f00f 623e 42ff 5d3d 9497 5abc e029 5eba
00000060: 36b5 733f 858e 96be 165e 853e 5fd4 853d
00000070: 3a53 68bd 7d98 dd3c 253b 00c0 da4a 2cbf
00000080: 0808 6dbe 6a35 02be b0f9 d23e 8558 2f3e
00000090: 4109 40bd 62a6 883c 5df5 66bc 286f 3bbd
000000a0: 2454 573d c7aa b2bc 0f44 a83f 5327 5a3f
000000b0: 72ac e23e 68ed 283d f318 76bd c409 e33d
000000c0: 15e7 5d3e 1302 05be 0471 ee3e 56ea 1a3d
000000d0: 8db4 8f3e e8ab 473e a710 a43d 0611 c63e
000000e0: 7a5d aabf ed5e 603d 276b 643d 9e1b 5abe
000000f0: ee1f 05be 02ec 6b3e c569 12be c59a 7abb
00000100: b4b9 31bd a121 09bd b6f0 bfbd fd07 acbe
00000110: 60ba bfbb 0e9c e5bc fc4f 7d3c 9ab5 a33d
00000120: a6d4 a1bd c319 af3e 574c 003d cade e3bc
00000130: 189e 35bd 165b dbbc 7480 42bd a275 eb3d
00000140: 8bd2 30be 90b7 cfbd ac29 90bd 1685 e1bd
00000150: 4948 6e3f 5c35 cabc 9535 a13f a59b f4be
00000160: b8ef 6d3f 5dfa ee3f 9916 a13e 8590 083c
00000170: 82b4 ef3d 9574 043e 6025 563c 6e35 253c
00000180: 4ae3 6e3f 8304 f5be 2c7c 933e f4ac 5f3d
00000190: feeb bdbd b6d3 9ebc 8c34 55bf 213c 68bd
000001a0: 3fa7 17bf a780 b5be b9b5 e5bd 629b b2bf
000001b0: 32f4 03be f264 a53d f2ae 71be e4b9 a5bc
000001c0: 18bd 4f3c bdc6 7ebc 1064 163e 6210 2dbd
000001d0: 40d7 243f 4a8f 163e 2931 4cbd ae4e df3c
000001e0: 3dd0 45be 4fa0 5f3f e202 91be 2b41 7e3f
000001f0: 65a0 37bf f5db d13e 11a8 9ebe b494 abbf
00000200: fb87 50be c6bb a63c 86dc 2fbe 61fe 24bc
00000210: fcdd f1bd ce10 e53f cc57 a73d 4ee4 b5ba
00000220: 79d3 213e 2ddd 5f3d ccfe 013f 1f73 7b3e
00000230: 0301 7e3d 130c 173d 5cab ddbf ffdb d33d
00000240: e03f c43c 2971 6ebe 0136 c33d 2506 633b
00000250: b68f b6bc 49e8 cab9 8f5a ca3d ac88 673e
00000260: bd8c 043e 1783 97bc cf5c 263e 62c6 a9bc
00000270: 65f4 5bbf 6d27 92bc 3a3d a3bf ff62 e53e
00000280: 3ccc 3cc0 5c59 b2bf 24a4 1c3f ec50 7abf
00000290: 4e9d 143e 3003 433e ccf2 a4bd 4923 b63c
000002a0: 8306 1fbf 102d 863e 58fd f43e d827 0239
000002b0: d71b 243d e80b 263d c23d 96be 86fc 083f
000002c0: 66ac ccbe 005c 68be f2df 59c0 1505 0fbf
000002d0: 7e96 c5be cb64 fbbd 5046 a43e cb19 af3d
000002e0: fba5 a83b 76d9 3c3c c011 0e3f 7886 743e
000002f0: aede 11be 5e4a 9a3c 9c12 08be c804 303c
00000300: 979b 5dbf 09f4 9e39 a587 063f efb1 03bf
00000310: 2e49 c43d 4a7c 893f 6ee0 363e 5a96 3ebd
00000320: e7d8 0abd a190 91bd f7d1 463c e5fd 56bb
00000330: 6f0c ffbe 88ae 0540 f9e4 a3be c523 c03d
00000340: 38a8 b93e 8a9d 343c 5abe 393f 2a8b 0e3f
00000350: 5dee 2bbf 6ce4 13bf 925f 4a3f 44e5 cbbf
00000360: 9b03 803e fb3f ecbf 95a9 503d 14df 4f3e
00000370: 1cbd 3cbe 7ff5 b93a 880d 46be 3fa9 db3f
00000380: 460d 0c40 69d6 f23d 6463 b73d 75c8 0f3e
00000390: a3f8 ba3e e516 213f ca4c 16be c4f9 543f
000003a0: 1cd1 38bf 9b74 cd3a 3088 9cbe ff61 d8be
000003b0: 60f1 a1bc 7eff 093e 2dad 583d 8a5b 3bbc
000003c0: d500 a23e 8909 06bc 9ad5 fd3e 21c6 95bc
000003d0: e733 8bbd 6556 2abe bb9c be3e 6793 02bf
000003e0: 3040 ea3e 458a f7be c771 a43e d91b b83f
000003f0: 5ec2 483d 2f85 56bc 9262 cb3a c32e b6bd

layers.0.bias f4 [256]
-1.7224169 1.2747339 3.064427 0.6850214 0.90953434 -1.6670451 1.3888586 -1.3451962
-0.9095767 -2.3311977 3.7443397 -0.5052862 1.9460641 1.2605928 -0.3879218 1.2559804
0.24057347 2.8138723 -1.9453939 -1.9046267 2.3279395 0.22315301 -0.4610356 3.4593594
-2.494966 1.804895 0.59380925 -0.5340743 1.7811788 0.06338865 1.8975167 2.840473
-0.9883576 0.0102638295 -0.6665545 2.5066097 -2.941954 0.92220163 -1.6809838 0.6341884
-1.0204831 0.38199347 -0.9614766 -0.5122314 -1.7593886 -1.6721555 -2.071671 0.48641407
1.6212325 0.65773463 -0.06963407 -1.1306766 0.8521797 -0.33070242 2.144451 -1.4469789
0.4127398 2.484547 2.2974846 2.3513806 0.9403386 -2.8073585 0.8874648 2.7452245
-2.4898825 -0.23611656 -0.4401287 2.7788687 3.141057 -0.3723583 0.13701472 -0.97923994
0.33664176 -0.09228477 1.8478394 1.9564332 -1.7798681 1.5045075 -1.6838006 3.1236644
-1.401161 -2.0596788 3.0054297 -0.2971361 4.0265 3.7142222 -0.29553998 1.368446
1.8978308 0.7063049 0.09590983 0.8050996 0.61044055 1.7083538 1.4613533 2.7937593
2.14822 -1.5198724 -2.2230306 1.7525373 1.4118505 2.6118896 -0.11719461 1.047723
-0.5626284 0.4366246 -0.21245323 -0.4740425 3.5768836 -0.6645059 -1.5771265 -1.7024378
0.5960616 1.335832 -1.7472548 1.4457916 -0.02799885 -2.3759341 2.0568845 -0.03068704
0.032068364 1.043485 -0.64358854 0.418733 -1.5186485 0.590164 1.5568657 0.787454
0.13770422 -3.0591445 -1.12986 0.80608946 4.1171436 -3.3186853 1.6335124 2.4031622
-2.269055 1.4012694 -1.4955701 -1.0485147 -0.44680855 2.7811213 2.582872 -1.5122536
-0.4808591 1.5582484 -1.2878604 0.3844123 1.150448 2.2345226 2.3903995 1.7049696
-2.3038385 -0.20262977 0.04944668 -1.9724352 0.020910515 1.1104709 2.5981457 -2.2025728
1.3205128 3.0670564 0.09491754 -0.77061796 -0.26543507 -1.6826106 2.5039098 1.5251781
-0.0055711437 2.1264493 1.5688956 0.9693077 -1.5487747 1.0436755 0.84407085 -1.2112544
0.85672194 0.30871823 0.11001748 2.822698 3.3883011 -2.7695181 1.7136075 1.9410102
-0.44519046 -0.5996627 -1.5586718 1.0558122 1.3366543 -0.18310712 -2.561738 -0.2006767
1.5757602 2.7374034 -0.164178 0.6744998 -2.4663508 0.7272602 -0.7991435 2.0584533
2.476943 2.8164117 -1.58585 0.42104504 0.66040695 -0.1618495 -1.686745 -2.6706703
0.8705554 -0.3531481 1.3908318 -1.2130481 0.4928763 -1.6554819 -0.9404801 -0.33895874
-0.14729233 1.2137834 -1.5108068 -0.7157334 -2.1560867 -1.8532432 0.745865 0.14886837
0.67876434 1.5537891 1.3384905 1.8507777 -3.1057608 2.1394 0.99236655 1.4443965
-0.39826527 2.7893963 -0.26433855 0.7762536 -1.8400987 -1.8986459 -2.1559699 1.6352831
-2.4352913 -0.82421786 1.1040272 -1.07743 1.7641541 -1.8278514 -0.58984244 1.3966403
-1.9869237 -0.9486946 -2.9842389 1.0509523 0.51635355 0.5968477 1.6818031 -1.9441892
00000000: 2878 dcbf 7b2a a33f 921f 4440 905d 2f3f
00000010: 3ed7 683f bc61 d5bf 1ec6 b13f 642f acbf
00000020: 05da 68bf 5832 15c0 43a3 6f40 705a 01bf
00000030: a118 f93f 1b5b a13f b09d c6be f7c3 a03f
00000040: e458 763e 7c16 3440 ab02 f9bf cfca f3bf
00000050: f6fc 1440 3982 643e dc0c ecbe 2566 5d40
00000060: 86ad 1fc0 cd06 e73f e203 183f 18b9 08bf
00000070: abfd e33f e9d1 813d d4e1 f23f 4fca 3540
00000080: 0105 7dbf 9f29 283c 51a3 2abf 4b6c 2040
00000090: f948 3cc0 6815 6c3f 7a2a d7bf 2c5a 223f
000000a0: 319f 82bf a694 c33e 5523 76bf 9921 03bf
000000b0: a533 e1bf 3109 d6bf 4296 04c0 440b f93e
000000c0: 8c84 cf3f 4c61 283f 4f9c 8ebd 03ba 90bf
000000d0: 7328 5a3f d451 a9be af3e 0940 9b36 b9bf
000000e0: a252 d33e d102 1f40 fd09 1340 057d 1640
000000f0: 08ba 703f c3ab 33c0 e530 633f c2b1 2f40
00000100: 3c5a 1fc0 8ac8 71be 8d58 e1be fcd8 3140
00000110: 1407 4940 bfa5 bebe 964d 0c3e 78af 7abf
00000120: 4f5c ac3e ccff bcbd 0086 ec3f 676c fa3f
00000130: b8d2 e3bf b493 c03f c786 d7bf 1eea 4740
00000140: 3e59 b3bf c7d1 03c0 f658 4040 3922 98be
00000150: 17d9 8040 d1b5 6d40 0451 97be 3d29 af3f
00000160: 1fec f23f 66d0 343f 5f6c c43d 021b 4e3f
00000170: d545 1c3f 56ab da3f a00d bb3f f4cc 3240
00000180: 707c 0940 2e8b c2bf 2246 0ec0 2453 e03f
00000190: 84b7 b43f 3329 2740 ba03 f0bd ca1b 863f
000001a0: 6a08 10bf 428d df3e 578d 59be b3b5 f2be
000001b0: a9eb 6440 0f1d 2abf 48df c9bf 7be9 d9bf
000001c0: 7e97 183f 8bfc aa3f 0ca6 dfbf b30f b93f
000001d0: d85d e5bc 4e0f 18c0 ffa3 0340 6363 fbbc
000001e0: 1e5a 033d eb90 853f 38c2 24bf 2c64 d63e
000001f0: 1363 c2bf fd14 173f 6047 c73f 9696 493f
00000200: 5602 0d3e 06c9 43c0 419f 90bf e15b 4e3f
00000210: a4bf 8340 5765 54c0 ef16 d13f 69cd 1940
00000220: 3238 11c0 cc5c b33f d76e bfbf bb35 86bf
00000230: 17c4 e4be e4fd 3140 c64d 2540 8791 c1bf
00000240: 2a33 f6be af74 c73f 9cd8 a4bf b0d1 c43e
00000250: e141 933f 6b02 0f40 4efc 1840 723c da3f
00000260: 1772 13c0 2e7e 4fbe 9a88 4a3d c278 fcbf
00000270: 874c ab3c e923 8e3f 0548 2640 f4f6 0cc0
00000280: 9006 a93f a74a 4440 2164 c23d 3847 45bf
00000290: 1be7 87be c95f d7bf 0f40 2040 0939 c33f
000002a0: 248e b6bb bf17 0840 92d1 c83f 8d24 783f
000002b0: 403e c6bf 2997 853f 0715 583f 620a 9bbf
000002c0: 2152 5b3f 5110 9e3e d850 e13d 16a7 3440
000002d0: edd9 5840 c93f 31c0 7e57 db3f 0673 f83f
000002e0: 01f0 e3be 7f83 19bf 8f82 c7bf db24 873f
000002f0: 7d17 ab3f 6f80 3bbe 84f3 23c0 317e 4dbe
00000300: 83b2 c93f 9e31 2f40 471e 28be 05ac 2c3f
00000310: b1d8 1dc0 b92d 3a3f ab94 4cbf b3bd 0340
00000320: 3c86 1e40 1740 3440 22fd cabf 3793 d73e
00000330: 6e10 293f e0bb 25be 43e7 d7bf 43ec 2ac0
00000340: b8dc 5e3f d4cf b4be c706 b23f 2945 9bbf
00000350: 485a fc3e d5e6 d3bf 4ec3 70bf 008c adbe
00000360: cdd3 16be 415d 9b3f 1e62 c1bf 4e3a 37bf
00000370: 53fd 09c0 1337 edbf 02f1 3e3f f370 183e
00000380: 80c3 2d3f 90e2 c63f a853 ab3f 49e6 ec3f
00000390: c9c4 46c0 eeeb 0840 bc0b 7e3f fce1 b83f
000003a0: 6de9 cbbe 7885 3240 6257 87be 8eb8 463f
000003b0: 5b88 ebbf d406 f3bf 69fb 09c0 f550 d13f
000003c0: d0db 1bc0 f1ff 52bf c350 8d3f 3ae9 89bf
000003d0: cdcf e13f 09f7 e9bf eaff 16bf 1cc5 b23f
000003e0: 8453 febf a6dd 72bf c5fd 3ec0 9b85 863f
000003f0: bf2f 043f 03cb 183f 5345 d73f 31db f8bf

layers.1.weight f4 [256, 256]
0.90276873 -0.10220035 -0.102161795 0.016292049 -0.44294283 -0.45212692 -0.013382014 0.7838874
0.8097828 -0.39204943 -0.1795952 0.20400907 0.1509251 -0.5755959 0.48857337 0.07403149
1.1018387 0.64771277 0.1391198 0.94752073 0.4473116 0.21792606 0.992978 -1.2087262
0.001972909 -0.5853003 -0.36196393 0.24937694 -0.3033865 -0.739136 0.3606905 -0.037806757
0.36921352 -0.22989778 0.07343072 -0.7372638 -0.39327407 1.1803638 0.7041958 0.19169247
-0.44400916 -0.35581583 -0.098828636 -0.35001445 0.9625803 -0.12641561 -0.37990132 0.13284236
0.18425828 0.08758397 -0.47210848 -0.12018295 0.49876112 0.22554861 -0.7079312 -0.3727025
-0.27106792 0.3118719 -1.5818895 -1.015073 0.15875286 -0.52882874 -0.2901973 0.47783878
1.2877707 -0.20457052 0.36404645 1.0962001 0.15280452 0.05834071 0.27914166 0.26477647
-1.0858066 -0.09543052 0.63870746 -0.5620865 0.44084746 0.6370709 0.16420373 0.5437333
0.030123636 1.0112259 0.61964095 0.3993442 -1.2360528 0.14278045 -0.16541368 0.22760357
-1.7348886 -0.19280209 0.10704833 -0.094986804 -1.0967227 -0.26959172 0.20426601 0.1882708
0.80982363 -0.5528266 -0.038679134 0.44226322 0.0034400374 -0.41689825 0.008370004 0.074247345
0.3030039 -0.6764478 0.31651938 -0.3765618 -0.62049854 0.52795446 0.9396151 0.36451238
0.19553147 -0.6235036 -0.3854495 -0.20778243 2.025749 0.7661091 0.3051786 0.27511412
-0.77589774 -0.1737778 -0.2783218 0.45292953 1.2209738 0.55323863 0.23658207 0.16272923
-0.5378989 0.2637248 0.28380823 0.17572178 0.090514146 -0.250957 0.55258167 0.11476263
0.89555925 0.93379366 -0.97879934 0.9709716 0.011941738 0.08574784 -0.36199996 -0.6668327
0.03909285 0.110565096 -0.5637201 -0.06307096 -0.16821015 -0.3946162 -0.9779357 1.1814623
0.060760956 1.1955768 -0.7075397 -0.38611093 -0.9904358 0.22683208 -0.4146428 0.8886988
0.13369572 0.81494564 0.5847636 0.52638555 -0.26282418 0.9036271 -0.27760532 -0.44210884
-0.61650866 0.5322751 0.12674464 1.2777609 0.53877157 -0.30018103 0.92117065 -1.1318923
0.17999648 0.8099926 -0.14131755 -0.36476314 0.109498434 -0.07408049 -0.6329032 -0.6657854
0.37195942 0.52627635 -0.24388438 0.0006815065 -0.589446 0.16716747 -0.01795066 0.3967734
-0.49357888 0.39145577 -0.92539644 -0.23958005 -0.4308942 -0.33889887 0.5375171 -2.459979
-0.29235744 -0.643339 -0.7326628 -0.33885446 0.57873845 -0.27917272 -1.0440196 0.43785957
1.0880895 0.08606408 0.29240197 0.054030847 -0.40474236 0.9536595 0.5282023 0.47750983
0.19765617 1.1322961 0.3823105 -0.2810905 -0.52258795 -0.054930296 -0.63533896 0.13107441
0.6510256 0.40562385 0.13864411 -0.42486197 -0.5434649 0.56410563 0.31160355 0.0734189
0.63445497 0.31437337 -0.18674508 0.23958059 0.5764371 0.13959055 0.7007579 0.5693594
0.11266451 -0.77861404 -0.7024106 -1.1906276 0.63002 0.43029207 1.2419025 0.37457314
-0.13679712 0.68954605 -0.15017016 0.06927299 0.64788735 -0.37993705 0.70592606 -0.9878463
00000000: da1b 673f 6b4e d1bd 343a d1bd e776 853c
00000010: 67c9 e2be 2e7d e7be 3c40 5bbc d8ac 483f
00000020: ed4d 4f3f b4ba c8be cee7 37be c1e7 503e
00000030: 1c8c 1a3e 415a 13bf 4a26 fa3e d29d 973d
00000040: 0d09 8d3f 81d0 253f 6c75 0e3e b890 723f
00000050: 0706 e53e 0228 5f3e ce33 7e3f 8ab7 9abf
00000060: ec4b 013b 3ed6 15bf 5653 b9be ab5c 7f3e
00000070: 7a55 9bbe 0438 3dbf 6dac b83e 42db 1abd
00000080: 8e09 bd3e 536a 6bbe d862 963d 52bd 3cbf
00000090: 385b c9be 2916 973f 2d46 343f 084b 443e
000000a0: 2b55 e3be 7e2d b6be ab66 cabd 1835 b3be
000000b0: aa6b 763f 1873 01be 6d82 c2be d407 083e
000000c0: 34ae 3c3e 395f b33d 34b8 f1be 7a22 f6bd
000000d0: 9e5d ff3e 37f6 663e fb3a 35bf ddd2 bebe
000000e0: 6ac9 8abe acad 9f3e 5b7b cabf e9ed 81bf
000000f0: 1c90 223e 5261 07bf be94 94be 49a7 f43e
00000100: acd5 a43f ef7a 51be 4c64 ba3e 4950 8c3f
00000110: ca78 1c3e abf6 6e3d a8eb 8e3e c890 873e
00000120: b6fb 8abf 1471 c3bd 5582 233f e7e4 0fbf
00000130: c2b6 e13e 1417 233f 0625 283e 1b32 0b3f
00000140: d8c5 f63c da6f 813f caa0 1e3f d876 cc3e
00000150: fa36 9ebf 0a35 123e 3462 29be e910 693e
00000160: d410 debf e96d 45be 283c db3d 7188 c2bd
00000170: 6961 8cbf ed07 8abe 1c2b 513e 10ca 403e
00000180: 9a50 4f3f 0b86 0dbf 036e 1ebd 5370 e23e
00000190: 4072 613b b073 d5be 5722 093c fe0e 983d
000001a0: 5423 9b3e af2b 2dbf d40e a23e b5cc c0be
000001b0: fed8 1ebf 0628 073f 9d8a 703f 5ea1 ba3e
000001c0: 6739 483e ef9d 1fbf a359 c5be ebc4 54be
000001d0: dfa5 0140 ba1f 443f 5f40 9c3e c2db 8c3e
000001e0: 3ca1 46bf cff2 31be 3280 8ebe 61e6 e73e
000001f0: df48 9c3f 0ca1 0d3f 9242 723e 7ea2 263e
00000200: beb3 09bf f006 873e 504f 913e 69f0 333e
00000210: 7b5f b93d 707d 80be fe75 0d3f ab08 eb3d
00000220: 5f43 653f 1a0d 6f3f 9892 7abf 9891 783f
00000230: 48a7 433c 909c af3d 0f58 b9be 8cb5 2abf
00000240: d31f 203d f46f e23d f64f 10bf 592b 81bd
00000250: 483f 2cbe 220b cabe fe59 7abf 283a 973f
00000260: 7be0 783d a908 993f 5221 35bf 55b0 c5be
00000270: 338d 7dbf ab46 683e 104c d4be c481 633f
00000280: 88e7 083e 47a0 503f 11b3 153f 34c1 063f
00000290: e490 86be 1b54 673f 4922 8ebe 175c e2be
000002a0: 83d3 1dbf 2e43 083f 59c9 013e ab8d a33f
000002b0: efec 093f 54b1 99be d7d1 6b3f d9e1 90bf
000002c0: ff50 383e ad5b 4f3f 8cb5 10be 3cc2 babe
000002d0: b740 e03d 83b7 97bd f205 22bf e970 2abf
000002e0: 7771 be3e 0cba 063f d4bc 79be 21a7 323a
000002f0: efe5 16bf f32d 2b3e 430d 93bc e225 cb3e
00000300: 5fb6 fcbe e46c c83e c8e6 6cbf 7954 75be
00000310: 2a9e dcbe 2784 adbe b89a 093f 4c70 1dc0
00000320: e0af 95be ddb1 24bf ca8f 3bbf 557e adbe
00000330: 3428 143f baef 8ebe 6fa2 85bf 212f e03e
00000340: 8446 8b3f 5d42 b03d b6b5 953e 734f 5d3d
00000350: 643a cfbe 0723 743f 4438 073f 2b7c f43e
00000360: 6166 4a3e 14ef 903f 34be c33e 18eb 8fbe
00000370: 53c8 05bf 97fe 60bd 93a5 22bf 5f38 063e
00000380: 9da9 263f eead cf3e b9f8 0d3e 8287 d9be
00000390: 8420 0bbf 3a69 103f 808a 9f3e a65c 963d
000003a0: a46b 223f 8cf5 a03e 1a3a 3fbe 9d54 753e
000003b0: 6291 133f d3f0 0e3e df64 333f 8ac1 113f
000003c0: a7bc e63d 4053 47bf 2ed1 33bf 7c66 98bf
000003d0: fe48 213f 3e4f dc3e a9f6 9e3f 0dc8 bf3e
000003e0: 8b14 0cbe 1786 303f 35c6 19be ffde 8d3d
000003f0: f2db 253f 1c87 c2be 92b7 343f 7fe3 7cbf

layers.1.bias f4 [256]
0.43892804 -0.20952213 1.0533061 0.24853942 0.5117341 0.16108927 0.5367401 0.12306153
-0.7609583 0.3912909 -0.6068953 -0.13422287 -0.021606999 0.9270228 -0.33600432 0.29696405
-0.630659 -0.012375967 0.89940697 -0.582472 0.3571784 -0.3672823 -1.1471988 0.18433554
-0.977837 -0.70105094 -0.43696886 -0.03716004 1.0644853 0.8725995 1.0721678 0.2994519
0.23404965 -0.74100184 -0.61641836 0.5528784 0.7578768 1.1014948 -0.6215106 -0.109629594
0.00635986 0.5337416 -0.84233165 -0.6614086 0.9306042 1.180726 0.21982178 0.6820477
0.2615438 0.28884336 -0.86079067 0.15569665 0.13145652 -0.58192945 0.9630225 -0.9459011
0.044539675 -0.45681107 0.042397488 -0.20019636 0.2604904 1.5442879 0.8643173 1.075744
-0.95519793 -0.48165 -0.86423904 -0.52245814 0.48621225 0.47611293 -0.76765776 0.7094596
-0.4024762 0.57598513 -0.13721515 0.22780026 0.5085618 0.039104436 -0.84122115 -1.2211952
-0.31569198 -1.1789181 0.88821 -0.32213983 -0.7270216 0.38601497 -0.9133029 0.3648215
-0.77259165 1.0315353 0.6340456 1.0574554 -0.18192247 0.22617412 -0.24661225 0.061492346
-0.09329727 -0.29394642 -0.66820776 -0.22302821 -1.1896942 -0.39896607 0.72684604 -1.4754996
-0.8336642 0.6589203 0.19762027 -0.18444872 1.4773402 -1.6589074 -0.30981967 0.5087823
-0.80818623 0.37570363 0.21373542 1.6272765 0.6226315 -0.7765758 0.1990437 -0.38882446
0.18537465 0.39279282 0.15128495 0.80919915 0.83910805 1.3104377 1.6053202 0.25479805
0.28323185 0.30044892 -0.41164303 0.9958537 -0.14138012 -0.5940285 0.3197628 0.023381736
-0.51302975 0.74002457 0.8380038 1.188988 -1.4367537 -0.54625285 -0.51710355 -0.50941044
0.3286988 -0.010929591 0.48428205 0.9459534 1.1218246 -0.62048864 -0.538776 -1.2850977
-0.4485479 0.119376495 -0.5921632 -0.3760785 0.42927092 0.7207406 0.46117452 -1.5063046
-0.64609355 1.5908487 1.5486637 -0.2904475 0.34367257 0.073560014 0.903185 -1.0932871
1.0110064 -0.20104639 -1.2178856 -0.4076391 0.6999802 0.819608 1.6420009 -0.8457641
-0.2331031 -0.19767916 -1.6573321 -1.3491588 -0.23649457 -0.8532803 -1.3545613 -0.27979654
0.5694702 0.07613498 0.69316137 0.19709527 1.2141355 0.06304736 -1.2588097 -0.85159725
0.9496681 1.121308 -1.6305426 -0.16676162 -0.122431815 0.5526046 -0.34742472 0.2533617
1.2188363 -1.6308821 -0.030986698 -0.3526354 0.26678747 -0.908252 0.24222071 1.6392071
0.27242073 0.48036382 0.065421954 0.23823568 0.426281 -0.08609046 0.2224183 -0.7570255
-0.78893703 0.26529664 0.34072462 -1.0037467 -0.95578015 0.086426206 -0.9283355 -0.037463278
0.7882846 0.741501 0.37515408 -0.9131628 -0.7897788 -0.31690085 0.76288414 -1.0845109
-0.45529184 1.4389147 0.8077299 0.5749582 -0.18991338 0.61094 0.5163408 0.016901348
-0.14264278 -0.025714278 0.31440297 -0.9560519 -0.20609535 -1.1550553 -0.53894347 -0.3559201
0.19734702 -1.2050552 0.87037075 -0.82232064 0.81053746 -0.23204546 -0.69256663 -0.47699857
00000000: 2dbb e03e f88c 56be bcd2 863f 1e81 7e3e
00000010: 0201 033f 96f4 243e cd67 093f af07 fc3d
00000020: 2ace 42bf 4857 c83e 7e5d 1bbf b871 09be
00000030: 2901 b1bc 5e51 6d3f c208 acbe ac0b 983e
00000040: de72 21bf 91c4 4abc 893f 663f e31c 15bf
00000050: 16e0 b63e 6d0c bcbe 69d7 92bf 75c2 3c3e
00000060: 8753 7abf 1378 33bf 62ba dfbe 2035 18bd
00000070: 0e41 883f ae62 5f3f cb3c 893f c251 993e
00000080: b6aa 6f3e 4cb2 3dbf 98cd 1dbf 7089 0d3f
00000090: 3704 423f c8fd 8c3f 521b 1fbf 7b85 e0bd
000000a0: 5f66 d03b 4aa3 083f 0ca3 57bf 1352 29bf
000000b0: 143c 6e3f 0822 973f f618 613e ae9a 2e3f
000000c0: 12e9 853e 47e3 933e c75c 5cbf f16e 1f3e
000000d0: 8a9c 063e 54f9 14bf a488 763f 9326 72bf
000000e0: 3c6f 363d 24e3 e9be fda8 2d3d 4600 4dbe
000000f0: ff5e 853e 3aab c53f e643 5d3f fbb1 893f
00000100: da87 74bf d49a f6be c53e 5dbf d1bf 05bf
00000110: d0f0 f83e 13c5 f33e 3885 44bf 259f 353f
00000120: 5c11 cebe c373 133f 2182 0cbe 7944 693e
00000130: 1b31 023f f92b 203d 455a 57bf 2050 9cbf
00000140: 61a2 a1be cae6 96bf bb61 633f 83ef a4be
00000150: 161e 3abf c1a3 c53e 38ce 69bf e2c9 ba3e
00000160: 91c8 45bf 5909 843f d050 223f b35a 873f
00000170: e249 3abe 309a 673e ec87 7cbe 66df 7b3d
00000180: a412 bfbd 2580 96be aa0f 2bbf 8261 64be
00000190: e647 98bf 4845 ccbe 9512 3a3f 2cdd bcbf
000001a0: 046b 55bf 00af 283f f85c 4a3e 20e0 3cbe
000001b0: 7c19 bd3f 1457 d4bf afa0 9ebe 8f3f 023f
000001c0: 4be5 4ebf 3a5c c03e 75dd 5a3e 994a d03f
000001d0: c764 1f3f accd 46bf 1dd2 4b3e 0014 c7be
000001e0: dad2 3d3e 241c c93e 71ea 1a3e ad27 4f3f
000001f0: c9cf 563f 6cbc a73f 227b cd3f e474 823e
00000200: c403 913e 71d4 993e e0c2 d2be 45f0 7e3f
00000210: f3c5 10be 4012 18bf f3b7 a33e 0e8b bf3c
00000220: eb55 03bf 4072 3d3f 6b87 563f c230 983f
00000230: 8ce7 b7bf 3ad7 0bbf e660 04bf b968 02bf
00000240: 364b a83e 0712 33bc d1f3 f73e 012a 723f
00000250: f397 8f3f 58d8 1ebf 39ed 09bf 157e a4bf
00000260: 12a8 e5be aa7b f43d 0298 17bf 5c8d c0be
00000270: 66c9 db3e 7582 383f 111f ec3e 97ce c0bf
00000280: 6366 25bf eea0 cb3f 9d3a c63f 89b5 94be
00000290: daf5 af3e a2a6 963d 2237 673f d5f0 8bbf
000002a0: a868 813f 1bdf 4dbe ade3 9bbf 12b6 d0be
000002b0: e731 333f d4d1 513f 162d d23f ff83 58bf
000002c0: 94b2 6ebe 686c 4abe 7523 d4bf 3cb1 acbf
000002d0: a22b 72be 9470 5abf 4462 adbf 7e41 8fbe
000002e0: cdc8 113f a8ec 9b3d 0673 313f 58d3 493e
000002f0: cb68 9b3f f91e 813d ad20 a1bf 4702 5abf
00000300: 731d 733f 0587 8f3f 9fb5 d0bf 8fc3 2abe
00000310: 88bd fabd 7f77 0d3f a7e1 b1be a0b8 813e
00000320: d402 9c3f bfc0 d0bf d1d7 fdbc a18c b4be
00000330: 5e98 883e 3483 68bf b508 783e 8ad1 d13f
00000340: bb7a 8b3e 3ff2 f53e f2fb 853d 0ef4 733e
00000350: 8141 da3e 3250 b0bd 9fc1 633e 6ccc 41bf
00000360: c7f7 49bf f6d4 873e 7573 ae3e c67a 80bf
00000370: 02ae 74bf 3900 b13d 65a7 6dbf 1873 19bd
00000380: 05cd 493f 02d3 3d3f 3214 c03e 0ac5 69bf
00000390: f22e 4abf d440 a2be 604c 433f 41d1 8abf
000003a0: 031c e9be 5b2e b83f 63c7 4e3f 7630 133f
000003b0: a778 42be 9066 1c3f e92e 043f b274 8a3c
000003c0: f310 12be c0a6 d2bc 6df9 a03e d1bf 74bf
000003d0: a90a 53be dad8 93bf 33f8 09bf 293b b6be
000003e0: 5615 4a3e 403f 9abf 9ed0 5e3f 9b83 52bf
000003f0: 627f 4f3f 539d 6dbe 0c4c 31bf 2839 f4be

value_stream.weight f4 [1, 256]
0.10587155 -0.10899061 0.08711833 0.12375098 0.8181408 -0.24634783 -0.33193022 0.2728577
-0.2900057 -0.17238618 -0.05964023 0.044573788 -0.5472668 0.11324225 0.080816284 -0.21697538
-0.17668615 0.1498621 -0.2650164 0.83789593 0.2746625 -0.49996102 -0.27467373 0.20268391
-0.15724486 -0.12638612 -0.37945572 0.13098292 -0.19985425 0.4899922 0.18791577 0.28248474
-0.115836486 -0.1548474 -0.22371715 0.2363488 -0.33162984 0.18228434 -0.6587064 0.23505248
0.440971 0.68173313 -0.42262414 0.28009418 0.05361057 0.104085244 0.36616573 0.29382202
-1.4183645 0.19638221 -0.23023374 -0.5678968 0.08725886 0.3966704 0.094288446 -0.18004528
-0.88652617 0.24459456 -0.18236044 -0.18892665 -0.2742245 0.15003417 0.36188418 0.5608149
-0.18455115 -0.08789521 -0.17166628 -0.21663053 0.3277037 -0.29538873 -0.15542734 -0.2742669
0.26378515 0.2781685 0.35136637 0.3966383 0.8753766 -0.1866562 0.7679591 -0.4083647
-0.15343358 -0.22685741 0.14333779 0.21882114 -0.3410719 0.07590454 0.42418432 0.1542927
0.42597094 0.159046 -0.34376132 0.21403502 -0.1233324 -0.2248383 -0.07734466 -0.07679802
0.16100088 0.17031159 -0.19027479 0.17267542 0.2597318 -0.16140315 0.29309142 -0.29450586
0.09893607 0.3515644 0.11331108 -0.3546949 0.3521827 0.098196 0.1725638 0.1866499
-0.35128883 -0.114072986 -0.20150177 -0.50395167 0.1676711 -0.42167762 -0.25613913 0.25069845
-0.17311439 0.2813276 0.19901213 0.28687114 0.9989203 0.6430629 0.542223 0.13708417
-0.57343554 0.11080015 0.23026042 0.5597879 -0.31828937 0.3087835 0.050610192 0.57840556
-0.21671842 0.3592147 0.30655956 -0.41606298 -0.08797105 -0.14886019 0.33011964 -0.14678098
0.14347273 -0.33055526 -0.15104079 0.2052292 0.20421405 -0.1686472 -0.1939095 -0.23878483
-0.33544132 -0.16184936 0.43040216 0.24215007 0.16660716 -0.4553461 0.12950043 0.34626445
0.26811096 0.16791762 0.30590177 -0.37412506 -0.12726893 -0.21428579 0.3859151 -0.1308356
0.19715336 0.14339429 -0.42576292 0.24280675 0.3114668 0.30593267 0.27498078 -0.37119904
-0.47481123 0.8171841 -0.051802684 0.28162578 -0.2616838 0.33209524 0.66932964 0.20734996
0.14122714 0.5242451 0.07916365 0.3809691 -0.65535486 0.17820463 -0.20007648 -0.29016542
-0.10541672 -0.48726046 0.40921962 0.35418734 0.5523708 0.135464 -0.4994816 0.6000816
0.64744705 -0.105041675 -0.94601387 0.42460722 0.32665446 0.18475308 0.60679185 -0.06657446
0.25196978 0.1103854 0.10033069 0.25243044 0.2382234 0.26382965 -0.4115509 -0.8405905
0.22716759 0.11038205 0.19168104 0.18101613 0.1267844 -0.21458447 -0.4862763 0.27385494
0.15332828 0.1653449 0.3896631 0.27827886 -0.09559139 0.5474709 -0.45150247 0.13432369
-0.29403564 0.361612 0.16512488 -0.19353126 0.22493307 -0.46552384 -0.10243825 -0.3023163
-0.252177 -0.2795735 0.29511383 -0.22365846 0.25713918 0.14210258 0.95889056 -1.1899259
-0.43072033 -0.18228352 -0.12183921 -1.1892518 0.18946165 0.12259431 -0.42186388 -0.19787502
00000000: 2fd3 d83d 7836 dfbd 186b b23d 2771 fd3d
00000010: ad71 513f 9b42 7cbe c2f2 a9be 01b4 8b3e
00000020: a17b 94be 0186 30be 5049 74bd 0193 363d
00000030: ad19 0cbf 8eeb e73d 0283 a53d cb2e 5ebe
00000040: 37ed 34be 7375 193e 3bb0 87be 5980 563f
00000050: 90a0 8c3e e4fa ffbe 09a2 8cbe 5f8c 4f3e
00000060: cc04 21be 5d6b 01be 0548 c2be 6320 063e
00000070: 98a6 4cbe 42e0 fa3e fe6c 403e d7a1 903e
00000080: ae3b edbd 5190 1ebe 1c16 65be 6b05 723e
00000090: 63cb a9be bfa8 3a3e fca0 28bf 99b1 703e
000000a0: f3c6 e13e 1086 2e3f 3162 d8be 8168 8f3e
000000b0: c296 5b3d a52a d53d 137a bb3e d76f 963e
000000c0: f88c b5bf 6b18 493e 65c2 6bbe af61 11bf
000000d0: c6b4 b23d 6218 cb3e 4d1a c13d ca5d 38be
000000e0: 61f3 62bf ff76 7a3e b2bc 3abe fd75 41be
000000f0: 2767 8cbe 8fa2 193e e248 b93e 9191 0f3f
00000100: fafa 3cbe 6702 b4bd 49c9 2fbe 65d4 5dbe
00000110: c8c8 a73e 313d 97be 5828 1fbe b66c 8cbe
00000120: d90e 873e 1a6c 8e3e 4be6 b33e 2d14 cb3e
00000130: ae18 603f ce22 3fbe f898 443f 2e15 d1be
00000140: b11d 1dbe 4f4d 68be 24c7 123e a612 603e
00000150: faa0 aebe d773 9b3d b02e d93e e8fe 1d3e
00000160: dd18 da3e f4dc 223e 7c01 b0be ff2b 5b3e
00000170: b395 fcbd 033c 66be e166 9ebd 4848 9dbd
00000180: 6add 243e 2966 2e3e 65d7 42be d3d1 303e
00000190: 91fb 843e de46 25be 1410 963e 79c9 96be
000001a0: ff9e ca3d 4000 b43e a40f e83d 929a b5be
000001b0: 4a51 b43e fc1a c93d 91b4 303e 2721 3f3e
000001c0: 21dc b3be 199f e9bd 7b56 4ebe fa02 01bf
000001d0: f9b1 2b3e 21e6 d7be ab24 83be 8c5b 803e
000001e0: e644 31be 2c0a 903e d6c9 4b3e c6e0 923e
000001f0: 3eb9 7f3f c59f 243f 20cf 0a3f cb5f 0c3e
00000200: accc 12bf 30eb e23d 63c9 6b3e 434e 0f3f
00000210: d3f6 a2be df18 9e3e a24c 4f3d 6312 143f
00000220: 6feb 5dbe fdea b73e 60f5 9c3e 3506 d5be
00000230: 2a2a b4bd ce6e 18be 7105 a93e c14d 16be
00000240: 84ea 123e 8a3e a9be 70aa 1abe 9a27 523e
00000250: 7d1d 513e dab1 2cbe 3690 46be 0384 74be
00000260: f7be abbe d7bb 25be ac5d dc3e 30f6 773e
00000270: 119b 2a3e 2023 e9be c39b 043e 9349 b13e
00000280: d745 893e 99f2 2b3e 289f 9c3e 528d bfbe
00000290: c952 02be bc6d 5bbe aa96 c53e c4f9 05be
000002a0: 92e2 493e f4d5 123e 99fd d9be 55a2 783e
000002b0: 9478 9f3e 35a3 9c3e 48ca 8c3e cd0d bebe
000002c0: 751a f3be fa32 513f 0d2f 54bd 4131 903e
000002d0: 6bfb 85be 6308 aa3e 3059 2b3f 8c53 543e
000002e0: d99d 103e ed34 063f 8d20 a23d 620e c33e
000002f0: 56c5 27bf 467b 363e d9e0 4cbe 9090 94be
00000300: b9e4 d7bd 347a f9be 3c85 d13e 0b58 b53e
00000310: 2c68 0d3f 13b7 0a3e 0dbc ffbe f39e 193f
00000320: 17bf 253f 1720 d7bd f72d 72bf 1e66 d93e
00000330: 413f a73e e92f 3d3e b656 1b3f 3158 88bd
00000340: 2f02 813e be11 e23d 2d7a cd3d 903e 813e
00000350: d6f0 733e ae14 873e cdb6 d2be f030 57bf
00000360: 9f9e 683e fc0f e23d 0948 443e 4b5c 393e
00000370: c5d3 013e 08bc 5bbe 35f9 f8be b736 8c3e
00000380: 1702 1d3e 2c50 293e ec81 c73e 917a 8e3e
00000390: 6bc5 c3bd 0e27 0c3f 552b e7be 268c 093e
000003a0: d78b 96be 3525 b93e 7f16 293e 0f2d 46be
000003b0: db54 663e 2459 eebe 25cb d1bd 34c9 9abe
000003c0: 581d 81be 4224 8fbe 2919 973e b906 65be
000003d0: bfa7 833e 5783 113e da79 753f 7e4f 98bf
000003e0: 6087 dcbe 88a8 3abe d686 f9bd 6739 98bf
000003f0: 3c02 423e ba12 fb3d 8bfe d7be c09f 4abe

advantage_stream.weight f4 [20, 256]
0.033914596 -0.0047033485 -0.02902723 -0.10505772 0.079910405 -0.22037224 0.18399878 0.026145585
0.052278895 -0.012955309 -0.1962093 -0.092840984 0.005121205 -0.03255804 0.032466702 -0.00094005594
0.039536268 0.14245239 -0.045619577 0.21629053 0.067464046 0.03610837 -0.21944277 0.122519426
-0.14610514 -0.042605 -0.014977119 -0.059576955 0.28621078 -0.24304524 0.11830075 -0.025541909
0.096402176 -0.032687016 0.1582924 0.048059233 -0.281811 0.07665639 0.16404669 -0.22938123
0.11958898 0.50794154 -0.0052449447 -0.03808346 -0.049356267 -0.14287674 0.10368856 -0.14459749
0.14665003 0.008086675 -0.09628023 -0.054496124 0.03404786 -0.0064147054 0.038796432 -0.25139588
-0.01828105 -0.036715988 0.14032614 -0.079627484 -0.102735214 0.05977107 0.15073363 0.057094377
-0.052077487 0.050899528 0.037570465 0.027799122 0.24223314 -0.099279486 -0.07548808 -0.034310836
0.13442749 0.20715211 -0.039331425 0.17606384 0.12958527 -0.0773574 0.07755759 -0.43056574
-0.0177255 -0.23499352 0.048401546 -0.003556003 -0.02563366 0.034120403 0.031500828 0.0430834
0.07912962 -0.033729367 -0.103544265 0.38219738 -0.06314995 0.21735243 0.008660161 0.30358255
-0.021297293 -0.06338827 0.04548679 -0.0112770535 0.12161614 -0.13577582 -0.049478218 0.053780284
-0.08997885 0.18732902 0.14122662 0.055887513 0.007411097 0.02863732 0.104763925 0.077302426
-0.09149434 -0.32843357 -0.15464886 -0.47270682 -0.08343416 0.1389277 0.11639174 0.06075757
0.15049545 -0.24226649 -0.21080612 0.07308936 -0.16957137 -0.21080199 0.004056656 -0.00722544
-0.05655532 -0.024236612 0.1816446 0.07727631 -0.03405147 0.25802222 0.24354167 0.00832609
0.03342142 0.19322526 -0.1618781 -0.16673046 0.10385553 -0.05821694 0.09622186 0.034743924
-0.035643548 -0.044141136 0.13081662 0.13388442 -0.124425314 -0.07030099 0.07621564 0.06932413
0.12378107 -0.057768367 -0.3236212 -0.0014361292 0.08770113 0.23550513 -0.0869665 -0.17864448
0.1909279 0.0334152 -0.077847145 -0.17956524 -0.16878451 0.025466328 0.0008915386 -0.043523163
0.15420732 -0.18521021 0.062808394 -0.08882314 0.09697342 -0.0859319 -0.00613304 0.029231755
0.030768871 0.21869992 -0.16613297 -0.037418976 -0.08543266 0.08162659 0.08976889 -0.0015729747
0.06707383 0.32057118 0.031953324 0.01854475 -0.7598973 0.046540193 -0.013345453 -0.04055448
-0.046583593 -0.14975803 0.11521428 -0.06796793 0.00014140487 0.0774798 -0.16802034 0.068296425
-0.12077814 0.08841334 0.79904675 0.05818328 0.057030786 -0.13094638 0.017945113 -0.022397516
0.17715622 -0.0126745235 0.05699724 -0.21500528 0.17202277 -0.013661718 -0.025386319 0.024073144
0.30556583 -0.15451403 -0.0045244833 0.067772366 0.02495925 -0.12552096 -0.048590895 -0.057249613
0.12909319 -0.1072703 -0.12795441 0.019186981 -0.10544705 0.3019461 0.010154814 -0.013477703
-0.023400828 -0.0006317006 0.21775086 0.13137488 -0.032523945 -0.0476134 0.075229965 -0.035322532
-0.1557162 -0.09937741 -0.103279136 0.101140074 0.12702167 0.12875296 0.08879858 -0.2993117
-0.05634047 -0.041245528 -0.04317036 0.019048091 0.00048001073 0.0017968152 0.1833095 -0.02827627
00000000: 08ea 0a3d 8c1e 9abb 83ca edbc 8028 d7bd
00000010: 11a8 a33d 43a9 61be 2d6a 3c3e 442f d63c
00000020: 6522 563d 8142 54bc 17eb 48be 6a23 bebd
00000030: c8cf a73b 945b 05bd cefb 043d 166e 76ba
00000040: c8f0 213d 0adf 113e 98db 3abd 447b 5d3e
00000050: 972a 8a3d 5fe6 133d 9bb5 60be 77eb fa3d
00000060: 969c 15be 9582 2ebd 9762 75bc f706 74bd
00000070: 388a 923e dae0 78be aa47 f23d 443d d1bc
00000080: 816e c53d d2e2 05bd 6717 223e c2d9 443d
00000090: 8849 90be 07fe 9c3d dbfb 273e eae2 6abe
000000a0: 11eb f43d 7508 023f c9dd abbb 67fd 1bbd
000000b0: cc29 4abd 484e 12be ab5a d43d 5d11 14be
000000c0: 6d2b 163e f97d 043c 922e c5bd 5437 5fbd
000000d0: c575 0b3d 7332 d2bb 02e9 1e3d f6b6 80be
000000e0: 24c2 95bc 8163 16bd a8b1 0f3e bc13 a3bd
000000f0: d766 d2bd 82d2 743d eb59 1a3e cbdb 693d
00000100: 344f 55bd 067c 503d 7de3 193d fcba e33c
00000110: f70b 783e 0b53 cbbd 7f99 9abd 8589 0cbd
00000120: 5ca7 093e af1f 543e fd19 21bd 144a 343e
00000130: 00b2 043e 8e6d 9ebd 84d6 9e3d 1d73 dcbe
00000140: 1135 91bc 24a2 70be b340 463d d50b 69bb
00000150: aefd d1bc d6c1 0b3d 0307 013d 3878 303d
00000160: b60e a23d ce27 0abd 040f d4bd 60af c33e
00000170: c354 81bd a391 5e3e 59e3 0d3c 2c6f 9b3e
00000180: a977 aebc b6d1 81bd 5b50 3a3d 64c3 38bc
00000190: e211 f93d d108 0bbe aca9 4abd b748 5c3d
000001a0: d546 b8bd 2ed3 3f3e b69d 103e 4eea 643d
000001b0: cad8 f23b d098 ea3c 788e d63d bc50 9e3d
000001c0: 6261 bbbd 7228 a8be 455c 1ebe a106 f2be
000001d0: 87df aabd 1043 0e3e cb5e ee3d eedc 783d
000001e0: 7b1b 1a3e b514 78be 8fdd 57be e0af 953d
000001f0: 1ea4 2dbe 7adc 57be b2ed 843b 62c3 ecbb
00000200: 8da6 67bd dc8b c6bc 0b01 3a3e 0b43 9e3d
00000210: 8e79 0bbd 7d1b 843e fd62 793e 276a 083c
00000220: e6e4 083d d8dc 453e 5fc3 25be 64bb 2abe
00000230: 35b2 d43d e374 6ebd f70f c53d a54f 0e3d
00000240: f8fe 11bd 56cd 34bd cbf4 053e ff18 093e
00000250: b3d2 febd f7f9 8fbd f216 9c3d cff9 8d3d
00000260: ee80 fd3d 869e 6cbd aeb1 a5be 803c bcba
00000270: a69c b33d 4228 713e 7e1b b2bd 94ee 36be
00000280: 9a82 433e 60de 083d 536e 9fbd f3df 37be
00000290: d9d5 2cbe c39e d03c 25b6 693a 5845 32bd
000002a0: 86e8 1d3e bfa7 3dbe b0a1 803d e8e8 b5bd
000002b0: 009a c63d 10fd afbd abf7 c8bb 6f77 ef3c
000002c0: 000f fc3c dff2 5f3e c31e 2abe a444 19bd
000002d0: 52f7 aebd d72b a73d c0d8 b73d 462c ceba
000002e0: 015e 893d e821 a43e 7de1 023d 29eb 973c
000002f0: a188 42bf eea0 3e3d e3a6 5abc 741c 26bd
00000300: 70ce 3ebd 2b5a 19be 77f5 eb3d c532 8bbd
00000310: 1546 1439 bbad 9e3d 860d 2cbe ffde 8b3d
00000320: 885a f7bd 0e12 b53d 548e 4c3f 9751 6e3d
00000330: 1d99 693d cf16 06be a101 933c ff7a b7bc
00000340: 7168 353e cea8 4fbc f075 693d 582a 5cbe
00000350: bd26 303e 66d5 5fbc f8f6 cfbc 0b35 c53c
00000360: 2073 9c3e ed38 1ebe 1e42 94bb 3dcc 8a3d
00000370: 5777 cc3c 9188 00be 3f07 47bd 927e 6abd
00000380: 0131 043e 88b0 dbbd 7b06 03be 042e 9d3c
00000390: 9ff4 d7bd ae98 9a3e 6160 263c 95d1 5cbc
000003a0: 18b3 bfbc b698 25ba 15fa 5e3e 2387 063e
000003b0: d437 05bd 4506 43bd 2b12 9a3d 5cae 10bd
000003c0: 1174 1fbe 6286 cbbd 0384 d3bd 8722 cf3d
000003d0: f811 023e d1d7 033e 08dc b53d 623f 99be
000003e0: 44c5 66bd 12f1 28bd 67d3 30bd be0a 9c3c
000003f0: f3a9 fb39 1d83 eb3a 7cb5 3b3e a3a3 e7bc

advantage_stream.bias f4 [20]
-0.26234457 0.2290941 0.21024963 0.19496775 0.1503217 0.17373845 0.01665171 -0.24941973
-0.11493474 -0.02503561 0.1526122 -0.11524071 0.15660428 -0.0731792 0.22710426 -0.038557548
0.019908523 0.24352801 0.11004634 -0.17507185
00000000: 0752 86be a597 6a3e ae4b 573e a0a5 473e
00000010: efed 193e 7ee8 313e 2b69 883c e367 7fbe
00000020: e862 ebbd 7b17 cdbc 5f46 1c3e 5203 ecbd
00000030: df5c 203e fade 95bd 058e 683e 85ee 1dbd
00000040: 3317 a33c 685f 793e fa5f e13d 0946 33be
