src/hockey-env/random_training_1/weights/episode_647.pth (torch, 307504 bytes, 7 tensors)

layers.0.weight f4 [256, 18]
0.13087098 0.11327569 -0.121147685 -0.01050556 0.032477822 0.028218258 0.12288983 0.9661615
0.41261292 -0.047877707 0.097967304 0.023069754 0.63214236 0.07143602 0.8718505 -0.22428884
-2.3285947 1.4169995 0.15092921 -0.69181645 -0.04646112 0.006816618 0.008374212 -0.02323801
1.0118653 -0.3341013 0.04998656 0.06564948 -0.10305261 0.055062935 -2.0563893 -0.6862294
-0.23209976 -0.13234925 0.6577811 0.22855395 -0.0057748975 0.18635471 0.13566521 -0.04517073
0.034761578 -0.006921352 1.371654 0.39906704 0.6872564 0.1225525 -0.09089888 0.09657824
-0.07775438 -0.10808701 0.531431 0.024328262 -0.0050326376 0.17055129 0.16956379 0.40601712
-1.3626468 0.012392726 0.040217455 -0.22510698 -0.11112133 -0.024912 -0.04400696 -0.039238665
-0.042389028 -0.044154394 -0.16697526 -0.13975875 -0.010383063 -0.011510475 0.05450638 -0.019882461
-0.098216884 0.0012695838 -0.11902029 -0.028128514 -0.06312553 -0.022019621 -0.06964014 -0.07642593
-0.016905673 -0.10990606 -0.11286332 0.022126881 0.82919425 0.15254773 1.2784653 -0.51990056
0.78197646 1.8266195 0.38069373 -0.16567913 0.07628891 -0.037930522 -0.07158106 0.052605473
0.90899706 -1.0185288 0.46736786 0.018498013 -0.00704531 -0.03739576 -1.1645389 -0.22976083
-0.4745034 -0.28062785 -0.19847517 -1.2500325 -0.13016059 -0.15782428 -0.105172396 -0.041815713
-0.030476717 -0.04186548 0.1555841 0.32933375 0.11308254 0.07398579 -0.10449442 -0.035334088
-0.38240117 1.2591741 -0.2722588 0.8366074 -0.6485263 0.5557428 -0.13288324 -1.6616526
-0.13312589 0.04276119 -0.18878533 -0.009560524 -0.13170147 1.5171422 -0.29798412 -0.02127733
0.069359034 -0.02573946 0.5536024 0.19886494 0.024832333 0.029549897 -1.5440017 0.09435268
0.16539828 0.161405 0.24673274 0.005642593 0.011454773 -0.009045926 -0.015464406 0.28088823
0.5485757 -0.123225436 0.115355216 0.10566256 -0.9862205 -0.26300266 -1.1523888 0.48635972
-2.5880044 -1.3296453 0.48786873 -0.9603534 0.2857069 -0.17539339 -0.08865632 0.045199748
-0.6216539 0.1431108 0.24435809 -0.20634599 0.1119581 -0.054832116 -0.21127115 0.585617
-0.37453955 -0.21820137 -3.4042826 -0.64081395 -0.39529467 -0.10166357 0.20911312 -0.062358133
0.010571099 -0.026553644 0.44932956 0.6495157 0.032028574 -0.037909336 -0.15872867 0.020196063
-0.9821189 -0.010726634 0.6093042 -0.53111076 -0.059554543 1.2037771 0.35851413 0.07434726
-0.38874832 -0.02098165 0.098726206 -0.038661785 -0.45869344 2.0484924 -0.14319283 0.040249575
0.42634836 -0.07502409 0.3196508 0.10456468 -0.7874756 -0.41415435 0.9263326 -1.3751153
0.31163132 -1.7395681 -0.040235374 0.06444036 -0.32040343 -0.03649136 -0.2777239 1.6200943
2.4670813 -0.039678883 0.09135577 0.04244698 0.43477458 0.889753 -0.25243565 0.7153571
-0.5945488 0.14192358 -0.19258818 -0.665356 -0.43145126 0.11229382 0.012170824 -0.0285253
0.29220495 0.57901907 0.53319675 0.002183753 0.10031008 -0.0453598 0.273568 -0.41655537
0.42922994 -0.45955038 0.46764204 1.4378636 0.18607837 -0.2447229 0.004859708 0.031349674
00000000: 0b03 063e 16fd e73d 471c f8bd 831f 2cbc
00000010: 7707 053d fa29 e73c aaad fb3d 5c56 773f
00000020: 0042 d33e 6a1b 44bd 15a3 c83d c8fc bc3c
00000030: 15d4 213f 0c4d 923d 9831 5f3f f9ab 65be
00000040: b207 15c0 3d60 b53f 308d 1a3e e21a 31bf
00000050: 044e 3ebd f05d df3b fe33 093c a45d bebc
00000060: cd84 813f 530f abbe b5be 4c3d 3c73 863d
00000070: 3f0d d3bd ac89 613d e29b 03c0 bbac 2fbf
00000080: 8fab 6dbe 9086 07be 5864 283f 0c0a 6a3e
00000090: 5a3b bdbb c5d3 3e3e d2eb 0a3e f204 39bd
000000a0: 2862 0e3d 82cc e2bb 5c92 af3f 8452 cc3e
000000b0: 09f0 2f3f cefc fa3d 3129 babd d0ca c53d
000000c0: b03d 9fbd b95c ddbd dd0b 083f 104c c73c
000000d0: d3e8 a4bb ffa4 2e3e 21a2 2d3e 7ae1 cf3e
000000e0: 366b aebf dc0a 4b3c 0fbb 243d 7282 66be
000000f0: 9493 e3bd 4014 ccbc a440 34bd b9b8 20bd
00000100: 1ea0 2dbd 3ddb 34bd 90fb 2abe eb1c 0fbe
00000110: b91d 2abc 6e96 3cbc 1542 5f3d 8be0 a2bc
00000120: ef25 c9bd 2a68 a63a e9c0 f3bd c56d e6bc
00000130: f547 81bd 7e62 b4bc 7d9f 8ebd 3385 9cbd
00000140: c47d 8abc 6e16 e1bd e224 e7bd 6f43 b53c
00000150: 1346 543f 7935 1c3e c0a4 a33f 3418 05bf
00000160: 9c2f 483f abce e93f 4aea c23e caa7 29be
00000170: 5c3d 9c3d 095d 1bbd 1799 92bd d678 573d
00000180: 08b4 683f 275f 82bf d74a ef3e 2589 973c
00000190: 58dc e6bb 4c2c 19bd 9c0f 95bf 6c46 6bbe
000001a0: 1cf2 f2be 74ae 8fbe 133d 4bbe 1101 a0bf
000001b0: d148 05be b09c 21be a064 d7bd f446 2bbd
000001c0: 4faa f9bc 237b 2bbd 7051 1f3e 6f9e a83e
000001d0: d297 e73d dd85 973d 2c01 d6bd 7aba 10bd
000001e0: 16ca c3be 9e2c a13f 8165 8bbe e72b 563f
000001f0: d205 26bf 2945 0e3f 8b12 08be 08b1 d4bf
00000200: 2752 08be 5c26 2f3d f150 41be bea3 1cbc
00000210: c0dc 06be b731 c23f 6091 98be cc4d aebc
00000220: 1c0c 8e3d 8fdb d2bc e3b8 0d3f 40a3 4b3e
00000230: 2d6d cb3c a012 f23c d9a1 c5bf fa3b c13d
00000240: 2b5e 293e 5a47 253e 82a7 7c3e 80e5 b83b
00000250: cdac 3b3c 5d35 14bc 6c5e 7dbc 95d0 8f3e
00000260: 756f 0c3f 9e5d fcbd 5b3f ec3d 9d65 d83d
00000270: f278 7cbf 49a8 86be 7a81 93bf 2404 f93e
00000280: dda1 25c0 d131 aabf eec9 f93e b8d9 75bf
00000290: 2d48 923e 539a 33be 7291 b5bd 5f23 393d
000002a0: b624 1fbf a38b 123e 0239 7a3e 5d4c 53be
000002b0: 4a4a e53d a497 60bd 7757 58be ffea 153f
000002c0: a6c3 bfbe 2e70 5fbe c4df 59c0 620c 24bf
000002d0: 1064 cabe fd34 d0bd c021 563e 3e6b 7fbd
000002e0: 6732 2d3c 0787 d9bc 860e e63e a946 263f
000002f0: 6530 033d d246 1bbd c589 22be 3772 a53c
00000300: 256c 7bbf c4be 2fbc 5cfb 1b3f e0f6 07bf
00000310: 77ef 73bd 5e15 9a3f 2a8f b73e 6043 983d
00000320: 050a c7be b6e1 abbc f730 ca3d d25b 1ebd
00000330: ded9 eabe 801a 0340 24a1 12be bddc 243d
00000340: 554a da3e 3ba6 99bd 45a9 a33e 0226 d63d
00000350: 0098 49bf 0a0c d4be 2224 6d3f c703 b0bf
00000360: 248e 9f3e 2baa debf d9cd 24bd 4ff9 833d
00000370: eb0b a4be f777 15bd d431 8ebe 405f cf3f
00000380: a9e4 1d40 5386 22bd bc18 bb3d e2dc 2d3d
00000390: c69a de3e dac6 633f 3f3f 81be a521 373f
000003a0: 5a34 18bf 6a54 113e d635 45be c554 2abf
000003b0: 2ee7 dcbe 4dfa e53d 2368 473c e4ad e9bc
000003c0: e39b 953e 983a 143f 957f 083f 4c1d 0f3b
000003d0: 5f6f cd3d 33cb 39bd 1b11 8c3e bf46 d5be
000003e0: 07c4 db3e 304a ebbe c76e ef3e ea0b b83f
000003f0: 548b 3e3e a498 7abe 2f3e 9f3b 8468 003d

layers.0.bias f4 [256]
-1.763778 1.275348 2.8891902 0.78777444 0.9926646 -1.6574262 1.3143153 -1.481456
-1.041606 -2.3165557 3.5752718 -0.5713167 1.900055 1.1662532 -0.19548383 1.2247806
0.3628575 2.7691028 -1.7439568 -1.9890213 2.1143095 0.032003313 -0.31379184 3.5532603
-2.3583484 1.828408 0.64619696 -0.488198 1.8417882 0.07521729 1.6434845 2.994076
-1.1499082 -0.121485285 -0.7609389 2.6557696 -2.8684425 0.83661115 -1.6771257 0.61819744
-0.8900303 0.8059579 -1.0398328 -0.47005412 -1.7022258 -1.5920657 -1.9583298 0.36747885
1.4182444 0.46183792 -0.01777518 -1.1965241 1.018574 -0.23511574 2.1037111 -1.4168465
0.63095754 2.4623108 2.3530731 2.257147 1.1652153 -2.821522 1.0938371 2.6630247
-2.5313997 -0.062318243 -0.3126927 2.7924747 3.1819322 -0.31424615 0.35235843 -0.8811204
-0.017870037 -0.04300401 1.9842734 1.6946632 -1.7054585 1.7376702 -1.6969533 3.145458
-1.3753604 -1.883796 3.0673256 -0.3138094 3.961283 3.723664 -0.3270611 1.3091787
1.9105822 0.6138492 0.07243353 0.7448316 0.61698896 1.5181928 1.3540084 2.7990005
2.146629 -1.3169283 -1.99252 1.6203732 1.332693 2.4999375 -0.07698124 1.0045244
-0.49496457 0.468759 -0.3481834 -0.4300574 3.4237282 -0.5553503 -1.5140787 -1.760994
0.5545062 1.4353458 -1.5357783 1.4108235 0.12840107 -2.3320117 1.915456 0.03526921
0.12320372 1.0783951 -0.69304377 0.22823428 -1.1822325 0.5042697 1.4475536 0.69910336
0.077055186 -3.1216068 -1.0861944 0.68672097 4.066881 -3.2953484 1.5868069 2.0702047
-2.1410336 1.4779449 -1.1733435 -0.9387423 -0.30501804 2.8348832 2.747387 -1.5205868
-0.23504354 1.6371182 -1.2348 0.20183341 1.1781735 2.3066378 2.4685805 1.823844
-2.2746847 -0.35406736 -0.0048337006 -1.8111405 -0.039528485 0.7917769 2.7166545 -2.043713
1.2830129 3.0802445 0.043170948 -0.8315829 -0.42942435 -1.587562 2.3957422 1.6923556
-0.13809037 2.0736299 1.7005441 0.97522205 -1.6342223 1.0622352 0.89718586 -1.0774236
0.7894906 0.21104142 0.20214944 3.0123806 3.183253 -2.61158 1.762701 1.9498103
-0.3436329 -0.38947663 -1.5386684 1.0777475 1.2256469 -0.22077224 -2.4131172 -0.4429203
1.553433 2.5836208 0.032144904 0.60294753 -2.3005686 0.8038549 -0.61712927 2.1018176
2.2555387 2.5521681 -1.4146287 0.40405002 0.7482021 -0.36053872 -1.7285913 -2.6677234
0.7318885 -0.35223997 1.5202874 -0.8701769 0.28532895 -1.7053325 -1.0673915 -0.3184013
0.078202985 1.3158176 -1.6858206 -0.82655513 -2.1396728 -1.7765852 0.79203117 0.052667674
0.56198806 1.4869847 1.3563349 1.6693356 -2.7047386 2.02669 0.91413164 1.5295806
-0.3891935 2.7303078 -0.19231582 0.91779953 -1.5498425 -1.9684587 -2.0481918 1.483966
-2.2724652 -0.89515287 1.1953306 -0.9507717 1.8810151 -1.7955999 -0.707536 1.4402131
-1.6903481 -0.9166036 -2.9076254 1.0243444 0.33507589 0.557663 1.7502182 -1.7997305
00000000: 7ac3 e1bf 9a3e a33f 7ee8 3840 96ab 493f
00000010: 441f 7e3f 8b26 d4bf 7c3b a83f 5aa0 bdbf
00000020: 5853 85bf 7342 14c0 41d1 6440 d041 12bf
00000030: 0135 f33f c947 953f ea2c 48be 9cc5 9c3f
00000040: 75c8 b93e fb38 3140 fa39 dfbf 4098 febf
00000050: d950 0740 e815 033d 53a9 a0be 9e68 6340
00000060: 2eef 16c0 4609 ea3f 2a6d 253f 17f5 f9be
00000070: b7bf eb3f 860b 9a3d b35d d23f f19e 3f40
00000080: 3130 93bf 47cd f8bd e4cc 42bf 21f8 2940
00000090: 9094 37c0 262c 563f 0eac d6bf 3042 1e3f
000000a0: 07d9 63bf 4253 4e3f 3e19 85bf efaa f0be
000000b0: 89e2 d9bf cfc8 cbbf 8daa fabf 3026 bc3e
000000c0: 0889 b53f 0576 ec3e 419d 91bc b427 99bf
000000d0: a260 823f 2ec2 70be 34a3 0640 3a5b b5bf
000000e0: 6f86 213f 8096 1d40 c098 1640 1975 1040
000000f0: c625 953f d193 34c0 db02 8c3f ff6e 2a40
00000100: 7402 22c0 6a41 7fbd 4219 a0be e8b7 3240
00000110: c7a4 4b40 dfe4 a0be 5368 b43e 1b91 61bf
00000120: 2f64 92bc f924 30bd acfc fd3f b9ea d83f
00000130: 774c dabf fa6b de3f c435 d9bf 2f4f 4940
00000140: cf0b b0bf 3a20 f1bf 104f 4440 a0ab a0be
00000150: a985 7d40 8350 6e40 8d74 a7be 2b93 a73f
00000160: f58d f43f 3925 1d3f 0858 943d 49ad 3e3f
00000170: fdf2 1d3f 2454 c23f 2650 ad3f d322 3340
00000180: 5f62 0940 1b91 a8bf e50a ffbf 6468 cf3f
00000190: af95 aa3f fafe 1f40 57a8 9dbd 4194 803f
000001a0: ff6b fdbe 2e01 f03e 1845 b2be 7c30 dcbe
000001b0: 5d1e 5b40 702b 0ebf 55cd c1bf 4068 e1bf
000001c0: 1ef4 0d3f 69b9 b73f 6294 c4bf dd95 b43f
000001d0: 927b 033e ae3f 15c0 aa2d f53f 7276 103d
000001e0: 3b52 fc3d da08 8a3f 516b 31bf 3fb6 693e
000001f0: 6553 97bf d217 013f 7049 b93f 70f8 323f
00000200: 1ccf 9d3d 68c8 47c0 6b08 8bbf f2cc 2f3f
00000210: e423 8240 fde6 52c0 7d1c cb3f 3c7e 0440
00000220: b206 09c0 4c2d bd3f 1f30 96bf 6a51 70bf
00000230: 532b 9cbe ba6e 3540 30d5 2f40 97a2 c2bf
00000240: 41af 70be 178d d13f ed0d 9ebf 6bad 4e3e
00000250: 64ce 963f f49f 1340 39fd 1d40 b873 e93f
00000260: 6f94 11c0 5148 b5be 0564 9ebb 74d3 e7bf
00000270: 9fe8 21bd e4b1 4a3f abdd 2d40 32cc 02c0
00000280: c439 a43f ba22 4540 05d4 303d 9ee2 54bf
00000290: 82dd dbbe 3b35 cbbf d753 1940 1c9f d83f
000002a0: 9067 0dbe 5ab6 0440 6eab d93f 27a8 793f
000002b0: 322e d1bf 53f7 873f f9ad 653f 04e9 89bf
000002c0: 0e1c 4a3f 3e1b 583e 4300 4f3e d8ca 4040
000002d0: 6bba 4b40 2024 27c0 30a0 e13f 6293 f93f
000002e0: a7f0 afbe 7b69 c7be 16f3 c4bf a1f3 893f
000002f0: ffe1 9c3f 1e12 62be 8370 1ac0 73c6 e2be
00000300: e4d6 c63f 0b5a 2540 60aa 033d c55a 1a3f
00000310: 843c 13c0 6fc9 4d3f 2ffc 1dbf 2e84 0640
00000320: bf5a 1040 b956 2340 8e12 b5bf a5df ce3e
00000330: 2c8a 3f3f 8898 b8be 7b42 ddbf fbbb 2ac0
00000340: 0b5d 3b3f cc58 b4be c798 c23f eac3 5ebf
00000350: a316 923e 5648 dabf 49a0 88bf 7f05 a3be
00000360: e328 a03d b66c a83f f8c8 d7bf 1e99 53bf
00000370: 66f0 08c0 2567 e3bf 8ec2 4a3f 0fba 573d
00000380: 73de 0f3f 8455 be3f 629c ad3f caac d53f
00000390: 701a 2dc0 4ab5 0140 8804 6a3f 4cc9 c33f
000003a0: 5f44 c7be 5dbd 2e40 70ee 44be e9f4 6a3f
000003b0: 3d61 c6bf 74f6 fbbf 9315 03c0 99f2 bd3f
000003c0: 1270 11c0 bd28 65bf 9800 993f c665 73bf
000003d0: 1ac5 f03f 38d6 e5bf 1421 35bf e758 b83f
000003e0: 545d d8bf 89a6 6abf 8916 3ac0 b81d 833f
000003f0: 118f ab3e 01c3 0e3f 2607 e03f 925d e6bf

layers.1.weight f4 [256, 256]
0.950033 -0.12392363 -0.110090144 -0.14215802 -0.47356102 -0.49221292 -0.085873105 0.50673586
0.8823999 -0.22534826 -0.29251269 0.20424072 0.20766488 -0.60429496 0.2645957 -0.07905223
0.9926819 0.53846574 0.2587121 1.0638486 0.6599307 0.054604933 0.904286 -1.1585332
0.038269456 -0.6965051 0.12656209 0.23357037 -0.14142992 -0.63728684 0.40997642 0.000491926
0.33982202 -0.08973085 0.07441514 -0.6139932 -0.5300864 1.2060004 0.71520114 0.1635874
-0.36700034 -0.3828317 0.055158366 -0.44267854 0.9220286 -0.043535344 -0.11282616 0.16649175
0.3521099 0.06265874 -0.35580003 -0.1261334 0.53702354 0.33537334 -0.8147497 -0.53916794
-0.39027643 0.27749142 -1.6570477 -1.0039675 0.05454559 -0.24887557 -0.1283418 0.5707575
1.0897529 -0.29370958 0.5373117 1.0939008 0.41173005 0.44680482 0.34834376 0.21354954
-1.2572403 0.0530815 0.4910481 -0.4688558 0.4309716 0.3873931 0.19679128 0.7955257
0.100752614 1.0598732 0.6061293 0.5108004 -1.3062884 0.23444626 -0.22191961 0.218764
-1.7802161 -0.3052694 0.060383804 -0.08823669 -1.343831 -0.3078293 0.18506856 0.24598366
0.6378458 -0.41202748 0.027100578 0.6099865 -0.11032805 -0.12979253 -0.04690901 0.030986248
0.27850616 -0.7702145 0.24105798 -0.11583206 -0.37179178 0.58537114 0.68560475 0.102177635
0.14493382 -0.49550304 -0.28184986 -0.20904261 1.9520674 0.610825 0.21747257 0.18581553
-0.7515718 -0.31806707 -0.18659489 0.39893997 1.313104 0.64879847 0.111667015 -0.059820764
-0.52801657 0.35057664 0.38802174 0.28468156 0.26314333 0.025859687 0.506231 0.081270926
1.0292106 0.857587 -1.0195302 0.9667416 0.37443313 0.51663595 -0.36781776 -0.5788233
0.00038879804 -0.072414294 -0.65422225 0.063230984 -0.0035586203 -0.6348669 -1.0233085 1.0696199
0.07380073 1.2873356 -0.68708014 -0.3492412 -0.80912364 0.17711781 -0.6100709 0.94257355
0.031248068 0.629407 0.48651338 0.48096374 -0.4996216 0.91618985 -0.25794235 -0.5905572
-0.60553944 0.44752076 -0.075495794 0.78850466 0.58014905 -0.27872404 0.8343759 -1.1334542
0.061851148 0.7862871 -0.39632294 -0.4316995 -0.041465778 0.008209315 -0.32460132 -0.72507584
0.17512944 0.50796455 -0.10013173 -0.13379191 -0.57861096 0.1271534 0.031713575 0.36124694
-0.51292354 0.48042262 -0.9249151 -0.17100157 -0.48695502 -0.32272413 0.48547065 -2.442366
-0.32400367 -0.36905843 -0.7396249 -0.20779665 0.5334018 -0.5518379 -1.0949398 0.3672184
1.2073687 -0.073535524 0.26567066 0.1223128 -0.44383729 0.8712543 0.7229015 0.19857192
0.1678243 1.299857 0.6661183 -0.028668428 -0.5920763 -0.07495602 -0.38230774 -0.09795527
0.59609103 0.35309365 0.11164679 -0.2731148 -0.4196316 0.6873019 0.3814504 -0.052885484
0.55667573 0.11562023 -0.08303286 0.31204644 0.6306164 0.19470148 0.8021425 0.52321714
0.16802269 -0.8183411 -0.7656741 -1.0878065 0.7950077 0.40624487 1.2776011 0.3206044
-0.034809906 0.73235804 -0.22449163 0.036536563 0.28595507 -0.20385863 0.52474546 -0.9323939
00000000: 5d35 733f accb fdbd f176 e1bd df91 11be
00000010: 9776 f2be 5503 fcbe 3dde afbd 71b9 013f
00000020: f6e4 613f b2c1 66be 39c4 95be 7b24 513e
00000030: 1aa6 543e 13b3 1abf 1679 873e 23e6 a1bd
00000040: 6720 7e3f e4d8 093f ea75 843e 312c 883f
00000050: 38f1 283f 6ca9 5f3d 4a7f 673f d14a 94bf
00000060: 6fc0 1c3d 294e 32bf 7e99 013e 122d 6f3e
00000070: 01d3 10be 3b25 23bf 6ee8 d13e 98f4 003a
00000080: 27fd ad3e cfc4 b7bd f766 983d a92e 1dbf
00000090: beb3 07bf 395e 9a3f 6c17 373f 7583 273e
000000a0: 78e7 bbbe 8402 c4be bded 613d c3a6 e2be
000000b0: 110a 6c3f 1e52 32bd 6711 e7bd d07c 2a3e
000000c0: c047 b43e 3a53 803d 6c2b b6be 1d29 01be
000000d0: 607a 093f 0eb6 ab3e 7093 50bf e906 0abf
000000e0: 50d2 c7be 5b13 8e3e 241a d4bf 0282 80bf
000000f0: 326b 5f3d 3dd9 7ebe 086c 03be 2a1d 123f
00000100: 067d 8b3f 1a61 96be 428d 093f f104 8c3f
00000110: 48ce d23e 9ac3 e43e 1d5a b23e bbac 5a3e
00000120: 40ed a0bf fd6b 593d a86a fb3e de0d f0be
00000130: 4fa8 dc3e 6358 c63e a783 493e 93a7 4b3f
00000140: 6357 ce3d eda9 873f 4a2b 1b3f d1c3 023f
00000150: 7534 a7bf ae12 703e e53e 63be ac03 603e
00000160: 1fde e3bf 454c 9cbe 0255 773d 70b5 b4bd
00000170: a702 acbf cd9b 9dbe 9d82 3d3e 24e3 7b3e
00000180: dd49 233f 44f5 d2be 0802 de3c 1328 1c3f
00000190: acf3 e1bd 55e8 04be a923 40bd dfd6 fd3c
000001a0: 5c98 8e3e c72c 45bf e7d7 763e 5c39 edbd
000001b0: 7e5b bebe e2da 153f cb83 2f3f 8242 d13d
000001c0: 8869 143e 93b2 fdbe a04e 90be 440f 56be
000001d0: 58dd f93f 075f 1c3f 21b1 5e3e 6d46 3e3e
000001e0: 0267 40bf b0d9 a2be bb12 3fbe dc41 cc3e
000001f0: cb13 a83f a817 263f adb1 e43d 9e06 75bd
00000200: 182c 07bf c87e b33e c9aa c63e c8c1 913e
00000210: b9ba 863e b2d7 d33c 5b98 013f 5f71 a63d
00000220: 2cbd 833f d28a 5b3f f77f 82bf 617c 773f
00000230: b3b5 bf3e 4142 043f 9c52 bcbe c42d 14bf
00000240: 97d7 cb39 f24d 94bd 1c7b 27bf 3f7f 813d
00000250: be37 69bb a386 22bf c6fb 82bf 4ee9 883f
00000260: d624 973d 6ac7 a43f 7ce4 2fbf becf b2be
00000270: ba22 4fbf 5f5e 353e 9b2d 1cbf 804c 713f
00000280: f3fb ff3c d120 213f 4818 f93e e140 f63e
00000290: 67ce ffbe 6b8b 6a3f 0511 84be c22e 17bf
000002a0: a204 1bbf 7121 e53e 8a9d 9abd 71db 493f
000002b0: a684 143f ebb4 8ebe a999 553f 0715 91bf
000002c0: a157 7d3d 1d4a 493f d7ea cabe b807 ddbe
000002d0: 05d8 29bd 5d80 063c 2532 a6be 929e 39bf
000002e0: 2255 333e f709 023f dd11 cdbd bf00 09be
000002f0: d91f 14bf 8034 023e 18e6 013d 5cf5 b83e
00000300: f54e 03bf f4f9 f53e 3cc7 6cbf 091b 2fbe
00000310: 2b52 f9be 193c a5be 9c8f f83e b94f 1cc0
00000320: cfe3 a5be 3af5 bcbe 0f58 3dbf a5c8 54be
00000330: 058d 083f 4045 0dbf fd26 8cbf 0d04 bc3e
00000340: 0f8b 9a3f cb99 96bd fc05 883e 227f fa3d
00000350: a43e e3be 860a 5f3f 1310 393f 7056 4b3e
00000360: 22da 2b3e b761 a63f bb86 2a3f 0dda eabc
00000370: 5092 17bf 8b82 99bd d7bd c3be c69c c8bd
00000380: 6c99 183f b1c8 b43e 12a7 e43d b4d5 8bbe
00000390: f4d9 d6be 04f3 2f3f 784d c33e 739e 58bd
000003a0: 4d82 0e3f 4dca ec3d 220d aabd 8dc4 9f3e
000003b0: 1470 213f d35f 473e 3659 4d3f 8ff1 053f
000003c0: 240e 2c3e cd7e 51bf 3803 44bf 3e3d 8bbf
000003d0: a085 4b3f 54ff cf3e 6f88 a33f 4326 a43e
000003e0: d594 0ebd d17b 3b3f 22e1 65be 5da7 153d
000003f0: b468 923e 51c0 50be b855 063f 5eb1 6ebf

layers.1.bias f4 [256]
0.66221243 -0.07678234 0.9192172 0.3579703 0.48052895 0.10658025 0.48295248 0.1685419
-0.7648759 0.22915529 -0.5385364 -0.013833625 -0.03575521 0.91735774 -0.24651581 0.2687181
-0.73590153 -0.095350526 0.80549914 -0.49585533 0.3237932 -0.27392718 -1.0869381 0.323137
-0.9643044 -0.58441186 -0.53071195 0.12256175 1.0014966 0.77553165 1.0474629 0.2609159
0.22606993 -0.6429543 -0.6013106 0.49953195 0.7434446 1.0987251 -0.64309514 -0.19036973
0.009437445 0.5588001 -0.6985146 -0.6910636 0.8199562 1.1153014 0.2019927 0.62731403
0.30414358 0.26214075 -0.87079114 0.13581476 0.16733113 -0.6079992 0.8965382 -1.1286255
0.047497023 -0.52565384 0.013452661 -0.262902 0.22649553 1.5285295 0.8212232 1.0803626
-0.87174493 -0.52453053 -0.88560325 -0.6416733 0.5230384 0.504823 -0.8540931 0.706309
-0.3021943 0.59222794 0.0073936875 0.20281936 0.6247636 0.104858756 -0.85043114 -1.1796334
-0.3518851 -1.1833286 0.8585996 -0.3932933 -0.7197746 0.3592278 -0.83085823 0.42021695
-0.8374336 1.0364693 0.593637 0.91770315 -0.217056 0.2522074 -0.26526648 0.096979775
-0.012123312 -0.41103128 -0.72369426 -0.07222964 -1.2085941 -0.41885862 0.54724264 -1.3989816
-0.69772375 0.56609064 0.090609446 -0.21372676 1.4829582 -1.5801083 -0.24121033 0.6276683
-1.0162225 0.45174876 0.30373183 1.6075788 0.6433694 -0.71217114 0.24282604 -0.506181
0.10441523 0.43617976 0.1427956 0.82806873 0.8035739 1.4199909 1.4675735 0.18206753
0.29974997 0.26036727 -0.45234287 0.96471983 -0.15815532 -0.62332803 0.36297056 -0.05951378
-0.4926665 0.598059 0.8851741 1.2698225 -1.3022285 -0.6760292 -0.6531939 -0.4995464
0.3648585 0.12370449 0.46224502 0.62877053 1.1718326 -0.7744618 -0.47591972 -1.1145842
-0.48731118 0.100602314 -0.6255069 -0.44078964 0.42605326 0.6888704 0.45492706 -1.5346289
-0.6589596 1.6322565 1.3882003 -0.33818054 0.34255958 0.07144597 0.7507113 -0.9423467
1.0430342 -0.18503983 -1.1430724 -0.30763203 0.7871381 0.814173 1.5888519 -0.95507526
-0.2576386 -0.24973033 -1.6827654 -1.2431581 -0.33370742 -0.92706066 -1.2987216 -0.26367256
0.5131928 0.083792284 0.6901816 0.15084763 0.99411845 0.09180123 -1.2148193 -0.7278284
0.96730614 1.1625527 -1.6417112 -0.20870069 -0.12808064 0.45245442 -0.36585054 0.28727606
1.2026246 -1.5984721 0.0038792114 -0.22203669 0.30579203 -0.89993536 0.0993561 1.5643666
0.43196157 0.5461728 0.16433108 0.32516873 0.4653202 -0.033916667 0.24385507 -0.73345536
-0.89869684 0.16009079 0.22613339 -0.91925406 -0.92784196 0.22627665 -0.9408509 -0.04495238
0.80238706 0.716359 0.4026061 -0.96970886 -0.6843487 -0.3835344 0.7247806 -1.0103313
-0.37918404 1.2839277 0.85505396 0.4546495 -0.24307133 0.51948994 0.2996894 -0.023346439
-0.31445232 0.025462894 0.29946175 -0.82726574 -0.19467561 -1.0589423 -0.48047993 -0.3814165
0.14433639 -1.0378097 0.79902136 -0.79283184 0.8603082 -0.088136315 -0.62346745 -0.35825792
00000000: c186 293f 0f40 9dbd d251 6b3f e247 b73e
00000010: e407 f63e bf46 da3d 8c45 f73e 3f96 2c3e
00000020: e8ce 43bf afa7 6a3e 86dd 09bf 6ea6 62bc
00000030: 0e74 12bd f5d7 6a3f a46e 7cbe 6b95 893e
00000040: 0b64 3cbf 2347 c3bd 3135 4e3f c0e0 fdbe
00000050: 39c8 a53e 2f40 8cbe ca20 8bbf 3672 a53e
00000060: a7dc 76bf 049c 15bf bddc 07bf a801 fb3d
00000070: 0a31 803f 3e89 463f 4413 863f c596 853e
00000080: e07e 673e a798 24bf 7eef 19bf a7c2 ff3e
00000090: 6352 3e3f 06a3 8c3f e2a1 24bf 48f0 42be
000000a0: 839f 1a3c 860d 0f3f dad1 32bf 8be9 30bf
000000b0: a6e8 513f 32c2 8e3f 2dd7 4e3e a797 203f
000000c0: b5b8 9b3e 5037 863e 2bec 5ebf 0613 0b3e
000000d0: da58 2b3e d6a5 1bbf 8783 653f cd76 90bf
000000e0: 3d8c 423d 4091 06bf 8d68 5c3c 179b 86be
000000f0: 72ee 673e dba6 c33f af3b 523f 5249 8a3f
00000100: ad2a 5fbf a247 06bf e5b6 62bf b444 24bf
00000110: d8e5 053f 153c 013f d8a5 5abf abd0 343f
00000120: 36b9 9abe 409c 173f bf46 f23b e1af 4f3e
00000130: 82f0 1f3f 30c0 d63d dbb5 59bf 3afe 96bf
00000140: 492a b4be 5077 97bf 2fcd 5b3f bd5d c9be
00000150: 2643 38bf b5ec b73e 20b3 54bf ad26 d73e
00000160: 0c62 56bf 07ab 843f 98f8 173f 98ee 6a3f
00000170: ee43 5ebe 5421 813e 02d1 87be 559d c63d
00000180: dba0 46bc b172 d2be 0744 39bf 22ed 93bd
00000190: 36b3 9abf a374 d6be 1818 0c3f d411 b3bf
000001a0: 069e 32bf 51eb 103f 7291 b93d 30db 5abe
000001b0: 93d1 bd3f fd40 cabf d7ff 76be dfae 203f
000001c0: 9413 82bf 9d4b e73e bd82 9b3e 24c5 cd3f
000001d0: dbb3 243f d950 36bf 64a7 783e 1495 01bf
000001e0: a7d7 d53d f452 df3e 0339 123e 50fc 533f
000001f0: 05b7 4d3f 43c2 b53f 73d9 bb3f e96f 3a3e
00000200: d478 993e dc4e 853e 7c99 e7be e1f7 763f
00000210: 78f3 21be 6d92 1fbf 47d7 b93e b9c4 73bd
00000220: c93e fcbe 651a 193f c59a 623f 8b89 a23f
00000230: 6caf a6bf 4010 2dbf b737 27bf 8cc4 ffbe
00000240: bcce ba3e c858 fd3d 61ab ec3e 1bf7 203f
00000250: 9cfe 953f 2143 46bf c0ab f3be b2aa 8ebf
00000260: da80 f9be 9608 ce3d 3821 20bf 2eaf e1be
00000270: a723 da3e cf59 303f 33ec e83e b86e c4bf
00000280: 94b1 28bf c8ed d03f 8cb0 b13f 0026 adbe
00000290: f863 af3e 4452 923d 9e2e 403f a23d 71bf
000002a0: 2582 853f 157b 3dbe 3250 92bf f281 9dbe
000002b0: e281 493f a46d 503f 805f cb3f d07f 74bf
000002c0: 35e9 83be 4fb9 7fbe db64 d7bf ce1f 9fbf
000002d0: b3db aabe d953 6dbf 823c a6bf 1700 87be
000002e0: 9a60 033f 4a9b ab3d beaf 303f cd77 1a3e
000002f0: 8c7e 7e3f 4902 bc3d 337f 9bbf f652 3abf
00000300: 60a1 773f 87ce 943f 9823 d2bf a2b5 55be
00000310: 9227 03be 1ba8 e73e c350 bbbe d915 933e
00000320: 9aef 993f bc9a ccbf 5e3a 7e3b 965d 63be
00000330: c690 9c3e 2a62 66bf 367b cb3d 2a3d c83f
00000340: 112a dd3e fbd1 0b3f 6846 283e 847c a63e
00000350: 733e ee3e 34ec 0abd 25b5 793e bbc3 3bbf
00000360: ff10 66bf d7ee 233e 838f 673e 3c54 6bbf
00000370: 0d87 6dbf 11b5 673e 9bdb 70bf fd1f 38bd
00000380: 3d69 4d3f 4e63 373f 6322 ce3e d73e 78bf
00000390: 7a31 2fbf 9f5e c4be 398b 393f 8952 81bf
000003a0: 6924 c2be be57 a43f d1e4 5a3f d2c7 e83e
000003b0: b1e7 78be 4bfd 043f e470 993e 0841 bfbc
000003c0: e5ff a0be 8f97 d03c 0d53 993e b0c7 53bf
000003d0: 0b59 47be 6c8b 87bf 7701 f6be 0649 c3be
000003e0: ebcc 133e f3d6 84bf aa8c 4c3f 07f7 4abf
000003f0: 283d 5c3f d080 b4bd 909b 1fbf 956d b7be

value_stream.weight f4 [1, 256]
0.15076561 -0.14618698 0.10055761 0.18171145 0.84058756 -0.17097807 -0.26932988 0.29304394
-0.28422302 -0.1409607 -0.11239542 0.070332065 -0.40431866 0.07920606 0.04622809 -0.21149471
-0.20306255 0.13436797 -0.17124611 0.8488482 0.24803649 -0.45256078 -0.26563856 0.19601385
-0.17606199 -0.12461026 -0.23307468 0.1886157 0.05279214 0.4031181 0.18348265 0.19788603
-0.15194665 -0.2587265 -0.25780845 0.24833068 -0.26057926 0.19810529 -0.54682124 0.23582834
0.3669796 0.6188229 -0.39559314 0.28014466 0.08548839 0.15744457 0.30111963 0.23057604
-1.3230828 0.24136427 -0.25952366 -0.52115464 0.049759183 0.34084737 0.13090979 -0.16678832
-0.7928954 0.21152306 -0.2390872 -0.15511565 -0.23844586 0.12974907 0.46387783 0.48322365
-0.21806805 -0.10994562 -0.17422983 -0.21774878 0.25768876 -0.32202643 -0.1687613 -0.29494518
0.30245268 0.23867816 0.3007423 0.30253702 0.88487303 -0.23804946 0.62700367 -0.39231458
-0.0797615 -0.09765195 0.14173372 0.19529001 -0.37160453 0.12961288 0.3568697 0.050484948
0.3725227 0.081222914 -0.37583685 0.25185773 -0.096218735 -0.24715298 -0.068841316 -0.07392024
0.16182521 0.17224218 -0.21370009 0.117338784 0.272001 -0.17465542 0.29413497 -0.29397213
0.018217836 0.32513595 0.14154382 -0.2804615 0.36167845 0.053308044 0.14347444 0.20376252
-0.33438125 -0.08821634 -0.23276906 -0.6031214 0.14496802 -0.33429205 -0.2755372 0.2044333
-0.19721779 0.28714013 0.23191842 0.23844332 1.0288898 0.55668473 0.49844587 0.14322066
-0.5191816 0.13937347 0.24371123 0.44493377 -0.28220475 0.2949334 0.0981817 0.58031785
-0.2669224 0.36620492 0.28979594 -0.4342596 -0.08725913 -0.1082064 0.29521996 -0.16178772
0.18005362 -0.31303844 -0.14765128 0.196391 0.15394475 -0.15778609 -0.24025632 -0.16810925
-0.31872323 -0.20491755 0.4554747 0.268306 0.18479584 -0.4942083 0.08728968 0.3593967
0.25397694 0.11887805 0.21956116 -0.4045463 -0.1616227 -0.24354242 0.40565485 -0.13325822
0.21965666 0.13237065 -0.46556282 0.25859934 0.2648974 0.32902813 0.20537992 -0.36518607
-0.4405094 0.7897962 -0.02062244 0.28015637 -0.21074656 0.28573042 0.6711761 0.27881965
0.15201323 0.4007334 0.10373003 0.36304086 -0.59006774 0.2288311 -0.21167155 -0.2609646
-0.1391244 -0.38813403 0.48317546 0.25144497 0.43359593 0.10244215 -0.43556312 0.62457365
0.53352964 -0.19068056 -0.8876 0.39605823 0.3069878 0.12817466 0.57464623 0.026724014
0.28138503 0.14365567 0.09707877 0.1835831 0.25751737 0.28895524 -0.33914533 -0.66510934
0.19867079 0.082514256 0.1423962 0.18414998 0.13751687 -0.15805785 -0.46091464 0.35499874
0.12035175 0.18194634 0.39209387 0.30938286 -0.14036071 0.3798867 -0.42171174 0.21467339
-0.23574732 0.18638535 0.14386874 -0.24557693 0.21964079 -0.5290656 -0.085412644 -0.3344456
-0.2672135 -0.22054371 0.32385358 -0.16652879 0.20015253 0.11594566 0.9427549 -1.1497564
-0.44500786 -0.2145516 -0.18912376 -1.1045806 0.17118466 0.117097005 -0.3027608 -0.1998451
00000000: 4d62 1a3e 0ab2 15be 26f1 cd3d 9112 3a3e
00000010: bf30 573f e014 2fbe 9be5 89be db09 963e
00000020: ae85 91be 0058 10be 922f e6bd 420a 903d
00000030: db02 cfbe c936 a23d aa59 3d3d 1292 58be
00000040: a1ef 4fbe c297 093e 245b 2fbe 1e4e 593f
00000050: 47fd 7d3e 0cb6 e7be c701 88be dbb7 483e
00000060: 9849 34be aa33 ffbd 21ab 6ebe 7924 413e
00000070: 923c 583d 7f65 ce3e e0e2 3b3e a3a2 4a3e
00000080: e797 1bbe cd77 84be 78ff 83be 664a 7e3e
00000090: a56a 85be 1ddc 4a3e 7afc 0bbf fc7c 713e
000000a0: c0e4 bb3e 2d6b 1e3f 2f8b cabe 1f6f 8f3e
000000b0: 8914 af3d 2639 213e 5a2c 9a3e 201c 6c3e
000000c0: c75a a9bf 3228 773e 49e0 84be 646a 05bf
000000d0: 49d0 4b3d 8c83 ae3e 370d 063e 8fca 2abe
000000e0: 31fb 4abf 8099 583e 46d3 74be a3d6 1ebe
000000f0: 272b 74be f1dc 043e 6581 ed3e 1769 f73e
00000100: 3b4d 5fbe 2b2b e1bd 4e69 32be 89f9 5ebe
00000110: c8ef 833e a6e0 a4be c3cf 2cbe 0e03 97be
00000120: 14db 9a3e 0c68 743e e5fa 993e 22e6 9a3e
00000130: 0a87 623f 3dc3 73be 5083 203f 75dd c8be
00000140: ff59 a3bd bffd c7bd a522 113e 1bfa 473e
00000150: f342 bebe 3db9 043e a0b7 b63e 4ec9 4e3d
00000160: 4cbb be3e 3358 a63d b06d c0be 7ff3 803e
00000170: 540e c5bd ac15 7dbe adfc 8cbd 7f63 97bd
00000180: 82b5 253e 4160 303e 32d4 5abe 514f f03d
00000190: b743 8b3e dfd8 32be dc98 963e 8483 96be
000001a0: 923d 953c 3878 a63e ddf0 103e a698 8fbe
000001b0: eb2d b93e 8959 5a3d f7ea 123e 1fa7 503e
000001c0: 0534 abbe c5aa b4bd 035b 6ebe 2a66 1abf
000001d0: 7f72 143e 5428 abbe 3613 8dbe f756 513e
000001e0: 76f3 49be 0804 933e 067c 6d3e 7c2a 743e
000001f0: a9b2 833f e482 0e3f 4c34 ff3e 70a8 123e
00000200: 16e9 04bf ebb7 0e3e 708f 793e 5cce e33e
00000210: 247d 90be 8301 973e 7d13 c93d b68f 143f
00000220: 0eaa 88be 367f bb3e 2260 943e 4657 debe
00000230: eab4 b2bd 519b ddbd 1227 973e aeab 25be
00000240: fa5f 383e 9346 a0be e631 17be b91a 493e
00000250: b1a3 1d3e ad92 21be c105 76be d524 2cbe
00000260: b12f a3be e8d5 51be fb33 e93e 675f 893e
00000270: 1f3b 3d3e df08 fdbe efc4 b23d d802 b83e
00000280: 4409 823e 5676 f33d a4d4 603e b120 cfbe
00000290: 6c80 25be 2f63 79be feb1 cf3e d874 08be
000002a0: aded 603e 2c8c 073e 405e eebe 2267 843e
000002b0: a2a0 873e 6076 a83e 1d4f 523e abf9 babe
000002c0: 738a e1be 1530 4a3f 64f0 a8bc a870 8f3e
000002d0: f2cd 57be 424b 923e 32d2 2b3f 73c1 8e3e
000002e0: 5ba9 1b3e ee2c cd3e 6970 d43d 7ee0 b93e
000002f0: ae0e 17bf b352 6a3e 6dc0 58be 279d 85be
00000300: a076 0ebe 81b9 c6be c662 f73e 65bd 803e
00000310: 4900 de3e 31cd d13d 2102 dfbe 0fe4 1f3f
00000320: 6695 083f c441 43be c139 63bf 25c8 ca3e
00000330: 812d 9d3e 3840 033e 041c 133f 52ec da3c
00000340: b311 903e 791a 133e 3cd1 c63d 35fd 3b3e
00000350: 51d9 833e f1f1 933e 75a4 adbe 9b44 2abf
00000360: 5b70 4b3e 3cfd a83d 4fd0 113e d091 3c3e
00000370: 39d1 0c3e ebd9 21be 01fd ebbe 65c2 b53e
00000380: fa7a f63d 2450 3a3e 87c0 c83e 6e67 9e3e
00000390: b8ba 0fbe 8280 c23e 9aea d7be 57d3 5b3e
000003a0: bf67 71be cddb 3e3e 5452 133e 8578 7bbe
000003b0: 84e9 603e d870 07bf d3ec aebd 743c abbe
000003c0: 35d0 88be 36d6 61be 23d0 a53e 8686 2abe
000003d0: c9f4 4c3e eb74 ed3d 6358 713f 382b 93bf
000003e0: 12d8 e3be 6ab3 5bbe a9a9 41be e662 8dbf
000003f0: 084b 2f3e 8ed0 ef3d 7703 9bbe 32a4 4cbe

advantage_stream.weight f4 [20, 256]
0.08272087 0.028244361 -0.04245545 -0.11769513 0.032241773 -0.20209299 0.018725542 0.015731292
0.030460287 -0.038400773 -0.2236636 -0.11363094 0.059432436 -0.063243024 -0.031458694 -0.06101444
0.05505648 0.07073913 0.06663753 0.09973344 -0.054404784 -0.0419381 -0.18549676 0.20014468
-0.228466 -0.06263279 -0.03200055 -0.000632806 0.2387745 -0.17919631 0.112953834 -0.14919223
0.040682387 -0.017568626 0.14868422 0.09253567 -0.20456578 0.114354804 0.075823754 -0.36240393
0.18708037 0.5292075 -0.032433383 -0.023084685 0.0057145534 -0.20565079 0.065069586 -0.1523318
0.057336263 0.005698517 -0.15065396 -0.043477565 0.04918582 0.013157138 0.06120465 -0.3911508
0.037627906 -0.033698924 0.089499995 -0.1530967 -0.21434695 0.03995489 0.0704535 0.014265848
-0.02549272 0.021688538 0.03194747 0.03747956 0.2481796 -0.032042556 -0.12504567 0.025163881
0.18264818 0.15087575 -0.078373335 0.20706426 0.10436353 -0.12591544 0.060810238 -0.43269593
-0.088431545 -0.2848005 0.066484846 -0.0010003304 -0.02127656 0.11159561 0.012935908 0.06827145
0.07206934 -0.019426629 0.00963498 0.34786224 -0.005463094 0.07639955 0.05236188 0.28862348
-0.019287668 -0.0029534462 0.09796293 0.06412436 0.041135855 -0.094810575 -0.039396062 0.10670368
-0.25012577 0.20956188 0.103303686 0.034462176 -0.022109779 0.10712346 0.04430522 -0.021880083
-0.17582497 -0.3161272 -0.20045377 -0.26806602 -0.044680696 -0.026201788 -9.349174e-06 0.18304065
0.13111256 -0.25174403 -0.18495932 0.062309116 -0.18879382 -0.17594719 -0.048174016 -0.0041544894
-0.048918195 -0.039016478 0.29591933 0.024848452 -0.08537615 0.2665168 0.24813008 -0.03534592
0.056301493 0.1028784 -0.17623305 -0.16842258 0.12904523 0.028407957 0.2370089 0.056640115
-0.04135963 -0.11964249 0.15673761 0.17954947 -0.05577336 0.006494274 -0.021122064 0.11055795
0.07616727 -0.0027498207 -0.26443762 -0.02341157 0.08838718 0.27852 -0.09038046 -0.1794417
0.13592525 0.045084987 0.011965782 -0.22903737 -0.22078213 0.09382103 0.08501312 0.0013630292
0.02363443 -0.11916811 -0.027219355 -0.09315253 0.06049216 -0.07669756 -0.03546178 0.15126465
0.00048536074 0.258511 -0.25263017 0.05237101 -0.043851756 0.051975112 0.14702585 0.07516122
-0.003251792 0.23463738 0.060675528 0.015366102 -0.506826 0.04707912 -0.06534265 -0.10548533
-0.21608227 -0.1419231 0.09248212 -0.07449447 -0.016630443 -0.016666612 -0.13477343 -0.0044760243
-0.11943559 -0.045795925 0.7684103 0.099410586 0.08651638 -0.035475012 0.0077049765 0.020431625
0.3045767 0.061250165 0.013556105 -0.14166076 0.2047034 0.103552744 -0.0441543 0.08897769
0.1411928 -0.1988684 0.06820367 -0.050079376 0.010315104 -0.09782803 -0.10461266 0.030877935
0.015328786 -0.09970305 -0.1646836 -0.013068491 -0.09604605 0.3278302 0.044882875 0.010648427
-0.09284683 0.079460144 0.16415489 0.26301515 -0.063163556 -0.14253111 0.06162908 -0.083301514
-0.20167515 -0.057685617 -0.09573527 0.084382795 0.067576796 0.17038468 0.05005462 -0.2792395
0.012449279 -0.00022468217 -0.068178445 0.123757854 -0.062458184 0.015471544 0.13986346 0.03369849
00000000: 8f69 a93d b860 e73c c4e5 2dbd 250a f1bd
00000010: f30f 043d 77f1 4ebe 4f66 993c e9de 803c
00000020: da87 f93c 214a 1dbd 1208 65be 57b7 e8bd
00000030: 6d6f 733d 8f85 81bd d5da 00bd 47ea 79bd
00000040: e782 613d addf 903d 4279 883d 0c41 cc3d
00000050: 8dd7 5ebd 49c7 2bbd ddf2 3dbe baf2 4c3e
00000060: fef2 69be 9f45 80bd 0213 03bd e4e2 25ba
00000070: 4d81 743e 3d7f 37be 5754 e73d d9c5 18be
00000080: 93a2 263d 14ec 8fbc ad40 183e 5783 bd3d
00000090: b179 51be da32 ea3d 7c49 9b3d 028d b9be
000000a0: ff91 3f3e 257a 073f ded8 04bd 181c bdbc
000000b0: 2641 bb3b 1f96 52be 3443 853d defc 1bbe
000000c0: 6ed9 6a3d a0ba ba3b 0845 1abe 8815 32bd
000000d0: 1277 493d 0991 573c bab1 7a3d eb44 c8be
000000e0: b81f 1a3d e207 0abd c64b b73d 62c5 1cbe
000000f0: c47d 5bbe bda7 233d ed49 903d 4ebb 693c
00000100: 1cd6 d0bc 29ac b13c 5adb 023d 2b84 193d
00000110: cb22 7e3e 0e3f 03bd f90b 00be 7c24 ce3c
00000120: 2008 3b3e 2c7f 1a3e 3382 a0bd a708 543e
00000130: 8cbc d53d faef 00be 2814 793d 528a ddbe
00000140: 991b b5bd 5fd1 91be 3529 883d 851d 83ba
00000150: 2e4c aebc 3d8c e43d 21f1 533c e7d1 8b3d
00000160: 1799 933d 9824 9fbc 09dc 1d3c 001b b23e
00000170: c103 b3bb 5e77 9c3d 6979 563d 75c6 933e
00000180: 2c01 9ebc 9b8e 41bb caa0 c83d a253 833d
00000190: 127e 283d 0c2c c2bd c45d 21bd 7587 da3d
000001a0: 7c10 80be 6497 563e e290 d33d 3628 0d3d
000001b0: 911f b5bc 8b63 db3d 6479 353d dc3d b3bc
000001c0: 760b 34be 6ddb a1be c143 4dbe f33f 89be
000001d0: 1b03 37bd 22a5 d6bc 66da 1cb7 026f 3b3e
000001e0: 5f42 063e 98e4 80be fa65 3dbe d837 7f3d
000001f0: 2b53 41be 802b 34be 1e52 45bd 6222 88bb
00000200: 725e 48bd becf 1fbd bd82 973e fb8e cb3c
00000210: b1d9 aebd e474 883e d015 7e3e e2c6 10bd
00000220: 659c 663d e9b1 d23d 7076 34be f876 2cbe
00000230: 6f24 043e ceb7 e83c 76b2 723e 77ff 673d
00000240: b768 29bd 1f07 f5bd d37f 203e d1db 373e
00000250: 9b72 64bd ebcd d43b 2e08 adbc 356c e23d
00000260: 96fd 9b3d 5636 34bb 5e64 87be 9fc9 bfbc
00000270: 5604 b53d 2c9a 8e3e 6419 b9bd 91bf 37be
00000280: fd2f 0b3e 09ab 383d 210c 443c c688 6abe
00000290: b614 62be 3d25 c03d 5c1b ae3d aca7 b23a
000002a0: fe9c c13c 690e f4bd 20fb debc c1c6 bebd
000002b0: a1c6 773d 9c13 9dbd 5f40 11bd 1fe5 1a3e
000002c0: 0478 fe39 8e5b 843e be58 81be fc82 563d
000002d0: e69d 33bd dbe3 543d f28d 163e 20ee 993d
000002e0: 041c 55bb c844 703e e786 783d 1ac2 7b3c
000002f0: 59bf 01bf 09d6 403d 5ed2 85bd b108 d8bd
00000300: ac44 5dbe 4a54 11be 4467 bd3d 8f90 98bd
00000310: 913c 88bc 6b88 88bc 0c02 0abe 9dab 92bb
00000320: a69a f4bd 8294 3bbd 8ab6 443f c797 cb3d
00000330: 802f b13d 3f4e 11bd 077a fc3b 3960 a73c
00000340: 7af1 9b3e 74e1 7a3d 6d1a 5e3c 850f 11be
00000350: c59d 513e 7613 d43d 24db 34bd ef39 b63d
00000360: d894 103e 28a4 4bbe 5eae 8b3d 0820 4dbd
00000370: af00 293c 105a c8bd 2a3f d6bd b9f3 fc3c
00000380: 9725 7b3c 1d31 ccbd d1a2 28be 391d 56bc
00000390: cbb3 c4bd 5cd9 a73e 1bd7 373d bd76 2e3c
000003a0: 7b26 bebd 00bc a23d 3818 283e eca9 863e
000003b0: e55b 81bd adf3 11be c66e 7c3d fc99 aabd
000003c0: ee83 4ebe c147 6cbd da10 c4bd e3d0 ac3d
000003d0: b465 8a3d 5279 2e3e 1306 4d3d 7bf8 8ebe
000003e0: 10f8 4b3c a998 6bb9 24a1 8bbd c274 fd3d
000003f0: 27d4 7fbd 5c7c 7d3c 5e38 0f3e 6e07 0a3d

advantage_stream.bias f4 [20]
-0.2748927 0.21486212 0.18960992 0.18302816 0.22433087 0.15922835 0.09745065 -0.12358144
-0.1200043 -0.05922117 0.14332008 -0.18688655 0.06382126 -0.09259562 0.25918892 -0.056709394
0.09577921 0.2279201 0.09075837 -0.14159164
00000000: bcbe 8cbe d104 5c3e 1a29 423e bc6b 3b3e
00000010: feb6 653e c20c 233e 3594 c73d 4418 fdbd
00000020: d0c4 f5bd e691 72bd 80c2 123e 305f 3fbe
00000030: b9b4 823d c6a2 bdbd 69b4 843e 1c48 68bd
00000040: e427 c43d e363 693e 86df b93d 66fd 10be
