src/hockey-env/random_training_1/weights/episode_130.pth (torch, 307504 bytes, 7 tensors)

layers.0.weight f4 [256, 18]
00000000: e033 c53e a2b2 423e d67a 49bd e656 873c
00000010: e01f d73d 5cff e4bc 6fab fa3e 35a0 013f
00000020: 1278 9b3f 06cf a03b 8958 f3bd b041 be3c
00000030: b699 1a3f 9852 bfbe 3013 483f be88 8fbe
00000040: 812e 08c0 c469 573f 311f 73be 21d9 5dbf
00000050: 3bb9 423e 816b 2bbd c5e8 813d 6c14 3cbb
00000060: 4cca 803f 5e3a 11bf 4d5e 8fbe ea13 4d3d
00000070: 3301 ebbd a9a2 7a39 15cf 0ec0 ee79 23bf
00000080: 6da6 66be d1b7 d5bd ea9b 2a3f f840 143f
00000090: 0c35 edbe cf97 183f 7901 a1be 85b0 28be
000000a0: 245c 523e 812d 94bd fcd5 ba3f ece7 11be
000000b0: f502 5e3f 27f2 bd3e 6392 f7bd e0a1 563d
000000c0: 4d42 de3c 0dcb 05bf 8450 033f 6b19 45bc
000000d0: e3c8 bbbd 9aae 013f 2a27 943e b759 7c3e
000000e0: 99c9 47bf 4ad8 b43d f1cd b7bb 3287 33be
000000f0: c706 9bbe 2f6a b0bd 1ded 23bd 08eb a23c
00000100: c918 b83d a4b6 9e3c 43b3 1abe 39cf 20be
00000110: 4291 e5bc 79ab 91bc bedd f83c 0854 0e3e
00000120: 0729 b1be 04b6 c8be f0c6 b73c 10ba 1fbe
00000130: ec07 9fbd 9f32 34bc 78ad 263c a760 11bf
00000140: 07bb d63e e626 ec3c 9e44 df3d 45cf 993d
00000150: 6d14 8c3f e159 9bbe dd2b 8b3f 3b14 d5be
00000160: 464b 3d3f da24 9c3f 6afc fc3e 89c2 983e
00000170: 0f9a fa3e 7e93 2e3c d629 0bbd 2bcd f1bc
00000180: 5d3c 6c3f 8154 2fbf 9b38 d73e 04c5 573c
00000190: cbd7 6ebd 4b93 3bbd a956 71bf 20c7 c7be
000001a0: 849d eabe 9aad 92be 51a5 8d3c 283d b9bf
000001b0: 151f e1be c025 8cbe e463 863d e347 0fbc
000001c0: e600 223c 9964 52bc 0487 7e3e 5157 ee3e
000001d0: 0534 c8be 4eb4 84bd 9884 2ebe 0e5f ea3c
000001e0: 5ca8 92be 83be bf3f c596 9cbe a8b7 363f
000001f0: ea98 39bf 9115 0a3e cd47 b7bd 7fb5 06c0
00000200: 1a71 873d 42e4 cfbc f192 00be 0259 05bc
00000210: 2ff6 1c3e 8654 c53f ec8d 54bf f940 67bc
00000220: c29b 9d3d a1f8 10bc 3e28 ed3e d507 ed3e
00000230: ec1a 3f3d a2ec c13d 3cdb debf bf70 133e
00000240: 434e d13e 1394 3dbd 48da 873d a070 723d
00000250: fc0b 243d 92cb e1bc b791 13bd 8d52 f63e
00000260: 2407 373f 9501 71bb 599d a43b b57a c23b
00000270: 3c05 8cbf 70a7 fa3d 9e7d 80bf 745b 033f
00000280: 7cf3 24c0 625c 8fbf d990 cb3d dcbf 2abf
00000290: 4bf7 643e 4362 433d 8241 dabd 9f89 723b
000002a0: 6eeb 18bf 06a7 6a3f 99d5 a4bd c634 3dbe
000002b0: 0a77 003f cb08 e53c fd3d 97bd 4aa7 433c
000002c0: 992c f3be 912f 0abe a01b 5ac0 d3c3 29bf
000002d0: 1add c1bd 1b7b 4ebe 856c 953c fbec 88bc
000002e0: 7a20 583d bba6 a53a 6191 083f d612 ac3e
000002f0: e268 2dbe 4131 ef3d 28a6 0cbf b2da 533d
00000300: 9061 68bf 76be ba3c 5e13 3f3f 5e07 18bf
00000310: a0f6 7b3e dcf0 653f 9e2a d03e 0431 87be
00000320: a031 6a3e 9488 16bd a58e 403d bfd4 02bd
00000330: e266 03bf 2d82 8a3f 2169 78bf 1543 b93c
00000340: 5c4e 683f 507f d23c d725 a03d e289 be3d
00000350: 79fc 51bf f151 ccbe 607a 9d3f 4dfa d2bf
00000360: 6038 9d3d c203 fcbf bc83 143e 4b62 043e
00000370: 32bf 9cbc 6d2e 33bc d36d f5be dfc6 0940
00000380: 214c 1e40 6856 41bd f022 f93e f952 cf3b
00000390: 35ac da3e 5b45 953f d45e 18be 1dda 193f
000003a0: fa41 09bf 65ea c53d 2bed 97be b8e7 56bf
000003b0: 9fd5 f23c 659d 1abe bdf2 61be 7589 0dbb
000003c0: 16b3 163e d58c 553f b541 983f d723 8a3c
000003d0: 8771 223e 6e3b f93d eb1d 813e f000 52be
000003e0: 302d b03e b6dc c8be e92a 003f 1f94 af3f
000003f0: ac72 503f a585 343e 373b 2abe 30bf 3f3d
0.3851614 0.19013456 -0.04918941 0.016520929 0.105041265 -0.027953796 0.48958918 0.5063508
1.2146018 0.0049074916 -0.11882121 0.023224682 0.60390794 -0.37367702 0.7815428 -0.28034014
-2.1278384 0.8414576 -0.23742367 -0.8665944 0.19015972 -0.04185057 0.063432254 -0.0028698696
1.0061736 -0.56729686 -0.28001633 0.05006782 -0.11474838 0.00023902454 -2.2313893 -0.63857925
-0.22524424 -0.10435451 0.66644156 0.57911634 -0.46329534 0.5960664 -0.31446436 -0.16473587
0.20542961 -0.07235242 1.4596553 -0.14248627 0.8672326 0.3709881 -0.12088468 0.05240047
0.027131224 -0.52262956 0.5129473 -0.012029986 -0.091691755 0.50657046 0.2893613 0.24643598
-0.7804199 0.08830316 -0.005609267 -0.17532042 -0.30278608 -0.08614003 -0.04002105 0.019887462
0.089891024 0.0193742 -0.15107445 -0.15704049 -0.028023366 -0.01778196 0.030379172 0.13899243
-0.34601614 -0.39201367 0.022433728 -0.15598321 -0.07765183 -0.010998397 0.010173194 -0.56788105
0.41939566 0.028827142 0.109017596 0.07510237 1.0943733 -0.3034201 1.0872761 -0.41616997
0.73942983 1.2198746 0.49411327 0.2983592 0.48945662 0.010655282 -0.033975445 -0.029516777
0.9227961 -0.6848832 0.42035374 0.013169531 -0.058311265 -0.045794766 -0.9427286 -0.39019108
-0.458233 -0.28648072 0.017290743 -1.4471788 -0.43969026 -0.2737255 0.065620214 -0.0087451665
0.0098879095 -0.012841367 0.24856192 0.46550992 -0.39102188 -0.06479703 -0.17042768 0.028609779
-0.28644073 1.4980015 -0.30583778 0.7137399 -0.72498953 0.1348479 -0.08949242 -2.1048276
0.06613369 -0.025377396 -0.12556054 -0.008138897 0.15328287 1.541642 -0.83029056 -0.014114612
0.07695724 -0.00884834 0.46319765 0.46295038 0.046656534 0.09468962 -1.7410655 0.14398478
0.4088002 -0.046283793 0.06633431 0.05918944 0.04005049 -0.02756289 -0.036027636 0.48109856
0.7149527 -0.0036774625 0.00502364 0.005935038 -1.0939097 0.122389674 -1.0038335 0.5131142
-2.577361 -1.1200068 0.09939737 -0.66699004 0.2235996 0.04770113 -0.10657026 0.0037008298
-0.5973424 0.9166111 -0.08048553 -0.18477163 0.5018164 0.027958294 -0.0738487 0.01194174
-0.47494963 -0.13494708 -3.407936 -0.6631443 -0.09466 -0.20164149 0.018240223 -0.016714564
0.052765347 0.001263819 0.5334683 0.3360812 -0.16934541 0.11679316 -0.54941034 0.051722236
-0.9077387 0.022795897 0.74638927 -0.5938624 0.24605799 0.8982065 0.40657514 -0.26404583
0.22870493 -0.036751345 0.047011036 -0.03194117 -0.5132886 1.0820976 -0.97035414 0.022614995
0.90744567 0.025695473 0.078197174 0.09303643 -0.8202587 -0.39906266 1.2302971 -1.6482636
0.07676768 -1.9688647 0.14503378 0.12928121 -0.019134138 -0.010936362 -0.47935352 2.1527631
2.4733965 -0.047201544 0.48659468 0.00632703 0.4270951 1.1661791 -0.14879924 0.6009844
-0.536163 0.09663848 -0.29673132 -0.83947325 0.029642878 -0.15099104 -0.22065254 -0.0021596823
0.14716753 0.8341802 1.1895052 0.016862793 0.1586362 0.121695384 0.25218138 -0.2050817
0.34409475 -0.3923089 0.50065476 1.3717078 0.81424975 0.17629106 -0.16624151 0.04681319

layers.0.bias f4 [256]
00000000: d85e d5bf adcf 893f ddb9 3340 bf2b 4f3f
00000010: 3954 913f dba3 d2bf 8b88 9d3f 1458 a4bf
00000020: 167d 8dbf b9d7 0bc0 7561 4c40 a62e c6be
00000030: 6a8a d43f b0e8 5e3f 53f0 a6be 93d7 813f
00000040: 16a5 cd3e 5b25 2440 d32e dbbf f17d 0cc0
00000050: c421 d03f 9037 c4bd a79c 0abf 6a53 4f40
00000060: 9a4d 0dc0 61d3 f53f 9998 e43e ba49 0fbf
00000070: 1782 ec3f b013 893d 0682 be3f 83f6 2840
00000080: 3122 a8bf c4e6 133e b044 32bf 2e10 2f40
00000090: 5e68 19c0 82e1 203f 743e edbf abc6 143f
000000a0: 1d9c 42bf 04f3 813f bdb9 60bf 0828 edbe
000000b0: 1b20 a7bf de6e f7bf de73 ebbf d97f 223f
000000c0: 2a1e cd3f a672 f53e a804 2fbe 169f a2bf
000000d0: b324 833f ba07 5cbe cbd7 ff3f 29bd c4bf
000000e0: a4a0 883f b864 1440 f8dc 2140 96b2 d33f
000000f0: 182a b53f 41fb 25c0 7c60 963f adb1 3f40
00000100: 26f2 35c0 127f efbd a8fe e2be f848 3840
00000110: 5964 3440 b2ba d5be b640 043f 4306 5ebf
00000120: 030a babd 4c2c 1abd 6e1f 0c40 a7c0 d43f
00000130: 4016 e4bf 668d 0e40 e692 c8bf 4bf9 4240
00000140: 5328 cabf 52d8 babf c5dd 4240 e771 eabe
00000150: 198d 7d40 405d 6e40 ba18 16be 7a8b 9a3f
00000160: 1121 fb3f 7d3c b53e d007 dabd 0d4c 583f
00000170: ae75 ef3e 1fdd ac3f b95b 843f 0608 0c40
00000180: 1554 fb3f 1a9d 56bf 03db d4bf 9da9 a53f
00000190: 261d a13f 94e4 ff3f 7203 eb3c 8ab0 4f3f
000001a0: 736c 0cbf 8365 c83e 4634 f4be 2d64 11bf
000001b0: 8e8c 4940 bfc6 28bf 5a45 bcbf fc89 d7bf
000001c0: c9bf 2f3f 9bfa c53f bcfc b8bf 3c13 983f
000001d0: 404a 073e 3a88 0bc0 82ac f73f 7820 343e
000001e0: f808 31ba c195 8d3f ad93 f2be 27aa 083f
000001f0: 8d8c 7abf bc60 1c3f 60d2 a43f 9041 fa3e
00000200: 0380 56be d31d 4ac0 043d 78bf 4b9e 4d3f
00000210: f308 6f40 269a 5ac0 2fcd 9c3f 2538 e53f
00000220: 675d 08c0 4f82 c63f f18f bcbe 885b 7abf
00000230: 8ccb dfbc 3eee 0540 24e2 2840 88b2 bbbf
00000240: 89f7 5d3e b891 a43f af54 50bf 6380 7e3e
00000250: 9f29 8d3f 3b9b 1940 3e97 1940 1bce ea3f
00000260: 688f 20c0 9912 0dbf 1fff 473e 1ae9 d9bf
00000270: ee2c 3bbe 0cfe 2d3f 78f9 3840 8947 08c0
00000280: c769 b63f 7321 5640 e9e5 59be 1a2e 1bbf
00000290: bca7 d1be 55e7 dcbf 6b90 1d40 2199 e23f
000002a0: 0dc3 c4bd 3c9d dc3f 34a4 d73f 0fd4 6d3f
000002b0: bb4e cfbf bca5 463f 68e7 903f 8ed7 8abf
000002c0: e06f 5d3f 468f 58bd 4a5e 773e f870 4c40
000002d0: d24c 2340 ccaf 14c0 6c35 cf3f b0c1 f23f
000002e0: 62db 06bf 4500 9cbe bf03 cdbf 9f23 873f
000002f0: c0af b53f ccea 6dbe 6542 14c0 771b 24bf
00000300: 48c1 bd3f d890 e33f 44ab f63d b5c8 1a3f
00000310: bac6 14c0 05da a73f aa4f 2cbf 0c1a 0740
00000320: ed8a f53f 19a2 0540 42fb 83bf 51d5 aa3e
00000330: 63f6 043f e8d1 cfbe ee54 c4bf 1092 1ac0
00000340: 0c7f fe3e 4eba 57be 3a55 db3f f10f 1cbf
00000350: 43b6 0d3e 0e09 c7bf 0ab4 8abf a503 87be
00000360: 0175 b93d d1a5 983f 17db dfbf 2f5f 62bf
00000370: bbb6 edbf 72c6 c4bf 9a90 423f 609a 8fbd
00000380: ff09 a13e 0716 c33f c793 713f bdc7 c13f
00000390: cd7a 16c0 6a4e 0840 6c8c 7a3f c07d c03f
000003a0: 130f 68be 6b6e 1540 42e8 973e a4a9 443f
000003b0: f6db c8bf 3b22 e5bf 2b7d bfbf 9906 823f
000003c0: 9bd4 fdbf ec7b 48bf 8ad1 833f 8db2 21bf
000003d0: 22d4 de3f 6d5c e8bf ca0a 02bf 5e9c c03f
000003e0: d9e2 84bf 2ed7 77bf 4f87 34c0 9ec2 403f
000003f0: 6332 e43d c25d f53e 8798 0940 33ba d6bf
-1.6669569 1.0766503 2.8082192 0.80926126 1.1353828 -1.6456255 1.2307295 -1.2839379
-1.1053798 -2.1850417 3.1934483 -0.38707465 1.6604741 0.870738 -0.32605228 1.0143913
0.40165013 2.56478 -1.7123665 -2.1951869 1.6260304 -0.0958091 -0.5414528 3.2394662
-2.2078614 1.9205133 0.44647673 -0.5597187 1.84772 0.06693208 1.488343 2.640046
-1.3135434 0.14443499 -0.6963606 2.7353625 -2.396995 0.628441 -1.8534684 0.58115643
-0.7601946 1.0152287 -0.87783414 -0.46319604 -1.3056673 -1.9330709 -1.8394735 0.6347633
1.602483 0.47939032 -0.1709162 -1.2704799 1.0245575 -0.21487322 1.998773 -1.5370227
1.0674024 2.3186474 2.5291119 1.6538875 1.4153471 -2.5934603 1.1748195 2.9952195
-2.8429046 -0.116941586 -0.44334912 2.8794537 2.8186247 -0.41744 0.5166124 -0.86728305
-0.09083941 -0.0376399 2.1894183 1.6621293 -1.781929 2.2273803 -1.566983 3.0464656
-1.5793556 -1.4597266 3.0447857 -0.45790026 3.961737 3.7244415 -0.1465787 1.2073815
1.9619466 0.3539771 -0.10646021 0.84491044 0.4676947 1.3504981 1.0340492 2.1879897
1.9635035 -0.8383347 -1.6629337 1.2942387 1.258702 1.9991632 0.028688166 0.8112875
-0.5485298 0.39139947 -0.4769613 -0.5679348 3.1492038 -0.6592826 -1.4708664 -1.6838984
0.68652016 1.5467104 -1.4452128 1.188087 0.13211918 -2.1801896 1.934952 0.17590511
-0.00067533506 1.1061326 -0.47378293 0.5338463 -0.97870713 0.61085105 1.2876701 0.48878145
-0.2094727 -3.1580703 -0.969681 0.8031966 3.7349212 -3.4156585 1.2250117 1.7907759
-2.1307008 1.5508517 -0.3682857 -0.97795916 -0.027318738 2.0926661 2.6388025 -1.4663858
0.21676458 1.285697 -0.81379217 0.24853663 1.1028327 2.4000995 2.399856 1.8344148
-2.5087528 -0.551065 0.19530915 -1.7024262 -0.18278858 0.6796577 2.8902264 -2.1293662
1.4251031 3.3457916 -0.2127911 -0.6061722 -0.40948284 -1.7258097 2.4619396 1.7702981
-0.096075155 1.7235484 1.6846986 0.929017 -1.6195902 0.7759664 1.132062 -1.0847032
0.8649883 -0.05287101 0.24157062 3.194395 2.5515637 -2.3232298 1.6188178 1.8965359
-0.526785 -0.30468956 -1.6016768 1.0557746 1.419426 -0.23234099 -2.3165524 -0.6410441
1.482461 1.7778578 0.12044385 0.60462505 -2.3246293 1.3113409 -0.6730906 2.1109648
1.9183022 2.0880187 -1.0311053 0.33365873 0.51938456 -0.40589833 -1.5338418 -2.415165
0.49706304 -0.21067163 1.7135384 -0.60961825 0.13839059 -1.5549638 -1.0836194 -0.26369968
0.0905552 1.1925603 -1.7488736 -0.8842649 -1.857139 -1.5373061 0.76001894 -0.070118666
0.3145294 1.5241097 0.94366115 1.513908 -2.3512452 2.129786 0.97870517 1.5038376
-0.22662 2.3348644 0.29669386 0.7682135 -1.5692127 -1.7901071 -1.4960073 1.0158263
-1.9830507 -0.7831409 1.0298321 -0.6316307 1.7408488 -1.8153206 -0.5079771 1.504772
-1.0381728 -0.96812713 -2.8207586 0.7529696 0.11142423 0.47923094 2.1499345 -1.6775573

layers.1.weight f4 [256, 256]
00000000: 1a14 a23f a245 b1bd 8d03 54be 4cdc 3e3e
00000010: 10b4 86be 51bc d3be 4d31 233d 81f4 6b3e
00000020: c8b7 733f 2c5d d6bd fa05 29be da44 19be
00000030: 30fa ee3e 725a 2fbf 7255 483f 067a 23bd
00000040: fadb 8f3f 5c0b 293f d180 573e bed9 973f
00000050: 9913 9c3e ee8c f9bd 3cba 793f 8001 a2bf
00000060: b7a5 f8bd 10de d8be c34a 663e c08a 963c
00000070: 2677 ab3e 2249 96be a5cd a13e d499 65bd
00000080: a95e b23d 40a6 aebd 4dca 033e 97dd 0dbf
00000090: 8668 85be 18ca 903f ecbc 213f ce52 7fbe
000000a0: 5943 d0be 4b80 2fbf 456f 83be 6396 00bf
000000b0: 34fe 6b3f 2ba0 fabd 07cc f0bc 5677 023e
000000c0: 1f2c 413f 4258 b63c 7a7a d1be 34e6 a9be
000000d0: 5ca1 c33e 9eb0 003f 0291 52bf 8622 06bf
000000e0: 67da 7ebd 3f21 823e f1ba a2bf 79ec 89bf
000000f0: c1fa 073e 2af8 c4bd 6f73 07bf 9146 213f
00000100: fde4 563f 7487 08be 4127 f33d 787b a83f
00000110: b337 4d3e ea89 003f 400b 0c3f 394a 4a3e
00000120: 13a0 9abf ee68 893e b1eb ae3e 67e6 0dbf
00000130: d479 373f 4b8b 6c3e 8bae 163f 697a 863f
00000140: 3d5f 293e a97a 8c3f 8ae1 e73e b157 383e
00000150: 149b a5bf 73cc 67be c584 a0bd cd52 ab3e
00000160: 403c bdbf 2cd5 68bd 6a20 88be e982 9fbb
00000170: 9399 87bf 3b34 c1be 11e6 863e b7f3 133f
00000180: 71f0 9e3e a35b 12be 65e2 e83e ef1d 113f
00000190: abdb debe 3ec4 11be ab6f ffbe c19c 7e3e
000001a0: deb3 a4bd 8903 49bf 660a 0a3e a0ca 9a3d
000001b0: f113 b0be a543 d83e 0291 643f 14f9 123e
000001c0: 04e1 863e e135 0dbf 8df4 c2be 4a1f 03be
000001d0: 6d42 e53f dea5 7a3e 85f9 d93e 7d70 163e
000001e0: 28b2 1bbf 324e 0bbf 97c9 66be 9e5b 9d3e
000001f0: b48e ba3f cd3f 3e3f 56e2 4e3c 4053 f0bd
00000200: efcd 93be 4e81 e63e 774d 9e3e 5d95 be3e
00000210: 3dd5 683e 29df 933e 87cf 093f b995 833d
00000220: 10fa 883f bad2 4e3f 6593 49bf bdd2 513f
00000230: 6574 d73e 53d1 ee3e 99d7 19be 49c5 dabe
00000240: 3cba b7bd a129 81be 35b1 1abf 1cb4 81be
00000250: ada1 39be 704b 34bf cb6f 65bf 20d6 953f
00000260: ca25 10be a297 c43f a91a ecbe d051 efbe
00000270: ed7f 16bf 0ed3 403e 4cbb 44bf 9e9e 453f
00000280: c3ee 42be db64 1c3f e6c7 e23e bb3b 203f
00000290: 4d9d eebe 0034 533f 60ed 603d 664c 86bf
000002a0: 2094 c8be 0c0d 073f de71 83be a4be 3b3f
000002b0: a2d7 f13e 4c7d fdbd 4743 df3e 0266 8bbf
000002c0: 9903 b03e 6bb0 833f 1bd4 62bf 0d44 90be
000002d0: b4cc 7dbe f5cf 553e 437d 5abe 487f 38bf
000002e0: 4f81 4cbe b988 eb3e 81f9 f23d 7099 eebd
000002f0: 9844 0abf 08b9 ad3d 360d 6d3e 322d f93e
00000300: e0a8 babe 8a1a 803e 9047 52bf 7ed1 10be
00000310: 190c 8e3d aa78 5bbe d1fa 053f cf81 2dc0
00000320: 5329 18be 44ba 73be 8d04 f6be 6af0 01bf
00000330: 4581 283f dcb4 a5be 811e 93bf 579e ef3d
00000340: 68f3 983f be61 07be 468e 2e3e 4bf6 073e
00000350: aa45 e5be 169c c6bc 3fca 2c3f b7c5 bfbc
00000360: 5626 773e 5bcc a23f 2136 993e 26c0 d03d
00000370: 2979 01bf c970 fe3d c3bb 98be e14e 09be
00000380: 747c 4c3e bce8 5d3e 7c5f 9bbb 765b 88bd
00000390: 75a7 f8be 8956 3b3f 6ac9 f93e c528 55bc
000003a0: bb17 933e 0502 a53e d73e 52be dfc5 cb3d
000003b0: 01f4 fb3e 0746 df3e cd14 383f 3b3e 013f
000003c0: 0d0e c93e e4cc 0ebf 47d8 afbe 960a 7fbf
000003d0: a66d 733f 5e6f b83e 54f0 4d3f 0daa e63e
000003e0: 237d 6d3e 3825 123f 6eef d3bd 1a40 b53d
000003f0: c44e cc3d 86ba cabe e6f8 9d3e 01a4 9cbf
1.2662385 -0.086558595 -0.2070448 0.18638724 -0.26309252 -0.41354612 0.03984194 0.2304249
0.952023 -0.1046699 -0.16506186 -0.14967671 0.46675253 -0.68497384 0.7825538 -0.039911292
1.1239007 0.6603296 0.21045233 1.1863325 0.30483702 -0.12185083 0.97549796 -1.2656708
-0.121409826 -0.4235692 0.22489457 0.018376708 0.3348934 -0.2935267 0.31602207 -0.056054905
0.08709461 -0.085278034 0.1287014 -0.55416244 -0.26056308 1.1311674 0.63178897 -0.24933931
-0.40676382 -0.68555135 -0.2567083 -0.5022947 0.9218476 -0.12237581 -0.029394163 0.12740836
0.7545795 0.022258881 -0.40913755 -0.33183444 0.38209045 0.50269496 -0.82252514 -0.5239643
-0.062220003 0.2541599 -1.27133 -1.0775291 0.13279249 -0.09617646 -0.5291051 0.629983
0.8394316 -0.13332921 0.118727215 1.316268 0.20040779 0.5021044 0.54704666 0.19754876
-1.2080101 0.26837867 0.34164193 -0.5542969 0.7167027 0.23100011 0.5886008 1.0506107
0.16540237 1.0974933 0.4528926 0.18002202 -1.2937951 -0.22636585 -0.07837824 0.3346161
-1.4784012 -0.05684392 -0.2658723 -0.0048679006 -1.0593742 -0.3773516 0.26347402 0.57793754
0.31042817 -0.14292769 0.45485225 0.566863 -0.43526968 -0.14235017 -0.49889883 0.24864484
-0.080421194 -0.7852102 0.13480529 0.07558179 -0.34390214 0.4223911 0.89283764 0.14352828
0.26343548 -0.5516034 -0.38077202 -0.12804905 1.7910897 0.24477336 0.4257318 0.14691348
-0.6081872 -0.5441619 -0.22537838 0.3073396 1.45748 0.743161 0.012627205 -0.11734629
-0.28868052 0.45020527 0.30918476 0.3722333 0.22737594 0.28881195 0.53832287 0.06425042
1.0701313 0.80790293 -0.7874053 0.81962186 0.4208099 0.46644077 -0.1502365 -0.42728642
-0.08971068 -0.25227073 -0.60426646 -0.25332725 -0.1812808 -0.7042761 -0.8962371 1.1705971
-0.14076915 1.5358775 -0.4611409 -0.46742105 -0.5878895 0.18830511 -0.7684829 0.77195156
-0.19036393 0.61091393 0.44293135 0.6259114 -0.46604386 0.8250122 0.05491388 -1.0492065
-0.3917551 0.5275428 -0.2567281 0.7333777 0.47234827 -0.12377414 0.43606016 -1.0890505
0.34377745 1.0288213 -0.886049 -0.2817692 -0.2478512 0.2088011 -0.21336846 -0.72069216
-0.19971202 0.4600275 0.11863995 -0.1165036 -0.54010916 0.084825575 0.23149571 0.48667294
-0.36456966 0.25020248 -0.82140446 -0.14142415 0.06935901 -0.21432748 0.5233584 -2.711048
-0.14859514 -0.23801523 -0.48050347 -0.5075747 0.6582225 -0.32364547 -1.1493684 0.11700123
1.1949282 -0.1322088 0.1704646 0.13277547 -0.44779712 -0.02424435 0.67496103 -0.023409707
0.24135718 1.2718614 0.2992411 0.101928994 -0.505755 0.12423856 -0.2983075 -0.13408996
0.1996935 0.21670812 -0.0047416072 -0.0665807 -0.4856526 0.7317892 0.4878648 -0.0130102085
0.28729042 0.32228103 -0.20531784 0.0994985 0.49209598 0.43608114 0.7190674 0.5048558
0.39268532 -0.5578139 -0.34344694 -0.9962553 0.95089185 0.36022466 0.80444837 0.45051613
0.23192267 0.5708804 -0.10348402 0.08850117 0.09975961 -0.3959543 0.30853957 -1.223755

layers.1.bias f4 [256]
00000000: 5e72 d53e 26b6 3f3c 2e2b 2e3f 1f81 bb3e
00000010: 130c bb3e 8b5c 9fbd 810e 0d3f 856c 75bd
00000020: bdbf 06bf 3400 b03e 4cb3 0abf 8851 85bd
00000030: 113e e0bd b7f2 403f 99ce 6abe 58eb a33e
00000040: 63a4 55bf e85c ecbd 02be 483f 6b93 ecbe
00000050: bfa8 d63e d9d8 f5bd ead2 2ebf fff2 a73d
00000060: 8af7 59bf 5a3b 1cbf 4c21 10bf 0ef9 f53d
00000070: 7a21 703f 4569 573f 8916 843f ee95 b53d
00000080: 7769 f23e 1e4b d6be 9708 50bf b872 d13e
00000090: 6d9e 463f a1cc 253f b91a 0abf 1401 86be
000000a0: 0d8c 89bc 1dc8 b93e 7664 30bf 4d70 54bf
000000b0: 71c7 273f 1062 5e3f 0784 a03e 8d79 203f
000000c0: 3c9e 783e 15f1 2d3e 02b2 53bf 6956 fe3d
000000d0: bb7e 3c3e 6ea1 05bf 020e 5c3f 3434 91bf
000000e0: 9dc2 bd3d 9575 cbbe 5090 7a3d 9c6e 88be
000000f0: 377b 993e c9bc b13f b193 2c3f 54d4 703f
00000100: d836 34bf 5ff8 d4be 82af 28bf 0ddc 0fbf
00000110: 61ce a73e bea1 ab3e 868b 84bf 04db 1d3f
00000120: bbeb 94be ec9e ed3e c8fd 343d 68c2 0b3e
00000130: 8ce0 d73e 845d 7f3e a236 4cbf 87fb 8cbf
00000140: 92d2 8dbd 16ee 55bf 333d 393f 0074 d6be
00000150: 5fe6 09bf 6593 d73e d33a 0bbf 173c a43e
00000160: e26f 3bbf 3f6d 763f b130 1e3f 4a18 443f
00000170: 59c9 09be 7413 523e 89ad bbbd d597 39bd
00000180: fb55 d63c 6103 dbbe 4620 15bf 5702 80be
00000190: 9d34 98bf 1702 b9be 1407 c73e 5138 a1bf
000001a0: 4d62 31bf 9fca 133f fd3a ad3d e448 62be
000001b0: cc40 b03f 9292 c1bf 8c16 833d c30b 1b3f
000001c0: f3ec 8bbf 9e8c 213f d0fe 6a3e 629c cf3f
000001d0: 0dc9 183f f298 1fbf ecd5 a33e 8bc1 ffbe
000001e0: 966d d43d 8bb5 b03e b9ee 3d3d ce42 b23e
000001f0: c7b6 2a3f bc75 a73f 2066 b13f 5633 88bd
00000200: abe3 1c3f a910 083e 68e9 06bf bae0 503f
00000210: a5f9 94be 4f48 0cbf 9e43 f43e a919 03be
00000220: 9d2b 9cbe 3064 093f 1ded 3e3f 7fca a23f
00000230: 8b75 93bf d926 03bf f3e5 42bf ef2d cebe
00000240: 738c 8d3e e095 993b f219 b23e ae38 203f
00000250: 9296 793f bc71 46bf db84 b3be 9a93 77bf
00000260: 7e08 4abd ffd3 b53d 8a24 33bf 1bef f6be
00000270: 7c5c 743e 388d 4a3f 7fd1 033f 15ad a8bf
00000280: 8926 26bf 888a a03f b3ad 913f 4167 2dbe
00000290: 6270 073f bb3b 673d afb3 723f 25c5 31bf
000002a0: 1a8f 423f ca34 29bd 9e05 91bf 3472 70be
000002b0: e6ac 1a3f ab84 413f 2afc a03f d489 51bf
000002c0: c143 b0be 7cc0 00be 31a6 b8bf 3e1c a0bf
000002d0: fe1b 82be 62bc 6abf a1d5 a0bf 1247 a8be
000002e0: 2af7 ed3e 08d7 6f3e b21e 023f febd 76bd
000002f0: 32df 3b3f 3e2b d03d 9fd0 8bbf 04e2 21bf
00000300: 9e5c 543f 40d3 6a3f 88a3 c7bf 3b35 b0be
00000310: e9c9 943c 0a42 8c3e 2273 40be 770a 483e
00000320: aaae 8d3f 65a9 91bf 8bbd ebbd c0d7 2abd
00000330: d075 393e d467 43bf 7aa7 d43d 33bb c03f
00000340: ce44 d43e 64f4 6f3e cf31 a63d 9bc6 9e3e
00000350: d11e c93e b266 a83c 4e82 ad3e 16e7 f5be
00000360: eb0f 32bf a710 69be 52cf 6d3e 71e6 88bf
00000370: 796b 69bf 32e7 653e e6c0 29bf 7955 5cbe
00000380: a1de fb3e bba6 0f3f bdf4 373f b1ee 80bf
00000390: 7ce2 39bf e73e 76be 8cd7 453f f164 84bf
000003a0: 8a48 c6be 97ff 8b3f b496 543f 8b1d a43e
000003b0: e9c4 d9be 1685 113f cd52 863e 5c85 b2bd
000003c0: c3a6 a3be 1a4b 3c3e 3e35 2e3e 3a64 71bf
000003d0: dd6f 5a3d 5ac1 8ebf 06d6 fcbe f48f c2be
000003e0: f57a 8a3d ec2e 7fbf 20be 543f 5d1e 17bf
000003f0: 60d6 503f c202 0dbe 8018 a0be 6f12 46be
0.41688818 0.011701142 0.68034637 0.3662195 0.3653265 -0.07781323 0.55100256 -0.059917945
-0.5263632 0.34375155 -0.54179835 -0.065096915 -0.10949338 0.75370353 -0.22930373 0.3201549
-0.8345396 -0.11541158 0.7841493 -0.4620622 0.41925618 -0.12004251 -0.6829058 0.08200645
-0.8514334 -0.61028063 -0.56300807 0.12010394 0.9380108 0.84145004 1.0319377 0.088664874
0.47346088 -0.41854185 -0.8126311 0.40907836 0.7758549 0.64765364 -0.53947026 -0.26172698
-0.016790414 0.36285487 -0.6890329 -0.8298386 0.655387 0.8686838 0.3135073 0.6268547
0.24279112 0.16986497 -0.82693493 0.12418825 0.18407719 -0.5219945 0.85958874 -1.1344056
0.09265635 -0.39738145 0.061172783 -0.26646888 0.29976818 1.3885738 0.6741286 0.94073987
-0.70396185 -0.41595742 -0.65892804 -0.56195146 0.32774642 0.33521837 -1.0355079 0.61662316
-0.29086098 0.4641031 0.044187337 0.13648379 0.42163503 0.24938017 -0.79770863 -1.101426
-0.06924929 -0.83566415 0.7235901 -0.41885376 -0.53867143 0.4210464 -0.54386634 0.32077095
-0.73217595 0.96260446 0.6179305 0.7659956 -0.13455714 0.20515233 -0.091639586 -0.045310814
0.026164046 -0.42776015 -0.5825237 -0.25001785 -1.1891056 -0.36134407 0.38872588 -1.2595311
-0.6929062 0.5773105 0.08458517 -0.22098118 1.3769774 -1.5122855 0.06400785 0.6056482
-1.0931686 0.6310519 0.22948766 1.6219599 0.5968178 -0.6234275 0.31999147 -0.4995235
0.10372464 0.34513506 0.04637024 0.34816593 0.66685146 1.3082805 1.3859291 -0.066504166
0.61284894 0.13287605 -0.526999 0.81592906 -0.29096714 -0.54797834 0.47707838 -0.12802757
-0.30502024 0.536685 0.74580556 1.2718047 -1.1520246 -0.5123115 -0.76132125 -0.4026942
0.27646217 0.004687056 0.3478542 0.62586486 0.9749538 -0.77517295 -0.35062298 -0.967096
-0.049324505 0.08878326 -0.6997763 -0.48229298 0.23863405 0.7912173 0.5149154 -1.317782
-0.6490255 1.2542276 1.1381134 -0.1693392 0.5290586 0.056453448 0.94805425 -0.69441444
0.75999606 -0.04131011 -1.1329839 -0.23481065 0.6042007 0.7559306 1.2576954 -0.81850934
-0.34426692 -0.12573427 -1.4425718 -1.2508619 -0.2541198 -0.916937 -1.2565194 -0.32866722
0.46477634 0.23421872 0.5082809 -0.060239784 0.73387444 0.10164498 -1.0923041 -0.632355
0.8295382 0.9172859 -1.5596781 -0.34415612 0.018162685 0.27394134 -0.1879392 0.19535242
1.1068928 -1.137982 -0.11510762 -0.04170966 0.18111348 -0.76330304 0.10383506 1.5057129
0.41458744 0.23433071 0.08114969 0.310109 0.39281324 0.020556781 0.33888477 -0.48027867
-0.6955554 -0.22760259 0.23223618 -1.0695325 -0.91179615 0.22451475 -0.66309965 -0.2151698
0.4919329 0.56113786 0.71857816 -1.0072843 -0.7261121 -0.24047433 0.77282023 -1.0343305
-0.38727218 1.0937375 0.83042455 0.3205379 -0.42533043 0.568437 0.26235047 -0.087168425
-0.31963167 0.18388024 0.17012498 -0.9429356 0.053329337 -1.1152756 -0.49382037 -0.38000453
0.067617334 -0.9968097 0.8310261 -0.59030706 0.8157711 -0.13770583 -0.31268692 -0.1934297

value_stream.weight f4 [1, 256]
00000000: 941b c73d 198e 94bd 0a4c 173e 1b3e bb3d
00000010: d763 e33e 3317 19be 0ba7 1dbe 7497 223e
00000020: 92e0 87be 0c98 05be 1b51 01be 2441 313e
00000030: 0378 59be 9b35 b63d 91f4 0e3e 8614 21be
00000040: 7475 34be b19e d83d 01c7 0c3e 3ac1 1f3f
00000050: dc13 1f3e 12a9 4abe 2714 32be 6c87 1b3e
00000060: f2d3 22be 774c efbd e437 53be 875f 2e3e
00000070: e379 da3d e02e 2b3e d85c 4f3e f95a 813d
00000080: 9409 60be e34e 6abe 87da bdbd fde5 363e
00000090: 0469 96be 6b44 e13d 0ed9 a4be e737 8f3d
000000a0: aefc 193e d85f b33e f82d 8ebe c104 3d3e
000000b0: 235e db3d e777 1d3e 9df3 8a3e 8b90 983e
000000c0: 288a 90bf 2973 503e d2f0 5bbe 036d 12bf
000000d0: 2b17 013e 39a3 6f3e c090 173e 9a1b 46be
000000e0: 8773 ebbe 1b08 553e e98b 2cbe 6765 29be
000000f0: 2c95 0abe baf8 e13d a54b 993e ca7a b23e
00000100: f9a8 3bbe b5c7 d3bd 1b45 4dbe 874d c3bd
00000110: 2167 d63d aacb 8ebe 651c 49be a242 8dbe
00000120: af83 5c3e c189 343e 590e 2f3e d1d2 3e3e
00000130: c90c 0b3f d5c5 8cbe 6fb3 853e 08af 83be
00000140: d3f0 e6bd 0124 96bd 950c 043e 981b 273e
00000150: d193 15be e262 e23d 6ba5 1d3e 47e8 0a3d
00000160: cad3 4f3e 6b96 223e 2b6c 93be c330 0d3e
00000170: 950f bbbd 3a45 6dbe 3952 57bb 4df9 81bd
00000180: e471 263e 231a 1d3e 1c1e 2abe f180 f03d
00000190: fe65 573e 107c 2bbe 79f7 963e a01e 48be
000001a0: 377b e6bd 5b35 8f3e 289e 483e b6de 49be
000001b0: b277 ab3e 7ead 30bc 4d1a 063e 0d94 223e
000001c0: 4dd2 6cbe a97e 06be 99a8 25be 4bfd 11bf
000001d0: 1081 68bd 651c 0dbe 9400 80be 13ef 1a3e
000001e0: 88cb 06be 96e3 0e3e 19f0 1a3e 712b 1f3e
000001f0: 707b 833f d519 c93e 3cc1 4a3e 0219 373e
00000200: d578 36be 89e6 243e 0a93 313e b1a0 a43d
00000210: 91da 3cbe 5022 813e af44 093e 7fc9 cc3e
00000220: b9b3 3dbe f349 843e e7c9 c23e 10cd 34be
00000230: ca9b 0abe d5ad e3bd 106d 3d3e e8af f6bd
00000240: e9f7 253e 43d0 57be 7efd 0abe 07fd 5d3e
00000250: c014 373e cb79 70be b61c 25be 2305 d4bd
00000260: dea3 96be 0057 f0bd 88db cb3e c1a1 3e3e
00000270: ea44 053e 54c9 37bd b86c 2f3e 1c16 9d3e
00000280: 3d37 883e 703a 073d 0230 063e a21a 9bbe
00000290: 24b4 04be e8dc 34be 15a3 693e 44c3 bdbd
000002a0: 1d4f f13d a03a 173e 6e05 c7be e786 2f3e
000002b0: efb3 623e 9e57 993e 369b de3d 0c42 8cbe
000002c0: 8d27 54be 0ab2 243f a746 c83d 8e35 8b3e
000002d0: e845 5dbe 8b5e 613e e8c6 b53e 64c9 663e
000002e0: dd35 453e b059 833e c57f ff3d 11c8 f63d
000002f0: 2d3f 96be 2c8b 553e 087f 5cbe 8c6e e4bd
00000300: c6e1 e6bd b43b 3abe 06ee 053f 3eac 4d3e
00000310: a5f2 863e be5e f83d 3147 98be 7684 e33e
00000320: f9f3 c33e b103 15be ef13 4fbf 206a 983e
00000330: b2d1 bd3e 4dc3 07be 7959 a23e 8614 b23d
00000340: 38f1 393e ebfa f33d f586 873d a6af 1f3e
00000350: 1d78 a13e 0015 863e 3706 5cbe 0fdd e0be
00000360: 139d 3d3e b380 a73d 74ef ec3d 100c ac3d
00000370: 7139 d13d 7d58 08be 41fc 96be c20a 343e
00000380: 2513 d83d 4f78 423e 2143 8a3e 0240 413e
00000390: aa27 9abd c544 b23e effe b4be 37fd a73d
000003a0: 55b9 2bbe 215d 183e d987 b23d 5420 02be
000003b0: 8d94 823e ecd6 2ebf 0fd3 253d 0cb3 afbe
000003c0: 51b1 08be 8dd0 90be 891c 7f3e 5b07 07be
000003d0: 9ab0 5f3e d55c b53d b741 2a3f 907d 87bf
000003e0: 55c1 4ebe 0878 6cbe 169b e0bd 2fa5 5abf
000003f0: 5882 db3d 7ea7 0a3e 14d9 d7bd ff4f 08be
0.09722057 -0.072536655 0.147751 0.09142705 0.4441211 -0.14950256 -0.15395753 0.15878087
-0.2653852 -0.13046283 -0.12628596 0.17310005 -0.21237187 0.08896943 0.13960482 -0.15730485
-0.1762293 0.10577143 0.13747789 0.62404215 0.1553492 -0.19791058 -0.173905 0.15188378
-0.15901163 -0.116845064 -0.2062679 0.17028628 0.10667779 0.167171 0.20250261 0.0631618
-0.21878654 -0.22881655 -0.092701964 0.17861171 -0.29376996 0.10999378 -0.3219685 0.069930844
0.15037796 0.3503406 -0.27769446 0.18458845 0.107113145 0.1537777 0.27138987 0.29797778
-1.1292162 0.2035643 -0.21478584 -0.5719759 0.12606494 0.23402108 0.14801311 -0.19346467
-0.45986578 0.20803873 -0.16850246 -0.16542588 -0.13533467 0.11033769 0.29940525 0.34859306
-0.18326177 -0.103408255 -0.20045893 -0.095362715 0.10468889 -0.27889758 -0.19639738 -0.275899
0.21534608 0.17630674 0.17095317 0.18635108 0.54316384 -0.27494684 0.2611346 -0.25719476
-0.11276402 -0.07331086 0.12895425 0.1631912 -0.14607169 0.11054017 0.15395133 0.033912923
0.20295635 0.15877692 -0.28793463 0.13788132 -0.091338314 -0.23170939 -0.0032855405 -0.063463785
0.16254383 0.15342002 -0.16613048 0.117433436 0.21035 -0.16746545 0.29485682 -0.19542933
-0.1125397 0.27970394 0.19591582 -0.19713864 0.33489758 -0.010783551 0.1309597 0.1587679
-0.23127098 -0.13134255 -0.16177596 -0.5702712 -0.05676371 -0.13780363 -0.2500044 0.15130262
-0.13163579 0.13954005 0.15130652 0.15543915 1.0272045 0.3927752 0.19800276 0.17880633
-0.17819531 0.16103567 0.17341247 0.08038462 -0.18442751 0.2522149 0.13405107 0.3999748
-0.1852559 0.2583767 0.38044664 -0.1765635 -0.13535991 -0.1111714 0.18498635 -0.1204527
0.16207851 -0.2107554 -0.13573262 0.21678554 0.17879009 -0.2348396 -0.16124234 -0.10352542
-0.29421896 -0.11735344 0.39815927 0.18616392 0.1301457 -0.044869736 0.17131317 0.3068093
0.26604643 0.033014715 0.13104251 -0.30293757 -0.12959343 -0.17662394 0.22816117 -0.092657596
0.11782668 0.14768457 -0.3887133 0.17141305 0.22138952 0.2994966 0.10869448 -0.2739414
-0.20718212 0.64334166 0.09779101 0.27189296 -0.21608698 0.22008722 0.35503316 0.22537762
0.19258828 0.25654364 0.12475542 0.120498784 -0.29345074 0.20853871 -0.21532834 -0.11153898
-0.112735316 -0.18186837 0.5231632 0.20085236 0.26356998 0.12127446 -0.29741815 0.44436997
0.38272074 -0.1455219 -0.8088979 0.29768467 0.37074047 -0.13258095 0.31708887 0.08695321
0.18158424 0.11913093 0.06617538 0.15594348 0.31536952 0.26187897 -0.21486746 -0.43918654
0.1851695 0.08178844 0.115691096 0.08400738 0.10216034 -0.13315006 -0.2948933 0.17582229
0.105505265 0.18991207 0.2700434 0.18872073 -0.075270966 0.34818092 -0.3535075 0.08202594
-0.16769917 0.14879276 0.08717317 -0.12707645 0.2550396 -0.68296695 0.040484484 -0.3431629
-0.13348891 -0.28284112 0.24913229 -0.131864 0.21844712 0.08855597 0.6650652 -1.0585194
-0.20190938 -0.23092663 -0.1096708 -0.854083 0.107182205 0.13540456 -0.10539451 -0.13311766

advantage_stream.weight f4 [20, 256]
00000000: 3652 373d b63e c7bc 0c71 3dbe 1655 91bd
00000010: 45f6 4b3d 8a77 1abe b885 92bc 0b00 783d
00000020: 8b2e 0e3d 1ac6 b3bd 50df 3ebe cfe2 1dbc
00000030: b968 c03d cc67 de3d d975 2d3d 7799 3f3d
00000040: 7fed 4ebd 0f5f 2d3e 8c56 993d 329e afbb
00000050: 6eb6 c13d e1fc 4fbc d5d0 a6bd e383 f43e
00000060: 2762 30be 1f65 1abd dc5b a4bd 5e91 853d
00000070: d56f 883e 94a4 573d b9d4 743e a347 973d
00000080: 5001 82bd 05ac 8b3d 8ae2 b13d 7b44 133e
00000090: dd3e 14be a9df 1d3e b456 1e3a 80a6 4abe
000000a0: ec4d 713e 33a8 053f 5b77 42bc 2738 ef3d
000000b0: 6bcd 063d e06e 6cbe bf5f 0e3e 24f7 acbd
000000c0: 2046 d33d 517b 673e 0a93 79bc 77fc 09be
000000d0: 3983 823c a80b 7a3c 4929 e6bc d25b 73be
000000e0: cacb 733d c62e 373d 1815 74bd cd5e febd
000000f0: cdd1 efbd c4c2 4dbb 85e8 e73d a935 ab3c
00000100: 1960 76bd 551e 663e edb2 28be 4062 a73c
00000110: cee8 aa3e 49fc 55be ae14 6dbd 3a91 4fbd
00000120: 6a39 b93d de0b 2e3e 3249 273c 8305 913d
00000130: ff2f d13d f605 9cbe e635 0e3e 382f edbe
00000140: 782c ec3c 5953 d4be 32bd 5e3d 0468 8ebd
00000150: 2749 7ebc 4621 963e 7cc3 3a3e 7fb7 8e3d
00000160: d81f 0a3d 68e1 82bd bdea 0f3d 7d5f 893e
00000170: 9e3d 0ebd 6136 f6bc 9233 253c 76e9 893e
00000180: 4b25 ee3d f9f4 f9bd c4ca 643c 7c4c 5e3d
00000190: 56ef 763d 875d 19bd 6025 32bd ea7b 4d3e
000001a0: cc58 a0bd 26c2 e03d 0b24 3c3e 7f00 0a3e
000001b0: 694c 063d 445e 8f3e d13c 0d3e 8ee6 ac3d
000001c0: 35a1 cebd 2435 7bbe b04c eabe fc34 95be
000001d0: 0458 25bd ad9b 31bd a4c7 10be c5e0 143e
000001e0: 12c7 4b3c c457 1fbe 83c4 90be 2598 893d
000001f0: 8c83 ba3d 327b d0bd 569a 2fbd e9f7 cf3d
00000200: 6c4b 853d fcfe 153d 2983 7e3e a66d f7bc
00000210: c92a 42bd c38e a13e aac0 f33d faea 783d
00000220: 111c ab3d 3e5f a83d fe8b 55bb 4c37 7dbe
00000230: 7888 9c3c a177 66be bf76 813e 903e 39bc
00000240: 81ea 7dbd 1519 2cbe 4532 3b3e 1edd 003d
00000250: 4225 8d3c 1bbd 703c f27b 38bd e5c9 2a3e
00000260: 0d27 85be 147f 1f3d ddfd 04bd bfaa 7e3c
00000270: 944e 0e3e 62a0 953e 8c58 953d fee7 44bc
00000280: 2b6c 323e 4dc5 263e 1214 8dbb 84f7 6cbe
00000290: ed39 07be dfc6 4dbd 70fd 333e c802 e0bc
000002a0: cf31 253e 5b91 96bd 76cc 21bd 7ffb 383d
000002b0: c452 013e f72e a0bc 8510 e0bc 524d 75bc
000002c0: 6e62 e6bd 1c13 e03d 2455 73be 1865 7f3e
000002d0: 03d2 86bc 63c2 8cbb 559a 3e3e 2989 fd3d
000002e0: 161d 843c bc3f 3a3e 0927 73bd 0885 953c
000002f0: aa95 21be f149 0cbc a429 9dbc f5e1 cabd
00000300: 0007 87be 510b 37be b7ba a03d b0aa 803d
00000310: cd88 3a3d fcc7 fcbb 4f2c c0bd 7af8 633d
00000320: 7b87 febd 5a7d 833d 129d ad3e 9498 453e
00000330: 41f1 2c3d 3b25 76bd 5846 8c3d 1b71 c7bb
00000340: 07f3 8a3e 5bd7 333e d064 783d 2b73 0bbe
00000350: f796 663e cd26 343e a4f5 d3bd 9518 653e
00000360: e8ca 0c3e 92aa 37be d721 99bd 63d8 80bc
00000370: bc0f f6bd e1cc 2fbd 00a9 c4be 2576 883e
00000380: 97ec 1c3e bd1f cebd d6d1 a0bd 000c 063d
00000390: e5ba 03be 6140 5d3e 9d9a 5dbd da0a 33bd
000003a0: 01c6 7abe 3902 113e e2cb f43d 1c9a ad3e
000003b0: 8e3a 863d cafd 64be 8b61 013e a2e9 32be
000003c0: 0600 9abe 9908 30be ecd3 81bd f56d 033e
000003d0: bc66 193b a9e8 c43e 5652 2f3e 2a7b 32be
000003e0: a46c 02bd 264d e1bc 466c 343c ca30 113e
000003f0: 3ec7 ab3d 8ab4 0a3d aca9 833e 1971 333b
0.044756137 -0.024321895 -0.18500155 -0.07096307 0.049795408 -0.15084663 -0.017886028 0.060546916
0.034712356 -0.08778019 -0.18639874 -0.009636595 0.09394974 0.108596414 0.042348716 0.046777215
-0.050519463 0.16930793 0.07487211 -0.0053594345 0.09458624 -0.012694568 -0.081453 0.47756872
-0.17224942 -0.037694093 -0.08025333 0.06521867 0.2664782 0.05264719 0.23909272 0.073867105
-0.063479066 0.068199195 0.08685787 0.14381592 -0.14477105 0.15417351 0.00060401415 -0.19790077
0.23564881 0.52209777 -0.011869277 0.11680632 0.032910746 -0.2308917 0.13903712 -0.08445576
0.1031611 0.22605635 -0.015232811 -0.13475214 0.015931712 0.015261568 -0.028095858 -0.23765495
0.05952052 0.04472234 -0.05959043 -0.124204256 -0.11709938 -0.0031396607 0.113236465 0.02089961
-0.06015024 0.22472508 -0.16474505 0.020432591 0.3338074 -0.2089702 -0.05788105 -0.05067561
0.09044154 0.16996714 0.010210322 0.070811294 0.10214233 -0.30473298 0.13887748 -0.46325088
0.028829798 -0.4146984 0.05437965 -0.06953433 -0.015520371 0.2932226 0.18238634 0.06968593
0.033721775 -0.06390649 0.035135973 0.26830664 -0.03472673 -0.030055227 0.010083096 0.2693593
0.11628207 -0.12204928 0.013964359 0.05427216 0.060286842 -0.03744271 -0.043492675 0.200668
-0.07829437 0.10974531 0.18373124 0.13476752 0.032787714 0.28001606 0.13792731 0.08442412
-0.100893416 -0.2453199 -0.45761633 -0.29141986 -0.04036714 -0.043361355 -0.14138657 0.14538868
0.012437599 -0.15560824 -0.28274927 0.067184724 0.09107122 -0.10179748 -0.042871796 0.10154707
0.06508526 0.036620125 0.24854721 -0.030203652 -0.047404084 0.3155423 0.11901982 0.060770966
0.083549626 0.08221291 -0.0032584663 -0.24728125 0.019108042 -0.22506572 0.2528591 -0.01130642
-0.06199122 -0.16806443 0.18280895 0.031460874 0.01722968 0.014693524 -0.04504008 0.16678579
-0.26006356 0.03893955 -0.032468665 0.015543639 0.13897163 0.29223925 0.072922796 -0.012018202
0.17424075 0.16286202 -0.004305371 -0.23141295 -0.1320569 -0.050238486 0.17577147 -0.027345076
0.16132282 -0.07351943 -0.03950163 0.04516172 0.12629229 -0.019553645 -0.027351627 -0.014972048
-0.11249243 0.10941145 -0.23762947 0.24940908 -0.016457563 -0.0042956336 0.1861356 0.12379677
0.01612715 0.18188375 -0.0593634 0.01825191 -0.15779749 -0.008562551 -0.019184895 -0.09906379
-0.26372528 -0.1787541 0.07848113 0.06282556 0.04554062 -0.0077142697 -0.09383451 0.055656888
-0.124281846 0.06420393 0.33908898 0.19296485 0.042222265 -0.0600941 0.068493545 -0.0060864813
0.2713854 0.1756262 0.060643017 -0.13618152 0.22518526 0.17592926 -0.103495866 0.22372659
0.13749278 -0.17936161 -0.074771576 -0.015728181 -0.1201472 -0.042919997 -0.38410187 0.26652637
0.15324627 -0.10064647 -0.07852523 0.032726288 -0.12864263 0.2160659 -0.05410253 -0.04371152
-0.24489595 0.14161004 0.1195295 0.3390664 0.06554137 -0.22362438 0.12634866 -0.17471936
-0.30078143 -0.1719078 -0.06339249 0.12834914 0.0023407182 0.38458756 0.17121252 -0.17429796
-0.03184189 -0.027502608 0.0110121425 0.14178768 0.08387612 0.03386358 0.25715387 0.0027380644

advantage_stream.bias f4 [20]
00000000: d646 c3be e23a 0c3e ddb6 1d3e 8e06 ba3d
00000010: b653 383e 46cc 233e 7cb7 443e 243e d43c
00000020: 0fe0 583d 70de 683d 12a1 a43d 9432 07be
00000030: fbb1 11be c2f8 acbd fb8c 7b3e c96e efbc
00000040: 3b00 2b3e d46f 023e f5ed b53d f731 87bc
-0.3813998 0.13694337 0.15401788 0.090832815 0.18000683 0.15995893 0.19210619 0.025908537
0.052948054 0.056852758 0.08038534 -0.13202888 -0.1422805 -0.08445884 0.24565499 -0.029227631
0.16699307 0.12737972 0.08883277 -0.016503317
