src/weights/random_training_3/weights/episode_800.pth (torch, 307504 bytes, 7 tensors)

layers.0.weight f4 [256, 18]
0	0x3f0e6f10	0.5563822
1	0xbcc6a654	-0.024249233
2	0x3ddce68a	0.10786159
3	0x3d6ebd4d	0.058286
4	0xbd9731c3	-0.07382538
5	0x3d0d34db	0.034474235
6	0xbd178fbf	-0.03700232
7	0x3e356296	0.17713389
8	0x3dedf339	0.11618657
9	0x3e22c08e	0.15893766
10	0xbcf24295	-0.029572764
11	0x3cc15b5e	0.023603138
12	0x3f1c8d77	0.6115336
13	0xbe205ffe	-0.15661618
14	0x3f5f9ffd	0.873535
15	0xbeb467b7	-0.35235378
16	0xc0167cd1	-2.3513682
17	0x3f9197d7	1.1374463
18	0xbe5e8848	-0.21731675
19	0xbf60ca87	-0.8780903
20	0x3ccd0c8b	0.025030395
21	0x3d1d7b17	0.038447466
22	0x3b7f0140	0.0038910657
23	0x3c101554	0.0087941475
24	0x3f90cd91	1.1312734
25	0xbe836595	-0.25663438
26	0xbce7097f	-0.02820277
27	0x3da0f283	0.078587554
28	0xbd94969a	-0.072552875
29	0xbcaca56b	-0.021074971
30	0xc00d0802	-2.2036138
31	0xbf28e740	-0.6597786
32	0xbe650909	-0.22366728
33	0xbdde00b9	-0.108399816
34	0x3fc22dc7	1.517022
35	0x3f08eddd	0.5348795
36	0xbedae442	-0.42752272
37	0x3e9e2935	0.30890813
38	0x3c3fc65c	0.011705007
39	0xbe462727	-0.19350873
40	0x3c770a3a	0.015078122
41	0xbdb163c7	-0.08661609
42	0x3fc58dfd	1.5433956
43	0xbea83ac4	-0.32857335
44	0x3f2c1c14	0.67230344
45	0x3e39bc3c	0.18138212
46	0x3dc96745	0.0983415
47	0x3e03b93e	0.12863633
48	0x3e8805fa	0.2656706
49	0xbf3bc204	-0.7334292
50	0x3ea0d849	0.31415012
51	0xbdaa75dc	-0.08323261
52	0x3ccbc4b6	0.024874073
53	0x3efd7e0b	0.49510226
54	0x3d877436	0.06613962
55	0x3d94ec6b	0.07271656
56	0xbf1d5cc3	-0.6146967
57	0x3bb58344	0.0055393297
58	0xbd20ec7f	-0.03928804
59	0xbe4d4ff9	-0.20050038
60	0xbe711d20	-0.23546267
61	0x3e5dee2b	0.21672885
62	0x3d0ef70f	0.034903582
63	0xbb45d5a3	-0.0030187152
64	0x3c994cae	0.018713322
65	0xbd3e664b	-0.046484273
66	0x3f051096	0.51978433
67	0xbe1e1a8b	-0.15439813
68	0x3d44703b	0.047958594
69	0x3ce34376	0.027742129
70	0x3d038288	0.032106906
71	0x3d8fab9d	0.070151545
72	0xbdc60e59	-0.09670705
73	0xbde76923	-0.1129935
74	0xbd8a46c9	-0.067517824
75	0xba77262a	-0.0009427989
76	0xbc1e0a0f	-0.009645953
77	0x3ca86d86	0.020560037
78	0x3c8cf3fb	0.017206183
79	0x3c9e3104	0.019310482
80	0xbdc0d6a2	-0.09415938
81	0xbcdbe23d	-0.026841277
82	0x3c9f8de8	0.019476846
83	0x3d8bda81	0.06828786
84	0x3f1ad4ab	0.60480756
85	0xbe8b3c02	-0.2719422
86	0x3f6fa062	0.936041
87	0xbf3f86c6	-0.7481502
88	0x3f909aa2	1.129719
89	0x3fdb3d0d	1.7128006
90	0x3f32f3c2	0.69903195
91	0x3e155a6d	0.14585276
92	0x3c7f98f0	0.015600428
93	0x3c3a686a	0.011377433
94	0x3badd881	0.0053053503
95	0xbc391404	-0.011296276
96	0x3fa67085	1.3003088
97	0xbf1ac362	-0.6045438
98	0x3ebd23ab	0.36941275
99	0x3d410872	0.047127195
100	0xbe082cc0	-0.13298321
101	0x3d8cde4a	0.06878336
102	0xbf514998	-0.8175292
103	0xbef880b8	-0.48535705
104	0xbeb2ef1f	-0.3494806
105	0xbe9d5156	-0.30726117
106	0x3dcd681e	0.100296244
107	0xbf6269bc	-0.8844259
108	0xbeb0d007	-0.34533712
109	0xbd55b14d	-0.05217104
110	0xbd93eab6	-0.07222502
111	0xbd026967	-0.0318388
112	0xbccb96b6	-0.024852138
113	0x3af55fbb	0.0018720547
114	0x3e456708	0.19277585
115	0x3e8bd561	0.27311233
116	0xbeeb1461	-0.45913985
117	0x3c147dfe	0.009063242
118	0x3ce354a0	0.027750313
119	0x3d920cc4	0.07131341
120	0xbef842ad	-0.4848837
121	0x3f2af331	0.6677733
122	0xbf0c68f3	-0.5484764
123	0x3f6e7a20	0.931551
124	0xbf28be84	-0.65915704
125	0xbdcf2348	-0.10114151
126	0xbe777d6a	-0.24168935
127	0xbfe81d8a	-1.8134015
128	0x3e9e8963	0.30964193
129	0x3d595ff1	0.053070012
130	0xbe1a5829	-0.15072693
131	0xbca27feb	-0.019836387
132	0xba44f686	-0.00075135415
133	0x3fa1ea90	1.2649708
134	0x3e16a84a	0.14712635
135	0xbc9fb8f8	-0.01949738
136	0x3d8b32f5	0.06796829
137	0x3e1889a8	0.14896262
138	0x3f0666d3	0.5250065
139	0x3e305062	0.17218164
140	0x3d1c1eba	0.03811524
141	0x3c843bf0	0.016141862
142	0xbf9e9eb0	-1.2392178
143	0x3e97fed2	0.296866
144	0x3f1fa9f7	0.6236872
145	0x3e22d135	0.15900119
146	0x3e18dfad	0.14929076
147	0x3dca1a93	0.0986835
148	0x3d2388a9	0.03992525
149	0x3c24a45e	0.010048954
150	0x3e1c72a8	0.15278113
151	0xbeb02acb	-0.34407648
152	0x3d3c6c8f	0.046001967
153	0xbd9e6318	-0.077337444
154	0xbd403d6c	-0.046933576
155	0xbd8722e7	-0.06598454
156	0xbfc37568	-1.5270205
157	0x3e2f9743	0.17147546
158	0xbf54914f	-0.83034223
159	0x3f1717b0	0.5902052
160	0xc017ca3f	-2.3717191
161	0xbf46d4e7	-0.77668613
162	0x3eb6d678	0.35710502
163	0xbf91e49f	-1.1397895
164	0x3f04cbc3	0.51873416
165	0xbdd8801b	-0.10571309
166	0x3debabab	0.115073524
167	0x3d455447	0.048176076
168	0xbf1ca52c	-0.6118953
169	0xbe8f2e79	-0.27965143
170	0x3d61bd35	0.055112083
171	0x3c087297	0.008328102
172	0x3d99e673	0.07514658
173	0x3d858196	0.06518857
174	0xbf406917	-0.75160354
175	0x3e471af1	0.19443871
176	0xbf05aa98	-0.5221343
177	0xbe2db063	-0.16961817
178	0xc05e9805	-3.4780285
179	0xbf4c12c6	-0.79716146
180	0xbdd57e85	-0.10424522
181	0x3f0d2393	0.55132407
182	0xbe94add9	-0.29038885
183	0xbd380b56	-0.044932686
184	0xbdd5aec2	-0.10433723
185	0x3b6fcaf6	0.003658948
186	0x3f612149	0.87941414
187	0x3f1f4247	0.62210506
188	0x3df987d3	0.121841095
189	0xbc0effbd	-0.008727965
190	0xbc8aeebe	-0.016959544
191	0x3e16eeec	0.14739579
192	0xbee49c6a	-0.44650584
193	0x3d86e217	0.06586092
194	0x3ee3bb59	0.44478872
195	0xbf056e20	-0.5212116
196	0x3e833b58	0.25631213
197	0x3ff22e09	1.8920299
198	0x3d850d97	0.06496733
199	0xbeebe41a	-0.46072465
200	0xbf0c9151	-0.54909235
201	0x3e283df9	0.1642989
202	0xbdab2268	-0.08356172
203	0x3c6743fc	0.01411533
204	0xbf8f8eae	-1.1215417
205	0x3f9a1f9c	1.2040896
206	0xbf5bf377	-0.8591837
207	0xbe008855	-0.12552007
208	0x3e074426	0.1320959
209	0x3e754a0f	0.23954032
210	0x3f803da9	1.0018817
211	0x3f37f8d0	0.7186403
212	0xbeeaa74e	-0.45830768
213	0xbe1be771	-0.15225007
214	0x3f65f3ef	0.8982534
215	0xbfaab832	-1.3337462
216	0xbde280eb	-0.110597454
217	0xbfff5d9e	-1.9950445
218	0xbea6bf1d	-0.32567683
219	0x3e4a906c	0.19781655
220	0xbe2cc338	-0.16871345
221	0x3ce7464d	0.028231764
222	0xbf044a20	-0.51675606
223	0x3fbf6430	1.495245
224	0x401a3096	2.4092155
225	0xbd83958f	-0.064250104
226	0x3d52f828	0.05150619
227	0x3e097168	0.13422167
228	0x3ede46e4	0.4341346
229	0x3e0d0457	0.13771187
230	0xbe2d09d2	-0.16898277
231	0x3f7203ee	0.94537246
232	0xbf851625	-1.0397383
233	0x3e4cd808	0.20004284
234	0xbe6f99c1	-0.23398496
235	0xbf234e26	-0.6379112
236	0x3e839b1e	0.25704283
237	0xbd816d85	-0.06319717
238	0x3d108bc1	0.03528953
239	0x3bb05b5c	0.0053819846
240	0x3e3acea8	0.18242896
241	0x3f862131	1.0478879
242	0x3d950bde	0.07277654
243	0xbca8b8aa	-0.020595867
244	0xbb9b7936	-0.004744674
245	0x3e175946	0.14780149
246	0x3b6a7b69	0.0035779125
247	0xbf63c745	-0.88975936
248	0x3e75db99	0.24009551
249	0xbf1424be	-0.57868564
250	0x3ed06894	0.40704787
251	0x3fcf857d	1.6212612
252	0x3e66d40f	0.22541831
253	0xbe0f36cd	-0.13985749
254	0xbd33bd2f	-0.04388159
255	0x3b95e06a	0.0045738714

layers.0.bias f4 [256]
0	0xbff7b45d	-1.9351918
1	0x3f908568	1.1290712
2	0x40451f18	3.0800228
3	0x3f96d121	1.1782571
4	0x3f856148	1.0420313
5	0xbfa5a39a	-1.2940552
6	0x3f8f6fea	1.1206028
7	0xbfb71625	-1.4303633
8	0xbf85cd98	-1.0453367
9	0xc00befb8	-2.1865063
10	0x40780fc2	3.8759618
11	0xbf37b443	-0.7175943
12	0x3fb50295	1.4141413
13	0x3f632a8e	0.8873681
14	0xbead5c64	-0.3385955
15	0x3fae3e6e	1.3612802
16	0x3f000c67	0.50018924
17	0x403c5d48	2.9431934
18	0xbf9b8cfb	-1.2152399
19	0xbff9e5a9	-1.9523212
20	0x402e9364	2.727746
21	0x3de891ba	0.1135592
22	0xbf407970	-0.751853
23	0x406f3456	3.7375693
24	0xc00fe101	-2.2481081
25	0x40106684	2.256257
26	0x3e684ed3	0.22686319
27	0xbf4dde86	-0.8041767
28	0x3fce74f4	1.6129441
29	0xbd8fe8e0	-0.07026839
30	0x3fc83db8	1.5643835
31	0x40265f18	2.599554
32	0xbfa03b14	-1.2518029
33	0xbe941203	-0.28919992
34	0xbf3dd1b6	-0.7414812
35	0x4031dba9	2.779032
36	0xc0362843	-2.8462074
37	0x3f331463	0.6995298
38	0xbffafc9a	-1.9608338
39	0xbe6b1852	-0.22958496
40	0xbf8d9067	-1.1059693
41	0x3f6e4639	0.930759
42	0xbf6d05d4	-0.9258702
43	0xbfa865b8	-1.3156042
44	0xbfc19415	-1.5123316
45	0xc0045a89	-2.0680258
46	0xc0026641	-2.037491
47	0x3f0db5e0	0.55355644
48	0x3fba4619	1.4552642
49	0x3f528419	0.82232815
50	0xbe849c0f	-0.25900313
51	0xbf752ac0	-0.95768356
52	0x3f3c102d	0.7346218
53	0xbe8de20e	-0.2771153
54	0x3fdff33c	1.7496104
55	0xbfbb2390	-1.4620228
56	0x3fbeb0e4	1.4897733
57	0x400bd085	2.184602
58	0x40225ba4	2.5368433
59	0x400d2183	2.2051704
60	0x3f9f2620	1.243351
61	0xc0266d7a	-2.600432
62	0x3fe6e0c3	1.8037342
63	0x4028c688	2.6371174
64	0xc01ef26f	-2.483547
65	0x3e9cd97f	0.30634686
66	0xbf036ef6	-0.5134119
67	0x4035219e	2.8301768
68	0x4046f4a6	3.1086822
69	0xbed8d5cc	-0.42350614
70	0x3f0cf342	0.5505868
71	0xbf650799	-0.8946472
72	0x3e1c5d4a	0.15269962
73	0x3c53a688	0.012918122
74	0x40052b7a	2.0807786
75	0x400f76a7	2.241617
76	0xbfcdc491	-1.6075612
77	0x3fd06501	1.6280824
78	0xbfa76ab4	-1.3079438
79	0x4033b1ac	2.8077192
80	0xbfe7d332	-1.8111327
81	0xbfd84441	-1.689583
82	0x40373daa	2.8631387
83	0xbeb51394	-0.353665
84	0x407e2b07	3.9713762
85	0x406f588f	3.7397802
86	0x3c1c1cd6	0.009528359
87	0x3f96806f	1.1757945
88	0x3fec4400	1.8458252
89	0x3edb6fd5	0.4285876
90	0x3cf77469	0.030206876
91	0x3edfc13d	0.43702117
92	0x3e2cb0f6	0.1686438
93	0x3fc5b762	1.5446589
94	0x3fe1e8ad	1.7649132
95	0x402b292a	2.6743875
96	0x400e7e41	2.226456
97	0xbf56e5ec	-0.8394458
98	0xbfdcf511	-1.7262288
99	0x3fb8294c	1.4387603
100	0x3fc3c11b	1.5293306
101	0x4018e503	2.3889778
102	0x3e44c1bf	0.19214533
103	0x3f58e2ea	0.84721243
104	0xbeb23b2c	-0.3481077
105	0x3e7f59f1	0.24936654
106	0xbed0055f	-0.40629098
107	0xbedaae65	-0.42711177
108	0x407240bd	3.7852013
109	0xbf18221b	-0.5942704
110	0xbfdb2a14	-1.7122216
111	0xbffc6a79	-1.9719993
112	0x3e92e134	0.2868744
113	0x3fcf06c3	1.6173939
114	0xbfda96a6	-1.7077224
115	0x3f85c095	1.0449396
116	0x3dcca5ed	0.09992585
117	0xc010297a	-2.2525315
118	0x3ff76e37	1.933051
119	0x3f09dcd5	0.5385259
120	0x3df446dc	0.11927578
121	0x3f8c9551	1.0983068
122	0xbe86e823	-0.2634898
123	0x3ecee3d3	0.4040819
124	0xbf688807	-0.9083256
125	0x3f26449e	0.6494845
126	0x3fa660d2	1.2998297
127	0x3e256c30	0.16154552
128	0xbe1a444f	-0.1506512
129	0xc0476789	-3.1156943
130	0xbf2fe7d1	-0.687131
131	0x3f6febe7	0.93719333
132	0x408338ec	4.1006985
133	0xc0500c20	-3.25074
134	0x3fc1f3f2	1.5152571
135	0x3fed33c7	1.8531426
136	0xbfd1b5ed	-1.6383644
137	0x3ffa9e31	1.9579526
138	0xbf2f4e31	-0.68478686
139	0xbed4789e	-0.41498274
140	0x3ef12182	0.47095877
141	0x401f8f42	2.4931188
142	0x4036bb62	2.855187
143	0xbfb8f36a	-1.4449284
144	0x3cd3b90f	0.025845079
145	0x3fb33271	1.3999768
146	0xbfbd7f83	-1.4804538
147	0x3ecbddda	0.39817697
148	0x3f800a98	1.0003233
149	0x4009d96e	2.1538959
150	0x40141447	2.3137376
151	0x401a5bf3	2.4118621
152	0xc010d3de	-2.2629313
153	0xbeb4f44c	-0.35342634
154	0xbe348626	-0.17629299
155	0xc005bfb0	-2.0898247
156	0xbeef09f4	-0.4668728
157	0x3f0a3029	0.53979737
158	0x40269d92	2.6033673
159	0xc0131a37	-2.298475
160	0x3f6e078e	0.9298028
161	0x4057c0cf	3.371143
162	0x3e238d18	0.15971792
163	0xbf61d366	-0.88213193
164	0xbf3af11c	-0.73024154
165	0xbfcfa17d	-1.6221157
166	0x400ad759	2.1693938
167	0x3ff583f0	1.9180889
168	0xbdb556d8	-0.08854455
169	0x3fea272a	1.8293202
170	0x3fe15572	1.7604201
171	0x3f55d905	0.8353427
172	0xbfeba65c	-1.8410144
173	0x3f90deac	1.1317954
174	0x3f24e5d8	0.64413214
175	0xbf5f6062	-0.87256444
176	0x3f4f7fd1	0.8105441
177	0xbc5da76a	-0.013528684
178	0xbd430bd6	-0.04761871
179	0x40558b75	3.3366368
180	0x40695a3b	3.6461322
181	0xc01fa568	-2.4944706
182	0x3fef7a63	1.8709224
183	0x3fcf3620	1.6188393
184	0xbf096666	-0.5367187
185	0xbd31116f	-0.043229517
186	0xbfe014ab	-1.7506307
187	0x3f262695	0.6490262
188	0x3f793af4	0.9735558
189	0xbf14bfa9	-0.5810495
190	0xc02bc3e6	-2.6838317
191	0xbec55aca	-0.3854583
192	0x3feb0cf4	1.8363328
193	0x3fb6fabe	1.429527
194	0xbeb2cf43	-0.34923753
195	0x3f003b92	0.500909
196	0xc0095adf	-2.1461713
197	0x3f22dfa2	0.63622487
198	0xbf55d02f	-0.8352079
199	0x3ff8b095	1.9428889
200	0x3ff48ca4	1.910542
201	0x3fe19dc3	1.762627
202	0xbf2475d7	-0.6424231
203	0x3ec85a53	0.39131412
204	0x3f2d3f59	0.67674786
205	0xbce1839b	-0.027528575
206	0xbfb320a8	-1.3994341
207	0xc02ab721	-2.6674273
208	0x3f067632	0.525241
209	0xbe8f03aa	-0.27932483
210	0x3fb75069	1.4321414
211	0xbf57917b	-0.8420636
212	0xbe0df79e	-0.1386399
213	0xbfafa2e9	-1.3721591
214	0xbf320db0	-0.69552135
215	0xbea170d9	-0.31531408
216	0xbe378c90	-0.17924714
217	0x3f9183b6	1.136832
218	0xbfd4ff5b	-1.6640428
219	0xbf95092e	-1.1643426
220	0xc007d86f	-2.122585
221	0xbfdc1a32	-1.7195494
222	0x3f4ebb16	0.8075422
223	0x3e6f9646	0.23397169
224	0x3daca83b	0.08430525
225	0x3fbc62f7	1.4717702
226	0x3f5e2ca1	0.8678685
227	0x3fdfa494	1.74721
228	0xc0276a6b	-2.6158702
229	0x3ff80398	1.9376097
230	0x3ed837bd	0.42230025
231	0x3face2fc	1.350677
232	0xbf15cf21	-0.5851918
233	0x40293624	2.6439295
234	0x3cd8ec0a	0.02647974
235	0x3f9c20dc	1.2197528
236	0xbfe2ac3f	-1.7708815
237	0xc00176b0	-2.022869
238	0xbfc7ceac	-1.5609946
239	0x3fa43b65	1.2830626
240	0xc00db782	-2.2143254
241	0xbf64d6d8	-0.89390326
242	0x3fa9f742	1.3278582
243	0xbf45ba5a	-0.77237475
244	0x3fe636ff	1.7985533
245	0xbff6d8be	-1.9284894
246	0xbf2a4775	-0.66515285
247	0x3f969171	1.1763135
248	0xbfd227cc	-1.6418395
249	0xbf643250	-0.8913927
250	0xc0221d4a	-2.5330377
251	0x3f8c1db6	1.0946567
252	0x3eb3b80f	0.35101363
253	0x3f338cb7	0.7013659
254	0x4011d343	2.2785194
255	0xbfd9436b	-1.6973699

layers.1.weight f4 [256, 256]
0	0x3f546f94	0.82982755
1	0xbe683f16	-0.22680315
2	0xbe4e819f	-0.20166634
3	0xbe2d246e	-0.16908428
4	0x3d053b6a	0.032527365
5	0xbf4d8221	-0.80276686
6	0x3e87a167	0.26490328
7	0x3e70d0cb	0.23517148
8	0x3f62972f	0.8851194
9	0x3ea409c0	0.3203869
10	0xbdfda612	-0.12385191
11	0x3cd5331c	0.026025347
12	0x3f10a8bc	0.5650747
13	0xbf2a608e	-0.6655358
14	0x3f2eaaee	0.6822957
15	0x3d839e98	0.06426734
16	0x3f843350	1.0328159
17	0x3f5efdf1	0.87106234
18	0x3dcd3911	0.1002065
19	0x3f7ae444	0.98004556
20	0xbd765704	-0.06014158
21	0xbeb57bfa	-0.3544615
22	0x3fccfd6d	1.601484
23	0xbf46ede9	-0.7770677
24	0xbe8c30f1	-0.2738109
25	0xbea50b66	-0.3223526
26	0xbee8d82b	-0.45477423
27	0xbe14085a	-0.14456311
28	0xbe94863a	-0.29008657
29	0xbf3764a8	-0.71637964
30	0x3e8a27bc	0.2698344
31	0xbd4b659e	-0.049657457
32	0xbbc6b31c	-0.006063832
33	0x3e932b8f	0.2874417
34	0x3c4c2335	0.012459566
35	0xbe8ffba4	-0.28121674
36	0xbebca8f8	-0.36847663
37	0x3f711feb	0.9418933
38	0x3f318def	0.693572
39	0x3db6f343	0.08933117
40	0xbf0c6b40	-0.5485115
41	0xbe55451c	-0.20827144
42	0xbe4949c5	-0.19657047
43	0xbf090822	-0.53528035
44	0x3f5389e2	0.8263227
45	0x3e456943	0.19278435
46	0xbf1143f7	-0.5674433
47	0x3d90f173	0.07077303
48	0x3f52e8e1	0.82386595
49	0x3f5edd41	0.87056357
50	0xbed59627	-0.4171612
51	0xbdb3ee0b	-0.087856375
52	0xbd8f2bd8	-0.069907844
53	0x3f2cbac3	0.67472476
54	0xbe12b215	-0.14325745
55	0xbe012267	-0.1261078
56	0x3e2bc30f	0.16773628
57	0x3e18ff2b	0.14941089
58	0xbfba4034	-1.4550843
59	0xbf788a5a	-0.9708611
60	0xbe8af7f0	-0.27142286
61	0xbe954a7f	-0.29158399
62	0xbf2318f2	-0.6370994
63	0x3f414fcd	0.7551239
64	0x3effddec	0.49974
65	0x3e2762e8	0.16346323
66	0xbe46dd47	-0.19420348
67	0x3f215e41	0.63034445
68	0x3e318bfb	0.17338555
69	0x3f91a993	1.1379875
70	0x3f5ce77e	0.8629073
71	0x3f139829	0.5765405
72	0xbfb8ea55	-1.4446512
73	0xbf15933b	-0.5842778
74	0xbd158504	-0.036503807
75	0xbf2934a8	-0.6609597
76	0x3f94a347	1.1612328
77	0xbe10ea2b	-0.14151828
78	0x3f66b44d	0.9011887
79	0x3f1aae42	0.60422146
80	0x3d94a70b	0.072584234
81	0x3f6b4333	0.9189941
82	0x3f4e3958	0.8055625
83	0x3e45d51d	0.19319578
84	0xbf860fda	-1.0473588
85	0xbed6444b	-0.41848978
86	0xbe47b7e7	-0.19503747
87	0x3ec2b0b9	0.38025454
88	0xbfb62182	-1.4228976
89	0x3daf21d2	0.085513726
90	0x3dc040aa	0.09387334
91	0x3de1076e	0.10987745
92	0xbfcc1ea4	-1.5946851
93	0xbee00bee	-0.43759102
94	0x3e9fe3ef	0.31228587
95	0xbe9767e6	-0.29571456
96	0x3ef1fd0d	0.47263375
97	0xbedeab3f	-0.43490025
98	0x3e96cf44	0.29455006
99	0x3eee2c98	0.46518397
100	0xbe8c53a9	-0.27407578
101	0xbeaa2afb	-0.33235916
102	0xbd70c512	-0.05878169
103	0x3edef6f9	0.435478
104	0xbec479cd	-0.38374177
105	0xbf433afe	-0.7626189
106	0x3ecf8db3	0.40537795
107	0xbecac26c	-0.39601457
108	0xbec44a2e	-0.38337845
109	0x3e70a364	0.23499829
110	0x3eb37491	0.3504987
111	0x3e117b8f	0.1420729
112	0xbe60e117	-0.21960865
113	0xbe14c8b4	-0.14529687
114	0xbf09b9d8	-0.537992
115	0xbd251bbb	-0.04030965
116	0x40010358	2.015829
117	0xbc1834cf	-0.009289934
118	0x3e403a50	0.18772244
119	0x3e9027d2	0.2815538
120	0xbf8a9644	-1.0827107
121	0xbed37064	-0.41296685
122	0x3decf45e	0.11570047
123	0x3eb8747f	0.3602638
124	0x3fa15d9f	1.2606696
125	0x3df66d7a	0.120326
126	0x3e25d083	0.16192822
127	0xbeb3adc1	-0.350935
128	0xbf5e9aa5	-0.8695472
129	0x3e164aa4	0.1467691
130	0x3dc2ed46	0.095179126
131	0x3e531718	0.20614278
132	0x3e9df17d	0.30848303
133	0x3eb04853	0.3443018
134	0x3f2f8fbc	0.68578696
135	0x3d1da561	0.038487796
136	0x3f8c4721	1.0959207
137	0x3f2d8a97	0.67789596
138	0xbf0bec50	-0.5465746
139	0x3f74ad5e	0.9557704
140	0xbe0396b7	-0.12850462
141	0x3e27d782	0.16390803
142	0xbe5dbfd9	-0.21655215
143	0xbf4251d0	-0.75906086
144	0xbd059e8d	-0.03262191
145	0x3e7dc8c5	0.24783619
146	0xbf5ae11b	-0.85499734
147	0xbefaf42a	-0.49014407
148	0x3e4e8c55	0.2017072
149	0xbf87ebbb	-1.0618814
150	0xbf82f2db	-1.0230364
151	0x3fa2562b	1.2682546
152	0xbe046a6c	-0.12931222
153	0x3f93962f	1.1530207
154	0xbedca09f	-0.43091294
155	0xbf3cd4f2	-0.7376243
156	0xbf11f03f	-0.5700721
157	0xbe0e527e	-0.13898656
158	0xbf509c0e	-0.8148812
159	0x3f155481	0.5833207
160	0xbe9febcb	-0.31234583
161	0x3f3bfe03	0.73434466
162	0x3eb43d54	0.3520304
163	0x3f3b4f00	0.7316742
164	0xbec540af	-0.38525912
165	0x3f85d684	1.045609
166	0x3e1516ff	0.14559554
167	0xbf2918a3	-0.6605322
168	0xbea1dec6	-0.31615275
169	0x3efd1857	0.49432632
170	0x3e500446	0.2031413
171	0x3fc044c2	1.5020983
172	0x3f57a322	0.84233296
173	0x3d8f2c8c	0.069909185
174	0x3f3048e5	0.6886123
175	0xbf37eca6	-0.7184547
176	0x3f3b17ad	0.73083
177	0x3fa6338a	1.2984478
178	0xbe784023	-0.24243216
179	0xbe1d0273	-0.15332966
180	0x3f087868	0.53308725
181	0x3dc71e36	0.09722559
182	0xbf8cbea0	-1.0995674
183	0xbf693ca7	-0.91108173
184	0xbe064441	-0.13111974
185	0x3f22a361	0.63530546
186	0xbe6404e6	-0.22267494
187	0x3e3a04fa	0.18165961
188	0x3db76226	0.08954267
189	0x3e9258e7	0.28583452
190	0x3e353923	0.17697577
191	0x3ef076d9	0.46965674
192	0xbee3d90a	-0.44501525
193	0x3f611edb	0.87937707
194	0xbe70df35	-0.23522647
195	0xbe24fdb1	-0.161124
196	0xbda703eb	-0.08155044
197	0xbee9fc39	-0.45700243
198	0x3eb1d194	0.34730208
199	0xc01428b6	-2.3149848
200	0xbe56852e	-0.20949242
201	0xbf146f87	-0.5798268
202	0xbe8f8ed0	-0.28038645
203	0xbec7ef34	-0.39049685
204	0x3f60f723	0.878771
205	0xbe3d8c64	-0.18510586
206	0xbf88aca8	-1.067769
207	0x3e447343	0.19184594
208	0x3f8ae176	1.0850055
209	0x3bc95e38	0.006145265
210	0x3e94eca3	0.2908679
211	0xbd87497a	-0.066058114
212	0xbf052722	-0.52012837
213	0xbe594a31	-0.21219708
214	0x3f1bc936	0.608539
215	0x3f706ee7	0.93919224
216	0x3f4578c5	0.77137405
217	0x3f9bd463	1.217419
218	0x3e475197	0.19464718
219	0xbdbc1c43	-0.09185078
220	0xbe220f3d	-0.15826125
221	0xbe00f822	-0.12594655
222	0x3da6a681	0.08137227
223	0xbdad91dc	-0.08475086
224	0x3eaabf1d	0.33348933
225	0xbebfc330	-0.37453604
226	0x3e9733b1	0.29531625
227	0xbeba4958	-0.36384082
228	0xbe648cc5	-0.22319324
229	0x3f1f6453	0.6226246
230	0x3e945125	0.28968158
231	0x3d3d0987	0.046151664
232	0x3f37d3af	0.7180738
233	0x3e1ca97e	0.15299031
234	0xbef29f42	-0.4738713
235	0x3eec8643	0.46196184
236	0x3ed49851	0.41522458
237	0x3f380221	0.7187825
238	0x3e97f9b0	0.29682684
239	0x3f21e688	0.6324239
240	0x3eb973f8	0.3622129
241	0xbef74652	-0.48295838
242	0xbda64347	-0.08118301
243	0xbf3c60e8	-0.7358537
244	0x3f49325a	0.78592455
245	0x3ea02015	0.31274477
246	0x3f4eaa8c	0.80728984
247	0x3e732418	0.23744237
248	0xbe59a1dc	-0.2125315
249	0x3e9e3010	0.30896044
250	0x3f0d41ab	0.55178326
251	0x3ef9bad5	0.48775354
252	0x3d56c7eb	0.05243675
253	0xbf8274a7	-1.019185
254	0x3d8fb816	0.070175335
255	0xbf777e54	-0.96677136

layers.1.bias f4 [256]
0	0x3ec5fb11	0.3866811
1	0x3cbbdcb8	0.022932395
2	0x3f07beb5	0.5302537
3	0x3e8f8e0e	0.28038067
4	0x3e33de3c	0.17565244
5	0xbcdb043d	-0.02673542
6	0x3f4e4d2e	0.80586517
7	0x3e9ee70d	0.31035653
8	0xbecf1e3c	-0.40452754
9	0x3ea458e5	0.3209907
10	0xbebf85a9	-0.37406662
11	0x3d5a1956	0.05324682
12	0xbe2839a7	-0.16428243
13	0x3f82c2cf	1.0215701
14	0xbe226320	-0.15858126
15	0x3f029293	0.51004905
16	0xbf7c94f2	-0.9866477
17	0xbe1c7909	-0.15280546
18	0x3f50a267	0.81497806
19	0xbed1418f	-0.4087033
20	0x3f4b3247	0.7937359
21	0xbdfd912d	-0.12381206
22	0xbfa40628	-1.2814379
23	0x3c1867f8	0.009302132
24	0xbf0577b3	-0.5213577
25	0xbf47a69c	-0.779886
26	0xbf4ba778	-0.7955241
27	0x3e876660	0.26445293
28	0x3f7537a4	0.95788026
29	0x3f853ee5	1.0409819
30	0x3f856d29	1.0423938
31	0x3eb56b54	0.35433447
32	0x3e697127	0.2279707
33	0xbea61b80	-0.32442856
34	0xbeabe900	-0.33576202
35	0x3f197ca7	0.5995583
36	0x3f56169a	0.8362824
37	0x3fa21ebf	1.2665633
38	0xbf1f2ae1	-0.62174803
39	0xbe40ed52	-0.1884053
40	0x3d20d5ce	0.0392664
41	0x3f086344	0.5327647
42	0xbf4b76cb	-0.7947814
43	0xbf1d4072	-0.6142646
44	0x3eccc184	0.3999139
45	0x3f87b1b1	1.0601102
46	0x3d23a927	0.039956238
47	0x3f300ea6	0.6877235
48	0x3e461551	0.19344069
49	0x3b85309b	0.004064632
50	0xbf513674	-0.81723714
51	0x3e819510	0.25309038
52	0x3e326456	0.17421088
53	0xbdda3463	-0.10654523
54	0x3f457be5	0.77142173
55	0xbf80880c	-1.0041518
56	0x3e0a8d2e	0.13530418
57	0xbec46056	-0.38354748
58	0x3e5a8b32	0.21342161
59	0xbe10e0e1	-0.14148284
60	0x3edab613	0.42717037
61	0x3fbd67ac	1.4797263
62	0x3f1e8b8e	0.61931694
63	0x3f8cfc28	1.1014452
64	0xbf30224c	-0.6880233
65	0xbf529a34	-0.82266545
66	0xbf69690b	-0.9117591
67	0xbf4c3e5b	-0.79782647
68	0x3f1cff3e	0.6132697
69	0x3e9810d8	0.2970035
70	0xbfa4ff4f	-1.2890414
71	0x3f3ac7db	0.72961205
72	0xbedb0578	-0.4277761
73	0x3f362328	0.71147394
74	0xbe61ba37	-0.22043692
75	0x3e93175e	0.28728765
76	0x3f3ff035	0.749759
77	0x3e2249e2	0.15848497
78	0xbf2a8a33	-0.66617125
79	0xbfb90b0d	-1.4456497
80	0xbdc6ad12	-0.09700979
81	0xbfa239c5	-1.267388
82	0x3f593ff4	0.8486321
83	0xbf198ad0	-0.59977436
84	0xbf2e0291	-0.67972666
85	0x3ec2ca09	0.38044766
86	0xbf2c9002	-0.6740724
87	0xbe1aa706	-0.15102777
88	0xbf140f1d	-0.5783556
89	0x3f9d80c6	1.2304924
90	0x3f02c57d	0.51082593
91	0x3edc63d8	0.43044925
92	0xbe5e5328	-0.21711409
93	0x3e80a2d9	0.25124243
94	0xbe26f27e	-0.16303441
95	0x3de421eb	0.11139282
96	0xbe393f43	-0.18090539
97	0xbdc304d0	-0.09522402
98	0xbeab478f	-0.33453032
99	0xbe97a5f6	-0.29618806
100	0xbfb6e91b	-1.4289888
101	0xbeb462b3	-0.35231552
102	0x3f03b930	0.5145445
103	0xbfa40c8b	-1.2816328
104	0xbf69440b	-0.9111945
105	0x3f1a2c12	0.60223496
106	0x3e513e2e	0.20433876
107	0xbeb5b29f	-0.3548784
108	0x3fb98499	1.449359
109	0xbfa5d886	-1.2956703
110	0xbe88afcf	-0.2669663
111	0x3f01f63e	0.5076636
112	0xbfa46bf3	-1.2845443
113	0x3f13b981	0.5770493
114	0x3ea8a368	0.3293717
115	0x3fffd782	1.9987643
116	0x3f0540f9	0.52052265
117	0xbee7db5a	-0.4528454
118	0x3eaa62e3	0.3327857
119	0xbed9b4d3	-0.4252077
120	0xbb650f3b	-0.0034951705
121	0x3eaede66	0.34154052
122	0x3c2da0c6	0.010597413
123	0x3f1cedd6	0.6130041
124	0x3f190782	0.5977708
125	0x3fa925e1	1.3214685
126	0x3fc00813	1.5002464
127	0x3e99574f	0.29949424
128	0x3f6ac7c1	0.9171105
129	0x3e46a17c	0.19397539
130	0xbecf0756	-0.40435284
131	0x3f033088	0.5124593
132	0xbea635d4	-0.32462943
133	0xbf23fcf4	-0.6405785
134	0x3ed7bbd9	0.42135504
135	0xbe45c25a	-0.1931242
136	0xbee4b8fd	-0.44672385
137	0x3f174634	0.59091496
138	0x3f7dd10e	0.9914712
139	0x3fa1807d	1.2617337
140	0xbf875d9e	-1.0575445
141	0xbee6eac5	-0.4510099
142	0xbf0a912a	-0.5412775
143	0xbeb152a5	-0.34633365
144	0x3eb4331a	0.35195237
145	0xbd55ed40	-0.052228212
146	0x3f06d049	0.5266157
147	0xbcd6b470	-0.026209086
148	0x3f8eac76	1.1146381
149	0xbf809c00	-1.0047607
150	0xbea70501	-0.32621005
151	0xbf5269f1	-0.82192904
152	0xbeec55e2	-0.46159273
153	0x3e4c34b3	0.19941978
154	0xbf440aae	-0.76578796
155	0xbee76525	-0.45194355
156	0x3e54a6ad	0.20766707
157	0x3f1d4c82	0.61444867
158	0x3f6fd172	0.93678963
159	0xbfb26900	-1.3938293
160	0xbf261cf3	-0.64887923
161	0x3f9b7cf0	1.2147503
162	0x3f95397e	1.165817
163	0xbee11679	-0.43962458
164	0x3ef35f1b	0.47533497
165	0x3eece796	0.46270436
166	0x3f91c5e6	1.1388519
167	0xbf7388b6	-0.9513048
168	0x3f60a120	0.8774586
169	0xbe560a20	-0.209023
170	0xbf72f079	-0.9489818
171	0xbe8bf18b	-0.2733272
172	0x3f726731	0.9468871
173	0x3f394a54	0.7237904
174	0x3f83b0bd	1.0288311
175	0xbf4d6c19	-0.8024307
176	0xbf0163db	-0.5054299
177	0xbecf7456	-0.40518445
178	0xbfeb5dad	-1.8387963
179	0xbfba0a25	-1.4534346
180	0xbeb2f4a4	-0.3495227
181	0xbf23a647	-0.63925594
182	0xbfa51181	-1.2895967
183	0xbee47413	-0.44619808
184	0x3f16b0b4	0.5886338
185	0x3ec78eee	0.38976234
186	0x3f404312	0.7510234
187	0x3e4a1ff6	0.19738755
188	0x3fa9f601	1.32782
189	0x3eae385a	0.34027368
190	0xbf8bd10e	-1.0923173
191	0xbf22c171	-0.6357642
192	0x3f8d237c	1.1026454
193	0x3f87de48	1.061471
194	0xbfae6172	-1.3623488
195	0xbdfb7552	-0.122782364
196	0xbdb98844	-0.09059194
197	0x3ea6a9a0	0.3255129
198	0xbec08a6e	-0.37605613
199	0x3e88d7f0	0.26727247
200	0x3fa0a866	1.2551391
201	0xbfb1865d	-1.386913
202	0x3d59332b	0.053027313
203	0xbea9922d	-0.33119336
204	0x3da684dc	0.0813081
205	0xbf3a8836	-0.7286409
206	0x3e02f627	0.12789212
207	0x3fd0a774	1.6301103
208	0x3ec275b8	0.37980437
209	0x3e722bde	0.23649547
210	0x3b467b46	0.003028588
211	0x3e9d5d7b	0.30735382
212	0x3ec6d41d	0.38833705
213	0x3e4f4406	0.20240793
214	0x3e4b8aef	0.19877218
215	0xbf174cf2	-0.59101784
216	0xbf6beb86	-0.92156255
217	0xbf3a6cfa	-0.72822535
218	0x3e5b3884	0.21408278
219	0xbf96c827	-1.1779832
220	0xbf8abf0a	-1.083955
221	0x3f1dfd53	0.6171467
222	0xbf262a9d	-0.6490877
223	0xbe6ba82c	-0.23013371
224	0x3ef3bdb1	0.4760566
225	0x3f50acb5	0.8151353
226	0x3f2a3d3d	0.6649969
227	0xbf8de499	-1.1085387
228	0xbf4f8cf0	-0.8107443
229	0xbee9e094	-0.45679152
230	0x3f2910fe	0.66041553
231	0xbf906262	-1.1280024
232	0xbec5cb8a	-0.3863185
233	0x3fb85f8a	1.4404156
234	0x3f60cea5	0.87815315
235	0x3efb7277	0.49110767
236	0xbf14891b	-0.58021706
237	0x3ec027fa	0.375305
238	0x3ea7b694	0.32756484
239	0x3da9f838	0.08299297
240	0xbe96520c	-0.29359472
241	0x3e813ecf	0.25243232
242	0xbe4eefe7	-0.20208703
243	0xbf8d3acf	-1.1033572
244	0x3e1c060d	0.15236683
245	0xbf8df2cd	-1.1089722
246	0xbedf2619	-0.43583754
247	0xbf27a515	-0.6548627
248	0xbe8e8ecc	-0.2784332
249	0xbf8bf0cd	-1.0932862
250	0x3f944a35	1.1585146
251	0xbec20c92	-0.37900215
252	0x3f171453	0.5901539
253	0x3e0782d4	0.132335
254	0xbe4780bc	-0.19482702
255	0xbe8c30fe	-0.27381128

value_stream.weight f4 [1, 256]
0	0x3da25e1c	0.07928106
1	0xbe0354bd	-0.12825294
2	0x3e041197	0.12897335
3	0x3d7a4dd6	0.061109386
4	0x3eda88e3	0.4268256
5	0xbe95fb83	-0.2929345
6	0xbe2e71dd	-0.17035623
7	0x3d692f1c	0.056929693
8	0xbe6c60fa	-0.23083869
9	0xbe0eee8f	-0.1395819
10	0xbe01a640	-0.12661076
11	0x3ebf16ab	0.37321982
12	0xbe71aca6	-0.23601016
13	0x3defa8ac	0.117020935
14	0x3e5a045d	0.21290727
15	0xbebb5c4a	-0.36593848
16	0xbe0327e9	-0.12808193
17	0x3e5aa0b1	0.21350361
18	0xbe4cbe73	-0.19994526
19	0x3f523509	0.82112175
20	0x3e028454	0.12745792
21	0xbe967e21	-0.29393104
22	0xbeb2fa11	-0.3495641
23	0x3e53bef2	0.20678309
24	0xbe614227	-0.21997891
25	0xbe59f6c4	-0.2128554
26	0xbe2948d6	-0.16531691
27	0x3e8ca084	0.27466214
28	0xbe71eaa4	-0.23624665
29	0x3e902e80	0.28160477
30	0x3decede8	0.115688145
31	0x3e4c13da	0.19929448
32	0xbeaa2974	-0.3323475
33	0xbe3b433e	-0.1828737
34	0xbeaf54ae	-0.34244293
35	0x3e72a18f	0.23694442
36	0xbe62c8c0	-0.22146893
37	0x3ed8e4bc	0.4236201
38	0xbf1e5c7c	-0.6185987
39	0x3ea63cd3	0.3246828
40	0x3e1aedcf	0.1512978
41	0x3f1f97a1	0.6234074
42	0xbea0edfd	-0.3143157
43	0x3f0af07d	0.54273206
44	0x3d914042	0.07092334
45	0x3ea4332a	0.32070285
46	0x3ec78df7	0.38975498
47	0x3ee44997	0.44587395
48	0xbfa470ea	-1.2846959
49	0x3eb65650	0.35612726
50	0xbe1ffcb1	-0.15623738
51	0xbf2c77dd	-0.67370397
52	0x3e39aa27	0.18131314
53	0x3e8c06bf	0.27348897
54	0x3e19418c	0.1496641
55	0xbe5537da	-0.20822087
56	0xbf1cc85d	-0.6124323
57	0x3e557e47	0.20848952
58	0xbe57466c	-0.21022958
59	0xbe1a5022	-0.1506963
60	0xbe1e95c7	-0.15486823
61	0x3ce58e27	0.028021885
62	0x3e80e615	0.2517554
63	0x3eeade06	0.45872515
64	0xbc36aef4	-0.0111501105
65	0xbdaef873	-0.08543482
66	0xbe85befc	-0.26122272
67	0x3d89df8c	0.06732091
68	0x3ebf9046	0.3741476
69	0xbe9a282a	-0.30108768
70	0xbe8c8b88	-0.27450204
71	0xbe389749	-0.1802646
72	0x3e51302f	0.20428537
73	0x3e857eb9	0.26073244
74	0x3e10f3d0	0.14155507
75	0x3e99c38f	0.30032012
76	0x3f292cc4	0.6608393
77	0xbe8cff23	-0.27538404
78	0x3eeabe14	0.45848143
79	0xbec37ea3	-0.38182554
80	0x3d854efb	0.06509205
81	0xbe0c1af7	-0.13682161
82	0x3e298d40	0.16557789
83	0x3e8eb527	0.27872583
84	0xbe8f5328	-0.2799313
85	0x3e2217a9	0.15829338
86	0x3e84a69e	0.2590837
87	0x3e2a391d	0.1662335
88	0x3efd97aa	0.49529773
89	0x3dc2062d	0.09473834
90	0xbea3c280	-0.3198433
91	0x3e72aa55	0.23697789
92	0xbe0461c6	-0.12927923
93	0xbe8fc752	-0.28081757
94	0xbd839b66	-0.06426124
95	0x3dfa74bf	0.12229299
96	0x3d6ee4d1	0.058323685
97	0x3e17db5f	0.14829777
98	0xbe19e082	-0.15027049
99	0x3e36370e	0.17794439
100	0x3e854cd4	0.26035178
101	0xbdd41147	-0.10354858
102	0x3e8e06e2	0.27739626
103	0xbe747e46	-0.23876294
104	0xbdbf6543	-0.09345486
105	0x3e4473fa	0.19184867
106	0x3def7150	0.116915345
107	0xbe982f3a	-0.2972353
108	0x3eb477d3	0.3524767
109	0x3e187193	0.14887075
110	0x3e03ae3d	0.12859435
111	0x3e1be354	0.15223438
112	0xbe7922fa	-0.24329749
113	0xbe7266a6	-0.2367197
114	0xbea05c3a	-0.31320363
115	0xbf137fd2	-0.57616913
116	0xbe334606	-0.1750718
117	0xbd53e025	-0.051727433
118	0xbe681db1	-0.22667576
119	0x3dfdd8b6	0.1239485
120	0xbdd77f2e	-0.105223045
121	0xbe5f4557	-0.21803795
122	0x3e22023f	0.1582117
123	0x3e2951a8	0.16535056
124	0x3f74b7fb	0.9559323
125	0x3ef56bf1	0.47933915
126	0x3ed07e01	0.40721133
127	0x3ebda605	0.37040725
128	0xbe87ae4b	-0.26500162
129	0x3e620ee1	0.22075988
130	0x3ed894c1	0.4230099
131	0x3db7b004	0.08969119
132	0xbeae696c	-0.34064806
133	0x3eb73406	0.35781878
134	0x3dae5f96	0.08514325
135	0x3f08b4b5	0.5340074
136	0xbe39b8bc	-0.18136877
137	0x3e9b056c	0.30277574
138	0x3eabe0ab	0.33569846
139	0xbeceddfa	-0.4040373
140	0xbe0df2f2	-0.13862208
141	0xbe6dbeb4	-0.23217279
142	0x3e2bf958	0.16794336
143	0xbe135b72	-0.14390352
144	0x3e5b611e	0.21423766
145	0xbe4b460f	-0.19850944
146	0xbe1535eb	-0.1457135
147	0x3e8fc0e7	0.2807686
148	0x3d32ac73	0.04362149
149	0xbe6b147c	-0.22957033
150	0xbe80db1d	-0.2516717
151	0x3e203bd9	0.1564783
152	0xbebfdd66	-0.374736
153	0xbe83b6ca	-0.25725394
154	0x3ef0b40b	0.47012362
155	0x3ea0a74a	0.3137763
156	0x3e32f94e	0.17477915
157	0x3e690158	0.22754419
158	0x3e34eda2	0.17668775
159	0x3f026500	0.50935364
160	0x3ea2a251	0.31764463
161	0x3e407df9	0.18798055
162	0x3e3788e1	0.17923309
163	0xbee9111e	-0.45520872
164	0xbe3e0ac9	-0.18558802
165	0xbea93034	-0.3304459
166	0x3eb98519	0.36234358
167	0xbe0a4896	-0.13504252
168	0x3e0c2941	0.13687612
169	0x3e18a93b	0.14908306
170	0xbef4db43	-0.47823533
171	0x3ec456ae	0.3834738
172	0x3ec47215	0.38368288
173	0x3ee20224	0.44142258
174	0x3e8338f2	0.25629383
175	0xbe8bb3e2	-0.27285677
176	0xbedf9ade	-0.43672842
177	0x3f36574f	0.7122697
178	0xbdd03ac9	-0.101674624
179	0x3e99203f	0.29907414
180	0xbe6af756	-0.22945914
181	0x3e2bf3b2	0.16792181
182	0x3e5836dd	0.21114679
183	0x3e1041be	0.14087579
184	0x3e073202	0.1320267
185	0x3e67053a	0.22560588
186	0x3e95a430	0.29226828
187	0x3ecb5294	0.3971144
188	0xbf1b1ca4	-0.6059058
189	0x3e43509f	0.19073723
190	0xbea6e416	-0.3259589
191	0xbdfc83f6	-0.12329857
192	0xbe1b7b0b	-0.15183656
193	0xbe3cb503	-0.18428425
194	0x3f1a3329	0.60234314
195	0x3e4be775	0.19912513
196	0x3ecab352	0.39589936
197	0x3e1fb8cd	0.1559784
198	0xbe702b7b	-0.23454086
199	0x3f126798	0.5718932
200	0x3eecb535	0.46232
201	0xbe5904d8	-0.21193254
202	0xbf6a9b66	-0.9164337
203	0x3eb5df26	0.3552181
204	0x3e7e8a0d	0.2485735
205	0x3e45e786	0.193266
206	0x3eebd3e9	0.46060112
207	0x3e0788c7	0.1323577
208	0x3e2b2dda	0.1671671
209	0x3dd4d5c1	0.10392333
210	0x3e212e95	0.15740426
211	0x3e4e74ba	0.20161715
212	0x3ebba980	0.36652756
213	0x3e89f646	0.26945704
214	0xbe914492	-0.28372627
215	0xbf24d9cb	-0.64394826
216	0x3ea9030c	0.33010137
217	0xbe915151	-0.28382352
218	0x3e324d23	0.17412238
219	0x3e14d936	0.14535984
220	0xbe0c3546	-0.13692197
221	0xbe90ec8b	-0.28305468
222	0xbe7abdb2	-0.24486426
223	0x3e864cee	0.26230568
224	0x3e412499	0.18861617
225	0x3e7afd6f	0.2451074
226	0x3ea0a3e0	0.31375027
227	0x3e6ba823	0.23013358
228	0xbe1f2cd6	-0.15544447
229	0x3ee2d45b	0.4430264
230	0xbef7cd1d	-0.48398677
231	0x3e4b3070	0.19842696
232	0xbe936657	-0.28789017
233	0x3ea06adf	0.31331536
234	0x3e2dc361	0.16969062
235	0xbde41862	-0.11137463
236	0x3edba7ee	0.42901558
237	0xbf4829d0	-0.781888
238	0x3dffe2d1	0.12494434
239	0xbe564bbb	-0.20927326
240	0xbe545464	-0.20735317
241	0xbe408b85	-0.18803222
242	0x3e75a5b9	0.23989
243	0xbe5e6e28	-0.21721709
244	0x3e4c468b	0.19948785
245	0x3ebfb94e	0.37446064
246	0x3f62e8f3	0.886367
247	0xbf8c3902	-1.0954897
248	0xbe33bc90	-0.175524
249	0xbe860c7f	-0.2618141
250	0xbea80842	-0.328188
251	0xbf9b0c5b	-1.2113146
252	0x3e3edd93	0.18639211
253	0x3ebf96c4	0.37419713
254	0xbea0fa0c	-0.3144077
255	0xbec17c6e	-0.37790245

advantage_stream.weight f4 [20, 256]
0	0x3e4d5f10	0.20055795
1	0x3ce1ac2e	0.027547922
2	0xbd356254	-0.044283226
3	0xbeb15e38	-0.34642196
4	0x3e7de63f	0.24794863
5	0xbec42d08	-0.38315606
6	0xbe4c8fde	-0.19976756
7	0x3c6f59ce	0.014608813
8	0x3d39f4a1	0.045399312
9	0xbdc4a786	-0.09602265
10	0xbe119bd3	-0.14219598
11	0xbd497b75	-0.049190003
12	0x3cd20c96	0.025640767
13	0x3cfc0b5d	0.030767137
14	0x3c925787	0.017864002
15	0x3dc4e074	0.096131235
16	0xbc128ce7	-0.008944727
17	0xbda544b0	-0.08069742
18	0xbe1dbb83	-0.15403561
19	0xbcc9e63b	-0.024645915
20	0x3d6a9f51	0.057280842
21	0xbe000e60	-0.12505484
22	0x3dae23af	0.085029
23	0x3ee41bfe	0.44552606
24	0xbdd7f37c	-0.10544488
25	0x3d9dfda5	0.077143945
26	0xbe26bd15	-0.16283067
27	0x3e0711a5	0.13190325
28	0x3e62e2df	0.22156857
29	0xbd3871db	-0.045030456
30	0x3da54532	0.080698386
31	0x3d115d59	0.035489414
32	0xbebdc96a	-0.3706773
33	0x3cc100e5	0.023559997
34	0x3e0dfbc0	0.13865566
35	0x3ef6f9f6	0.4823758
36	0xbe542f7b	-0.20721237
37	0x3d20d131	0.039262
38	0xbdd35e99	-0.103207774
39	0xbe2aec13	-0.16691618
40	0x3c32b417	0.010907195
41	0x3e867475	0.26260725
42	0xbdee8fae	-0.116484985
43	0x3f0355f6	0.5130304
44	0x3c8a10a2	0.016853634
45	0xbe5e7f84	-0.21728331
46	0x3cd308db	0.025761059
47	0xbdfe8c52	-0.12429108
48	0x3e653f07	0.22387324
49	0x3cbf13af	0.023324816
50	0xbd3d6186	-0.046235584
51	0xbd90c1a2	-0.070681825
52	0x3e234a68	0.15946352
53	0x3db18ea3	0.08669784
54	0xbd4fdb3c	-0.050746188
55	0xbca12246	-0.019669663
56	0xbe5603a7	-0.20899831
57	0x3b58bd73	0.0033071905
58	0xbd8c55f0	-0.06852329
59	0xbd8f495b	-0.06996413
60	0xbe469aa2	-0.19394925
61	0xbeff1edb	-0.49828228
62	0x3d8673a7	0.06565028
63	0x3dd0e8f1	0.1020068
64	0xbd93cdbe	-0.072169766
65	0xbd5c80ba	-0.0538337
66	0xbe3a6854	-0.1820386
67	0x3dbecca4	0.09316376
68	0x3eb50318	0.35353923
69	0xbcc4cada	-0.024022508
70	0xbd47274a	-0.048621453
71	0xbc850743	-0.016238814
72	0xbd137657	-0.03600153
73	0x3e34fed8	0.1767534
74	0xbcad6e55	-0.021170774
75	0x3ed2e5df	0.41191003
76	0x3e3b8aa5	0.18314607
77	0xbe0e306c	-0.13885659
78	0x3e36557d	0.17806049
79	0xbc419151	-0.011814431
80	0x3e3ca961	0.18423988
81	0xbe9a2240	-0.30104256
82	0xbcc0b3c1	-0.023523213
83	0x3d7523fb	0.059848767
84	0xbe378f4c	-0.17925757
85	0x3ea6102e	0.3243422
86	0x3ed49c91	0.415257
87	0x3db3e74e	0.08784352
88	0x3e83837b	0.2568625
89	0xbd72254b	-0.059117597
90	0xbec12909	-0.3772662
91	0x3e9c85c9	0.3057082
92	0xbd51e487	-0.05124333
93	0x3c8958be	0.016765948
94	0x3b344731	0.0027508254
95	0x3e604917	0.21902882
96	0xbb0651cc	-0.0020495532
97	0x3d0df485	0.03465702
98	0xbcfb4da5	-0.030676672
99	0x3dfb9bed	0.122856
100	0x3e2459f1	0.16049935
101	0x3c1884b1	0.00930898
102	0xbbde4d5d	-0.0067841248
103	0x3e6508ef	0.22366689
104	0xbe3a7885	-0.18210037
105	0xbc8bef4a	-0.017081875
106	0xbb281a04	-0.0025650272
107	0xbcd62840	-0.02614224
108	0xbd698597	-0.057012167
109	0x3dd996d1	0.10624469
110	0x3c91ecb7	0.01781307
111	0xbc3d7d8b	-0.011565576
112	0xbde105a3	-0.10987403
113	0xbe46bf9c	-0.1940903
114	0xbf540112	-0.82814133
115	0xbe3fe75e	-0.18740603
116	0x3b08909c	0.0020838147
117	0x3dcf8775	0.10133258
118	0xbc8db842	-0.017299775
119	0x3e00f4ca	0.1259338
120	0xbe6c5d27	-0.2308241
121	0xbe639f4c	-0.22228736
122	0xbd361539	-0.044453833
123	0x3e52da5a	0.20591107
124	0x3daa5c96	0.083184406
125	0xbdc7b29b	-0.09750863
126	0xbc943cd8	-0.018095419
127	0x3e6e0df5	0.23247512
128	0xbd94175d	-0.07231019
129	0xbc3d720e	-0.011562837
130	0x3ef4074b	0.47661814
131	0x3cfc5383	0.03080154
132	0xbd31a2e6	-0.043368243
133	0x3e906a1d	0.28205958
134	0x3c75002c	0.014953654
135	0x3d528a5d	0.051401485
136	0x3d9c071c	0.076185435
137	0xbd068395	-0.03284033
138	0xbe14b2af	-0.14521287
139	0xbe4423f8	-0.19154346
140	0x3e853ba2	0.2602206
141	0xbe77915d	-0.24176545
142	0x3dac7afd	0.08421896
143	0xbd46bb2a	-0.048518337
144	0xbd7dcd51	-0.061963383
145	0x3e2c1c8d	0.16807766
146	0x3e641065	0.22271879
147	0xbdb52b96	-0.08846204
148	0x3c98a14e	0.018631604
149	0xbd95e4d1	-0.07319034
150	0xbd24e855	-0.04026063
151	0x3e7910b5	0.2432278
152	0x3c5a0ed4	0.013309199
153	0xbe608197	-0.21924435
154	0xbe2a326b	-0.16620795
155	0x3eba0f29	0.3633969
156	0x3c578622	0.013154538
157	0x3e2acc7a	0.16679564
158	0x3df497a3	0.11942985
159	0xbe71104f	-0.23541377
160	0xbc03e827	-0.008050955
161	0x3d5a827a	0.05334709
162	0x3dc504f1	0.09620083
163	0xbe7d1799	-0.24716033
164	0xbc06ebd6	-0.008234939
165	0x3d0764f7	0.033055272
166	0x3eb5350f	0.35392043
167	0xbd97acc3	-0.074059986
168	0xbd893917	-0.06700342
169	0xbe3cc987	-0.18436252
170	0xbdb2581b	-0.08708211
171	0x3eb213c1	0.34780696
172	0xbc524343	-0.012833419
173	0x3d43fd0c	0.047848746
174	0xbe2c2b67	-0.16813432
175	0xbdb24bb5	-0.08705846
176	0xbe9a7019	-0.3016365
177	0x3e8a71b0	0.27039862
178	0xbd23555b	-0.039876323
179	0x3e4ce430	0.20008922
180	0x3cb58f35	0.022163013
181	0x3d9c2a86	0.07625298
182	0x3e2803b6	0.16407666
183	0x3c9fd47d	0.019510502
184	0xbd037d54	-0.032101944
185	0x3da1fb6f	0.07909285
186	0x3d58f9d6	0.052972637
187	0x3ddd8b5f	0.108175986
188	0xbe0053fd	-0.12532039
189	0x3d7b2dde	0.06132304
190	0xbd6d1a70	-0.05788654
191	0x3c6d2cab	0.014475982
192	0xbd6216a3	-0.05519737
193	0xbdeb5ea8	-0.114926636
194	0xbe2864a1	-0.16444637
195	0xbd79706c	-0.06089823
196	0xbc83d0c1	-0.016090753
197	0x3cedb53f	0.029017089
198	0xbe3e2074	-0.18567067
199	0xbdd5d84c	-0.10441646
200	0xbd8ca737	-0.06867831
201	0x3d75caaf	0.060007747
202	0x3eda09f5	0.42585722
203	0x3e6b23f3	0.22962932
204	0x3de2bf7d	0.1107168
205	0xbd10c371	-0.035342637
206	0x3ddb3704	0.10703853
207	0x3dc5f432	0.09665717
208	0x3be3802a	0.0069427686
209	0x3d70c339	0.05877993
210	0xbdbf2dcb	-0.09334906
211	0xbdee8163	-0.11645772
212	0x3e50bcb8	0.2038449
213	0x3ef37a72	0.47554356
214	0xbe71b62b	-0.23604648
215	0x3d3bde22	0.04586614
216	0x3ea80435	0.3281571
217	0x3bc5dc1e	0.006038203
218	0x3dd20bd8	0.10256165
219	0x3e094f77	0.1340922
220	0xbe5c5280	-0.21515846
221	0xbe95c2cc	-0.2925018
222	0xbeb55d95	-0.3542296
223	0x3d699f33	0.05703659
224	0x3e16b2e8	0.14716685
225	0x3e57d808	0.21078503
226	0x3ce408d6	0.027836245
227	0x3e6ef8a6	0.2333704
228	0xbe80f7a4	-0.25188935
229	0x3e0bfce0	0.13670683
230	0xbe06d308	-0.1316644
231	0x3c3b21f4	0.011421669
232	0xbe96fccf	-0.29489753
233	0x3e7e6539	0.24843301
234	0x3d51f75e	0.0512613
235	0x3f1e36f5	0.6180261
236	0x3cf96ac4	0.030446418
237	0x3d5a5150	0.053300202
238	0x3dbc0c3e	0.091820225
239	0xbd46267e	-0.048376553
240	0xbde33f5f	-0.110960715
241	0x3d2318ed	0.039818693
242	0xbd1ad15f	-0.037797328
243	0x3e055760	0.13021612
244	0x3e2ac4be	0.16676614
245	0x3e582fa8	0.2111193
246	0xbe0fb354	-0.14033252
247	0xbd6f81a7	-0.058473255
248	0xbe527a67	-0.20554505
249	0xbcfe07cc	-0.031009577
250	0xbe244a67	-0.16044007
251	0x3dffb2d3	0.1248528
252	0xbd85cd82	-0.06533338
253	0xbe2e65cd	-0.17031021
254	0x3ea2cd31	0.31797174
255	0x3dfffec4	0.124997646

advantage_stream.bias f4 [20]
0	0xbeba94ba	-0.36441594
1	0x3e98f477	0.29874012
2	0x3e5955ee	0.21224186
3	0x3e78f733	0.24313049
4	0x3e7b39e7	0.24533807
5	0x3e8463cf	0.25857398
6	0x3e5e613d	0.21716781
7	0x3e26634e	0.16248819
8	0x3e7189e6	0.2358776
9	0x3df0c851	0.11756957
10	0xbe1b2ee6	-0.15154609
11	0xbd2eea6c	-0.04270403
12	0x3e7d315b	0.24725859
13	0x3da2dc65	0.07952193
14	0xbeeecaa2	-0.46638972
15	0x3bf66849	0.007519756
16	0x3d3430fb	0.043992024
17	0x3ca9002a	0.020629961
18	0x3db24865	0.087052144
19	0x3d5fa726	0.054602765
