src/hockey-env/Combined_test_6_DuelingDDQN_100k_30k_(128,128)/weights/episode_88000.pth (torch, 83208 bytes, 7 tensors)

layers.0.weight f4 [128, 18]
0	0x3cfa0087	0.03051783
1	0xbec8927b	-0.39174256
2	0x3db9f08d	0.090790845
3	0xbb17cfbb	-0.0023164588
4	0xbe0668cd	-0.13125916
5	0x3dd8af51	0.10580314
6	0x3dfe29d7	0.12410324
7	0xbea66b6f	-0.3250384
8	0xbe76a1c5	-0.24085148
9	0xbd5abc23	-0.053402077
10	0x3f3d9787	0.7405934
11	0xbda881ea	-0.08227904
12	0x3ee7eb09	0.45296505
13	0x3efb3b93	0.4906889
14	0x3f710792	0.94152176
15	0xbe8459cf	-0.2584977
16	0x3f6d8ce2	0.92793095
17	0x3eaedc2d	0.34152356
18	0xbef7c796	-0.4839446
19	0x3ea21870	0.3165927
20	0x3d6c25db	0.05765329
21	0x3c82dcc9	0.01597442
22	0x3e0758fd	0.1321754
23	0x3c0740b5	0.008255173
24	0xbee040a8	-0.4379933
25	0x3f146afd	0.5797575
26	0x3f56a7fa	0.8385006
27	0xbe848a96	-0.25886983
28	0x3dd66cae	0.10469948
29	0xbc894ea9	-0.01676114
30	0xbf1bd48d	-0.608712
31	0xbea0b2f1	-0.3138652
32	0xbeb36007	-0.350342
33	0xbec15d20	-0.3776636
34	0x407eed43	3.9832313
35	0x3ee3f7d6	0.4452502
36	0x3ecc0398	0.39846492
37	0xbeb0fe7b	-0.34569153
38	0x3e2d0a0d	0.16898365
39	0xbcd34ea5	-0.025794337
40	0x3e2e16d6	0.17000899
41	0xbd06ac51	-0.032879177
42	0xbba640f2	-0.00507366
43	0xbdc142a2	-0.09436537
44	0x3d5700b8	0.05249092
45	0xbd0d9ae7	-0.034571555
46	0x3d39b2ed	0.045336653
47	0xbcf4a8a1	-0.029865565
48	0xbf2ac637	-0.667087
49	0x3e9f9dfe	0.31175226
50	0xbf1d3272	-0.614051
51	0x3ea4a525	0.32157245
52	0xbf823385	-1.0171973
53	0xbfceeb20	-1.6165504
54	0x3fa82d2a	1.3138783
55	0xbe23ce99	-0.1599678
56	0xbe258c68	-0.16166842
57	0x3e50e132	0.20398405
58	0x3cdaa7df	0.026691375
59	0xbc92beca	-0.017913241
60	0x3ef4c14a	0.47803718
61	0xbdb41df8	-0.087947786
62	0xbe9718bc	-0.29511058
63	0x3e3503f8	0.17677295
64	0x3e365be3	0.1780849
65	0xbcaf38e4	-0.021389432
66	0xbf551401	-0.8323365
67	0xbed42715	-0.41436067
68	0xbd81e698	-0.063428104
69	0xbe0618af	-0.13095354
70	0xbef0b993	-0.47016582
71	0xbf63cc27	-0.88983387
72	0x3f1b3544	0.6062815
73	0xbe633b79	-0.22190656
74	0x3e6a21bd	0.22864433
75	0xbd4e5765	-0.050376315
76	0x3d43dda4	0.047818795
77	0x3d5ff6c7	0.054678705
78	0xbe3d4ae5	-0.18485601
79	0xbf6efb76	-0.9335245
80	0x3e8617b9	0.26189974
81	0xbf35de7f	-0.7104263
82	0x3f39e285	0.72611266
83	0xbd9b4481	-0.075814255
84	0x3e82faaa	0.25581867
85	0x3f39cbae	0.72576416
86	0x3cf7c409	0.030244844
87	0x3d918b5e	0.0710666
88	0xc0601d61	-3.5017931
89	0xbf7103e9	-0.9414659
90	0xbf8092e5	-1.0044829
91	0x3f318e8c	0.69358134
92	0xbe6d2e81	-0.23162271
93	0xbd2827a4	-0.04105343
94	0x3d9f8a1a	0.07790013
95	0xbda65324	-0.081213266
96	0xbdd64c07	-0.1046372
97	0x3f9be886	1.2180336
98	0x3eba1c8d	0.36349908
99	0x3c4edbf5	0.012625684
100	0x3e8150b0	0.25256872
101	0x3c8eaebb	0.017417302
102	0xbf0c8362	-0.54887974
103	0x3ecad16f	0.3961291
104	0xbee0ad28	-0.43882108
105	0x3eea03c3	0.45705995
106	0xbedab11e	-0.42713255
107	0xc0024c82	-2.0359197
108	0x3ece6533	0.40311584
109	0x3e3f0751	0.18655135
110	0xbdcc62e3	-0.09979799
111	0xbd03568d	-0.032064963
112	0x3c7bfe11	0.015380398
113	0x3ca88b69	0.020574288
114	0x3ce2bc70	0.027677745
115	0x3e406f2d	0.1879241
116	0xbe8f33b1	-0.27969125
117	0xbd14cdc4	-0.036329046
118	0x3e06dce7	0.13170205
119	0x3ce1865d	0.02752989
120	0x3f043e0e	0.5165719
121	0x3f1bc6b9	0.608501
122	0x3e2b5dc9	0.16734995
123	0x3e7ca1f5	0.24671157
124	0x3f177681	0.591652
125	0x3f271c22	0.652773
126	0x3e704418	0.23463476
127	0xbf6857e1	-0.9075909
128	0x3e133fd3	0.14379816
129	0x3bf933ca	0.0076050507
130	0xbe1b9937	-0.15195166
131	0x3be5a732	0.0070084566
132	0xbe224ca8	-0.15849555
133	0x3fa1bc35	1.2635561
134	0xbfb08624	-1.3790936
135	0x3de470e8	0.11154348
136	0xbd60c35e	-0.054873817
137	0xbde2bded	-0.11071382
138	0xbef00726	-0.46880454
139	0xbe908c3f	-0.28232
140	0xbe281866	-0.16415557
141	0xbe8e6aaa	-0.27815753
142	0x3e17d0c3	0.1482573
143	0xbd21b739	-0.039481375
144	0xbeab3114	-0.3343588
145	0x3f1f9efb	0.6235196
146	0xbe825ef2	-0.25463063
147	0x3ccb7388	0.024835363
148	0xbd8ec78d	-0.06971655
149	0x3cae6859	0.021289991
150	0x39f3e198	0.00046516652
151	0x3f8399f5	1.0281359
152	0x3d67c718	0.056586355
153	0x3dfb150c	0.12259874
154	0x3e8abcc7	0.2709715
155	0xbe054884	-0.13015944
156	0x3f69e56c	0.91365695
157	0xbe8b467f	-0.27202222
158	0x3f631975	0.8871072
159	0xbe8c8ebc	-0.27452648
160	0x3f497e65	0.7870849
161	0x3ffa8fbb	1.9575113
162	0x3ea41874	0.32049906
163	0x3ec3a2bc	0.38210094
164	0xbd4fd633	-0.050741386
165	0x3db73bd1	0.08946956
166	0x3e2c1329	0.16804184
167	0xbc254a6b	-0.010088543
168	0x3e6f9a3c	0.2339868
169	0x3e678dc3	0.22612672
170	0xbf00cb41	-0.5031014
171	0x3e0a5533	0.13509063
172	0xbe1c689c	-0.1527428
173	0xbc7e9c89	-0.015540251
174	0xbed98d4a	-0.42490608
175	0x3f4319d6	0.762113
176	0x3ca499c7	0.020092858
177	0x3eae3371	0.34023622
178	0xc09de35d	-4.9340043
179	0xc011fe2d	-2.2811387
180	0x3f3df7e1	0.7420636
181	0xbe6debfa	-0.23234549
182	0x3eef7078	0.46765494
183	0xbcbd1432	-0.023080919
184	0xbcf017b8	-0.029308185
185	0xbcbaa620	-0.022784293
186	0x3f331d47	0.6996655
187	0x3ece861a	0.40336686
188	0xbfba520c	-1.4556289
189	0x3e256904	0.16153342
190	0x3e49a20c	0.19690722
191	0x3dc4b84d	0.09605465
192	0x3e1b69c9	0.15177073
193	0xbe5c6270	-0.21521926
194	0x3f12d1f2	0.573516
195	0xbeb8fbd7	-0.3612964
196	0x3feb8aee	1.8401773
197	0x3f6b75ea	0.919768
198	0xbe0c9ac5	-0.13730915
199	0xbe0c08e0	-0.1367526
200	0xbe1db54c	-0.1540119
201	0x3c869112	0.016426597
202	0xbd3e624a	-0.046480455
203	0x3c1694a9	0.009190717
204	0x3e319fe9	0.17346157
205	0x3dbafc38	0.09130138
206	0x3ea29a66	0.31758422
207	0xbd20bd15	-0.039242823
208	0x3e379ccf	0.17930911
209	0x3d3fac56	0.04679521
210	0x3ecf6de8	0.4051354
211	0xbf04bee4	-0.51853776
212	0x3c683ddb	0.014174904
213	0xbd551f3d	-0.052031744
214	0x408434db	4.131452
215	0xbfb5ba04	-1.4197392
216	0x3e0fea89	0.14054312
217	0x3d10be3c	0.03533767
218	0xbe06502e	-0.13116524
219	0xbae743b5	-0.001764408
220	0x3d0e4217	0.034730997
221	0x3b8e25e1	0.0043380116
222	0x3d46b4e5	0.04851236
223	0xbe5b49a4	-0.2141481
224	0xbddbf54a	-0.107401446
225	0x3e03b16b	0.12860648
226	0xbdc7ba0c	-0.097522825
227	0x3d077f35	0.0330803
228	0xbe78faab	-0.24314372
229	0xbeb321c9	-0.34986714
230	0x3c2bb52c	0.010480206
231	0xbe26b5c8	-0.16280282
232	0x3db3bb49	0.08775956
233	0x3fab9a65	1.3406492
234	0x3f16c06a	0.5888735
235	0xbf0c30e8	-0.54762125
236	0x3e792031	0.24328686
237	0x3d43ea09	0.047830615
238	0xbcf04df9	-0.029334055
239	0x3ba34d92	0.0049836123
240	0xbf1e10a4	-0.6174414
241	0x3f2ba1ee	0.6704396
242	0xbd800be9	-0.06252272
243	0xbbc10759	-0.0058907685
244	0x3df0882a	0.11744721
245	0xbcf7ba1e	-0.030240115
246	0xbf0ef34e	-0.55840003
247	0x3e9b7579	0.30363062
248	0xbc9e8aa2	-0.019353215
249	0x3d61f087	0.055161025
250	0x3cb30a4a	0.021855492
251	0xbe3aa7be	-0.18228051
252	0x3d88d25f	0.0668075
253	0x3efdc511	0.49564412
254	0x3f0b92d2	0.54520905
255	0xbe02856c	-0.12746209

layers.0.bias f4 [128]
0	0x3f49da91	0.7884913
1	0x3ffffd12	1.9999106
2	0xbf3ecdc3	-0.7453272
3	0xc00488e7	-2.0708559
4	0x3ed491c9	0.41517475
5	0xbe7d9d08	-0.24766934
6	0x40009380	2.0090027
7	0x3ec10423	0.3769847
8	0xbd850ea5	-0.06496934
9	0xbf4cb12d	-0.7995785
10	0x3cace290	0.021104127
11	0x3edd453e	0.4321689
12	0xbfdbfb4e	-1.7186067
13	0x3f75d1fb	0.9602353
14	0xbe05a04f	-0.13049434
15	0xbdf31bcf	-0.118705384
16	0xbf25b6dd	-0.6473215
17	0xbcd690e2	-0.026192132
18	0xbdab1a66	-0.083546445
19	0x3e9b65e9	0.3035119
20	0x3c8c9394	0.017160214
21	0xbf55e6a4	-0.83555055
22	0xbf812954	-1.0090737
23	0xbf3ce1c3	-0.73781985
24	0xbf0bbdfb	-0.5458676
25	0xbe697afd	-0.22800823
26	0x3e999f89	0.30004528
27	0xbf6fe2e0	-0.9370556
28	0xbf39b1c6	-0.72536886
29	0xbeda95e1	-0.42692474
30	0xc0121a0b	-2.2828395
31	0xbf9b8f12	-1.2153037
32	0x3f21049d	0.62897664
33	0xbee5b46b	-0.4486421
34	0xbf72c4cf	-0.94831556
35	0x40214c46	2.5202804
36	0x3d96496e	0.07338224
37	0xbfebc7a1	-1.8420297
38	0xbd831f45	-0.064024486
39	0xbf4923d5	-0.785703
40	0x3e8eec5e	0.2791471
41	0x40261cc7	2.5955064
42	0xbfd721fc	-1.6807246
43	0x3f958643	1.1681598
44	0xbdb31044	-0.08743337
45	0xbeae2e96	-0.34019917
46	0x3eacd6af	0.3375754
47	0x3f5ff1c0	0.87478256
48	0x3e802515	0.2502829
49	0xbe7bc612	-0.24587277
50	0x3f9461fa	1.15924
51	0xbf70686e	-0.9390935
52	0xbff6b1d8	-1.9273024
53	0x3f8f6652	1.1203101
54	0xbf4f3cb9	-0.8095203
55	0x3f460ded	0.77365
56	0xbf56f970	-0.8397436
57	0xbf175da9	-0.5912729
58	0x3fbd4ae9	1.4788486
59	0xbfdc5d95	-1.7216059
60	0x3f715eb1	0.9428511
61	0x3e80e15c	0.25171936
62	0xbed698f4	-0.4191357
63	0xc008afb0	-2.135723
64	0x3fe5d159	1.7954513
65	0xbff8d3a9	-1.9439594
66	0x3d9457b4	0.072432905
67	0xbee4e9ae	-0.44709533
68	0x3e07b36e	0.1325204
69	0xbeef96f2	-0.4679485
70	0xbf8c03c7	-1.0938653
71	0xbeb20a8e	-0.34773678
72	0x3f831e10	1.0243549
73	0xbf587d04	-0.8456576
74	0x4021e577	2.5296304
75	0xbff8d074	-1.9438615
76	0xbf5e1c21	-0.8676167
77	0x3f8d8169	1.1055118
78	0xbf5bc6cc	-0.85850215
79	0x4024c207	2.5743425
80	0xbec343e5	-0.38137737
81	0xbfe8ef8e	-1.8198106
82	0xbe9f1b66	-0.3107559
83	0xbebab292	-0.36464363
84	0x3fbe4bb2	1.486685
85	0x402c5ac2	2.6930394
86	0x3fe08911	1.7541829
87	0x3f50b130	0.81520367
88	0x3fd6c3ec	1.6778541
89	0x3feaa095	1.8330256
90	0x3f53bf71	0.8271399
91	0x3fcbc0ff	1.5918273
92	0xbe4d4e62	-0.20049432
93	0xbffd1e30	-1.9774837
94	0xbf98c298	-1.1934385
95	0x3f37fde4	0.7187178
96	0xbf436cfe	-0.76338184
97	0x3f9099b9	1.1296912
98	0xbec0a802	-0.3762818
99	0xbf8e9b89	-1.1141216
100	0xbf4e54f9	-0.8059841
101	0xbe316d50	-0.17326856
102	0xbeb3c764	-0.3511306
103	0xbf388fd4	-0.72094464
104	0xbfd11002	-1.633301
105	0xbeb34ee7	-0.35021135
106	0xbf9656dd	-1.1745259
107	0x3f847c11	1.0350362
108	0x3e536a0f	0.20645927
109	0x3ea77f9b	0.32714543
110	0xbf134f0c	-0.5754249
111	0x3e8709dc	0.2637471
112	0xbdc0c787	-0.09413057
113	0x3fed46c0	1.8537216
114	0x3d1ce37b	0.03830288
115	0x3f88aaf9	1.0677177
116	0xbf9556ce	-1.1667116
117	0xbeedc1af	-0.4643683
118	0x3e52d978	0.2059077
119	0x3ea64c05	0.32479873
120	0x3fd3c144	1.6543355
121	0xbf18afae	-0.59643066
122	0x3fd3075e	1.6486623
123	0xbfb8b69f	-1.4430732
124	0xc057694e	-3.3658023
125	0x3f7da62f	0.990817
126	0xbd3f54e9	-0.046711836
127	0xbf150eb6	-0.5822557

layers.1.weight f4 [128, 128]
0	0x3d8c4598	0.068492115
1	0xbe51d72f	-0.20492242
2	0x3d4d018f	0.050050315
3	0x3e9f2f0e	0.31090587
4	0xbf5ddab5	-0.86661845
5	0xbeb0f8a2	-0.34564692
6	0x3eee2d9c	0.46519172
7	0xbe84fb36	-0.2597291
8	0xbe56fcd2	-0.20994881
9	0xbe6cb0c5	-0.23114307
10	0x3eae9c73	0.34103736
11	0x3f5757e0	0.8411846
12	0x3f007987	0.50185436
13	0xbd7f679a	-0.06235466
14	0xbe2abc24	-0.16673332
15	0xbe92ab74	-0.28646433
16	0xbdbd935d	-0.09256623
17	0xbe3c1c81	-0.18370248
18	0xbef9db7e	-0.48800272
19	0xbe261192	-0.1621764
20	0x3f20ffd9	0.6289039
21	0xbd84ecde	-0.06490491
22	0xbec6c45b	-0.38821682
23	0x3eefc6af	0.4683127
24	0xbd85938a	-0.065222815
25	0xbe5912da	-0.21198598
26	0x3db81cde	0.08989881
27	0xbee2a67e	-0.44267648
28	0x3ebec640	0.37260628
29	0x3e4f3185	0.20233734
30	0xbe1b2ea8	-0.15154517
31	0xbe5610bd	-0.20904823
32	0xbcc0cb8a	-0.023534555
33	0xbe71fc1b	-0.23631327
34	0xbe3ae6f1	-0.1825216
35	0xbf328a09	-0.69741875
36	0xbf6a6fde	-0.91576946
37	0xbf01ae49	-0.50656563
38	0x3e94ef08	0.29088616
39	0x3e7c71d7	0.24652801
40	0x3bbed4b0	0.005823694
41	0xbefd18c1	-0.49432948
42	0xbe63746a	-0.22212377
43	0xbe9bc371	-0.30422547
44	0x3dbd8161	0.09253193
45	0xbd534f12	-0.05158908
46	0x3e483071	0.19549729
47	0x3f5b185c	0.85584044
48	0x3e8d2288	0.27565408
49	0xbeb75cdb	-0.3581303
50	0xbe8679b0	-0.26264715
51	0xbd28e6d2	-0.041235752
52	0xbf18d830	-0.59704876
53	0xbd8c140c	-0.06839761
54	0xbdc82c97	-0.0977413
55	0x3ceeeb91	0.029165061
56	0x3e207fb1	0.1567371
57	0x3ecb0c90	0.39658022
58	0x3e59ad07	0.21257411
59	0x3f5ee357	0.87065643
60	0xbf048869	-0.51770645
61	0xbf74016a	-0.9531466
62	0x3e10f0dc	0.1415438
63	0x3f4569fc	0.77114844
64	0x3f236bfa	0.63836634
65	0xbf024731	-0.5088988
66	0x3ed03531	0.40665582
67	0xbf03f78f	-0.5154962
68	0x3ca544f2	0.020174477
69	0x3e825e68	0.2546265
70	0xbdb7ec97	-0.08980673
71	0xbec476c7	-0.3837187
72	0xbdb7bbb4	-0.089713484
73	0xbd4ad079	-0.04951522
74	0xbf8aa997	-1.0833005
75	0xbcd8401a	-0.026397754
76	0x3e97901e	0.2960214
77	0x3f2766e5	0.6539138
78	0x3d04e449	0.032444272
79	0x3dd5571d	0.10417006
80	0x3e2b9c08	0.1675874
81	0x3ed57aab	0.4169515
82	0x3dd85acf	0.10564195
83	0xbf43211f	-0.76222414
84	0x3ee0dcda	0.43918496
85	0x3d9fcf0e	0.078031644
86	0x3e15d55d	0.14632173
87	0xbdc530b8	-0.09628433
88	0xbb9b6644	-0.0047424156
89	0x3e01cb9b	0.12675326
90	0x3e1332e1	0.14374878
91	0x3e30aea7	0.17254125
92	0xbd5097d1	-0.050926033
93	0x3eda154d	0.42594376
94	0xbca2f4f5	-0.019892195
95	0x3eb06b09	0.3445666
96	0xbeee109d	-0.4649705
97	0x3f5b4164	0.85646653
98	0x3e2c8c0e	0.16850302
99	0xbbdb386e	-0.0066900766
100	0x3eeb1451	0.45913938
101	0xbf1477bb	-0.57995194
102	0xbdc8938b	-0.097937666
103	0xbf32385d	-0.69617254
104	0x3e82b16f	0.25525996
105	0x3c9049f2	0.017613385
106	0xbca1fe34	-0.019774534
107	0x3e139655	0.14412816
108	0x3e0a8efd	0.13531108
109	0x3dc5e86c	0.096634716
110	0x3f0c088f	0.5470056
111	0xbed79298	-0.4210403
112	0x3dc0a759	0.09406919
113	0xbe4ee7ee	-0.20205662
114	0x3f1672cf	0.58768934
115	0x3df50393	0.11963572
116	0xbd9a37e6	-0.07530193
117	0x3ea3611b	0.31910023
118	0xbe3e557d	-0.18587299
119	0x3c87ff59	0.016601251
120	0xbde881d6	-0.11352889
121	0x3f446898	0.767221
122	0xbe0e9b8c	-0.13926524
123	0x3f2f47af	0.68468755
124	0xbe91c9a3	-0.2847415
125	0xbef9eaba	-0.48811895
126	0x3e92855f	0.2861738
127	0xbd93c0d1	-0.07214511
128	0x3e58f3ae	0.21186706
129	0xbef18d1a	-0.47177964
130	0xbcf10d83	-0.029425388
131	0x3ebb95a8	0.36637616
132	0x3ed21877	0.4103429
133	0xbea2c7a9	-0.31792954
134	0x3eac1d41	0.3361607
135	0x3eea1373	0.45717964
136	0xbe8ccc49	-0.27499607
137	0x3f015b2d	0.5052975
138	0x3e699fcd	0.22814865
139	0xbf5f6aba	-0.87272227
140	0x3dee1a45	0.11626104
141	0x3dfa1392	0.12210764
142	0xbf327415	-0.6970838
143	0x3e3dceff	0.18535994
144	0x3f0babff	0.5455932
145	0x3d9098b2	0.07060374
146	0xbddab0f8	-0.10678285
147	0xbe12f52c	-0.14351338
148	0x3f2133f4	0.629699
149	0x3eeaed97	0.45884392
150	0xbf11b57d	-0.56917554
151	0x3e61e1a1	0.22058727
152	0x3f26c32c	0.6514156
153	0x3e2f0ad3	0.17093973
154	0x3d9db9b3	0.07701435
155	0x3e962445	0.29324546
156	0xbdd8ea7e	-0.10591601
157	0xbe25ed26	-0.16203746
158	0x3dd63f41	0.104612835
159	0x3d521133	0.051285934
160	0x3d3db8c5	0.046318788
161	0xbe4f9171	-0.20270325
162	0xbe82baf9	-0.25533274
163	0x3b35cb32	0.0027739522
164	0x3edd2665	0.43193355
165	0x3d53208a	0.051544704
166	0xbe26687f	-0.162508
167	0x3eb98f01	0.36241916
168	0x3e8ec307	0.2788317
169	0xbd18f3a2	-0.03734172
170	0x3eca1aae	0.3947348
171	0x3d51babc	0.051203474
172	0xbfa545aa	-1.2911885
173	0x3ea3f7db	0.32025036
174	0xbdedfbeb	-0.11620315
175	0xbdf1a782	-0.11799528
176	0x3f0ccf29	0.550036
177	0x3e787641	0.2426386
178	0xbc7fa34b	-0.015602897
179	0xbd3670e0	-0.04454124
180	0x3e25a96b	0.16177909
181	0xbe4b5a74	-0.19858724
182	0x3e52156b	0.20515983
183	0xbf0b68a7	-0.5445656
184	0xbeefdb07	-0.46846792
185	0xbe2d85a0	-0.16945505
186	0x3f316334	0.69291997
187	0x3ee2e908	0.44318414
188	0xbe9260f4	-0.28589594
189	0x3dbdb482	0.09262945
190	0x3dcca095	0.09991566
191	0xbe1858e3	-0.14877658
192	0x3d936cf4	0.071985155
193	0x3f0a42da	0.5400826
194	0xbdd80540	-0.10547876
195	0xbeded3f6	-0.43521088
196	0xbddaeb38	-0.10689396
197	0x3f05abf6	0.52215517
198	0xbed56e63	-0.4168578
199	0x3e5f0a8e	0.2178137
200	0xbd53eac1	-0.05173755
201	0xbe79d6dc	-0.24398369
202	0xbe40e1e8	-0.18836176
203	0x3ee2d7d4	0.4430529
204	0xbee06daf	-0.43833682
205	0xbc22be7e	-0.009933112
206	0x3f808780	1.0041351
207	0xbf2bf9f9	-0.67178303
208	0xbe210e9a	-0.15728226
209	0xbeb0a3f8	-0.34500098
210	0x3e7b5e58	0.24547708
211	0x3cf87975	0.030331353
212	0xbe537fc0	-0.20654202
213	0x3f46749f	0.775217
214	0x3d828f34	0.0637497
215	0xbec91fa9	-0.39281967
216	0xbf1c08ed	-0.6095112
217	0x3dc4f588	0.09617144
218	0x3c820790	0.015872747
219	0x3e33e050	0.17566037
220	0x3ed29d03	0.41135415
221	0xbf44b962	-0.7684537
222	0x3f1349e2	0.5753461
223	0x3e88a2d9	0.26686743
224	0xbd0e7fad	-0.03478973
225	0xbe99b477	-0.30020496
226	0xbdeccb3e	-0.11562203
227	0x3d036e16	0.032087408
228	0xbee1b3b7	-0.44082424
229	0xbe9278ec	-0.2860788
230	0x3e355d1d	0.17711301
231	0x3e840828	0.25787473
232	0x3e874f9e	0.2642793
233	0xbe47f0a1	-0.19525386
234	0x3e57cd9b	0.21074526
235	0x3e278a6e	0.163614
236	0xbb1566dd	-0.0022796907
237	0x3ee3f057	0.44519302
238	0x3f43b1fd	0.76443464
239	0x3e96ef90	0.29479647
240	0x3d609330	0.05482787
241	0xbe2a7c26	-0.16648921
242	0xbe9f59da	-0.3112324
243	0xbeda609f	-0.4265184
244	0xbe18bcf0	-0.14915824
245	0x3d2583e1	0.040408973
246	0xbec8cf3e	-0.39220613
247	0x3f3ed385	0.74541503
248	0xbec2969e	-0.38005537
249	0xbe8e07dc	-0.2774037
250	0x3ef2317b	0.47303376
251	0x3efa708f	0.48914
252	0xbd37a457	-0.04483446
253	0xbf1d53e8	-0.61456156
254	0xbe511f1a	-0.2042202
255	0x3e9f915d	0.3116559

layers.1.bias f4 [128]
0	0xbe93b3df	-0.28848168
1	0xbddca6db	-0.10774013
2	0x3f3df6b9	0.74204594
3	0x3ef704a3	0.48245725
4	0xbe844f4f	-0.25841758
5	0x3e435e41	0.19078924
6	0x3f00663c	0.50156
7	0x3f5a7cf8	0.8534694
8	0x3f0dc6d3	0.55381507
9	0x3f27af50	0.6550188
10	0x3e97a8c2	0.2962094
11	0x3e3d4991	0.18485095
12	0x3ef4b181	0.47791675
13	0x3ea36320	0.31911564
14	0x3f305ad8	0.68888617
15	0x3e97836f	0.29592463
16	0xbdf6aa11	-0.12044156
17	0xbd3ec50e	-0.046574645
18	0xbe210bf7	-0.1572722
19	0x3a4435bb	0.0007484813
20	0xbe967681	-0.29387286
21	0xbee62f01	-0.44957736
22	0x3f7293c1	0.94756705
23	0x3e2746c4	0.16335589
24	0xbeee3417	-0.46524116
25	0xbe1cbe77	-0.15307032
26	0x3f121c34	0.57074285
27	0x3e4c27f3	0.19937114
28	0x3ecdb056	0.40173596
29	0x3f63f52f	0.89045995
30	0xbe7a0fad	-0.24420042
31	0x3f307cbb	0.68940324
32	0x3f7ad719	0.9798446
33	0xbecbd51f	-0.39811036
34	0x3e3fc34d	0.18726845
35	0xbf8a1312	-1.078707
36	0x3d05a0ef	0.03262418
37	0x3e881c10	0.2658391
38	0xbeaaef14	-0.33385527
39	0xba565967	-0.0008176774
40	0xbec78509	-0.38968685
41	0x3ea1197d	0.3146476
42	0xbf52574b	-0.8216445
43	0xbea43e19	-0.32078627
44	0xbd9c7c28	-0.076408684
45	0xbe94e1b9	-0.29078463
46	0x3eded38f	0.4352078
47	0x3e2bb6e1	0.16768982
48	0x3e3751b3	0.1790226
49	0x3e8ab915	0.2709433
50	0xbd8ae29f	-0.06781506
51	0xbe6bd2a3	-0.2302957
52	0xbef6c4fd	-0.48197165
53	0x3ee2996a	0.4425767
54	0x3df8e8d7	0.12153786
55	0x3f1e4130	0.6181822
56	0xbdd0cd8d	-0.10195456
57	0xbd6cbbff	-0.057796475
58	0xbd042368	-0.03226033
59	0xbf4a24f1	-0.7896262
60	0xbe8f3241	-0.27968028
61	0x3ed2d2d5	0.41176477
62	0xbf703127	-0.93825
63	0x3e848af9	0.25887278
64	0x3f2601ba	0.64846385
65	0xbe8cda83	-0.2751046
66	0xbe0a7f94	-0.1352523
67	0x3f08fa89	0.53507286
68	0xbe0b8ecf	-0.13628696
69	0x3f4b55aa	0.7942759
70	0x3d1ed1d5	0.03877433
71	0x3eddf890	0.433537
72	0x3d10c09f	0.035339948
73	0x3f57c8ed	0.84290963
74	0x3e5d17e8	0.21591151
75	0xbf5f1510	-0.87141514
76	0x3e858052	0.26074463
77	0xbeca0736	-0.39458627
78	0x3c46fefd	0.012145755
79	0xbedd6d91	-0.43247655
80	0x3cef8067	0.029236032
81	0x3f8492df	1.0357322
82	0x3ec2aebe	0.38023943
83	0xbf859fcb	-1.043939
84	0x3d946b1f	0.07246994
85	0xbeca8dad	-0.39561215
86	0xbd7a189c	-0.061058626
87	0xbd2d5379	-0.042315934
88	0xbe822173	-0.25416145
89	0xbf1b55f9	-0.6067806
90	0xbf5b6dd2	-0.8571445
91	0xbe98cea3	-0.2984515
92	0xbe69b935	-0.22824557
93	0x3f4704f5	0.7774194
94	0xbedc93d2	-0.43081528
95	0x3ea0d747	0.31414244
96	0x3df0f930	0.11766279
97	0xbf25d399	-0.64776
98	0x3f77272c	0.96544147
99	0xbd32619d	-0.043550123
100	0xbe71d733	-0.23617248
101	0xbe78a8ff	-0.24283217
102	0x3fb56325	1.4170882
103	0x3eb9b378	0.36269736
104	0x3f613264	0.87967515
105	0xbe996ac7	-0.29964277
106	0x3f57e896	0.8433927
107	0x3f0559ec	0.52090335
108	0x3e584d40	0.21123219
109	0xbe6ed110	-0.23321939
110	0x3fba533e	1.4556653
111	0x3ef2721a	0.47352678
112	0x3ea55303	0.32289895
113	0x3eddca2e	0.43318313
114	0xbee99fd3	-0.4562975
115	0x3c0afb2b	0.008482735
116	0x3dc012c0	0.09378576
117	0x3e01614e	0.12634775
118	0x3f11accf	0.5690431
119	0x3e51df8a	0.2049543
120	0xbf0380bd	-0.51368314
121	0xbf4b2fd9	-0.79369885
122	0xbf0e9696	-0.55698526
123	0xbde87d10	-0.11351979
124	0x3e4b2304	0.19837576
125	0x3f8dc40c	1.1075454
126	0x3da23521	0.0792029
127	0xbe2b3347	-0.1671878

value_stream.weight f4 [1, 128]
0	0x3e6048bd	0.21902747
1	0x3e9775fb	0.295822
2	0x3e5244ab	0.20534007
3	0x3f542153	0.8286335
4	0x3ea862d4	0.328879
5	0x3e526a06	0.20548257
6	0x3e62aca9	0.22136177
7	0xbe356692	-0.17714909
8	0xbe508cd4	-0.20366222
9	0xbe82af8f	-0.25524566
10	0xbf193e74	-0.5986092
11	0x3e9ae758	0.30254626
12	0x3e07ee34	0.13274461
13	0xbe5ccb6c	-0.21561974
14	0xbd9a77ab	-0.07542356
15	0xbe1b0531	-0.15138699
16	0xbe5ab671	-0.21358658
17	0xbe6c4a53	-0.23075227
18	0xbe9fb663	-0.31193838
19	0xbec55c0a	-0.38546783
20	0x3eb50d17	0.3536155
21	0x3f15816d	0.58400613
22	0xbe861772	-0.26189762
23	0x3e329ebc	0.17443365
24	0xbebd00ab	-0.36914572
25	0xbe807a81	-0.25093463
26	0xbe98b7ae	-0.29827636
27	0xbea70f98	-0.32629085
28	0xbefa866b	-0.48930678
29	0x3e53eabf	0.20695017
30	0xbe4771e7	-0.19477044
31	0xbe710ac2	-0.2353926
32	0xbf4fdbaa	-0.81194556
33	0xbf89ba56	-1.075999
34	0xbeb75ec7	-0.35814497
35	0x3ea85758	0.32879138
36	0x3e84902a	0.25891238
37	0x3df2f68f	0.118634336
38	0x3e36dac1	0.17856885
39	0x3e0ed61e	0.13948867
40	0x3e7c9b83	0.24668698
41	0xbe2b8169	-0.16748585
42	0x3f518d07	0.81855816
43	0x3e826487	0.2546732
44	0xbe6084fc	-0.2192573
45	0x3ea1b119	0.31580427
46	0xbed5d988	-0.41767526
47	0xbe4287eb	-0.18997161
48	0xbe84811b	-0.2587975
49	0xbdc37a18	-0.09544772
50	0x3e679994	0.22617179
51	0xbe75b218	-0.23993719
52	0xbf101df4	-0.56295705
53	0xbec2d78c	-0.38055074
54	0xbe588a2e	-0.21146461
55	0x3ee439c3	0.4457532
56	0xbe881562	-0.26578814
57	0xbe26018f	-0.16211532
58	0xbe845b7b	-0.25851044
59	0xbead417a	-0.33839017
60	0x3f9ac6c1	1.2091905
61	0xbe389d71	-0.18028809
62	0x3db2654a	0.087107256
63	0xbeaeae36	-0.34117287
64	0x3e5c234d	0.21497841
65	0x3e67fa12	0.22653988
66	0xbe38df38	-0.18053901
67	0xbea73fda	-0.32665902
68	0xbe840fc4	-0.25793278
69	0xbe957f9e	-0.29198927
70	0xbe1bd0ba	-0.15216342
71	0xbf64c686	-0.8936542
72	0x3edd126e	0.43178123
73	0xbec7a045	-0.38989463
74	0xbee36fee	-0.44421333
75	0x3edd0abd	0.43172255
76	0x3e48e2a6	0.1961771
77	0x3e765d6b	0.24059074
78	0x3e8e396e	0.2777819
79	0x3fa0791c	1.253696
80	0x3ec9f1cd	0.39442292
81	0x3e810726	0.25200766
82	0xbe63576a	-0.22201315
83	0x3f252edc	0.64524627
84	0x3eee3899	0.46527556
85	0xbe869be1	-0.262908
86	0xbea08c37	-0.31356975
87	0xbf5adc8e	-0.8549279
88	0x3ea9044d	0.33011094
89	0xbe980fb6	-0.29699486
90	0xbe4c646a	-0.1996018
91	0x3e8c2775	0.27373853
92	0x3e21439f	0.15748452
93	0x3e888946	0.2666723
94	0xbeecada6	-0.46226233
95	0xbe7ee692	-0.24892643
96	0xbdf11e8f	-0.11773407
97	0x3e3d2cea	0.18474165
98	0x3eb6f9ec	0.3573755
99	0x3ebbea11	0.36702016
100	0x3f14633a	0.5796391
101	0x3e25e0cf	0.16199039
102	0xbecbc81f	-0.39801118
103	0xbe6cbe10	-0.23119378
104	0x3f136088	0.5756917
105	0xbe93332c	-0.2874998
106	0xbf281cd4	-0.6566899
107	0xbf7c4b96	-0.98552835
108	0x3e5e78fb	0.21725838
109	0xbe76eef4	-0.24114591
110	0xbf7c4559	-0.98543316
111	0xbe863b49	-0.26217106
112	0xbf4739c9	-0.7782255
113	0xbed85df3	-0.42259178
114	0xbe607b8b	-0.21922128
115	0x3e580f3d	0.21099563
116	0x3f958c7f	1.1683501
117	0xbef05ea7	-0.46947214
118	0xbe4f47ad	-0.20242186
119	0x3e7e7dc7	0.24852668
120	0x3f2d14da	0.6760994
121	0x3e6340db	0.22192709
122	0x3f055fca	0.5209929
123	0xbea485f2	-0.32133442
124	0x3e45a48e	0.19301054
125	0xbf10dfe1	-0.5659161
126	0xbe8686f8	-0.26274848
127	0xbe5f9a4e	-0.21836206

advantage_stream.weight f4 [7, 128]
0	0x3e508267	0.20362245
1	0x3d454807	0.048164394
2	0x3dc2aa9a	0.09505196
3	0x3eb06053	0.3444849
4	0x3d8f9667	0.07011109
5	0xbda707bf	-0.08155774
6	0xbe57e7ac	-0.2108447
7	0x3cfbe1b6	0.030747276
8	0x3babc82e	0.005242369
9	0xbe1a1619	-0.15047492
10	0xbdb09acf	-0.086232774
11	0x3dc5fd54	0.09667459
12	0x3dcd5e05	0.100276984
13	0xbd3b6acf	-0.045756157
14	0xbc590f0e	-0.013248218
15	0x3ce9a234	0.028519727
16	0x3d30145d	0.04298817
17	0xbe2b6e2b	-0.16741244
18	0xbe63678f	-0.22207473
19	0xbd0ff44f	-0.0351451
20	0xbe02a397	-0.12757717
21	0x3e7d1d0f	0.24718116
22	0xbe292b8d	-0.1652052
23	0x3c2d70d9	0.010585987
24	0x3c2c75c9	0.010526129
25	0xbd9bc4ec	-0.07605919
26	0xbe436151	-0.19080092
27	0xbe0e5efa	-0.13903418
28	0xbe3603b0	-0.17774844
29	0x3e0f8079	0.14013852
30	0x3d891e4b	0.06695231
31	0xbe18d5a8	-0.14925253
32	0xbd1ee04c	-0.038788125
33	0x3d9e6051	0.07733215
34	0xbd264c47	-0.040600087
35	0x3d968ba2	0.073508516
36	0x3d905b30	0.07048643
37	0x3e6643e1	0.22486831
38	0x3d980733	0.07423248
39	0x3a11e727	0.00055657554
40	0x3dccf7ba	0.100081876
41	0xbd50ca4a	-0.050974168
42	0x3f1057f2	0.56384194
43	0x3e1f99a5	0.15585954
44	0xbcb05783	-0.021526104
45	0x3db83ade	0.08995603
46	0xbde35b0e	-0.11101352
47	0xbde2b211	-0.1106912
48	0xbc9dfcc2	-0.019285563
49	0x3dc96493	0.09833636
50	0xbe67c72e	-0.22634575
51	0x3d78c527	0.060734894
52	0xbe18cd61	-0.14922096
53	0x3baf4d70	0.0053498074
54	0xbd16a6a8	-0.03678003
55	0x3cb1911c	0.021675639
56	0x3cd7eb2a	0.026357252
57	0xbdfd3b8c	-0.12364873
58	0xbeb0bf18	-0.34520793
59	0x3cff2930	0.03114757
60	0xbd2a6845	-0.041603345
61	0xbe07fe2b	-0.13280551
62	0x3d33ec8f	0.04392677
63	0xbe4388ac	-0.19095105
64	0x3e75d216	0.24005923
65	0x3dfcf46e	0.12351309
66	0x3d4a4206	0.04937937
67	0xbd08473e	-0.033271067
68	0xbd77cf89	-0.060500655
69	0xbe3ef842	-0.1864939
70	0xbe36a530	-0.17836452
71	0xbee08f05	-0.43859115
72	0x3e29ec93	0.16594152
73	0xbc5ca590	-0.013467208
74	0xbeafee6e	-0.34361595
75	0x3e9a34c5	0.30118385
76	0x3e0d966c	0.13826913
77	0xbbcc0354	-0.0062259827
78	0xbd6bbaa6	-0.05755105
79	0x3ef92f71	0.48669007
80	0xbe950187	-0.29102728
81	0x3e7194e4	0.23591954
82	0xbe84193d	-0.25800505
83	0x3edf6aca	0.4363616
84	0x3e6c600e	0.23083517
85	0x3bb47a85	0.0055077695
86	0xbe0a2bea	-0.13493314
87	0x3de17003	0.11007693
88	0x3dcdde02	0.1005211
89	0xbde76d00	-0.11300087
90	0xbe98482c	-0.29742563
91	0x3e3ef4a2	0.18648008
92	0xbcd1e435	-0.025621513
93	0x3df34160	0.11877704
94	0xbe81c1ff	-0.2534332
95	0xbdc568d1	-0.09639133
96	0x3e9a6915	0.30158296
97	0x3b5878b7	0.0033030936
98	0x3e69220c	0.22766894
99	0x3d8aaa20	0.0677073
100	0x3d82693b	0.06367727
101	0x3cf80ce5	0.030279586
102	0xbcc34653	-0.023837244
103	0xbe12dcbd	-0.14342017
104	0x3d9d393b	0.076769315
105	0xbde0a104	-0.10968211
106	0xbe14590c	-0.14487094
107	0xbe9713a9	-0.29507187
108	0xbd0c1bbb	-0.034206133
109	0x3c0590e0	0.008152217
110	0xbea5f94b	-0.32416758
111	0xbce2ba6b	-0.027676782
112	0xbe735175	-0.23761542
113	0xbe14597d	-0.14487262
114	0xbdcaa32b	-0.09894403
115	0x3dae419d	0.085086085
116	0x3e868438	0.2627275
117	0x3d12fca8	0.035885483
118	0xbd4f7529	-0.050648842
119	0xbd8c50dd	-0.06851361
120	0xbe634e18	-0.22197759
121	0x3e43dc81	0.19127084
122	0x3c3e968c	0.011632573
123	0xbd3957b7	-0.045249667
124	0x3d80c2a9	0.062871285
125	0xbe88f89f	-0.26752183
126	0xbc73f2cf	-0.014889433
127	0xbe17c109	-0.14819731
128	0xbddc9907	-0.10771375
129	0x3d1aa221	0.037752274
130	0x3c6cf2a9	0.014462152
131	0x3c4e29e4	0.01258323
132	0x3c63044d	0.013856006
133	0x3cd5a32d	0.026078785
134	0x3d339a3c	0.04384826
135	0xbd108fee	-0.035293512
136	0x3c8cd8ba	0.017193187
137	0x3d087974	0.03331895
138	0x3bea520e	0.007150895
139	0x3cccc75a	0.024997402
140	0x3b606d17	0.003424471
141	0xbc62159f	-0.0137991
142	0x3d2c2f3c	0.042037234
143	0xbd078e28	-0.033094555
144	0xbcdc6b88	-0.026906744
145	0x3c98609d	0.018600756
146	0x3d9d0667	0.07667237
147	0x3cd3ab1a	0.025838424
148	0x3df4610c	0.11932573
149	0xbe20bf8b	-0.15698068
150	0x3d7c26ce	0.061560445
151	0xbcf63e24	-0.030058928
152	0xbe7a4d20	-0.24443483
153	0xbd0a676c	-0.033790037
154	0x3d6014d7	0.054707374
155	0xbd752178	-0.05984637
156	0x3cdc97cf	0.026927857
157	0xbd9a4a55	-0.07533709
158	0xbd2d95f0	-0.04237932
159	0xbd3ecd8c	-0.046582744
160	0x3df14c1a	0.11782093
161	0xbf06e9bb	-0.52700394
162	0xbe56e169	-0.20984425
163	0x3def2897	0.11677664
164	0x3d072a6c	0.03299944
165	0xbd2b5852	-0.041832276
166	0x3ca7144c	0.02039542
167	0x3c506313	0.012718934
168	0x3c1f1932	0.009710597
169	0x3db7c410	0.08972943
170	0xbd34188c	-0.043968722
171	0x3d83eeed	0.06442056
172	0xbd21dd04	-0.039517418
173	0xbb444b10	-0.0029951967
174	0xbd164b56	-0.03669294
175	0x3c7a9752	0.015294867
176	0x3c1481b3	0.009064126
177	0xbcfbcd1d	-0.030737454
178	0x3d513154	0.051072434
179	0xbdd58641	-0.104259975
180	0x3b6f6f12	0.003653471
181	0x3dc64faa	0.096831635
182	0xbd9bf820	-0.076156855
183	0xbd8f61fd	-0.07001112
184	0xbccc4a88	-0.024937883
185	0x3da980a3	0.08276489
186	0x3d93bb3a	0.07213445
187	0x3d0dcbab	0.03461806
188	0x3f352121	0.70753676
189	0x3c61c977	0.013780943
190	0x3c9772e6	0.018487405
191	0x3c970491	0.018434795
192	0xbd0924b6	-0.033482276
193	0x39bc0a79	0.00035865957
194	0x3dd8fb5f	0.1059482
195	0xbba6d925	-0.0050918036
196	0x3cb828b9	0.022480356
197	0x3dcf66eb	0.10127052
198	0x3d13150b	0.03590874
199	0x3d738114	0.05944927
200	0xbcabd50c	-0.020975612
201	0xbc97eeec	-0.018546544
202	0x3d235f77	0.039885964
203	0x3d87137e	0.06595515
204	0x3c365aa6	0.011130011
205	0x3bcc32b5	0.0062316307
206	0x3c32a3ae	0.010903282
207	0xbd2859cd	-0.041101266
208	0x3dc1119f	0.09427189
209	0xbd798d8b	-0.060926
210	0x3da6708a	0.08126934
211	0xbdbe1d93	-0.092829846
212	0x3c91af1f	0.0177837
213	0x3cdb9b88	0.026807562
214	0x3d8be18d	0.0683013
215	0x3c4ef85e	0.012632458
216	0xba65a657	-0.00087604433
217	0x3c907354	0.017633118
218	0xbc8df7af	-0.017330019
219	0x3c6bbd1c	0.014388349
220	0x3d6936ae	0.056936912
221	0x3dbd1afb	0.09233662
222	0x3d9e6258	0.07733601
223	0x3d2ccdde	0.042188518
224	0xbc3e7457	-0.011624417
225	0xbd4432e2	-0.047900088
226	0x3d6644f8	0.056218117
227	0xbd806601	-0.06269456
228	0xbcf52ef7	-0.029929621
229	0x3c1b2bff	0.009470939
230	0xbd8807bc	-0.066421
231	0x3dc0dfb6	0.094176695
232	0x3d04b05f	0.032394763
233	0xbd8ba013	-0.06817641
234	0xbde8c1a7	-0.11365061
235	0x3e451b4b	0.19248693
236	0xbca82e5a	-0.020529915
237	0xbd852b69	-0.065024205
238	0x3d357d10	0.044308722
239	0x3ce36c8f	0.027761726
240	0x3d6ea1c0	0.058259726
241	0xbd509375	-0.050921876
242	0x3ca5f765	0.020259568
243	0xbc9c40c4	-0.019073851
244	0xbcb9b60d	-0.022669816
245	0xbdcc4519	-0.09974117
246	0xbc614761	-0.013749928
247	0x3c32bea1	0.010909707
248	0x3daa6329	0.083196945
249	0xbc1aa4c0	-0.0094386935
250	0x3d47c575	0.048772294
251	0xbcea996f	-0.028637616
252	0x3be03240	0.0068419278
253	0x3da8f1e7	0.08249264
254	0xbd07200f	-0.032989558
255	0x3dad6789	0.084670134

advantage_stream.bias f4 [7]
0	0x3e2a1925	0.16611154
1	0xbdce3628	-0.10068923
2	0xbe3ab5cd	-0.18233414
3	0x3d8076b1	0.062726386
4	0xbd6374bf	-0.05553126
5	0x3e107f60	0.1411109
6	0x3df09835	0.11747781
