src/hockey-env/Combined_test_6_DuelingDDQN_100k_30k_(128,128)/weights/episode_40000.pth (torch, 83208 bytes, 7 tensors)

layers.0.weight f4 [128, 18]
0.24383135 -0.2003711 -0.22218427 -0.048539218 -0.117413655 -0.051148362 0.5746984 0.17011283
-0.07611135 0.0050560916 0.33519998 -0.037113965 0.6382435 -0.71267116 0.43641183 -0.48820877
0.14645673 0.18093134 -0.056661263 0.12645802 -0.064696305 -0.03176064 0.0552517 0.026577137
-0.31883615 0.14998546 0.2608767 -0.09825679 0.06645421 0.027571822 -0.56847686 -0.6867715
-0.27204457 -0.35849604 2.0832016 -0.012982113 0.40177512 -1.2218357 -0.009533175 -0.028830407
0.0034778796 0.0020511134 -0.18197909 0.426299 0.7494536 -0.0132800685 0.2261973 0.0036871887
-0.41630837 1.1702143 0.005293337 0.08439617 0.1456802 0.28685784 1.2235042 0.40497804
-0.17736743 0.04113156 0.047672313 -0.014085663 -0.043401793 0.4002692 -0.4074576 -0.07888328
0.29018596 0.019978771 -1.1971458 -0.48422322 -0.07832426 -0.01927148 -0.12813422 -0.8896589
-0.17968628 0.1493041 0.15594365 0.026342183 0.03794192 -0.038593385 -0.4901437 -0.11666943
0.9554612 0.0727152 -0.42152023 0.107781075 0.05547211 0.5040522 -0.08857962 0.46973813
-2.0746007 -1.1793208 -0.6193695 0.4637162 0.2595103 0.047264196 0.09497528 -0.02101249
-0.19114286 0.5505941 0.5762884 -0.03944471 0.25229678 -0.005134494 -0.83795965 0.6070846
-0.3768597 0.33874127 -0.22394253 -1.4342809 -0.100214586 0.31924874 -0.011404366 -0.022877565
0.01227024 0.01600645 0.13325585 1.6432712 0.1485846 0.38593283 0.59140307 -0.0053347778
0.2646092 -0.24722046 -0.005705977 -0.16053781 -0.1587866 -0.14266177 0.2643088 -0.67639714
0.1531859 0.045816142 -0.055812158 -0.055694498 -0.16482142 -0.17317832 -4.0182056 -0.035021786
0.11265726 -0.028401671 0.10888692 0.555646 -0.11501315 0.2087233 -0.3107261 -0.19510669
0.19589242 0.24550416 -0.38746426 0.0023314995 0.02327697 -0.034311287 0.14759105 0.07874283
-0.57355446 0.023870673 -0.15334134 -0.011443793 0.7058018 -0.31738836 0.4109066 -0.30732337
0.19308165 1.3056035 -0.03971415 0.21806619 -0.0124701755 0.010624021 -0.02172342 0.017877024
-0.03486182 0.062890746 -0.62674314 -0.08597868 0.019165598 -0.0106086675 0.733585 -0.70710254
0.26021665 -0.35478643 -2.3478987 -1.3360324 -0.34270415 -0.14401354 0.16158247 0.014456919
-0.08237794 0.0008277928 0.82732743 -0.60194445 -0.85201395 0.03258231 -0.058616575 0.11029616
-0.109940045 -0.11014685 0.43046412 -0.44303572 1.7523944 0.727548 -0.071630426 0.08720095
0.0668151 0.019301495 -0.04972203 -0.0027283544 -0.16753396 0.23538335 -0.11000583 -0.04037672
-0.11127915 -0.067868866 -0.50943965 -0.25014654 -0.19106877 -0.25032496 3.7408543 -0.77515304
0.2920939 -0.10845258 -0.13402183 0.10128251 0.030202158 -0.03328862 0.47446162 -0.5300612
-0.25641832 0.13586874 0.034513444 -0.03259675 0.42955786 0.98372996 0.110579275 0.4289892
0.14071143 1.0043371 0.114023544 -2.3027215 0.41793784 -0.006815032 -0.20063873 -0.018274782
-0.4034825 1.6046246 -0.33215392 -0.012129817 -0.1754421 0.11057622 0.30196306 0.40959245
-0.026014699 0.061965253 -0.3375477 0.023684377 0.046170212 0.5843687 -0.22704811 -0.07066741
00000000: edae 793e 152e 4dbe 4684 63be 0fd1 46bd
00000010: 9276 f0bd f280 51bd 6f1f 133f 0f32 2e3e
00000020: 44e0 9bbd 92ad a53b 559f ab3e d004 18bd
00000030: ed63 233f 9e71 36bf 5f71 df3e 80f6 f9be
00000040: c1f8 153e 1146 393e a415 68bd 367e 013e
00000050: 7f7f 84bd 7217 02bd 9b4f 623d 4cb8 d93c
00000060: 7e3e a3be ca95 193e a191 853e db3a c9bd
00000070: 2519 883d 4dde e13c b387 11bf 42d0 2fbf
00000080: 6d49 8bbe cb8c b7be 2d53 0540 eeb2 54bc
00000090: 78b5 cd3e 1d65 9cbf 0931 1cbc bf2d ecbc
000000a0: 23ed 633b f96b 063b ba58 3abe dd43 da3e
000000b0: 31dc 3f3f a594 59bc 44a0 673e c3a4 713b
000000c0: 5f26 d5be 95c9 953f bb73 ad3b e6d7 ac3d
000000d0: 312d 153e 08df 923e c99b 9c3f 4859 cf3e
000000e0: cf9f 35be 9179 283d 0b44 433d 8dc7 66bc
000000f0: 14c6 31bd 16f0 cc3e 489e d0be 8f8d a1bd
00000100: 4193 943e 85aa a33c 133c 99bf 1bec f7be
00000110: 7868 a0bd 39df 9dbc 9e35 03be b0c0 63bf
00000120: aeff 37be 2de3 183e b1af 1f3e 90cb d73c
00000130: fd68 1b3d 1914 1ebd 1df4 fabe 62f0 eebd
00000140: 1b99 743f b5eb 943d 80d1 d7be 53bc dc3d
00000150: b936 633d 9109 013f 3b69 b5bd 8481 f03e
00000160: 42c6 04c0 fcf3 96bf 008f 1ebf 366c ed3e
00000170: 89de 843e 1a98 413d 6682 c23d 6322 acbc
00000180: f4ba 43be bcf3 0c3f a387 133f c790 21bd
00000190: 0b2d 813e 423f a8bb 8684 56bf e569 1b3f
000001a0: c1f3 c0be 7f6f ad3e 3151 65be 8496 b7bf
000001b0: 4e3d cdbd 9274 a33e 61d9 3abc bb69 bbbc
000001c0: 1e09 493c f51f 833c 3974 083e b656 d23f
000001d0: 9026 183e fd98 c53e 3166 173f 5ccf aebb
000001e0: db7a 873e 5c27 7dbe 34f9 babb 0664 24be
000001f0: f498 22be ed15 12be 7c53 873e 5d28 2dbf
00000200: c4dc 1c3e b5a9 3b3d 4a9b 64bd ea1f 64bd
00000210: f2c6 28be a855 31be 2495 80c0 0173 0fbd
00000220: d9b8 e63d 9faa e8bc 1b00 df3d d13e 0e3f
00000230: 048c ebbd 90bb 553e 7e17 9fbe 0cca 47be
00000240: 0698 483e 7165 7b3e b761 c6be 12cc 183b
00000250: 58af be3c fe89 0cbd 1c22 173e ec43 a13d
00000260: 77d4 12bf 6e8c c33c 8305 1dbe bf7e 3bbc
00000270: 6daf 343f ba80 a2be 5a62 d23e 7d59 9dbe
00000280: 32b7 453e 041e a73f 4eab 22bd be4c 5f3e
00000290: b54f 4cbc 6010 2e3c 50f5 b1bc d672 923c
000002a0: 45cb 0ebd ddcc 803d 3d72 20bf 9715 b0bd
000002b0: 2c01 9d3c facf 2dbc 3acc 3b3f ac04 35bf
000002c0: 1e3b 853e 91a6 b5be f943 16c0 1c03 abbf
000002d0: eb76 afbe 4978 13be e075 253e b7dc 6c3c
000002e0: c4b5 a8bd 3c00 593a bbcb 533f 0819 1abf
000002f0: 961d 5abf 0775 053d ef17 70bd f4e2 e13d
00000300: 3f28 e1bd ac94 e1bd cb65 dc3e 94d5 e2be
00000310: 764e e03f 9640 3a3f f9b2 92bd 6996 b23d
00000320: 5bd6 883d 2b1e 9e3c 54a9 4bbd 31ce 32bb
00000330: 068e 2bbe 5508 713e bd4a e1bd 0f62 25bd
00000340: 53e6 e3bd d5fe 8abd a36a 02bf 3513 80be
00000350: 88a7 43be 982a 80be 286a 6f40 6e70 46bf
00000360: 558d 953e 631c debd 053d 09be 346d cf3d
00000370: 846a f73c a659 08bd a2ec f23e 17b2 07bf
00000380: 4349 83be 2d21 0b3e f85d 0d3d 2b84 05bd
00000390: 02ef db3e bad5 7b3f 6377 e23d 79a4 db3e
000003a0: a816 103e 1e8e 803f 2d85 e93d ca5f 13c0
000003b0: f3fb d53e a250 dfbb 3d74 4dbe ffb4 95bc
000003c0: 4295 cebe 5764 cd3f 1410 aabe 24bc 46bc
000003d0: 18a7 33be c975 e23d e79a 9a3e 1ab6 d13e
000003e0: c71c d5bc 47cf 7d3d 0dd3 acbe bd05 c23c
000003f0: fa1c 3d3d 3099 153f 4d7f 68be 13ba 90bd

layers.0.bias f4 [128]
-0.1368563 1.5916253 -0.26822436 -1.7014937 1.0208083 0.07878467 1.2808942 0.40633366
0.13573709 -0.414149 -0.39470327 0.49301073 -0.2473128 0.55618024 -0.052260704 -0.52623993
-1.5258627 0.052078053 -1.2627621 -0.13694578 -0.55740786 -0.54726964 -0.30759287 -1.0286657
-0.2145755 0.07794328 -1.0589732 -0.26495606 -1.7424606 0.032941643 -1.4560388 -0.6452554
0.6061787 0.23405862 -1.4976561 0.41747737 -0.71580297 -1.2326528 -0.092016794 -0.7792595
-0.75883895 1.511898 -1.2592031 0.1583686 0.24898173 -0.4803947 0.5879891 1.7442304
0.5239179 -0.41966528 0.13275196 -1.2563071 -1.6507165 -0.25787285 -0.8530174 0.40649113
0.36824596 -0.4233992 0.13262478 -1.2211243 1.0504206 0.36078367 0.032230034 -0.46241748
0.62971395 -1.8098583 -1.0503047 -0.55458 0.041437756 0.48997456 -0.25628605 0.09132215
0.40967646 -1.0409532 1.3968145 -0.093261786 -0.6714372 1.2908162 -0.42475274 1.7137574
0.21354678 -0.72349054 1.0438133 -0.61387175 1.4388931 1.6351718 1.1401628 0.70338285
1.4742477 0.29603714 0.6724023 0.19068061 0.13960023 -0.5134004 -0.8138149 0.3604332
-0.4600898 0.9186356 1.4173774 -0.20445333 -0.46318936 0.18334161 0.32075292 -0.92566156
-0.8788045 -0.77409613 -0.7587667 0.28019923 0.0426405 -1.3279067 -0.9793986 0.20403017
0.077466734 -0.42503688 -0.18105498 0.8899193 -1.0394579 -1.1634206 -0.29995632 0.4807767
1.3060868 0.18869849 0.34589836 -0.87382483 -2.4231007 -0.25939068 0.41423035 0.54459614
00000000: 0f24 0cbe 61ba cb3f b454 89be 8cca d9bf
00000010: d9a9 823f db59 a13d 57f4 a33f f70a d03e
00000020: aafe 0a3e 560b d4be 8c16 cabe e76b fc3e
00000030: 913f 7dbe d461 0e3f 520f 56bd a9b7 06bf
00000040: 784f c3bf cc4f 553d 30a2 a1bf 843b 0cbe
00000050: 48b2 0ebf dd19 0cbf d07c 9dbe 51ab 83bf
00000060: aeb9 5bbe baa0 9f3d 6f8c 87bf 52a8 87be
00000070: f308 dfbf d1ed 063d 7b5f babf 752f 25bf
00000080: 872e 1b3f 10ad 6f3e 32b3 bfbf 98bf d53e
00000090: dd3e 37bf 91c7 9dbf 4d73 bcbd 8d7d 47bf
000000a0: 4543 42bf e085 c13f 912d a1bf 612b 223e
000000b0: 11f5 7e3e 4bf6 f5be 7486 163f f142 df3f
000000c0: 7c1f 063f 5ede d6be 21f0 073e acce a0bf
000000d0: ae4a d3bf e907 84be 595f 5abf 9b1f d03e
000000e0: bc8a bc3e c8c7 d8be cace 073e cd4d 9cbf
000000f0: 2f74 863f a3b8 b83e a403 043d fcc1 ecbe
00000100: ef34 213f 70a9 e7bf 6270 86bf f4f8 0dbf
00000110: a3ba 293d f2dd fa3e ed37 83be 1b07 bb3d
00000120: 1dc1 d13e f43d 85bf d1ca b23f 0900 bfbd
00000130: 4fe3 2bbf 7739 a53f 3179 d9be 675c db3f
00000140: 02ac 5a3e ad36 39bf ad9b 853f b326 1dbf
00000150: a62d b83f 4f4d d13f dbf0 913f e610 343f
00000160: 26b4 bc3f 2e92 973e 8f22 2c3f c741 433e
00000170: 5df3 0e3e 356e 03bf 2c56 50bf b38a b83e
00000180: e490 ebbe b42b 6b3f 9f6c b53f 375c 51be
00000190: 2827 edbe e7bd 3b3e ba39 a43e 28f8 6cbf
000001a0: 55f9 60bf 2a2b 46bf 893e 42bf 4676 8f3e
000001b0: cea7 2e3d d9f8 a9bf deb9 7abf 49ed 503e
000001c0: e1a6 9e3d 6f9e d9be 7a66 39be c0d1 633f
000001d0: f50c 85bf f7ea 94bf e093 99be 5d28 f63e
000001e0: da2d a73f 2d3a 413e 9719 b13e fcb2 5fbf
000001f0: 1514 1bc0 dbce 84be 0016 d43e a76a 0b3f

layers.1.weight f4 [128, 128]
0.53518856 -0.01623347 0.24523157 0.46693859 -0.25773814 -0.32891363 0.20984581 0.034180492
0.088679165 0.507259 0.17620477 1.1531168 0.26892883 0.17647313 -0.25738448 0.19439298
-0.26754147 -0.12608188 -0.061746288 -0.32665536 0.38526526 0.14436385 -0.11265478 0.16511421
-0.05073988 -0.09652287 -0.075863644 -0.23832944 0.050901268 -0.2893087 0.041541375 -0.07859912
-0.25352746 0.078927666 -0.15373972 -0.040253863 -0.57706344 -0.11986638 -0.123961926 -0.39676374
0.3417058 -0.32504535 0.12049482 -0.18337126 -0.03495779 -0.2893911 -0.027618242 0.015423472
0.011983372 0.5226589 -0.11233074 -0.42399356 -0.20498183 0.20468502 0.41359642 0.5967629
0.19273151 0.07851199 0.2601161 0.14356141 0.15198095 -0.25932074 -0.068472214 0.45154282
0.2122619 -0.710819 -0.038575128 -0.052130233 0.029452395 0.83573043 0.44690526 -0.16473421
-0.1454241 0.03574369 -0.20379409 -0.22918656 -0.038263116 0.2366358 0.11149913 0.42726108
0.21170473 -0.042833626 0.1514593 -0.3101001 0.21359351 -0.20002998 -0.27070755 0.046012964
-0.45598695 0.06264384 0.1662261 -0.4102905 -0.43211654 0.20871404 0.20210232 0.45265505
-0.23458973 0.30066538 0.0679504 0.13533846 -0.09697767 -0.32852778 0.055680573 -0.37791413
-0.24506219 -0.09708696 0.25971708 0.17955227 -0.08926471 0.56108373 0.1395782 -0.3087296
-0.13186258 -0.3756484 0.06137687 -0.13961302 0.10710701 0.6173069 -0.19348752 -0.36400914
-0.32623154 0.2331177 -0.3017326 0.373893 0.29828387 -0.17184576 0.34362134 0.031237742
-0.121136405 -0.6799621 -0.16540428 -0.043157324 0.08754529 0.26164135 0.28360662 0.12734014
-0.2518211 0.0064419024 0.0063337153 -0.4297072 0.10602517 0.23198754 -0.016444242 0.51349336
0.49754015 0.14365469 -0.3097943 -0.31901845 0.61461544 0.22176838 -0.1539935 0.13464122
0.20251565 -0.24069904 -0.2557517 0.28052917 -0.60222644 0.042912427 0.31103688 0.09154527
-0.21216315 -0.4465617 -0.006789162 0.14748366 -0.12557587 0.025201397 -0.28800362 0.18329093
-0.008740563 -0.3503518 -0.006246197 -0.4321553 -0.18829903 0.13265547 0.03420911 -0.012674568
0.5099099 0.04750591 -0.049950063 -0.021501735 0.06278825 0.25419277 -0.36092848 -0.17987394
-0.47804937 -0.07777638 -0.007242932 -0.28786108 -0.22263035 -0.21612862 0.28071705 0.26305005
0.37131324 0.1258683 0.10217372 -0.27883554 -0.05247638 -0.10567426 -0.06354963 0.12385709
0.059246168 0.13115636 -0.17654188 0.06705942 0.34534994 0.38281584 0.33142844 -0.768531
0.11632832 -0.2031747 0.30268615 -0.1569454 -0.9748818 -0.24963103 0.180329 0.04494363
-0.21680273 0.22519518 0.13463421 -0.3158626 -0.24147446 -0.54511815 0.3273539 -0.022810176
-0.06201855 -0.11719486 0.08802629 0.022885267 -0.1639614 -0.3585737 0.40836304 0.03341615
-0.4447925 -0.11092751 -0.32160476 -0.1741361 -0.2522431 -0.16833076 0.07557405 0.11160797
-0.331193 -0.28693464 0.13862427 -0.11925555 -0.14915335 0.2396054 -0.4107237 -0.0003136139
-0.45859376 -0.13204497 0.0070336717 -0.013445217 -0.19487058 -0.13380995 0.18817812 -0.08352604
00000000: 1e02 093f 0efc 84bc fc1d 7b3e 9312 ef3e
00000010: 41f6 83be 5e67 a8be d2e1 563e d800 0c3d
00000020: 6c9d b53d badb 013f 066f 343e 5599 933f
00000030: 0ab1 893e 5fb5 343e e6c7 83be f40e 473e
00000040: 32fb 88be 9c1b 01be ade9 7cbd 5f3f a7be
00000050: 7d41 c53e 1ed4 133e 8db7 e6bd b313 293e
00000060: 9fd4 4fbd c8ad c5bd 665e 9bbd a20c 74be
00000070: d97d 503d 4520 94be 4a27 2a3d 93f8 a0bd
00000080: 5ace 81be d4a4 a13d f26d 1dbe 3ce1 24bd
00000090: 6eba 13bf 817c f5bd c0df fdbd 9e24 cbbe
000000a0: 10f4 ae3e 586c a6be fdc5 f63d adc5 3bbe
000000b0: e62f 0fbd 122b 94be a73f e2bc bbb2 7c3c
000000c0: e855 443c f9cc 053f a90d e6bd af15 d9be
000000d0: c2e6 51be f398 513e e9c2 d33e 74c5 183f
000000e0: 695b 453e e5ca a03d f02d 853e c301 133e
000000f0: e5a0 1b3e b0c5 84be 293b 8cbd 9f30 e73e
00000100: 2f5b 593e 3cf8 35bf f400 1ebd 8386 55bd
00000110: 2646 f13c 6ef2 553f c4d0 e43e 16b0 28be
00000120: 0eea 14be fa67 123d 66af 50be e2af 6abe
00000130: c9b9 1cbd a850 723e a859 e43d f7c1 da3e
00000140: 20c9 583e 5072 2fbd 2618 1b3e 71c5 9ebe
00000150: 42b8 5a3e a9d4 4cbe 2e9a 8abe 1778 3c3d
00000160: 1f77 e9be 6a4b 803d 2d37 2a3e 9911 d2be
00000170: 613e ddbe 22b9 553e e9f3 4e3e 67c2 e73e
00000180: 4a38 70be d0f0 993e 9429 8b3d 2a96 0a3e
00000190: 3b9c c6bd cb34 a8be 5011 643d f67d c1be
000001a0: 95f1 7abe 87d5 c6bd a3f9 843e 8ddc 373e
000001b0: 6bd0 b6bd 2fa3 0f3f 96ed 0e3e ce11 9ebe
000001c0: fc06 07be fd54 c0be 5066 7b3d b7f6 0ebe
000001d0: ec5a db3d d307 1e3f 9821 46be 685f babe
000001e0: d207 a7be 68b6 6e3e b27c 9abe e76e bf3e
000001f0: aab8 983e 56f8 2fbe 23ef af3e 4be6 ff3c
00000200: 5d16 f8bd ff11 2ebf bd5f 29be bcc5 30bd
00000210: f24a b33d dbf5 853e e334 913e 7465 023e
00000220: b2ee 80be 9816 d33b 0e8b cf3b 9502 dcbe
00000230: b923 d93d 248e 6d3e 13b6 86bc 4d74 033f
00000240: 95bd fe3e 371a 133e 5c9d 9ebe 6356 a3be
00000250: 7057 1d3f 4017 633e 79b0 1dbe 63df 093e
00000260: 4360 4f3e cf79 76be e3f1 82be 85a1 8f3e
00000270: 832b 1abf f1c4 2f3d 3a40 9f3e 167c bb3d
00000280: 4c41 59be bca3 e4be 9e77 debb f505 173e
00000290: f696 00be 2973 ce3c 3675 93be 9eb0 3b3e
000002a0: 9434 0fbc 5061 b3be e6ac ccbb 7643 ddbe
000002b0: 76d1 40be d6d6 073e da1e 0c3d fea8 4fbc
000002c0: 7589 023f 8f95 423d 7098 4cbd 6824 b0bc
000002d0: 2097 803d 8e25 823e 9ecb b8be e030 38be
000002e0: e3c2 f4be 3949 9fbd 1e56 edbb 8762 93be
000002f0: 36f9 63be d250 5dbe 25ba 8f3e 7fae 863e
00000300: c51c be3e 9fe3 003e 7540 d13d 88c3 8ebe
00000310: 79f1 56bd bf6b d8bd 4f26 82bd c9a8 fd3d
00000320: 1cac 723d da4d 063e 65c7 34be 7356 893d
00000330: b5d1 b03e 7000 c43e fdb0 a93e 73be 44bf
00000340: 8b3d ee3d 070d 50be aef9 9a3e 4cb6 20be
00000350: db91 79bf 479f 7fbe 2aa8 383e d016 383d
00000360: 8901 5ebe 9199 663e 8ddd 093e beb8 a1be
00000370: 1545 77be dd8c 0bbf ee9a a73e 68dc babc
00000380: 2a07 7ebd dc03 f0bd 2147 b43d e279 bb3c
00000390: 7fe5 27be f996 b7be f614 d13e 5fdf 083d
000003a0: d8bb e3be f62d e3bd 61a9 a4be bc50 32be
000003b0: 0226 81be e65e 2cbe 91c6 9a3d b892 e43d
000003c0: 2192 a9be 19e9 92be 85f3 0d3e 413c f4bd
000003d0: a8bb 18be 1e5b 753e 604a d2be 8c6c a4b9
000003e0: cdcc eabe cc36 07be b77a e63b 5449 5cbc
000003f0: 278c 47be 7a05 09be c4b1 403e b30f abbd

layers.1.bias f4 [128]
0.19623578 -0.2715662 0.9377675 0.92887723 -0.036109067 -0.24432728 0.17181613 0.6348921
0.23834334 0.23568138 0.31879264 0.15458001 -0.22929092 0.23327814 0.48495656 0.45313638
0.010223544 -0.006599173 -0.31120685 -0.28896847 -0.011667413 -0.56371063 0.45768914 -0.2971899
-0.54501295 0.150348 0.47242293 0.31742904 0.720572 0.2625342 0.3183161 0.13617778
0.5340702 -0.5165524 -0.08578088 -0.5296821 -0.11310828 0.27561155 -0.37554318 0.22151889
-0.24218254 0.052433982 -0.22049536 -0.26467603 0.02889857 -0.16213265 0.5093485 0.43295723
-0.05679816 0.31069645 -0.10962353 0.24431863 -0.29426518 0.03703214 0.22741216 0.02282383
0.23157227 -0.14506753 0.27474028 -0.6258307 -0.32401344 0.1245831 -0.35747346 -0.011180141
0.11305575 0.15402666 0.17525323 0.11984862 0.1314721 0.8626051 -0.34045145 0.9570341
0.04714128 0.2551947 0.2608597 -0.4167147 -0.09708037 -0.24719094 -0.16742411 -0.08191709
-0.020417707 0.83126897 0.052370988 -0.56119496 0.04668738 -0.014689202 0.08278987 -0.07135416
-0.25267842 -0.7769208 -0.87103343 -0.62502265 -0.014416757 0.78588 -0.39392292 0.28628165
0.12658456 -0.021849645 1.316763 -0.07357512 -0.08473768 -0.19810556 0.6553933 0.30489874
-0.032161154 -0.19823898 0.5139121 0.119504265 0.034676097 0.12981851 0.553566 -0.23535675
0.2330619 0.9657995 -0.26457956 0.28350785 -0.05272211 0.25951323 0.33490968 0.37697408
-0.21421829 -0.2502168 -0.18798381 -0.10810722 0.07087039 0.69458646 0.020662196 -0.093224004
00000000: 08f2 483e ba0a 8bbe 8811 703f e6ca 6d3f
00000010: 1ae7 13bd ee30 7abe 91f0 2f3e 4a88 223f
00000020: 4710 743e 7656 713e ca38 a33e 394a 1e3e
00000030: 3dcb 6abe 77e0 6e3e 3a4c f83e 7e01 e83e
00000040: a780 273c e03d d8bb 8156 9fbe adf3 93be
00000050: ad28 3fbc 574f 10bf 3b56 ea3e 4629 98be
00000060: f885 0bbf d3f4 193e 6be1 f13e 0f86 a23e
00000070: 6877 383f e26a 863e 54fa a23e 3072 0b3e
00000080: d3b8 083f c73c 04bf e3ad afbd 3f99 07bf
00000090: 50a5 e7bd f51c 8d3e 3247 c0be d9d5 623e
000000a0: b3fe 77be 04c5 563d 89c9 61be 9e83 87be
000000b0: b2bc ec3c 1a06 26be aa64 023f 92ac dd3e
000000c0: 30a5 68bd 9b13 9f3e 4d82 e0bd aa2e 7a3e
000000d0: eda9 96be 03af 173d bcde 683e 0af9 ba3c
000000e0: 4821 6d3e 958c 14be c2aa 8c3e 7136 20bf
000000f0: 17e5 a5be 6d25 ff3d c306 b7be e92c 37bc
00000100: c689 e73d 2ab9 1d3e 9575 333e 3173 f53d
00000110: 9fa0 063e b0d3 5c3f a74f aebe 3000 753f
00000120: 3717 413d e1a8 823e 678f 853e a15b d5be
00000130: 13d2 c6bd 9f1f 7dbe 3a71 2bbe 26c4 a7bd
00000140: 0943 a7bc 0bce 543f f682 563d 79aa 0fbf
00000150: 443b 3f3d fbaa 70bc bc8d a93d 2122 92bd
00000160: 115f 81be 48e4 46bf 0cfc 5ebf 7c01 20bf
00000170: 4334 6cbc 6f2f 493f 44b0 c9be 8293 923e
00000180: 629f 013e 07fe b2bc b18b a83f 8dae 96bd
00000190: f38a adbd 2fdc 4abe dbc7 273f b01b 9c3e
000001a0: 6abb 03bd 29ff 4abe be8f 033f a7be f43d
000001b0: 8608 0e3d 25ef 043e 80b6 0d3f 5c01 71be
000001c0: c7a7 6e3e a33e 773f f976 87be f127 913e
000001d0: 24f3 57bd ebde 843e 4879 ab3e bf02 c13e
000001e0: 0a5c 5bbe 6b1c 80be d47e 40be 5167 ddbd
000001f0: 7f24 913d 6bd0 313f c443 a93c 3aec bebd

value_stream.weight f4 [1, 128]
-0.25200525 0.18319775 0.82122505 1.0009047 0.4203872 0.27917197 0.061719105 -0.2514837
-0.25398016 -0.46045583 -0.3660199 0.13101736 -0.13519323 -0.122736506 -0.2558466 -0.29733878
-0.14475359 -0.23135172 -0.45647293 -0.23804756 0.22180434 0.36994502 -0.24804349 0.1358517
-0.31066048 -0.60441476 -0.2374298 -0.20378801 -0.4359789 0.25385016 -0.17860238 -0.3061895
-0.39115423 -0.90630186 -0.25001416 0.26909077 0.14652078 0.2061925 0.081543654 0.20049502
0.18868844 -0.24019301 0.21963817 0.25957352 -0.13844097 0.24509895 -0.16265681 -0.21160822
-0.38089758 -0.26199424 0.1421893 -0.115346946 -0.16522849 -0.17171228 -0.23065984 0.22702913
-0.22362015 -0.1786639 -0.106154494 -0.54849875 1.0074449 -0.24953043 0.18427883 -0.43145886
0.2272434 0.40037715 -0.24481434 -0.3409684 -0.19319521 -0.3485482 -0.08138535 -1.4159477
0.22859846 -0.23537706 -0.20870864 0.48685285 0.23670192 0.25454515 0.46668306 1.1660256
0.33534932 0.5452216 -0.3984386 0.41411054 0.7968061 -0.24658401 -0.1962773 -0.74725044
0.13544226 -0.21328932 -0.3629272 0.12659608 0.24032661 0.3089522 -0.26468974 -0.19538613
-0.15054935 0.18411428 0.56996584 0.53272593 0.3482169 0.17429557 -0.47044548 -0.3642614
0.22305954 -0.2734746 -0.21374105 -0.54320407 0.42584008 -0.17484453 -0.48288152 -0.40493658
-0.5717889 -1.0339302 -0.35016945 0.17665891 1.0165575 -0.39345762 -0.22591051 0.27824667
0.7725414 0.2393576 0.10485254 -0.1818769 0.45318824 -0.73282725 -0.15373112 -0.373876
00000000: d506 81be 3198 3b3e ce3b 523f a51d 803f
00000010: fe3c d73e a1ef 8e3e 2ccd 7c3d 79c2 80be
00000020: b009 82be dec0 ebbe f666 bbbe 6a29 063e
00000030: 1870 0abe 475d fbbd 53fe 82be ca3c 98be
00000040: 493a 14be 77e7 6cbe d2b6 e9be bdc2 73be
00000050: ad20 633e 6f69 bd3e 1dff 7dbe b51c 0b3e
00000060: e40e 9fbe edba 1abf cc20 73be cead 50be
00000070: a038 dfbe a6f8 813e 8be3 36be dfc4 9cbe
00000080: 5e45 c8be 6603 68bf db01 80be 44c6 893e
00000090: 8b09 163e 2024 533e 5c00 a73d 914e 4d3e
000000a0: 8b37 413e 28f5 75be d4e8 603e d2e6 843e
000000b0: 78c3 0dbe 38fb 7a3e 828f 26be d3af 58be
000000c0: 0205 c3be 1c24 86be 129a 113e 053b ecbd
000000d0: a831 29be 58d5 2fbe 1832 6cbe 537a 683e
000000e0: aefc 64be abf3 36be 8767 d9bd 6a6a 0cbf
000000f0: f4f3 803f e884 7fbe 97b3 3c3e 2de8 dcbe
00000100: 7eb2 683e 3cfe cc3e 9cb0 7abe 6993 aebe
00000110: f7d4 45be e974 b2be 5dad a6bd c63d b5bf
00000120: b715 6a3e af06 71be b8b7 55be c744 f93e
00000130: fd61 723e be53 823e 15f1 ee3e 5440 953f
00000140: e8b2 ab3e a593 0b3f 2500 ccbe 4c06 d43e
00000150: 7cfb 4b3f 8580 7cbe ebfc 48be ce4b 3fbf
00000160: 60b1 0a3e 8468 5abe 98d1 b9be 67a2 013e
00000170: 2e18 763e fc2e 9e3e 6a85 87be 4d13 48be
00000180: 9c29 1abe 7488 3c3e 48e9 113f ba60 083f
00000190: 7c49 b23e 8a7a 323e 3bde f0be 7880 babe
000001a0: b869 643e dd04 8cbe efde 5abe 6c0f 0bbf
000001b0: b607 da3e 720a 33be 3f3c f7be d953 cfbe
000001c0: c260 12bf d357 84bf 6949 b3be 13e6 343e
000001d0: 8e1e 823f 4773 c9be 1655 67be 5976 8e3e
000001e0: 46c5 453f 291a 753e eebc d63d f03d 3abe
000001f0: 4a08 e83e 919a 3bbf b16b 1dbe ad6c bfbe

advantage_stream.weight f4 [7, 128]
-0.06677694 0.024199707 -0.09016722 0.36853555 -0.017977942 0.07026636 -0.000983089 -0.052232638
-0.038478736 -0.10250489 0.0048433496 0.0622829 -0.0045817574 0.026447836 -0.018888952 -0.055177
0.036339216 -0.06399582 -0.036971956 0.022495093 0.08620875 0.025779303 -0.00026350102 0.06928624
-0.018145557 -0.12614612 0.006614933 -0.10381285 -0.13851675 -0.037916 -0.09762708 -0.072539575
-0.12433292 0.034062684 -0.0073875287 0.09342897 0.027002463 -0.13506351 0.07685337 -0.037562087
-0.007957488 -0.013653731 0.033016745 0.07149152 0.0035489604 0.01089533 0.020220472 -0.023018345
-0.08145815 -0.13648367 0.07908876 -0.023589546 -0.008271559 -0.04403485 -0.048095264 0.05229286
-0.027020197 -0.010562195 0.0063656433 0.00078342523 -0.08242821 -0.0494707 -0.011055181 0.021444622
0.059556328 0.2094064 -0.13806438 -0.17537372 -0.006260265 -0.08204016 -0.07265354 -0.38867024
0.040809795 0.007854399 0.031211931 -0.038214028 -0.0009298164 0.0877143 0.05773006 0.13873202
-0.011459783 8.64289e-05 0.035386242 0.20640619 0.14038625 0.023967631 -0.029899254 -0.08587705
0.02983085 -0.04220146 -0.11108294 0.0013547824 -0.013936808 0.12420946 -0.043951128 -0.07838633
0.023745352 0.0023404532 -0.055932235 0.08698415 0.08533706 -0.01956721 -0.0076801823 -0.023920536
0.050478697 -0.03740805 -0.05729079 -0.13611984 0.007960932 -0.067028575 -0.019546293 -0.17848797
-0.11312946 -0.15677664 -0.052581377 0.06770542 0.054573476 -0.010774095 0.024279201 -0.08416773
0.076099485 0.024682363 -0.023449382 -0.010232438 0.14769602 -0.037889943 -0.021991905 0.069521934
-0.014343894 -0.004453113 0.029609943 0.022898337 -0.060020152 -0.07177068 -0.02578516 -0.011010645
-0.01030199 -0.023686908 0.045975685 -0.010393475 -0.03482992 -0.0075393612 0.034596566 0.051258717
0.011347275 -0.01358039 0.04405603 0.020920148 0.007717364 -0.023646794 0.10045728 -0.014942372
0.02296504 -0.032285713 0.021574588 0.007991469 0.014156856 -0.0014280434 0.019712375 -0.033608526
-0.013820618 -0.28325012 -0.11625912 0.032880776 0.044562142 0.04774652 -0.035171878 -0.027893206
0.041578848 -0.017907638 0.038319424 0.046776395 -0.002348874 0.038407777 -0.01467523 -0.009916255
-0.015807314 0.056476627 0.013414484 -0.03198837 0.026290568 0.03660685 0.018774752 -0.014237019
0.009689786 0.011287356 -0.011337944 -0.019451449 0.38143587 0.044501685 -0.00685463 -0.031970605
0.025721176 -0.02513156 0.027019227 0.03451683 0.06769014 0.030794634 0.014353716 0.06404352
0.01285501 -0.015663534 -0.013787978 0.04230733 0.049773328 0.017905125 -0.025904736 0.016563406
0.031930495 0.004506775 -0.04901619 -0.054766916 -0.085803695 0.025115652 0.038882796 -0.0077817673
-0.0011283493 0.044551168 0.0031289698 0.045730244 0.0053885365 0.022554222 0.024708027 0.016346661
-0.002444894 -0.008239721 0.053008005 0.016455706 -0.005945983 0.013878346 -0.061164916 -0.0071114795
-0.014840842 -0.060888976 0.0017600075 0.04623748 0.020969156 -0.019011192 -0.0012642702 0.015854502
0.004146745 -0.07969554 0.01252366 -0.0052237012 -0.090778366 -0.017386572 -0.04250368 -0.012635376
-0.03730141 -0.027978616 -0.017023519 -0.011472154 -0.0042100395 0.012354551 -0.04015897 0.013766271
00000000: 59c2 88bd 773e c63c 97a9 b8bd b1b0 bc3e
00000010: 7a46 93bc cfe7 8f3d feda 80ba e4f1 55bd
00000020: e19b 1dbd 15ee d1bd f6b4 9e3b 5b1c 7f3d
00000030: 9122 96bb 22a9 d83c 01bd 9abc 4701 62bd
00000040: 6ed8 143d 3e10 83bd e86f 17bd a147 b83c
00000050: 378e b03d 1e2f d33c 8226 8ab9 f2e5 8d3d
00000060: fea5 94bc 732c 01be 14c2 d83b d59b d4bd
00000070: 56d7 0dbe cf4d 1bbd b5f0 c7bd a18f 94bd
00000080: 42a2 febd 5085 0b3d 1513 f2bb b057 bf3d
00000090: 4534 dd3c 174e 0abe 4d65 9d3d b4da 19bd
000000a0: 2060 02bc e6b3 5fbc 913c 073d 256a 923d
000000b0: ad95 683b 5482 323c 67a5 a53c f890 bcbc
000000c0: 88d3 a6bd 60c2 0bbe 4af9 a13d dd3e c1bc
000000d0: 6f85 07bc e35d 34bd 8aff 44bd 0a31 563d
000000e0: 7659 ddbc 0f0d 2dbc e396 d03b c75e 4d3a
000000f0: 1fd0 a8bd caa1 4abd ca20 35bc a2ac af3c
00000100: 56f1 733d a26e 563e c060 0dbe 2b95 33be
00000110: e922 cdbb ac04 a8bd 61cb 94bd c9ff c6be
00000120: 2c28 273d bdaf 003c 2ab0 ff3c 5086 1cbd
00000130: ecbe 73ba 8ea3 b33d 5b76 6c3d c40f 0e3e
00000140: d0c1 3bbc 2a41 b538 2af1 103d 255c 533e
00000150: 6ac1 0f3e c457 c43c 48ef f4bc 4fe0 afbd
00000160: d45f f43c 70db 2cbd 747f e3bd f492 b13a
00000170: 3657 64bc 8861 fe3d 1906 34bd 0389 a0bd
00000180: 9d85 c23c 4a62 193b 3319 65bd bf24 b23d
00000190: 32c5 ae3d 6a4b a0bc 0aaa fbbb 00f5 c3bc
000001a0: c0c2 4e3d 2f39 19bd bfa9 6abd 0063 0bbe
000001b0: 926e 023c 4746 89bd 8c1f a0bc 8dc5 36be
000001c0: 6bb0 e7bd 0e8a 20be 925f 57bd 24a9 8a3d
000001d0: 7088 5f3d d485 30bc 2de5 c63c 2160 acbd
000001e0: 0cda 9b3d ab32 ca3c eb18 c0bc f5a5 27bc
000001f0: a03d 173e 7c32 1bbd 5e28 b4bc 8461 8e3d
00000200: a702 6bbc 6beb 91bb 8d90 f23c 4b95 bb3c
00000210: b1d7 75bd 82fc 92bd 663b d3bc fe65 34bc
00000220: aec9 28bc 0c0b c2bc 0051 3c3d 6549 2abc
00000230: d1a9 0ebd bf0c f7bb 21b5 0d3d a9f4 513d
00000240: ece9 393c 4980 5ebc 1974 343d bb60 ab3c
00000250: f1e1 fc3b ecb6 c1bc 8cbc cd3d dad0 74bc
00000260: 2e21 bc3c 063e 04bd 31bd b03c a7ee 023c
00000270: 28f2 673c 2f2d bbba d97b a13c 18a9 09bd
00000280: e06f 62bc 2906 91be 4319 eebd fead 063d
00000290: cb86 363d db91 433d 6310 10bd 4b80 e4bc
000002a0: 954e 2a3d 0ab3 92bc d4f4 1c3d 9b98 3f3d
000002b0: 91ef 19bb 7951 1d3d 6070 70bc ca77 22bc
000002c0: 577e 81bc 0954 673d 6dc8 5b3c 3d06 03bd
000002d0: 515f d73c 10f1 153d 82cd 993c 6342 69bc
000002e0: e8c1 1e3c 9aee 383c c9c2 39bc a558 9fbc
000002f0: 904b c33e 6647 363d ce9c e0bb 9cf3 02bd
00000300: 37b5 d23c b4e0 cdbc 6d57 dd3c 8561 0d3d
00000310: 21a1 8a3d 0745 fc3c d92b 6b3c 4029 833d
00000320: d29d 523c d050 80bc f9e6 61bc 734a 2d3d
00000330: 1edf 4b3d c5ad 923c 2b36 d4bc fbaf 873c
00000340: 8dc9 023d 92ad 933b 33c5 48bd 4653 60bd
00000350: d9b9 afbd 57bf cd3c 9143 1f3d 32fe febb
00000360: 1fe5 93ba 497b 363d 670f 4d3b a34f 3b3d
00000370: 5292 b03b a2c3 b83c 7d68 ca3c 6fe9 853c
00000380: 843a 20bb e5ff 06bc ec1e 593d 1ece 863c
00000390: 85d6 c2bb 0162 633c 1088 7abd 6a07 e9bb
000003a0: 0127 73bc b866 79bd 0db0 e63a 8363 3d3d
000003b0: 82c7 ab3c 5cbd 9bbc deb5 a5ba 4de1 813c
000003c0: 6be1 873b 6a37 a3bd 0a30 4d3c 952b abbb
000003d0: 02ea b9bd 496e 8ebc 5718 2ebd 9c04 4fbc
000003e0: 5dc9 18bd 6933 e5bc e874 8bbc b4f5 3bbc
000003f0: 5ff4 89bb be6a 4a3c bb7d 24bd ed8b 613c

advantage_stream.bias f4 [7]
0.23813981 0.029927725 -0.12206228 -0.1474345 -0.042355586 0.04494763 0.03132787
00000000: ecda 733e fd2a f53c cafb f9bd 12f9 16be
00000010: 0d7d 2dbd 021b 383d a751 003d
