src/weights/Double_DQN_2/weights/episode_1050.pth (torch, 915534 bytes, 18 tensors)

layers.0.mu_weight f4 [256, 18]
-0.25127277 0.23410363 -0.12261945 0.015306606 0.0077641085 0.0042229337 0.0443423 0.11353054
-0.21374524 0.004295411 -0.004506631 -0.0032533451 0.93540925 -0.79450595 0.6838975 -0.6773876
-0.087418854 -1.8168846 0.10420345 0.09490336 0.0044645085 -0.007429302 -0.045208063 0.045790713
0.059427842 -0.49132234 0.8093579 0.053784765 -0.031162601 -0.026536461 -0.2733237 -0.53160244
-0.03509534 -0.3543099 0.033852983 -0.13533132 0.55314726 0.27232707 0.021787556 0.055762272
0.00019582546 -0.016407851 0.1845806 -0.31184134 0.56608635 -0.023728587 0.023500992 0.049816478
-1.0784676 -0.48225188 -0.15629631 -0.08268002 -0.064080685 -0.8892698 0.05508475 -0.826013
1.6546369 -0.16477478 -0.28257817 0.3456311 -0.8285351 -0.019432466 0.081139214 -0.28892767
0.040797643 0.07784224 -0.40116054 -0.13484229 -0.043909423 -0.16059723 0.06435918 -0.2848955
0.818263 1.030204 -0.45664397 0.22659424 -0.21838601 0.0432653 -0.33484483 -0.49992552
-0.079974025 0.15460356 0.058854185 -0.10613731 0.292647 0.48289147 0.06433936 -0.036941066
0.06386455 0.07220738 0.06405814 2.2185688 -0.3630387 -0.020131644 -0.048230954 0.058432616
-0.32695284 0.1369784 0.10352506 0.036626853 0.01038962 0.000362135 -1.4946551 1.5255768
-0.3563179 0.3911811 0.013542152 -0.98607075 0.2592525 0.35157543 -0.03037835 -0.017352024
-0.030401705 0.007370318 -0.24215564 -0.06935625 -0.07329555 0.049267862 0.026057854 -0.08046927
1.4877489 -1.3605943 0.12731375 -0.10665915 -0.44610673 -0.04760285 0.09420705 -0.9586785
-0.46379608 -0.085195646 -0.20344171 -0.039627004 -1.2489622 -1.2490928 0.041249115 -0.3052759
-0.1508686 -0.04986497 0.17365731 -0.68421865 0.07994778 -0.03983406 0.24093348 -0.20494996
0.16979462 -0.23798111 1.2915311 -0.23400515 0.009086741 -0.07041283 -0.9401426 0.6974527
0.3061035 -0.38088748 -0.06282948 -0.2495256 -0.630041 -1.0822525 -0.0010309605 -0.17150079
-0.23568512 0.024041422 0.5748705 -0.18237804 -0.019599369 -0.18515 -0.040124953 -0.08423592
-1.1614975 1.9744018 -0.07140732 0.09301372 0.017819237 -0.10886087 1.0580522 0.04229785
0.083855 0.105634935 -0.49485928 -0.08761742 0.30007085 -0.22471602 -0.091970034 0.044461183
-0.02727951 0.034077268 -0.16938847 -0.354825 -0.058718227 0.030578328 0.079153575 -0.015733544
1.1928627 0.55375886 0.4652378 -0.6978743 -1.2129917 -0.25849876 0.16121857 0.06127016
0.023113748 0.013159274 -0.0043920185 0.01119377 -0.0050061396 -0.015264197 -0.01911425 -0.027627248
0.0003032687 -0.015941307 0.27351454 -0.03977376 1.2558682 -0.012598934 0.30855092 -2.091974
0.95971686 0.46639806 -0.88620186 -0.023456236 -0.15820915 -0.18461773 0.5733619 -0.06361114
-0.332677 -0.39954153 0.1874742 -0.054532427 0.15852396 0.008479884 0.05834379 0.018787988
-1.0406555 -0.12011333 -0.20358112 -0.61545986 0.18341817 0.06138831 -0.07894572 0.014847799
-1.1944014 0.3614415 0.29371703 -0.36972997 0.032358076 0.22223195 0.91812676 1.364144
0.043495018 0.0784628 -1.2955124 -0.387669 0.35145026 -0.04926097 -0.16230577 0.023278965
00000000: d3a6 80be ddb8 6f3e e81f fbbd 8fc8 7a3c
00000010: 106a fe3b 8960 8a3b 46a0 353d b382 e83d
00000020: 08e0 5abe 85c0 8c3b 5cac 93bb 1336 55bb
00000030: fb76 6f3f be64 4bbf e813 2f3f 4669 2dbf
00000040: a808 b3bd ad8f e8bf 9e68 d53d b15c c23d
00000050: 034b 923b 8171 f3bb 172c 39bd 0b8f 3b3d
00000060: 9c6a 733d 9a8e fbbe 1432 4f3f 6a4d 5c3d
00000070: b648 ffbc fe62 d9bc 16f1 8bbe 1917 08bf
00000080: 22c0 0fbd 1b68 b5be 6da9 0a3d 4b94 0abe
00000090: 0f9b 0d3f 746e 8b3e d17b b23c fb66 643d
000000a0: 7f56 4d39 c269 86bc b202 3d3e aba9 9fbe
000000b0: 09eb 103f 7462 c2bc 2785 c03c 5d0c 4c3d
000000c0: 3a0b 8abf b8e9 f6be 240c 20be 2454 a9bd
000000d0: bc3c 83bd 30a7 63bf 8ca0 613d 9775 53bf
000000e0: 24cb d33f b8ba 28be 16ae 90be 8ff6 b03e
000000f0: e01a 54bf d630 9fbc 512c a63d 54ee 93be
00000100: 6e1b 273d c16b 9f3d ea64 cdbe 1914 0abe
00000110: 5eda 33bd 9a73 24be bfce 833d d3dd 91be
00000120: af79 513f badd 833f 3dcd e9be 5208 683e
00000130: 95a0 5fbe f536 313d c870 abbe 3df6 ffbe
00000140: 6cc9 a3bd 6550 1e3e 1611 713d 855e d9bd
00000150: d4d5 953e 8d3d f73e 5bc4 833d 844f 17bd
00000160: 6bcb 823d 76e1 933d ea30 833d 08fd 0d40
00000170: 35e0 b9be 1eeb a4bc d28d 45bd 0a57 6f3d
00000180: 5d66 a7be 1144 0c3e f204 d43d 0a06 163d
00000190: 3a39 2a3c f0dc bd39 dc50 bfbf 1a46 c33f
000001a0: 4d6f b6be e448 c83e e7df 5d3c 226f 7cbf
000001b0: bebc 843e b201 b43e 04dc f8bc d525 8ebc
000001c0: ff0c f9bc b582 f13b a6f7 77be a60a 8ebd
000001d0: fa1b 96bd 19cd 493d 4877 d53c 13cd a4bd
000001e0: 8e6e be3f f427 aebf 895e 023e 1d70 dabd
000001f0: 1a68 e4be 35fb 42bd a0ef c03d f46b 75bf
00000200: ae76 edbe 0e7b aebd 0653 50be ed4f 22bd
00000210: fedd 9fbf 46e2 9fbf d5f4 283d 1f4d 9cbe
00000220: 4c7d 1abe 363f 4cbd 39d3 313e f428 2fbf
00000230: a9bb a33d 0a29 23bd 44b7 763e 67de 51be
00000240: a4de 2d3e 52b1 73be e450 a53f 0c9f 6fbe
00000250: 8ee0 143c 9a34 90bd 2fad 70bf 438c 323f
00000260: 99b9 9c3e af03 c3be beac 80bd a483 7fbe
00000270: 5e4a 21bf 4087 8abf 4b21 87ba e79d 2fbe
00000280: 7157 71be 84f2 c43c b72a 133f 4fc1 3abe
00000290: db8e a0bc f697 3dbe 105a 24bd e283 acbd
000002a0: f3ab 94bf 33b9 fc3f 003e 92bd fa7d be3d
000002b0: a6f9 913c 73f2 debd 416e 873f 8340 2d3d
000002c0: 2cbc ab3d 2157 d83d 325e fdbe c370 b3bd
000002d0: e3a2 993e f51b 66be c95a bcbd ee1c 363d
000002e0: 4779 dfbc 9b94 0b3d 2c74 2dbe 9fab b5be
000002f0: 8682 70bd 677f fa3c 451b a23d a2e3 80bc
00000300: baaf 983f 24c3 0d3f a633 ee3e e4a7 32bf
00000310: 5043 9bbf f359 84be 7b16 253e 6bf6 7a3d
00000320: 0b59 bd3c ff99 573c ecea 8fbb 1366 373c
00000330: 8b0a a4bb af16 7abc 7d95 9cbc 8a52 e2bc
00000340: 0900 9f39 5897 82bc 190a 8c3e cfe9 22bd
00000350: 4ac0 a03f c26b 4ebc 63fa 9d3e e7e2 05c0
00000360: 01b0 753f bacb ee3e 20de 62bf 4b27 c0bc
00000370: 9401 22be 6e0c 3dbe d8c7 123f 8f46 82bd
00000380: a454 aabe b590 ccbe 3df9 3f3e 655d 5fbd
00000390: 1b54 223e 36ef 0a3c e6f9 6e3d 44e9 993c
000003a0: 3334 85bf fafd f5bd 9277 50be c78e 1dbf
000003b0: f9d1 3b3e 4f72 7b3d 4bae a1bd 2f44 733c
000003c0: 25e2 98bf dc0e b93e 1462 963e 3f4d bdbe
000003d0: e789 043d c690 633e 5b0a 6b3f 459c ae3f
000003e0: d527 323d 1bb1 a03d 5ad3 a5bf 8d7c c6be
000003f0: 4af1 b33e dfc5 49bd 7c33 26be 87b3 be3c

layers.0.mu_bias f4 [256]
0.6142144 1.2282696 0.122738615 -0.47024944 -0.14502102 -1.4504958 -1.0999517 -0.29191288
0.60932446 0.61180574 0.47476554 1.3234581 -0.9204743 -0.42604432 0.07452252 1.0905461
-1.0521866 -1.8455169 -0.69783723 -0.69240934 -1.3281716 -1.9477462 -0.51428723 -1.4894532
-0.4246273 -1.0740354 -0.6974268 -0.12454068 -0.2119089 -0.7307073 -1.2359035 -0.4022154
-2.5803893 -0.7743706 -0.030597031 0.5004329 -0.12685464 -0.6679814 -2.438427 -1.1716262
0.37628216 -1.1716603 0.2730715 1.4153172 -1.7352443 -0.44031256 -1.5070094 -0.85329735
0.19518101 -0.37418583 -0.68782145 -0.7465488 -1.4302182 0.020659521 -1.1839633 0.53191316
-0.7790819 -1.6467459 -0.7446408 -1.7948623 -0.16702217 -0.61108446 0.27210078 -0.35515168
-1.4250171 0.5870973 -0.21490662 0.13357805 -0.24152075 -0.77550346 -0.64853215 0.10284733
-2.1302433 -3.3408844 -0.24741639 -0.44905117 -1.0725327 -0.8887903 -0.27341864 -0.95234776
-0.5930053 -0.1511343 -1.949545 -1.8081707 -0.30014747 1.083232 0.51508826 -0.71144134
-0.8954914 -3.1696897 -1.3397992 -3.086336 -0.4425448 0.111220166 -0.21118124 0.7022159
0.39961094 0.9777309 -1.1546596 0.60356134 -1.8936682 -1.6388019 -1.3483512 0.6400946
0.051777873 0.54279846 -0.8199551 -0.3848692 0.6523255 -0.99062103 -1.3422836 -1.8167232
0.76226294 -0.7107598 -1.556131 -0.327514 0.708277 -0.97115684 -1.2981577 -1.5041728
-0.32340398 1.0708218 -1.2488257 -1.3903594 -0.1499132 -0.86680764 -2.022374 0.3569222
-1.0444471 -1.3772658 -0.23526777 -1.8645726 0.50837916 1.3320379 -1.1799388 0.91069025
0.35813957 -0.20640248 -0.7901464 -1.2641819 0.15797482 -0.71919847 0.7269235 -1.2284971
1.37757 -1.5128208 0.31097096 -1.1684233 -1.1617262 0.38032985 0.522835 -0.71891725
0.9042586 0.053648084 0.13133943 -0.2091996 -0.21121186 -1.4313291 -0.72861284 -0.41370922
-1.8666509 -0.2791369 -0.8869118 -0.88075835 -0.2768533 0.85529125 -0.74205244 0.6203122
0.08158897 0.1903072 0.87012357 -1.357379 -0.37293932 0.22707713 0.16398674 -1.6087704
-0.44974294 -1.1533102 0.9753817 -0.040240213 0.49683818 -0.77405256 0.7315183 -2.0920112
-0.8243593 -0.6802887 0.25739837 -1.3622644 -0.20458376 -0.40171853 0.7516926 -1.6602362
-0.68661374 -0.45397374 -1.3800081 0.8703813 -0.3400483 -0.95220256 0.9717565 -0.6937072
1.4914517 0.30964786 0.78619015 -0.8636343 -1.3195595 0.095604405 -1.0788713 -0.90085846
-0.7544234 -0.70448697 -1.5534717 -1.2445875 0.152085 0.9061287 0.047360867 -0.97298723
-1.3935808 -0.23732021 -0.41557044 0.025480863 -0.3938693 -3.2857423 -1.2977271 -0.59648186
-1.6344836 0.25714833 -0.37796086 -0.63614225 -0.6748969 -0.073968396 -0.7907246 -0.77008843
0.65424204 -0.98115253 0.43265292 0.09998606 0.92404294 0.652671 -1.5705594 -0.5271372
-0.65070236 -2.2170103 0.14737171 0.30780864 -1.9726659 -0.15880917 -1.185671 -0.23605303
-1.4632087 -0.55732805 0.98440933 -0.8139563 1.3427043 0.0019313795 -0.060683727 0.046531778
00000000: 283d 1d3f f037 9d3f 625e fb3d 89c4 f0be
00000010: 6480 14be d9a9 b9bf 38cb 8cbf 9b75 95be
00000020: b0fc 1b3f 4d9f 1c3f 7814 f33e 1367 a93f
00000030: 34a4 6bbf 7b22 dabe 439f 983d 0497 8b3f
00000040: 0dae 86bf e639 ecbf 76a5 32bf bd41 31bf
00000050: 8701 aabf bf4f f9bf 54a8 03bf 67a6 bebf
00000060: c068 d9be fe79 89bf 908a 32bf 2f0f ffbd
00000070: a6fe 58be a20f 3bbf 1632 9ebf 2def cdbe
00000080: 1925 25c0 273d 46bf a0a6 fabc 5f1c 003f
00000090: 2fe6 01be d400 2bbf 300f 1cc0 d9f7 95bf
000000a0: 0ea8 c03e f7f8 95bf 07d0 8b3e 1d29 b53f
000000b0: 7c1c debf a670 e1be afe5 c0bf b271 5abf
000000c0: 88dd 473e 4995 bfbe 1115 30bf d21d 3fbf
000000d0: 6411 b7bf 283e a93c 1c8c 97bf 762b 083f
000000e0: e971 47bf 92c8 d2bf c8a0 3ebf 0cbe e5bf
000000f0: dc07 2bbe 0870 1cbf cb50 8b3e 71d6 b5be
00000100: f666 b6bf 024c 163f 7b10 5cbe afc8 083e
00000110: 3751 77be 6587 46bf 3406 26bf 9fa1 d23d
00000120: e855 08c0 0dd1 55c0 b95a 7dbe 09ea e5be
00000130: c048 89bf c387 63bf 87fd 8bbe 10cd 73bf
00000140: 32cf 17bf f3c2 1abe b18a f9bf 2372 e7bf
00000150: eeac 99be 59a7 8a3f d3dc 033f 0521 36bf
00000160: ed3e 65bf 32dc 4ac0 8a7e abbf 8786 45c0
00000170: 3b95 e2be 66c7 e33d e53f 58be 6cc4 333f
00000180: ce99 cc3e 924c 7a3f e3cb 93bf ff82 1a3f
00000190: b863 f2bf 43c4 d1bf c696 acbf 3ddd 233f
000001a0: 0915 543d d7f4 0a3f 94e8 51bf 930d c5be
000001b0: cefe 263f 5799 7dbf f3cf abbf 638a e8bf
000001c0: aa23 433f 5bf4 35bf 4d2f c7bf eaaf a7be
000001d0: a451 353f bc9d 78bf 082a a6bf bc88 c0bf
000001e0: 3595 a5be b010 893f 85d9 9fbf 4cf7 b1bf
000001f0: d982 19be 1be7 5dbf 936e 01c0 82be b63e
00000200: 71b0 85bf 3f4a b0bf 09ea 70be 51aa eebf
00000210: 2325 023f 3880 aa3f 3c08 97bf ff22 693f
00000220: 125e b73e 2c5b 53be 0947 4abf b6d0 a1bf
00000230: 27c4 213e 641d 38bf a917 3a3f 653f 9dbf
00000240: 3754 b03f 1da4 c1bf 9637 9f3e e58e 95bf
00000250: 72b3 94bf 98ba c23e 84d8 053f f60a 38bf
00000260: 7e7d 673f 18be 5b3d d87d 063e 6c38 56be
00000270: ec47 58be cb35 b7bf 5f86 3abf b2d1 d3be
00000280: 6bee eebf 08eb 8ebe a70c 63bf 6179 61bf
00000290: b7bf 8dbe 5ef4 5a3f 26f7 3dbf c8cc 1e3f
000002a0: 1e18 a73d e4df 423e 6bc0 5e3f 98be adbf
000002b0: e7f1 bebe e886 683e 24ec 273e 30ec cdbf
000002c0: b544 e6be ab9f 93bf 9db2 793f ecd2 24bd
000002d0: 9361 fe3e 4f28 46bf c944 3b3f 83e3 05c0
000002e0: 3609 53bf 6627 2ebf b8c9 833e ae5e aebf
000002f0: 687e 51be 0dae cdbe ed6e 403f 9f82 d4bf
00000300: ebc5 2fbf 3f6f e8be 1ba4 b0bf 4fd1 5e3f
00000310: d01a aebe 8cc3 73bf 09c5 783f cc96 31bf
00000320: e4e7 be3f 2a8a 9e3e c243 493f 2317 5dbf
00000330: 53e7 a8bf 3ecc c33d 7418 8abf a99e 66bf
00000340: e421 41bf 4259 34bf 29d8 c6bf a54e 9fbf
00000350: 2cbc 1b3e 0df8 673f 78fd 413d b115 79bf
00000360: db60 b2bf 1204 73be a6c5 d4be 3ebd d03c
00000370: 3da9 c9be 9a49 52c0 ec1b a6bf 09b3 18bf
00000380: c236 d1bf f2a8 833e 1684 c1be 38da 22bf
00000390: 0bc6 2cbf be7c 97bd ed6c 4abf 8424 45bf
000003a0: 687c 273f d02c 7bbf af84 dd3e 7ec5 cc3d
000003b0: 148e 6c3f 7215 273f 1708 c9bf 77f2 06bf
000003c0: 6e94 26bf 7fe3 0dc0 9ce8 163e 1899 9d3e
000003d0: 5180 fcbf df9e 22be 11c4 97bf e3b7 71be
000003e0: 6c4a bbbf 0dad 0ebf 4002 7c3f 715f 50bf
000003f0: bcdd ab3f 5826 fd3a 808f 78bd 1b98 3e3d

layers.0.sigma_weight f4 [256, 18]
-0.012916797 0.014435122 0.013933096 0.0041860356 -8.8563545e-05 0.0019952774 -0.008306981 0.00034082987
-0.0022692573 0.006391781 0.00539714 0.014562015 -0.008801354 0.0018509201 -0.0007071174 0.005051965
0.005315325 -0.005397134 0.008908914 -0.016725795 0.026270075 -0.00083250535 0.018244553 -0.0066809524
-0.011136556 0.0007319982 -0.004982675 0.002417494 0.0061255796 -0.007690659 0.0125629185 0.019327514
0.0030815373 -0.01900271 0.0026035074 -0.0075579314 -0.0062699555 -0.006341178 -0.032076105 0.007533077
0.0056047803 0.00013950307 -0.0064103245 0.014219459 0.016116489 -0.02083799 0.0060814717 -0.0031780722
-0.009669393 0.009835337 0.0019198346 0.00025224788 -0.017572561 -0.019164314 -0.020814883 -0.0095918765
-0.021445228 -0.0042233644 0.02381955 -0.015455389 -0.018701166 -0.022166505 -0.025446558 -0.007350336
0.0034340108 0.015127717 -0.03840637 -0.027216904 0.0010705211 -0.0026724713 -0.008968829 -0.027490433
-0.005656337 -0.04271046 -0.009014397 0.0018065969 -0.010099046 0.0055982647 -0.0032082098 0.025607185
-0.0071241013 -0.024045631 -0.028857471 0.019962447 0.012193079 -0.00964894 -0.009093007 -0.008646692
0.011382941 0.0031489625 -0.003973374 0.009458609 0.0033765219 0.0026446371 -0.0024121702 0.0019848065
0.0040565855 -0.0108890515 0.023165733 0.004967597 -0.0014643476 0.0014539314 0.0008642522 -0.00752705
-0.0005117507 -0.0035893472 -0.0018470426 0.009575914 0.002326057 0.010673531 0.029247222 0.0054557966
-0.00038221094 0.0069608535 -0.008000978 -0.003281789 -0.0011842791 -0.010510967 -0.002440208 0.0025835044
-0.007704775 0.009680899 0.0007381551 -0.00022775866 -0.046558276 0.00069766684 0.016222611 0.003941221
-0.0052089165 0.037211645 -0.0062706145 0.015430825 0.0042281626 -0.034521632 -0.04831457 0.031101793
-0.02744928 0.009718794 0.04629518 -0.012351999 0.0078614615 -0.013404465 0.0067683724 0.013379247
-0.00508505 0.0051705786 0.007641291 -0.00460988 -0.027219636 -0.009245491 -0.05487955 -0.028306942
0.016969996 -0.007993141 0.02189319 0.015047751 -0.008742242 -0.03769997 -0.00029444398 0.020266728
0.0017635481 0.0049122977 0.03802122 0.020746509 -0.020088617 -0.005809209 0.04211344 0.021899624
-0.018607052 0.0016780022 0.035552878 -0.0072710225 0.0044082105 0.0014400325 0.00687059 -0.014980736
-0.004400456 0.009714562 0.10497469 0.024644783 0.013328296 -0.01667586 0.009444829 0.007498944
-0.014838505 -0.0035280366 0.0011333881 0.0178289 -0.024661256 0.002214323 -0.0035630611 0.003799585
-0.017141793 -0.006524972 0.006710501 -0.013669608 -0.05344206 -0.021710921 0.002896103 0.002299996
0.0009262572 -0.0002776146 0.0007489478 0.002080394 -0.0039259605 -0.0006716557 -0.0020586434 -0.001360185
0.0015421056 -0.00014280617 0.0015773985 -0.0047691106 0.0029345832 0.0021203407 0.006796726 -0.06301299
0.02034739 0.004230728 -0.031689584 0.013240279 -0.0021749092 -0.0054393704 0.0057360334 0.010499235
0.005873057 -0.0131247705 -0.020094203 0.0075903754 -0.040104117 -0.045266315 -0.002375058 0.0087631205
-0.088075675 0.011817814 -0.019557007 -0.00321743 -0.05165276 -0.003633837 0.02092766 -0.0029290875
-0.0035421401 0.0063879234 -0.00772677 0.00052727136 -0.005458743 0.013536 -0.0135269575 0.010022192
-0.0042484025 0.0030962739 0.0013344213 -0.0022855445 0.011520201 -0.009907886 -0.011058266 -0.00777819
00000000: f9a0 53bc 4a81 6c3c a447 643c 032b 893b
00000010: 31bb b9b8 33c3 023b 011a 08bc 69b1 b239
00000020: d2b7 14bb 2572 d13b 7eda b03b 8595 6e3c
00000030: 8e33 10bc 939a f23a d85d 39ba f48a a53b
00000040: 2e2c ae3b 71da b0bb b2f6 113c 8904 89bc
00000050: 5734 d73c 7d3c 5aba 9a75 953c e4eb dabb
00000060: 1a76 36bc 91e3 3f3a b545 a3bb d26e 1e3b
00000070: 16b9 c83b ec01 fcbb b3d4 4d3c bc54 9e3c
00000080: 9ef3 493b 92ab 9bbc 9b9f 2a3b 86a8 f7bb
00000090: 3374 cdbb a8c9 cfbb 3c62 03bd 08d8 f63b
000000a0: 4ea8 b73b 9247 1239 b30d d2bb bcf8 683c
000000b0: ba06 843c 6fb4 aabc 1547 c73b 3447 50bb
000000c0: 606c 1ebc 6524 213c f6a2 fb3a 2340 8439
000000d0: 55f4 8fbc 7bfe 9cbc f983 aabc 3f27 1dbc
000000e0: e7ad afbc 2664 8abb 3821 c33c 9a38 7dbc
000000f0: 3033 99bc 8896 b5bc 4d75 d0bc 16db f0bb
00000100: 240d 613b 3eda 773c ff4f 1dbd fcf5 debc
00000110: ba50 8c3a a124 2fbb fff1 12bc 9e33 e1bc
00000120: cb58 b9bb 2af1 2ebd 1fb1 13bc 55cb ec3a
00000130: 7876 25bc a671 b73b d440 52bb 29c6 d13c
00000140: 4b71 e9bb 58fb c4bc 8166 ecbc 4988 a33c
00000150: 7bc5 473c 9616 1ebc d6fa 14bc dbaa 0dbc
00000160: 847f 3a3c d35e 4e3b 1433 82bb 48f8 1a3c
00000170: a348 5d3b a651 2d3b 8015 1ebb 8713 023b
00000180: 1bed 843b fe67 32bc 10c6 bd3c 39c7 a23b
00000190: 5aef bfba d891 be3a fc8e 623a 79a5 f6bb
000001a0: 0227 06ba 413b 6bbb 7718 f2ba 4be4 1c3c
000001b0: c370 183b 09e0 2e3c df97 ef3c 8ac6 b23b
000001c0: 7c63 c8b9 df17 e43b 8916 03bc 4813 57bb
000001d0: d039 9bba 3136 2cbc e6eb 1fbb 0350 293b
000001e0: 5678 fcbb a29c 1e3c c080 413a 80d2 6eb9
000001f0: e4b3 3ebd a1e3 363a 48e5 843c 5c25 813b
00000200: 8faf aabb 3d6b 183d ba79 cdbb 92d1 7c3c
00000210: 668c 8a3b 8e66 0dbd 80e5 45bd 30c9 fe3c
00000220: 50dd e0bc 943b 1f3c 04a0 3d3d 0a60 4abc
00000230: 5ccd 003c 679e 5bbc 39c9 dd3b a134 5b3c
00000240: 7ea0 a6bb f56d a93b cb63 fa3b 7a0e 97bb
00000250: b7fb debc 667a 17bc 61c9 60bd f6e3 e7bc
00000260: a904 8b3c aaf5 02bc 5959 b33c d88a 763c
00000270: 9f3b 0fbc 496b 1abd 9a5f 9ab9 6906 a63c
00000280: db26 e73a 57f7 a03b 24bc 1b3d 95f4 a93c
00000290: e290 a4bc 2d5b bebb 247f 2c3d d766 b33c
000002a0: d16d 98bc 69f0 db3a e59f 113d c241 eebb
000002b0: c072 903b 79bf bc3a b022 e13b c371 75bc
000002c0: b331 90bb d429 1f3c f8fc d63d dbe3 c93c
000002d0: ed5e 5a3c d09b 88bc 7cbe 1a3c b4b9 f53b
000002e0: 331d 73bc a236 67bb 328e 943a ea0d 923c
000002f0: 6706 cabc 2d1e 113b 3f82 69bb 7502 793b
00000300: f26c 8cbc 6fcf d5bb c3e3 db3b 7ef6 5fbc
00000310: 10e6 5abd 1adb b1bc 8ccc 3d3b 88bb 163b
00000320: 12d0 723a cd8c 91b9 0955 443a 3857 083b
00000330: 58a5 80bb 0d12 30ba 4eea 06bb 3c48 b2ba
00000340: 7a20 ca3a 3dbe 15b9 b6c0 ce3a 3346 9cbb
00000350: 2352 403b 6af5 0a3b 12b7 de3b f40c 81bd
00000360: 92af a63c eba1 8a3b f0cc 01bd c1ed 583c
00000370: ec88 0ebb bf3c b2bb 56f5 bb3b fc04 2c3c
00000380: c672 c03b 4709 57bc 999c a4bc afb8 f83b
00000390: 3744 24bd 2c69 39bd dca6 1bbb 3193 0f3c
000003a0: 0561 b4bd 819f 413c 0436 a0bc 85db 52bb
000003b0: d891 53bd ab25 6ebb 7c70 ab3c eff5 3fbb
000003c0: 4023 68bb c951 d13b d830 fdbb 9538 0a3a
000003d0: 41df b2bb 19c6 5d3c 2ca0 5dbc 1f34 243c
000003e0: 2f36 8bbb dbea 4a3b c0e7 ae3a 13c9 15bb
000003f0: 3abf 3c3c b054 22bc bb2d 35bc 30e0 febb

layers.0.sigma_bias f4 [256]
0.002839035 -0.007867643 0.010307837 -0.017400037 -0.00014796972 0.0030236226 -0.00516976 0.01612006
0.061889518 0.015397004 0.011916868 0.0025428985 0.02033328 0.0017190749 0.022845006 0.01120984
0.0017921716 -0.026791899 -0.0025697288 -0.009198349 0.007064949 0.0048271925 0.018316496 0.008181791
0.0017472768 -0.012095078 -0.028259788 -0.02359234 0.023852766 0.032973174 0.035914827 -0.022215182
0.032602374 -0.009968085 -0.017991057 -0.025098577 -0.011500903 -0.012795209 0.020697948 0.005962534
0.014501073 -0.009131992 -3.6028578e-06 0.002169152 0.015464279 -0.015377439 0.010821431 -0.015605847
0.01507888 0.02040901 -0.010162694 -0.008420849 0.00886798 -0.0066086357 0.001016243 0.015327269
0.010499438 0.053423904 -0.029932313 0.013466128 -0.011593905 -0.016099181 0.010256832 -0.0017742644
0.025018381 -0.0055185677 0.00036619735 -0.01774031 -0.031424116 -0.023119219 -0.013523592 -0.021999912
0.03050293 -0.030574068 -0.028297037 -0.008115937 -0.017917136 -0.0034120826 0.0027133625 -0.06764175
-0.0030789527 0.0049850023 0.0028017615 0.0026899783 0.0142171215 -0.0029612104 -0.0050898157 -0.019421548
0.009424968 0.008965115 3.000745e-06 -0.02676645 0.039338138 0.017265493 0.0012743575 -0.019398158
-0.017644145 -0.012532362 0.004081476 -0.030267093 0.0036704687 0.010718366 0.024012469 0.024882121
0.0007948009 0.0037995542 -0.005098351 -0.010353972 0.016415767 0.008025218 0.0033195307 0.018557228
0.008825271 0.0075943386 0.00018808796 -0.02131777 0.005986707 -0.010456038 0.010585833 -0.02634421
-0.0124302665 0.02210248 -0.020993887 -0.057718948 -0.0013906844 0.014926907 -0.00019018381 -0.00831187
-0.004150431 -0.026635943 0.0014779646 0.02597117 0.009531309 0.001590242 -0.027512068 -0.0030371565
-0.020651562 0.007405254 0.043348476 0.005384036 0.029925719 0.022544209 0.03642385 0.011032262
-0.006292126 0.013329452 -0.010769682 0.0043362346 0.0014528775 -0.017097367 -0.013150728 -0.022702519
-0.004937523 0.011537979 0.0049032425 -0.0076802806 0.007802504 -0.005843958 0.02880085 0.007992006
0.002739257 0.0047013517 0.011816719 0.0084811915 -0.008871385 -0.004645415 -0.010818246 0.006154973
0.005921784 0.013864668 0.052844834 -0.0015882856 0.056743816 -0.024716543 0.011662595 0.036885228
-0.007186862 -0.013334239 0.020000631 0.034254596 0.00267172 0.030214712 -0.0023464987 0.010452197
-0.014713679 0.021701602 0.041912682 0.033935033 0.012520896 -0.006638293 0.012546239 0.014557412
0.014663369 -0.028424485 0.0048920824 0.017636044 0.006318129 0.020291375 0.020805484 0.005459375
0.007807003 -0.041242927 -0.015687313 0.013959505 0.022699589 -0.0115425335 0.019212876 0.017969415
-0.00851899 0.02436896 0.012458528 0.031454947 -0.023886401 -0.0013423578 -0.022922456 0.03795951
0.05473402 -0.005392622 -0.030392295 0.01570394 0.020298844 -0.0027440584 0.023852097 -0.02561344
-0.015591441 -0.016142007 -0.063783415 0.007924894 -0.01964136 0.0008078665 0.054966126 0.0037202274
-0.009194523 0.010701471 0.030500809 -0.008261339 0.0042744894 -0.026246047 0.015829906 -0.04745138
-0.00982706 -0.033514787 -0.025138693 -0.025459489 -0.003852994 -0.018604819 0.022062069 -0.028113073
-0.008686598 0.0108635975 0.000496327 -0.016232459 -0.014494754 -0.009834769 0.005696606 0.02349802
00000000: 1a0f 3a3b 49e7 00bc 34e2 283c 868a 8ebc
00000010: 5228 1bb9 f827 463b 1767 a9bb 370e 843c
00000020: dd7f 7d3d b743 7c3c f83e 433c c2a6 263b
00000030: fb91 a63c 9552 e13a 7325 bb3c 7aa9 373c
00000040: 4de7 ea3a af7a dbbc e568 28bb acb4 16bc
00000050: 1681 e73b 6d2d 9e3b 7a0c 963c eb0c 063c
00000060: e104 e53a 6f2a 46bc 1281 e7bc b944 c1bc
00000070: e066 c33c e10e 073d 6d1b 133d 9dfc b5bc
00000080: 118a 053d 2e51 23bc fb61 93bc 889b cdbc
00000090: 496e 3cbc ffa2 51bc be8e a93c 5c61 c33b
000000a0: e995 6d3c 5a9e 15bc a0c8 71b6 5528 0e3b
000000b0: e35d 7d3c a7f1 7bbc 5f4c 313c abaf 7fbc
000000c0: 680d 773c cc30 a73c 6e81 26bc 9af7 09bc
000000d0: 014b 113c 418d d8bb 7533 853a 3a1f 7b3c
000000e0: d605 2c3c 06d3 5a3d 9c34 f5bc 09a1 5c3c
000000f0: 5df4 3dbc 6ee2 83bc 460c 283c 6f8e e8ba
00000100: 59f3 cc3c 1ad5 b4bb 2dfe bf39 2054 91bc
00000110: 93b6 00bd 8464 bdbc 0e92 5dbc 2939 b4bc
00000120: 48e1 f93c 7876 fabc 30cf e7bc b5f8 04bc
00000130: f5c6 92bc 3f9d 5fbb abd2 313b c287 8abd
00000140: 41c8 49bb 3b59 a33b c29d 373b 594a 303b
00000150: eeee 683c de10 42bb 78c8 a6bb f019 9fbc
00000160: 2e6b 1a3c 6be2 123c 6860 4936 5045 dbbc
00000170: 0721 213d 5d70 8d3c 5808 a73a e3e8 9ebc
00000180: 748a 90bc 8954 4dbc e7bd 853b b2f2 f7bc
00000190: 3f8c 703b 169c 2f3c ccb5 c43c 97d5 cb3c
000001a0: 2f5a 503a f101 793b 1110 a7bb b5a3 29bc
000001b0: 5c7a 863c 347c 033c 7c8c 593b 5405 983c
000001c0: df97 103c eed9 f83b 7a39 4539 9ba2 aebc
000001d0: 232c c43b cd4f 2bbc 3470 2d3c d0cf d7bc
000001e0: 51a8 4bbc 4310 b53c 5ffb abbc b46a 6cbd
000001f0: a047 b6ba fc8f 743c 146c 47b9 822e 08bc
00000200: 5700 88bb 9f33 dabc 43b8 c13a 7ec1 d43c
00000210: 3529 1c3c ab6f d03a fd60 e1bc 080b 47bb
00000220: 772d a9bc c6a7 f23b 2c8e 313d 916c b03b
00000230: c826 f53c a2ae b83c 2d31 153d a9c0 343c
00000240: 2e2e cebb c663 5a3c 5273 30bc f916 8e3b
00000250: 7b6e be3a c70f 8cbc 2776 57bc a2fa b9bc
00000260: f2ca a1bb cb09 3d3c 61ab a03b ddaa fbbb
00000270: 26ac ff3b ac7e bfbb c3ef eb3c e7f0 023c
00000280: 1b85 333b cc0d 9a3b e99a 413c b2f4 0a3c
00000290: 4959 11bc 9138 98bb 033f 31bc a8af c93b
000002a0: 860b c23b a228 633c d373 583d 052e d0ba
000002b0: 346c 683d 597a cabc 7814 3f3c f714 173d
000002c0: c57f ebbb da77 5abc 5dd8 a33c 8c4e 0c3d
000002d0: 0618 2f3b d884 f73c b7c7 19bb b13f 2b3c
000002e0: a511 71bc 8fc7 b13c a2ac 2b3d 76ff 0a3d
000002f0: 7224 4d3c 0a86 d9bb be8e 4d3c 3682 6e3c
00000300: a13e 703c 77da e8bc c34d a03b 7779 903c
00000310: 4f08 cf3b 193a a63c 4370 aa3c 8fe4 b23b
00000320: e3d1 ff3b 58ee 28bd ae82 80bc 68b6 643c
00000330: 7df4 b93c e51c 3dbc 5264 9d3c 9834 933c
00000340: 3c93 0bbc 6aa1 c73c db1e 4c3c e7d6 003d
00000350: 6aad c3bc 0ef2 afba e0c7 bbbc 6e7b 1b3d
00000360: c830 603d 98b4 b0bb 43f9 f8bc 8da5 803c
00000370: c349 a63c a9d5 33bb 7965 c33c 47d3 d1bc
00000380: 3e73 7fbc 3e3c 84bc e1a0 82bd 6ad7 013c
00000390: ebe6 a0bc 01c7 533a 2924 613d 0fcf 733b
000003a0: a0a4 16bc 3955 2f3c d5dc f93c 915a 07bc
000003b0: 0411 8c3b f301 d7bc b8ad 813c 615c 42bd
000003c0: ad01 21bc cd46 09bd a9ef cdbc 6b90 d0bc
000003d0: 8382 7cbb 2269 98bc 83bb b43c 634d e6bc
000003e0: 3c52 0ebc 3bfd 313c f11b 023a eff9 84bc
000003f0: 687b 6dbc 0322 21bc 98aa ba3b eb7e c03c

layers.0.eps_weight f4 [256, 18]
-2.791792 -0.5684946 -0.25498432 -0.72016954 -0.6080506 -1.470218 -1.8244537 -1.4113661
-0.5695748 0.0037254472 -0.42012888 -0.706578 -1.41623 0.009753436 0.20832407 -1.007396
-1.10143 -0.20432016 -1.2269342 2.5565677 0.9595756 0.81015205 -1.2265344 -0.8081069
-0.53596395 -0.87953514 -0.6829943 -0.5613033 0.878213 -0.9658441 0.5001685 0.7321569
0.5153481 1.3929505 0.1706021 0.63901246 0.3599711 1.275243 0.78643936 0.8134156
-0.26120672 0.020729033 0.7549063 -0.92539793 -0.71576107 0.95757467 1.173785 -1.8688045
-1.6512343 0.03292338 0.9093974 -0.929205 0.20842585 0.55809003 0.84086263 0.64479995
-0.40613455 -1.3723524 -0.26345962 0.73482543 0.24600671 0.07628225 1.099517 0.4562929
-1.50395 -3.4138656 0.07635802 -0.20380722 -1.8731031 0.056804348 -0.75209296 0.7679956
0.12697792 -1.1476337 1.4418135 -1.7899342 0.61709934 -2.4894266 -0.063585564 -0.10122406
0.28124383 -0.16884777 0.55211926 0.16946797 -0.2837507 0.55952686 -0.3677268 -0.62734526
-0.4593043 -0.32684714 1.0074352 0.42333078 0.77529514 -1.524289 -0.67745405 -0.9533662
1.0320625 1.608365 -1.4686557 0.16655785 -0.3527047 -2.4799592 -0.15146944 -0.55601156
3.7001977 2.2553625 -0.94492733 0.5512146 -0.72063524 -0.1638639 -0.70087796 -0.99827915
-0.07554149 0.6076394 -0.502399 1.4578338 -0.75314987 -0.4304906 0.26582816 -0.5037803
0.14811903 1.4104674 -1.2447672 -0.58036053 -1.4006537 -1.259468 0.5073283 -0.37586254
-1.0789623 1.0554452 0.35441864 0.12668593 0.49905252 0.3571313 -0.87670434 0.5924821
-0.3617604 -0.4216288 -0.70022374 0.041554477 -1.9144409 -0.7195598 -1.9923834 -0.16758466
-0.9101766 0.25926268 0.44885024 -0.93985873 0.96422875 0.5170258 -0.934447 -0.17532955
-0.5066259 0.14207408 0.6422332 0.57214046 0.0747285 0.9533694 1.0426084 -0.41912144
-0.73923093 0.7674889 -0.9819402 -1.5468448 -1.0025098 -0.5380417 0.11816647 -1.0628921
-0.19896787 0.111132726 -0.4244224 -0.13646649 1.120346 1.0302634 0.93457747 0.78843254
0.5704158 0.9421649 0.09598414 -0.41424897 0.86495906 -0.85451925 -2.434557 -0.9689557
0.9813858 -1.1977402 -1.4806753 0.6149771 -0.04299048 -0.80015105 1.2856503 -1.3602762
0.7046891 -0.38187832 -0.84627676 -0.70638347 -0.832911 1.0413485 -1.6345742 -0.83607936
-0.4777582 -0.17902242 1.6922845 -0.11833262 1.292737 1.7642403 2.0929432 -0.867356
-1.253619 -0.91344565 -1.0533786 -0.6472784 0.62555295 0.012863787 1.6694195 0.60835624
0.21951689 0.19961746 -1.4849694 -0.030810619 0.803148 -0.8999318 0.85428554 -0.57383555
0.07695853 0.9172625 -0.9816256 0.10131105 0.39389426 -0.24017222 0.55259085 -0.56613326
-1.0443842 0.88739103 0.4136945 -0.08329866 1.0113877 -0.24975397 0.32413867 0.21542631
1.9660693 -0.12709825 1.0065457 -0.72147673 -2.4928603 0.16445184 -0.31411278 -0.5471205
0.7756433 -0.12819394 -1.0957968 1.1089584 1.374739 0.019094182 -0.4451137 -0.49742427
00000000: b8ac 32c0 dd88 11bf 4e8d 82be 085d 38bf
00000010: 34a9 1bbf 1a30 bcbf b387 e9bf a5a7 b4bf
00000020: a7cf 11bf a226 743b 221b d7be 4ce2 34bf
00000030: 0647 b5bf e0cc 1f3c e852 553e 5af2 80bf
00000040: a9fb 8cbf 4e39 51be 2e0c 9dbf ce9e 2340
00000050: bfa6 753f 2066 4f3f 14ff 9cbf 18e0 4ebf
00000060: ef34 09bf 3729 61bf b7d8 2ebf 93b1 0fbf
00000070: 91d2 603f 8f41 77bf 0b0b 003f a26e 3b3f
00000080: daed 033f 344c b23f 51b2 2e3e 5296 233f
00000090: 224e b83e 2a3b a33f 1754 493f 013c 503f
000000a0: e3bc 85be efcf a93c 8a41 413f e1e6 6cbf
000000b0: 1e3c 37bf 9d23 753f 963e 963f fc34 efbf
000000c0: a55b d3bf abda 063d 45ce 683f 61e0 6dbf
000000d0: 966d 553e fdde 0e3f c642 573f 9c11 253f
000000e0: def0 cfbe 3ea9 afbf 2ee4 86be 851d 3c3f
000000f0: 2fe9 7b3e de39 9c3d f9bc 8c3f 399f e93e
00000100: 6f81 c0bf c67c 5ac0 9861 9c3d d7b2 50be
00000110: d8c1 efbf adab 683d 2a89 40bf 5c9b 443f
00000120: 8006 023e a9e5 92bf 588d b83f 901c e5bf
00000130: 39fa 1d3f c452 1fc0 2639 82bd 8f4e cfbd
00000140: 31ff 8f3e 6ee6 2cbe b057 0d3f 0389 2d3e
00000150: c647 91be 273d 0f3f b046 bcbe b399 20bf
00000160: ef29 ebbe 8258 a7be a3f3 803f d0be d83e
00000170: be79 463f e71b c3bf a16d 2dbf cf0f 74bf
00000180: a01a 843f e8de cd3f e9fc bbbf 248e 2a3e
00000190: b695 b4be a7b7 1ec0 ce1a 1bbe c656 0ebf
000001a0: 0ad0 6c40 dc57 1040 c2e6 71bf 661c 0d3f
000001b0: 8d7b 38bf f0cb 27be bd6c 33bf 398f 7fbf
000001c0: 7fb5 9abd 418e 1b3f 399d 00bf 4c9a ba3f
000001d0: 6ece 40bf 4469 dcbe a11a 883e bff7 00bf
000001e0: 84ac 173e 328a b43f 8854 9fbf 8292 14bf
000001f0: 9f48 b3bf 3f36 a1bf 44e0 013f 0e71 c0be
00000200: 701b 8abf d418 873f 5c76 b53e f5b9 013e
00000210: d083 ff3e ead9 b63e b26f 60bf e8ac 173f
00000220: a938 b9be bbdf d7be dd41 33bf 0735 2a3d
00000230: 660c f5bf 1235 38bf 6b06 ffbf 509b 2bbe
00000240: 5501 69bf 14be 843e b3cf e53e 959a 70bf
00000250: b2d7 763f ce5b 043f eb37 6fbf 9789 33be
00000260: 3cb2 01bf de7b 113e 6569 243f cc77 123f
00000270: 410b 993d 0410 743f 3174 853f 1697 d6be
00000280: 3d3e 3dbf 277a 443f 6f60 7bbf 03ff c5bf
00000290: 3e52 80bf 1abd 09bf 4301 f23d d90c 88bf
000002a0: 3cbe 4bbe 8e99 e33d e54d d9be dfbd 0bbe
000002b0: 7f67 8f3f acdf 833f 7840 6f3f b7d6 493f
000002c0: c506 123f b831 713f 5593 c43d 7118 d4be
000002d0: f56d 5d3f c6c1 5abf c8cf 1bc0 7b0d 78bf
000002e0: 1a3c 7b3f 8d4f 99bf c586 bdbf 246f 1d3f
000002f0: c916 30bd b3d6 4cbf 3090 a43f 881d aebf
00000300: 8166 343f 8e85 c3be 98a5 58bf 8cd5 34bf
00000310: a839 55bf e84a 853f ba39 d1bf 4c09 56bf
00000320: b99c f4be a751 37be c79c d83f 5f58 f2bd
00000330: 6878 a53f a0d2 e13f c8f2 0540 0b0b 5ebf
00000340: 9676 a0bf 93d7 69bf 1cd5 86bf 0ab4 25bf
00000350: 3d24 203f a2c2 523c 8aaf d53f 3cbd 1b3f
00000360: 09c9 603e 8568 4c3e 7a13 bebf 8d66 fcbc
00000370: 1b9b 4d3f ee61 66bf 75b2 5a3f e3e6 12bf
00000380: 6f9c 9d3d b7d1 6a3f d14b 7bbf 2b7c cf3d
00000390: 82ac c93e b5ef 75be 9876 0d3f 1cee 10bf
000003a0: 62ae 85bf 0f2c 633f c4cf d33e 7d98 aabd
000003b0: 2775 813f 81bf 7fbe 81f5 a53e b798 5c3e
000003c0: 29a8 fb3f 0b26 02be 7dd6 803f b3b2 38bf
000003d0: 068b 1fc0 1066 283e 64d3 a0be 1710 0cbf
000003e0: 8f90 463f 4645 03be 1243 8cbf 59f2 8d3f
000003f0: 73f7 af3f 676b 9c3c f1e5 e3be 65ae febe

layers.0.eps_bias f4 [256]
0.19248128 -0.6929097 0.7103071 1.3958949 1.2234881 -0.65646666 -0.7438399 0.048319634
0.733152 0.3134698 -1.6174799 -1.8340832 1.8070338 0.7559063 1.8757792 0.7131323
-0.64522344 -2.2878337 0.72062343 -1.5256983 0.10084596 -0.99738646 -1.2244105 0.28676322
-0.35743448 0.4146645 0.22206534 -1.8590215 0.26939172 -0.1794538 -1.3400958 2.498816
0.4387746 -0.68768585 -0.41666847 0.16026953 0.071726 -1.058595 0.24421369 1.4321282
0.1705908 -0.90854496 1.3675699 0.6141106 0.9611356 -0.32587102 -1.9464116 -0.4233306
1.3818848 0.09886771 -1.3508705 0.03202414 0.097658575 0.23752494 1.4428489 0.7368403
0.48111653 0.4878859 0.11157114 -0.47076124 1.1904699 1.349589 -0.23943955 0.54795176
-0.4064369 -0.53403485 0.005906802 -1.0229065 0.88414544 -0.21093029 0.43717426 -0.62114257
0.7915004 0.5514257 1.9734915 1.3026588 0.2695852 -2.1406324 0.3869133 -0.13471244
0.15753165 -0.1902313 0.28716573 -1.1522171 1.487189 1.5215584 -0.9347938 1.4302918
0.13434857 1.0334607 0.7463415 2.9205737 1.2165576 -1.8294232 0.5231284 1.3574724
0.84345233 -1.9366095 -3.0908687 -0.33457166 1.2822009 -0.19917296 0.6195816 0.48179302
0.6504636 -0.46960488 -0.27843472 -0.8888708 0.8137779 -0.674474 1.497974 0.15997864
-0.2204801 -0.18987569 1.1772274 -0.21945627 -0.42301005 -1.6732981 0.2787316 -1.2533838
-0.7324613 0.6280584 1.8686413 -1.5516157 1.6229942 -1.3259628 1.2689109 0.60856146
0.66180766 -1.8915797 -0.37139377 -0.47110608 -0.5338396 -0.5053951 1.5507976 0.92288214
-0.0048109023 0.22375692 0.6012179 -1.3348354 -1.1764295 0.13531439 0.30509195 -0.87724864
-0.5244792 1.0011811 0.32904047 0.6515594 1.1204456 -0.70182747 0.11087459 1.2551061
2.7408006 0.5123854 -0.074720584 -1.9082819 -0.52721363 0.50889903 -0.4927968 -0.54204607
-0.4993307 0.097297765 -0.5494492 -0.99532765 0.6281998 -0.2250934 -0.48447648 0.42346492
0.11069239 0.29294613 1.9593468 -0.24552178 -1.3669658 -1.2473187 0.10538957 -1.2844744
0.3707667 -0.3329328 0.16253465 -1.6521696 -2.1035156 -1.0462826 -0.042661782 -0.54994535
0.8853438 0.1594473 -0.41203243 0.1790615 -1.6492455 1.17125 0.90002686 -0.744772
0.0019613723 -0.5535921 -1.4187922 0.028014395 -0.42710626 1.2590292 0.011867073 -0.977145
-0.98852825 0.9616564 -0.07694817 -1.1213646 2.844675 -0.72371554 0.1146086 -0.015276442
-1.022435 0.739075 1.1448234 -1.1299402 -1.1342382 -0.6338867 -0.8189879 0.96264035
-2.0469422 0.27829653 0.96348184 -0.68707716 1.6563041 0.92781717 0.024435028 -0.18965545
2.3497372 -0.7862325 -0.89651674 0.025053801 -0.0654918 -0.21250764 -2.3841524 -0.9485423
0.026004855 0.9122109 -1.3916017 -0.5964487 -0.093785636 -0.88416207 -0.5410331 0.16817026
-0.2097851 0.46024284 1.5946376 0.9237701 -0.52654237 0.21051458 0.3851883 -0.116122425
1.529812 -0.3963212 -0.39055374 -0.8318565 -0.9084844 0.23832037 1.374181 -1.0920277
00000000: d019 453e 8862 31bf b0d6 353f afac b23f
00000010: 429b 9c3f 330e 28bf 4b6c 3ebf cfea 453d
00000020: d9af 3b3f 1d7f a03e 9509 cfbf 3dc3 eabf
00000030: e24c e73f 1383 413f 8819 f03f d78f 363f
00000040: 5d2d 25bf de6b 12c0 c77a 383f 154a c3bf
00000050: 5488 ce3d b854 7fbf 7cb9 9cbf a1d2 923e
00000060: a701 b7be e84e d43e 1965 633e 6bf4 edbf
00000070: b6ed 893e bdc2 37be 4288 abbf 9aec 1f40
00000080: 10a7 e03e 2e0c 30bf 9255 d5be b21d 243e
00000090: 15e5 923d 0a80 87bf 2713 7a3e fa4f b73f
000000a0: 5baf 2e3e 6796 68bf 880c af3f 5a36 1d3f
000000b0: fc0c 763f 91d8 a6be 0424 f9bf cabe d8be
000000c0: 9ae1 b03f 277b ca3d 53e9 acbf bf2b 033d
000000d0: 3801 c83d bd39 733e 46af b83f 91a1 3c3f
000000e0: e854 f63e 2ecc f93e 697f e43d 9e07 f1be
000000f0: 5161 983f 55bf ac3f a42f 75be 9146 0c3f
00000100: 7f18 d0be 82b6 08bf d98d c13b 9aee 82bf
00000110: 5b57 623f 1cfe 57be 4ed5 df3e 3303 1fbf
00000120: c59f 4a3f 3c2a 0d3f 5f9b fc3f 86bd a63f
00000130: 1207 8a3e 1f00 09c0 8019 c63e 0ff2 09be
00000140: fa4f 213e fecb 42be 6307 933e da7b 93bf
00000150: 365c be3f 6dc2 c23f a54e 6fbf cd13 b73f
00000160: ac92 093e 7148 843f 3d10 3f3f aeea 3a40
00000170: 29b8 9b3f 8a2a eabf beeb 053f a8c1 ad3f
00000180: 7eec 573f d2e2 f7bf cbd0 45c0 fa4c abbe
00000190: 291f a43f fff3 4bbe e69c 1e3f 93ad f63e
000001a0: c884 263f 0d70 f0be ff8e 8ebe 098d 63bf
000001b0: c053 503f 54aa 2cbf 9dbd bf3f 71d1 233e
000001c0: 89c5 61be c66e 42be 63af 963f 25b9 60be
000001d0: c694 d8be a22e d6bf e9b5 8e3e e16e a0bf
000001e0: 9582 3bbf 6fc8 203f a32f ef3f 589b c6bf
000001f0: 46be cf3f 26b9 a9bf ac6b a23f afca 1b3f
00000200: 3a6c 293f 491f f2bf 5327 bebe d134 f1be
00000210: b6a9 08bf 9361 01bf 8980 c63f 0142 6c3f
00000220: c6a4 9dbb 8920 653e 6be9 193f e3db aabf
00000230: 3e95 96bf db8f 0a3e 0335 9c3e 5e93 60bf
00000240: 4544 06bf b426 803f fe77 a83e 99cc 263f
00000250: c36a 8f3f f7aa 33bf 3812 e33d 51a7 a03f
00000260: 4769 2f40 b12b 033f 1b07 99bd 9542 f4bf
00000270: 79f7 06bf 3547 023f dd4f fcbe 88c3 0abf
00000280: 46a8 ffbe 0d44 c73d b4a8 0cbf cbcd 7ebf
00000290: b4d1 203f e27e 66be 4d0d f8be 65d0 d83e
000002a0: b1b2 e23d 09fd 953e e0cb fa3f 106a 7bbe
000002b0: bcf8 aebf 24a8 9fbf 7dd6 d73d a869 a4bf
000002c0: 22d5 bd3e 2b76 aabe 7c6f 263e 4b7a d3bf
000002d0: 00a0 06c0 97ec 85bf 1fbe 2ebd 38c9 0cbf
000002e0: e4a5 623f 2746 233e eaf5 d2be e65b 373e
000002f0: 7a1a d3bf 85eb 953f 2968 663f 61a9 3ebf
00000300: 5e8a 003b 36b8 0dbf fc9a b5bf 727e e53c
00000310: acad dabe de27 a13f 1d6e 423c 2d26 7abf
00000320: 3010 7dbf 1d2f 763f 0197 9dbd e088 8fbf
00000330: 280f 3640 6c45 39bf eab7 ea3d 0b4a 7abc
00000340: 26df 82bf 0534 3d3f 9389 923f e1a1 90bf
00000350: b82e 91bf 6646 22bf 31a9 51bf 996f 763f
00000360: 1a01 03c0 e27c 8e3e bfa6 763f 4ae4 2fbf
00000370: c601 d43f 6d85 6d3f f82b c83c 0a35 42be
00000380: 1862 1640 8846 49bf 1f82 65bf a13d cd3c
00000390: 9120 86bd 9a9b 59be f495 18c0 abd3 72bf
000003a0: 2208 d53c a786 693f 0120 b2bf ddb0 18bf
000003b0: af12 c0bd 7258 62bf 2581 0abf d334 2c3e
000003c0: e8d1 56be f3a4 eb3e 161d cc3f 337c 6c3f
000003d0: 7bcb 06bf 2291 573e 6737 c53e 98d1 edbd
000003e0: e1d0 c33f 9dea cabe a9f6 c7be 8cf4 54bf
000003f0: 6f92 68bf 410a 743e 2ae5 af3f 90c7 8bbf

layers.1.mu_weight f4 [256, 256]
-0.120448954 -0.08460945 -0.18076861 -0.05587224 -0.14674196 -0.034399133 -0.15154272 0.015988639
-0.11485237 0.013594389 -0.09015485 0.087391466 0.09011192 -0.11436153 0.029708125 -0.08909489
-0.10137336 0.010423336 -0.13276345 -0.1218657 -0.12956658 -0.072949 -0.08865657 -0.08050602
-0.12707916 -0.08703007 0.02678712 -0.12948728 -0.07017581 -0.09321483 -0.2165672 -0.15747438
-0.07056036 -0.123406984 0.012801898 0.03790925 -0.07986112 -0.04839453 -0.02424331 -0.049041357
-0.15385956 0.07649463 -0.050621696 0.053387072 -0.26378903 -0.18023953 0.036493722 -0.03806563
-0.06601394 0.09662626 0.08198753 -0.14799601 -0.14439857 -0.08922264 0.009512099 0.12277826
-0.15845482 -0.04558451 -0.0909979 -0.18990423 0.0915668 -0.12512928 0.02460108 -0.19889382
-0.055272263 0.03903482 0.08781608 -0.1730633 -0.061095323 -0.06298197 0.021527803 -0.03632501
-0.093704775 -0.087104164 0.04611575 0.009105356 -0.040661573 -0.053084843 -0.097408965 0.0013086174
-0.120948225 0.026803633 -0.12283111 -0.1593649 -0.11316664 0.113680854 0.13619009 -0.11720845
-0.17011297 -0.12106923 0.09389987 0.00951441 -0.014273621 0.09038706 0.057333905 0.11651195
-0.08874674 -0.0178741 0.07112009 0.07835647 -0.0917723 -0.14939459 -0.08229289 0.037447035
-0.057131108 -0.19824558 0.09216224 0.028066717 -0.031124217 -0.10312348 -0.17321052 -0.19289339
0.0108298715 -0.20044068 -0.052223682 -0.06409276 -0.012516295 -0.17766815 0.01784528 -0.06743532
-0.050301824 -0.2247979 0.028858973 0.0049777683 0.08458669 -0.10800497 -0.04771094 -0.0651666
-0.0639937 -0.015885383 0.061971556 -0.1127085 -0.20457745 -0.13031568 -0.1244534 -0.08712585
0.012199764 -0.18088277 -0.10781512 0.041960135 -0.06914998 0.09728855 -0.08211845 0.04652802
-0.02559471 -0.14419161 -0.07969451 -0.11436026 -0.122895755 -0.025870366 -0.14057519 0.013210294
-0.14651625 -0.13098876 -0.21057902 0.021335991 0.122033924 -0.11657177 -0.12005983 -0.14244257
-0.19859925 0.052274853 0.0071732723 0.0052275513 0.016011216 -0.006324375 0.11394566 0.062670834
-0.11007303 -0.14708473 0.04252173 -0.008723277 -0.10984761 0.07859934 -0.01229116 0.08860137
-0.14721932 -0.1285103 0.10115648 -0.008747555 -0.16368936 -0.114207394 -0.018960072 -0.023851529
0.08538076 -0.035552856 0.016923435 -0.15777352 -0.15967667 -0.07722823 0.09637577 -0.015498232
0.050380673 -0.087097414 0.0024515882 -0.18350515 0.0077128853 -0.14583115 0.043434843 -0.059844766
-0.1698315 -0.25556457 -0.1279033 0.0040998836 -0.20344399 -0.14310642 -0.13758385 -0.17672615
-0.110011086 -0.17740968 -0.13929789 -0.08636002 -0.0908451 -0.121546924 0.06955923 -0.1587466
-0.16580781 0.032083824 -0.009568179 0.047284856 -0.026336683 -0.046726644 0.078838065 0.028922483
-0.029286992 -0.0402754 -0.086660385 -0.06372769 0.06855784 0.079685345 -0.14625667 -0.004453588
0.063234404 -0.056222063 0.088470615 -0.21310917 0.10788947 -0.09613724 -0.07452542 -0.10278403
-0.21091099 0.021525698 0.07589723 -0.030486815 -0.16060989 0.1247354 -0.19850597 -0.068033665
-0.12632297 -0.17210865 -0.037956174 0.0535222 -0.05691193 0.0740728 0.112322025 -0.1549278
00000000: f1ad f6bd b847 adbd 681b 39be 4ada 64bd
00000010: 8643 16be 1be6 0cbd 042e 1bbe 9bfa 823c
00000020: b837 ebbd 00bb 5e3c 1ba3 b8bd 4cfa b23d
00000030: 998c b83d 6136 eabd 745e f33c 6277 b6bd
00000040: d69c cfbd a4c6 2a3c 24f3 07be b994 f9bd
00000050: 1aad 04be 4966 95bd 9391 b5bd 57e0 a4bd
00000060: 0a21 02be d23c b2bd aa70 db3c 5098 04be
00000070: 56b8 8fbd 6be7 bebd cbc3 5dbe f740 21be
00000080: f381 90bd cdbc fcbd 0dbf 513c bb46 1b3d
00000090: 3a8e a3bd 5839 46bd e899 c6bc 97df 48bd
000000a0: 5c8d 1dbe 37a9 9c3d b258 4fbd 67ac 5a3d
000000b0: 5b0f 87be b690 38be 717a 153d b5ea 1bbd
000000c0: 5132 87bd fde3 c53d 14e9 a73d 448c 17be
000000d0: 38dd 13be 5cba b6bd a3d8 1b3c 2b73 fb3d
000000e0: fb41 22be d3b6 3abd 1b5d babd 4176 42be
000000f0: 6087 bb3d e421 00be 3488 c93c d2aa 4bbe
00000100: 2b65 62bd fae2 1f3d ebd8 b33d 8137 31be
00000110: 173f 7abd b1fc 80bd 135b b03c 89c9 14bd
00000120: 4ae8 bfbd ab63 b2bd dee3 3c3d a22e 153c
00000130: c08c 26bd 7e6f 59bd 5a7e c7bd ea85 ab3a
00000140: b4b3 f7bd 4b93 db3c e18e fbbd 8d30 23be
00000150: e9c3 e7bd 82d1 e83d 6a75 0b3e fc0a f0bd
00000160: 1832 2ebe 25f3 f7bd 934e c03d 54e2 1b3c
00000170: e8db 69bc da1c b93d f5d6 6a3d d19d ee3d
00000180: dac0 b5bd b46c 92bc 69a7 913d 5b79 a03d
00000190: 1ef3 bbbd e5fa 18be 2d89 a8bd 1062 193d
000001a0: 4f02 6abd e400 4bbe 8ebf bc3d 2cec e53c
000001b0: 37f8 febc 6732 d3bd 195e 31be d885 45be
000001c0: c66f 313c 5240 4dbe 80e8 55bd 1143 83bd
000001d0: 2511 4dbc a4ee 35be 4430 923c 871b 8abd
000001e0: 4909 4ebd 6c31 66be a769 ec3c 8c1c a33b
000001f0: c93b ad3d b631 ddbd 8c6c 43bd 1176 85bd
00000200: 210f 83bd 1022 82bc e3d5 7d3d b7d3 e6bd
00000210: c07c 51be 7971 05be 6de1 febd 0a6f b2bd
00000220: 85e1 473c 5539 39be 2cce dcbd 64de 2b3d
00000230: 819e 8dbd 383f c73d b82d a8bd 2a94 3e3d
00000240: ffab d1bc f7a6 13be e036 a3bd b635 eabd
00000250: c5b0 fbbd 17ee d3bc f1f2 0fbe fd6f 583c
00000260: 5b08 16be eb21 06be 07a2 57be d1c8 ae3c
00000270: ecec f93d 2ebd eebd eee1 f5bd 77dc 11be
00000280: 9a5d 4bbe 281e 563d c50d eb3b e14b ab3b
00000290: f429 833c b43c cfbb 585c e93d 9159 803d
000002a0: f86d e1bd 619d 16be 442b 2e3d 13ec 0ebc
000002b0: c9f7 e0bd b1f8 a03d dd60 49bc a374 b53d
000002c0: a9c0 16be 3498 03be 212b cf3d e851 0fbc
000002d0: 2f9e 27be 91e5 e9bd 2752 9bbc 4864 c3bc
000002e0: 1cdc ae3d df9f 11bd 04a3 8a3c 628f 21be
000002f0: 4882 23be d629 9ebd a960 c53d 4cec 7dbc
00000300: f75b 4e3d 2160 b2bd d3aa 203b c6e8 3bbe
00000310: 5fbc fc3b c354 15be bce8 313d c91f 75bd
00000320: 4fe8 2dbe 5cd9 82be 15f9 02be 5158 863b
00000330: 9f53 50be 7d8a 12be c8e2 0cbe b3f7 34be
00000340: 7e4d e1bd e2aa 35be 1ba4 0ebe 86dd b0bd
00000350: ff0c babd 98ed f8bd 1275 8e3d 788e 22be
00000360: 86c9 29be 546a 033d dac3 1cbc c4ad 413d
00000370: 07c0 d7bc 7064 3fbd da75 a13d d8ee ec3c
00000380: 46eb efbc d1f7 24bd 007b b1bd aa83 82bd
00000390: 0e68 8c3d 1232 a33d 4fc4 15be 67ef 91bb
000003a0: 0a81 813d 1b49 66bd 1530 b53d 4a39 5abe
000003b0: 28f5 dc3d 9ae3 c4bd c9a0 98bd 6f80 d2bd
000003c0: 0df9 57be a956 b03c 0270 9b3d 7cbf f9bc
000003d0: eb76 24be 4675 ff3d 2645 4bbe 3c55 8bbd
000003e0: cf5a 01be 403d 30be ef77 1bbd 183a 5b3d
000003f0: 7c1c 69bd 7bb3 973d 1709 e63d 65a5 1ebe

layers.1.mu_bias f4 [256]
-0.07532675 -0.08710058 -0.044396456 -0.095913835 -0.12216627 -0.11386795 -0.027511667 -0.29708162
-0.08448482 -0.095689595 -0.106164806 -0.12328256 -0.7569687 0.18885647 0.03625728 -0.042008847
-0.7069401 -0.086851195 -0.10763858 -0.26993638 -0.1053873 -0.012297291 -0.10022801 -0.061392955
-0.057822157 0.08825274 -0.082927324 0.71896124 0.09089358 -0.053384136 0.024706565 -0.10864029
0.022504272 -0.08483249 0.15125115 -0.2550323 -0.10397079 -0.119326256 -0.14030086 -0.08526751
-0.07173762 0.15814818 -0.0897962 -0.1956352 0.49323836 0.32374534 -0.074100815 -0.13341141
-0.06901472 0.42674577 -0.06619606 -0.07079077 -0.11107258 -0.045358367 -0.07106349 -0.01236103
-0.06462012 -0.019857155 -0.13088495 -0.11376918 -0.12531719 -0.078044824 -0.11711272 -0.16379434
0.62319344 0.21359392 -0.052094392 -0.27018633 -0.031044854 0.07301109 -0.09335741 -0.07621243
-0.060883585 -0.07640972 -0.16738622 -0.057225134 0.47259235 -0.12919907 -0.061154604 -0.24342476
-0.12654291 -0.0771922 0.22336031 -0.082488656 -0.078771435 -0.14477724 0.51088053 0.12235548
-0.123112574 0.7372934 -0.065450095 -0.088924415 -0.05256235 0.39600056 1.6489955 -0.10403677
0.6291816 -0.036740124 1.1152405 -0.05889575 1.1183379 0.0024386493 -0.03435718 -0.119426444
-0.061439376 1.1041927 -0.09119817 -0.12352831 0.12913309 -0.091481164 0.028040888 -0.015392727
-0.05138751 -0.073060036 -0.08084192 -0.09656223 -0.058732696 -0.047913264 -0.15599842 -0.17712235
-0.057776604 -0.11302879 -0.15331322 -0.07024792 1.7745523 -0.119759604 0.06402302 -0.16648857
0.4494514 -0.09106605 0.882821 0.04595892 -0.0933775 0.07768144 0.1815558 0.7199228
1.6773171 -0.105620585 0.55239534 -0.12790062 -0.114911795 -0.5966293 0.010739935 -0.061920207
0.16653639 -0.04734365 -0.016101642 0.59574676 0.3324199 -0.12885483 -0.061402887 -0.2192754
0.17648795 0.009466144 0.02552046 1.1297444 0.06581301 -0.1328809 -0.10678835 0.0048332647
-0.08539176 -0.11398432 0.11724731 0.15683825 -0.095400676 -0.09714768 -0.052349497 -0.031302903
-0.090592384 -0.08989725 -0.026381275 0.10162162 -0.004280031 -0.093054876 -0.08312542 -0.087697804
0.316976 -0.081655405 -0.014505094 -0.10785475 -0.077795096 1.8140733 -0.14845303 0.2580864
-0.102901995 -0.17599384 0.041309293 -0.074035995 -0.0803471 -0.071889125 0.19550624 -0.7215028
-0.30728495 -0.12149853 0.20725524 -0.12518838 -0.09661791 -0.1082425 -0.08482993 -0.094889544
-0.08454765 -0.0016383341 -0.15362036 -0.07690213 -0.18374424 0.12707713 0.85164696 -0.10609584
-0.09035364 0.29995933 -0.07526098 0.20587333 -0.09507649 -0.14427337 -0.08541816 -0.13405505
-0.1058039 -0.06894408 -0.1543456 0.002885727 -0.12047965 -0.24217325 -0.085910715 -0.102611676
0.26830286 -0.07649227 -0.0069573773 -0.08139853 -0.052495465 -0.039739158 -0.103825055 0.032657966
-0.10087908 -0.0838001 0.6315008 -0.10176751 -0.102271736 -0.09940875 -0.08334082 -0.09656495
0.014948993 -0.059994485 1.5440451 -0.0118709905 -0.16188103 -0.070261836 -0.073523834 -0.047314376
0.020981608 -0.16220507 -0.10986877 -0.10258831 -0.16775203 0.24977073 0.5656391 -0.08046058
00000000: e944 9abd ca61 b2bd 0fd9 35bd 796e c4bd
00000010: 4f32 fabd 9a33 e9bd 2660 e1bc 151b 98be
00000020: 6106 adbd e8f8 c3bd ef6c d9bd 917b fcbd
00000030: b3c8 41bf 9763 413e 8382 143d 7811 2cbd
00000040: 07fa 34bf 0adf b1bd 9e71 dcbd 1a35 8abe
00000050: 4cd5 d7bd 947a 49bc 5844 cdbd 2e77 7bbd
00000060: edd6 6cbd dabd b43d cdd5 a9bd d80d 383f
00000070: 6a26 ba3d 53a9 5abd 6c65 ca3c cd7e debd
00000080: e15a b83c a8bc adbd 95e1 1a3e 9893 82be
00000090: a3ee d4bd 5361 f4bd 07ab 0fbe bba0 aebd
000000a0: 2ceb 92bd 99f1 213e 12e7 b7bd 9854 48be
000000b0: bd89 fc3e f3c1 a53e 2bc2 97bd 009d 08be
000000c0: 9757 8dbd 6c7e da3e cd91 87bd c0fa 90bd
000000d0: 057a e3bd b2c9 39bd bc89 91bd eb85 4abc
000000e0: 8e57 84bd 79ab a2bc b406 06be d1ff e8bd
000000f0: 2653 00be f7d5 9fbd cbd8 efbd b4b9 27be
00000100: 9b89 1f3f 5db8 5a3e ee60 55bd dd55 8abe
00000110: c751 febc d786 953d 2b32 bfbd 4315 9cbd
00000120: 1161 79bd b37c 9cbd 4b67 2bbe e764 6abd
00000130: a0f7 f13e c34c 04be 407d 7abd 5744 79be
00000140: 7794 01be f216 9ebd 91b8 643e d0ef a8bd
00000150: eb52 a1bd 7c40 14be 11c9 023f 8395 fa3d
00000160: 7222 fcbd 43bf 3c3f b30a 86bd 011e b6bd
00000170: 9e4b 57bd 96c0 ca3e 4912 d33f 3b11 d5bd
00000180: 0c12 213f d07c 16bd 33c0 8e3f ac3c 71bd
00000190: b225 8f3f bfd1 1f3b 1dba 0cbd da95 f4bd
000001a0: dba7 7bbd 3056 8d3f 1bc6 babd 69fc fcbd
000001b0: 773b 043e 7a5a bbbd 01b6 e53c c731 7cbc
000001c0: b67b 52bd 80a0 95bd 7390 a5bd 6bc2 c5bd
000001d0: b291 70bd b340 44bd 0dbe 1fbe 905f 35be
000001e0: 29a7 6cbd a37b e7bd 24fe 1cbe 24de 8fbd
000001f0: 8824 e33f 8644 f5bd 801e 833d fb7b 2abe
00000200: 7e1e e63e d680 babd 8f00 623f 6c3f 3c3d
00000210: b43c bfbd 7217 9f3d c3e9 393e dc4c 383f
00000220: 54b2 d63f 9b4f d8bd c869 0d3f 61f8 02be
00000230: e056 ebbd b3bc 18bf 8df6 2f3c 0ba0 7dbd
00000240: 8488 2a3e 6aeb 41bd 97e7 83bc dc82 183f
00000250: f132 aa3e 85f2 03be 9881 7bbd bb89 60be
00000260: 42b9 343e e317 1b3c 4910 d13c 779b 903f
00000270: f9c8 863d ee11 08be dab3 dabd 5d60 9e3b
00000280: e0e1 aebd 9c70 e9bd 5c1f f03d 359a 203e
00000290: 6e61 c3bd 5df5 c6bd 6d6c 56bd 7937 00bd
000002a0: 8088 b9bd 0d1c b8bd 8b1d d8bc ff1e d03d
000002b0: 813f 8cbb 8e93 bebd a93d aabd e89a b3bd
000002c0: ae4a a23e f33a a7bd c6a6 6dbc f3e2 dcbd
000002d0: 0953 9fbd 8e33 e83f 1204 18be e723 843e
000002e0: 48be d2bd bb37 34be ef33 293d 2fa0 97bd
000002f0: 058d a4bd 9b3a 93bd ca32 483e 68b4 38bf
00000300: 7454 9dbe 39d4 f8bd b83a 543e 6231 00be
00000310: 9cdf c5bd 3eae ddbd 50bb adbd 7355 c2bd
00000320: 5127 adbd 5fbd d6ba a84e 1dbe dd7e 9dbd
00000330: 7327 3cbe 8220 023e 8905 5a3f c748 d9bd
00000340: 540b b9bd 4594 993e 6e22 9abd 75d0 523e
00000350: 76b7 c2bd 66bc 13be b7ef aebd ba45 09be
00000360: b7af d8bd 8e32 8dbd c60c 1ebe 771e 3d3b
00000370: 09be f6bd 44fc 77be f5f1 afbd 1226 d2bd
00000380: fe5e 893e fba7 9cbd b6fa e3bb 46b4 a6bd
00000390: 7c05 57bd 87c5 22bd 3ba2 d4bd 5cc4 053d
000003a0: b199 cebd 639f abbd 09aa 213f 7c6b d0bd
000003b0: d873 d1bd d196 cbbd 98ae aabd d8c3 c5bd
000003c0: 9fec 743c c7bc 75bd 45a3 c53f 8b7e 42bc
000003d0: 24c4 25be 70e5 8fbd aa93 96bd b8cc 41bd
000003e0: 9fe1 ab3c 1619 26be e102 e1bd d219 d2bd
000003f0: 30c7 2bbe e6c3 7f3e b9cd 103f 84c8 a4bd
