src/remake/Noisy_Double_DQN_n_step_1_vs_weak/weights/episode_1500.pth (torch, 875526 bytes, 14 tensors)

layers.0.weight f4 [256, 18]
0	0x3dcf2479	0.101143785
1	0xbcaa99a7	-0.02082522
2	0xbe3d3e84	-0.18480879
3	0x3db11568	0.08646661
4	0x3c8eedda	0.0174474
5	0xbd49b640	-0.049246073
6	0x3e0064c8	0.12538445
7	0x3f2d6dc7	0.6774563
8	0xbfe1f796	-1.7653682
9	0x3f3329ff	0.69985956
10	0xbebde0af	-0.37085482
11	0xbc8e8038	-0.017395124
12	0xbed976ce	-0.42473453
13	0xbf3578db	-0.70887536
14	0xbc013dd1	-0.007888273
15	0xbec50a74	-0.38484538
16	0xbfcf1cae	-1.6180627
17	0xbf5d9c35	-0.8656648
18	0xbe8d72f0	-0.27626753
19	0xbdfe7fa1	-0.12426687
20	0x3e31aa06	0.17350015
21	0xbd45247b	-0.048130494
22	0xbcd26137	-0.025681121
23	0x3d61ed27	0.055157807
24	0xbc1b79b1	-0.009489463
25	0xbe47660f	-0.19472526
26	0x3f22510c	0.6340492
27	0xbe69d09d	-0.22833486
28	0xbee50269	-0.447284
29	0xbd538013	-0.051635813
30	0x3dc138f3	0.0943469
31	0xbf71f754	-0.9451802
32	0x3ebd7d16	0.37009495
33	0xbd3dbeb6	-0.046324454
34	0x3f04de8a	0.5190207
35	0x3f76dcde	0.96430767
36	0xbd3164f1	-0.043309156
37	0xbe7f3acd	-0.24924774
38	0xbce57e42	-0.028014306
39	0x3d463b03	0.04839612
40	0x3c51254c	0.01276524
41	0x3cfe75c6	0.031062018
42	0xbf019a13	-0.50625724
43	0x3c7ebd63	0.015548083
44	0x3e86af70	0.26305723
45	0xbe477968	-0.19479907
46	0xbed4451a	-0.4145897
47	0xbc102781	-0.008798481
48	0xbf030d19	-0.5119186
49	0x3fa60a4f	1.2971896
50	0xbe0c5cbd	-0.13707252
51	0x3f1f0e27	0.6213097
52	0x3e6fc2e8	0.23414195
53	0xbf336860	-0.7008114
54	0x3d8f00f2	0.06982602
55	0x3c28d2c3	0.010304156
56	0xbcf32f61	-0.029685678
57	0x3cccacee	0.024984803
58	0xbd904670	-0.07044685
59	0xbd6c955e	-0.057759635
60	0x3f45439e	0.770563
61	0x3eef692b	0.46759924
62	0x3f5937eb	0.8485095
63	0x3e950d41	0.29111674
64	0xbe7d49d7	-0.24735199
65	0xbda42af0	-0.08016002
66	0x3f213401	0.62969977
67	0x3e6a61be	0.22888848
68	0x3f780825	0.9688743
69	0x3cf78c66	0.030218314
70	0xbf282a3e	-0.65689456
71	0x3f1bcd5d	0.60860234
72	0x3dbf6445	0.09345297
73	0x3d0b2d8e	0.03397899
74	0x3cabad01	0.020956518
75	0xbdfd1cca	-0.12359007
76	0xbd99ad32	-0.075037375
77	0xb9cd7888	-0.0003919045
78	0x3ea80dfe	0.32823175
79	0xbd9b618f	-0.07586967
80	0x3fe73c18	1.8065214
81	0x3e57aa67	0.21061097
82	0x3eb84498	0.35989833
83	0x3e46d606	0.19417581
84	0x3e275bad	0.16343565
85	0xbeaa6148	-0.33277345
86	0x3f476982	0.7789537
87	0xbeb171c3	-0.34657106
88	0xbe728142	-0.2368212
89	0xbd89531b	-0.06705304
90	0xbd9ae83b	-0.07563826
91	0xbf3adba7	-0.7299141
92	0xbebea9d5	-0.37238947
93	0xbdcca19d	-0.09991763
94	0x3e88fe2d	0.2675642
95	0xbd69ac4f	-0.057049092
96	0x3c99c19f	0.018769084
97	0x3fd890d5	1.6919199
98	0x40050fa8	2.0790806
99	0x3efdebf7	0.4959409
100	0x3e627978	0.22116649
101	0x3dafd817	0.08586138
102	0xbf2312c6	-0.6370052
103	0xbe993189	-0.29920605
104	0xbeb0e743	-0.3455144
105	0xbeb3e119	-0.35132673
106	0xbf953b0e	-1.1658647
107	0xbda75946	-0.081713244
108	0x3e92647a	0.28592283
109	0x3f315d7e	0.6928328
110	0xbe5f4546	-0.2180377
111	0x3d730ac1	0.059336428
112	0x3e4a9fea	0.19787565
113	0x3d1c643d	0.038181532
114	0x3e2228b4	0.1583584
115	0xbf3a521f	-0.72781557
116	0x3ebe3458	0.3714931
117	0x3d281329	0.041033898
118	0x3bfd71fe	0.007734536
119	0xbb26423c	-0.0025369069
120	0xbeed312e	-0.46326584
121	0x3ebd3839	0.36956957
122	0xbc163df1	-0.009170041
123	0x3d8245b3	0.0636095
124	0xbf230f90	-0.6369562
125	0xbe03a20d	-0.12854786
126	0x3d123bad	0.035701443
127	0x3ebe9e49	0.37230137
128	0x3d14fd46	0.036374353
129	0x3d38ed4d	0.045148183
130	0x3c907183	0.017632252
131	0xbb6fa50f	-0.0036566888
132	0x3f40d296	0.7532133
133	0xbdaddd86	-0.08489518
134	0xbfc697dc	-1.5515094
135	0x3ea6f275	0.32606855
136	0xbd98e0d7	-0.0746476
137	0x3cb52551	0.02211252
138	0xbeb85ee7	-0.36009905
139	0x3e7aec0d	0.24504109
140	0xbeb37dad	-0.3505682
141	0xbdaf0609	-0.08546073
142	0x3e986495	0.29764238
143	0x3fa54907	1.2912911
144	0x3e025248	0.127267
145	0xbddb3214	-0.10702911
146	0x3e03ffcb	0.12890546
147	0x3df319f6	0.11870186
148	0xbc444681	-0.0119797
149	0xbc9aa1e8	-0.018876031
150	0x3f3b854a	0.7325026
151	0xbfd1db38	-1.6395025
152	0x3fdc1018	1.7192411
153	0x3b0da879	0.002161531
154	0xbeaf8b08	-0.3428576
155	0xbdf61441	-0.12015582
156	0xbe97f6b2	-0.296804
157	0xbf83dc92	-1.0301688
158	0xbf2caa97	-0.674478
159	0xbe4f5fef	-0.2025144
160	0x400e9207	2.2276628
161	0x3ccc8917	0.024967713
162	0x3de45471	0.111489184
163	0x3e245afe	0.16050336
164	0xbe60cebf	-0.21953867
165	0x3d283524	0.041066304
166	0xbca62b9f	-0.020284472
167	0xbcd6fbe8	-0.026243165
168	0x3f7f71ca	0.99783003
169	0xbf51f934	-0.8202088
170	0x3b02e6a8	0.0019973908
171	0x3e524fac	0.20538205
172	0xbe765e97	-0.2405952
173	0x3cac9ccb	0.021070858
174	0xbeb88b1d	-0.36043635
175	0xbfae1417	-1.3599881
176	0xbd66f4b2	-0.056385703
177	0xbdc8de81	-0.09808064
178	0x3f8f9060	1.1215935
179	0x3f12c140	0.57326126
180	0xbe43259f	-0.1905732
181	0xbcaad390	-0.020852834
182	0x3ef40aa5	0.4766437
183	0x3e2bfdc3	0.16796021
184	0x3d46a929	0.048501167
185	0xbcead238	-0.028664693
186	0x3dfeed22	0.12447573
187	0x4015f7e0	2.343254
188	0x3f252cfa	0.64521754
189	0xbe68e502	-0.2274361
190	0x3f98a7a7	1.1926163
191	0x3dfe81a1	0.124270685
192	0xbf2db769	-0.67857987
193	0xbec3ac11	-0.38217214
194	0xbe9c29c4	-0.30500615
195	0xbeddc9dd	-0.43318072
196	0x3dd6fe29	0.10497696
197	0x3dbefc70	0.093254924
198	0x3dc41d0c	0.09575853
199	0xbcb16824	-0.021656103
200	0xbd60db2a	-0.05489651
201	0xbd3bb9eb	-0.045831602
202	0x3dae6119	0.08514614
203	0xbc3adb07	-0.011404759
204	0x3eb27c3f	0.34860417
205	0xbfbec8d1	-1.4905034
206	0xc00ef753	-2.2338455
207	0xbda49ac8	-0.08037335
208	0x3e5ada6a	0.21372381
209	0xbdeaa9c5	-0.11458162
210	0x3eb089ae	0.3448004
211	0xbf8aa670	-1.0832043
212	0x3e3ad36f	0.18244718
213	0xbf5a2d3a	-0.8522526
214	0xbdd441d2	-0.10364117
215	0xc008debb	-2.1385944
216	0x3e0598e9	0.13046612
217	0xbdefa7b6	-0.1170191
218	0x3ebc24e6	0.367469
219	0x3ce42595	0.027849952
220	0xbb3d93b3	-0.0028927147
221	0xbcb11bf2	-0.02161977
222	0x3d7e60ad	0.062103916
223	0xc0295e9c	-2.6463995
224	0xbf679997	-0.90468735
225	0xbe41059c	-0.18849796
226	0xbec9bb8c	-0.394009
227	0xbded1b4b	-0.11577471
228	0x3f0a6bb2	0.5407058
229	0xbf8467be	-1.034416
230	0x3e2ab277	0.16669641
231	0xbf9282e5	-1.1446196
232	0xbda08745	-0.078383006
233	0x3d0ed4f1	0.034871046
234	0xbd6ae110	-0.057343543
235	0x3eeb6296	0.45973653
236	0x3d0569ff	0.03257179
237	0x3d08ca00	0.033395767
238	0x3d05c0ae	0.032654457
239	0x3d3a63a2	0.045505174
240	0x3f527ed1	0.82224756
241	0x3fb85c60	1.4403191
242	0xbfc2b4e9	-1.5211459
243	0x3e17311c	0.14764827
244	0x3ed73046	0.42029017
245	0xbd98aab4	-0.07454434
246	0x3f01c1e9	0.5068651
247	0x3f22e248	0.6362653
248	0x3d26f26c	0.040758535
249	0xbd719c1c	-0.058986768
250	0xbe98d3c1	-0.29849055
251	0xbe75fb21	-0.2402158
252	0xbe82ed5f	-0.25571725
253	0xbe46c5d7	-0.19411407
254	0xbdb0d50c	-0.086343855
255	0x3afe7a07	0.0019415029

layers.0.bias f4 [256]
0	0x3f88636e	1.0655344
1	0x3eb183ab	0.34670767
2	0xbed60c76	-0.41806382
3	0x3df963fd	0.121772744
4	0xbc64be4e	-0.013961388
5	0xbeae1b8c	-0.34005392
6	0x3f8a7320	1.0816383
7	0x3ec42658	0.38310504
8	0x3f4e72db	0.80644006
9	0x3f677a59	0.9042106
10	0x3f8bf397	1.0933713
11	0x3f15a5bb	0.5845601
12	0xbed09efe	-0.407463
13	0x3fb625b6	1.4230258
14	0x3fc9409f	1.5722846
15	0x3e2110ed	0.15729113
16	0xbf5e9cd8	-0.86958075
17	0x3fe6a421	1.8018838
18	0x3f130b82	0.57439435
19	0x3f82aec7	1.0209588
20	0xbfb80cec	-1.4378943
21	0x3fae3532	1.3609984
22	0xbf2ff3a4	-0.6873114
23	0x3fe36ee1	1.7768213
24	0xbe7704b8	-0.24122894
25	0x3d2bc230	0.04193324
26	0xbea7475c	-0.3267163
27	0xbebd5074	-0.36975443
28	0xbec487c9	-0.38384846
29	0xbf274fbd	-0.65356046
30	0xbd9fd30e	-0.07803927
31	0x3fe67eb2	1.8007414
32	0xbf9d8c4c	-1.230844
33	0xbe271c97	-0.163195
34	0x3f8ae303	1.0850528
35	0xbeaafb15	-0.33394685
36	0xbf4c897d	-0.7989729
37	0xbf4bf090	-0.79663944
38	0xbf8f0f4b	-1.1176542
39	0x3f84f2a9	1.0386554
40	0x3fb01dd0	1.3759098
41	0x3eef1010	0.46691942
42	0xbf708485	-0.9395221
43	0x3dbd8eaa	0.09255727
44	0x3f8d7ca5	1.1053663
45	0xbf9f0af7	-1.2425221
46	0xbd909b23	-0.0706084
47	0x3fb4fcf1	1.4139692
48	0x3fdb6ff1	1.7143537
49	0x3f58d9b2	0.84707177
50	0x3fdfbe16	1.7479885
51	0xbf63c90b	-0.8897864
52	0xbf238eb3	-0.63889617
53	0xbef2fcaa	-0.47458392
54	0x3ed32b20	0.4124384
55	0xbfb374a8	-1.4019976
56	0xbf129d07	-0.57270855
57	0x3ff7f79e	1.9372442
58	0xbf04d493	-0.5188686
59	0x3f9a482e	1.2053277
60	0x3f8297df	1.0202597
61	0x3fa56715	1.2922083
62	0xbf12a93a	-0.5728947
63	0xbf6493ff	-0.89288324
64	0x3f3874e1	0.72053343
65	0xbf2e9bc4	-0.6820643
66	0x3ebe6b49	0.37191227
67	0x3f603e94	0.87595487
68	0xbd268805	-0.040657062
69	0x3fa98af4	1.324553
70	0x3f910266	1.1328857
71	0x3f39514a	0.7238966
72	0x3fd45145	1.6587301
73	0xbf7fb45c	-0.9988458
74	0xbe956231	-0.29176477
75	0xbee08195	-0.43848863
76	0x3efb1198	0.4903686
77	0x3f0b31bc	0.54372764
78	0x3f57f180	0.84352875
79	0x3df6fd37	0.12060016
80	0x3d929d54	0.07158914
81	0xbf280530	-0.65632915
82	0x3e22e2bf	0.1590681
83	0x3ea7f70a	0.32805663
84	0xbe9349ff	-0.28767392
85	0x3f358607	0.70907634
86	0xbef511e2	-0.47865206
87	0xbe011e11	-0.12609126
88	0xbe78fa1f	-0.24314164
89	0x3f847073	1.0346817
90	0xbfc59f15	-1.5439173
91	0xbf2280b6	-0.6347765
92	0x3e2596ea	0.1617085
93	0x3e9bae9a	0.30406648
94	0xbe23267b	-0.15932648
95	0xbe88e3bb	-0.26736245
96	0xbf919bcf	-1.1375674
97	0xbd035c71	-0.03207058
98	0x3ff6f316	1.9292934
99	0xbe792e89	-0.24334158
100	0xc01072d4	-2.2570086
101	0x3f129c9d	0.5727022
102	0xc01ac8ae	-2.4184985
103	0x3fde1ef5	1.7353197
104	0xbfb9bd8d	-1.4510971
105	0xbf8bb6da	-1.0915177
106	0xbea8b796	-0.32952565
107	0x40046c24	2.0691004
108	0x3edb26f4	0.42803156
109	0x3c04fca6	0.008116877
110	0x3eb394f4	0.3507458
111	0x3f9a4820	1.2053261
112	0x3d2c1f0a	0.04202179
113	0x3f8e778a	1.113023
114	0x3f781c7d	0.9691847
115	0xbf950e3e	-1.1644971
116	0xbe965574	-0.2936207
117	0xbedd9642	-0.432787
118	0xbebe43bf	-0.3716106
119	0xbd9debc6	-0.07710986
120	0xbf17e3f6	-0.59332216
121	0xbf8054e9	-1.0025913
122	0xbecd6122	-0.4011317
123	0xbe9911ff	-0.29896542
124	0xbfb17662	-1.3864253
125	0x3ff9cbf5	1.9515368
126	0xbf9f7bbb	-1.2459635
127	0xbfb4c442	-1.4122393
128	0xbf5bf198	-0.8591552
129	0xbf42bf63	-0.7607328
130	0x3fdcead6	1.7259166
131	0xbf512185	-0.8169177
132	0xbedcc451	-0.43118528
133	0x3fd963f4	1.6983628
134	0xbd511d87	-0.05105355
135	0x3f00b160	0.5027065
136	0x3daaa562	0.083323255
137	0x3f7c2dbe	0.985073
138	0x3da1cf9e	0.07900928
139	0x3e07788c	0.13229579
140	0x3fda7e23	1.7069744
141	0xbee1a709	-0.4407275
142	0xbe409e18	-0.18810308
143	0xbf009f0f	-0.50242704
144	0xbff3e392	-1.9053824
145	0xbfb8322d	-1.4390312
146	0xbe357ba6	-0.1772295
147	0x3e5db4e8	0.21651042
148	0xbef8ecca	-0.48618156
149	0xbfa90631	-1.3205014
150	0xbf6f4939	-0.93471104
151	0x3cc99f03	0.024611956
152	0xbf31cfaf	-0.69457525
153	0xbe9f904a	-0.3116477
154	0xbecc54d0	-0.39908457
155	0xbfb3f398	-1.4058714
156	0xbe57d1ff	-0.21076201
157	0xbeb6820a	-0.35646087
158	0xbd453a90	-0.048151553
159	0xbe087ce4	-0.13328892
160	0xbe3f43c0	-0.18678188
161	0x3f619562	0.88118565
162	0x3fb39b62	1.4031794
163	0xbf50de7b	-0.8158948
164	0x3dd8bd02	0.105829254
165	0xbd86f570	-0.06589782
166	0xbeae07af	-0.33990237
167	0x3eb4a3fb	0.35281357
168	0xbee4f3c8	-0.4471724
169	0xbfc65af8	-1.5496511
170	0xbfad26e4	-1.3527493
171	0x3e68e5a2	0.22743848
172	0x3f8c484c	1.0959563
173	0x3e9c6896	0.30548543
174	0x3e7e2b0a	0.24821106
175	0xbf8f1939	-1.1179572
176	0xbf49f520	-0.78889656
177	0x3e5d0ea3	0.21587615
178	0x3f8e2af3	1.1106857
179	0x3d8a7244	0.06760076
180	0xbe9c053f	-0.30472752
181	0xbf98ce38	-1.1937933
182	0xbf8d4132	-1.1035521
183	0x3f56b48d	0.8386925
184	0x3dbea140	0.093081
185	0x3f3e80a9	0.7441507
186	0xbe6c29c4	-0.23062807
187	0xbf987c15	-1.1912867
188	0xc015fb6a	-2.34347
189	0x3f504f07	0.81370586
190	0xbee1d7d1	-0.44109967
191	0xbeb71b03	-0.35762796
192	0xbf5c6bf8	-0.8610225
193	0x3ef3ceb2	0.47618634
194	0xbcb0b271	-0.021569462
195	0x3f86ca3f	1.0530471
196	0x3efce088	0.49390054
197	0xbf14ac42	-0.58075345
198	0xbf4b046d	-0.7930363
199	0x3fca4275	1.5801531
200	0x3d9a3780	0.07530117
201	0xbb729093	-0.0037012442
202	0xbf872d86	-1.0560768
203	0x3c853eeb	0.016265353
204	0x3f17040e	0.5899056
205	0xbcd5a9a0	-0.02608186
206	0xbf5e89bb	-0.8692891
207	0x400da0c6	2.2129378
208	0xbf081a80	-0.53165436
209	0x3f524a25	0.82144386
210	0x3f1bc59e	0.60848415
211	0xbf2c9472	-0.6741401
212	0xbf11dcc5	-0.5697749
213	0x403fa2e4	2.994317
214	0x3d8526d0	0.065015435
215	0xbf0275cc	-0.50960994
216	0xbf872e5f	-1.0561026
217	0x3e750f24	0.23931557
218	0xbf13d64d	-0.5774887
219	0xbfadacf6	-1.3568408
220	0xbe083194	-0.13300163
221	0x3f3a5b40	0.72795486
222	0xbf58829c	-0.84574294
223	0xbf16de5b	-0.5893304
224	0x3ed7ee34	0.42173922
225	0x3ddafdd3	0.106929444
226	0x3e3f83b5	0.18702586
227	0xbe048eef	-0.1294515
228	0xbfb7d3ab	-1.4361471
229	0xbf403fdb	-0.75097436
230	0xbf87e607	-1.0617074
231	0x3f4e6973	0.8062965
232	0x3fa3dcab	1.2801718
233	0xbee172a0	-0.44032764
234	0x3faa4568	1.3302431
235	0xbfaf9be0	-1.3719444
236	0x4019500b	2.3955104
237	0x3f785e84	0.9701922
238	0xbb34e348	-0.002760129
239	0xbfce2f40	-1.610817
240	0x3f23b69e	0.63950527
241	0x3da53644	0.08066991
242	0xbe8e3c9a	-0.2778061
243	0xbfad6d8e	-1.3549058
244	0x3fd039cc	1.6267638
245	0x3f808c4b	1.0042814
246	0xbf1e05d4	-0.61727643
247	0x3ecea898	0.40363002
248	0x3e82b318	0.25527263
249	0xbf85f680	-1.0465851
250	0x3f35594f	0.708394
251	0x3d4d5335	0.05012818
252	0x3f737fcb	0.9511687
253	0x3f20b639	0.6277805
254	0x3f8907c9	1.0705501
255	0xbf763f35	-0.96190196

layers.1.weight_mu f4 [256, 256]
0	0xbd2ea6fb	-0.042639714
1	0xbe2c9df9	-0.16857137
2	0xbd395dd0	-0.045255482
3	0x3dc4c5cf	0.096080415
4	0x3d9a6027	0.07537871
5	0xbc3327f2	-0.010934817
6	0x3c420c33	0.011843729
7	0xbe273d72	-0.16332033
8	0xbe07c1e3	-0.13257556
9	0x3da4dc33	0.08049812
10	0x3b93794a	0.004500543
11	0xbddb4e6a	-0.10708316
12	0x3d0efc44	0.034908548
13	0x3d594636	0.053045474
14	0x3d6b9648	0.057516366
15	0x3df37087	0.11886697
16	0xbe0248b6	-0.1272305
17	0xbd8a42f4	-0.067510515
18	0xbd2dfd13	-0.04247768
19	0x3e015a07	0.12631999
20	0xbca4ce68	-0.020117953
21	0xbb9c4da9	-0.00477
22	0x3d97d68e	0.0741397
23	0x3e41436f	0.1887338
24	0x3ddc34b1	0.107522376
25	0xbdeee2da	-0.11664362
26	0x3e514a91	0.20438601
27	0x3de5e44c	0.11225185
28	0xbe356135	-0.17712863
29	0x3bb504c3	0.0055242493
30	0x3cfd1959	0.030895876
31	0xbc58ca12	-0.013231771
32	0xbe2d6660	-0.16933584
33	0x3d97a154	0.07403818
34	0x3d628ff2	0.05531306
35	0xbc846519	-0.016161488
36	0x3d8d7b25	0.069082536
37	0xbd5335d3	-0.051565003
38	0xbe1e5eda	-0.1546587
39	0xbe03960f	-0.12850212
40	0xbc00176d	-0.007818085
41	0x3db6d16c	0.08926663
42	0xbd6795ef	-0.056539472
43	0x3b710404	0.0036776075
44	0xbdc6ac89	-0.09700877
45	0x3bf7e6bf	0.007565349
46	0xbd92f85c	-0.07176277
47	0x3e3bbf7f	0.18334769
48	0xbd454b46	-0.04816749
49	0x3c8927e5	0.016742656
50	0x3d55bfca	0.052184857
51	0xbd8d3db8	-0.068965375
52	0x3dd0741b	0.10178395
53	0x3b49d37a	0.0030796216
54	0x3dc7a910	0.09749043
55	0x3e4a84c6	0.19777212
56	0xbd782160	-0.060578704
57	0xbd2c6670	-0.04208988
58	0xbd585111	-0.052811686
59	0xbd2de1e1	-0.042451743
60	0x3d30cb49	0.043162618
61	0xbd4604f1	-0.048344556
62	0x3e4f1026	0.20221004
63	0x3c292c77	0.010325543
64	0x3c16482c	0.009172481
65	0xbd975c6a	-0.073906735
66	0x3a75051a	0.00093467685
67	0xbddd1beb	-0.107963406
68	0x3db480e6	0.08813648
69	0x3c2ce3b2	0.010552334
70	0xb8162e2a	-3.580578e-05
71	0xbe05ce2a	-0.13066927
72	0x3bc70a41	0.0060742204
73	0xbdafec46	-0.085899875
74	0xbd1b7d87	-0.03796151
75	0x3d6f6c25	0.058452744
76	0x3e070fd1	0.13189627
77	0xbccf351d	-0.025293881
78	0x3e1e21cb	0.15442578
79	0xbd159272	-0.036516614
80	0xbd7d9e4d	-0.061918546
81	0xbe399af9	-0.18125524
82	0xbd633e0a	-0.055479087
83	0x3dcc41cb	0.099734865
84	0xbcc871d0	-0.024468333
85	0x3e76329b	0.24042742
86	0x3e0aecf3	0.13566951
87	0xbdecfa4b	-0.11571177
88	0x3de6f294	0.11276737
89	0xbd2cffc1	-0.042236093
90	0x3eab9f07	0.33519766
91	0x3e25079a	0.16116181
92	0x3d64d830	0.055870235
93	0xbdb5964c	-0.088665575
94	0x3bdc7e71	0.00672894
95	0x3e699c57	0.22813545
96	0x3df26993	0.11836543
97	0x3d5f0d65	0.054456133
98	0xbd731adf	-0.0593518
99	0x3aa903da	0.0012894825
100	0x3c34736f	0.01101385
101	0xbd51a941	-0.051186804
102	0xbe0c5eb3	-0.13708
103	0x3d7672f4	0.06016822
104	0xbdef6725	-0.11689595
105	0xbde56507	-0.1120091
106	0xbc3fcb64	-0.011706207
107	0x3e90589f	0.28192613
108	0x3db055a9	0.086100884
109	0xbd9644df	-0.07337355
110	0x3c710aa0	0.014712006
111	0xbc57e094	-0.013176102
112	0xbc726a02	-0.014795782
113	0x3e256c81	0.16154672
114	0xbda34685	-0.07972435
115	0xbe5a615d	-0.21326204
116	0xbc87b962	-0.01656789
117	0xbe8be868	-0.2732575
118	0xb87c2d30	-6.0123566e-05
119	0xbdcaada1	-0.09896398
120	0x3d2fdd45	0.04293563
121	0x3cd35e0b	0.02580168
122	0xbdf759c4	-0.12077668
123	0x3e4fe73d	0.20303054
124	0x3de22ab6	0.11043303
125	0xbe553b88	-0.2082349
126	0xbde80a24	-0.11330059
127	0x3d912145	0.07086424
128	0x3aebd6dc	0.001799311
129	0xbcadddb3	-0.021223878
130	0xbd92b42a	-0.0716327
131	0x3ca17df6	0.019713383
132	0x3c909f6a	0.01765414
133	0xbd6b3923	-0.057427537
134	0xbce7b42a	-0.028284151
135	0xbce5c5cf	-0.028048424
136	0x3dfd4df4	0.12368384
137	0x3d902246	0.07037787
138	0xbbf14c31	-0.007363819
139	0x3df26bbc	0.11836955
140	0xbe3a5338	-0.18195808
141	0x3e1256c9	0.14290918
142	0xbcc65b65	-0.024213502
143	0x3d0f7397	0.035022344
144	0xbcf61090	-0.030037194
145	0xbbff2524	-0.00778641
146	0xbdb91cd3	-0.09038701
147	0x3e0a06b1	0.13479115
148	0xbe24bc9e	-0.16087577
149	0xbd657530	-0.05601996
150	0x3d6c6077	0.057709184
151	0xbe0dd958	-0.13852441
152	0x3d1dd636	0.038534366
153	0x3c9f4b50	0.019445091
154	0x3de67c75	0.11254207
155	0xbdb61d56	-0.08892314
156	0x3dd5cce0	0.104394674
157	0xbdcec312	-0.100958005
158	0x3d08d791	0.033408705
159	0xbe4dec7c	-0.20109743
160	0xbdac9e19	-0.08428592
161	0xbe026438	-0.12733543
162	0xbc46399a	-0.012098694
163	0x3d458f67	0.048232462
164	0x3a8cf063	0.0010752793
165	0x3e5c9086	0.21539506
166	0x3c1f31a8	0.009716429
167	0x3d1862ab	0.037203472
168	0xbd03ca7e	-0.032175533
169	0xbdd98cb8	-0.10622543
170	0xbce203b0	-0.027589649
171	0xbc6178a9	-0.013761678
172	0xbd019315	-0.03163441
173	0x3d8bca40	0.068256855
174	0x3d6b53f8	0.057453126
175	0x3d8f9717	0.0701124
176	0x3e1f29dd	0.15543313
177	0xbcf9771e	-0.030452307
178	0xbc53273d	-0.012887773
179	0x3dbaa6e3	0.09113862
180	0xbcd654c8	-0.026163474
181	0x3ca3b3f2	0.019983266
182	0x3cc23c02	0.023710255
183	0x3e2325f3	0.15932445
184	0x3d7cd75c	0.06172882
185	0xbd8c09a5	-0.06837777
186	0x3df43fc9	0.119262286
187	0xbd7981fb	-0.060914975
188	0xbdec9aac	-0.11552939
189	0x3d5028c5	0.05082013
190	0xbd3efeba	-0.046629645
191	0x3dc534ec	0.09629235
192	0x3e1b6ee3	0.15179019
193	0xbe1ab65d	-0.15108629
194	0xbe1375d5	-0.14400418
195	0xbdd67347	-0.10471206
196	0x3dd702a7	0.10498553
197	0x3d17caef	0.037058767
198	0x3d04a21a	0.032381155
199	0xbe072dea	-0.13201109
200	0x3d877ccb	0.06615599
201	0x3e345821	0.17611744
202	0xbe12a273	-0.14319782
203	0x3e618898	0.22024763
204	0xbd4eb6d0	-0.050467312
205	0xbdc4a60d	-0.09601984
206	0xbcf95abc	-0.030438773
207	0xbdd6430d	-0.10462008
208	0x3d1ede87	0.038786437
209	0x3cee027a	0.029053915
210	0xbe002be6	-0.12516746
211	0xbb9ffa80	-0.004882157
212	0xbc394c45	-0.011309688
213	0x3cfbe770	0.030750006
214	0xbd7aa45a	-0.061191894
215	0x3dd43574	0.10361758
216	0x3c0c2729	0.008554258
217	0xbd55b1f8	-0.052171677
218	0x3e10421f	0.14087723
219	0xbd309701	-0.04311276
220	0xbc311bcf	-0.010809853
221	0xbdb6c391	-0.0892402
222	0x3a69bfd0	0.0008916827
223	0xbda50a98	-0.08058661
224	0xbd0fe015	-0.03512581
225	0xbdd4a855	-0.10383669
226	0xbd5f6051	-0.054535214
227	0x3dc47a4e	0.0959364
228	0xbe038d18	-0.12846792
229	0xbb939c2b	-0.0045047007
230	0xbd45b8c9	-0.048271928
231	0x3d74a581	0.05972815
232	0x3d76d2a8	0.06025949
233	0xbd2a2ac9	-0.04154471
234	0x3d5d39dd	0.05401026
235	0xbd14df2a	-0.03634564
236	0xbc967ead	-0.01837095
237	0x3dd287d1	0.10279811
238	0x3d1f220f	0.03885084
239	0x3d73b989	0.059503112
240	0x3db139ce	0.086536035
241	0xbbb28b7e	-0.0054487577
242	0xbd4f1064	-0.05055274
243	0x3e0c699d	0.13712163
244	0x3dbccff4	0.092193514
245	0x3d83eb96	0.06441419
246	0x3ccbd7de	0.024883207
247	0x3e239dc1	0.15978147
248	0x3e17e9f7	0.14835344
249	0x3d64ecae	0.055889778
250	0x3dde57d8	0.108565986
251	0x3d938e28	0.072048485
252	0x3df21adc	0.11821529
253	0xbe5e4e83	-0.21709637
254	0x3c5ed249	0.013599941
255	0x3cca5f27	0.024703575

layers.1.weight_sigma f4 [256, 256]
0	0xbca7531c	-0.020425372
1	0x3bd70c11	0.0065627177
2	0xbd93f406	-0.07224278
3	0xb9c37b50	-0.00037285173
4	0x3d2f2cfc	0.04276751
5	0xbd7c926b	-0.061663073
6	0x3d474155	0.04864629
7	0x3d97ea5a	0.07417746
8	0x3d4192e6	0.047259234
9	0xbd02aeb6	-0.0319049
10	0x3c7f21a0	0.015571982
11	0xbc2dc0f9	-0.01060509
12	0x3c80d898	0.01572828
13	0xbcda9abb	-0.02668511
14	0xbba4e480	-0.005032122
15	0xbc6e94f9	-0.014561885
16	0x3d5f1387	0.054461982
17	0x3c95b340	0.01827395
18	0xbcda871c	-0.026675753
19	0x3d942cac	0.07235083
20	0x3d8996d0	0.06718218
21	0x3c0ec83e	0.008714734
22	0x3cc80ee9	0.024421172
23	0x3c0dd385	0.008656387
24	0xbc4886a1	-0.012239129
25	0xbcf07d2d	-0.029356563
26	0xbdab3cc0	-0.083611965
27	0xbd108a0d	-0.035287905
28	0x3d793216	0.06083878
29	0x3d746d35	0.05967446
30	0x3bba307e	0.0056820503
31	0x3d00dcf8	0.031460732
32	0x3beb2982	0.007176579
33	0x3c8e61f9	0.017380701
34	0x3bd17502	0.0063921222
35	0xbd8e72ba	-0.06955476
36	0x3d00014a	0.03125123
37	0xbb614810	-0.0034375228
38	0xbcc36707	-0.023852838
39	0xbcfebacc	-0.031094931
40	0x3a43e4ec	0.00074727717
41	0xbd403589	-0.046926055
42	0x3d6fd874	0.058556035
43	0xbdbf1556	-0.093302414
44	0xbbf45b34	-0.0074571613
45	0x3ca23fe9	0.019805865
46	0x3daff69f	0.08591961
47	0xbbe9b1b3	-0.007131779
48	0xbd929e00	-0.07159042
49	0x3c45e511	0.0120785395
50	0xbc033b78	-0.008009784
51	0xbcbdb03c	-0.023155324
52	0xbd1dbb54	-0.03850873
53	0x3d806646	0.06269507
54	0x3c3d4dbd	0.011554179
55	0xbc74a5c0	-0.014932096
56	0x3d03d3a5	0.03218426
57	0x3d3bbb77	0.045833077
58	0xbce8dd8e	-0.028425958
59	0xbd2807c7	-0.041023042
60	0xbc39492a	-0.011308948
61	0xbcfd0e39	-0.030890571
62	0x3cb75468	0.022379115
63	0x3c7eef9e	0.015560059
64	0x3cd5c202	0.026093487
65	0x3ba57864	0.005049752
66	0xbbfad86c	-0.007655194
67	0x3cea4dbc	0.02860152
68	0xbc7a229d	-0.0152670415
69	0xbc7e9fe3	-0.01554105
70	0x3ce92319	0.028459119
71	0xbb4b3a90	-0.0031010248
72	0xbda6010d	-0.08105669
73	0xbc234033	-0.009964037
74	0xbd5afbe2	-0.05346287
75	0xbcd9e454	-0.026598133
76	0x3d85293c	0.065020055
77	0xbd3d0a3c	-0.04615234
78	0xbce0985b	-0.027416399
79	0xbbd79c31	-0.0065798988
80	0x3d3bd7b7	0.04586002
81	0xbced379c	-0.02895718
82	0xbd5ed310	-0.054400504
83	0xbd8b46aa	-0.068005875
84	0x3d17d5ce	0.037069134
85	0xbbcfce4a	-0.0063417302
86	0x3bfb57c8	0.0076703764
87	0xbcbd09bb	-0.023075929
88	0xbc2fa648	-0.010720797
89	0xbc2f6f6f	-0.01070772
90	0x3cf73db1	0.030180784
91	0xbc436f2b	-0.01192836
92	0x3c87351c	0.016504817
93	0x3d925d46	0.07146697
94	0xbcbac53c	-0.022799127
95	0x3db22e72	0.08700265
96	0x3cb3335c	0.021875076
97	0x3c1a794e	0.009428335
98	0xbdb3e26d	-0.08783422
99	0xbc5043be	-0.0127114635
100	0xbd53645d	-0.051609386
101	0xbd7348dc	-0.059395656
102	0x3ceefa3f	0.029172061
103	0xbc461771	-0.01209055
104	0xbda98b33	-0.08278503
105	0x3d66f950	0.056390107
106	0x3c781020	0.015140563
107	0xbda7f402	-0.08200838
108	0x3d32260c	0.043493316
109	0x3d5f03f9	0.054447148
110	0xbbbe3896	-0.0058050854
111	0xbcdaf4f6	-0.026728135
112	0x3ad6e2d9	0.001639451
113	0xbcc0218f	-0.023453502
114	0xbdc19a66	-0.09453277
115	0x3aa51e30	0.0012597498
116	0xbcdeade1	-0.027182521
117	0x3a520b33	0.0008012533
118	0xbe120ad1	-0.14261939
119	0xbc2fc67c	-0.010728475
120	0xbdc2d0a2	-0.0951245
121	0xbb82fb16	-0.003997217
122	0x3cc86909	0.024464147
123	0x3d2befe7	0.041976836
124	0xbc4633fc	-0.012097355
125	0x3d421ed4	0.04739268
126	0x3bd9b6d5	0.0066441097
127	0x3d4fd80b	0.050743144
128	0x3c9af597	0.018915934
129	0x3d3d8eff	0.04627895
130	0x3c3d7de7	0.011565662
131	0x3d3d9163	0.04628123
132	0xbd647ea4	-0.055784836
133	0xbbc7f2d0	-0.0061019436
134	0xbd2bb31a	-0.04191885
135	0xbc8d3afa	-0.017240036
136	0xbc4f71d6	-0.012661418
137	0xbce9e8ff	-0.028553484
138	0x3db501cc	0.08838233
139	0xbd4b1c4a	-0.049587525
140	0xbd0a4a57	-0.033762302
141	0x3d2a7e77	0.041624513
142	0x3a9fbee5	0.0012187628
143	0x3cd04f5d	0.025428468
144	0x3d297f15	0.04138096
145	0x3c23b5b1	0.009992049
146	0x3d214f24	0.039382115
147	0xbcde9b60	-0.027173698
148	0xbca564d2	-0.020189676
149	0xbcb40f2e	-0.021979894
150	0x3d848520	0.06470704
151	0xbc8e676b	-0.017383298
152	0x3c6ad6fd	0.014333484
153	0x3c60c654	0.01371916
154	0xbd909668	-0.07059938
155	0xbd01f53b	-0.03172801
156	0x3d35b46d	0.04436152
157	0xbc78536d	-0.015156609
158	0xbbd54581	-0.0065085297
159	0x3c990714	0.018680133
160	0x3d34b0fc	0.044114098
161	0xbc8f4e81	-0.017493488
162	0x3cb4113f	0.02198088
163	0x3d29a27a	0.041414715
164	0x3ce7bff4	0.028289773
165	0xbd4884c7	-0.04895475
166	0x3d1d1c22	0.038356908
167	0x3db7c139	0.08972401
168	0xbc16ffe5	-0.009216283
169	0x3c56f20d	0.013119233
170	0xbd5164d3	-0.051121544
171	0x3baa18ad	0.00519093
172	0xbcc8bf23	-0.024505204
173	0x3d076041	0.03305078
174	0x3d5702e5	0.052492995
175	0xbd3d8842	-0.046272524
176	0xbcdce55f	-0.026964841
177	0xbd46be7e	-0.04852151
178	0xbc5d6ed0	-0.013515189
179	0xbdb25f62	-0.08709599
180	0x3c44db60	0.012015194
181	0xbc5c2edf	-0.013438909
182	0xbcaf0402	-0.021364216
183	0x3c28245e	0.010262577
184	0xbc73fb07	-0.014891393
185	0xbd70cd7b	-0.05878971
186	0xbad3473c	-0.0016119252
187	0x3c89e84a	0.016834397
188	0x3c46cb03	0.012133363
189	0xbd5dd5eb	-0.054159086
190	0x3d7962b9	0.060885165
191	0xbc4324ae	-0.011910601
192	0x3d2a509f	0.041580793
193	0x3d349173	0.044084024
194	0x3cecaad4	0.028890051
195	0x3d80699b	0.06270143
196	0x3d34bdaa	0.04412619
197	0x3bdd865b	0.006760401
198	0x3d64a727	0.05582347
199	0x3c954ee7	0.0182261
200	0x3cf281cf	0.029602913
201	0xbcfae2be	-0.030625697
202	0xbd161a4d	-0.036646176
203	0xbd7c845e	-0.061649673
204	0x3d34fd45	0.04418685
205	0xbcf14707	-0.029452814
206	0x3d0f9ee8	0.035063654
207	0x3b59c0bf	0.0033226458
208	0x3c7fc5ec	0.015611153
209	0x3badbb96	0.005301903
210	0x3d0a6fd0	0.03379804
211	0xbd8c0b56	-0.068381
212	0xbb05e9a0	-0.002043344
213	0xbd2984b4	-0.04138632
214	0xbcbcf717	-0.02306704
215	0xbc4920e5	-0.012275909
216	0x3d4dc299	0.05023441
217	0x3cfddf38	0.030990228
218	0x3b2058a5	0.0024466899
219	0xbcc67d61	-0.024229707
220	0x3da363b3	0.079780005
221	0xbdf6c8b9	-0.120500036
222	0x3cad8340	0.021180749
223	0x3db33a41	0.087513454
224	0x3da63894	0.0811626
225	0x3d8b38c6	0.06797938
226	0xbca00ef9	-0.01953839
227	0x397d9be1	0.0002418603
228	0x3d00cbe6	0.031444453
229	0xbccf8f16	-0.025336783
230	0xbce36b10	-0.027761012
231	0xbb1d5515	-0.0024007012
232	0x3d990035	0.074707426
233	0x3da23d05	0.07921795
234	0x3b63e6ad	0.0034774945
235	0x3d1c5c80	0.038174152
236	0x3d4811b1	0.048844997
237	0x3c40cf09	0.011768111
238	0x3b3cfcd4	0.002883722
239	0x3a9e6793	0.0012085311
240	0xbc305632	-0.010762738
241	0xbd69bb82	-0.057063587
242	0xbc7124c9	-0.014718243
243	0xbda4e315	-0.08051125
244	0x3cd5018f	0.02600172
245	0xbc164d86	-0.009173756
246	0xbcffdf1e	-0.03123432
247	0xbd01c948	-0.031686097
248	0x3cb4c4ec	0.022066556
249	0xbc7df2e8	-0.015499808
250	0x3b5e60e4	0.0033932263
251	0x3d60bf8d	0.054870177
252	0x3c5ade32	0.01335864
253	0xbc4cd384	-0.012501601
254	0x3d752412	0.059848852
255	0x3a87e36b	0.0010367458

layers.1.bias_mu f4 [256]
0	0x3e3054c6	0.17219839
1	0xbe359328	-0.17731917
2	0x3e4a7e03	0.19774632
3	0xbeac1803	-0.3361207
4	0x3d251ea5	0.040312428
5	0xbeef2408	-0.46707177
6	0x3e9a46b0	0.30132055
7	0x3e1bff76	0.1523417
8	0x3d59b4ca	0.05315093
9	0x3dbca80a	0.092117384
10	0xbe7f60ee	-0.2493932
11	0x3f331122	0.6994802
12	0x3e3f669c	0.18691486
13	0xbe8dad13	-0.27671108
14	0xbd5ec177	-0.05438372
15	0x3f970c66	1.1800659
16	0x3e952fc8	0.29138017
17	0xbf08ff70	-0.53514767
18	0xbe162264	-0.14661556
19	0x3dea3fe9	0.11437971
20	0xbe1ffc3c	-0.15623564
21	0x3df4901d	0.1194155
22	0xbe1bab65	-0.152021
23	0x3f0c0f9d	0.54711324
24	0x3db07478	0.08615965
25	0xbe899a7d	-0.26875678
26	0x3e3e617c	0.18591875
27	0xbddd14ed	-0.10795007
28	0xbc6f653a	-0.014611537
29	0x3d5d67a6	0.054053925
30	0x3f6ccc70	0.92499447
31	0x3eb1eab9	0.34749392
32	0x3efdd13a	0.4957369
33	0xbf2fbce3	-0.68647593
34	0xbf05db58	-0.52287817
35	0xbdfb04a7	-0.12256747
36	0x3f9fd57c	1.2487025
37	0x3e05d88e	0.1307089
38	0x3ecbc1b7	0.3979623
39	0xbbc5ed50	-0.0060402527
40	0x3d44bea8	0.048033386
41	0xbd3f48fb	-0.04670046
42	0x3d1ee150	0.038789093
43	0x3e006657	0.1253904
44	0xbc669ba4	-0.014075194
45	0x3e2a4143	0.16626458
46	0xbe3b7004	-0.1830445
47	0x3dc645c1	0.09681273
48	0xbf2c495b	-0.6729943
49	0x3e6f6ec9	0.23382105
50	0x3e847ed8	0.25878024
51	0xbdcb9c55	-0.09941927
52	0xbf7bb0e9	-0.9831682
53	0xbc015c99	-0.007895612
54	0xbf3b8726	-0.73253095
55	0x3ec5439c	0.38528144
56	0xbe0a6718	-0.1351589
57	0x3f3b0c42	0.7306558
58	0xbcdfd322	-0.027322356
59	0xbd81c8cb	-0.06337126
60	0xbf0672ea	-0.52519095
61	0x3c456a2c	0.012049239
62	0xbe31b8d3	-0.17355661
63	0x3f73023f	0.949253
64	0xbe994d9d	-0.29942027
65	0xbd07696f	-0.033059534
66	0x3c2b220e	0.010445131
67	0x3e332653	0.17495088
68	0x3f9c402f	1.2207087
69	0x3ddb1301	0.10696984
70	0x3e0271ee	0.12738773
71	0xbecd4479	-0.40091303
72	0xbe08f1d3	-0.13373499
73	0xbf074d61	-0.52852446
74	0xbf1f6b4e	-0.6227311
75	0x3e268965	0.1626335
76	0x3f47b594	0.7801144
77	0xbed4b85c	-0.41546905
78	0x3d55e333	0.052218627
79	0x3ef05d8a	0.46946365
80	0x3f56dfe5	0.83935386
81	0x3e9cef3a	0.30651265
82	0xbd00c1ba	-0.031434752
83	0xbdd72a00	-0.10506058
84	0x3de71e4b	0.11285075
85	0x3ee0df5b	0.43920407
86	0x3d9247ae	0.07142578
87	0x3f74fe04	0.957001
88	0x3eda893e	0.42682832
89	0x3de91570	0.11381042
90	0xbf5faa9a	-0.8736969
91	0xbf897494	-1.0738702
92	0xbd5600cf	-0.052246865
93	0x3f1c3d06	0.61030614
94	0xbd9b4c63	-0.07582929
95	0xbd9c98dc	-0.07646343
96	0xbf1d4f84	-0.61449456
97	0xbee5464e	-0.447802
98	0xbd064084	-0.03277637
99	0xbd7cca74	-0.06171651
100	0x3f17a2cc	0.59232783
101	0xbe203bd4	-0.15647823
102	0x3f4ded2d	0.80440027
103	0xbf27de4c	-0.65573573
104	0xbdd073b0	-0.10178316
105	0x3f33f9d3	0.70303077
106	0x3f453f07	0.770493
107	0xbf10e640	-0.56601334
108	0xbd326cf3	-0.043560933
109	0x3d736242	0.059419878
110	0x3f200061	0.6250058
111	0xbd429d23	-0.04751314
112	0xbe37840a	-0.17921463
113	0x3bdc87f4	0.006730074
114	0xbcc23eda	-0.02371161
115	0xbca28e98	-0.019843385
116	0x3e386d51	0.18010451
117	0xbd4867f0	-0.048927248
118	0xbaf58085	-0.0018730318
119	0xbc93989b	-0.018017104
120	0x3f1f6d85	0.6227649
121	0xbc9012ab	-0.017587027
122	0x3f74f8d9	0.9569221
123	0xbe2b31eb	-0.16718261
124	0xbb187698	-0.0023264047
125	0x3eecbada	0.46236306
126	0x3f627ad4	0.8846867
127	0xbea9e3b1	-0.33181527
128	0xbe50d496	-0.20393595
129	0xbe9ca775	-0.3059651
130	0xbe8d22d4	-0.27565634
131	0xbf04587d	-0.5169752
132	0x3cfe9767	0.031078054
133	0x3e013cec	0.12620896
134	0xbe70a93a	-0.23502055
135	0x3e1398e8	0.14413798
136	0xbf1675f1	-0.58773714
137	0x3e835ca9	0.25656632
138	0x3e488d1f	0.19585083
139	0xbe8c5cbd	-0.27414504
140	0x3c5f6151	0.013634042
141	0x3ee2129a	0.44154817
142	0xbe59fae5	-0.21287115
143	0xbed28231	-0.41114953
144	0xbc2f2554	-0.010690052
145	0xbf29cc66	-0.6632751
146	0x3df44720	0.119276285
147	0xbe0dc91e	-0.13846251
148	0x3d34c4f5	0.044133145
149	0xbe00b841	-0.12570287
150	0xbd16fca7	-0.03686204
151	0xbefea884	-0.49737942
152	0xbce66a28	-0.028126791
153	0xbd847c93	-0.06469073
154	0x3d652cd7	0.055950966
155	0x3dd562ef	0.10419261
156	0x3eb5a94a	0.3548072
157	0xbe105ba0	-0.14097452
158	0xbd36564f	-0.044515904
159	0x3c87861f	0.016543446
160	0x3d5410fb	0.051774006
161	0x3e95f038	0.29284835
162	0x3e2e95b2	0.17049292
163	0xbf1cf930	-0.6131773
164	0xbdce9973	-0.10087862
165	0xbec3c5f9	-0.3823698
166	0xbf31c7b8	-0.6944537
167	0x3f86a3d0	1.0518742
168	0xbdf69eaf	-0.12041985
169	0xbf89fa76	-1.077956
170	0x3ed139c5	0.40864387
171	0xbea22f1e	-0.31676573
172	0xbdb88a64	-0.09010771
173	0xbdc82da4	-0.0977433
174	0xbdd904f2	-0.10596646
175	0x3df65058	0.12027043
176	0xbe1dbe93	-0.1540473
177	0x3e845f2f	0.2585387
178	0x3ec1bdb3	0.37840042
179	0xbbf266fb	-0.00739753
180	0xbd9fa3e8	-0.077949345
181	0xbdd10f3b	-0.10207983
182	0xbe718ffb	-0.2359008
183	0x3ce2b267	0.02767296
184	0x3f46677a	0.7750164
185	0x3da83337	0.082128935
186	0xbee52bd4	-0.4476
187	0x3e5b4fec	0.21417207
188	0xbe0e17a7	-0.1387621
189	0x3de41726	0.11137228
190	0x3d80e9f1	0.06294621
191	0x3d64e054	0.055878
192	0xbe2b7b40	-0.16746235
193	0x3e4943c7	0.19654761
194	0x3ed6c4aa	0.41946918
195	0x3eb7b444	0.3587972
196	0xbe1b54e3	-0.151691
197	0xbe1d2a36	-0.15348133
198	0x3da8c569	0.08240778
199	0x3d80a96e	0.06282316
200	0xbeda6424	-0.42654526
201	0x3db43d2b	0.08800729
202	0xbd541111	-0.05177409
203	0xbea7fc34	-0.32809603
204	0xbde11079	-0.1098947
205	0x3fa2ab07	1.2708443
206	0xbf8441f3	-1.0332626
207	0x3ec250a5	0.37952152
208	0xbdf6bce7	-0.12047749
209	0x3c5714d2	0.013127523
210	0x3f084c35	0.5324128
211	0x3e520cae	0.2051265
212	0xbccebc71	-0.02523634
213	0xbbb248bc	-0.0054407995
214	0x3c8b9461	0.017038526
215	0xbe4060b2	-0.18786886
216	0x3dd10759	0.102064796
217	0x3ea16105	0.31519333
218	0xbecf7a89	-0.40523174
219	0xbe6e50b8	-0.2327298
220	0xbc9c8ac3	-0.019109135
221	0xbed23d9c	-0.4106263
222	0xbf74a24f	-0.95560163
223	0xbd7527cb	-0.059852403
224	0x3e4b5281	0.19855691
225	0xbf462924	-0.77406526
226	0x3d2f0ee3	0.042738806
227	0xbf25fb9f	-0.6483707
228	0x3bd71cf4	0.006564731
229	0xbe9d3d22	-0.30710703
230	0x3ca0adfe	0.019614216
231	0x3f022f63	0.50853556
232	0xbe6b9e8a	-0.23009697
233	0xbdb68856	-0.08912723
234	0x3d8618c0	0.065476894
235	0x3e85b1ae	0.2611212
236	0x3eded2d4	0.43520224
237	0x3e6c2165	0.23059614
238	0x3c9157dc	0.01774209
239	0xbdf12e43	-0.11776402
240	0xbea64b8d	-0.32479516
241	0x3f71d6ab	0.9446818
242	0xbe3b8c02	-0.18315127
243	0x3e77b41b	0.24189799
244	0x3c9951a5	0.018715689
245	0x3ed570d1	0.41687635
246	0x3dcf7281	0.10129262
247	0x3e6cd9be	0.23129937
248	0xbc88cbfd	-0.016698832
249	0x3dd66d22	0.10470034
250	0xbdc5d9d3	-0.09660687
251	0xbf0ace96	-0.54221475
252	0x3f021bbb	0.50823563
253	0x3c7f9855	0.015600284
254	0x3cb179db	0.02166455
255	0xbe7d2c6d	-0.24723978

layers.1.bias_sigma f4 [256]
0	0x3c61bbfd	0.01377773
1	0x3d7e9e75	0.062162835
2	0xbda18b75	-0.078879274
3	0xbcd80b24	-0.0263725
4	0x3d29b6d7	0.041434135
5	0x3c2f0ae3	0.010683748
6	0xbc24d8b4	-0.010061432
7	0x3d74524e	0.059648804
8	0xbbcd6adf	-0.0062688435
9	0x3c8482a0	0.016175568
10	0xbc638e6f	-0.013888939
11	0x39bf9779	0.00036543215
12	0x3cf8f3ee	0.030389752
13	0xbd06d10a	-0.0329142
14	0x3b92357c	0.0044619422
15	0x3ca1364d	0.019679213
16	0xb9611b13	-0.00021467758
17	0xbc92b77f	-0.017909763
18	0x3cdf65b9	0.027270185
19	0xbb0799ae	-0.0020690965
20	0xbbef4444	-0.007301839
21	0xbc871eb2	-0.016494129
22	0x3da7d99c	0.081958026
23	0x3be67eb8	0.007034149
24	0xbcf7d505	-0.030252943
25	0x3d14f6e7	0.036368277
26	0x3d005163	0.031327616
27	0xbc07bada	-0.008284295
28	0xbd5dc053	-0.054138493
29	0xbd18ca43	-0.037302267
30	0x3afa05ad	0.0019075178
31	0x3c673f56	0.014114222
32	0xbb279547	-0.0025571154
33	0x3ca89d2d	0.02058276
34	0xbd961b9e	-0.07329486
35	0x3b221601	0.0024732354
36	0x3bcd8e2a	0.006273051
37	0xbc169155	-0.009189923
38	0x3d3fe5e3	0.046850096
39	0x3c37a3ca	0.011208484
40	0x3d8c4cbf	0.06850576
41	0xbd973881	-0.07383824
42	0x3cd04217	0.02542214
43	0xbd57dd5e	-0.052701347
44	0xbd9d0904	-0.07667735
45	0x3c3acce0	0.011401385
46	0x3ad9d52c	0.0016619316
47	0x3ceaf78c	0.028682493
48	0x3bae7f95	0.0053252676
49	0x3d5f21d1	0.05447561
50	0xbcca03ae	-0.024659958
51	0xbc648492	-0.013947623
52	0x3bd01e99	0.006351304
53	0x392bcbcd	0.00016383753
54	0xbb15f7b3	-0.0022883236
55	0xbd22762b	-0.039663475
56	0x3cdeb06b	0.027183732
57	0x3c0f6223	0.008751425
58	0xbc805fdf	-0.015670715
59	0xbac0bb44	-0.0014704247
60	0xbc038589	-0.008027443
61	0x3d3e5dc9	0.04647616
62	0x3d68e83d	0.056862105
63	0xbc941326	-0.018075537
64	0x3c88a463	0.016679948
65	0xbd28c0cd	-0.041199494
66	0x3c311eb6	0.010810545
67	0x3b3401f7	0.0027466991
68	0x3c7de1ca	0.015495727
69	0xba88d6b1	-0.001043996
70	0xbd075c84	-0.033047214
71	0xbd32c34e	-0.04364329
72	0xbd082fd3	-0.033248734
73	0xbc9602ba	-0.018311847
74	0xbbc289f9	-0.005936858
75	0xbcd0d03e	-0.025489923
76	0xbd054b3e	-0.03254246
77	0xbc9cf500	-0.019159794
78	0xbc98dc16	-0.018659633
79	0xbd171f77	-0.03689524
80	0x3b41d9d7	0.0029579306
81	0xbd857455	-0.06516329
82	0xbd772a28	-0.060342938
83	0x3c239c56	0.009986004
84	0x3b0336bf	0.0020021645
85	0x3c8de7ae	0.017322388
86	0xbcd9b5f2	-0.026576016
87	0x3b1384e9	0.002250964
88	0xbcae44fb	-0.021273127
89	0x3d0b509f	0.034012433
90	0xbd1064f2	-0.03525252
91	0xbc5577e7	-0.013029075
92	0x3dde3f3e	0.10851906
93	0x3c25dc83	0.010123375
94	0xbc161a00	-0.009161472
95	0xbd5c471e	-0.05377876
96	0xba60bc8c	-0.00085730175
97	0x3c3f682e	0.011682553
98	0xbc81dd96	-0.01585273
99	0xbc30048c	-0.010743272
100	0xbbecdeed	-0.0072287233
101	0x3d37ac8e	0.044842295
102	0xbc21d59b	-0.009877588
103	0xbbcdfaa7	-0.0062859836
104	0xba1e1f4f	-0.0006031887
105	0xbbd0dbcf	-0.0063738595
106	0x3987c961	0.00025899246
107	0x3c425df3	0.01186322
108	0xbcb905df	-0.022585807
109	0xbca51da9	-0.020155745
110	0xbb60ab18	-0.0034281667
111	0xbba0d8a3	-0.0049086376
112	0xbaa7de07	-0.0012807258
113	0x39514f15	0.00019961254
114	0x3c42dfa0	0.011894137
115	0xbcc8f003	-0.024528509
116	0x3bba7b84	0.0056909937
117	0xbcb5b54d	-0.022181178
118	0x3c5f0148	0.013611145
119	0xbd4676fa	-0.04845331
120	0x3d26edb3	0.04075403
121	0x3c8c84fd	0.017153258
122	0x3c146913	0.009058255
123	0x3c1c3064	0.009533022
124	0x3ac407ae	0.0014955902
125	0xb902dbdb	-0.00012479669
126	0x3c5162d7	0.012779913
127	0xbd509e93	-0.05093248
128	0xbbafd513	-0.0053659766
129	0xbc3006bf	-0.010743796
130	0x3d265e41	0.04061723
131	0xbbdad457	-0.006678145
132	0x3d0b5dfe	0.034025185
133	0x3d2ddde8	0.042447954
134	0x3db7ef42	0.08981182
135	0xbc87e07a	-0.016586531
136	0xbcc72068	-0.024307445
137	0x3c1f7a37	0.009733728
138	0xbc3b6da8	-0.011439718
139	0x3a416bab	0.00073784095
140	0xbd908eee	-0.07058512
141	0xbd2a89f2	-0.04163546
142	0x3bbcde2f	0.005763791
143	0xbd2bd6eb	-0.04195301
144	0xbc506bdf	-0.012721031
145	0x3d30803c	0.043091044
146	0xbc38746e	-0.011258228
147	0x3bbf9e36	0.0058477176
148	0xbc9f6389	-0.019456642
149	0x3d526d97	0.051374044
150	0xbd5d57ea	-0.05403892
151	0xbc9f2895	-0.01942853
152	0xbce3f20b	-0.027825376
153	0x3ca12480	0.019670725
154	0x3c90ec68	0.017690852
155	0x3c96b056	0.01839463
156	0x3cae9265	0.02131004
157	0x3cd59fa2	0.026077095
158	0xbd1b0e9e	-0.037855737
159	0x3c26d451	0.010182456
160	0x3d46122d	0.048357178
161	0xba85634a	-0.0010176685
162	0xbc1fc5ee	-0.00975178
163	0x3d1aca59	0.03779063
164	0x3b50ca2d	0.0031858787
165	0x3cb1f0b9	0.02172123
166	0xbc82a3dd	-0.015947277
167	0x3bb755f9	0.0055949655
168	0x3d60a7bf	0.054847475
169	0xbc4b0483	-0.012391212
170	0xbd171e30	-0.036894023
171	0xbb8f709f	-0.004377439
172	0xbd198a3e	-0.037485354
173	0xbd6fd159	-0.05854926
174	0xbd080187	-0.03320458
175	0xbd10aec0	-0.035322905
176	0xbd106ce2	-0.03526009
177	0xbbd44768	-0.006478239
178	0x3caaadad	0.020834768
179	0xbc7028bb	-0.014658148
180	0x3d577c19	0.052608583
181	0x3c44798d	0.011991871
182	0xbb878530	-0.0041357502
183	0xbc8408ae	-0.01611742
184	0xbd0e7ed2	-0.034788914
185	0xbd324119	-0.043519113
186	0xbcc49edf	-0.024001537
187	0x3d2a542c	0.04158418
188	0x3d1ad8d9	0.03780446
189	0xbcaa24eb	-0.020769557
190	0x3c1c1cbb	0.009528334
191	0x3d6244a2	0.055241235
192	0x39dcd5ca	0.00042120955
193	0xbca88f2c	-0.020576082
194	0x3d316264	0.043306723
195	0x3c13b769	0.009015896
196	0xbd3c1605	-0.045919437
197	0xbd251d84	-0.04031135
198	0xbab10e35	-0.0013508262
199	0xbd9ec610	-0.07752621
200	0x3b1d1c85	0.0023973298
201	0x3cb79fc4	0.02241505
202	0xbc4dadc1	-0.012553633
203	0x3c86cff8	0.01645659
204	0xba912b20	-0.0011075474
205	0x3b91cc32	0.004449391
206	0x39eb91f1	0.00044931428
207	0x3bc96d7c	0.0061470848
208	0xbc870b10	-0.016484767
209	0xbb63ffbf	-0.0034789888
210	0xbd3b013a	-0.045655467
211	0xbb456c64	-0.003012442
212	0xbb31b25d	-0.002711437
213	0xbc329dc6	-0.010901874
214	0x3d13d09f	0.03608763
215	0xbd71bd1f	-0.05901825
216	0xbcc5a32e	-0.024125662
217	0x3bbd0be8	0.0057692416
218	0xbc0382fb	-0.008026834
219	0xbbb47570	-0.0055071637
220	0x3cbb7e66	0.02288742
221	0x3c846d63	0.01616544
222	0x3cd16972	0.025562976
223	0xbc95cf42	-0.018287305
224	0xbca4a314	-0.020097293
225	0xbb7a125b	-0.0038157913
226	0xbc0ae4ed	-0.008477432
227	0x3c36b06e	0.011150463
228	0xbbd4d11d	-0.006494655
229	0xbcce81b0	-0.025208324
230	0xbca6516f	-0.020302502
231	0x3c4ab225	0.0123715745
232	0x3bb67920	0.0055686384
233	0x3d6b34c0	0.057423353
234	0xbdafa2cb	-0.08575972
235	0x3cb6d33a	0.022317518
236	0xbb16ef2a	-0.0023030736
237	0xbbb1d67f	-0.0054271813
238	0x3d7cba56	0.06170114
239	0xbcd28584	-0.02569843
240	0x3bcd7fc3	0.006271334
241	0xbab59947	-0.0013854884
242	0xbd7bce39	-0.061475966
243	0xbd649e27	-0.05581489
244	0x3dad68e1	0.0846727
245	0x3d00d420	0.0314523
246	0xbb81c6e7	-0.0039604786
247	0xbd81f8af	-0.06346261
248	0x3d4f8548	0.050664216
249	0xbd2360d3	-0.03988726
250	0xbce43f88	-0.027862325
251	0x3aece9a5	0.0018075003
252	0xbd15df29	-0.036589775
253	0x3c4edf9d	0.012626556
254	0xbb9332f8	-0.00449216
255	0xbd204480	-0.039127827

layers.1.weight_epsilon f4 [256, 256]
0	0x3f18beb7	0.5966601
1	0x3eda973c	0.42693508
2	0x3e9b6a65	0.3035461
3	0xbebe8956	-0.37214154
4	0xbea4985a	-0.32147485
5	0xbebb4cb9	-0.36581972
6	0xbf12be80	-0.5732193
7	0x3e9b6e60	0.30357647
8	0x3f01b753	0.50670356
9	0xbec8f3c9	-0.39248493
10	0x3f2e0c9f	0.6798801
11	0x3f26c01e	0.651369
12	0x3e83b9fd	0.25727835
13	0x3e5d1bc1	0.21592619
14	0xbe0bd2fe	-0.13654706
15	0x3e1abe62	0.15111688
16	0x3e25837e	0.16163442
17	0x3ec65b6d	0.38741627
18	0xbf28a39f	-0.65874666
19	0x3e822684	0.2542001
20	0x3ed6fcda	0.41989785
21	0x3e969765	0.2941238
22	0xbecc53e7	-0.39907762
23	0x3f1e4afc	0.6183317
24	0x3f084e05	0.5324405
25	0xbf0b5210	-0.5442209
26	0x3f358342	0.7090341
27	0x3dbb91ed	0.091586925
28	0xbed3706c	-0.4129671
29	0x3e62c674	0.22146016
30	0xbf05c8d3	-0.5225956
31	0x3f3d9863	0.7406065
32	0xbee22030	-0.44165182
33	0xbf033040	-0.512455
34	0xbed17d8c	-0.40916097
35	0x3ee6933d	0.4503421
36	0xbea2c78c	-0.31792867
37	0x3ee3aff3	0.44470176
38	0x3f04419e	0.51662624
39	0xbecbb36e	-0.3978533
40	0x3ef60541	0.48050883
41	0x3e8c1a93	0.27364025
42	0xbee21eff	-0.44164273
43	0xbf0cdcd8	-0.5502448
44	0xbe7caa4f	-0.24674343
45	0xbec64db8	-0.3873117
46	0x3f1b7e65	0.6073974
47	0x3f2047bd	0.62609464
48	0xbe8b6d0e	-0.2723164
49	0xbecab1b1	-0.39588693
50	0xbe81b2a0	-0.25331593
51	0x3f03221b	0.51223916
52	0xbe8c0faf	-0.27355716
53	0xbea96c5b	-0.3309048
54	0xbf1e7170	-0.6189184
55	0x3f10f929	0.5663019
56	0xbef5d477	-0.4801366
57	0x3e3188db	0.17337362
58	0x3e8cf162	0.2752791
59	0xbec70204	-0.38868725
60	0x3eed4518	0.46341777
61	0x3f3323bd	0.6997641
62	0xbf19bedb	-0.6005685
63	0xbeef38f8	-0.4672315
64	0xbdad5def	-0.08465182
65	0xbc1bd171	-0.009510384
66	0x3eb79308	0.35854363
67	0xbd9e649c	-0.077340335
68	0xbf1fe984	-0.6246569
69	0xbf0304ea	-0.51179373
70	0xbe9249fa	-0.28572065
71	0x3eeb47c6	0.45953196
72	0x3e994f82	0.29943472
73	0x3f0b2af9	0.54362446
74	0x3e04200e	0.12902853
75	0x3ec1c537	0.37845775
76	0x3e9f20b7	0.31079647
77	0xbe42c44e	-0.19020197
78	0xbe35e4ba	-0.17763034
79	0x3eca0657	0.39457962
80	0xbee43941	-0.4457493
81	0xbde5237a	-0.11188407
82	0x3d91965e	0.071087584
83	0xbeb95b1b	-0.3620232
84	0x3f17ab7f	0.5924606
85	0xbe2fd08e	-0.17169401
86	0x3f1f79bb	0.6229512
87	0xbf2b3aa0	-0.6688633
88	0xbe4f7188	-0.20258152
89	0xbd5b5989	-0.053552184
90	0xbe9c8e22	-0.3057719
91	0xbe98c713	-0.29839382
92	0xbf0dc1ae	-0.55373657
93	0xbea354ae	-0.31900543
94	0xbeca74c0	-0.39542198
95	0x3f1face2	0.62373173
96	0x3ef177d2	0.47161728
97	0x3eb880b1	0.36035684
98	0xbe8c9e46	-0.27464503
99	0x3f79b2d0	0.9753847
100	0xbe52adc2	-0.20574096
101	0xbf014f72	-0.5051185
102	0x3eb14736	0.34624642
103	0x3ef68c6f	0.48154017
104	0x3f059080	0.52173615
105	0xbdbc03bd	-0.091804005
106	0xbf276c33	-0.65399474
107	0xbec531fc	-0.38514698
108	0x3ed48ca2	0.41513544
109	0xbe5bc8d6	-0.21463332
110	0x3ed01617	0.40641853
111	0x3e46cc0f	0.1941378
112	0xbec1ddf9	-0.37864664
113	0xbf29be8e	-0.6630639
114	0xbeee60a6	-0.46558112
115	0xbea9a4d1	-0.33133557
116	0xbea5f638	-0.32414412
117	0xbefa7d23	-0.48923597
118	0xbdc6d200	-0.09708023
119	0x3df86929	0.12129433
120	0xbdb97598	-0.09055632
121	0xbf27d523	-0.65559596
122	0xbeadcd84	-0.33945858
123	0x3e6f0b16	0.23344073
124	0x3ea18644	0.3154775
125	0xbe43d1d8	-0.19123018
126	0x3ecb14da	0.39664346
127	0x3edf078e	0.4356045
128	0x3f12b30e	0.57304466
129	0x3f0efbb9	0.5585285
130	0xbec65246	-0.38734645
131	0x3efb77b5	0.49114767
132	0xbe88cec9	-0.26720265
133	0xbe136343	-0.14393334
134	0x3ef07bf7	0.46969578
135	0x3e9cc45f	0.3061857
136	0xbeb580a5	-0.3544971
137	0xbefb0400	-0.4902649
138	0xbe82c8f0	-0.25543928
139	0xbee6e332	-0.4509521
140	0xbeb2368f	-0.3480725
141	0xbedd59fe	-0.4323272
142	0xbf00bbbb	-0.50286454
143	0xbe41e249	-0.18933977
144	0x3f0b01d8	0.5429969
145	0xbe8aa5bc	-0.2707957
146	0xbef8612e	-0.48511642
147	0x3dd7dfd3	0.10540738
148	0x3ee0eedc	0.43932235
149	0x3e63c9ed	0.22244997
150	0xbf62c31a	-0.8857895
151	0x3e59783b	0.2123727
152	0x3e6e0e78	0.23247707
153	0x3ecffe8f	0.406239
154	0xbf18869d	-0.59580404
155	0xbf2034b5	-0.62580425
156	0x3e6c78d2	0.23092964
157	0x3eef38fa	0.46723157
158	0xbdf80ce1	-0.121118315
159	0x3f10aaa9	0.56510407
160	0xbe4b4e3f	-0.19854067
161	0x3f1f3800	0.62194824
162	0xbf243b44	-0.6415293
163	0xbebaad8a	-0.36460525
164	0xbef545f2	-0.47904927
165	0x3f30cdb2	0.69063866
166	0x3f0825e1	0.531828
167	0xbf143795	-0.5789731
168	0xbf17e042	-0.59326565
169	0xbe300136	-0.17187962
170	0xbe77ae78	-0.24187648
171	0xbe452e42	-0.19255927
172	0x3ed4e6a3	0.41582212
173	0xbef72293	-0.48268566
174	0xbedd9015	-0.43273988
175	0x3e52d71a	0.20589867
176	0xbeee9c67	-0.466037
177	0x3ef26823	0.47345075
178	0x3f0d51d1	0.55202967
179	0xbe882ad6	-0.2659518
180	0x3f03bb4b	0.5145766
181	0x3eea7e35	0.45799413
182	0xbf2a175e	-0.66441905
183	0xbe7dd4b5	-0.24788173
184	0xbebdb31b	-0.3705071
185	0x3ed0c5a3	0.40775785
186	0xbe8f9db7	-0.28050014
187	0xbeb981ff	-0.36231992
188	0xbf11cb81	-0.5695115
189	0x3f2afe71	0.66794497
190	0x3f05b287	0.52225536
191	0x3e878878	0.26471305
192	0xbf2a675f	-0.6656398
193	0x3f035c54	0.51312757
194	0xbea9a0c5	-0.3313047
195	0x3eedb31d	0.46425715
196	0x3ee6a54d	0.4504799
197	0x3e332b73	0.17497043
198	0x3f348685	0.7051776
199	0x3ecec00d	0.40380898
200	0xbf09e2f3	-0.5386192
201	0x3f15b30e	0.5847634
202	0xbe9a0a43	-0.30085954
203	0x3f030c38	0.5119052
204	0x3ef0ad42	0.47007185
205	0xbf6b0adb	-0.9181344
206	0x3f03adae	0.5143689
207	0xbe3fcf6e	-0.18731472
208	0x3ef1f617	0.47258064
209	0x3eaf6926	0.3425991
210	0xbeeee0e5	-0.46655956
211	0xbf1390d4	-0.57642865
212	0xbf272bc0	-0.6530113
213	0x3ea87df8	0.32908607
214	0x3eb73871	0.3578525
215	0x3eef83f6	0.46780366
216	0x3f10f12f	0.56618017
217	0xbed4aa0a	-0.4153598
218	0xbf0ec3d5	-0.55767566
219	0xbe2d1d9b	-0.16905825
220	0x3f1d3f9a	0.61425173
221	0xbec0a729	-0.37627533
222	0xbdf342b6	-0.118779585
223	0x3e710ae1	0.23539306
224	0xbf047cbc	-0.5175283
225	0xbf262c02	-0.649109
226	0x3e82a93c	0.2551974
227	0x3ea743b5	0.32668844
228	0xbf0e1b14	-0.5551007
229	0xbeb1aba2	-0.34701258
230	0x3e9f0dcc	0.31065214
231	0x3f1d4713	0.61436576
232	0xbeabcbd6	-0.33553952
233	0x3ede5319	0.43422773
234	0x3f087238	0.53299284
235	0x3e58fae6	0.2118946
236	0xbe96683c	-0.293764
237	0xbe97a334	-0.29616702
238	0x3e6fddd7	0.23424469
239	0xbdc263f7	-0.09491723
240	0x3f090479	0.5352245
241	0xbebde6e7	-0.37090227
242	0xbe9b4692	-0.30327278
243	0xbe923af4	-0.28560603
244	0xbf33ba25	-0.7020591
245	0x3f1dfecf	0.6171693
246	0xbe2f6245	-0.1712733
247	0xbecb0a5a	-0.39656335
248	0xbef34a86	-0.47517794
249	0xbecb994d	-0.39765397
250	0xbeeea28c	-0.46608388
251	0xbed4c0fa	-0.4155348
252	0xbf357909	-0.7088781
253	0x3e900f8d	0.28136864
254	0x3c0c9803	0.008581164
255	0x3f099187	0.5373768
