src/weights/Combined_test_5_DuelingDDQN_50k_30k_(128,128)/weights/episode_34000.pth (torch, 83208 bytes, 7 tensors)

layers.0.weight f4 [128, 18]
000000 d3 59 00 bd 19 db 81 3d d7 43 10 bc 39 26 24 3d
       -0.031335663 0.06340618 -0.008805237 0.040075514
000010 16 fa b0 3b 2c 05 c5 bc da 11 52 3e eb 68 68 bd
       0.0054009063 -0.024050318 0.20514622 -0.056740683
000020 7e ce 05 3f db 0e 5d 3e e1 fc 1e bf a9 fa 99 3e
       0.5226821 0.21587698 -0.6210461 0.3007405
000030 2c a7 81 3e 7c 19 c2 3e 5c 4d 26 3f 17 71 89 be
       0.25322855 0.37910068 0.6496179 -0.26844093
000040 09 49 c8 3e e1 bd 81 3e fb 5a 27 be a7 ea e5 3e
       0.3911822 0.2534018 -0.163433 0.44905588
000050 3a 58 ba be 97 0e 1d bd 5d 93 ce 3c f0 94 17 bd
       -0.36395437 -0.038343992 0.025216753 -0.037007272
000060 ef bd ea 3d f4 f1 55 3f 10 9f 42 3f bc 52 d4 be
       0.11462008 0.83572316 0.7602396 -0.4146937
000070 4a db 55 3f 37 8f 25 3e 79 4b 68 be 33 47 55 be
       0.83537734 0.16167913 -0.2268504 -0.20827942
000080 d0 f2 7d be 00 31 e9 be 55 90 e6 3f 51 77 bb bc
       -0.24799657 -0.45545197 1.8012797 -0.022884043
000090 5d fa a2 3d 65 7b bb bf 3c ab ea 3e 5b 1f 99 3c
       0.07957909 -1.4647032 0.45833766 0.01869171
0000a0 eb 0d 88 bd cc 84 7e ba e3 00 d1 3e 16 a0 14 3f
       -0.0664328 -0.00097091193 0.4082099 0.5805677
0000b0 08 b7 87 3d bd 35 ae 3e 0e b0 17 bf ab 09 9c 3e
       0.06626707 0.34025374 -0.59253013 0.30476126
0000c0 4a 1f 1c be da 0c 92 bf 62 54 b6 bb b9 8e 7c be
       -0.15246311 -1.1410172 -0.0055642584 -0.2466382
0000d0 c8 24 3c 40 58 7d 18 3e 00 9a 2f 3d d7 2a 8a 3e
       2.939745 0.14891565 0.042871475 0.2698581
0000e0 8c 32 19 3d 77 0d d1 3c b9 5e c8 bc 73 31 93 3b
       0.03740172 0.025519116 -0.02445923 0.004491979
0000f0 b8 8c 9a bd 5e f6 51 be 3b aa fe be 6c e4 9f 3c
       -0.07546371 -0.20504138 -0.4973925 0.0195181
000100 04 cc 38 be cd bc d7 be 3d fa 16 bf 8d 17 c2 3b
       -0.18046576 -0.4213623 -0.58975583 0.0059232176
000110 94 49 20 bf f7 29 5d be 28 85 3d bf 8b 40 5f bf
       -0.6261227 -0.2159804 -0.74031305 -0.8720786
000120 69 d1 e4 bd a3 90 6d be ee 59 11 3e 19 64 03 be
       -0.11172754 -0.23199706 0.14194462 -0.12831153
000130 05 d5 08 bd 66 a1 3e bb f5 48 d8 3e 5b b9 51 be
       -0.033406276 -0.00290879 0.42243162 -0.20480864
000140 2e ea ac be 69 d1 ea be 4f ab 8a be ad b5 d4 3d
       -0.33772415 -0.45862892 -0.27083823 0.103862144
000150 ab 93 df be 2e 80 3c 3f 35 71 86 be 4f 37 cd 3e
       -0.4366735 0.73633087 -0.26258245 0.4008126
000160 a9 4b e1 3c c3 89 6f bd 40 70 5a bd 6e 52 b4 3d
       0.027501898 -0.05848099 -0.053329706 0.08804785
000170 54 55 44 be 74 c8 5d 3d e9 5c 0e 3d 94 e7 5f bc
       -0.19173175 0.054146245 0.034756575 -0.013666052
000180 a6 ad f7 bd 49 04 c3 3f 63 03 b8 3e dd 02 8c be
       -0.12093668 1.5235683 0.35940084 -0.27345935
000190 5e a0 05 3f 6e 7b 01 3f fa 90 a8 bb 28 ab 67 3f
       0.52197826 0.50578964 -0.0051442357 0.9049554
0001a0 b9 0f 37 bd 3d e1 92 3f 98 a3 6a 3e 5a 90 a7 bf
       -0.04469273 1.1474987 0.22913969 -1.3090928
0001b0 dd 00 b4 3d af 91 76 be 4b aa cf 3c 6d 6f a9 bd
       0.08789227 -0.24079011 0.025349757 -0.08273206
0001c0 36 83 59 3c d2 26 c3 bc 25 8c 33 3e bd 85 f1 3e
       0.013275912 -0.023822222 0.1753393 0.47172347
0001d0 91 79 43 3f 62 87 e8 3e 31 1c f9 be ca 01 0d 3f
       0.7635737 0.4541579 -0.4865432 0.55080855
0001e0 11 3b 27 3f 24 15 d8 be 4d b7 b6 3e da 48 b0 be
       0.65324503 -0.4220363 0.35686722 -0.3443058
0001f0 70 5e bb 3e 7b 5d cd 3d d4 a5 e3 be 18 bc bc bf
       0.36595488 0.100275956 -0.44462454 -1.4744902
000200 22 4f 87 3e 70 01 cd 3b 23 08 c8 bd cb a2 d3 3c
       0.2642756 0.006256275 -0.09767177 0.025834462
000210 8a 4a 11 3f 3f 52 b5 3e 55 e3 bb 3e b8 ec 98 3d
       0.5675436 0.3541431 0.36696878 0.074670255
000220 a1 97 c1 3e bf 7f a4 bd 26 58 2a 3f 86 bb da bb
       0.37810996 -0.08032178 0.66540754 -0.0066751866
000230 2c 94 82 3d 14 79 9a bd 40 02 80 bd d7 06 07 3e
       0.06375918 -0.07542625 -0.06250429 0.13186203
000240 22 bc 8f be 1e 5b df 3c fb e5 46 be 40 a0 99 bd
       -0.2807322 0.027265128 -0.19423668 -0.075012684
000250 f4 17 3a 3d b1 74 3b bc e2 92 8c bd dd c1 f6 3d
       0.045433 -0.011441396 -0.06863953 0.12048695
000260 a4 6f 5d 3f 0f 48 0b bf 5f 25 90 3f 54 58 ce 3e
       0.86498475 -0.5440683 1.1261405 0.40301764
000270 94 6c 50 3e ce fe fc be 66 5d e3 3d f3 7b 50 bf
       0.2035392 -0.4941315 0.11101799 -0.8143913
000280 e7 1a b8 3d 2a 6d 7a bd 90 63 a3 bd 55 dc c7 be
       0.08989506 -0.061139263 -0.079779744 -0.39035287
000290 90 a1 be bc fe 11 a6 3c 0f a9 f0 bc 5f 2e f5 bc
       -0.023270398 0.020272251 -0.029377488 -0.029929338
0002a0 8b c1 aa be 33 aa 33 bf 53 72 29 bf 20 0f 5b bd
       -0.33350787 -0.7018158 -0.6619007 -0.05348122
0002b0 e7 6b 23 bf 69 6e d3 3e 59 6f 20 3f 68 cf e7 3d
       -0.6383652 0.41295174 0.62669903 0.113188565
0002c0 0b c8 cc 3e db bb b4 3e b8 4b 94 be 17 76 dc bd
       0.3999637 0.35299572 -0.2896402 -0.10764711
0002d0 49 a0 1b 3f bd cd 00 bf d5 5e 63 be 04 86 c6 bd
       0.6079145 -0.5031393 -0.22204144 -0.0969353
0002e0 2a 00 55 3d 27 64 1a bd ed 40 09 bf 0c b7 9a be
       0.05200211 -0.03769317 -0.53614694 -0.3021778
0002f0 85 39 96 3f 36 dd 5f be 8d fb 82 3c ff dc 0a 3f
       1.1736304 -0.21861729 0.01598909 0.54243463
000300 ed b7 17 bf 58 77 83 3e 3c 70 0f bd 16 10 15 3f
       -0.59265023 0.2567699 -0.035019144 0.5822767
000310 bb b6 a5 3e f8 77 4b 3e f8 2c a2 3d 0d 45 cf 3c
       0.32365975 0.19869983 0.07918733 0.02530148
000320 c9 3f cd bb 76 29 74 3d 42 87 32 bb 85 b1 b4 bb
       -0.0062637073 0.059609853 -0.0027241264 -0.005514326
000330 a3 c5 87 be 0e a6 63 3e 89 d1 8d 3f bc 40 81 be
       -0.26517972 0.22231314 1.107957 -0.252447
000340 fc c3 d0 3e a1 8b 64 bf d8 f1 1f be ec ba b3 3d
       0.40774524 -0.89275557 -0.156196 0.08775887
000350 11 a6 0c 40 c9 ee 83 3c ff ff 67 3f 9b 6e cb bf
       2.197636 0.016105073 0.90624994 -1.5893129
000360 ad 9e b1 3d 8f e0 ad 3d e4 40 61 bc 8b 14 d9 bd
       0.08672843 0.08490097 -0.013748381 -0.105996214
000370 5f cc 5f bd c5 df b1 3c d4 9f 0d 3f ec 07 6c bf
       -0.054638263 0.021713147 0.55322003 -0.9219959
000380 5c c6 7a 3f c7 d3 51 3d 85 80 24 bc 40 50 1e 3f
       0.9795892 0.051227357 -0.010040407 0.618412
000390 90 d0 00 bf 1b 89 0f 3f 8a 72 23 bf 53 f2 93 3e
       -0.5031824 0.5606858 -0.6384665 0.28895816
0003a0 37 e2 16 3f 90 79 16 bd fc 72 fb be 42 da 90 3f
       0.58938926 -0.036737025 -0.49111164 1.1316607
0003b0 6d 3e e4 bd 55 6e 1a 3d 43 b3 d3 3d 51 4d eb bc
       -0.11144719 0.037702877 0.10336926 -0.02872339
0003c0 17 51 e5 3e 30 14 be 3e c6 39 53 3f 32 1b 51 bd
       0.4478843 0.37124777 0.8251003 -0.051051326
0003d0 e0 78 f6 3e 72 26 11 3f df a5 df 3e 1d 7d 95 bd
       0.48139095 0.5669929 0.43681237 -0.07299254
0003e0 4d 97 48 3d 21 23 18 3e 84 40 f3 3e 7e 15 39 3e
       0.048972417 0.1485715 0.4751016 0.18074605
0003f0 01 6b ab 3e 15 48 c7 be 9a 92 b0 3d 49 bf b7 3d
       0.33480075 -0.38922182 0.08621712 0.089720316

layers.0.bias f4 [128]
000000 b4 8b 11 be 16 89 94 3f d5 8f b6 3f 73 0f a2 bf
       -0.14213449 1.1604335 1.4262644 -1.2660965
000010 3d 7f 13 bf 74 47 cf 3e 97 54 90 be 4f 8f 82 3f
       -0.57616025 0.40484202 -0.28189537 1.0199984
000020 ea e6 0a bf a5 48 66 bf 22 a6 1a bf 1c 76 98 3d
       -0.54258597 -0.89954597 -0.6040975 0.074444026
000030 81 bc 82 3f 12 75 45 3f 0f a7 1f bf 91 74 9a 3e
       1.0213777 0.7713176 -0.62364286 0.30167058
000040 f8 6e c9 be d4 27 e6 3e 3b 1b db be 1a bb 0c bf
       -0.39342475 0.4495226 -0.42794213 -0.54972994
000050 43 bf e8 3c c2 d6 9d bd 5a 6a 96 bf 05 bd 31 3f
       0.028411513 -0.077069774 -1.1751206 0.69429046
000060 81 bf 80 bf 84 60 56 bf 2e c0 ec bf 03 c6 40 3f
       -1.0058442 -0.8374102 -1.8496149 0.7530214
000070 9e c4 6d 3d f7 87 ab bf 94 d9 9b bf 9c 39 24 3d
       0.058048837 -1.3400868 -1.2175775 0.040094003
000080 44 82 3b bf 24 15 51 3e f3 9a cb 3e 5c 93 10 3f
       -0.73245645 0.20418221 0.39766654 0.5647485
000090 0b 85 72 bf c4 ce b0 bf 3a 9e 83 be b7 d1 b8 3e
       -0.9473426 -1.38131 -0.25706655 0.360975
0000a0 b1 c4 76 bf 9a 30 82 bc 09 de 75 bf 32 2c 02 bf
       -0.9639388 -0.015892316 -0.96041924 -0.50848687
0000b0 ce f1 0e bf f2 20 a6 3f 04 35 9d 3e c5 9c 18 3f
       -0.55837715 1.2978804 0.3070451 0.5961421
0000c0 a9 5a b6 3f 3b 31 82 be 3d ef 83 bf c6 c2 56 be
       1.4246417 -0.25428185 -1.0307385 -0.20972738
0000d0 29 62 a0 bf bd 14 38 be 81 f6 91 3f d3 96 61 3e
       -1.2529956 -0.17976661 1.1403352 0.22030191
0000e0 97 fc 16 bf bd e0 a9 be a6 a9 8c 3d c6 24 90 bf
       -0.5897917 -0.33179274 0.06868295 -1.1261222
0000f0 52 f1 8c be 77 8a 80 3e dd 1e a2 3e 7b 7d ec bd
       -0.27527863 0.2510564 0.31664172 -0.11547371
000100 62 4d c2 bf c5 b5 88 bf 4e b4 8e be a7 fe 85 3e
       -1.5179865 -1.0680472 -0.27871937 0.26170847
000110 d0 18 89 bf 0b 10 81 be c8 ff 16 be 6c bc b4 3f
       -1.0710697 -0.25207552 -0.1474601 1.4120002
000120 6d 95 0b c0 5c 6b 26 bf fd f3 3e bf 65 53 09 bf
       -2.1809952 -0.6500757 -0.74591047 -0.53642875
000130 81 86 b9 bf 31 73 b0 3d 29 db 0a 3f c7 12 2e 3f
       -1.4494172 0.08615721 0.5424066 0.679974
000140 1a 69 aa 3f 96 f7 28 bf 31 e4 2d bd 3b a4 8e bf
       1.3313324 -0.66002786 -0.04245395 -1.1143869
000150 25 0b 63 3f e6 55 e4 3e d9 33 d4 be 5d 48 20 3e
       0.8868888 0.44596785 -0.41445807 0.15652604
000160 29 1a 9c 3e ba 5d a9 be 90 b3 dd bc e9 82 e8 3f
       0.3048871 -0.3307932 -0.027063161 1.8164951
000170 9d 2b 41 bf 75 fd 84 3e 4c 7c e8 3e 17 67 bd be
       -0.75457174 0.25974622 0.4540733 -0.36992714
000180 1b 56 8d 3f e7 98 35 3f cd e3 3b bf cd a4 cc be
       1.1041902 0.70936435 -0.7339447 -0.39969483
000190 7e b8 21 bd fa 92 00 3f 63 13 93 3e df 38 fd be
       -0.039482586 0.5022427 0.28725728 -0.49457452
0001a0 56 bf 35 bf 1d d7 4b bf 09 8b 3c bc c4 46 7b 3e
       -0.7099508 -0.7962511 -0.011507758 0.24538714
0001b0 1e 36 18 bf 80 2b c8 bb 4c 16 20 bf 53 e0 b8 3e
       -0.59457576 -0.006108701 -0.6253402 0.36108646
0001c0 66 92 b8 be a6 fc 38 3e 54 e5 1c be f6 57 16 3f
       -0.36049193 0.18065128 -0.15321857 0.5872797
0001d0 12 0e d4 3f d4 81 18 bf 58 dd 46 bf 90 c6 8f 3f
       1.6566794 -0.595731 -0.77681494 1.1232471
0001e0 57 8d e9 be cd ff b1 3f e6 ae e1 3e c1 34 03 3e
       -0.45615646 1.3906189 0.4407875 0.12813093
0001f0 37 24 f3 bf 50 b3 47 bd a6 be 95 3f 7d c9 f1 3e
       -1.8995427 -0.04875499 1.1698806 0.47224036

layers.1.weight f4 [128, 128]
000000 9e 7a 86 be 6f d0 95 be 9a 13 9e 3e 03 95 1b be
       -0.26265424 -0.29260585 0.3087433 -0.15193562
000010 8b 49 9b bd 1e d1 34 bd 72 be 05 3e be 74 02 be
       -0.075823866 -0.044144742 0.1306093 -0.12739846
000020 8b af 4b 3e 4a 09 09 bd 35 38 05 3e ea 4a 14 3e
       0.19891183 -0.033456124 0.13009723 0.14481702
000030 71 f4 a5 3e e4 f5 f6 bc 22 d7 bf bd dd 72 7e 3e
       0.32413056 -0.030146547 -0.09367205 0.24848504
000040 0d fd fe 3d 82 23 c7 3e ce db cc 3e ac ef 9d bd
       0.12450609 0.38894278 0.40011448 -0.077117294
000050 d1 10 d2 bd 7d 97 a5 be d8 a2 78 bd 72 29 2d be
       -0.10257114 -0.3234214 -0.060702175 -0.16910341
000060 7d 40 19 3f 98 b3 06 be 0f 66 76 bf 19 f1 55 be
       0.59864026 -0.13154447 -0.9624948 -0.20892753
000070 6e b6 d6 bd 6a a1 b1 bc 2f 5e 98 be 7a 01 45 be
       -0.104840145 -0.021683414 -0.29759356 -0.19238845
000080 8f 36 ef bd 88 be 01 bf 85 a5 a5 be c2 e7 03 be
       -0.11680328 -0.5068135 -0.32352844 -0.12881377
000090 1d 89 82 be b5 0b bf 3e 86 61 0f bd 24 12 0f 3e
       -0.25495234 0.3731362 -0.035005115 0.13971764
0000a0 10 f3 47 bd 3d 42 46 be 7e ac 74 be d3 c3 29 be
       -0.048815787 -0.19361205 -0.23893926 -0.16578607
0000b0 87 c7 5a 3e fa 50 9d bd e9 4f 2c 3e d3 a4 38 3e
       0.21365176 -0.07681461 0.16827358 0.18031625
0000c0 6d dc a4 3e fb 32 00 be 98 35 70 be a1 22 26 bd
       0.32199422 -0.12519448 -0.23457944 -0.04056037
0000d0 69 1f 2b 3e 81 e5 1f 3f 6b 77 00 bd 05 e2 1c 3f
       0.16711201 0.6245957 -0.031363886 0.6128238
0000e0 aa 1f 16 bf 90 d7 cb be 39 5f 3c be 4b 88 3d 3e
       -0.58642066 -0.398129 -0.183957 0.18509023
0000f0 b6 64 b9 3e bd fc f3 3e 8f 23 b8 3d 51 25 04 bf
       0.3620965 0.47653762 0.08991157 -0.5161944
000100 14 ac a0 be 0e 70 7d 3e d7 78 d1 bd fa fc d0 3e
       -0.31381285 0.24749777 -0.102281265 0.40818006
000110 fa 4a d2 be 92 1d 17 3e e4 1e 88 be a6 85 63 bd
       -0.41072828 0.14757374 -0.26586068 -0.05554738
000120 68 15 d2 3e fa 53 52 3b 35 4b 0c 3e 11 d6 94 3e
       0.41031957 0.003209351 0.13700564 0.2906957
000130 16 e0 00 3e 85 4c a4 3e fb 6d 07 be ff 53 33 3e
       0.12585482 0.3208963 -0.13225548 0.1751251
000140 e0 74 2b be 83 97 ca 3b 81 3f b0 be f4 1b b6 3e
       -0.16743803 0.0061826124 -0.3442345 0.35568202
000150 96 c3 44 3e 42 90 cc bd f4 2f 19 bd 76 15 8d be
       0.19215235 -0.099884525 -0.037399247 -0.27555436
000160 e4 04 fb be dc 8b b3 3d 89 b2 19 3f ae 63 36 be
       -0.4902717 0.087669104 0.6003805 -0.17811462
000170 f5 7c 67 3d 38 51 5f 3e d7 1d b2 3d 56 3f d0 3d
       0.056515653 0.21808326 0.08697098 0.1016833
000180 14 be e9 be 0c f7 e2 3d c9 53 86 bd e6 89 81 3d
       -0.4565283 0.11082277 -0.065589495 0.0632513
000190 c2 b7 23 be a3 c7 16 be 19 3f 06 be 8f a5 e3 3e
       -0.15988067 -0.14724593 -0.13110007 0.4446225
0001a0 28 df af bd 9e 2e 25 3d b1 7c ca 3d 78 c1 30 3d
       -0.085874856 0.04032766 0.09887064 0.043153256
0001b0 16 b8 34 3d e9 b3 8f 3e 5e cd 27 be 25 3e 83 bc
       0.04412087 0.28066948 -0.16386935 -0.016020844
0001c0 46 fa 2d 3e 3e 39 ff bd 34 cb 4b 3d c1 a4 ac be
       0.16990003 -0.1246209 0.049754336 -0.33719447
0001d0 47 4f 83 3d 10 1e 00 be a6 86 56 bd 7c df 91 be
       0.06411605 -0.12511468 -0.052374505 -0.28490818
0001e0 77 09 c4 be 97 cd 62 3e f8 20 ab bc 8a 13 e5 3b
       -0.3828847 0.22148739 -0.020889744 0.0069908546
0001f0 09 eb 06 be df 5f 1b be f5 8c 90 bd 28 10 04 bf
       -0.13175596 -0.1517329 -0.070581354 -0.5158715
000200 c7 44 2c be 41 04 bf bd 28 93 0d bf 12 31 8d 3e
       -0.16823111 -0.09326983 -0.5530267 0.275765
000210 0f 9f 9c 3d c6 f7 5d bc 61 77 ad 3e 0a 27 eb 3d
       0.076475255 -0.013547843 0.3388014 0.114820555
000220 32 31 8e be ec aa c2 3b c3 6d e5 be d9 c4 3f be
       -0.27771908 0.0059407856 -0.44810304 -0.18727435
000230 49 15 18 bf 16 41 df 3e 29 c2 3b be 8d 14 89 3e
       -0.5940748 0.43604344 -0.18335785 0.26773492
000240 a8 e3 c0 be 46 b6 36 be 2d fa 12 3e eb fd ba bd
       -0.37673688 -0.1784297 0.14353247 -0.09130462
000250 56 d0 a9 bc 36 8c 10 bd 24 b3 fa bd 8b 20 4c be
       -0.020729225 -0.035289966 -0.122411996 -0.19934289
000260 02 64 e5 be a1 04 54 3d db 3c 42 3f 95 7e 1f 3e
       -0.44802862 0.051762227 0.7587411 0.15575631
000270 ae 6b b9 3e 6e 2b 08 3e 83 34 bc 3e 64 7a 91 3e
       0.36214966 0.13297817 0.36758813 0.2841369
000280 fc a9 da bd 7a 1f c7 bd 92 f4 88 bd 60 ce 19 3c
       -0.10676953 -0.097228006 -0.06687273 0.009387583
000290 0d ff 23 3e 19 59 5b 3f 51 01 b4 bd 19 51 a3 3e
       0.16015263 0.8568283 -0.087893136 0.3189781
0002a0 7a 57 be 3e 69 57 69 be c1 61 9e 3e 65 b9 b3 3d
       0.37176114 -0.2278725 0.30933955 0.087755956
0002b0 bc c5 4d be 7d c1 4c 3f e1 ac f2 3e 07 34 87 3e
       -0.20094961 0.7998274 0.4739752 0.2640688
0002c0 67 ab 72 be 1e a4 b3 3e 6a 26 38 be 45 45 21 be
       -0.23698197 0.3508615 -0.17983404 -0.1574908
0002d0 d1 e0 54 be 2c be 95 3e 4c f2 53 be e0 84 85 be
       -0.20788886 0.29246652 -0.20697898 -0.26077938
0002e0 0c 83 1f be d8 fb fa 3e de cb 71 3c c7 76 a7 be
       -0.15577334 0.49020267 0.014758078 -0.32707807
0002f0 54 bc 73 be fb 52 9d 3c aa 5e f8 bc 8c 9c 54 3e
       -0.2380231 0.019204607 -0.030318577 0.20762843
000300 87 42 18 be 5a 64 67 3e a2 70 54 bc 1d bd 8b bd
       -0.14869128 0.22596875 -0.012966307 -0.0682318
000310 db 77 09 3f 8d 2b e2 be 9b 9d 05 3c 5c 01 f4 be
       0.5369851 -0.44173852 0.008155252 -0.47657287
000320 4f 6c 0d 3f 30 f0 05 be bd 46 c3 bd 37 a5 94 bd
       0.5524339 -0.13079906 -0.09534977 -0.07258075
000330 f4 78 b5 3d 4f 9b 0f bd d6 f6 f9 3d 01 e6 0a be
       0.088609606 -0.035060223 0.12205283 -0.13564302
000340 ac f2 02 bf 60 9e 38 3d 65 a2 d9 3e 7e 4e 2d be
       -0.5115154 0.045072913 0.4250671 -0.16924474
000350 d9 83 73 3d e7 ea 22 3e f7 b9 2e bd b4 33 85 3e
       0.05945191 0.1590992 -0.04265782 0.2601601
000360 42 6c f7 bd f7 19 c6 bc 58 7a 73 3e b3 a2 eb 3e
       -0.120811954 -0.024182303 0.23777139 0.46022567
000370 0f f5 b8 3e e3 e5 0e be 75 c8 98 3e 11 3f 81 bd
       0.36124465 -0.13954882 0.29840437 -0.06310857
000380 45 82 2a 3e 36 f5 a7 3d b2 02 3d be 11 64 66 be
       0.16651256 0.08201067 -0.1845806 -0.2249911
000390 d1 0a 68 be 11 cd b4 be bc 39 d0 be 32 bb b9 3e
       -0.22660376 -0.35312703 -0.40669048 0.3627563
0003a0 4d ba c7 3e af fe 87 bd 52 43 81 3d d7 1b df 3d
       0.39009324 -0.06640374 0.063116685 0.10893982
0003b0 b1 73 30 3e 55 40 f4 bc a6 3e 36 be 4a 21 fd 3c
       0.17231633 -0.029815832 -0.17797336 0.030899663
0003c0 5f 89 5f 3e 23 87 23 3e 28 d1 be bc 0c 79 de 3e
       0.21829747 0.1596952 -0.023293093 0.43451726
0003d0 6a 60 99 bf fe 38 02 bf 71 e5 ca be 25 fa 20 3e
       -1.1982548 -0.50868213 -0.39628175 0.15720423
0003e0 fe b6 ad 3c fe 95 8c 3b af 9a 08 3e a6 98 36 3e
       0.021205422 0.0042903414 0.13340257 0.17831668
0003f0 27 20 42 bd 7d a7 89 be 2f 6b e1 bc 76 d3 d7 be
       -0.047393944 -0.26885596 -0.02751693 -0.4215352

layers.1.bias f4 [128]
000000 74 e6 18 3e 2f 0c 98 be c3 69 e8 be 68 11 90 3e
       0.14931661 -0.29696795 -0.4539319 0.2813828
000010 42 ca 59 be 2d d1 4d 3e ad 1d aa 3e b8 16 af 3e
       -0.21268561 0.20099325 0.33225766 0.3419702
000020 21 25 a7 be 27 5b 62 be 28 bb eb 3e 6c 68 b6 3d
       -0.32645515 -0.22105084 0.46041226 0.08906636
000030 40 7e d7 be ad e8 f7 3c b1 76 0c 3d 80 d6 bf 3e
       -0.4208851 0.030262316 0.03429288 0.37468338
000040 2f cf f5 3e c3 dc 9a 3e 77 62 98 3e 15 24 03 3e
       0.4800963 0.30246553 0.29762623 0.12806733
000050 68 5e d7 bd fa 34 88 3e 8d 56 cf 3d fe c6 e9 3d
       -0.105160534 0.26602918 0.1012393 0.11414908
000060 da 64 17 3e 65 2f 86 3b 51 9d cb 3c 07 85 b4 3e
       0.14784566 0.0040950053 0.024855288 0.35257742
000070 54 63 95 3d 90 8f eb be 57 df 19 3f 37 1f 30 bd
       0.07294336 -0.46007967 0.60106415 -0.04299852
000080 48 38 24 3e 85 0f c9 bb 05 f6 48 be f5 fc cc be
       0.16037095 -0.0061358833 -0.19625099 -0.4003674
000090 97 07 5b 3b d1 a5 27 3e 32 ed 7a be d5 50 df be
       0.0033421272 0.16371848 -0.24504545 -0.43616357
0000a0 9c 4f 99 bd 27 09 35 bf 69 4a e2 3e 0b e3 0f 3e
       -0.074858874 -0.7071709 0.44197395 0.14051454
0000b0 00 d1 a2 3b aa 79 89 be 16 33 a4 3c 0e 12 d0 bd
       0.0049687624 -0.26850635 0.02004389 -0.10159694
0000c0 1f 60 92 bb 55 96 98 3e 2a 7c ee bd 76 b6 69 bd
       -0.004467025 0.29802194 -0.11644776 -0.057058774
0000d0 3c b0 2c be 56 7f 04 3e bc 41 d3 bd 25 d5 c9 bd
       -0.16864103 0.129392 -0.10315272 -0.09855107
0000e0 e7 97 8e 3e 16 dc 80 3c b5 13 54 bd ec 06 ab be
       0.27850267 0.015729945 -0.051776607 -0.33403718
0000f0 cd c8 af be b9 27 ee 3e a4 77 26 be b3 e9 04 3c
       -0.34332886 0.4651468 -0.16256577 0.008112359
000100 04 0a 12 be eb 4e 27 bf ee 35 4f 3e 7b e8 56 3c
       -0.14261633 -0.65354794 0.20235416 0.013116951
000110 a4 77 c5 3e b4 ab f6 bd 47 fe 25 bd 06 b7 b1 bc
       0.3856784 -0.120444685 -0.0405257 -0.021693718
000120 2e 75 6a be 75 94 03 3e e0 8c 8f 3e 6a 68 96 3e
       -0.22896263 0.128496 0.28037167 0.29376537
000130 40 b6 52 be 50 7a 97 3e dc b4 e5 be 00 4e 80 3e
       -0.20577335 0.29585505 -0.44864547 0.2505951
000140 1e 12 4f 3e 54 c0 4f 3e 0f 34 54 3e 3c c6 8c 3c
       0.20221755 0.20288211 0.20722984 0.01718437
000150 99 07 08 be 31 28 a7 3e eb bc 43 3d 82 ad 8b 3e
       -0.13284148 0.3264785 0.047787588 0.27280813
000160 da 4f 11 be ff c3 04 be 13 77 f9 be 04 75 9e 3e
       -0.14190617 -0.12965392 -0.4872366 0.3094865
000170 54 e4 c8 3d d6 ba ee be be a2 8f bd c0 98 6c 3e
       0.09809175 -0.4662692 -0.070134625 0.23105145
000180 3e 01 35 3e a6 00 04 bf 46 88 d6 bd 0a ca 4f be
       0.17676255 -0.5156349 -0.10475211 -0.20291916
000190 e5 7e 09 3d 41 b8 a5 be 4a 7d 43 3e 8c 01 9e bd
       0.03356828 -0.32367137 0.19090763 -0.07715139
0001a0 5b 06 1b 3f 4f f1 87 3e 4c 6f 5e 3e 8b 02 98 be
       0.6055657 0.2655129 0.21722144 -0.2968944
0001b0 e6 27 40 be c8 97 a2 3c 05 bb 57 bd 5f 31 fa bc
       -0.1876522 0.019847766 -0.05266859 -0.03054112
0001c0 7d a8 51 be b2 d7 8a 3d 4b df cf 3d 4e 6b 0d 3f
       -0.2047443 0.06779422 0.10150012 0.5524186
0001d0 8c 91 70 3d 05 ce 36 be fb 77 1e 3e c2 40 73 be
       0.058732554 -0.17852028 0.15475456 -0.23755172
0001e0 c4 ab 1d bf a4 d8 b2 3e 6d f0 62 be f7 32 84 bd
       -0.6159022 0.3493091 -0.22162028 -0.06455033
0001f0 52 46 8a be c3 1e 1f 3e 66 6d 19 bd 97 11 bb bd
       -0.27006775 0.15539078 -0.037457846 -0.09134214

value_stream.weight f4 [1, 128]
000000 46 2a 12 bf 59 e7 db 3e 45 fa ab 3e f0 4e 80 be
       -0.57095754 0.42949942 0.33589378 -0.25060225
000010 31 0b 9c 3e ff cd e5 3e 9f 69 06 3f a9 54 c0 be
       0.30477288 0.44883725 0.52504915 -0.3756459
000020 21 13 7f be 78 cc c2 3e 45 b1 02 bf 15 15 ba 3e
       -0.24909641 0.38046622 -0.5105174 0.3634421
000030 68 b1 dc be 48 18 d4 be 66 ff 9b be ce 8e e2 be
       -0.431041 -0.41424775 -0.3046829 -0.44249576
000040 d0 12 df be 8b d1 e2 be 35 8b dc be bd 65 3d bf
       -0.4356904 -0.44300494 -0.43074957 -0.73983365
000050 20 ba c9 3e fe 1f ff be 65 f5 86 be 82 cf 15 3f
       0.39399815 -0.49829096 -0.26359096 0.58519757
000060 87 d1 01 bf b6 14 b6 be b8 4f 8e be 92 44 dd be
       -0.5071034 -0.35562676 -0.27795196 -0.43216377
000070 4b 4e c7 be e9 66 69 3e 56 99 23 bf c2 60 28 bf
       -0.3892692 0.22793163 -0.6390585 -0.6577264
000080 77 d5 c6 be 36 53 f0 be 68 34 73 be 9b ef 0f 3f
       -0.38834736 -0.46938485 -0.2375046 0.56224984
000090 90 66 c9 3e 90 04 a4 3e 53 b4 2c 3e 12 b9 fa 3e
       0.3933606 0.3203473 0.16865663 0.48969322
0000a0 c9 4e a8 3e 25 2b 3b bf 79 0d 63 be ea 97 92 3e
       0.32872608 -0.7311271 -0.22173108 0.28631526
0000b0 d3 6e a7 be b0 63 a0 3e d9 2c 86 be aa 7b e3 3e
       -0.3270174 0.31326056 -0.2620609 0.44430286
0000c0 99 b2 0b bf fd e7 92 be 3c 56 c1 be cf 91 11 bf
       -0.54569393 -0.28692618 -0.37761104 -0.5686311
0000d0 c2 bf 9b be 26 1b e4 be 92 15 c6 be 98 d7 81 3e
       -0.30419737 -0.44551963 -0.38688332 0.25359797
0000e0 50 10 c8 be 6a 0c a1 be 46 d7 b2 be f8 df 47 bf
       -0.39074945 -0.31454784 -0.34929866 -0.78076124
0000f0 e7 7c 9c 3e f3 53 98 be 9d 66 ce 3e ee 64 a4 be
       0.30564043 -0.29751548 0.40312663 -0.32108253
000100 61 e8 07 3f b6 c5 ab 3e 9c 23 da be 39 23 cf be
       0.5308896 0.3354928 -0.42605293 -0.4045656
000110 2d 90 0e bf 08 bf b7 be 6e 5b 2a bf 20 97 f4 3e
       -0.55688745 -0.35887933 -0.6654576 0.4777155
000120 34 bc 82 3e 9b f5 b2 be c1 86 e9 be b1 6e c9 3e
       0.25534213 -0.34953007 -0.45610622 0.39342263
000130 fb bf d3 3e 87 b9 0a 3f 93 6f ea be b1 15 be 3e
       0.41357407 0.5418934 -0.4578825 0.37125924
000140 48 cb c0 3e b4 d5 ed 3e 7c da b9 be c2 ed c9 3e
       0.3765509 0.46452105 -0.36299503 0.39439207
000150 bc b6 da 3e e4 0d bd 3e 8c 95 59 be 68 a2 98 be
       0.4271754 0.3692466 -0.21248454 -0.29811406
000160 ac d0 ae 3e 9e 30 e6 be 7e 81 f0 be b3 34 79 be
       0.3414358 -0.44958967 -0.46973795 -0.2433651
000170 0a 87 92 3e 5b c4 78 3e 95 c1 3e bf a0 f7 de be
       0.28618652 0.24293654 -0.7451413 -0.43548298
000180 ad cb 6a be f0 0e 46 3f dc 45 a4 3e 8c 35 7a 3e
       -0.22929259 0.7736654 0.32084548 0.24434489
000190 3d 14 a3 3e 01 e6 6b 3e 78 34 25 bf b7 be ae be
       0.31851378 0.23036958 -0.64533186 -0.3412988
0001a0 f1 3f e5 be 7e 6a b3 be 53 57 e7 be 9f 33 a9 be
       -0.44775346 -0.35042185 -0.4518381 -0.33047196
0001b0 e0 56 92 3e e3 60 8a be 08 b9 af be 73 f4 ea be
       0.28581905 -0.27027044 -0.34320855 -0.45889625
0001c0 7f 39 53 3f 69 9a b4 be 9e 6c 40 bf 60 e2 08 3f
       0.8250961 -0.35274056 -0.75165737 0.5347042
0001d0 b8 d3 eb 3e 5d 09 a9 be 22 ac 8c be 58 c6 f9 3e
       0.46059966 -0.33014956 -0.27475077 0.48784137
0001e0 2a e0 91 3e c0 e9 c3 3e a0 82 e7 3e 83 49 c4 be
       0.28491336 0.38264275 0.45216846 -0.38337335
0001f0 18 29 95 be b0 bd a5 be c3 dc 90 be 1d 78 23 bf
       -0.29132915 -0.32371283 -0.28293428 -0.63855153

advantage_stream.weight f4 [7, 128]
000000 ff b1 1d 3d 3a 95 86 bd e6 30 c3 3a d2 7a a6 3d
       0.03849983 -0.065714315 0.0014891892 0.08128895
000010 28 a9 f4 bc db aa b4 bc dd ec ad bb d9 fd f1 bc
       -0.029865816 -0.022054126 -0.0053077773 -0.02953999
000020 cc 5c 08 bd a0 82 47 bc 20 e1 8b 3d 73 4d 11 3d
       -0.033291623 -0.0121771395 0.068300486 0.035474252
000030 21 4c df bd 1c fa c9 3d b5 15 55 3c ae 53 d8 3c
       -0.10903192 0.09862158 0.013005664 0.02640709
000040 ed ce 48 3d 55 24 06 3a 8f 43 9d 3d 23 7f 8f bd
       0.049025465 0.0005117108 0.076789014 -0.07006671
000050 ff e4 db bc 95 6a 08 bd ae fa 84 3d 09 e2 fc bc
       -0.026842592 -0.03330477 0.06493126 -0.0308695
000060 d2 5e f5 bc 5b e1 27 bc 57 e6 24 bc 4f a2 be bc
       -0.02995244 -0.0102466 -0.010064683 -0.023270754
000070 31 bf b8 3c 1e f3 66 bd 0b d2 1f bd e0 bd 80 bd
       0.022552105 -0.0563842 -0.039018672 -0.06286216
000080 3a 9f aa 3c 57 da 2d bd 07 70 44 3a 7c c5 ba 3c
       0.020827878 -0.042444553 0.00074935 0.022799246
000090 9a 0c f5 bc 03 90 93 bd 57 c5 3b bd 78 00 0b bc
       -0.029913235 -0.072052024 -0.045842495 -0.0084839985
0000a0 f0 23 04 3d 8d ff e3 3c d8 00 90 bb a9 ac 6b bc
       0.032260835 0.027831817 -0.004394632 -0.014384427
0000b0 ab b4 79 3c ea ee a9 3c e3 15 b3 bc f5 49 13 3d
       0.0152408285 0.020743806 -0.021861022 0.035959203
0000c0 2a 8c 46 3d 8a a2 a8 3d b9 08 34 3c 68 6c 0c 3d
       0.048473515 0.08234127 0.010988408 0.03428307
0000d0 f6 f8 1e 3d 1c fe 62 3d 3c c8 83 3d 56 a3 57 bc
       0.038811646 0.05541812 0.06434676 -0.013161501
0000e0 32 fe c5 3c 69 75 00 bd ad 86 d0 b9 ce ac 35 3d
       0.024169061 -0.03136197 -0.00039773193 0.044354253
0000f0 01 ec b1 3c e9 d6 bd 3c 4b f3 b0 bc d6 76 a0 3d
       0.02171898 0.023173766 -0.021600386 0.07835166
000100 bf 54 62 bc 40 68 05 bd b5 43 56 3c 66 96 4b bc
       -0.01381415 -0.032570124 0.013077666 -0.0124259945
000110 82 55 01 3e 20 50 98 39 ae c9 ae bc bf e2 23 bd
       0.12630275 0.00029051397 -0.021336403 -0.040011164
000120 5a 33 5f 3d 91 53 ec 3b c1 fc 69 3c 01 83 07 bd
       0.054492332 0.0072121103 0.014281453 -0.03308392
000130 a2 d8 71 3d eb a3 2c 3c ef 85 33 3c 38 4b 99 bc
       0.059044488 0.010537128 0.010957225 -0.018712625
000140 06 09 84 bd 61 9c c1 bd c9 9f 5e 3a de ab 0a bd
       -0.064470336 -0.09453655 0.0008492438 -0.03385531
000150 c1 76 93 bd d6 89 6c 3c d9 ff e8 bc 1c fc af 3c
       -0.07200385 0.0144371595 -0.02844231 0.02148252
000160 cb b2 65 3c 6b ed 1a 3e 76 ce 37 bd ac 29 8c 3d
       0.014019678 0.1512963 -0.04487463 0.06843886
000170 1b 90 37 bc a7 10 ec 3c 68 f9 0e 3e 03 e8 b6 bd
       -0.011203791 0.028816534 0.13962328 -0.089309715
000180 dd 39 2e 3d 08 ab 27 3d 08 dd 9c bc 4f fe fe 3c
       0.04253565 0.040934592 -0.019148365 0.031127123
000190 d7 52 b2 3b 47 f7 06 3d 00 bb 47 3d fe 01 99 3d
       0.005442004 0.032950666 0.04876232 0.07471083
0001a0 55 21 52 3c 9d 6c 8e 3d 83 b9 d1 3c 99 68 8c 3d
       0.01282533 0.0695431 0.025601154 0.06855888
0001b0 a9 3d 15 bc fa 85 55 bd 13 e6 a3 bc fa 09 4b bb
       -0.009108939 -0.052129723 -0.020007169 -0.0030981288
0001c0 24 cf 36 bd d4 d3 42 bd 84 48 7a 3b e9 d5 be 3c
       -0.04463114 -0.047565296 0.0038190195 0.02329536
0001d0 80 9a 95 bd 3c 5a 64 3d bf f7 6a 3c 8f b4 0f bd
       -0.07304859 0.055750117 0.014341294 -0.035084303
0001e0 16 92 cb 3c 62 fe 9a 3b b6 b9 87 bc ff 91 80 3c
       0.024849933 0.004730032 -0.016568046 0.015694616
0001f0 1b 7c 92 3c 7e 94 34 3c a3 36 3c bd ff a5 94 3d
       0.017881444 0.011021731 -0.045950543 0.07258224
000200 47 2e 53 be 2d a4 59 3e b6 1f 4a 3e 70 3f 1a be
       -0.20623122 0.21254034 0.1973866 -0.15063262
000210 b3 90 54 3d 37 b7 7d 3d 55 c1 0b 3e d9 f6 b4 bd
       0.05189581 0.061942305 0.13647969 -0.08836145
000220 01 66 15 bd de 9d b9 3d 53 3b 13 be 63 2f 06 3c
       -0.03647423 0.09063314 -0.14378099 0.008190009
000230 1e 73 38 3d 52 0d 09 be f8 6e 82 bd a1 a3 a8 3d
       0.04503166 -0.13383988 -0.06368822 0.08234335
000240 32 db 4c 3d a1 af 17 bd 14 09 05 bd 08 fc 88 3b
       0.05001373 -0.037032727 -0.03247936 0.004180435
000250 dc 18 1f 3e ba 76 09 be e3 73 8b bd 50 76 82 3d
       0.15536827 -0.13424197 -0.06809213 0.063702226
000260 57 d3 be bd 88 41 4d 3b a0 2c 24 bd 6d 59 32 3d
       -0.093176536 0.0031319577 -0.04008162 0.043542314
000270 a2 44 ee bd 1a 35 dc 3c 5d 26 27 be 37 34 b2 bd
       -0.116341844 0.02688079 -0.16323228 -0.087013654
000280 87 5f 1f be 02 74 f1 3d 3b be 84 bd ae d8 1a 3b
       -0.15563785 0.11789705 -0.06481596 0.0023627686
000290 38 ac 9c 3d af c8 bb 3d f5 f6 cc 3d 86 ed e7 3d
       0.076500356 0.09169137 0.10008041 0.11324601
0002a0 a4 1e a2 3d 90 78 a3 be d3 ed e6 3d fe c4 1e 3e
       0.079160005 -0.3192792 0.1127583 0.15504834
0002b0 f3 7c da bd ae d5 9d 3d 27 25 ad 3c 0c c6 ce 3d
       -0.106683634 0.07706772 0.02113588 0.10096368
0002c0 7d c4 b1 be 86 64 dd bd a9 47 d8 bd 0c 4d 9b be
       -0.3472022 -0.10810189 -0.10560543 -0.3033222
0002d0 98 51 f9 bd 5c 22 e3 bd a5 f5 d7 bd e7 65 a4 3d
       -0.12173766 -0.11090538 -0.105449 0.08027249
0002e0 ea 3e 2e be c1 cd 5f 3d b7 6c 66 3d 45 26 3c be
       -0.17016187 0.05463958 0.056256022 -0.18373974
0002f0 c7 e5 80 3d 7e bd 11 be 20 4a 40 3e 06 4d a9 bd
       0.062938266 -0.14232442 0.18778276 -0.08266644
000300 ec 01 86 3e ce ee bb 3d 9e 84 79 be 80 9a a2 bd
       0.2617334 0.09176408 -0.24366996 -0.07939625
000310 30 b9 19 be 08 5f d2 bd e7 c9 42 be 93 cc 95 3e
       -0.1501205 -0.10272032 -0.19022332 0.2925764
000320 47 ce 0d 3e 4a 2e 1c be 1f 78 b0 be 85 f2 06 3d
       0.1384822 -0.15252033 -0.34466645 0.03294613
000330 a8 34 66 bd 6a 26 69 3c 37 f4 82 be 53 a2 be 3e
       -0.05620256 0.01423035 -0.25576946 0.3723322
000340 53 10 d0 3d 10 da bd bd 95 9a 1d be ec d2 7f 3d
       0.101593636 -0.09270108 -0.15391 0.06245701
000350 b9 42 02 3e e6 0c 39 3e 5a bd 3b 3e 58 10 fa bd
       0.12720765 0.18071327 0.1833395 -0.122101486
000360 87 dc 4b 3a 9e e4 8e bd ec b4 52 bc e6 bf e5 bd
       0.00077766966 -0.06977199 -0.012860518 -0.11218242
000370 69 72 6f 3c eb 8f 63 3d 75 0e 63 be 46 12 32 bd
       0.01461468 0.055557173 -0.22173484 -0.04347446
000380 04 b4 52 bd 70 4f 40 3d 2a 8c a3 3d ae 65 52 3d
       -0.051441208 0.046950758 0.079857185 0.0513665
000390 77 40 dc 3d 8e a9 b8 bc de 01 44 be 1e 36 14 be
       0.10754483 -0.022541787 -0.19141337 -0.14473769
0003a0 09 b6 03 be a3 67 30 be 6c bd 58 be e9 e0 98 bc
       -0.1286241 -0.17227034 -0.21166009 -0.018661933
0003b0 11 26 12 3d 13 52 da bc 09 d3 97 3d 69 bb c7 bc
       0.035680834 -0.026650464 0.07413299 -0.024381356
0003c0 27 6a 3b 3e 5b f7 5a bc 48 dd 98 3c e6 03 55 3d
       0.18302213 -0.013364638 0.018660203 0.05200567
0003d0 4f f8 03 3e 24 e7 0a bb fa 04 14 be ae d1 16 3e
       0.12887691 -0.00211949 -0.14455023 0.14728424
0003e0 89 fe 51 be 8f 5d a9 3d 47 89 ad 3d 17 b9 7e 3c
       -0.20507254 0.08269798 0.08473449 0.015547059
0003f0 a5 be cf bd 3b 06 d8 bd da 3e 98 3e dd 84 3f be
       -0.101437844 -0.10548063 0.29735452 -0.18703027

advantage_stream.bias f4 [7]
000000 fa 3b 30 bd b2 0a 31 3e 74 b8 d7 bd cc 53 9e 3c
       -0.043025948 0.17289236 -0.105332285 0.019327067
000010 f2 2b bb bc f9 69 4e bb 66 dc 26 3d
       -0.022848103 -0.003149627 0.040737532
