src/weights/prio_agent_self_play_19_2_25_n_step_6/weights/episode_4500.pth (torch, 305914 bytes, 6 tensors)

layers.0.weight f4 [256, 18]
0	0xbd974948	-0.07387024
1	0xbe6c51ec	-0.23078126
2	0xbd97ef34	-0.07418671
3	0xbd330b4b	-0.04371194
4	0x3dbb97e7	0.091598324
5	0x3d18f37c	0.03734158
6	0x3e181b3e	0.14854142
7	0xbd104c29	-0.035228882
8	0x3dcd9a8e	0.100392446
9	0xbd9d3d03	-0.07677653
10	0xbd38f50c	-0.04515557
11	0xbbc8b361	-0.0061248993
12	0x3fa56175	1.2920367
13	0xbf93827e	-1.1524198
14	0x3ee4ed31	0.44712213
15	0xbed58c74	-0.4170872
16	0xbd70f1a6	-0.058824204
17	0x3d639ee7	0.055571463
18	0x3df5e391	0.120062955
19	0xbe196773	-0.14980869
20	0x3d2943d9	0.04132447
21	0x3da0ebda	0.07857485
22	0x3d1b0521	0.03784669
23	0x3a1956c7	0.00058494176
24	0x3ba7212e	0.005100391
25	0xbe7df48d	-0.2480032
26	0x3f0e6bec	0.55633426
27	0x3d8f4efe	0.069974884
28	0x3d3ebbf8	0.04656598
29	0xbd7157dd	-0.058921684
30	0xbf4f65ca	-0.8101469
31	0xbfb468a6	-1.4094436
32	0xbe3b8942	-0.18314078
33	0xbeff3331	-0.49843743
34	0x3e3fda41	0.18735601
35	0x3ec25282	0.37953573
36	0x3d5701f2	0.05249209
37	0xbcc4ff6f	-0.024047581
38	0x3e387389	0.18012823
39	0xbd660cfa	-0.05616472
40	0x3c93cb70	0.018041342
41	0x3b853cae	0.0040660715
42	0x3ece35e2	0.40275484
43	0x3df6d4e8	0.120523274
44	0x3e34cb48	0.1765567
45	0xbc917a68	-0.017758563
46	0x3bd610a7	0.006532747
47	0xbd549365	-0.05189838
48	0x3f2f5885	0.68494445
49	0xbfb3531b	-1.4009737
50	0x3eb92f28	0.3616879
51	0xbeeedc33	-0.46652374
52	0x4060a071	3.5097926
53	0x3fb7d765	1.4362608
54	0xbe71ab33	-0.23600464
55	0xbec4e9c1	-0.3845959
56	0x3e0e8a9d	0.13920064
57	0x3d6d348c	0.05791144
58	0xbdcd5561	-0.1002605
59	0x3dafc93a	0.08583303
60	0x3e0c8923	0.13724189
61	0xbec56eb8	-0.38561034
62	0xbf12ddda	-0.5736977
63	0x3c9c57fe	0.019084927
64	0x3d9eb47b	0.07749268
65	0xbe55b707	-0.208706
66	0x3ea942a8	0.33058667
67	0xbf8c1277	-1.0943135
68	0x3e87f20a	0.2655185
69	0xbf027a93	-0.50968283
70	0xbfe804d8	-1.8126478
71	0x3dbe1a57	0.09282368
72	0x3eeb0723	0.45903882
73	0x3cf0a820	0.029377043
74	0x3ebc11c4	0.36732304
75	0x3d476a19	0.048685167
76	0xbd444c10	-0.0479241
77	0x3cb21838	0.021740064
78	0x3e054d83	0.1301785
79	0x3ed332ff	0.41249844
80	0xbe29a72b	-0.16567676
81	0xbe707536	-0.23482212
82	0xbd25d537	-0.04048654
83	0x3dc87638	0.097881734
84	0x3ea4c2f5	0.3217999
85	0x3f6c93b3	0.9241287
86	0x3ead31da	0.33827096
87	0x3eb2ec0b	0.34945711
88	0x3f240c74	0.640815
89	0xbf9060cc	-1.127954
90	0x3e78e55c	0.24306244
91	0xbfa68d1a	-1.3011811
92	0xbe059b71	-0.13047577
93	0x3e29cc47	0.16581832
94	0xbe853fcc	-0.26025236
95	0x3d23b4f5	0.039967496
96	0x3ebaca91	0.3648267
97	0xbe5a2852	-0.21304443
98	0x3dbc7085	0.09201149
99	0xbd5587f8	-0.052131623
100	0xbd4a10c7	-0.049332406
101	0x3d2e8044	0.042602792
102	0xbf7a1a4c	-0.97696376
103	0x3f4d766c	0.8025882
104	0xbe970d8f	-0.29502532
105	0x3f24c966	0.6436981
106	0xbfb6a549	-1.4269191
107	0xbf85eb88	-1.0462503
108	0x3e0d5365	0.13801344
109	0xbee651f9	-0.44984415
110	0x3e866446	0.26248378
111	0xbc6b90b8	-0.014377765
112	0x3d430f35	0.047621924
113	0xbb7a6892	-0.0038209301
114	0x3db7c5a3	0.08973243
115	0x3f34607f	0.7045974
116	0xbcac3593	-0.02102164
117	0x3dce27fa	0.10066219
118	0x3da228da	0.07917948
119	0x3cc02985	0.023457298
120	0xbef4ab8c	-0.4778713
121	0x3eb18fcf	0.3468003
122	0xbe2211e6	-0.1582714
123	0x3e56406f	0.20923017
124	0xbd82ce52	-0.06387009
125	0xbe5991dc	-0.21247047
126	0x3e6c9a83	0.23105817
127	0xbe9e2263	-0.3088561
128	0x3e08bd79	0.13353528
129	0x3ddc8248	0.10767037
130	0x3ab5c991	0.0013869276
131	0x3d3cdfbb	0.046111804
132	0x3e904ff6	0.28186005
133	0xbfe41ee2	-1.7821925
134	0x3e57752c	0.21040791
135	0x3c985da8	0.018599346
136	0xbe535e07	-0.20641337
137	0xbd8b3107	-0.067964606
138	0x3f516ca9	0.8180643
139	0xbec2055f	-0.37894723
140	0x3ee4d348	0.44692445
141	0xbe9ff744	-0.31243336
142	0xbe6b12f4	-0.22956449
143	0x3ef91d2c	0.4865507
144	0x3d69c503	0.05707265
145	0xc00270a3	-2.0381248
146	0x3e562fbb	0.20916645
147	0x3c612572	0.013741838
148	0xbe445f5a	-0.19176999
149	0xbc829153	-0.015938437
150	0xbcf86dc3	-0.030325776
151	0xbf1122e8	-0.5669389
152	0xbe653d3b	-0.22386639
153	0xbaf41a3e	-0.0018623543
154	0x3d7d8462	0.06189383
155	0xbdb2a499	-0.08722801
156	0xbe9e70e6	-0.3094551
157	0x3e82b317	0.2552726
158	0xba67c176	-0.00088407786
159	0x3ca25a71	0.019818516
160	0xbde53776	-0.11192219
161	0xbd9dc095	-0.07702748
162	0xbe9cb935	-0.30610052
163	0xbe89e3fe	-0.26931757
164	0x3c8f02ac	0.017457329
165	0x3d2b1d10	0.041775763
166	0x3c59e02e	0.0132980775
167	0x3c19733d	0.009365854
168	0xbff1d637	-1.8893498
169	0x401e087f	2.4692686
170	0x3ee83a1c	0.45356834
171	0x3ce8f0f2	0.028435204
172	0xbd206a0c	-0.039163634
173	0xbb14c0c5	-0.0022697907
174	0x4009feac	2.156169
175	0xc0163518	-2.3469906
176	0x3ccd8dfd	0.02509212
177	0xbce967e5	-0.028491924
178	0x3e34f779	0.17672528
179	0x3d2c516f	0.04206985
180	0xbc65a45b	-0.014016236
181	0xbcf07cbf	-0.029356359
182	0xbf09b45d	-0.5379084
183	0xbd297ef9	-0.041380856
184	0xbdfac2b3	-0.12244167
185	0x3d4775b1	0.048696224
186	0x3d23faf6	0.040034257
187	0xbf126582	-0.5718614
188	0xbac97710	-0.0015370566
189	0xbdac2916	-0.08406274
190	0x3e198150	0.14990735
191	0x3de2241c	0.110420436
192	0x3f5c8ffc	0.861572
193	0xbf87e148	-1.0615625
194	0x3ec8e6db	0.3923863
195	0xbeca23df	-0.39480492
196	0xbeaa6479	-0.3327978
197	0x40526a2d	3.2877305
198	0x3d5c0c73	0.05372281
199	0xbcaff3e6	-0.021478605
200	0x3e4b15e8	0.19832575
201	0xbd835b9a	-0.06413956
202	0x3dd5b379	0.10434622
203	0x3d2b0d0d	0.041760493
204	0x3dec78b5	0.115464605
205	0x3ecbb8bb	0.39789376
206	0xbd19d388	-0.037555248
207	0x3aa8e6b7	0.0012886141
208	0xbd191033	-0.037368964
209	0xbd45dada	-0.048304416
210	0x3f5b8752	0.8575336
211	0x3e00f5aa	0.12593713
212	0x3f1b5526	0.606768
213	0xbeebea70	-0.460773
214	0x409c635b	4.8871284
215	0xc08143b1	-4.039513
216	0x3f1707c3	0.5899622
217	0x3f1b322e	0.60623443
218	0xbda9cb9b	-0.08290788
219	0x3d449490	0.047993243
220	0x3e0c9e52	0.1373227
221	0x3c2d361f	0.0105719855
222	0x3efcfb84	0.4941064
223	0x3f737e8c	0.9511497
224	0xbfa23e7d	-1.267532
225	0xbd3f7b50	-0.04674846
226	0xbe13f59f	-0.14449166
227	0xbd54b864	-0.05193366
228	0xbe95a64c	-0.29228437
229	0x3e8594f9	0.2609022
230	0x3b24c17c	0.002513974
231	0x3e866a0e	0.26252788
232	0x3dd80f1e	0.105497584
233	0xbe855e7b	-0.26048645
234	0xbf6e3520	-0.9304981
235	0xc00c9704	-2.1967173
236	0x3f113278	0.56717634
237	0xbd8664ba	-0.06562181
238	0xbe42108a	-0.18951622
239	0xba6ee53c	-0.0009113138
240	0x3f4b2c3b	0.79364365
241	0x3f97b2f5	1.1851488
242	0x3e73bbb8	0.23802078
243	0x3e8baf5a	0.2728222
244	0x3e43ad95	0.19109185
245	0xbc112be1	-0.008860559
246	0xbe005d01	-0.12535478
247	0x3f122aa2	0.570963
248	0x3bc05092	0.0058689797
249	0x3cea1530	0.028574556
250	0xbe9afaf8	-0.302696
251	0xbd224914	-0.039620474
252	0xbec6af84	-0.38805783
253	0x3e373f40	0.17895222
254	0xbe87e3ac	-0.26540887
255	0x3c032956	0.008005461

layers.0.bias f4 [256]
0	0x3ead18fd	0.33808127
1	0x3e946591	0.2898374
2	0x3fa791ce	1.3091371
3	0x3e2e0e62	0.16997674
4	0x3f993a60	1.197094
5	0xbf2cd45e	-0.67511547
6	0x4014edd4	2.3270159
7	0xbf9702a5	-1.1797682
8	0xbfb6eaa8	-1.4290361
9	0x3d684c8d	0.05671363
10	0xbe234d3f	-0.15947436
11	0x3eccdab0	0.40010595
12	0xbe0495aa	-0.12947717
13	0x3f5e5016	0.8684095
14	0xbfe8588b	-1.8152021
15	0xbf375c20	-0.71624947
16	0x3e097f08	0.13427365
17	0x3f7b009f	0.9804782
18	0xc0100003	-2.2500007
19	0x3f1bb4bd	0.6082266
20	0x3ec23f52	0.37938935
21	0xbee1b4dc	-0.44083297
22	0xbfad3ce5	-1.3534209
23	0xbf37d20a	-0.7180487
24	0xbf27715e	-0.6540736
25	0x3eca3ad7	0.39498016
26	0x3f26147e	0.6487502
27	0xbfa43cff	-1.2831115
28	0x3f89cd2f	1.0765742
29	0x3f5ea940	0.86977005
30	0xbf817cb8	-1.0116186
31	0xbef33088	-0.47497964
32	0x3f8abd11	1.0838948
33	0xc0111ea1	-2.2674944
34	0x3e618234	0.22022325
35	0xbb4b93ea	-0.0031063505
36	0xbf424563	-0.75887126
37	0xbffab48d	-1.958635
38	0xbfdd8b29	-1.7308093
39	0x3fc9ca2a	1.576482
40	0x3ed29121	0.4112635
41	0xbec84c12	-0.39120537
42	0x3f32cfa7	0.698481
43	0xbf169134	-0.5881531
44	0xbd85a5ea	-0.06525786
45	0x4014e964	2.326745
46	0x3ef6757c	0.48136508
47	0xbb341644	-0.0027479092
48	0x3dafd6be	0.08585881
49	0x3f438759	0.763784
50	0xbdac0811	-0.08399976
51	0xc07ea0b9	-3.9785597
52	0x3f7fe064	0.9995177
53	0x3f4ffabe	0.8124198
54	0xbfc8d127	-1.5688828
55	0xbe92f791	-0.28704503
56	0xbf8fa5c2	-1.122246
57	0xbf497ce4	-0.7870619
58	0x400f0399	2.2345946
59	0xbf8e5b90	-1.1121693
60	0xbe606a94	-0.21915656
61	0xbea5d0a3	-0.3238574
62	0xbee222d5	-0.441672
63	0x3fbaa623	1.4581951
64	0xc0098572	-2.1487699
65	0xbf60bc0b	-0.8778693
66	0xbf781113	-0.96901053
67	0xbfe30f3d	-1.7739025
68	0xbf251e22	-0.64499104
69	0xbf014778	-0.5049968
70	0x3f2c6b3a	0.67351115
71	0xbddb9c1f	-0.10723137
72	0x4045f25b	3.0929172
73	0xbf1bd5a7	-0.6087288
74	0x3ff40eda	1.9067032
75	0xc009ac6e	-2.1511493
76	0x3f4d711b	0.8025071
77	0xbf906ac1	-1.1282579
78	0xbf8546bc	-1.0412211
79	0x3f933c7c	1.1502833
80	0xbf7083e0	-0.93951225
81	0x3dd9d04a	0.10635431
82	0x3fb48f11	1.410616
83	0xbf9aeb3c	-1.2103038
84	0x40041fec	2.0644484
85	0x3f526f20	0.82200813
86	0x3f766127	0.9624199
87	0xbe909894	-0.28241408
88	0xbe5b1f6c	-0.21398705
89	0xbfd4b5f9	-1.6618034
90	0x3faf16c3	1.3678821
91	0x3fe6391f	1.7986182
92	0x3f8113a3	1.0084118
93	0xbff7e3a6	-1.9366348
94	0x3ebaa6e6	0.36455458
95	0x3fe15bac	1.7606101
96	0xbce73cc9	-0.028227227
97	0x4015efa9	2.3427527
98	0x3fef154b	1.8678373
99	0x3f50a64e	0.8150376
100	0xbd054740	-0.032538652
101	0x4010ca69	2.2623541
102	0x3d239a10	0.039941847
103	0xbf37bd6e	-0.7177342
104	0xbf5189b4	-0.81850743
105	0xbe86dfae	-0.2634253
106	0xbe67b375	-0.22627051
107	0x3fa51696	1.2897518
108	0x3f0a317b	0.5398175
109	0xbdedf43f	-0.11618852
110	0x3f24f758	0.64439917
111	0x3d6c3804	0.05767061
112	0x3fbb94eb	1.4654821
113	0xbf0e5881	-0.55603796
114	0x3f9702c7	1.1797723
115	0x400428fa	2.065001
116	0x3e4dc40a	0.20094314
117	0x3db5e926	0.0888236
118	0x3fb150d6	1.3852794
119	0xbf11743a	-0.5681797
120	0x3f321572	0.6956397
121	0xbeb2b9a2	-0.34907252
122	0xbfe2e2b7	-1.7725438
123	0xbd9e8ecb	-0.07742079
124	0xc0415d1c	-3.021308
125	0x3effb2a4	0.4994098
126	0x3f267bc2	0.6503259
127	0xbe86ed6d	-0.26353016
128	0xbead2af2	-0.33821827
129	0x3f74ffb1	0.95702654
130	0xc00589cc	-2.0865355
131	0x3e21004c	0.1572277
132	0x3f9231b8	1.1421423
133	0xbe3a4fbd	-0.1819448
134	0x405401df	3.3126142
135	0x3fc94168	1.5723085
136	0xbea97d49	-0.33103397
137	0x40020e16	2.0321097
138	0x3f73d8be	0.952526
139	0x3faa213b	1.3291391
140	0xbde06d9e	-0.10958408
141	0xbc92df79	-0.017928826
142	0x3fbe3c56	1.4862163
143	0xbd51497b	-0.051095467
144	0xbc874ccf	-0.016516117
145	0x3efb358a	0.49064285
146	0xbf288117	-0.65821975
147	0x3ef87928	0.48529935
148	0x3e56c178	0.2097224
149	0x3fa52d07	1.2904366
150	0x3f5bd236	0.8586763
151	0x3dd5ca42	0.10438968
152	0xbe8737c4	-0.26409733
153	0x3facd880	1.350357
154	0x3f3956ab	0.7239787
155	0x3f3588ae	0.7091168
156	0x3f9168a3	1.1360058
157	0xbf88fc98	-1.0702085
158	0xbd4f4591	-0.050603453
159	0xbbe5b71c	-0.0070103537
160	0x3fcb7bd7	1.5897168
161	0xbd7244e4	-0.05914773
162	0xc00db340	-2.2140656
163	0x3fa3b99b	1.2791017
164	0x3f2d2a85	0.67643005
165	0xbff04b87	-1.8773049
166	0x3e26ec79	0.16301145
167	0x3f4467da	0.76720965
168	0xbf31baaa	-0.6942545
169	0x3d8e2821	0.06941248
170	0xbe8c9762	-0.27459246
171	0xbffeea35	-1.9915224
172	0x40218011	2.5234416
173	0xbfb1a5c5	-1.3878714
174	0xbe171587	-0.14754306
175	0xbe19f183	-0.15033536
176	0xbf7239cf	-0.9461946
177	0x3f476967	0.77895206
178	0xbeed94b2	-0.46402508
179	0x3f98e214	1.1943994
180	0x3ee8315c	0.45350158
181	0xbbc7fb6c	-0.00610297
182	0xbe7f5918	-0.2493633
183	0xbebc349b	-0.36758885
184	0x3f4abe71	0.7919684
185	0xbf6c4387	-0.9229054
186	0x3e5a0e7f	0.21294592
187	0x3f4e3ad5	0.8055852
188	0x40484e04	3.1297617
189	0x3fa188ae	1.2619836
190	0xc009d4cc	-2.153613
191	0xbe6ea906	-0.23306665
192	0x3f5c9b92	0.8617488
193	0xbe631457	-0.22175728
194	0xbf9446fa	-1.158416
195	0xbef3a5b1	-0.4758735
196	0xbff5a5e5	-1.9191252
197	0x4050a1a9	3.259867
198	0xbe8b9ea6	-0.27269477
199	0xbe4caf55	-0.19988759
200	0x3f285633	0.6575653
201	0x4048dced	3.1384842
202	0x3e5f2147	0.21790038
203	0xbf12bdb1	-0.57320696
204	0xbf04299b	-0.51625985
205	0xc04bfe08	-3.1873798
206	0x3f02efa9	0.5114694
207	0xbeb0d0f5	-0.34534422
208	0x3f81ba22	1.0134928
209	0xbd98e364	-0.07465246
210	0x3e283e09	0.16429915
211	0x3d4a8166	0.04943981
212	0xc00e53ad	-2.2238572
213	0xbf307486	-0.689278
214	0x3eac7f91	0.33691075
215	0xbe8ed74a	-0.27898628
216	0x3cbb1e8b	0.022841712
217	0xbff4f10b	-1.913606
218	0x3f6f0eec	0.93382144
219	0xbe4e1bac	-0.20127743
220	0x3f2797ba	0.6546589
221	0xbf40eca2	-0.75361073
222	0xbfcfe5aa	-1.6241963
223	0x3f686849	0.90784127
224	0xbffb0960	-1.9612236
225	0xbee5eead	-0.44908658
226	0x3e187d40	0.14891529
227	0xbfaab28d	-1.3335739
228	0xbfb2fd82	-1.3983614
229	0xbf110343	-0.566456
230	0x3ef98311	0.48732808
231	0x4058ba0f	3.386356
232	0x3f8e0ab5	1.1097018
233	0x3fdae3d3	1.7100776
234	0xbf86f38a	-1.0543072
235	0x3d171e2c	0.03689401
236	0x3f99eb57	1.2024945
237	0x3fb01b93	1.3758415
238	0xbf52f26e	-0.8240117
239	0xbf0994df	-0.53742784
240	0x3ee0a614	0.43876708
241	0xbef5dc47	-0.4801962
242	0xbf057e98	-0.5214629
243	0x3f845b82	1.0340426
244	0xbf00af74	-0.5026772
245	0x40042703	2.064881
246	0xbf7fbe2e	-0.99899566
247	0xbfb6258d	-1.423021
248	0x3e32207f	0.17395209
249	0x3f8ef302	1.116791
250	0xbf13d2eb	-0.5774371
251	0x3f008a3c	0.5021093
252	0xbfa36384	-1.2764745
253	0xbf2db255	-0.6785024
254	0x3f1124e1	0.566969
255	0xbf31dc8e	-0.69477165

layers.1.weight f4 [256, 256]
0	0x3ecfe2aa	0.40602618
1	0x3e5a275c	0.21304077
2	0x3ddf7b76	0.1091222
3	0xbf24b554	-0.64339185
4	0xbe3be9e9	-0.18350948
5	0x3db7244d	0.08942471
6	0xbe419221	-0.189034
7	0x3e89334b	0.26796946
8	0x3ebfdfa7	0.3747532
9	0xbd89a1c4	-0.067203075
10	0xbed73790	-0.42034578
11	0xbee39465	-0.44449154
12	0xbd5e9a1a	-0.05434618
13	0x3ee0c0a5	0.43896976
14	0xbf1705b6	-0.5899309
15	0x3d2fa3d2	0.04288084
16	0x3e518969	0.20462574
17	0xbd88d25e	-0.06680749
18	0xbe1d317b	-0.15350907
19	0x3e4340f5	0.19067748
20	0x3dc0ac71	0.094078906
21	0xbebaaf09	-0.36461666
22	0xbe8fcda7	-0.28086588
23	0xbf39fb65	-0.7264922
24	0x3dbb6223	0.091495775
25	0x3ebc3282	0.36757284
26	0xbbedec92	-0.0072608674
27	0xbed97a1f	-0.42475984
28	0xbe231187	-0.15924655
29	0x3e31c941	0.17361929
30	0xbe1f1809	-0.15536512
31	0xbe576e09	-0.21038069
32	0xbdcd4f8e	-0.100249395
33	0xbcbaaffb	-0.022788992
34	0x3c8d79f5	0.017270068
35	0x3eff96c6	0.49919719
36	0x3ef13a4e	0.47114795
37	0xbf0c5bea	-0.5482775
38	0xbf8e2c26	-1.1107223
39	0x3c330bdd	0.010928121
40	0xbe538407	-0.20655833
41	0xbf2b1beb	-0.66839474
42	0xbe73f625	-0.23824365
43	0x3bab276f	0.0052232067
44	0xbde64c60	-0.11245036
45	0xbd24f457	-0.040272083
46	0xbdd4a9b9	-0.103839345
47	0xbe1899e2	-0.14902452
48	0x3f0905e0	0.5352459
49	0x3dfa2091	0.12213243
50	0x3eb40c90	0.35165834
51	0xbf52eed5	-0.8239568
52	0x3ee447ff	0.4458618
53	0x3f463964	0.7743132
54	0xbe215a14	-0.15757018
55	0xbac459bb	-0.0014980355
56	0x3eed2840	0.4631977
57	0x3ec5e80e	0.38653606
58	0xbe6a3165	-0.22870405
59	0xbea0078c	-0.31255758
60	0x3e859694	0.26091444
61	0x3d1e19bc	0.03859876
62	0x3e0575a6	0.1303316
63	0xbc8962c3	-0.016770726
64	0x3e87ff7f	0.26562116
65	0x3ee2ca98	0.44295192
66	0x3ed1cb71	0.40975526
67	0x3dfac0b2	0.12243785
68	0xbe9f46ad	-0.3110861
69	0x3ea4e94d	0.32209244
70	0x3e955e3b	0.29173455
71	0x3e822e3c	0.254259
72	0x3f245973	0.6419899
73	0x3f1d7329	0.61503845
74	0x3eaf1860	0.34198284
75	0xbe172b5a	-0.14762631
76	0xbddc762c	-0.10764727
77	0x3eeade57	0.45872757
78	0xbedbfb85	-0.42965332
79	0xbe93c2fb	-0.28859696
80	0xbdc12bc0	-0.09432173
81	0xbee1ea5e	-0.4412412
82	0xbe500614	-0.20314819
83	0x3e8dc101	0.27686313
84	0xbe59fbd6	-0.21287474
85	0x3ea229ae	0.31672424
86	0xbf5ee1c1	-0.87063223
87	0x3ea0d740	0.31414223
88	0xbf4d1eb0	-0.8012495
89	0xbf2100b2	-0.62891686
90	0xbebadc19	-0.36496046
91	0x3f3da9db	0.74087304
92	0x3d09b581	0.03362036
93	0x3c8d128c	0.017220758
94	0x3ed34f59	0.41271475
95	0xbe8e3386	-0.27773684
96	0xbe345fa5	-0.1761461
97	0x3f43bc36	0.7645906
98	0x3da68f6b	0.081328236
99	0xbe0606ea	-0.13088575
100	0x3e18c24a	0.14917865
101	0xbb0d3238	-0.0021544825
102	0xbed6ee02	-0.4197846
103	0x3e878ece	0.2647614
104	0xbe73c755	-0.23806508
105	0xbe9fdeae	-0.3122458
106	0x3e6d02b3	0.23145561
107	0xbdec66f7	-0.115430765
108	0xbe5ee783	-0.21768002
109	0xbebebcbf	-0.37253377
110	0x3f77e4d2	0.9683353
111	0x3ea2866d	0.31743184
112	0x3e0b0bdd	0.13578744
113	0x3dcaa05d	0.09893868
114	0x3da22b06	0.07918362
115	0xbdb106c6	-0.0864387
116	0xbf0ef364	-0.55840135
117	0xbfa75bf9	-1.3074943
118	0x3e871339	0.26381853
119	0x3dc28b89	0.094992705
120	0x3f0aa90c	0.54164195
121	0x3e87e813	0.26544246
122	0x3d46383c	0.048393473
123	0xbf61319f	-0.8796634
124	0xbe97792e	-0.2958464
125	0xbcaf3027	-0.021385266
126	0x3e4d540d	0.20051594
127	0xbd783ce0	-0.06060493
128	0x3eb946ac	0.3618673
129	0x3d4e1463	0.05031241
130	0x3e4d045c	0.20021194
131	0x3ecb3dcc	0.39695585
132	0xbdfac71c	-0.12245008
133	0xbe8a2b12	-0.26985985
134	0x3f8b5ad3	1.0887092
135	0x3dbb9870	0.091599345
136	0x3d8e9841	0.06962634
137	0x3e29c531	0.16579129
138	0x3e6fafcc	0.23406905
139	0xbe83b3a0	-0.2572298
140	0xbe937b9f	-0.28805253
141	0xbeafa713	-0.34307155
142	0x3e557b2b	0.20847766
143	0xbdde8b36	-0.10866396
144	0x3efd373f	0.49456212
145	0x3f51c707	0.81944317
146	0xbe4afe0a	-0.1982347
147	0xbd95fba6	-0.07323389
148	0xbe6e7d5d	-0.2329001
149	0x3e502408	0.20326245
150	0x3df437bc	0.11924693
151	0x3ed6e12b	0.41968665
152	0xbd1c7e06	-0.038206123
153	0xbf4c41d2	-0.79787934
154	0xbf0e957e	-0.55696857
155	0xbf0e31f3	-0.55544966
156	0xbf37f008	-0.71850634
157	0xbeac765b	-0.33684048
158	0x3c2bc4ac	0.010483902
159	0x3eacdae1	0.3376074
160	0xbef72a75	-0.4827458
161	0x3e93758f	0.28800628
162	0xbe18702c	-0.1488654
163	0xbf2cb473	-0.67462844
164	0xbe96359e	-0.29337782
165	0xbcbee591	-0.023302825
166	0x3e51bdf6	0.2048262
167	0x3e2507e0	0.16116285
168	0xbeb7d1aa	-0.35902148
169	0xbed0c154	-0.40772498
170	0xbd26655d	-0.04062401
171	0xbf8e9e0e	-1.1141984
172	0x3ee882f9	0.45412424
173	0xbf405348	-0.7512708
174	0xbe1114fc	-0.14168161
175	0x3d9d38dd	0.076768614
176	0xbf3d94b5	-0.74055034
177	0x3f015aee	0.5052937
178	0xbe9feab7	-0.3123376
179	0x3e896dfd	0.26841727
180	0x3ea37124	0.31922257
181	0x3ea46e5d	0.3211545
182	0x3e8cebc7	0.27523634
183	0xbf0f67a8	-0.5601754
184	0xbec687dc	-0.38775527
185	0x3eae6b2e	0.34066147
186	0x3ea6b56d	0.32560292
187	0x3e051196	0.1299499
188	0x3e3c2bd4	0.18376094
189	0x3d981593	0.0742599
190	0x3eb8de46	0.3610708
191	0xbe047af3	-0.12937526
192	0xbe6193b9	-0.22029008
193	0xbe93f398	-0.28896785
194	0x3c867a8c	0.016415857
195	0x3e54cd41	0.20781423
196	0x3f0bc45f	0.54596514
197	0x3eaab903	0.33344278
198	0xbd9b607b	-0.075867616
199	0xbf04e398	-0.5190978
200	0x3e47e526	0.19521007
201	0x3e9be23d	0.30446044
202	0x3efa1cb9	0.4885004
203	0xbd462a87	-0.0483804
204	0x3d1c8096	0.038208567
205	0xbe9cff29	-0.30663422
206	0x3e3b3718	0.18282735
207	0xbe84249e	-0.25809187
208	0x3f5c63e3	0.86089915
209	0x3e4bde48	0.19909012
210	0x3d956274	0.07294169
211	0x3e5a324c	0.21308249
212	0x3efd50c2	0.49475676
213	0x3f0c51b1	0.5481215
214	0x3e8c8964	0.2744857
215	0x3e040378	0.12891948
216	0xbeb8d9cc	-0.36103666
217	0xbea98332	-0.33107907
218	0xbd96df3f	-0.073667996
219	0x3d7170c6	0.05894544
220	0xbd84a029	-0.064758606
221	0xbe43ed8a	-0.19133583
222	0x3d30c38e	0.043155245
223	0xbe9f2786	-0.3108484
224	0x3cf8b955	0.03036181
225	0x3ecc3a1e	0.3988809
226	0xbdd2762b	-0.10276445
227	0xbefeeab8	-0.4978845
228	0xbcd1841e	-0.025575694
229	0x3dca7b3a	0.09886785
230	0x3e2c8ddd	0.16850992
231	0xbeab8100	-0.33496857
232	0x3ec7335f	0.3890638
233	0xbec7b1a5	-0.3900272
234	0x3b4bb55d	0.0031083443
235	0x3dff4de7	0.124660306
236	0x3ed11332	0.40834957
237	0xbf856667	-1.0421876
238	0xbc85d087	-0.016334785
239	0x3f1c54c7	0.6106686
240	0xbd7cd728	-0.061728626
241	0x3dd17d86	0.1022902
242	0xbf04e818	-0.51916647
243	0xbea6d64a	-0.32585365
244	0x3e879dcb	0.26487574
245	0xbd0b69ad	-0.034036327
246	0xbe8d8e38	-0.27647567
247	0xbe1d9264	-0.15387875
248	0x3e86b163	0.2630721
249	0x3f1c6198	0.61086416
250	0xbf0cec59	-0.5504814
251	0xbd43d73f	-0.047812697
252	0xbee1b96d	-0.4408678
253	0xbe657802	-0.2240906
254	0x3ed39e09	0.4133151
255	0xbe346456	-0.176164

layers.1.bias f4 [256]
0	0x3eaa1270	0.33217192
1	0xbf255c3f	-0.6459388
2	0x3e682b4a	0.22672763
3	0x3f5ba5ce	0.8579987
4	0x3f02ab6e	0.5104283
5	0x3f7b80ee	0.98243606
6	0x3f713c8d	0.9423302
7	0xbcd555b8	-0.02604185
8	0xbf4410aa	-0.7658793
9	0xbfb12af5	-1.3841234
10	0xbf6e8bfe	-0.9318236
11	0x3d005291	0.03132874
12	0xbea124ba	-0.31473333
13	0xbde70f0e	-0.11282168
14	0xbcadfe7d	-0.021239514
15	0xbf9c63eb	-1.2217993
16	0xbe8bd419	-0.27310255
17	0xbc542d98	-0.0129503235
18	0x3f5af8c2	0.85535824
19	0x3e7a3553	0.24434404
20	0x3db39b17	0.087698154
21	0x3f3c7472	0.7361518
22	0xbf488ed6	-0.7834295
23	0x3f527e6f	0.8222417
24	0x3e23319c	0.15936893
25	0x3e5179cb	0.20456617
26	0xbddd9a2e	-0.10820423
27	0xbf1a6060	-0.60303307
28	0x3f0a1503	0.5393831
29	0x3ecff104	0.40613568
30	0x3eca91bc	0.39564312
31	0xbedc0b16	-0.42977208
32	0xbd29d780	-0.041465282
33	0xbdbdaad3	-0.09261098
34	0x3e209a0d	0.15683766
35	0xbf39e3a0	-0.72612953
36	0x3eafe4d6	0.34354275
37	0xbeb00d04	-0.3438493
38	0x3f1596a1	0.58432966
39	0xbf983096	-1.1889827
40	0x3e6a8a42	0.22904304
41	0x3d10fbf1	0.03539652
42	0x3fade3b2	1.3585112
43	0xbd56e920	-0.05246842
44	0x3e72fcbf	0.23729227
45	0x3e8df91c	0.27729118
46	0xbe91151f	-0.28336427
47	0x3e2a1d7e	0.16612813
48	0x3f0020c3	0.5004999
49	0xbf92c520	-1.1466408
50	0xbc6e9ca1	-0.01456371
51	0xbe84015f	-0.25782296
52	0x3f9add29	1.2098743
53	0x3eebdd17	0.46067116
54	0x3f5bb608	0.8582463
55	0xbfac9c24	-1.348515
56	0x3e05ca3c	0.13065428
57	0x3ddde9f5	0.108356394
58	0x3f95eab5	1.1712252
59	0x3f17cd40	0.5929756
60	0xbf2b7b2d	-0.66984826
61	0x3edba90b	0.42902407
62	0x3e70b7a5	0.23507555
63	0x3f4ff2f2	0.8123008
64	0xbf2d3a67	-0.6766724
65	0x3e5085d1	0.20363547
66	0x3efb7ae1	0.49117187
67	0x3eccd804	0.40008557
68	0xbed63b97	-0.41842338
69	0x3f15e050	0.585454
70	0xbee4c3be	-0.4468059
71	0xbf0f53d6	-0.559873
72	0xbdd246e7	-0.1026743
73	0x3e0681f3	0.13135509
74	0xbf8f677f	-1.120346
75	0x3e137158	0.14398706
76	0x3e4155a1	0.18880321
77	0xbe655b2e	-0.22398064
78	0x3f64bfe8	0.89355326
79	0x3f0a14d1	0.53938013
80	0x3d735af3	0.059412908
81	0xbeee9fcb	-0.46606287
82	0xbee8aefa	-0.45445997
83	0xbf8671b8	-1.0503454
84	0x3d9e93fd	0.0774307
85	0x3d2a68c7	0.04160383
86	0xbe089b26	-0.13340434
87	0x3ed2bd25	0.4115993
88	0x3f61b5c1	0.8816796
89	0x3f51d4dc	0.8196542
90	0xbe8527dc	-0.26006973
91	0xbe88fdf8	-0.26756263
92	0x3fc65038	1.5493231
93	0x3e3f6b32	0.18693236
94	0xbd6bdb70	-0.05758232
95	0x3e8c143c	0.27359188
96	0xbe1d88d2	-0.15384224
97	0xbf354f2d	-0.7082394
98	0x3ec5cae3	0.38631353
99	0xbf4d809c	-0.8027437
100	0xb9f4f567	-0.00046722146
101	0xbee8d2f1	-0.45473436
102	0x3d2ff84c	0.042961404
103	0xbd28507b	-0.041092377
104	0x3ee183f2	0.4404598
105	0xbbd7710c	-0.0065747555
106	0xbf17c014	-0.5927746
107	0x3dca5a09	0.09880454
108	0x3f1865b7	0.59530205
109	0x3f3eaf9d	0.74486715
110	0x3eae84a9	0.34085587
111	0xbebd37b2	-0.36956555
112	0x3e59245e	0.21205279
113	0xbe3c863d	-0.18410583
114	0xbdd19e6a	-0.10235293
115	0x3f706b80	0.9391403
116	0x3e821354	0.2540537
117	0xbe131541	-0.14363576
118	0x3f4c6032	0.7983428
119	0xbe4f43a6	-0.2024065
120	0xbe317e57	-0.17333351
121	0xbe5e1f79	-0.21691693
122	0xbe94322c	-0.28944528
123	0xbf0ae155	-0.5425008
124	0xbe57b36a	-0.21064535
125	0x3e3d3ac6	0.18479452
126	0x3ea5d44d	0.32388535
127	0xbec75948	-0.38935304
128	0xbfb50d16	-1.4144619
129	0xbe084f04	-0.13311392
130	0x3e662460	0.22474813
131	0xbdad00dc	-0.084474295
132	0x3dd00bce	0.101585016
133	0x3e80ff7d	0.25194922
134	0xbead0537	-0.3379304
135	0xbf594f27	-0.848864
136	0xbf3e9ae6	-0.74455106
137	0xbf1012f3	-0.56278914
138	0xbf4c3a8b	-0.7977683
139	0x3e969493	0.29410228
140	0xbb9312e6	-0.004488337
141	0x3e469fe6	0.19396934
142	0xbe487b09	-0.19578184
143	0xbdf024ac	-0.117257446
144	0x3edcc73d	0.43120757
145	0x3dcc3103	0.09970286
146	0x3e82dc89	0.2555888
147	0x3f122feb	0.57104367
148	0x3ee62045	0.44946495
149	0x3ef8a3c9	0.48562458
150	0x4013f64e	2.3119082
151	0xbeabb266	-0.33534545
152	0xbf3abc9f	-0.7294406
153	0xbf32531d	-0.6965807
154	0x3f0abec8	0.5419736
155	0x3ea0f7d9	0.31439093
156	0xbf7360fa	-0.9506985
157	0x3ef85636	0.48503274
158	0xbe86bcea	-0.26316005
159	0x3ed07ac8	0.40718675
160	0xbfaee7f9	-1.3664542
161	0x3f962f0d	1.1733109
162	0xbf63b19b	-0.8894288
163	0x3fd94627	1.6974534
164	0x3dddd237	0.10831111
165	0x3ee66300	0.44997406
166	0x3e55759a	0.20845643
167	0xbf6926b3	-0.91074675
168	0xbeb2dc9b	-0.34933934
169	0xbef984dd	-0.4873418
170	0xbf7e03fb	-0.99224824
171	0xbd50154f	-0.05080157
172	0xbf00abd8	-0.5026221
173	0xbf417fc8	-0.75585604
174	0xbe637d29	-0.22215714
175	0x3cda5259	0.026650595
176	0x3d2e2b42	0.042521723
177	0xbf2e2860	-0.6803036
178	0x3e70a349	0.23499788
179	0xbee342b4	-0.44386828
180	0x3dd4a720	0.10383439
181	0x3e5ddc01	0.21665956
182	0x3b20227c	0.0024434617
183	0x3f0a46a9	0.5401407
184	0x3e91c831	0.28473046
185	0x3fe39b2b	1.7781729
186	0xbcfa6de3	-0.030569976
187	0x3e8ffae4	0.28121102
188	0xbec72d7b	-0.38901886
189	0x3f06d3c3	0.5266687
190	0xbe93339d	-0.28750315
191	0xbed44b34	-0.41463625
192	0xbc0cf655	-0.008603652
193	0xbd9fbab3	-0.07799282
194	0xbe907873	-0.28216895
195	0xbf882b92	-1.0638297
196	0x3e0b2d78	0.13591564
197	0xbda188b6	-0.07887404
198	0xbf4ce33e	-0.80034244
199	0xbe464dd7	-0.19365631
200	0x3f86df75	1.0536944
201	0x3f0e56b4	0.5560105
202	0xbea2cee9	-0.31798485
203	0x3ed4f15b	0.4159039
204	0x3f33f44a	0.7029463
205	0x3e61a22e	0.22034523
206	0xbe63db73	-0.22251682
207	0xbebfd223	-0.3746501
208	0xbe6afd3e	-0.22948167
209	0xbf70e8e5	-0.9410537
210	0x3eaffa41	0.34370616
211	0xbe808d4e	-0.25107807
212	0xbf2ad5bb	-0.66732377
213	0x3f3860a9	0.7202249
214	0x3f3a01ba	0.72658885
215	0x3f26f177	0.65212196
216	0xbe90572e	-0.28191513
217	0x3f2f5372	0.684867
218	0x3ea1cada	0.31600076
219	0x3e92f054	0.2869898
220	0xbf25beeb	-0.6474444
221	0xbf89f0bb	-1.077659
222	0xbc858365	-0.016298005
223	0x3f9653c1	1.174431
224	0x3dd14694	0.1021854
225	0x3e6e9e07	0.2330247
226	0x3e89be14	0.2690283
227	0xbe0e3f75	-0.13891394
228	0x3e89aea9	0.26891068
229	0xbe7bdcf1	-0.24596001
230	0xbf93c8ad	-1.1545616
231	0x3d1e679b	0.038673025
232	0xbeda076b	-0.42583784
233	0xbed0bcb4	-0.4076897
234	0xbfc4bed2	-1.5370734
235	0xbd876185	-0.06610397
236	0xbeee8843	-0.46588334
237	0x3f8fe69e	1.1242254
238	0x3ed2a591	0.41141942
239	0xbf899e2e	-1.0751398
240	0xbe87f18f	-0.26551482
241	0x3f36a06f	0.7133855
242	0xbe6353ef	-0.22199987
243	0x3e1f0b8d	0.1553175
244	0x3f03e0f6	0.5151514
245	0x3e311c02	0.1729584
246	0xbe948f82	-0.29015738
247	0x3d5e36f0	0.05425161
248	0xbf191351	-0.597951
249	0x3f0a55ff	0.5403747
250	0xbf198d25	-0.59980994
251	0x3e0547fb	0.1301574
252	0x3e7cce67	0.24688111
253	0x3ef55c0e	0.47921795
254	0x3f229824	0.635134
255	0x3eaaeacc	0.3338226

readout.weight f4 [20, 256]
0	0xbe18f9b3	-0.14939003
1	0x3e80aec0	0.25133324
2	0xbe5ac012	-0.21362332
3	0xbe0cafee	-0.13738987
4	0xbe422c4e	-0.18962213
5	0xbefd8464	-0.4951507
6	0xbe9407f7	-0.28912327
7	0xbe360f97	-0.17779385
8	0x3eb285fd	0.3486785
9	0x3e5da8a5	0.21646364
10	0x3e948411	0.2900701
11	0x3e640385	0.22266968
12	0x3e602d07	0.21892177
13	0x3e6526dc	0.22378105
14	0x3eab40ea	0.33447963
15	0x3e329748	0.17440522
16	0x3d2f12e8	0.04274264
17	0xbdf6bd65	-0.12047843
18	0xbe855c7c	-0.26047122
19	0xbecb0216	-0.3965003
20	0xbea784f9	-0.32718638
21	0xbe884259	-0.2661312
22	0x3e51aa4c	0.2047512
23	0xbde80544	-0.11329129
24	0x3e3382b5	0.1753033
25	0xbdea2327	-0.11432486
26	0x3e9095de	0.2823934
27	0x3e0988e5	0.13431127
28	0xbd8fa1ff	-0.0701332
29	0xbe1b0de7	-0.15142022
30	0xbe9d0e57	-0.30675003
31	0x3e80f7e9	0.2518914
32	0xbec20a52	-0.378985
33	0x3e869f2e	0.2629332
34	0xbe11f15d	-0.14252229
35	0xbe895041	-0.2681904
36	0xbe7593eb	-0.23982207
37	0x3e506215	0.20349915
38	0xbd28b763	-0.041190516
39	0x3ef4e49d	0.47830668
40	0xbdd51f60	-0.10406375
41	0x3e52d336	0.20588383
42	0xbe6e2d83	-0.23259549
43	0x3e3d7356	0.18501028
44	0xbe7ac92d	-0.24490805
45	0x3eb4d8ba	0.353216
46	0x3d235885	0.03987934
47	0xbf0c88d2	-0.5489627
48	0x3e119874	0.14218313
49	0x3e7fcedb	0.24981253
50	0x3e3b566e	0.18294689
51	0x3e486fdf	0.19573925
52	0xbe5f6a34	-0.21817857
53	0xbe38de74	-0.18053609
54	0xbe48bf8a	-0.19604316
55	0x3e53af96	0.2067245
56	0x3dc71092	0.097199574
57	0x3eaff525	0.34366718
58	0xbe2f5d9e	-0.17125556
59	0xbdfc60aa	-0.12323125
60	0x3e59542a	0.21223512
61	0xbeb8ea8a	-0.3611644
62	0xbe4c8edf	-0.19976376
63	0x3fa6c69a	1.3029358
64	0x3e83e6ea	0.2576211
65	0x3ea3abb1	0.31966928
66	0x3da9b442	0.082863346
67	0xbe6f71ab	-0.23383205
68	0x3dbb7a57	0.09154194
69	0x3d18193f	0.03713345
70	0x3e5d1476	0.21589836
71	0xbcebf1cb	-0.02880182
72	0x3e8b48a0	0.27203846
73	0x3e8ed156	0.27894086
74	0x3e8a04ac	0.2695669
75	0x3f7966e4	0.97422624
76	0xbe7e6bec	-0.24845856
77	0xbdbc11c4	-0.09183076
78	0xbe5ba68c	-0.21450251
79	0xbeb33b48	-0.35006166
80	0x3e8f5d9d	0.2800111
81	0x3e887aaf	0.266561
82	0x3ea5f1fb	0.3241118
83	0x3ed25c58	0.41086078
84	0xbe5bd6ce	-0.2146866
85	0x3ea5b209	0.32362393
86	0xbe96f73d	-0.29485503
87	0xbe2946b3	-0.16530876
88	0x3f8be034	1.0927796
89	0xbe42ea5d	-0.19034715
90	0xbe8aea7a	-0.27132016
91	0xbea4ba16	-0.32173222
92	0xbeb326df	-0.34990594
93	0xbe3ef08c	-0.18646449
94	0x3ef495f2	0.4777065
95	0x3db0066f	0.08594977
96	0x3e203291	0.1564429
97	0x3ead34ff	0.33829495
98	0xbee6db0a	-0.4508899
99	0xbf9b1413	-1.2115501
100	0x3e452265	0.19251402
101	0x3e8b64ab	0.2722524
102	0xbf3711c9	-0.71511513
103	0xbe8027f7	-0.2503049
104	0xbec1215d	-0.37720767
105	0x3e0ac526	0.13551769
106	0x3db8942f	0.09012639
107	0xbda622ff	-0.08112144
108	0x3e8d7f53	0.27636203
109	0xbeb7475f	-0.3579664
110	0xbe996f12	-0.29967552
111	0xbed7dd39	-0.42160967
112	0xbe2dfed6	-0.16991743
113	0x3dd4fb7c	0.10399529
114	0xbdf3b2d3	-0.118993424
115	0xbe41645e	-0.18885943
116	0x3e518a2a	0.20462862
117	0x3db2c5a2	0.08729102
118	0xbed2837b	-0.41115937
119	0x3e92ae86	0.28648776
120	0x3e320c48	0.17387497
121	0x3de2196f	0.11040007
122	0x3ed55c26	0.41671866
123	0x3e953886	0.29144686
124	0x3e2ddb55	0.169782
125	0xbe3fe723	-0.18740515
126	0xbe68ca11	-0.22733332
127	0x3e02d4ed	0.12776537
128	0xbcbc7406	-0.023004543
129	0x3e710f5d	0.23541017
130	0xbe1036a1	-0.1408334
131	0x3e84b69a	0.25920564
132	0x3e68470b	0.2268335
133	0x3e7804f2	0.24220636
134	0x3e3d7a42	0.18503669
135	0x3e7286f4	0.23684293
136	0x3e071095	0.1318992
137	0x3e80a1db	0.25123486
138	0x3ea442b7	0.3208215
139	0xbf042814	-0.51623654
140	0x3e69183a	0.22763148
141	0x3e1c9ebe	0.1529493
142	0xbe4152c8	-0.18879235
143	0x3e21adb9	0.15788926
144	0xbe916551	-0.2839761
145	0xbd1b75d5	-0.03795417
146	0xbe00620b	-0.125374
147	0x3ed63a20	0.4184122
148	0xbe4c87d0	-0.19973683
149	0xbea10a65	-0.31453243
150	0xbef8f0de	-0.48621267
151	0x3e47692b	0.19473712
152	0x3e9f9712	0.31169945
153	0x3e9ad47d	0.3024024
154	0xbee2607d	-0.4421424
155	0xbe35693a	-0.17715922
156	0x3de1988e	0.110154256
157	0x3d1986c6	0.037482046
158	0x3e20e156	0.15710959
159	0xbe180596	-0.14845881
160	0x3e33828b	0.17530267
161	0xbe4d2d19	-0.20036735
162	0x3e672bf9	0.22575368
163	0xbe997fbf	-0.29980275
164	0xbe074e49	-0.13213457
165	0xbe8d77f9	-0.27630594
166	0x3e79bde9	0.24388851
167	0x3e2ae8e9	0.1669041
168	0x3e90804f	0.28222892
169	0xbf290401	-0.66021734
170	0x3e26ca41	0.16288091
171	0x3e273802	0.16329959
172	0x3eaa067c	0.33208072
173	0x3dd82d12	0.105554715
174	0xbe63c907	-0.22244655
175	0xbe43344b	-0.19062917
176	0xbe3355a6	-0.17513141
177	0x3e451eb0	0.19249988
178	0xbd3f9c83	-0.04678012
179	0x3e77ea42	0.24210456
180	0xbf0799e6	-0.52969205
181	0xbe2c5468	-0.16829073
182	0xbdf70823	-0.12062099
183	0x3f244e1d	0.6418169
184	0xbdf79c50	-0.12090361
185	0xbf4b9d72	-0.7953712
186	0xbe900291	-0.28126958
187	0xbe5a8d17	-0.21342884
188	0x3e4776aa	0.1947886
189	0xbe589a8f	-0.2115271
190	0x3e35c221	0.17749836
191	0x3e789ea1	0.24279262
192	0x3e706cfc	0.23479074
193	0xbdd5256f	-0.104075305
194	0x3e968855	0.29400888
195	0x3eb6a950	0.3567605
196	0xbe5b20db	-0.21399252
197	0x3e107a44	0.1410914
198	0x3d2edb39	0.042689536
199	0xbe0db194	-0.13837272
200	0x3e840e18	0.25792003
201	0xbec3fecc	-0.38280332
202	0xbe91f8f3	-0.28510246
203	0xbe7243c6	-0.23658666
204	0xbe338789	-0.17532171
205	0x3e66668d	0.22500058
206	0x3ebc3af5	0.3676373
207	0x3ebd18ee	0.36933082
208	0xbe826cfa	-0.25473768
209	0x3e6613d0	0.22468495
210	0x3c1670d6	0.009182176
211	0x3f26bd84	0.6513293
212	0x3ec22dd1	0.3792558
213	0xbdcc13e1	-0.09964729
214	0xbdf297c4	-0.11845353
215	0xbdbb46d7	-0.09144371
216	0x3eaabda4	0.3334781
217	0xbe068eef	-0.13140462
218	0xbf05b41b	-0.52227944
219	0xbe5dad1e	-0.2164807
220	0x3e46824c	0.19385642
221	0x3ea00af1	0.31258348
222	0xbedfd41a	-0.43716508
223	0xbebcaf37	-0.36852428
224	0xbed8058e	-0.42191738
225	0xbe4ec443	-0.20192055
226	0xbebca87e	-0.368473
227	0x3e761765	0.24032362
228	0xbe40434d	-0.18775673
229	0x3ec1a915	0.37824312
230	0x3ea02b63	0.312831
231	0x3e4ca4fd	0.19984813
232	0xbe2be00a	-0.16784683
233	0xbe8acd54	-0.27109778
234	0x3db9135d	0.090368964
235	0x3e9f0b5a	0.31063348
236	0x3ee442ee	0.44582313
237	0xbe1f39f7	-0.15549456
238	0xbeb3b871	-0.35101655
239	0x3e838077	0.25683948
240	0x3e5927ba	0.2120656
241	0xbe980801	-0.29693606
242	0x3ebbd7cb	0.36688074
243	0xbe2da8af	-0.16958879
244	0x3ecf0be2	0.40438753
245	0x3ece57be	0.40301317
246	0x3ee8c3ca	0.45461875
247	0xbe81e894	-0.25372756
248	0x3e80b0a2	0.2513476
249	0xbe060260	-0.13086843
250	0x3e7e363b	0.24825375
251	0x3e3f9109	0.1870767
252	0x3ed08f09	0.40734127
253	0x3e803b1f	0.25045106
254	0xbe7fb067	-0.24969636
255	0xbecf89f8	-0.4053495

readout.bias f4 [20]
0	0x3d94bfc8	0.07263142
1	0xbe272f44	-0.16326624
2	0xbd1f6201	-0.038911823
3	0xbd86ba31	-0.06578482
4	0x3cf138aa	0.029445965
5	0xbf11f4ca	-0.57014143
6	0x3e4b5e3a	0.19860163
7	0xbf123f05	-0.5712741
8	0x3d5c426a	0.053774275
9	0x3eb921a9	0.36158493
10	0xbea4df69	-0.32201698
11	0xbc7027c4	-0.014657918
12	0x3d6518fb	0.055932026
13	0xbe14cba0	-0.14530802
14	0xbe450752	-0.19241074
15	0xbdb142e5	-0.08655337
16	0xbef25186	-0.47327822
17	0xbe36beb8	-0.17846191
18	0xbe8c62f3	-0.27419242
19	0xbfbe861f	-1.488468
