src/weights/more_actions_test_2_150k_30k_(256_256)_nstep_5/weights/episode_97500.pth (torch, 307528 bytes, 7 tensors)

layers.0.weight f4 [256, 18]
0	0xc002587e	-2.0366511
1	0x3ec731b6	0.38905114
2	0x3ed56ac5	0.4168302
3	0xbdad4df5	-0.08462135
4	0x3dacab8e	0.08431159
5	0xbcb51f45	-0.022109637
6	0x3f32a8f0	0.6978903
7	0x3f6a4585	0.9151233
8	0xbf5f4ed1	-0.8722964
9	0xbe1544e6	-0.14577064
10	0x3ee5b917	0.44867775
11	0xbe0d7c3b	-0.13816921
12	0x3d8a2eb4	0.06747189
13	0xbedb7509	-0.42862728
14	0x3ba20f4d	0.0049456717
15	0xbf1cbd82	-0.61226666
16	0xc083b4aa	-4.1158037
17	0x3d7e0f04	0.06202604
18	0xbe67d4f1	-0.22639824
19	0x3e651dda	0.22374669
20	0x3dccb71a	0.09995861
21	0x3c9533ce	0.018213179
22	0xbbf8faa9	-0.0075982404
23	0xbb87da69	-0.0041459096
24	0x3fc4686e	1.534437
25	0x3f6d5a59	0.92715985
26	0x3e99ad14	0.3001486
27	0xbded4f07	-0.11587339
28	0x3e544478	0.20729244
29	0x3c261a4c	0.010138106
30	0xbefaf0b2	-0.4901176
31	0xbf24e88f	-0.64417356
32	0x3e770b49	0.24125399
33	0xbe7c4663	-0.24636225
34	0x3f551c23	0.8324606
35	0x3e9c093b	0.30475792
36	0xbd952f0d	-0.07284365
37	0xbe567b4c	-0.20945472
38	0x3e0add82	0.13561061
39	0xbdc8bc54	-0.09801546
40	0x3dcf3614	0.101177365
41	0xbc593c6b	-0.013259034
42	0x3faf013d	1.3672253
43	0xbfb99aaa	-1.4500325
44	0x3fdf9e0e	1.747011
45	0x3cc4aed2	0.024009142
46	0xbf001f75	-0.50048
47	0x3d23cbe5	0.03998937
48	0xbf64cfac	-0.8937938
49	0xbea2ae87	-0.3177378
50	0x3ed7263b	0.42021355
51	0x3df6422a	0.120243385
52	0x40164e55	2.348531
53	0x3f755ecf	0.9584779
54	0x3f72aa34	0.9479096
55	0x3e3c3a5e	0.1838164
56	0x3f1125a2	0.5669805
57	0x3cdcb976	0.026943903
58	0x3e4c6759	0.19961299
59	0xbd08caf2	-0.03339667
60	0xbe9a7776	-0.30169266
61	0x40125b92	2.286839
62	0xbea6442d	-0.3247389
63	0xbdeb7b02	-0.11498071
64	0x3f037423	0.51349086
65	0x3dcb7e71	0.09936226
66	0xbb3cafd6	-0.002879133
67	0x3f38ee0f	0.7223825
68	0x3d2bf0e3	0.041977774
69	0x3e3f731b	0.18696253
70	0xba8291fe	-0.0009961722
71	0xbf80e801	-1.0070802
72	0x3edd94d5	0.43277612
73	0xbd139460	-0.036030173
74	0x3e888ed1	0.2667146
75	0xbc91049f	-0.017702399
76	0x3d1e25cb	0.03861026
77	0x3c8fb94e	0.017544415
78	0xbdd0c41f	-0.10193657
79	0xc04f1961	-3.235924
80	0xbe8a0e09	-0.26963833
81	0xbe71d206	-0.23615274
82	0xbf0ea0df	-0.5571422
83	0x3d8ab661	0.06773067
84	0x3e29669f	0.16543053
85	0x3f6cf5cd	0.9256256
86	0x3d8de85a	0.06929083
87	0x3e853ca8	0.2602284
88	0x3c9f3838	0.019435987
89	0x3de03ae6	0.10948734
90	0x4031f9b9	2.7808669
91	0xbfc428ec	-1.5324988
92	0xbd3c0514	-0.04590328
93	0xbcfa015d	-0.030518228
94	0x3c45f632	0.012082623
95	0x3c4c62c2	0.012474718
96	0x3de8c55a	0.11365767
97	0x3dbfae18	0.093593776
98	0x3ed629e8	0.41828847
99	0xbd5cf22e	-0.053941898
100	0x3e13f82e	0.14450142
101	0x3e72a427	0.23695432
102	0xc03943c1	-2.8947604
103	0x3fadf7df	1.3591269
104	0x3c491805	0.012273793
105	0x3c50be0e	0.012740625
106	0x3d9aea24	0.0756419
107	0x3e040716	0.12893328
108	0xbec4d7a1	-0.38445762
109	0x3f7b6f33	0.9821655
110	0xbecdb393	-0.40176067
111	0xbde4a2e5	-0.11163882
112	0x3e5c75c1	0.21529295
113	0xbc1f52e6	-0.009724354
114	0x3f913928	1.1345568
115	0xc0110496	-2.265905
116	0x3f3aa5fe	0.72909534
117	0xbe4a69ae	-0.19766876
118	0xbeac1965	-0.33613124
119	0xbdb1294a	-0.086504534
120	0x3ea2606d	0.31714192
121	0xbc78d65c	-0.015187826
122	0xbe03e350	-0.12879682
123	0x3edc5e10	0.43040514
124	0xbfa049d3	-1.2522529
125	0x3dbdab83	0.09261229
126	0x3ebe5c1d	0.37179652
127	0xbb1e9f6c	-0.002420391
128	0xbf232e4c	-0.6374252
129	0x3d1e3c0c	0.038631484
130	0x3d2d023e	0.042238466
131	0xbcaf4c20	-0.021398604
132	0x3e23065f	0.15920399
133	0xbf0e515a	-0.5559288
134	0xc0858608	-4.172611
135	0xbd013d88	-0.03155282
136	0x3e2a2b8c	0.16618174
137	0xbd625069	-0.055252466
138	0x3f4addeb	0.7924487
139	0xbe969a97	-0.29414818
140	0x3e26cbb7	0.16288649
141	0xbeeb3d30	-0.4594512
142	0x3eaaff0f	0.3339772
143	0x3f5006f3	0.81260604
144	0x3f06a0a9	0.525889
145	0xc038d4e5	-2.887994
146	0x3d969bdd	0.07353947
147	0x3d26e2af	0.040743526
148	0xbde0f58a	-0.10984333
149	0x38ebe5b9	0.000112484624
150	0x3e1ff992	0.15622547
151	0x400d0cc5	2.2039044
152	0x3f36948f	0.7132043
153	0xbd5044c2	-0.050846823
154	0x3c8196bc	0.015818946
155	0xbc9a6b83	-0.018850094
156	0xbd2ad2df	-0.04170501
157	0xbd3b8163	-0.04577769
158	0x3c379ad8	0.011206351
159	0x3caaf4ca	0.020868678
160	0x3d0c79c9	0.03429583
161	0xbe644bdc	-0.22294563
162	0x3dfc6608	0.123241484
163	0xbdb52999	-0.08845825
164	0xbd2cea6d	-0.042215753
165	0x3c879b16	0.016553443
166	0xbc831d2d	-0.016005123
167	0x3c06ce76	0.008227935
168	0xbf966111	-1.1748372
169	0x3f14ce6b	0.5812747
170	0xbe2569ca	-0.16153637
171	0xbe172e38	-0.14763725
172	0x3e225372	0.15852144
173	0x3cac1878	0.021007761
174	0x3fd85944	1.6902242
175	0x3d9ea867	0.07746964
176	0x3e1735dc	0.1476664
177	0x3cb00cbe	0.021490451
178	0xbf0f2ccc	-0.5592773
179	0x3d59ba4d	0.053156186
180	0xc0014718	-2.0199642
181	0xbdfb738f	-0.122779004
182	0x3f1eb7c0	0.6199913
183	0xbda33dc7	-0.079707675
184	0x3e1694ee	0.1470525
185	0x3e24f545	0.16109188
186	0x3f296e76	0.66184175
187	0xbff2702b	-1.8940481
188	0xbf73fa04	-0.9530337
189	0x3da564fe	0.08075903
190	0x3e939ef1	0.288322
191	0xbe78eb7b	-0.24308579
192	0x3e770e9d	0.24126668
193	0xbf2a630f	-0.665574
194	0xbbc28b7d	-0.0059370385
195	0x3c0eb8ad	0.008711022
196	0xbf0f0b09	-0.55876213
197	0x3f2b706e	0.6696843
198	0xbca3d389	-0.019998329
199	0x3e88782d	0.26654187
200	0xbdf25de3	-0.11834314
201	0xbceb47d9	-0.028720783
202	0x3d82054b	0.06348666
203	0x3d2302d2	0.03979761
204	0x3e57786d	0.21042033
205	0x3f6d68b6	0.927379
206	0xbf305259	-0.6887565
207	0x3cd6e484	0.026232012
208	0x3ea9dba4	0.33175385
209	0xbe69b8fe	-0.22824475
210	0x3fad61ed	1.354551
211	0x3e06c5e5	0.13161428
212	0x3ff8e3b5	1.9444491
213	0x3d000bfd	0.031261433
214	0x3f8d0170	1.1016064
215	0xc01beffb	-2.4365222
216	0x3d92a902	0.07161142
217	0xbd1bcec8	-0.038039
218	0xbe889ade	-0.26680654
219	0x38bceb02	9.008312e-05
220	0x3c1ab9ba	0.009443695
221	0xbbfeda53	-0.007777491
222	0x3c132055	0.0089798765
223	0xbcd69983	-0.026196247
224	0xbfe1850b	-1.7618726
225	0x3d6ded51	0.05808765
226	0x3e0c6e95	0.13714059
227	0x4101a892	8.103655
228	0x3d7861ab	0.06064002
229	0xbd529d2a	-0.051419415
230	0xbc4159ee	-0.011801226
231	0x3bcbcca2	0.0062194625
232	0xbdab763e	-0.08372162
233	0x3b11f2ce	0.0022269967
234	0xbe3afd8c	-0.18260783
235	0xbf4d9f7f	-0.80321497
236	0x3fe780d9	1.8086196
237	0x3d04fea8	0.03246942
238	0xbd86dda7	-0.065852456
239	0x3e775643	0.24154
240	0xbe847b18	-0.25875163
241	0x3efda32e	0.4953856
242	0xbf6b302c	-0.9187038
243	0xbd3c9a9f	-0.046045896
244	0x3e8ea7d2	0.27862412
245	0x3d42d26a	0.047563948
246	0x3f3f798b	0.74794835
247	0x3be6747d	0.0070329295
248	0x3da1da7d	0.079030015
249	0xbd284b31	-0.041087333
250	0xbe82be3d	-0.25535765
251	0x3f8674e6	1.0504425
252	0x3e5b8bd8	0.21440065
253	0xbe991e7e	-0.29906076
254	0x3ec58101	0.38574985
255	0xbbb83aa6	-0.005622226

layers.0.bias f4 [256]
0	0xbeb03799	-0.34417418
1	0xbe9130b6	-0.28357476
2	0x3f392330	0.72319317
3	0x3fa09cd9	1.2547866
4	0x3f6fc85e	0.9366511
5	0xbfddd03e	-1.7329175
6	0x3f81f5f3	1.0153183
7	0x3fd79ee1	1.6845361
8	0xbfa724d3	-1.3058113
9	0xbffa43c2	-1.9551928
10	0x3fbe15f4	1.485045
11	0x3ec1b8bc	0.37836254
12	0x3e3ef269	0.1864716
13	0x4030cfa5	2.7626736
14	0xbedf88e6	-0.43659133
15	0xbfd94555	-1.6974283
16	0x40170e91	2.360264
17	0xbf6de526	-0.9292778
18	0x3ead574a	0.3385566
19	0x3f302d77	0.68819374
20	0xbe8da5dd	-0.27665606
21	0xc0349c61	-2.8220446
22	0x3d647734	0.055777743
23	0x404613e6	3.0949645
24	0xbf593103	-0.8484041
25	0xbfcabfe6	-1.5839813
26	0x3cc9d043	0.02463544
27	0xbf0249de	-0.5089396
28	0x3ec20505	0.37894455
29	0xbe5a37af	-0.21310304
30	0xbf80ba4d	-1.0056854
31	0x3fbc957b	1.4733118
32	0xbfee1fdd	-1.8603474
33	0xbe9c4a9d	-0.30525675
34	0x3f2b889b	0.6700532
35	0xbe83896c	-0.25690782
36	0xbfc17519	-1.511386
37	0xc05c7179	-3.4444258
38	0xbfa75793	-1.30736
39	0x3f87cea5	1.0609938
40	0x3eb137d2	0.346129
41	0x3ffda447	1.9815758
42	0x3f964e3b	1.1742624
43	0xbfa29874	-1.2702775
44	0xbf04584e	-0.5169724
45	0xbe832b6f	-0.25619075
46	0xbecbfc4b	-0.39840922
47	0x402a53d9	2.6613677
48	0x3fcca4e0	1.5987816
49	0xbfb46a72	-1.4094985
50	0x3f2c9ec7	0.67429775
51	0xbf93c6fd	-1.1545101
52	0x3e8eb3bc	0.278715
53	0x3e603c7e	0.21898076
54	0xc016e0f0	-2.357479
55	0xbf18482a	-0.59485114
56	0x3f8ddc03	1.1082767
57	0x3f917ae0	1.1365623
58	0x3fbb531c	1.4634738
59	0x3f21b070	0.6315985
60	0x3f5d8dca	0.8654448
61	0x4059f2e2	3.4054494
62	0x3f1e93c0	0.619442
63	0x3fd6d0e1	1.6782495
64	0x3e3e0f23	0.18560462
65	0x3d178009	0.03698734
66	0x3f323fd7	0.6962866
67	0x3f0aca93	0.54215354
68	0xbe070395	-0.1318496
69	0xbf0f3221	-0.55935866
70	0x3fd61b8f	1.672716
71	0xbeea71dd	-0.45789996
72	0xbebf8104	-0.3740312
73	0xbf8aabd8	-1.0833693
74	0xbf17e650	-0.59335804
75	0x3ddd29e4	0.10799006
76	0xbf9594b5	-1.1686007
77	0x3f8c0be8	1.0941133
78	0x3ad14278	0.0015965244
79	0x3fceb5f2	1.6149275
80	0x3f3e523c	0.7434423
81	0xc03e0dca	-2.9695916
82	0xbe7069f9	-0.23477925
83	0xbeba79f7	-0.36421177
84	0x3ef72041	0.48266795
85	0x4018d3bf	2.387924
86	0x3e4eb760	0.2018714
87	0xbf14d075	-0.5813058
88	0x3fc738cb	1.5564207
89	0xbf430b68	-0.7618928
90	0x3fdd61b3	1.729544
91	0x3efb1639	0.49040392
92	0x3f0a49dd	0.54018956
93	0x3f085622	0.5325643
94	0x3f949942	1.160927
95	0xbefb3bed	-0.49069157
96	0x3d3eefbf	0.04661536
97	0xbf99356c	-1.1969428
98	0xbedc373c	-0.4301089
99	0xbe558938	-0.20853126
100	0x402995e1	2.649773
101	0x3ff40318	1.9063444
102	0x3e0f8e85	0.1401921
103	0x3f110cc2	0.5666009
104	0xbddc56a5	-0.10758714
105	0xbfa19f25	-1.2626692
106	0x3f4cfb0c	0.8007057
107	0x3f8a55bb	1.0807413
108	0xbf065114	-0.52467465
109	0x3f5f16ba	0.87144053
110	0xc05a1a05	-3.407838
111	0xbf928dd6	-1.1449535
112	0x3ff0dcb0	1.8817348
113	0x3f29a8b5	0.6627305
114	0x40032a4a	2.0494561
115	0x3f61878f	0.8809747
116	0xc02ba2c6	-2.68181
117	0x3db6ceac	0.08926138
118	0x3fb2a6f2	1.3957198
119	0xbf06e2be	-0.5268973
120	0xbcd493da	-0.025949407
121	0xbf9aa784	-1.2082372
122	0xbfd1496b	-1.635053
123	0x3f3b724c	0.7322128
124	0x3e76f1ce	0.24115679
125	0x3f6082fc	0.87699866
126	0xbe9afb65	-0.30269924
127	0x3ee148b3	0.44000778
128	0xc0335c51	-2.8025095
129	0xbf4c7da8	-0.79879236
130	0xbfb4edc1	-1.4135057
131	0x3f1c97af	0.6116895
132	0xbfe8b3dd	-1.817989
133	0xc01e3263	-2.4718254
134	0xbe96e6fd	-0.29473105
135	0x3fd13eba	1.6347268
136	0x3f998bbe	1.1995771
137	0xbf115fa7	-0.5678658
138	0x3f1d060d	0.6133736
139	0x3f0245c8	0.5088773
140	0x3ffbf1e3	1.9683193
141	0x3fe24880	1.7678375
142	0xbfcdf603	-1.6090702
143	0x3fd16ee6	1.6361969
144	0xbfb7fb9e	-1.4373662
145	0xbf021e7c	-0.50827765
146	0xbe9c692d	-0.30548993
147	0x3eddb0cf	0.43298957
148	0xbf2c6af1	-0.6735068
149	0x3fd8e7e1	1.6945764
150	0x4005dbc4	2.0915384
151	0x3ee187fb	0.44049057
152	0x3f9b5185	1.2134253
153	0xbff53161	-1.9155694
154	0x3f6f7992	0.93544877
155	0x3df920ec	0.121644825
156	0xbe2f6ddd	-0.17131753
157	0x3fcdefa6	1.608876
158	0xbedc7ce8	-0.43064046
159	0xc01385a7	-2.3050325
160	0xbde8ea89	-0.11372859
161	0x40261904	2.5952768
162	0xbfab8f26	-1.340306
163	0xc02893f4	-2.6340303
164	0x3f6f85cf	0.9356355
165	0xbfbd65ca	-1.4796689
166	0x3fd329b8	1.6497107
167	0xbfc291d1	-1.520075
168	0x3ee52387	0.44753668
169	0xbed3cbbb	-0.41366372
170	0xbecd0ebc	-0.40050304
171	0xbf5b0cf1	-0.8556662
172	0x3f9daa0e	1.2317522
173	0x3f2e675a	0.6812645
174	0x3ec3d984	0.3825189
175	0xbf956662	-1.167187
176	0xbf1dd127	-0.61647266
177	0xbfbbca6b	-1.4671148
178	0xc025b56b	-2.5891979
179	0x3fbb40d1	1.4629155
180	0x3ead479a	0.3384369
181	0xbfc82093	-1.5634941
182	0x3f832fc8	1.0248957
183	0xbf1ae439	-0.6050449
184	0xbe89cec2	-0.26915556
185	0xbf30ee10	-0.69113255
186	0xbfcbc87e	-1.592056
187	0x3e75e76c	0.24014062
188	0xbf365d31	-0.7123595
189	0xbd0d092d	-0.03443258
190	0xbfc0e6bc	-1.5070415
191	0x3f7056af	0.9388227
192	0xbf0f9b2d	-0.56096154
193	0xbe1d9d46	-0.15392026
194	0x3e891931	0.26777032
195	0x401901aa	2.3907266
196	0xbf85cb35	-1.0452639
197	0x3fbc54f1	1.4713422
198	0xbf20fc7c	-0.6288526
199	0x4029f901	2.655823
200	0x3fb46dd9	1.4096023
201	0x4008797d	2.132415
202	0xbfc1ef57	-1.5151166
203	0x3eeac036	0.4584977
204	0x3f82b670	1.0211926
205	0xbee8a9ba	-0.4544199
206	0x3febcdee	1.842222
207	0x401d2280	2.4552307
208	0x3f5dcb04	0.866379
209	0x3f97c446	1.1856773
210	0x3f7bf87b	0.98426026
211	0xc013ea33	-2.3111694
212	0xbf823f2c	-1.0175529
213	0x3f01c12c	0.5068538
214	0x40112ed1	2.2684824
215	0xc0440425	-3.062753
216	0x3da03dbd	0.07824276
217	0xbf955f83	-1.1669773
218	0x3d9a04b0	0.07520425
219	0xbf0cb31b	-0.54960793
220	0x3fc92514	1.571444
221	0x3f531e0e	0.82467735
222	0xbdd131ae	-0.10214554
223	0xbfb28b48	-1.3948755
224	0xbf220123	-0.63282984
225	0x40165c45	2.3493817
226	0xbf411c70	-0.7543402
227	0xbe5cc6e6	-0.21560249
228	0x3f7554c1	0.9583245
229	0x40366a8a	2.8502526
230	0xbfc92ed8	-1.571742
231	0x3e1eedbb	0.15520374
232	0xbfba60c1	-1.4560777
233	0x3f89c8b3	1.0764374
234	0x3fff2018	1.9931669
235	0x3dbfe33f	0.09369516
236	0xbfbca644	-1.473824
237	0x3f3a828f	0.72855467
238	0x3f6f4004	0.93457055
239	0x40238ac5	2.5553448
240	0xbf309c94	-0.6898892
241	0x3ea5acf5	0.32358518
242	0x3ed615aa	0.41813403
243	0x3fcf4d99	1.6195556
244	0xbfb8192f	-1.4382685
245	0xbfa200f4	-1.2656541
246	0xbf527a3d	-0.8221777
247	0x3f953012	1.1655295
248	0xbe8f792b	-0.2802213
249	0xbf71a3c5	-0.9439052
250	0xbea34b2c	-0.3189329
251	0x3fe71e69	1.8056155
252	0x3fe37571	1.7770215
253	0x4000a09d	2.009803
254	0x3f88e122	1.0693705
255	0xbe126bce	-0.14298937

layers.1.weight f4 [256, 256]
0	0xbe1c4d01	-0.1526375
1	0xbda70d36	-0.08156817
2	0xbed45319	-0.41469648
3	0x3f119d3a	0.56880534
4	0xbe6d4888	-0.231722
5	0x3d7ee6c2	0.062231787
6	0x3edecb70	0.43514585
7	0x3e4ee455	0.2020429
8	0xbe87191c	-0.26386344
9	0x3f26d11c	0.65162826
10	0xbf5e2e03	-0.8678896
11	0xbeaca990	-0.33723116
12	0xbe8fec41	-0.28109935
13	0x3db65235	0.089023985
14	0x3e89e298	0.2693069
15	0x3eeb8b8c	0.46004903
16	0xbf06d61d	-0.5267046
17	0xbef833e7	-0.48477098
18	0x3e05820d	0.13037892
19	0xbed9d5c9	-0.42545918
20	0x3e9f861f	0.31157014
21	0x3f24c05e	0.6435603
22	0xbe5fe183	-0.2186337
23	0xbef46c53	-0.47738895
24	0x3ee97a4a	0.45601112
25	0xbe2a3a5f	-0.1662383
26	0xbed779e3	-0.4208518
27	0xbdb56ccd	-0.08858643
28	0x3dcee819	0.10102863
29	0x3e6098fa	0.21933356
30	0xbf2f1480	-0.68390656
31	0xbe25630e	-0.16151068
32	0xbe8caa3c	-0.2747363
33	0xbaa6608f	-0.0012693572
34	0x3eca90fd	0.39563742
35	0xbedd4999	-0.43220213
36	0x3e25b621	0.16182758
37	0xbd9cee24	-0.07662609
38	0xbd60c340	-0.054873705
39	0xbfac9104	-1.3481755
40	0xbe15240c	-0.14564532
41	0xbf17daea	-0.5931841
42	0x3e1b8655	0.15187962
43	0x3e7fbaf6	0.24973664
44	0x3d525f32	0.051360317
45	0x3dd95c00	0.10613251
46	0x3e0d891e	0.13821837
47	0x3dfe5837	0.124191694
48	0x3e84bc85	0.2592508
49	0xbe141a4f	-0.14463161
50	0xbe8b6a60	-0.27229595
51	0xbe4940b8	-0.19653594
52	0xbde10c36	-0.10988657
53	0x3f49f2e4	0.78886247
54	0xbf157c98	-0.5839324
55	0xbe3ee47e	-0.1864185
56	0x3ecccd67	0.4000046
57	0xbe82092f	-0.25397632
58	0xbe8df634	-0.277269
59	0xbe093de1	-0.13402511
60	0x3e2ac71a	0.16677514
61	0xbf684dc3	-0.90743655
62	0x3d9bf026	0.07614164
63	0x3e9a9c76	0.30197495
64	0xbeea243d	-0.45730773
65	0xbebb1e50	-0.36546564
66	0x3e8ec40e	0.27883953
67	0xbd182997	-0.03714904
68	0x3e343cbc	0.17601293
69	0x3f52a6bb	0.8228566
70	0xbb0e4623	-0.0021709285
71	0xbe9f91f5	-0.31166044
72	0x3d1e340a	0.038623847
73	0x3edb18cc	0.42792356
74	0xbece72d5	-0.40321985
75	0xbf1d587a	-0.6146313
76	0x3ed7666b	0.42070326
77	0x3efd593f	0.49482152
78	0x3f3353e2	0.7004987
79	0xbed1f440	-0.4100666
80	0x3de6bc75	0.11266414
81	0x3dacaf9a	0.08431931
82	0x3e0a5513	0.13509016
83	0xbf22a93c	-0.6353948
84	0xbda8182c	-0.082077354
85	0xbed722ac	-0.4201864
86	0x3f133e19	0.5751663
87	0x3ebbd9a4	0.36689484
88	0xbe0c0caa	-0.13676706
89	0x3f01478f	0.50499815
90	0x3ec35c4c	0.38156354
91	0xbef9079b	-0.48638615
92	0x3efcecb3	0.49399337
93	0x3ebe0c58	0.37118793
94	0xbf8332be	-1.024986
95	0xbf14cea7	-0.58127826
96	0x3d92cd11	0.071680196
97	0xbf830cdd	-1.02383
98	0xbe6fdf84	-0.23425108
99	0xbe022c6e	-0.12712261
100	0x3e7c5043	0.24639992
101	0x3e93be84	0.2885629
102	0x3e789cfe	0.24278638
103	0x3f3a2dd3	0.7272617
104	0x3dc5702b	0.09640535
105	0xbf0c3709	-0.54771477
106	0xbe84c7f2	-0.25933796
107	0xbdca2138	-0.09869617
108	0xbe56c298	-0.20972669
109	0xbd95680a	-0.072952345
110	0xbcf4d9ac	-0.02988895
111	0xbf625a2b	-0.88418835
112	0x3f16ffdc	0.5898416
113	0xbf69da4d	-0.91348726
114	0x3dbe9cc9	0.09307248
115	0xbecbcec7	-0.39806196
116	0x3ea46812	0.3211065
117	0xbec6a7f4	-0.38800013
118	0x3e0f0af2	0.13969019
119	0x3f303d59	0.6884361
120	0x3eb0cc5e	0.3453092
121	0x3e50334c	0.20332068
122	0x3e0d6dd8	0.13811433
123	0xbe8c012b	-0.2734464
124	0xbe09ba7f	-0.13450049
125	0xbeb290c3	-0.3487607
126	0x3f2ef50c	0.6834266
127	0x3df84f65	0.12124518
128	0xbe3ffa6b	-0.1874787
129	0x3c764a77	0.015032402
130	0x3dbe4f52	0.09292473
131	0xbe60e046	-0.21960554
132	0xbe60373e	-0.21896073
133	0x3edd4f17	0.43224403
134	0xbf14503f	-0.57934946
135	0x3f048ad8	0.5177436
136	0xbdb9b809	-0.09068305
137	0xbf0a83bd	-0.54107267
138	0xbf09b565	-0.5379241
139	0x3e203301	0.15644456
140	0x3f084fc9	0.5324674
141	0x3ef913e9	0.48648003
142	0x3e82ba94	0.25532973
143	0xbec10e0d	-0.37706032
144	0x3f1eaaea	0.61979544
145	0x3f035cef	0.5131368
146	0xbf5ba71e	-0.85801876
147	0x3eebe4cb	0.46072993
148	0x3f510c01	0.8165894
149	0xbe8c7e9d	-0.27440348
150	0x3e9f78c7	0.31146833
151	0xbeafd047	-0.3433859
152	0xbeaf8deb	-0.34287962
153	0x3e1c05f0	0.1523664
154	0x3e41c7d3	0.18923883
155	0xbf25620d	-0.6460274
156	0x3d469ab5	0.048487384
157	0x3d6e0b7d	0.058116425
158	0xbef3b2b6	-0.47597283
159	0x3dd4e1e7	0.1039465
160	0x3e0c7172	0.13715151
161	0xbdcf2172	-0.10113801
162	0xbeebba0d	-0.46040383
163	0x3ded53ae	0.11588226
164	0x3f080723	0.5313589
165	0x3e83657e	0.2566337
166	0xbe87006f	-0.26367518
167	0xbe69f06f	-0.22845624
168	0x3ea4ee67	0.32213137
169	0x3ef9e7b3	0.48809585
170	0x3e025bb8	0.127303
171	0xbe888f34	-0.26671755
172	0xbeae3bec	-0.34030092
173	0x3f52623c	0.82181144
174	0xbf077b67	-0.5292267
175	0x3e3efe44	0.18651682
176	0x3e999388	0.2999537
177	0x3d9625b0	0.07331407
178	0xbe65fe43	-0.22460274
179	0xbdbd9f5c	-0.09258911
180	0xbe6c1830	-0.23056102
181	0x3f151c1b	0.5824601
182	0xbeeaa8d3	-0.45831928
183	0xbee6cc2c	-0.45077646
184	0x3f6cff55	0.92577106
185	0x3f0f1e5e	0.5590571
186	0xbda8a670	-0.082348704
187	0xbe27ca1d	-0.16385694
188	0xbe98f8fa	-0.29877454
189	0xbeea3f01	-0.45751193
190	0xbef30b45	-0.47469535
191	0xbf20d075	-0.6281808
192	0x3ec434c7	0.38321516
193	0xbf22ec23	-0.63641566
194	0xbd821a93	-0.06352725
195	0xbf107e62	-0.56442845
196	0xbf3685ba	-0.712978
197	0xbf12f198	-0.5739989
198	0xbe8d29a8	-0.27570844
199	0xbee8f980	-0.45502853
200	0xbdfb5eb2	-0.12273921
201	0x3e80adc1	0.25132564
202	0xbe90d161	-0.28284743
203	0x3f67c6fa	0.9053799
204	0x3f271122	0.6526052
205	0x3f7aa44b	0.9790694
206	0x3e055ec6	0.13024434
207	0x3e893e91	0.26805547
208	0x3d34e01e	0.044159047
209	0xbd0dcd7f	-0.034619804
210	0x3f5a5e35	0.853
211	0x3fa43ccc	1.2831054
212	0xbdb40fd2	-0.0879208
213	0xbfb53d06	-1.4159248
214	0x3edc4c28	0.43026853
215	0x3de8bc6d	0.11364064
216	0xbf239b80	-0.6390915
217	0xbea5ce03	-0.32383737
218	0xbd9d7bbd	-0.07689617
219	0x3f0c7cc4	0.5487788
220	0xbf296b78	-0.6617961
221	0xbc962fbf	-0.018333314
222	0xbd830bbe	-0.06398724
223	0x3f00971c	0.50230575
224	0x3e95ddb6	0.29270715
225	0xbf1ae9d3	-0.6051304
226	0x3ee98613	0.45610103
227	0xbba5d2be	-0.005060523
228	0xbda1e911	-0.07905782
229	0x3eee0707	0.46489736
230	0xbeefc70d	-0.4683155
231	0x3c8b70e0	0.017021596
232	0xbf117a83	-0.56827563
233	0x3f3338b4	0.700084
234	0xbf056c35	-0.52118236
235	0xbed8d400	-0.42349243
236	0xbe9655b7	-0.2936227
237	0xbdb3799f	-0.08763432
238	0x3dc044a7	0.093880944
239	0xbf0d00e8	-0.5507951
240	0xbf4801e8	-0.7812791
241	0x3d230945	0.039803762
242	0x3dc9439a	0.09827347
243	0xbe09d28b	-0.13459222
244	0xbeda34f6	-0.4261853
245	0x3e92ee44	0.28697407
246	0x3f13391f	0.57509035
247	0x3f2c8bdf	0.67400926
248	0x3ee70e8b	0.45128283
249	0x3d278dab	0.04090659
250	0xbcae5940	-0.021282792
251	0x3f4de5c2	0.8042871
252	0xbeb78412	-0.3584295
253	0x3e5c14b1	0.21492268
254	0xbe3af9d4	-0.18259364
255	0x3d0a1052	0.03370697

layers.1.bias f4 [256]
0	0xbf0251e5	-0.5090621
1	0xbf2ea5d5	-0.6822179
2	0xbed61b4e	-0.41817707
3	0x3e81e395	0.25368944
4	0x3f558813	0.8341076
5	0xbe8fb354	-0.28066504
6	0x3e266675	0.16250022
7	0xbfc8221f	-1.5635413
8	0x3fa564c1	1.2921373
9	0x3f2aba80	0.66690826
10	0xbf60cb51	-0.87810236
11	0x3ef52d99	0.4788635
12	0x3ec406a6	0.38286322
13	0xbbedbc65	-0.0072551244
14	0xbc1ce2b1	-0.009575532
15	0x3eb0eda5	0.34556308
16	0xbf20c2d8	-0.6279731
17	0xbe462cef	-0.19353078
18	0x3ed067bd	0.40704146
19	0xbf540889	-0.82825524
20	0xbf2618d9	-0.64881665
21	0xbf92cab3	-1.1468109
22	0x3ec8dc9a	0.39230806
23	0xbf0f1986	-0.5589832
24	0xbeef818f	-0.46778533
25	0xbe385e61	-0.18004753
26	0x3fb04fc4	1.3774343
27	0x3f21c797	0.63195175
28	0x3edc8df9	0.43077067
29	0x3f484ce6	0.7824234
30	0x3e08a449	0.1334392
31	0x3e62c222	0.22144368
32	0xbdc1ec8a	-0.09468944
33	0x3cc01108	0.023445621
34	0xbdb3910c	-0.087679
35	0x3e617744	0.22018152
36	0x3f511e6c	0.81687045
37	0x3f863985	1.0486304
38	0x3ede9f17	0.4348075
39	0xbf537617	-0.82602066
40	0x3aa97c5d	0.001293074
41	0xbe3e9715	-0.1861232
42	0x3e0da15a	0.13831082
43	0xbd87772e	-0.066145286
44	0x3f55517d	0.83327466
45	0x3f3857dc	0.7200906
46	0x3e8ba65c	0.2727536
47	0xbee00a0d	-0.43757668
48	0xbe52f1a3	-0.2059999
49	0x3ec7c1ab	0.39014944
50	0x3de1b728	0.110212624
51	0x3e1952ca	0.14972988
52	0x3e7f4a0f	0.24930595
53	0x3e143ef8	0.14477146
54	0xbf36de52	-0.71432984
55	0xbea03187	-0.31287786
56	0x3e59a9a0	0.21256113
57	0xbf3788db	-0.716932
58	0xbf322828	-0.69592524
59	0x3eccb2b7	0.399801
60	0xbeec813e	-0.46192354
61	0x3f04d7ce	0.5189179
62	0xbf210217	-0.62893814
63	0x3f7e3ecc	0.9931457
64	0x3f12e3d8	0.5737891
65	0x3e31bb49	0.173566
66	0xbeac9a98	-0.33711696
67	0x3d8879d0	0.06663859
68	0x3e2aeef7	0.1669272
69	0xbf12adc4	-0.57296395
70	0x3ead2db2	0.33823925
71	0x3f5d522e	0.8645352
72	0x3daf560e	0.085613355
73	0x3e0a2fb0	0.13494754
74	0xbee08505	-0.43851486
75	0xbef479ca	-0.47749168
76	0x3ddf1729	0.10893089
77	0xbd5c1adf	-0.053736564
78	0x3ed165df	0.40898034
79	0xbe404250	-0.18775296
80	0x3bcfccce	0.0063415533
81	0xbf417690	-0.75571537
82	0x3fd0fdda	1.6327469
83	0xbed6c711	-0.4194875
84	0xbd0b8657	-0.034063663
85	0xbdbdefa8	-0.092742264
86	0xbe15e581	-0.1463833
87	0xbe90fbea	-0.28317195
88	0x3e15901c	0.14605755
89	0xbf160634	-0.58603215
90	0xbeaed8f0	-0.34149885
91	0xbf375510	-0.7161417
92	0xbde8723f	-0.11349916
93	0xbd7f637e	-0.062350743
94	0xbda124c9	-0.07868344
95	0x3f019234	0.50613713
96	0x3f4947ee	0.7862538
97	0x3e95de37	0.292711
98	0x3e7cf7b4	0.24703866
99	0x3dec6c5b	0.11544105
100	0x3f1c9862	0.6117002
101	0xbe6819c6	-0.22666082
102	0xbf9cb4f4	-1.2242723
103	0xbd764525	-0.060124535
104	0x3e1a7671	0.15084244
105	0x3ec952a5	0.39320865
106	0x3cdd5a3c	0.027020566
107	0xbe74ff88	-0.23925602
108	0x3f0cff14	0.5507672
109	0xbeab9a76	-0.33516282
110	0x3ef1eca5	0.47250858
111	0x3ef76b05	0.48323837
112	0xbf0a0596	-0.53914773
113	0x3e4ae615	0.19814332
114	0x3e1ad10f	0.15118812
115	0xbf04d26e	-0.5188359
116	0xbc7e1f29	-0.015510359
117	0x3e6e90a4	0.23297364
118	0x3e837c0d	0.2568058
119	0x3e026c21	0.1273656
120	0xbe84188e	-0.25799984
121	0x3e83f5f8	0.25773597
122	0x3f00899c	0.50209975
123	0x3df73111	0.120699055
124	0xbc800533	-0.01562748
125	0x3e720637	0.23635183
126	0x3f468f0c	0.7756202
127	0xbe5d95ce	-0.21639177
128	0x3f2905c4	0.6602442
129	0x3f4515ea	0.76986563
130	0xbe04f2c5	-0.12983234
131	0x3d3dd981	0.046350006
132	0xbf158240	-0.5840187
133	0xbeae9b64	-0.3410293
134	0xbee25f53	-0.44213352
135	0xbe4f3d28	-0.20238173
136	0x3e822881	0.25421527
137	0x3d7a5c7b	0.061123352
138	0x3f0658b2	0.5247909
139	0x3f2e742d	0.6814602
140	0x3e9eac58	0.30990863
141	0xbf2c2157	-0.6723837
142	0x3d3abd70	0.045590818
143	0xbf17f9b1	-0.59365374
144	0x3e0dece4	0.13859898
145	0xbd4913e6	-0.049091242
146	0x3d8d4003	0.06896975
147	0x3ee87cc5	0.45407692
148	0xbe9dfbb2	-0.3085609
149	0xbd9432f7	-0.07236283
150	0xbe00fad2	-0.1259568
151	0x3dfa38d4	0.1221787
152	0x3f8f9176	1.1216266
153	0xbeaa5877	-0.33270618
154	0xbe64c9d8	-0.22342622
155	0xbc98e30f	-0.018662957
156	0x3e49229a	0.19642106
157	0xbdc1b4b3	-0.09458294
158	0xbef8e866	-0.48614806
159	0xbe8b8664	-0.2725097
160	0xbeeb2d63	-0.45933065
161	0xbec2ca35	-0.38044897
162	0xbedc2694	-0.42998183
163	0xbf15c6fe	-0.58506763
164	0x3f30788a	0.6893393
165	0xbe99c84d	-0.3003563
166	0xbef8b1be	-0.48573107
167	0x3e96512e	0.2935881
168	0x3e74547c	0.23860353
169	0xbeefbe90	-0.46825075
170	0x3e2f2b67	0.171064
171	0x3eb7bae9	0.3588479
172	0x3f3bdf0b	0.7338721
173	0xbedac121	-0.4272547
174	0x3e8e039e	0.27737135
175	0xbcbecf53	-0.02329222
176	0xbc1e8936	-0.009676268
177	0x3ec9b232	0.39393765
178	0xbe926b15	-0.28597322
179	0x3bc74fdc	0.006082518
180	0xbd347fd6	-0.044067226
181	0x3c9ecb4b	0.019384047
182	0x3ee1b62f	0.44084308
183	0x3f8532d2	1.0406134
184	0xbe5546a1	-0.20827724
185	0x3f086b90	0.5328913
186	0xbd8552c5	-0.06509928
187	0xbf1d6a80	-0.6149063
188	0xbeeb5847	-0.45965788
189	0x3f355d2d	0.708453
190	0xbe8f7b62	-0.2802382
191	0xbe643016	-0.22283968
192	0xbe94d33a	-0.29067403
193	0x3decdea4	0.11565903
194	0xbe78c97d	-0.24295612
195	0xbe5141a5	-0.20435198
196	0x3f0277ca	0.50964034
197	0x3ec72477	0.38895008
198	0xbf33cc49	-0.7023359
199	0xbf08346a	-0.5320498
200	0x3ea4addd	0.32163897
201	0x3f161418	0.5862441
202	0xbd17e079	-0.03707931
203	0xbe50cca7	-0.20390569
204	0x3eea93cc	0.45815885
205	0x3c983978	0.01858209
206	0xbe754bc1	-0.23954679
207	0xbe585879	-0.211275
208	0xbef43f05	-0.4770433
209	0x3d1d84a4	0.038456574
210	0xbec5b17d	-0.38611975
211	0x3ecfb857	0.40570328
212	0x3e25f59f	0.16206978
213	0x3e41302f	0.18866037
214	0x3de5b540	0.11216211
215	0xbecef084	-0.40417874
216	0xbf038998	-0.51381826
217	0xbe313d58	-0.17308557
218	0xbf0765bd	-0.52889615
219	0x3f1aa942	0.60414517
220	0x3e9e8a8f	0.30965087
221	0xbe683b94	-0.22678977
222	0x3eff43ca	0.49856406
223	0x3e9a0807	0.3008425
224	0xbed9aba2	-0.42513758
225	0xbe4315bc	-0.1905126
226	0xbf16f60d	-0.58969194
227	0xbe196efb	-0.14983742
228	0x3e31fca2	0.17381528
229	0x3e7cb632	0.24678877
230	0x3eaa206f	0.3322787
231	0x3db91ecc	0.09039077
232	0x3e634ef3	0.22198085
233	0xbf4d3376	-0.8015665
234	0x3ed5992c	0.41718423
235	0xbd3498f2	-0.044091173
236	0xbf320485	-0.69538146
237	0x3ca88446	0.020570885
238	0xbe09d25d	-0.13459153
239	0xbf0b812c	-0.54493976
240	0xbf08e580	-0.5347519
241	0xbf092742	-0.5357553
242	0xbe262466	-0.16224822
243	0x3f8cc94e	1.0998933
244	0xbe70c26a	-0.23511663
245	0x3e0d7135	0.13812716
246	0xbeb4a891	-0.35284856
247	0x3de57d36	0.11205523
248	0x3e1ae9b5	0.15128215
249	0x3cccddba	0.025008071
250	0xbf2901db	-0.66018456
251	0x3cef9978	0.029247984
252	0xbeb52417	-0.35379097
253	0xbf0159f6	-0.50527894
254	0xbed718a6	-0.42010993
255	0xbdd94919	-0.106096454

value_stream.weight f4 [1, 256]
0	0x3e61b0a0	0.22040033
1	0xbe494a0c	-0.19657153
2	0xbea6f5e3	-0.32609472
3	0xbea621f9	-0.32447794
4	0xbe97b0d6	-0.29627103
5	0xbe820986	-0.2539789
6	0x3e8f4735	0.27984014
7	0x3f42d7a6	0.76110303
8	0xbfa8d008	-1.3188486
9	0xbe63869e	-0.22219321
10	0x3f29c1e4	0.6631148
11	0x3f505a18	0.8138747
12	0x3e62ff17	0.22167622
13	0x3f053b30	0.5204344
14	0x3e711239	0.23542108
15	0xbe245f52	-0.16051987
16	0x3ef7693d	0.48322478
17	0xbe889042	-0.2667256
18	0x3ec8cc3a	0.39218313
19	0x3f4062d5	0.75150806
20	0x3ec34a4b	0.3814262
21	0xbf0bf5ba	-0.54671824
22	0xbed44bac	-0.41463983
23	0x3eeb67cd	0.4597763
24	0x3e7a48b6	0.244418
25	0xbe4eff47	-0.20214568
26	0xbf452022	-0.77002156
27	0x3d5ff1ae	0.054673843
28	0x3e237a6a	0.15964666
29	0x3f1c8eac	0.611552
30	0xbeda037a	-0.42580777
31	0x3f8a41dd	1.080135
32	0xbec6068e	-0.38676876
33	0x3e4354a9	0.19075264
34	0xbe90e32f	-0.28298327
35	0xbec698a0	-0.3878832
36	0xbef951ec	-0.48695314
37	0x3f4453a4	0.76690125
38	0xbf04c402	-0.51861584
39	0x3e0eb237	0.13935171
40	0xbed1f4d6	-0.41007107
41	0x3ea7def5	0.3278729
42	0xbedde4ef	-0.43338725
43	0xbe3a5714	-0.1819728
44	0xbea1e392	-0.31618935
45	0x3e489a8d	0.19590206
46	0x3ed893e8	0.42300344
47	0x3eb8bf82	0.3608361
48	0xbeab008c	-0.33398855
49	0xbf1a67ff	-0.60314935
50	0xbf30fea3	-0.69138545
51	0x3e765dea	0.24059263
52	0x3e28c691	0.16481997
53	0x3e9ac5fa	0.3022917
54	0x3d8ab846	0.067734286
55	0x3f564b2b	0.8370845
56	0xbeba5670	-0.36394072
57	0x3ea810f2	0.32825428
58	0x3e7414d1	0.23836066
59	0xbea43cd1	-0.3207765
60	0xbf493e5a	-0.78610766
61	0x3ea690ad	0.32532254
62	0x3dea28bc	0.11433551
63	0x3f7e08a2	0.9923192
64	0xbe684369	-0.22681965
65	0x3eef784e	0.46771473
66	0x3f3b1e3a	0.73093
67	0xbe8ecce6	-0.278907
68	0x3ee39383	0.4444848
69	0xbec21358	-0.37905383
70	0x3eb5e625	0.3552715
71	0x3f2ab3e0	0.6668072
72	0x3e8be375	0.27321973
73	0x3efed179	0.4976919
74	0x3f39710e	0.7243813
75	0x3e8575db	0.2606648
76	0x3ecfdbb3	0.40597305
77	0xbf1c2c86	-0.6100544
78	0xbed3bf34	-0.41356814
79	0x3e12f0f4	0.14349729
80	0x3e5d8e6a	0.21636358
81	0x3f24085d	0.6407526
82	0x3f1c6f09	0.61106926
83	0x3f1ce0b0	0.61280346
84	0xbe93964a	-0.288256
85	0x3eed140c	0.46304357
86	0x3ebfde4f	0.37474295
87	0x3ef23397	0.47304985
88	0x3f1b2f72	0.6061927
89	0xbe8493db	-0.25894055
90	0x3e301356	0.17194876
91	0x3f3442b4	0.7041428
92	0x3eefa423	0.46804914
93	0x3e9862da	0.29762918
94	0x3e4159f2	0.18881968
95	0x3f27b8bc	0.6551626
96	0x3f5a6790	0.85314274
97	0x3ede7644	0.43449605
98	0x3e16429c	0.14673847
99	0x3e8c1750	0.27361536
100	0x3e746054	0.23864871
101	0x3f679810	0.90466404
102	0x3eddef5c	0.4334668
103	0xbe32458a	-0.1740934
104	0x3ed5feea	0.41796046
105	0xbeabf13a	-0.3358248
106	0xbed94049	-0.42431858
107	0xbe7613ad	-0.24030943
108	0xbf115670	-0.5677252
109	0xbe60c247	-0.21949111
110	0xbed504d7	-0.41605255
111	0xbec50bb5	-0.38485494
112	0xbf1116e9	-0.56675583
113	0xbe22121e	-0.15827224
114	0xbf8e55a8	-1.111989
115	0xbf198c30	-0.59979534
116	0xbe6bcd9a	-0.2302765
117	0xbec34917	-0.381417
118	0xbed809cd	-0.42194977
119	0xbea27468	-0.31729436
120	0xbeccc07f	-0.39990613
121	0x3ec23585	0.37931457
122	0x3ed228b4	0.4104668
123	0x3e812ee9	0.25231102
124	0x3e70844c	0.23487967
125	0x3e5e8a8d	0.2173254
126	0x3fb4c319	1.4122039
127	0x3e503afe	0.20335004
128	0xbe2014cd	-0.15632935
129	0xbea8ff8d	-0.3300747
130	0xbe7b6722	-0.24551061
131	0x3ebdd122	0.37073618
132	0xbf219a05	-0.6312564
133	0x3e932078	0.2873571
134	0x3f0cdf3d	0.55028135
135	0xbeb8b8b0	-0.36078405
136	0xbf08fd9f	-0.53511995
137	0x3e40987c	0.18808168
138	0x3e073ada	0.13206044
139	0x3ea43bbf	0.32076833
140	0xbebef623	-0.37297162
141	0x3eab1406	0.33413714
142	0xbeb1f81a	-0.347596
143	0x3d86ad84	0.06576064
144	0x3e089852	0.13339356
145	0xbe8a61e2	-0.27027804
146	0xbf036463	-0.5132505
147	0x3ec8e716	0.39238805
148	0x3ec4a501	0.38407138
149	0x3e09e4be	0.13466164
150	0xbea48a03	-0.32136545
151	0xbe9ede46	-0.31028956
152	0xbf158fea	-0.5842272
153	0x3ecd8f76	0.40148515
154	0x3e29b876	0.16574273
155	0xbe993ef3	-0.2993084
156	0x3e7f8392	0.24952534
157	0x3e54e1ce	0.20789263
158	0x3f23386c	0.6375797
159	0x3e9f342e	0.31094497
160	0x3df58624	0.11988476
161	0xbebe1889	-0.37128094
162	0x3f33e7c8	0.70275545
163	0xbe67ad4b	-0.226247
164	0xbf0ef456	-0.5584158
165	0xbe67b98e	-0.22629377
166	0x3dcf9ba5	0.10137109
167	0x3edcb135	0.43103948
168	0x3f4ee152	0.8081256
169	0xbd910d63	-0.070826314
170	0xbe529fa2	-0.20568708
171	0x3e87b1e3	0.26502904
172	0xbe81f106	-0.253792
173	0x3ef29eda	0.4738682
174	0x3e8822d6	0.26589078
175	0xbe8c2a07	-0.27375814
176	0xbee31ae4	-0.44356453
177	0x3e7a9c53	0.24473695
178	0x3ea1e7d3	0.3162218
179	0x3ec59fef	0.38598582
180	0xbeacc1e0	-0.33741665
181	0x3e6a8433	0.22901992
182	0x3e78bc30	0.24290538
183	0x3eaad814	0.3336798
184	0xbde57643	-0.11204197
185	0xbda5e132	-0.08099593
186	0xbee58a8c	-0.44832265
187	0xbf5c8792	-0.86144364
188	0xbe88b550	-0.2670083
189	0x3e40ee8f	0.18841003
190	0xbe8cf21b	-0.27528462
191	0x3e99245c	0.29910553
192	0xbeec232d	-0.46120587
193	0x3e935f4a	0.28783637
194	0x3ef49d1b	0.47776112
195	0x3f3f1c11	0.746522
196	0xbf0495a9	-0.51790863
197	0xbe0462d1	-0.1292832
198	0x3dd35a29	0.10319931
199	0xbeb3ac29	-0.35092285
200	0x3ec79eb4	0.38988268
201	0xbea31ac7	-0.31856367
202	0xbef56d7e	-0.47935098
203	0xbf78cdf6	-0.9718927
204	0xbe350f71	-0.17681672
205	0xbf06947c	-0.5257032
206	0x3ef4cc68	0.478122
207	0x3db8dc5e	0.09026407
208	0x3e060492	0.13087681
209	0x3e519511	0.2046702
210	0x3eabbb5f	0.3354139
211	0x3e744ea9	0.23858131
212	0x3f2afab1	0.66788775
213	0xbec9a8e1	-0.39386657
214	0xbee51c0d	-0.44747964
215	0xbe8cb482	-0.27481467
216	0x3eea3b1f	0.4574823
217	0x3e846227	0.25856134
218	0x3edd0d78	0.43174338
219	0xbecad1ad	-0.39613095
220	0x3e5f235d	0.21790834
221	0xbe9671a5	-0.2938358
222	0xbe82b21c	-0.25526512
223	0xbf2f1e7e	-0.684059
224	0x3f3a2598	0.72713614
225	0x3ea24057	0.31689712
226	0x3e358497	0.1772636
227	0xbe6ec6cc	-0.23318022
228	0xbf5491f7	-0.83035225
229	0x3e977b5a	0.29586297
230	0xbdc68d9f	-0.09694981
231	0x3ed9940a	0.42495757
232	0x3e2089b8	0.15677536
233	0xbed0d49e	-0.40787214
234	0xbed90beb	-0.42391905
235	0x3de8f559	0.11374921
236	0xbf048af5	-0.5177453
237	0xbf30daf1	-0.6908408
238	0xbf19512c	-0.59889483
239	0xbe760ee0	-0.24029112
240	0x3f9f01d6	1.2422435
241	0xbe7b3277	-0.2453097
242	0x3ed9aaf3	0.42513236
243	0xbf0c8c1f	-0.5490131
244	0x3ea5e0c3	0.32398042
245	0x3e69a79f	0.22817849
246	0x3e8336b0	0.2562766
247	0x3e9ea572	0.309856
248	0x3ea0a304	0.3137437
249	0xbe8508ef	-0.25983378
250	0x3ebb95c9	0.36637715
251	0xbdf60da3	-0.1201432
252	0x3e60867c	0.21926302
253	0x3f0e2179	0.55519825
254	0xbeff2aa9	-0.49837235
255	0x3f1a5b31	0.602954

advantage_stream.weight f4 [20, 256]
0	0x3cf1cb1b	0.029515794
1	0xbbbf4436	-0.005836989
2	0x3d340858	0.04395327
3	0x3dc53ef4	0.09631148
4	0x3ce1b010	0.027549773
5	0xbe07d4b7	-0.13264738
6	0xbc84f938	-0.016232118
7	0xbd4b80e6	-0.049683474
8	0x3b435df3	0.0029810637
9	0x3ce1025b	0.027466943
10	0xbd36dd46	-0.044644617
11	0x3d8b33b7	0.06796973
12	0xbda414b0	-0.08011758
13	0x3d3c196e	0.04592269
14	0xbd21cebd	-0.0395038
15	0xbd50b465	-0.050953288
16	0xbd109f43	-0.035308134
17	0xbb6e246c	-0.0036337627
18	0xbd77e0dd	-0.06051718
19	0xbe0cfce0	-0.13768339
20	0x3c810dd7	0.01575367
21	0xbd58d448	-0.052936822
22	0xbdb2cb58	-0.08730191
23	0x3b98c743	0.0046624257
24	0xbd4d70cc	-0.0501564
25	0xbdd218f7	-0.10258668
26	0xbcd80302	-0.026368622
27	0xbd89afec	-0.067230076
28	0xbd0341bb	-0.032045107
29	0x3b372e47	0.0027951167
30	0x3cef0f85	0.029182205
31	0xbdbb5879	-0.09147734
32	0x3c3957b5	0.011312415
33	0xbc7716c3	-0.01508111
34	0xbd447c3b	-0.047970038
35	0xbcd47619	-0.02593522
36	0xba84ba04	-0.0010126238
37	0xbd9c3d6a	-0.07628901
38	0xbb59cbc4	-0.0033233026
39	0x3d2a1d9e	0.04153215
40	0x3d102449	0.035190854
41	0x3c4e73a2	0.012600811
42	0x3db9aaf9	0.090658136
43	0x3d098f7c	0.033584103
44	0x3d5a97e2	0.053367503
45	0xbbe59af3	-0.007006997
46	0xbd5c646c	-0.053806707
47	0x3abd35d3	0.0014435597
48	0x3cb6ee00	0.022330284
49	0x3d194cd8	0.0374268
50	0xbd7e5af7	-0.06209847
51	0xbdb1b658	-0.086773574
52	0x3e06d6fa	0.13167945
53	0xbb9cef86	-0.0047892956
54	0xbd59fc7b	-0.0532193
55	0xbe34f5e9	-0.17671932
56	0xbe10c77a	-0.14138594
57	0xbdbbed2c	-0.09176096
58	0xbb10ef9b	-0.0022115472
59	0xbd1742d0	-0.03692895
60	0x3c8ab9fc	0.016934387
61	0x3dbd0930	0.09230268
62	0xbbb19b0a	-0.0054200934
63	0xbe3ba4b7	-0.18324552
64	0xbd83d045	-0.06436209
65	0xbd9b306a	-0.075775936
66	0x3d8d078b	0.06886204
67	0xbc85f0f0	-0.01635024
68	0x3b0be453	0.0021345809
69	0xbdd92278	-0.106022775
70	0xbd49dd63	-0.049283396
71	0xbd7a859e	-0.061162584
72	0xb93f4a01	-0.00018242748
73	0x3be31615	0.0069301226
74	0xbc211545	-0.009831731
75	0x3bffa057	0.0078010964
76	0x3d047071	0.032333795
77	0xbde44783	-0.11146452
78	0xbdf93115	-0.12167565
79	0x3c4e18a4	0.012579117
80	0xbb46af4b	-0.0030316885
81	0xbd867e57	-0.06567066
82	0x3ce41c98	0.027845666
83	0x3d3d4245	0.046205778
84	0x3d5d7c46	0.054073595
85	0x3d826cd6	0.06368415
86	0x3d0b1f9b	0.03396569
87	0x3c9c2c65	0.019064138
88	0xbd4d1e7e	-0.050077908
89	0xbcb2447a	-0.021761168
90	0x3d32e166	0.043671988
91	0xbe4c1e57	-0.19933449
92	0xbc882361	-0.016618432
93	0x3daa9bb6	0.08330481
94	0xbda57d03	-0.08080485
95	0xbd3f14f1	-0.04665083
96	0xbdd39d83	-0.10332777
97	0xbca702ef	-0.020387141
98	0xbddba7d9	-0.10725374
99	0xbd1d08f2	-0.03833861
100	0x3d8d2fa0	0.068938494
101	0xbc5087e2	-0.0127277095
102	0x3d36b634	0.044607356
103	0xbcf703fb	-0.030153265
104	0xbe05536c	-0.13020104
105	0x3d1efdb3	0.038816165
106	0xbd117ee7	-0.035521414
107	0x3ce723ab	0.02821525
108	0xbceac7e2	-0.028659765
109	0xbdaed7a1	-0.08537222
110	0x3d2c8b11	0.04212481
111	0xbd11acdc	-0.035565242
112	0xbcdb3862	-0.026760284
113	0xbc07b019	-0.008281731
114	0xbc10d67b	-0.008840199
115	0xbd5ccd01	-0.053906444
116	0xbd1e282c	-0.03861253
117	0x3cf3d02c	0.02976235
118	0x3b9666c3	0.004589887
119	0x3d6ba5fd	0.057531346
120	0xbb50f533	-0.0031884431
121	0xbd8da480	-0.069161415
122	0x3dcfe7e0	0.101516485
123	0x3d7f1b46	0.06228187
124	0xbd84d212	-0.0648538
125	0x3cff2027	0.031143261
126	0xbda0efce	-0.07858239
127	0x3cedacbc	0.02901303
128	0xbd014787	-0.031562354
129	0xbcae3556	-0.021265667
130	0xbd1f1a64	-0.038843527
131	0x3c57a96f	0.013162955
132	0x3d4e33bf	0.050342318
133	0x3d3913f6	0.04518505
134	0xbdc09f0b	-0.09405335
135	0xbd5e2eb5	-0.054243762
136	0xbbd5ac8c	-0.0065208133
137	0xbb97057b	-0.0046088076
138	0xbe0469ec	-0.12931031
139	0xbe17b63a	-0.14815608
140	0x3df623b6	0.1201853
141	0x3d457dc0	0.048215628
142	0x3d482b01	0.048869137
143	0xbc0397e5	-0.00803182
144	0x3ce04ead	0.027381266
145	0xba754f38	-0.0009357813
146	0xbca1fc09	-0.0197735
147	0xbd7cada6	-0.06168904
148	0x3d18ba14	0.037286833
149	0xbb45cadf	-0.0030180735
150	0x3d3cc5ce	0.04608708
151	0x3be534e1	0.006994829
152	0x3e06ab76	0.13151345
153	0x3cacb86b	0.021084031
154	0x3d310d5b	0.043225627
155	0x3d787bfe	0.060665123
156	0xbd90fc87	-0.07079416
157	0x3c6d4db4	0.014483858
158	0x3ce3429f	0.027741728
159	0xbda76c5f	-0.08174967
160	0x3caa1b97	0.020765109
161	0x3cd6c293	0.026215827
162	0x3d16fdd9	0.03686318
163	0x3a65d414	0.0008767259
164	0x3d71e8e2	0.059059985
165	0xbd66ba36	-0.05632993
166	0x3cf346bf	0.02969682
167	0xbd80c6b2	-0.06287898
168	0x3c5e05db	0.013551201
169	0x3df0e2c4	0.11762002
170	0x3cb0263e	0.02150261
171	0xbca9a984	-0.020710714
172	0xbcc42b07	-0.023946298
173	0x3c72e043	0.014823976
174	0x3c83e88d	0.0161021
175	0x3c90d1db	0.017678192
176	0xbc0cecad	-0.00860135
177	0xbba4ba0d	-0.005027062
178	0x3c65d3a3	0.014027509
179	0x3d976e0d	0.073940374
180	0xbdc96dcb	-0.098353945
181	0xbd9b6798	-0.07588118
182	0x3cbe00c5	0.023193726
183	0x3caaede4	0.020865388
184	0x3c8ca9fc	0.017170899
185	0x3cf1c742	0.029513959
186	0xbb8b72cd	-0.0042556287
187	0x3da5fbd8	0.08104676
188	0xbd954243	-0.07288029
189	0x3cf81bda	0.030286718
190	0x3c05b19b	0.00816002
191	0x3d94615f	0.072451346
192	0x3da8a5f6	0.082347795
193	0x3d346e70	0.044050634
194	0x3d6b8c7c	0.057507023
195	0xbda717ee	-0.08158861
196	0xbd35fff9	-0.044433568
197	0xbd041434	-0.03224583
198	0xbc550199	-0.013000869
199	0x3d5a3103	0.053269397
200	0xbcc35372	-0.0238435
201	0xbd0bc8cd	-0.034127045
202	0xbadf4d06	-0.0017036505
203	0xbcd7f5bc	-0.026362292
204	0x3d4f2b5b	0.050578456
205	0x3dbdda1d	0.092701174
206	0xbbc31ceb	-0.005954375
207	0x3d490d23	0.049084794
208	0x3cf6d448	0.03013052
209	0x3d16ff56	0.0368646
210	0x3e08a03e	0.13342378
211	0x3bae6e56	0.0053232117
212	0x3dfd4e60	0.123684645
213	0x3d888f22	0.066679254
214	0xbda24823	-0.07923915
215	0xbd024c48	-0.03181103
216	0xbd5164be	-0.051121466
217	0x3c5e43a3	0.013565931
218	0x3c1088c5	0.008821671
219	0x3d612b98	0.054973215
220	0xbcb0b467	-0.021570398
221	0xbc1c1d13	-0.009528416
222	0xbd5fb57e	-0.054616444
223	0xb986e132	-0.00025726255
224	0x3d4839e6	0.04888334
225	0xbdf145f0	-0.11780918
226	0xbb8820e1	-0.00415431
227	0xbcc742ed	-0.024323905
228	0xbc8ecd52	-0.017431889
229	0x3d75ec91	0.06004006
230	0x3c9f910c	0.019478343
231	0x3d3e8377	0.046512093
232	0xbce16c46	-0.02751745
233	0xbd6806c1	-0.056647066
234	0xbd479175	-0.048722703
235	0x3c70b34a	0.014691183
236	0x3c6c4a1e	0.014421968
237	0x3e781a6f	0.24228834
238	0xbd770450	-0.060306847
239	0xbdc38b82	-0.095480934
240	0xbdf5f2d0	-0.120092034
241	0x3b43caf6	0.0029875613
242	0xbc654672	-0.013993846
243	0xbd92e905	-0.07173351
244	0x3cea3118	0.028587863
245	0xbd8acc15	-0.06777207
246	0x3a38784c	0.00070369686
247	0xbc35c6aa	-0.0110947285
248	0xbd0ca77f	-0.034339424
249	0x3c93138e	0.01795366
250	0xbcd0a60d	-0.025469804
251	0x38892afe	6.540677e-05
252	0x3d3c32ec	0.045947
253	0xbd191446	-0.03737285
254	0x3c6f3aff	0.014601468
255	0xbd10b9a5	-0.035333294

advantage_stream.bias f4 [20]
0	0x3db32f39	0.087492414
1	0xbe6fe2eb	-0.23426406
2	0x3e04b40c	0.12959307
3	0x3eb3bbe5	0.3510429
4	0x3e3cb92a	0.1843001
5	0x3e623f16	0.22094378
6	0x3e8d7d12	0.27634484
7	0x3d9b3e6f	0.07580268
8	0x3e85a10d	0.26099434
9	0x3e19c486	0.15016374
10	0x3d095d47	0.03353622
11	0xbde20eb6	-0.11037962
12	0x3c5e5231	0.013569401
13	0xbddd292b	-0.10798868
14	0xbb48afd8	-0.003062239
15	0x3e014fd3	0.12628107
16	0x3dd691ea	0.1047705
17	0x3bae4fb0	0.005319558
18	0x3e4bb383	0.19892697
19	0xbf8d9fd5	-1.1064402
