src/last_chance/Cartpole/Noisy_Dueling_Double_DQN_eps_decay/weights/episode_1200.pth (torch, 206658 bytes, 11 tensors)

layers.0.weight f4 [128, 4]
000000 c1 10 49 3e 4e 6e ce 3d 21 8d 4c be 6f 5e 10 be
       0.19635297 0.10079633 -0.19975711 -0.14098524
000010 1c 57 9b 3e cd dd 1a 3d 81 a6 f2 be f6 a1 8a be
       0.30339897 0.037809182 -0.47392657 -0.2707669
000020 08 56 79 3c c4 bc 4a 3c b2 ab dd 3e 9c 08 86 bd
       0.015218265 0.012374107 0.43295056 -0.06544611
000030 c3 16 e5 3d 3a 03 98 3d 6d 0a db 3e 86 39 d4 3c
       0.11185982 0.074224904 0.42781392 0.025906336
000040 e5 ce 83 3e ed 4d 0b be e5 ce b2 bf 9d 46 b5 bd
       0.25743786 -0.13603945 -1.3969389 -0.08851359
000050 52 77 bf bd a1 a8 a2 3d a1 d3 2e 3f 1a 17 42 3e
       -0.093489304 0.0794232 0.6829167 0.18954125
000060 6e 65 f5 3d f3 af 09 3e a9 3c 62 3e 84 2c 2e 3e
       0.11982237 0.13446026 0.22093453 0.17009169
000070 65 06 81 bd 2f 33 03 3e ed 84 66 bf 32 6c 05 bc
       -0.06300048 0.12812494 -0.9004658 -0.008143472
000080 33 1a 32 3d 33 2e 48 bd 14 b6 44 3f 14 f0 d3 3d
       0.043482017 -0.048872184 0.7684033 0.10348526
000090 d6 05 62 3e 78 64 5f 3d 7f f2 72 bf e2 32 c3 ba
       0.22072539 0.054539174 -0.9490127 -0.0014892484
0000a0 a8 0b 1c bc 18 af 55 3c 62 d3 c6 be b9 bd bb 3c
       -0.009524263 0.013042234 -0.38833147 0.022917615
0000b0 1d 19 a8 bd c8 5e 21 3e 99 1a 35 bf 35 d3 b7 3d
       -0.08207915 0.15758812 -0.7074371 0.089758314
0000c0 6d 7d c9 bd 36 d9 80 bd 5f 00 80 3e 77 9e 20 3d
       -0.09838376 -0.0629143 0.25000283 0.039213624
0000d0 9c d2 57 bd b9 d2 16 bd ab 08 10 bf ed e0 e9 bd
       -0.052691087 -0.036822055 -0.56263226 -0.11419854
0000e0 86 a4 22 bd 65 50 1e 3e 9e 73 17 3f fa 28 2d 3e
       -0.039707683 0.15460356 0.5916079 0.16910163
0000f0 77 ad c3 be 7f d6 cb bd a4 bc 80 3d 4a 0c 81 be
       -0.3821828 -0.09953021 0.0628598 -0.25204688
000100 00 2f 52 bd 6c 04 07 3e dd 21 94 bf 26 c2 b4 bb
       -0.051314354 0.1318528 -1.1572834 -0.0055163084
000110 98 41 90 3e 54 91 1c 3c 09 0b d8 be 90 68 1f be
       0.28175044 0.009556133 -0.4219592 -0.15567231
000120 58 50 73 3e 6e 23 23 be be 3e f6 3e f6 2c a4 bc
       0.23761117 -0.15931484 0.48094743 -0.02004097
000130 af d5 f0 bd d7 42 01 3d 07 e0 25 bf b4 e9 16 be
       -0.11759507 0.031557884 -0.64794964 -0.14737588
000140 0b 4a 24 3e a5 89 ae 3d 5f 07 7c 3d 39 dd fe 3c
       0.1604387 0.08522347 0.061530467 0.031111347
000150 56 9b 20 be 24 09 1a bd 7d 15 78 3f d5 79 02 3e
       -0.15684256 -0.037606373 0.9690779 0.12741788
000160 64 65 95 bd 02 bd 8b 3d b1 6e 10 bf 8c 58 95 39
       -0.07294729 0.0682316 -0.564189 0.00028485467
000170 02 b6 30 3d 18 62 06 3b 7f 25 2b 3f e3 8e 3b 3e
       0.043142326 0.0020505246 0.6685409 0.18316226
000180 78 11 1f 3d f5 8c b0 3c 53 ee 72 3e 03 01 37 bc
       0.03883502 0.021551589 0.23723726 -0.011169675
000190 8a e5 30 3e 04 3b 98 bc f3 d6 ca 3e d3 70 80 3d
       0.17275062 -0.018582828 0.39617118 0.062715195
0001a0 28 96 b1 bd 92 c8 1c be c4 a1 cb 3d 67 83 bf 3a
       -0.08671218 -0.15310887 0.09942964 0.0014611305
0001b0 09 50 42 3c bb e6 14 bd 25 f3 81 be cf 63 e6 bd
       0.011859902 -0.036352854 -0.25380817 -0.11249506
0001c0 6e 1c 4f be b0 6e 2f bd 3f 39 96 3e 5d b1 86 bc
       -0.20225689 -0.04283017 0.2934055 -0.016441995
0001d0 90 18 ef bd 44 9d 04 be 46 79 14 3e 31 1a 3a 3e
       -0.11674607 -0.12950617 0.14499387 0.18174054
0001e0 65 33 46 3c 58 0d a9 bd 98 67 78 3f b6 c3 bb 3d
       0.012097214 -0.08254498 0.9703307 0.09168188
0001f0 b0 49 81 3e bf 59 c3 bc 2e 64 95 bf 64 05 82 bd
       0.25251532 -0.023846505 -1.1671197 -0.063486844
000200 8c 5c 81 3e 03 58 f6 bd e9 a6 ab bf 35 91 aa bd
       0.2526592 -0.12028506 -1.3410312 -0.08328477
000210 71 d8 61 3e 4a a7 0b 3d 85 5d 3c bf bf 91 d9 bd
       0.22055222 0.034095086 -0.735802 -0.10623502
000220 64 78 fb 3d f5 2a 2b 3d 8b 26 40 3e f0 00 0c 3c
       0.12278822 0.041789014 0.18764703 0.008545145
000230 2e bb 7e 3d 90 31 8e 3c 6e b8 7e bf 90 e0 24 bd
       0.062190227 0.017357618 -0.9950017 -0.040253222
000240 c4 3c 9d be b6 10 85 bd bd d8 3e 3f 3f 4f 3e 3e
       -0.30710423 -0.06497328 0.74549466 0.18584917
000250 47 84 73 3d a4 c3 80 3d b3 34 08 3f d0 b1 4d 3d
       0.05945232 0.062873155 0.5320541 0.050218403
000260 2a b9 00 3e 20 f1 1d be 19 4e 75 3f 8f c2 95 bd
       0.12570634 -0.15424013 0.9582229 -0.073125
000270 6a 02 dd 3d 6c 7d e4 3d bc 52 1c be fe 10 52 bd
       0.10791476 0.11156735 -0.15265936 -0.051285736
000280 0d 64 24 be 47 0a be bc 23 24 71 3d 13 41 f3 3d
       -0.16053791 -0.02319826 0.058872353 0.11877646
000290 99 0b 5f 3b fa 08 8a bd 50 1b 08 bf 9f 8e 49 bc
       0.0034034012 -0.067399934 -0.53166676 -0.01230207
0002a0 48 25 2c 3e 58 86 55 bc 84 b2 b4 bf 3c f8 5c 3c
       0.16811097 -0.013032518 -1.4116979 0.013486918
0002b0 98 3f 02 be f5 84 8c 3b 56 14 f0 be 9b 7d 01 bc
       -0.12719572 0.0042883107 -0.46890515 -0.007903482
0002c0 53 7d 11 3d 92 fd a3 3d e2 b1 c3 3e 5a 19 3f 3d
       0.03551991 0.08007349 0.3822165 0.046655037
0002d0 b8 1d 8b 3c c5 a3 7c 3d c5 83 9c bf 43 47 ad bb
       0.016981944 0.06167962 -1.2227713 -0.005288036
0002e0 d3 ab 4d be 69 b8 06 3d e1 4e 62 3e 0a 2d 51 3e
       -0.20085077 0.03289071 0.22100402 0.20427337
0002f0 76 49 80 3e 24 50 1a be 5a 0c 04 3f c9 20 82 bd
       0.25056046 -0.15069634 0.51581347 -0.063539095
000300 47 83 34 3e a1 06 1c bd f3 32 6b bf a1 ea 78 3c
       0.17628203 -0.03809226 -0.9187462 0.015192659
000310 54 97 cb bd 3c 53 a6 3d 19 a7 f6 be c9 51 42 3d
       -0.09940973 0.081213444 -0.4817436 0.047441278
000320 64 97 28 3e d9 c5 e6 3c de 27 68 3e ea 35 03 3c
       0.16464001 0.028170513 0.22671458 0.00800846
000330 69 15 86 bd 05 8f f6 3b 9d 20 8d bf bb b6 02 be
       -0.065470524 0.0075243735 -1.1025578 -0.12765019
000340 3b 7d 17 3c 93 81 b5 bd 58 8f dd 3e 02 ec 1e bd
       0.009246166 -0.08862605 0.43273425 -0.038799293
000350 5a e2 8a 3e 78 ae 90 bd cd e3 9e be 18 3f 04 be
       0.27125818 -0.07064527 -0.31033173 -0.12914693
000360 4f 12 88 3d 40 17 20 bd ce d7 22 3f fd 7b 8a bd
       0.06644117 -0.039084673 0.6361054 -0.0676193
000370 15 e3 b1 3c d9 86 0a 3d d9 65 00 3f 4e 29 2b bd
       0.021714726 0.033820007 0.5015541 -0.041787438
000380 68 cc f2 bd d3 e9 3f bd 3b e1 8f 3f 2f 5c 40 bd
       -0.11855394 -0.04685385 1.124061 -0.046962913
000390 cc ea 46 3a 87 4f 46 3d 2c af 78 bf 95 75 bb bd
       0.0007588088 0.048415687 -0.9714229 -0.09153286
0003a0 2a 28 12 3e 43 f3 34 bd ac 27 85 bf 30 04 8a bd
       0.14273134 -0.044177305 -1.0402732 -0.0673908
0003b0 85 9c 1a 3d ae 31 ca bc 74 37 84 bf e7 a6 a4 bd
       0.037746925 -0.024681892 -1.0329423 -0.080396466
0003c0 32 44 5e bc 70 5f 09 3e cd 18 f4 3e bd b4 d3 3e
       -0.013566064 0.13415313 0.47675171 0.4134883
0003d0 39 ff 21 3e bf bd 64 3d 8f ab 25 3e 80 ea 2a 3d
       0.15820016 0.05584502 0.16178726 0.041727543
0003e0 d2 88 29 be 19 38 e6 bc 8f 34 bc be a4 9e 5a bd
       -0.16556099 -0.028102921 -0.3675885 -0.053373948
0003f0 02 e9 a8 be c9 1b 37 be aa 4b d5 3e 88 07 3c 3d
       -0.3299027 -0.17881693 0.4165929 0.04590562

layers.0.bias f4 [128]
000000 38 d5 da be e6 8f 0e bf 0b 17 ed bd fa d5 a2 be
       -0.42740798 -0.5568832 -0.11576661 -0.31803876
000010 86 18 31 be e1 6e 6f be cc ef c7 be 03 b2 1d 3e
       -0.17294511 -0.2338214 -0.39050138 0.15399937
000020 eb 49 68 be 5b 4d ba be 34 bc 87 3d 66 4d 43 bd
       -0.22684447 -0.36387143 0.06627694 -0.047681235
000030 d0 dc 8b 3e 2f 1f 84 3e ae b3 8e be 07 63 3b bf
       0.27316904 0.2580504 -0.2787146 -0.7319798
000040 2b 9f 85 bd 8e bd d9 be c7 45 99 be 54 be a8 3e
       -0.065244995 -0.4252743 -0.29936048 0.3295771
000050 84 f3 b2 be f9 39 68 be 92 f0 8c 3e e3 24 a6 be
       -0.34951413 -0.22678365 0.2752729 -0.32450017
000060 e7 1b 41 be 3c 3e 9b be 04 cc ab 3e 99 e6 83 3e
       -0.188583 -0.3032092 0.3355409 0.2576187
000070 6f ca a7 3e cb fe b5 3e bd 09 9c be 24 c5 34 3e
       0.32771632 0.35545954 -0.3047618 0.17653328
000080 60 f5 1c be 14 90 b7 be d1 3e 9a be 9c ee 68 bd
       -0.15327978 -0.3585211 -0.3012605 -0.05686818
000090 58 af 0c bf 94 0b 96 be 3c 45 0f be df 0f ac be
       -0.54955053 -0.29305708 -0.13991255 -0.3360586
0000a0 78 11 99 3e 8f 3b 17 3e 8a 56 c7 bd c5 f4 9e 3e
       0.2989614 0.14768814 -0.09733303 0.3104612
0000b0 77 27 88 be ab 62 51 3b dd 1c ad 3e 38 f7 8f be
       -0.2659261 0.003194968 0.33811083 -0.281183
0000c0 60 dd bf bd 38 ed 8e 3d 15 cf a6 be 88 c5 76 3e
       -0.09368396 0.0697884 -0.32579866 0.2409879
0000d0 54 b0 66 bc 0c ca ac be 6a 9c 63 be 57 29 5a bd
       -0.014080126 -0.337479 -0.22227636 -0.05326208
0000e0 fc 23 b6 3d be 6e 8d 3e f3 ad 9e bd 76 77 08 3e
       0.08893582 0.27623552 -0.07748022 0.1332682
0000f0 03 f8 95 3e 14 f1 aa be 8e 26 aa 3e 11 b2 68 bf
       0.2929078 -0.33387053 0.3323254 -0.9089671
000100 23 eb bc 3c b0 64 98 3e 42 90 12 be 68 a5 fe 3d
       0.02306134 0.29764318 -0.14312842 0.124338925
000110 bf cd c5 be 1a cd a5 3e b2 e5 95 3e db d5 5d 3e
       -0.38633534 0.32383043 0.29276806 0.2166361
000120 80 d9 ba 3e e9 8b 5a 3f 40 3d b2 3e fc ef 1a 3f
       0.36494064 0.85369736 0.34812355 0.6052244
000130 e3 a2 a4 3e 64 12 14 3e a6 c2 3a 3d ab 6f 99 3e
       0.32155523 0.1446014 0.045595787 0.29968008
000140 6f 1b ad be 65 b0 aa 3e e7 64 ab 3e 5e 4f 8c 3d
       -0.33809993 0.33337703 0.3347542 0.068510756
000150 a1 8b 78 3d 2a f5 a7 3e ec 1d e5 3d f0 a6 69 be
       0.060680036 0.32804233 0.11187348 -0.22817588
000160 f6 fe ab 3e ae 92 4b be 7d 5a b5 3e ee 0f 90 be
       0.33592957 -0.19880173 0.354206 -0.28137153
000170 5f b1 02 be 81 2a c4 be 8f 81 a6 3e eb 53 31 3e
       -0.12762974 -0.38313678 0.3252072 0.17317168
000180 7a b4 c2 be 94 7a 91 3e ae 5f 11 3e eb ea a3 3e
       -0.38028318 0.28413832 0.14196655 0.32015166
000190 ed 38 95 be 01 dc af 3e 02 3e b1 be 37 25 a2 be
       -0.29144993 0.34347537 -0.3461762 -0.31669018
0001a0 01 9a 87 be f4 9b a9 3e 65 78 a8 be 47 3c b4 3e
       -0.26484683 0.33126795 -0.32904354 0.35202238
0001b0 b5 b1 97 be b1 bb 38 be 03 a7 c0 be 37 7a a4 be
       -0.29627767 -0.18040349 -0.3762742 -0.32124493
0001c0 d2 ab a2 3e 91 86 60 be c8 7f 27 3e 95 b4 90 3e
       0.31771713 -0.21926333 0.16357338 0.28262773
0001d0 9d 30 f0 bb 83 e7 c3 be 3d d1 bc 3e ac a4 d0 bd
       -0.007330014 -0.38262567 0.36878386 -0.10187659
0001e0 06 28 c8 be 89 50 8c 3e 03 7a ae 3e ee bf 9f 3e
       -0.39093035 0.27405193 0.34077463 0.31201118
0001f0 48 09 b9 be c5 be 8e be ff fb b8 3e 37 c1 a2 be
       -0.36139894 -0.2787992 0.36129758 -0.31788036

layers.1.weight_mu f4 [128, 128]
000000 8a 3f 3c 3d 6c 11 12 3d a4 a2 5a 3c 69 b9 2c 3d
       0.045959033 0.035661146 0.013344441 0.04216901
000010 04 05 88 3c 77 61 bd bc ca df 17 bd 95 f9 c9 bb
       0.016603954 -0.023117764 -0.037078656 -0.0061637857
000020 f6 37 6a 3d ab 94 3e 3d 26 f0 63 bd 5e ea 03 3d
       0.057182275 0.0465285 -0.055648945 0.03220593
000030 c1 5f 3e bd da 5c 81 3d 59 1a 7a bd 70 1b b0 bc
       -0.046478037 0.06316538 -0.061060283 -0.021497458
000040 c3 00 0f 3d de 36 93 bd 83 bb a8 bc e2 b9 f8 3c
       0.034912836 -0.071881995 -0.020597225 0.030362073
000050 63 6f 0f 3d 71 78 72 3d d7 4a 8c 3c 0b f6 82 bd
       0.035018336 0.059196893 0.01712553 -0.06394585
000060 81 81 09 3d b7 25 52 3d 6f ee 67 3d d4 d9 14 bc
       0.03357077 0.0513055 0.056623872 -0.009085137
000070 ee 3c 90 bd 21 91 65 3b a2 22 e1 bd 92 37 20 bd
       -0.070428714 0.003502913 -0.10992934 -0.039115496
000080 33 be 80 bd ab 6d c6 3c 06 60 4e 3d 4a 78 4b bd
       -0.062862776 0.024222216 0.050384544 -0.049675263
000090 8a 26 36 3d e2 13 5b bd 8c b6 0b 3d 8a 8d 0c 3d
       0.044470347 -0.05348576 0.034109637 0.03431467
0000a0 dd c0 5f bd 6f 0d dc 3c 1c ed 64 bc 19 be 4a bd
       -0.054627288 0.026861874 -0.013972547 -0.049497698
0000b0 32 b9 6e 3d fc 7f 90 bc 3e d0 87 bd 09 9a 57 bd
       0.058282085 -0.017639153 -0.06631516 -0.052637134
0000c0 2a ef 71 bd 67 52 87 bd a5 b6 0a bd 25 9a 03 3c
       -0.059065975 -0.06607514 -0.03386559 0.008032356
0000d0 0b 54 4a 3d c3 6b 67 3d f1 05 92 bd 88 1c e3 3c
       0.049396556 0.056499254 -0.071300395 0.027723566
0000e0 fb 2d 56 bc 97 e5 b2 3d 4c dd 42 bc 02 93 06 3d
       -0.013072486 0.08735197 -0.011893582 0.03285504
0000f0 0f 76 8f 3d 35 88 f2 bc 33 6c 14 bd f6 ef cc 3d
       0.0700494 -0.029605964 -0.036236 0.100067064
000100 03 be b4 bc b5 0c 60 3c 63 65 f5 bb 50 80 3f 3c
       -0.02206326 0.013674905 -0.007488893 0.011688307
000110 48 ec 9d 3d e2 e2 98 bc c2 7e 65 bd 70 5a 75 3d
       0.07711083 -0.018662874 -0.05602909 0.0599007
000120 7e 84 ae 3b 37 88 23 bd 13 b9 da 3c 56 ba 49 bd
       0.005325853 -0.039924826 0.026699578 -0.04924997
000130 95 23 b6 bc cb ce 80 3d 87 75 e7 bd d8 cb 40 3b
       -0.022233764 0.06289443 -0.113017134 0.0029418375
000140 bd 8f 5c 3c 77 a0 8c 3d 1d 40 8f bd fe 25 aa 3d
       0.013462004 0.06866544 -0.069946505 0.08308028
000150 ee 4c 1a bd 27 1c bb bd b0 ba 0d 3d 82 71 b9 3d
       -0.037671022 -0.09136229 0.034601867 0.09054853
000160 19 7a 6c bd ec 17 51 bc f0 36 92 bb af cf be bd
       -0.05773363 -0.012762051 -0.0044621155 -0.09316956
000170 31 c5 94 bd 2f 24 96 bc be 57 6e bd 51 4c 96 bd
       -0.07264174 -0.0183278 -0.058189146 -0.07338775
000180 13 db ac 3c 2b 47 11 3d 18 ef c5 bd 17 0e 30 bd
       0.021100556 0.03546826 -0.09664744 -0.042982187
000190 cc 7a c1 3d 0f 63 27 3d ad 79 19 3d d7 da ef bd
       0.0944725 0.040865954 0.037469555 -0.11711662
0001a0 24 bd 7a bd 14 9e bf bd 4e 72 29 3d e2 dc f6 3d
       -0.061215535 -0.09356323 0.041368775 0.12053849
0001b0 15 b1 69 3d 01 21 07 bd 87 4a 77 bb 83 ba 83 bd
       0.057053644 -0.03299046 -0.003773363 -0.06432059
0001c0 62 dd 6b bd 5a 1f fa bc d5 46 ea 3c e3 22 af bd
       -0.057584174 -0.030532528 0.028598228 -0.08551576
0001d0 82 f7 50 bc fc af 2a bd 56 75 2e bd 05 1f 9d bd
       -0.012754323 -0.041671738 -0.04259237 -0.07671932
0001e0 37 ef 8b bd 31 fe 1f bd 1f 58 ad 3d 31 94 cd 3c
       -0.06832736 -0.039060775 0.084640734 0.025095077
0001f0 15 ae 7a 3d 05 e3 96 bd 5a cd 05 3d 7a db ea bc
       0.061201174 -0.07367519 0.03266654 -0.028669108
000200 e9 6f 07 be b2 4a 79 bd 84 9f 5f 3b 38 56 7f bd
       -0.13226284 -0.06086225 0.0034122178 -0.062338084
000210 7e cc 03 3e 45 23 df bb 66 1d 5c bd b1 bb c4 3c
       0.12870976 -0.0068096244 -0.053738974 0.02401528
000220 73 a6 2c bc eb d6 9d bd c5 9b c9 bd e8 f3 90 3c
       -0.010537731 -0.07707008 -0.09844164 0.017694429
000230 16 4b 08 bc 7a 06 1e 3d 3b 3c bf 3c 53 d2 c6 bd
       -0.008318683 0.038580395 0.02334415 -0.09708085
000240 b5 63 66 3d 0f a8 39 bd 48 d5 37 3d 49 36 52 3c
       0.05624743 -0.04532629 0.044881135 0.012830325
000250 47 ac a1 3c da b1 3c 3d 71 5d d4 3c a5 5f 9c bc
       0.019735469 0.04606805 0.025923463 -0.019088576
000260 fe 72 da 3d b1 2c 7f 3d 53 66 d1 3d c4 0e e3 bd
       0.10666464 0.06229848 0.10224595 -0.11086801
000270 cf 95 49 bd fb 40 03 3e 45 17 47 3d 2a 33 41 bd
       -0.049215134 0.12817757 0.048606176 -0.047167934
000280 aa 53 c5 3c 15 8f 25 3d ad 42 12 3e a2 11 72 3a
       0.024087746 0.040419657 0.14283247 0.0009234195
000290 7b 89 9e bd 25 4c 8a 3c 96 60 9d bd f1 6b d1 bb
       -0.07741066 0.016882012 -0.07684438 -0.0063910414
0002a0 23 3d 77 bd 0f 6a 0b be 65 80 14 3d 5d 0c 06 bd
       -0.06036104 -0.13614677 0.03625526 -0.032726634
0002b0 04 51 17 3d 90 6c 4f 3d d8 46 d5 3a e3 93 89 3d
       0.036942497 0.050640643 0.0016271723 0.0671766
0002c0 6c 0e 8a bc 3b 49 3a bd 1c d9 c3 3d ca 94 e9 3d
       -0.01685258 -0.045479994 0.09562895 0.114053324
0002d0 6b 35 6f 3c 3b 86 96 3c 50 94 a9 3d 9b da c9 3d
       0.014600138 0.018374553 0.082802415 0.09856149
0002e0 b1 c1 15 bc be 62 77 bd 62 70 a5 3d 07 e3 8a bd
       -0.009140418 -0.060396902 0.08078076 -0.06781583
0002f0 10 3d bf 3d 8e b2 a0 3d 70 d1 18 bd e8 33 c1 bd
       0.093378186 0.078465566 -0.03730911 -0.094337285
000300 d4 3f 83 bd a8 13 ff bd a0 68 2e 3d b8 94 50 bd
       -0.064086586 -0.12454921 0.042580247 -0.05092308
000310 81 0b 02 bd 6c 33 bb bc b7 b7 4e bb dc 14 9c bc
       -0.031749252 -0.022851668 -0.0031542608 -0.019052915
000320 99 a7 67 bc ec 4c 84 3b d9 13 7d bd f1 d2 05 3d
       -0.0141390795 0.00403749 -0.061786506 0.032671873
000330 64 b4 a7 bd a5 46 ad bd 4b 01 76 3d 18 5d 23 3d
       -0.08188704 -0.0846074 0.060059827 0.039883703
000340 bb 9b 70 3d d8 c4 06 bc 8a c4 d3 3c c6 fc ca 3c
       0.058742266 -0.008225642 0.025850553 0.024778735
000350 a3 69 55 bd d6 33 04 3d 68 73 84 3d 36 28 a0 3c
       -0.052102696 0.032275997 0.064673245 0.019550424
000360 b1 66 67 3b 4d b5 62 3d 56 eb 0f 3d 3b 3f ac 3d
       0.0035309012 0.055348683 0.035136543 0.08410498
000370 d7 08 10 bd 36 41 53 bd 50 80 2e 3b 21 31 d1 bc
       -0.03516468 -0.051575862 0.0026626773 -0.025536122
000380 ee 86 26 bd 28 af d7 bd 3d 14 ac bd 72 2e a3 bc
       -0.040656023 -0.10531455 -0.08402298 -0.019919608
000390 37 6c 6e bd 68 16 fa bd bc 40 8c bc 71 d5 a6 bc
       -0.05820867 -0.12211305 -0.017120712 -0.020365449
0003a0 a2 a8 be 3c c4 57 62 3b f8 3b 7c bd 60 d9 0a 3d
       0.02327377 0.0034537176 -0.06158063 0.03389871
0003b0 43 c2 15 bd 2e 79 94 bd 7d 73 97 bd 4c a3 38 3d
       -0.036562216 -0.07249676 -0.073950745 0.045077607
0003c0 bc 68 90 3d 6c 2f da bc 00 6c 80 bd ef a4 29 bd
       0.070512265 -0.02663394 -0.06270599 -0.04141706
0003d0 08 5f 00 3c a8 7c 55 bd ec 13 9b bc be cb 60 3d
       0.007835157 -0.052120835 -0.018930398 0.054881804
0003e0 1f d4 fc bd ca b4 d7 bd 77 e1 da 3d e2 24 05 bd
       -0.123451464 -0.1053253 0.10687535 -0.032505877
0003f0 bb 80 3f 3d ea e0 06 bd e7 df 0d 3d 42 64 0d 3d
       0.046753626 -0.03292934 0.034637358 0.03451944

layers.1.weight_sigma f4 [128, 128]
000000 b3 a2 23 be 76 cd 45 3d 35 09 4e bd c6 f8 7f bc
       -0.15980034 0.048291646 -0.05030175 -0.015623277
000010 38 20 39 3d 97 3a 33 3e ab ee bf bb 7a 99 8b be
       0.04519674 0.17502819 -0.005857309 -0.2726553
000020 d9 03 b0 3d 89 69 2c 3e 76 83 49 3e a4 dd 90 bc
       0.08594484 0.16837133 0.19679055 -0.017683811
000030 02 4a a4 3d ff b0 39 bd 7a ee 5d bd 1f 69 2c 3d
       0.08021928 -0.045334812 -0.054182507 0.04209244
000040 95 4c 28 3e 07 aa c5 3b 86 1e 5e 3d 63 8b bc 3d
       0.16435464 0.0060322317 0.05422833 0.092062734
000050 24 9e e3 bc cc 6a ee 3b c7 a1 2a 3e 54 e3 b6 3d
       -0.027785368 0.007275915 0.16663276 0.08930078
000060 41 de 21 be e4 6f 62 3e 13 ba 68 bd bf 3c 1e bd
       -0.1580744 0.22112995 -0.05681808 -0.03863215
000070 a0 4e 6d bc 7a 80 86 3d 5a ca 67 be 5c 0a 42 3e
       -0.014484078 0.06567474 -0.22635785 0.18949264
000080 80 40 5e bd 47 f7 83 bc 77 46 9a bd 3b e6 e7 3d
       -0.05426073 -0.016109122 -0.07532971 0.1132321
000090 11 70 3a 3e 87 cb 91 3c 9a d4 24 be 60 b9 f4 3d
       0.18206812 0.017797245 -0.16096726 0.1194942
0000a0 4b db f0 3b 40 74 f4 bd 91 d8 a4 3e 1e f1 12 be
       0.0073503605 -0.119362354 0.32196477 -0.14349791
0000b0 96 30 32 be 30 f1 1b be ba 1e 6d bd 91 a8 e8 bb
       -0.17401347 -0.15228724 -0.05789063 -0.007100173
0000c0 6b c3 3f 3d fb 28 b6 3d 0e d5 e5 3d 73 9c 8b 3d
       0.046817224 0.08894535 0.112222776 0.0681695
0000d0 d3 95 81 bc 42 b5 9b 3c e7 65 c3 3c 2d a1 6a bc
       -0.015818512 0.019007329 0.023852302 -0.014320654
0000e0 3f 65 36 3c 83 5d a5 3d 19 cc f7 3d d5 27 8a 3d
       0.011132537 0.080744766 0.120994754 0.067458786
0000f0 d6 b8 b5 bd 80 f5 20 3d 7c a2 22 bd d4 03 fb bb
       -0.08873145 0.039296627 -0.03970574 -0.0076603685
000100 4f 9b f5 3d b7 f9 5b bd 09 8e 83 bd a3 8b ba 3d
       0.119925134 -0.053704944 -0.064235754 0.09108665
000110 92 f5 9f 3d 1d 3e ef 3d 00 87 01 bc d9 86 d9 3c
       0.07810511 0.11681769 -0.007905722 0.026553558
000120 ee ba 1c 3d 2c 09 1a 3d 03 3a 82 3c c7 1f bc bd
       0.038264208 0.037606403 0.015896803 -0.091857485
000130 3c 08 b0 38 73 34 62 3d 1a 1a ba 3d 84 77 09 3c
       8.393868e-05 0.0552258 0.0908701 0.008390311
000140 5b 5d 10 be 72 73 5c 3c 4d 8b e9 3d 11 97 c3 3c
       -0.14098112 0.013455259 0.11403523 0.023875745
000150 29 97 51 bc 05 21 ec 3c 04 75 c8 3c f2 ad 5a 3c
       -0.012792387 0.028824339 0.02446986 0.013347136
000160 93 bb 59 bd 86 22 94 3d 44 e2 8c bd fa f8 3e bb
       -0.0531574 0.07233147 -0.06879094 -0.00291401
000170 d3 b8 6c 3e 89 7d 92 bd 09 f9 32 3d d4 fa 1f bd
       0.2311738 -0.0715285 0.04369453 -0.039057568
000180 65 92 96 bd 99 7c 06 be 19 08 f6 3d ad 5c 14 be
       -0.07352141 -0.13133468 0.12013263 -0.14488478
000190 f7 7d 56 bc 4a db 20 bd 7d 26 11 3e bb f1 8f bd
       -0.013091556 -0.03927163 0.14174838 -0.07028528
0001a0 b9 2c 40 bd 94 78 b6 bc 86 b2 79 3d 99 78 84 3d
       -0.04691765 -0.022274293 0.06096127 0.06468315
0001b0 6d 06 2d bc eb e3 91 3e 16 1e 38 bc 51 f7 67 3d
       -0.010560614 0.284942 -0.011237642 0.056632344
0001c0 1e d1 e3 bd c5 88 6d bb 71 1c e8 bd e4 fd df 3d
       -0.1112387 -0.003624485 -0.1133355 0.10937098
0001d0 c9 81 c0 bd 12 8b 12 be 05 dd 97 bc 69 3a 38 3e
       -0.093997546 -0.14310864 -0.018538008 0.17991032
0001e0 38 00 cf 3d 57 50 bb 3d 0e cf 8d 3d 94 66 99 bd
       0.101074636 0.09146183 0.06924258 -0.07490268
0001f0 86 64 3d 3d 46 35 1e be ea 3a ad 3d 01 1f da 3d
       0.046238445 -0.1545001 0.084585026 0.10650445
000200 c9 48 ef 3d 42 47 b1 3d a0 75 d4 3d 7d 05 29 3d
       0.116838045 0.086561695 0.10373998 0.041265
000210 d1 a5 60 bd 72 4d e6 bc 58 c7 14 be 24 50 78 3d
       -0.054845635 -0.0281131 -0.14529169 0.060623303
000220 c0 d6 38 3d 42 6c 3e bd 90 20 7d bd a7 0a 01 3d
       0.045126677 -0.04648996 -0.061798632 0.0315043
000230 51 8e 8c 3c 64 99 f9 bc dc b4 3a 3c 96 c9 08 bd
       0.017157706 -0.03046865 0.011395659 -0.033395372
000240 43 b0 04 3b 3f ea a7 bc 18 36 9c 3c 0f 52 2e 3e
       0.0020246662 -0.02049744 0.019068763 0.1702349
000250 51 a7 ad bd 66 4b 8b 3d 60 22 16 3e 4f 1e 03 bd
       -0.08479179 0.068014905 0.1466155 -0.032011326
000260 35 12 26 be e4 30 12 3d 4e 2b 0c 3b 98 0a f7 3c
       -0.16217883 0.035691157 0.0021388116 0.030156419
000270 81 9f b0 3b 41 7e d7 3b fc 00 fd 3a 5d ba f2 3d
       0.005390108 0.00657633 0.0019302662 0.11851952
000280 b8 31 ce bb 80 8e b1 3d 7f 4a ca 3d 1e 7e fb bc
       -0.006292548 0.08669758 0.0987749 -0.030699786
000290 12 b5 09 3d dd ad 01 be 70 52 03 bb 1f 0b 85 3c
       0.033619948 -0.1266398 -0.002003815 0.016240655
0002a0 0a d6 c0 3d b5 4a bd bd ca e0 4c 3e 7f 26 d1 3d
       0.09415825 -0.09242765 0.20007625 0.10212421
0002b0 59 13 25 3e b8 59 75 be 98 b0 60 3e a9 f3 61 3d
       0.16120662 -0.23960006 0.21942365 0.055164013
0002c0 63 8c 56 3e 01 64 02 be 12 d4 1b be 7c ff 41 bd
       0.20951991 -0.12733461 -0.15217617 -0.04736279
0002d0 4a 4a 6a bd 82 c1 80 3c b0 46 93 3d 3a 9e 30 3e
       -0.057199754 0.015717272 0.07191217 0.17247859
0002e0 cb 59 93 bc 73 18 f1 3c 48 54 e7 bd 18 47 87 bd
       -0.017987153 0.029430604 -0.11295372 -0.06605357
0002f0 c5 b3 7d bc 72 c5 10 3d a6 ca d9 39 f7 60 a0 bd
       -0.015484755 0.03534455 0.0004154045 -0.078309946
000300 8c a3 d8 3c d5 79 5f bd 85 a5 34 bd c4 c7 20 3c
       0.026445173 -0.054559547 -0.044103164 0.009813253
000310 26 9e b8 bc 3c e0 23 3e 4f a4 3a bd a9 41 4f be
       -0.022536349 0.16003507 -0.045566853 -0.20239891
000320 2c 01 06 bd dd 31 93 3a ba 4e 96 bd 71 f7 3a bd
       -0.03271596 0.001123007 -0.07339235 -0.045646135
000330 2f f9 21 bb 75 61 c1 bd 95 86 12 bc 07 a3 cb bb
       -0.0024715175 -0.094424166 -0.00894322 -0.0062145027
000340 e9 28 c0 3d 17 0c 7f be 37 0c 39 bd 26 4e a9 bd
       0.09382803 -0.24906956 -0.045177665 -0.08266859
000350 79 d9 9d 3d 5b e5 06 3d 6d 31 bc 3d 1a 88 46 3d
       0.07707495 0.032933574 0.09189115 0.04846964
000360 e6 75 05 3e b0 2f 52 bd 78 08 53 3d 3d 30 11 3e
       0.13033256 -0.05131501 0.05152175 0.14178558
000370 31 31 6b 3e 56 13 a9 bb 7e e2 88 bd 07 6f 69 3b
       0.22967984 -0.0051597757 -0.06683825 0.0035619156
000380 81 1e 2b 3e 13 83 13 bd 4f ed 2f 3d 19 2b 80 bd
       0.16710855 -0.036013674 0.042950924 -0.0625822
000390 27 71 bb 3c 5a 47 c8 bd 84 43 50 3a 5b 95 6a 3d
       0.022881104 -0.09779234 0.0007944631 0.057271343
0003a0 7e ca 88 bd 1d 74 59 bd c6 e0 07 3c c9 0f 8b bd
       -0.06679247 -0.05308925 0.008293336 -0.0679012
0003b0 d5 18 eb bc ef 82 1b 3e 76 05 88 bd 41 77 f5 3a
       -0.028698364 0.15186666 -0.066416666 0.0018727557
0003c0 fd de d2 bd af 0d 43 3e 3b a8 10 bc 30 a3 9e bd
       -0.10296438 0.19048189 -0.008829172 -0.07745969
0003d0 a5 46 a2 3c ca 97 f3 3c d9 e4 41 3d 9b 57 b4 be
       0.019809077 0.029735465 0.047337387 -0.35223088
0003e0 55 1c 20 3e 2b a4 ea 3d 4e 6b c8 bd f3 7d d2 bd
       0.15635808 0.11457094 -0.09786092 -0.10277929
0003f0 0c b6 17 3e ff ce 19 be f2 98 09 be 93 95 38 bd
       0.14815539 -0.15020369 -0.1343725 -0.04506452

layers.1.bias_mu f4 [128]
000000 ed 75 94 3d 6e e2 81 3d 2e 6c c2 ba 52 99 30 bd
       0.07249055 0.06342016 -0.0014833265 -0.043114968
000010 31 5a 15 be 67 77 8e 3d 8e 33 9e bd 39 db c4 3e
       -0.14585187 0.06956368 -0.07724677 0.38448504
000020 0f 07 38 3d 8d 80 45 3d 11 db a9 bd 3d 36 08 bf
       0.044928607 0.0482183 -0.08293737 -0.5320776
000030 f0 3a 81 3d 92 35 b2 3b 03 4a 13 be b9 01 04 3d
       0.063100696 0.005438515 -0.14383702 0.032228205
000040 42 56 17 3f 7d a0 c9 be 48 8c 27 3e 5d a3 0f 3e
       0.59115994 -0.39380255 0.16362107 0.14027162
000050 c8 3d c8 bd 0a 75 31 3c 21 5a 19 bf e9 63 0c bf
       -0.09777409 0.010831127 -0.5990315 -0.5483995
000060 20 c3 05 be 87 18 24 3f 6a b6 a8 bd 8e e8 25 bc
       -0.13062716 0.64099926 -0.08237918 -0.010126246
000070 19 3d d1 bd 1c a4 1b 3e 63 c8 10 3f 6d 64 0b bf
       -0.102167316 0.15199322 0.56555766 -0.5445011
000080 d2 55 8b 3e 29 37 d9 3e ef 10 2b be 5f b9 0c bf
       0.27213913 0.42424896 -0.16705678 -0.54970354
000090 e6 05 73 3e 9a d3 77 bd 27 65 d7 3c de ec 0b 3f
       0.23732719 -0.060504533 0.02629335 0.54658306
0000a0 0c c6 97 bd c5 7e 92 3d c4 33 22 be a5 40 20 bd
       -0.07410821 0.071530856 -0.1584006 -0.03912415
0000b0 fb d5 a6 3d c0 d3 be bd 50 bf 8d bd 48 37 cf bd
       0.08146282 -0.09317732 -0.069212556 -0.10117966
0000c0 b4 7b 92 3d bb b8 31 bf bf 11 6d 3e 83 79 f2 be
       0.07152501 -0.694225 0.23151301 -0.4735833
0000d0 5c 04 90 3d d0 c6 39 bd 26 ca ae bc 28 89 2e bd
       0.070320815 -0.045355618 -0.021336626 -0.04261127
0000e0 e6 b0 db 3d 35 1c 3b be b5 85 07 3d b3 61 37 3d
       0.107271 -0.18272479 0.033086497 0.044770908
0000f0 88 27 64 3d 13 ee 1f 3d e6 b5 e5 bd 84 6f 18 3f
       0.055701762 0.039045405 -0.11216335 0.5954516
000100 50 15 f0 be 58 e4 03 3f 53 d5 d5 be 5a dd e8 be
       -0.4689126 0.515203 -0.41764316 -0.45481378
000110 49 c0 e6 3e bd 26 73 be 24 26 18 3e fe 92 08 bf
       0.45068577 -0.23745246 0.148583 -0.5334929
000120 df d6 c4 3b ef 52 8f be 13 77 b8 3d 79 32 07 be
       0.00600706 -0.2799296 0.090070866 -0.13202848
000130 ee b9 02 bd c2 fb 76 bd 3d 70 99 3b 78 1b a9 3c
       -0.031915598 -0.06029869 0.0046825693 0.020642981
000140 67 a1 38 3d d8 ad b4 bd 5a 6d ac 3d cd b2 24 bd
       0.0450758 -0.088222206 0.08419295 -0.04020958
000150 aa 8b 82 3d f2 90 b5 3e 5f 23 c3 be 6c 60 13 3e
       0.06374295 0.35462147 -0.38112924 0.14392251
000160 17 ae 1c 3d 18 13 a8 bd 1e ae cd 3a d0 c3 07 3f
       0.038251963 -0.08206767 0.001569215 0.5303316
000170 c2 c5 60 3d de 10 46 3e fd 15 0a 3e 54 9c e7 be
       0.054876097 0.19342372 0.1348495 -0.45236456
000180 07 a1 9e 3d db 74 f5 3e 4c cc 17 bd c8 16 77 bd
       0.07745557 0.47940716 -0.037060067 -0.06032446
000190 77 33 2e 3c ad 8e 8a 3e a0 da 5e b9 34 06 9e 3e
       0.010632387 0.27061978 -0.00021253014 0.30864108
0001a0 eb ae c2 3e 92 52 ca 3b 9b 0d 91 bc df 44 98 3c
       0.38024077 0.006174394 -0.017706683 0.018587528
0001b0 d7 74 b0 3c a0 47 6d bd fe a3 8d bd 0d a8 e4 3b
       0.021540089 -0.057929635 -0.06916045 0.006978041
0001c0 34 36 30 bc 6d 63 47 bd 40 c7 ee bd 7f 37 25 bd
       -0.0107551105 -0.048678804 -0.11659098 -0.04033613
0001d0 fd 08 e3 3b c6 be 2e 3f 92 8e 97 bc 4f b7 36 bd
       0.0069285617 0.6825985 -0.0185006 -0.04460841
0001e0 c5 9f 9c 3e d6 f3 1f bf ca 35 e9 bc f2 25 7f 3d
       0.30590644 -0.6248144 -0.028468031 0.062292047
0001f0 cb 24 b9 3d 0c 3b 00 bf 51 34 71 be 2c 0a 21 3e
       0.09040221 -0.500901 -0.23555113 0.15726537

layers.1.bias_sigma f4 [128]
000000 6d b9 60 bc e6 51 0d bd 28 49 2f 3d 93 ba 1c bd
       -0.013716084 -0.034501933 0.042794377 -0.03826387
000010 3e 2b 01 3c 84 6b 93 3b a0 ba 79 bd b5 4a 28 bd
       0.007883845 0.004498901 -0.060968995 -0.04108687
000020 26 9c 69 3d a6 88 ac bc 0a 6b ce bc 17 cd 41 bd
       0.05703368 -0.021061253 -0.025197525 -0.04731473
000030 c2 aa 81 bc cf 88 8e bd 3d b3 e6 bc f3 80 12 3d
       -0.015828494 -0.06959688 -0.02816164 0.035767507
000040 ae fd 8c 3c 07 f9 38 bc 53 d3 1f 3d 5d 44 8e bd
       0.017210808 -0.0112898415 0.039019894 -0.06946633
000050 56 51 8e 3d f3 ce 39 bd 14 14 d7 bc d7 0d c4 3b
       0.06949107 -0.045363378 -0.026254691 0.005983095
000060 04 5b a7 bc 24 66 03 3d bf f9 61 3d 7b 51 a9 bc
       -0.020429142 0.03207983 0.055169817 -0.020668736
000070 60 f2 ab 3c 6b f8 55 3c c4 75 56 be 1e 89 24 bd
       0.020989597 0.013059716 -0.20943362 -0.040169828
000080 fc 63 68 3d 14 b5 2b bd 9d 7f b6 3b d0 cd 39 bd
       0.056735978 -0.041920736 0.005569412 -0.045362294
000090 0e 8e 20 3c 7d 62 fd 3b e4 18 9e 3d fa ad f7 bc
       0.0097994935 0.007732688 0.07719591 -0.030234326
0000a0 46 7a 80 3d 8e 7e 25 3b ac ca 83 3d 53 15 8d 3d
       0.06273322 0.0025252434 0.06435141 0.06888833
0000b0 d7 b9 a2 b9 72 ff 6f b9 9b 6d 51 3d ed 61 cf 3d
       -0.0003103751 -0.00022887977 0.05112992 0.101261
0000c0 8a 3a f1 bd 9d 9e a6 3c e6 50 8e bc 00 d3 33 36
       -0.117787436 0.020339305 -0.01737256 2.6795897e-06
0000d0 59 93 36 bd 41 5e 47 3c 30 85 2f bd 6b 69 83 3d
       -0.044574115 0.012168468 -0.042851627 0.06416591
0000e0 63 e1 d4 3c 1e 0c 4b bd c9 10 b5 3d 85 90 7b bd
       0.025986379 -0.049572103 0.08841092 -0.06141712
0000f0 18 cd a5 bc e4 60 14 3d 16 3b e4 bc 81 0b b0 3c
       -0.020239398 0.036225215 -0.027860206 0.02148986
000100 a3 c2 6f 3d 19 46 0a be c2 26 41 3d ba a5 2a 3d
       0.05853523 -0.13503303 0.047156103 0.041661955
000110 7f 2f 89 3b 68 36 32 ba d3 d1 a5 3b 55 9a 70 bb
       0.00418657 -0.00067982683 0.0050604134 -0.0036713083
000120 09 83 68 3a d8 6c 4b 3c 00 ce 3b bc 9c d1 27 bc
       0.00088696234 0.012416087 -0.011462688 -0.010242846
000130 f2 07 71 3b 27 38 f0 bc 66 b2 c0 3d 7d 2d 6c bd
       0.0036778417 -0.02932365 0.09409027 -0.05766057
000140 4e 21 84 3d 66 e4 c3 3c 1d af c6 bc 9e 01 5b bd
       0.06451665 0.02391262 -0.024253422 -0.05346834
000150 d8 5d d1 3c 1d 10 6f bd 4f 54 05 bd 87 bb 63 3c
       0.025557443 -0.058364976 -0.032551106 0.0138996905
000160 94 db 22 3c 94 b4 03 3d 19 4a 79 3d e8 e9 91 bd
       0.009940047 0.032154635 0.06086168 -0.07124692
000170 99 da b5 3c 35 35 ac 3b e8 1b 0e 3b 4f 43 44 3e
       0.022198962 0.005255366 0.0021684114 0.19166301
000180 fb 85 8e 3d 1b 83 08 3e a0 e4 23 3d 70 2f 0e 3d
       0.069591485 0.13331263 0.040012956 0.03471321
000190 2f 92 be 3c 91 2b 8e 3c d8 6b 10 3d 9e be f4 3c
       0.023263065 0.017354758 0.035259098 0.02987605
0001a0 51 18 b1 3c bd ad 1b bb 28 74 80 3d 73 73 b5 3c
       0.02161804 -0.002375468 0.06272155 0.022149777
0001b0 0e 17 28 3c e9 28 9a bd aa c4 f2 3b 8b 9e 70 3d
       0.010259403 -0.07527334 0.007408698 0.05874495
0001c0 e1 71 9b bd a5 d1 7b bd 15 89 84 bd 1e 92 b7 bd
       -0.0759008 -0.06147923 -0.06471459 -0.089634165
0001d0 33 44 6e bd ac 35 45 3d f7 07 8f 3b ae 19 75 3c
       -0.05817051 0.04814689 0.004364963 0.014959736
0001e0 f6 7a 61 3d a5 3c 8e 39 0a 18 50 3d bd cc c0 bb
       0.055048905 0.00027129534 0.050804175 -0.0058837817
0001f0 f0 16 2b 38 90 bd 1b bd 8f b2 c2 3c be 4a 2f 3c
       4.079094e-05 -0.038022578 0.023766784 0.010698972

layers.1.weight_epsilon f4 [128, 128]
000000 3d 68 c0 3e ef 28 0a 3e 18 59 f0 be 75 b1 9e 3e
       0.37579527 0.13492177 -0.46942973 0.30994764
000010 b8 60 f5 3e 9a c9 0f 3f dd 49 ac 3e 6a c6 82 3e
       0.47925353 0.56166995 0.33650103 0.25542003
000020 e3 31 1e 3e cb 4b 74 be 4f 72 64 3e 95 f3 c2 3d
       0.15448718 -0.23857038 0.2230923 0.09519116
000030 a8 9c e0 3e 77 7b a0 3c 30 83 5c 3e c7 c6 d7 3e
       0.4386952 0.019590123 0.21534419 0.42143843
000040 0f 50 80 be e0 bd bb be 7c 4f 06 3f f8 3c e8 be
       -0.2506108 -0.366683 0.52465034 -0.45359015
000050 94 4a b5 be 4f 77 75 be 20 b4 90 be 81 6d 94 3e
       -0.3540846 -0.23971294 -0.28262424 0.28989795
000060 a5 9d f8 3e 65 48 88 3e 73 a4 a4 be 76 b8 ac be
       0.48557773 0.26617733 -0.32156715 -0.33734483
000070 63 10 ae 3e 62 3e a1 3e 31 a1 37 be 04 86 a7 be
       0.33996877 0.31492907 -0.17932583 -0.32719433
000080 ee a9 4b 3e a0 8d c2 be 5f f9 af be 93 46 4e 3d
       0.19889042 -0.37998676 -0.34369943 0.050360274
000090 8d 95 95 be c2 af 9a be 7b 08 89 3e 8b b5 a0 be
       -0.2921566 -0.30212218 0.26764283 -0.31388506
0000a0 6f c8 c2 3e ba 37 bf be 5f 26 a0 be 3e 8d ae 3e
       0.38043544 -0.37347203 -0.31279275 0.34092134
0000b0 bd 9d da 3e 31 29 b4 3e ee 59 44 3e f2 8a 99 be
       0.4269847 0.35187677 0.1917493 -0.2998882
0000c0 16 e8 4e 3e 45 26 99 be e0 19 68 3e e3 7d 1e 3e
       0.20205721 -0.2991201 0.2266612 0.1547771
0000d0 d1 88 e7 be d2 3f a0 be 4b 35 9c 3e 15 a4 87 3e
       -0.4522157 -0.3129869 0.3050941 0.26492372
0000e0 23 0d b5 3e f9 d8 41 3e b2 c8 36 3e 27 e6 c7 3e
       0.35361585 0.18930425 0.17849997 0.3904278
0000f0 25 ea 34 3e 9c c2 9c 3e ac 07 f2 be d4 bd 82 be
       0.17667444 0.30617225 -0.47271478 -0.25535452
000100 e5 5d df 3e 59 79 d9 be f6 c2 a4 3e a3 e7 2b be
       0.43626323 -0.42475393 0.32179993 -0.16787581
000110 b7 7c aa 3e 1f 41 a6 3e 7c cd 02 bf 2b 74 b4 3e
       0.33298275 0.32471558 -0.51094794 0.3524488
000120 75 33 1e bf f1 5b a6 3d f6 1f cd be 6e fe 09 3f
       -0.6179727 0.08123005 -0.40063447 0.53903854
000130 f3 1c b2 3e c4 c2 4c be 92 40 e1 be b5 a4 8d be
       0.34787712 -0.19996172 -0.43994576 -0.27664724
000140 61 ce a0 be ed 6c 83 be 4d 8f a8 be 44 c1 6f be
       -0.31407455 -0.2566904 -0.3292183 -0.23413569
000150 8a ff 15 bf e4 98 bc 3e c9 14 41 be 7a 29 af 3e
       -0.58593047 0.36835396 -0.18855585 0.34211332
000160 a8 e4 0b 3e 31 40 19 3e 3e 52 c9 be 7c 6d cf 3e
       0.13661444 0.14965893 -0.39320558 0.40513217
000170 8b 8b a8 3e b9 8e 75 3e 6b 3a 9c 3e 96 23 7d be
       0.32918963 0.23980226 0.3051332 -0.24720606
000180 46 64 82 3e cd 66 82 be 3d 91 b2 be ef 5c c0 3e
       0.25467128 -0.25469056 -0.34876433 0.37570903
000190 c2 9d 00 3e 7e 34 bf 3e b0 d1 c8 be 13 0d 17 3e
       0.1256018 0.37344736 -0.3922248 0.14751081
0001a0 cb 23 5d 3e 9a 57 22 be 92 59 c9 be 24 77 9b be
       0.21595685 -0.1585373 -0.3932615 -0.30364335
0001b0 39 ff c6 be ec 91 d2 3e 75 a6 0a bc 5e 9c 1e be
       -0.38866594 0.41126955 -0.008462538 -0.15489337
0001c0 eb d1 92 be 33 0a c7 be 4d cc 68 be 73 43 3c 3e
       -0.2867578 -0.3887497 -0.22734185 0.18385105
0001d0 d4 d8 fd bd fa ea 95 be d7 e1 9e be c2 f1 73 3e
       -0.12394872 -0.29280835 -0.31031677 0.23822692
0001e0 7d ea 00 3e b9 06 8c be 3b ad a3 3e 7e 09 51 3e
       0.1258945 -0.2734888 0.31968102 0.20413777
0001f0 b3 22 b7 be 45 47 bb be 7e 1b 1c be b7 e7 aa be
       -0.3576866 -0.36577812 -0.15244862 -0.3337991
000200 b7 8d 1f bf 59 23 65 be fa 4e 47 3f a5 98 03 bf
       -0.62325615 -0.22376765 0.77854884 -0.5140479
000210 bd 7a 4b bf b2 78 6e bf c5 de 0e bf ed e3 d8 be
       -0.7948416 -0.93152916 -0.5580867 -0.42361394
000220 db 2e 83 be 19 95 ca 3e 6f 70 bd be d8 a9 21 be
       -0.25621685 0.39566877 -0.36999843 -0.15787446
000230 66 42 3a bf 73 14 05 bd 20 dc b6 be bc ee 32 bf
       -0.72757566 -0.032490205 -0.35714817 -0.6989553
000240 7b ce d4 3e 4a af 1b 3f fc c0 5e bf 5a 95 40 3f
       0.41563782 0.60814345 -0.8701322 0.7522789
000250 f4 55 16 3f 78 8d cb 3e a8 fd ef 3e d5 2a f6 be
       0.58724904 0.3975637 0.46873212 -0.48079553
000260 20 2a 4e bf 61 06 e2 be 96 87 08 3f 7c 3a 0f 3f
       -0.8053303 -0.44145492 0.5333189 0.55948615
000270 af 57 10 bf 15 b6 05 bf 5b 46 98 3e 37 eb 0a 3f
       -0.56383795 -0.5223096 0.29741177 0.5426516
000280 5c e3 a8 be 4b 55 21 3f 2d ed 11 3f d5 0d ab bd
       -0.3298596 0.6302077 0.57002527 -0.083522476
000290 d3 15 f8 3e 15 46 00 3f f2 44 e3 be 9b 44 05 3f
       0.4845415 0.50106937 -0.4438854 0.5205781
0002a0 10 86 21 bf 33 91 1e 3f e2 cd 04 3f 38 bf 10 bf
       -0.6309519 0.61940306 0.5187665 -0.56541777
0002b0 91 49 35 bf fa 65 15 bf 00 d3 a2 be 8a a6 fe 3e
       -0.7081538 -0.5835873 -0.31801605 0.49736434
0002c0 c4 93 ab be 90 ff fd 3e 40 78 c0 be e1 6d 83 be
       -0.33511174 0.4960904 -0.37591743 -0.25669768
0002d0 f6 ff 3f 3f fd e2 04 3f 1b 89 01 bf dd f5 e0 be
       0.7499994 0.51908857 -0.5059983 -0.4393758
0002e0 00 23 16 bf 7d bf a0 be d3 92 97 be 25 c4 25 bf
       -0.58647156 -0.31396094 -0.29604205 -0.6475242
0002f0 fd 05 96 be 4b fe 01 bf 09 b4 48 3f af d5 d8 3e
       -0.29301444 -0.50778645 0.7839971 0.42350528
000300 10 3a 39 bf 1a 57 34 3f e3 a0 08 bf 51 8d 8e 3e
       -0.7235422 0.70445406 -0.53370494 0.2784219
000310 5d 60 0d bf cb dd 09 bf a6 ef 58 3f 27 a4 15 bf
       -0.55225164 -0.53854054 0.84740674 -0.584536
000320 28 30 83 3f 09 f4 09 be 86 19 2a 3f db dc 64 bf
       1.0249071 -0.13471998 0.66445196 -0.893995
000330 40 b3 13 bf 3e cc a9 3e 52 ca 3a 3f 5a ea ea 3e
       -0.5769539 0.33163637 0.72964966 0.4588192
000340 34 59 05 3f 16 f8 d9 3e 33 c7 0b 3f 13 d1 c6 3e
       0.5208924 0.42572087 0.5460083 0.38831386
000350 9b c5 78 3f e9 64 1c bf cd 1c a0 3e c7 40 11 bf
       0.9717652 -0.61091477 0.31271973 -0.5673947
000360 43 03 68 be 8e 2a 7e be 11 f2 26 3f 62 02 2c bf
       -0.22657494 -0.24820921 0.65213114 -0.67191136
000370 15 c4 0b bf e4 a0 cb be 5b 8d 01 bf 59 ea d1 3e
       -0.5459607 -0.39771187 -0.50606316 0.40999106
000380 28 41 d8 be 59 45 d8 3e af 13 14 3f 57 84 1f bf
       -0.4223721 0.42240408 0.57842535 -0.6231131
000390 58 4f 55 be 84 8e 1e bf 76 87 26 3f a1 84 7a be
       -0.20831048 -0.6193621 0.65050447 -0.24464656
0003a0 4e 61 b7 be 49 9f 86 3e 25 f8 26 3f 6c eb 00 3f
       -0.35816425 0.262934 0.6522239 0.50359225
0003b0 a6 04 25 3f 77 9d 2e bf 87 f3 65 3c 27 87 83 3e
       0.6446022 -0.6820902 0.014035112 0.2568905
0003c0 37 80 f3 3e c0 0d 25 3f 35 0c c1 3e 0f 1e 9c be
       0.47558758 0.64474106 0.37704626 -0.30491683
0003d0 a5 80 52 3e 81 a3 f8 3e c4 c0 03 3f 70 4a ca be
       0.20556886 0.48562244 0.5146601 -0.39509916
0003e0 9a ce 55 be c2 3b e8 3e 94 ba 07 bf 0b 58 ad be
       -0.20879593 0.45358092 -0.5301907 -0.33856234
0003f0 76 dd 17 3f f0 4c 1b 3f b6 73 81 3e 17 b9 0d 3f
       0.593223 0.6066427 0.25283593 0.5536055

layers.1.bias_epsilon f4 [128]
000000 28 c9 b2 be 0e 42 14 3f 23 6b 68 bf 5a 6c 82 bf
       -0.34919095 0.5791329 -0.9078848 -1.0189316
000010 f7 f7 74 bf 9b 10 17 bf 52 47 80 bf 91 bc b2 bf
       -0.95690864 -0.5900971 -1.0021765 -1.3963796
000020 55 0b 73 3f d0 f7 cb be a2 4f fb be 3c b8 4c 3f
       0.94939166 -0.39837503 -0.49084193 0.7996862
000030 cf fe 19 bf 9e 81 0f 3f bc 20 52 bf 9b 0c cf bf
       -0.6015443 0.56057155 -0.820812 -1.6175722
000040 92 6c 2d 3f d2 76 b5 bf b9 74 18 3f 8a ec 81 bf
       0.6774379 -1.4176886 0.59553105 -1.0150311
000050 28 a5 4f 3f dc 8b 53 bf d6 ab 8d bf 07 c4 7c bf
       0.81111383 -0.82635283 -1.1068065 -0.98736614
000060 84 a5 ee 3e 20 ee 86 bf 7d 4d 0a 3f 52 52 ba 3e
       0.46610653 -1.054142 0.5402449 0.3639093
000070 4c fb fb be 2b ca 20 3f 1d 07 67 bf e2 24 79 3f
       -0.49215162 0.62808484 -0.9024523 0.97321904
000080 79 63 ef 3f 66 b1 00 3f 1b ab e2 be 23 0f 1f bf
       1.8702232 0.5027069 -0.44271168 -0.6213247
000090 09 c9 66 bf b1 fa 79 bf f6 8a b1 3e 93 20 47 bf
       -0.90150505 -0.9764815 0.3467633 -0.7778408
0000a0 c6 8c 0d bf e6 2f 09 be ab ab aa 3f 77 4f cc be
       -0.5529293 -0.13397178 1.3333639 -0.39904377
0000b0 96 8c 2c bf 61 29 7c bf 9e f0 15 3f 07 52 5a bf
       -0.6740202 -0.9850064 0.5857028 -0.85281414
0000c0 d7 f6 bb bf 60 36 27 3f 27 10 ca 3e 67 42 75 bf
       -1.4684705 0.65317345 0.39465448 -0.95804447
0000d0 d5 a3 a2 3f 85 30 c8 3e ad f2 af bf b2 b9 58 3f
       1.2706248 0.39099517 -1.3745934 0.8465835
0000e0 9e 31 a0 bf c0 83 b4 bf 0d ab a4 3e 00 11 d3 be
       -1.2515142 -1.4102707 0.3216175 -0.41223907
0000f0 2c 42 66 3f dc 1f 5a 3f 5a 9e 48 3f 64 42 27 bf
       0.8994472 0.85204864 0.78366625 -0.6533568
000100 9a 1f a0 3f d3 ea 76 bf a5 f3 f1 3e a8 e8 aa bf
       1.2509644 -0.96452063 0.472562 -1.3352251
000110 b0 4c f6 bd 50 1d 8f 3f 89 39 6e 3f 56 ed 4a bf
       -0.12026346 1.118082 0.9305654 -0.79268396
000120 7c 3c 50 bf 1c 7b 07 bf b4 ce 4b bf 28 5c ee 3e
       -0.8134229 -0.52922225 -0.7961228 0.46554685
000130 59 a0 7b bf b4 23 6a 3f 05 b4 e3 be 6d 91 e4 be
       -0.98291546 0.9146073 -0.44473282 -0.446422
000140 95 ac 62 be 94 7c b1 be 70 0a 51 3f 0d 24 81 3f
       -0.22136147 -0.34665358 0.8165655 1.0089127
000150 e8 bf 1b bf b6 f6 45 3f 2e 4e 30 bf d1 20 91 bf
       -0.608397 0.77329576 -0.6886929 -1.133814
000160 09 5a aa bf fd 6a 87 3f df 4b 41 bf 8b 09 ba 3f
       -1.3308727 1.0579525 -0.75506395 1.4534162
000170 88 6d 22 bf 5b f6 21 be f1 bd 90 3f 39 fa 60 3f
       -0.6344838 -0.15816633 1.1307966 0.8788181
000180 0e b6 2e bf 1b a5 60 3f 7c a0 b5 be 69 9a ed be
       -0.68246543 0.8775193 -0.35474002 -0.46406868
000190 9f b0 5f 3f 08 8d 8c 3f 82 c1 27 3f b9 4f 83 3f
       0.8737888 1.0980539 0.65529644 1.0258704
0001a0 6f 21 75 3d 28 b2 7d be 0a 44 8c bf 8f 4b 6d 3f
       0.059846338 -0.24774992 -1.0958264 0.9269342
0001b0 0a 73 03 3f 2b b8 5c bf 38 6c 3d bf 52 30 6b bf
       0.5134741 -0.8621852 -0.73993254 -0.91870606
0001c0 77 36 49 3f de c6 69 bf 4c 0a 9f be 30 e8 62 3f
       0.7859873 -0.9131907 -0.31062543 0.8863554
0001d0 88 6d 63 3e fb 89 9b 3f 54 1c a2 3f cf 24 a1 bf
       0.22209752 1.2151483 1.2664895 -1.2589358
0001e0 00 49 b0 3f 61 4e 7f bf b0 6b 31 bf c6 e3 30 bf
       1.3772278 -0.9972897 -0.69304943 -0.69097555
0001f0 cb 9f 87 3f 49 9a 41 3f 22 76 84 bf 80 7e 9f 3f
       1.059564 0.75626045 -1.0348551 1.246048

value_stream.weight f4 [1, 128]
000000 d4 2b ee bb ae 18 8b 3b 8f 0e 3c 3c a1 9d ad ba
       -0.0072684083 0.0042448854 0.01147808 -0.001324583
000010 68 53 38 be 4a 38 18 3e 36 61 d4 3a 40 87 13 3f
       -0.18000567 0.14865223 0.0016203288 0.5762825
000020 c0 81 11 bc e5 91 aa 3b 4a 73 e8 ba 6d 04 0a bf
       -0.0088810325 0.0052053803 -0.0017734554 -0.53913003
000030 9c d8 fe bb b2 00 ea 3b 23 99 54 be 7e 52 6b ba
       -0.0077772867 0.007141196 -0.20761542 -0.0008976831
000040 a7 b6 b8 3e eb b9 b3 be 02 93 87 3b c8 01 b3 3b
       0.36076853 -0.35102782 0.0041373977 0.005462859
000050 2d 86 1e bb 2b 06 9f bb 03 8f 06 bf 3c 68 ca be
       -0.0024188862 -0.00485303 -0.5256197 -0.3953265
000060 24 56 a2 be 54 ba e3 3e 7e af 00 3c e8 36 6d 3e
       -0.31706345 0.44478095 0.007854341 0.23165476
000070 64 b4 af ba 98 f7 ac 3a 40 c0 9e 3e 61 d7 f4 be
       -0.0013405201 0.0013196347 0.3100605 -0.4782057
000080 ac 0a f6 3d 47 2d 9b 3e a8 73 6c be cb 02 9a be
       0.12013754 0.3030798 -0.23090994 -0.30080256
000090 09 57 c9 3e 50 0d c4 3b c3 28 bd ba 2d 3a c2 3e
       0.39324215 0.0059830323 -0.0014431704 0.3793501
0000a0 a0 81 9e ba cb fe 33 bb 99 e3 0e 3b bd 4f 56 3a
       -0.0012093075 -0.00274651 0.002180314 0.0008175334
0000b0 a8 a6 5a 3e ad 33 de bb 8f 8a c3 bb ad 9e fa 3b
       0.21352637 -0.0067810626 -0.005967445 0.00764831
0000c0 29 bc fb ba d5 0f 17 bf 4d c2 ad 3e c0 30 1f bf
       -0.0019205856 -0.5900853 0.33937302 -0.6218376
0000d0 4b 9d 9b 3b 01 96 ab bb 85 c5 b4 bb 89 1a f3 3a
       0.0047489754 -0.0052363877 -0.00551671 0.0018547337
0000e0 b9 f6 30 3b c3 37 0d bc 6f ee 1f 3c bb 9d 05 3b
       0.0027002527 -0.008619252 0.009761437 0.0020388204
0000f0 5c 23 4a b8 98 69 9c 37 e9 8e 68 be b7 ce bf 3e
       -4.8193484e-05 1.864582e-05 -0.22710766 0.37462398
000100 dd 79 12 bf 20 6f bf 3e f0 19 85 be 20 f8 a1 be
       -0.572172 0.3738947 -0.2599635 -0.31634617
000110 f8 4a fc 3e 80 bb 34 be 89 9e 5f 3e de 28 12 bf
       0.49275947 -0.1764965 0.2183782 -0.5709361
000120 66 59 18 bc 26 81 a2 bd 18 cf c9 39 01 b9 b6 3b
       -0.009298658 -0.07934789 0.00038492004 0.0055762534
000130 9a bb 1b bb 30 45 2a 3b c1 96 59 bb 8e 47 ea ba
       -0.0023762942 0.002598118 -0.0033201429 -0.0017874108
000140 ad 16 43 ba de 74 3d bb f6 49 8d be 89 b4 11 bc
       -0.00074420386 -0.002890877 -0.2759549 -0.008893141
000150 7e a7 1b bc 8d a6 04 3f 31 2a 8e be ce db ba 3e
       -0.0095003825 0.51816636 -0.27766564 0.36495823
000160 f6 c4 0d bc ec 76 76 be ed b5 87 3b 78 d7 ca 3e
       -0.008652916 -0.24068803 0.0041415603 0.39617515
000170 05 db c6 bb 57 2d ca 3e 8b 21 88 3b f7 f0 5e be
       -0.0060685896 0.39487717 0.0041543893 -0.21771608
000180 b6 95 cc 3a 23 82 bf 3e a5 15 24 3b f5 0c 8e bb
       0.0015608582 0.37403974 0.0025037315 -0.0043350407
000190 37 dd 51 bc 98 98 f2 3e 16 b2 9a b8 2d 74 93 3e
       -0.012809089 0.47382045 -7.376463e-05 0.28799573
0001a0 6a 60 fc 3d 2e fc 8e bb f4 f0 27 bc 51 47 1f 3b
       0.12323077 -0.0043635583 -0.010250319 0.0024303982
0001b0 e0 2d 1d 3a 75 8e c5 3b 38 ae 64 be 48 15 20 3b
       0.00059959106 0.006028945 -0.22332084 0.0024426747
0001c0 b5 b4 15 ba 7a d3 bc bb 26 8a 86 bb 33 31 2f bc
       -0.00057108264 -0.0057625147 -0.004105824 -0.010692882
0001d0 62 2d c3 3b b7 ba fc 3e a8 8c b1 3b 65 a2 d7 3b
       0.005956338 0.49361202 0.005418379 0.0065806382
0001e0 d9 d8 eb 3e 6a 6c 2a bf cb c8 80 bb 4c 95 94 ba
       0.4606388 -0.66571677 -0.0039301864 -0.0011335998
0001f0 8d a0 43 bb 8f 87 e6 be 05 e6 ab be 1b aa b2 3d
       -0.0029850334 -0.45025298 -0.33573928 0.08723851
