src/last_chance/Double_DQN_n_step_1_last_chance_2/weights/episode_2600.pth (torch, 305914 bytes, 6 tensors)

layers.0.weight f4 [256, 18]
0	0x3d534863	0.051582705
1	0x3dafd3b1	0.08585299
2	0x3e4d1de6	0.20030937
3	0xbd42d7ce	-0.04756909
4	0x3cad0329	0.021119671
5	0x3cc54599	0.024081038
6	0x3cf31b03	0.029675966
7	0xbea03d63	-0.31296834
8	0xbf75f574	-0.96077657
9	0xbd44bf8f	-0.048034247
10	0x3d9b048d	0.07569227
11	0x3b322fde	0.0027189176
12	0xbd014062	-0.03155554
13	0x3e0a9b31	0.13535763
14	0xbf604599	-0.876062
15	0xbf1856c0	-0.5950737
16	0xc0204ec2	-2.504807
17	0xc0004366	-2.0041137
18	0x3f6f5df0	0.9350271
19	0xbd5aba76	-0.05340048
20	0x3e1261cb	0.14295118
21	0x3d3f9bf1	0.046779577
22	0xbcb2d190	-0.021828443
23	0x3d03587d	0.03206681
24	0x3f7ca2d4	0.98685956
25	0xbf2bd5ba	-0.67122996
26	0xbf03a920	-0.5142994
27	0x3eab11f6	0.3341214
28	0x3ee30960	0.4434309
29	0x3deb4c12	0.11489119
30	0x3ecbb099	0.3978317
31	0xbf02ce7a	-0.5109631
32	0x3db230f3	0.087007426
33	0xbe9f0632	-0.31059414
34	0x3f953cd5	1.165919
35	0x3edf61a2	0.43629175
36	0xbe5c17cc	-0.21493453
37	0x3e463e94	0.19359809
38	0x3bce4ac4	0.006295534
39	0x3cfcc6f8	0.030856594
40	0x3d700981	0.058602814
41	0x3b9b828d	0.0047457875
42	0x3ebdaee2	0.37047487
43	0x3e9bc5c8	0.30424333
44	0xbe71e857	-0.23623787
45	0x3dced8f0	0.10099971
46	0xbe8651e0	-0.2623434
47	0x3be90d79	0.007112202
48	0xbec2cc3f	-0.38046452
49	0xbf798eb5	-0.9748338
50	0xbebdcf6f	-0.37072322
51	0xbf03e422	-0.5151998
52	0xbf0acaf1	-0.54215914
53	0xbf1508e8	-0.58216715
54	0xbe879834	-0.2648331
55	0x3f45dfeb	0.77294797
56	0x3c941980	0.018078566
57	0xbdc8365a	-0.09775992
58	0x3d99e2d5	0.07513968
59	0xbc46f290	-0.012142792
60	0x3e969231	0.2940841
61	0xbef3624e	-0.47535938
62	0x3f724219	0.94632107
63	0xbcdb1144	-0.026741631
64	0xbe4886f3	-0.19582729
65	0x3dc6fd5b	0.097162925
66	0x3f061ff3	0.523925
67	0x3e1aab20	0.15104342
68	0xbf2a71ce	-0.665799
69	0xbeea16f0	-0.45720625
70	0xbef41bfb	-0.47677597
71	0x40005ecd	2.0057862
72	0x3d6ba9ef	0.05753511
73	0xbea2fb10	-0.3183217
74	0xbc0aa526	-0.008462226
75	0x3d44c1c7	0.048036363
76	0x3d6afe35	0.057371337
77	0xbd3f41e7	-0.04669371
78	0x3e08a02c	0.1334235
79	0x3f1bcf20	0.6086292
80	0xbe7435de	-0.23848674
81	0xbdd8fc59	-0.105950065
82	0xbe984b93	-0.2974516
83	0xbb12d303	-0.0022403605
84	0x3e09c15a	0.13452664
85	0xbed6b498	-0.41934657
86	0x3ef71bbf	0.48263356
87	0xbf033730	-0.51256084
88	0x3e73d6f7	0.23812471
89	0x3f7f8f19	0.99827725
90	0xbd65f80a	-0.05614475
91	0x3ecc3dc9	0.39890888
92	0xbd812893	-0.06306567
93	0xbcb598f9	-0.02216767
94	0xbb67631c	-0.0035306877
95	0xbc0d1599	-0.008611106
96	0x3dbfc604	0.0936394
97	0x3e4f05ae	0.2021701
98	0xc0c2544c	-6.07279
99	0xbe5d9521	-0.2163892
100	0x3d990bf0	0.0747298
101	0xbe196b80	-0.14982414
102	0xbe0ff581	-0.14058496
103	0x3f0118f4	0.504287
104	0x3d8cd21e	0.06876014
105	0x3f2467e4	0.64221025
106	0xbec6beb3	-0.38817367
107	0x3e8efdbc	0.2792796
108	0x3e288c59	0.16459788
109	0xbf07f943	-0.5311472
110	0xbed349c6	-0.41267222
111	0x3cd57894	0.026058473
112	0xbe369d9d	-0.17833562
113	0xbc70815f	-0.014679282
114	0xbebe45a0	-0.37162495
115	0x3eefa72d	0.46807232
116	0x3eb540c5	0.35400978
117	0xbe929f3e	-0.28637117
118	0x3ece6f2f	0.403192
119	0xbe5bfaa9	-0.21482338
120	0xbf003ae7	-0.5008988
121	0xbf2050bd	-0.62623197
122	0xbf69d972	-0.9134742
123	0x3d73866b	0.059454363
124	0xc0883ce8	-4.257435
125	0x3fc2c9bc	1.5217814
126	0xbeafe55d	-0.34354678
127	0xbe817fa8	-0.25292706
128	0xbe17502f	-0.14776681
129	0x3c44c3e8	0.012009598
130	0xbcfe3a8a	-0.031033773
131	0xbc91900a	-0.017768878
132	0xbe348b5c	-0.17631286
133	0xbef4dc82	-0.47824484
134	0xbf7e2b41	-0.9928475
135	0xbcfa6947	-0.030567778
136	0x3d4760e8	0.0486764
137	0xbc849315	-0.016183415
138	0xbfa1dbb9	-1.2645179
139	0xbf594042	-0.84863675
140	0xbf0dc117	-0.55372757
141	0xbf146cb3	-0.5797836
142	0xbfc7b607	-1.5602425
143	0x3ffb9ce0	1.965725
144	0xbf56e441	-0.8394204
145	0xc04d94ec	-3.2122145
146	0x3e7b3d57	0.24535118
147	0x3cb392d1	0.021920593
148	0xbe04ec09	-0.12980665
149	0xbac1c68a	-0.0014783901
150	0x3cac24c6	0.021013629
151	0x3ec70456	0.38870496
152	0x3f5b9868	0.8577943
153	0x3d7d5f70	0.061858594
154	0xbed3b16b	-0.41346297
155	0x3b9a815a	0.004715127
156	0x3f727539	0.9471012
157	0x402624e2	2.5960011
158	0x3c8679d2	0.01641551
159	0x3e5327db	0.20620672
160	0x3f96753a	1.1754525
161	0x3ef79943	0.48359117
162	0xbebd8c87	-0.37021276
163	0xbe8cc616	-0.27494878
164	0xbd26839d	-0.04065286
165	0xbe34beac	-0.1765086
166	0x3cd79166	0.026314449
167	0xbd5c24ad	-0.053745914
168	0x3f3d89e9	0.7403856
169	0xbe909233	-0.2823654
170	0x3fd23b5e	1.6424367
171	0x3e0c9546	0.13728818
172	0xbe124053	-0.1428235
173	0xbd1177f8	-0.0355148
174	0xbc042b5b	-0.008066977
175	0xbf1fc370	-0.6240759
176	0xbea6a411	-0.32547048
177	0x3f4486b8	0.76768064
178	0xbe2c5841	-0.16830541
179	0xc003a8e5	-2.0571835
180	0xbd883e63	-0.06652524
181	0xbd42e428	-0.047580868
182	0xbbf67a7b	-0.007521925
183	0x3cf5e320	0.030015528
184	0xbd8513ff	-0.064979546
185	0xbd76b1ab	-0.06022803
186	0xbd082cc4	-0.033245817
187	0xbf528826	-0.82238996
188	0xbf580729	-0.84385926
189	0xbd22437a	-0.039615132
190	0xbe6752a5	-0.2259012
191	0x3db582f6	0.088628694
192	0xbf2c42a0	-0.6728916
193	0xbf295dd6	-0.6615881
194	0xbf0e995a	-0.55702746
195	0xbf20fc20	-0.6288471
196	0xbd93fe25	-0.072262086
197	0xbf73e757	-0.9527487
198	0x3e968fe5	0.29406658
199	0x3e11df9b	0.14245455
200	0xbd99a734	-0.075025946
201	0x3c8aa163	0.016922658
202	0xbcc111be	-0.02356803
203	0xbcd5fd27	-0.026121689
204	0xbf2a66ab	-0.6656291
205	0xbd5c8bd7	-0.0538443
206	0xbe1d6df0	-0.15373969
207	0xbd17e658	-0.037084907
208	0x3e24fbcc	0.16111678
209	0x3d47d194	0.048783854
210	0x3f8d1936	1.1023319
211	0xbec7dff4	-0.3903805
212	0x3f40e756	0.7535299
213	0xbf09f8bb	-0.5389516
214	0x3da7b467	0.08188706
215	0x3f14ed4b	0.5817458
216	0x3cffa711	0.031207593
217	0xbed8e22a	-0.4236005
218	0x3e100ef5	0.14068206
219	0xbc94a700	-0.018146038
220	0x3d6252ec	0.05525486
221	0xbc84b351	-0.016198786
222	0xbf346c92	-0.70478165
223	0x3fcf9e9e	1.6220281
224	0xbf4d9507	-0.8030552
225	0x3dfd9772	0.123824015
226	0xbf67b8ad	-0.9051617
227	0xbe52fc8e	-0.20604154
228	0x3eb7c87b	0.35895142
229	0xbf966196	-1.1748531
230	0x3cc43b61	0.023954095
231	0xbe4bbcbb	-0.19896214
232	0xbe8d7481	-0.27627948
233	0xbfea2aa9	-1.8294269
234	0xbe45bbd5	-0.19309933
235	0x3cdd627b	0.027024498
236	0xbe38260e	-0.17983267
237	0x3cee200a	0.029068012
238	0xbd990d73	-0.07473268
239	0xbcc9c942	-0.0246321
240	0xbe6bd0df	-0.23028897
241	0x3e685501	0.22688676
242	0xbe8559ef	-0.26045176
243	0xbea25db0	-0.31712103
244	0xbf0d83be	-0.5527915
245	0xbd632357	-0.055453625
246	0xbd203e5c	-0.03912197
247	0x3f8c4e22	1.0961344
248	0x3d00c139	0.03143427
249	0x3f1abafa	0.60441554
250	0xc01b92ed	-2.4308426
251	0xbf382816	-0.71936166
252	0x3e81ea53	0.25374088
253	0xbeb23052	-0.3480249
254	0xbd81478b	-0.06312474
255	0x3d8f7835	0.070053495

layers.0.bias f4 [256]
0	0x3f990e15	1.1957422
1	0xbe7f3677	-0.2492312
2	0x3f3e3c7f	0.7431106
3	0x3e805545	0.25065055
4	0x3eb5f5d3	0.35539111
5	0xc013e01a	-2.310553
6	0xbf51313a	-0.8171574
7	0x3e9616e2	0.29314333
8	0x3fdf6b59	1.7454635
9	0x3ce1b0e5	0.02755017
10	0x3f668b21	0.90056044
11	0xbcd93898	-0.026516244
12	0xbf941cfa	-1.1571343
13	0xbfd48b7a	-1.6605065
14	0x3f94bea4	1.1620679
15	0x3f9e0d39	1.2347785
16	0x3eb7a45c	0.35867584
17	0x3ecd8867	0.4014313
18	0xbff6ec1d	-1.9290806
19	0x3f1aef18	0.6052108
20	0xc01c6321	-2.4435503
21	0x40059333	2.0871093
22	0x3fab489a	1.3381531
23	0x40075bbf	2.1149747
24	0x4039fac3	2.9059303
25	0x3ea304f7	0.31839725
26	0x3e2a646a	0.16639867
27	0x3ea00210	0.31251574
28	0x3f11ad77	0.5690531
29	0x3f04ee16	0.5192579
30	0x3f2182a1	0.6308995
31	0x3f50ddbd	0.81588346
32	0xbfef6b51	-1.8704625
33	0xc03c1dfc	-2.93933
34	0xbfe30a2c	-1.7737479
35	0x3f45ae9a	0.77219546
36	0xbf624cb5	-0.88398296
37	0x3f8dbc39	1.1073066
38	0xbf8bad8e	-1.091234
39	0xbf9b77fb	-1.214599
40	0xbf8f364b	-1.1188444
41	0x3fba5e57	1.456004
42	0xc015b3e0	-2.3391037
43	0xc030e339	-2.7638686
44	0x3f839277	1.0279073
45	0xbf309e4b	-0.68991536
46	0xbf90bc21	-1.1307412
47	0xc04742d1	-3.1134531
48	0x3fcb2715	1.5871302
49	0x3feb2af9	1.8372489
50	0x3f9539f5	1.1658312
51	0xbf7c3c5d	-0.9852961
52	0x3f360d0c	0.7111366
53	0x3f1ee0ef	0.6206197
54	0xbfe367a1	-1.7766
55	0x3fcf4de6	1.6195648
56	0xbfa500cc	-1.2890868
57	0x3fcdf044	1.6088948
58	0xbfe2670d	-1.7687699
59	0x3fcbac16	1.5911891
60	0xbed36b17	-0.4129264
61	0x3fb2a826	1.3957565
62	0x404c663c	3.19374
63	0xbd50a7db	-0.05094133
64	0x3fc6a375	1.5518633
65	0xbdf17918	-0.11790675
66	0x3f01bd75	0.50679713
67	0xc01c6938	-2.443922
68	0x3f76adfe	0.9635924
69	0x38525bb6	5.0153314e-05
70	0x3f855009	1.041505
71	0xbfe7ab61	-1.8099176
72	0x3f82728f	1.019121
73	0xbeb482db	-0.35256085
74	0xc03af937	-2.9214609
75	0x3f5c8bb8	0.86150694
76	0x40005826	2.0053802
77	0x3e63713c	0.22211164
78	0x3f8dcaec	1.1077552
79	0x3fe41e14	1.7821679
80	0x3f4a0eea	0.7892901
81	0x3eb51f05	0.3537523
82	0xbfa43488	-1.2828531
83	0xbf200234	-0.6250336
84	0xbf11f011	-0.5700694
85	0xbe7729e9	-0.24137081
86	0x3e99c286	0.30031222
87	0xbc0f5487	-0.00874818
88	0x3e00f46b	0.12593238
89	0xbfc6e1d6	-1.553767
90	0xbfb80e67	-1.4379395
91	0xbfc825de	-1.5636556
92	0xbf915343	-1.1353534
93	0xbf445ead	-0.76706964
94	0x3f92d757	1.1471967
95	0xc00489f9	-2.0709212
96	0xbddd8ea0	-0.10818219
97	0x3f85f9a1	1.0466806
98	0x3f269594	0.6507199
99	0xc02706ec	-2.6097975
100	0xc018b44f	-2.3860052
101	0xbff9d957	-1.9519452
102	0xbfef5eba	-1.8700783
103	0x40202afb	2.5026233
104	0xbf5b8dfb	-0.8576352
105	0xbf99178e	-1.1960313
106	0x3efad9b7	0.48994228
107	0xbf05a777	-0.52208656
108	0xbf40e5b5	-0.75350505
109	0x3e522541	0.20522024
110	0xbfcbc081	-1.5918123
111	0x3f54389d	0.82898885
112	0xbfab0421	-1.3360635
113	0xbc5e7bc0	-0.013579309
114	0x3f29fddc	0.66402984
115	0xc04cf8ca	-3.2026849
116	0xbf4b97b3	-0.7952835
117	0x3f99f5d8	1.202815
118	0xbfa98155	-1.3242594
119	0xbfb0901a	-1.3793976
120	0xc004e1aa	-2.0762734
121	0xbfbeb4c7	-1.4898919
122	0xbf8ec053	-1.1152443
123	0xc007478a	-2.1137414
124	0xbfa7b590	-1.3102283
125	0xbec284de	-0.37991995
126	0xbf4a8c61	-0.7912045
127	0x3e645b72	0.22300509
128	0xbfaba61a	-1.3410065
129	0xbf266951	-0.6500445
130	0xbddf897b	-0.10914894
131	0xbfe128d0	-1.759058
132	0x3f072d71	0.52803713
133	0xbfbefd43	-1.4921039
134	0x3f64dd91	0.89400584
135	0xbf484128	-0.7822442
136	0xbfbab66f	-1.4586924
137	0xc0101794	-2.251439
138	0xbf9768c2	-1.1828845
139	0xbfc17c2e	-1.5116022
140	0x402d249c	2.7053595
141	0x3f3ea484	0.7446978
142	0xc0117b73	-2.2731597
143	0x3f5e768b	0.8689963
144	0x3ec13a9d	0.3774003
145	0xbf977af2	-1.1834395
146	0xbe874c36	-0.26425332
147	0x3d9ec69d	0.07752726
148	0x3f097cb2	0.53705895
149	0xbf34c9fc	-0.70620704
150	0xbf7af18f	-0.9802484
151	0xbfacca04	-1.349915
152	0xbf747be6	-0.95501554
153	0xbe8bc2d4	-0.2729708
154	0xbf16e046	-0.58935964
155	0x3f22de1b	0.63620156
156	0xbf8e2115	-1.1103846
157	0xbee295b8	-0.4425485
158	0xbfa67309	-1.3003856
159	0x3ef68895	0.4815108
160	0x3fae3e06	1.3612678
161	0x3f045bf5	0.51702815
162	0x3e08f533	0.13374786
163	0xbf856c42	-1.0423663
164	0x400e6102	2.224671
165	0x3f4ced8f	0.80049986
166	0xbecce237	-0.40016338
167	0x40290456	2.6408896
168	0xbf8e2da7	-1.1107682
169	0x3f357d0e	0.70893943
170	0x3e8b3803	0.2719117
171	0xbfc2751e	-1.5191991
172	0xbec9ac91	-0.3938947
173	0xc008c78c	-2.1371794
174	0xbfc62214	-1.547915
175	0x3e1ece46	0.15508375
176	0x3d8fb2ed	0.07016549
177	0x3fc52802	1.5402834
178	0xbd9519d9	-0.07280321
179	0x3edde853	0.43341312
180	0x3f8523b3	1.040152
181	0xbfa726d6	-1.3058727
182	0xbf0e05d3	-0.5547764
183	0x3e3be314	0.18348342
184	0x3fb07276	1.3784931
185	0x3e7820e9	0.24231304
186	0x400f5ba1	2.2399676
187	0x3fe06be3	1.7532924
188	0xbfcfc47b	-1.6231836
189	0x401781ad	2.3672898
190	0x3f8557b4	1.041739
191	0xbf8124c8	-1.008935
192	0xbfd9d8eb	-1.7019323
193	0xbf8400f6	-1.0312793
194	0x3f0f56ad	0.5599163
195	0xbe586c80	-0.2113514
196	0xbf3aa2e0	-0.7290478
197	0x3ff56d0e	1.9173906
198	0xbfe91a0c	-1.8211074
199	0xbef93e45	-0.4868032
200	0xbf74d78c	-0.956414
201	0x3facd276	1.3501728
202	0x3e792c9a	0.2433342
203	0x3f208281	0.62699133
204	0x406f3ca9	3.7380774
205	0xbf3c8940	-0.73646927
206	0x3f82a2b4	1.0205903
207	0x4016c674	2.3558626
208	0x3fe396a8	1.7780352
209	0x3e0950cf	0.13409732
210	0x3f19d5fb	0.60092133
211	0x3f3f57ae	0.74743164
212	0xbf589a67	-0.846106
213	0xbe4d8ed4	-0.20074016
214	0xbfe9cf7d	-1.8266445
215	0xbf9d6bd9	-1.2298537
216	0xbf9b1dad	-1.2118431
217	0xbd6b7d4c	-0.05749254
218	0x3ff30fbd	1.8989178
219	0x3f9675a8	1.1754656
220	0xbfd4a409	-1.661256
221	0xbfa6467b	-1.2990259
222	0xbfaaa569	-1.3331729
223	0xbea4af6c	-0.32165086
224	0xbee8eaca	-0.4549163
225	0x3f6a416b	0.9150607
226	0xbfc1deb4	-1.5146089
227	0xbfac8a88	-1.3479776
228	0x3f809a86	1.0047157
229	0xbf0b2fb3	-0.5436966
230	0x3f0686d8	0.52549505
231	0x3fcc6b56	1.5970256
232	0xbf0743ce	-0.52837837
233	0xbfb9f336	-1.4527347
234	0xbf4c0eb2	-0.79709923
235	0x3f80228a	1.001054
236	0x3eb13b96	0.34615773
237	0x3e981c2a	0.29708987
238	0x3db91fd7	0.09039276
239	0xbff232b2	-1.8921721
240	0x3df9fe74	0.12206736
241	0xbfa26b1c	-1.2688937
242	0xbe475a60	-0.19468069
243	0x3dc5ef2e	0.096647605
244	0x403413e1	2.8137133
245	0xbfb32f61	-1.3998834
246	0xbf135528	-0.57551813
247	0x3f65f189	0.8982168
248	0xbfa000b7	-1.2500218
249	0x3ff6a9d7	1.9270581
250	0xbfed2037	-1.8525456
251	0x3e45e0c0	0.19324017
252	0x3f4513d3	0.76983374
253	0x3f5fb15a	0.8737999
254	0x401b9854	2.4311724
255	0xbff05d97	-1.8778561

layers.1.weight f4 [256, 256]
0	0xbf91057a	-1.1329796
1	0xbebcf272	-0.3690372
2	0xbebe70de	-0.37195486
3	0xbdf66181	-0.12030316
4	0x3eeaee46	0.45884913
5	0x3f2962fe	0.66166675
6	0xbe3c757c	-0.18404192
7	0xbf33ae87	-0.7018818
8	0x3d84855b	0.06470748
9	0x3dff3ec2	0.12463142
10	0xbe84dff4	-0.25952113
11	0x3cd9d22c	0.026589476
12	0x3da41cfc	0.08013341
13	0x3e96b9e4	0.29438698
14	0x3e4b3df9	0.1984786
15	0x3e051f87	0.13000308
16	0xbf126b3f	-0.57194895
17	0x3c91da53	0.0178043
18	0x3e4bb708	0.1989404
19	0xbe498dab	-0.19682948
20	0xbebe692f	-0.37189624
21	0xbe4deb48	-0.20109284
22	0x3e3d5cb4	0.18492395
23	0xbee75173	-0.45179328
24	0x3f8fdc6b	1.1239141
25	0xbe908c10	-0.2823186
26	0xbe31b15d	-0.17352815
27	0x3d5bed6b	0.053693216
28	0x3e452baf	0.19254945
29	0xbefef936	-0.49799508
30	0xbe7f0ad9	-0.24906482
31	0x3fae43ca	1.3614438
32	0x3e3a5c51	0.18199278
33	0x3ee30f32	0.4434753
34	0xbdc011db	-0.09378406
35	0x3e50d110	0.20392251
36	0xbf1014ae	-0.56281555
37	0x3d9147b0	0.070937514
38	0xbdc0eb02	-0.09419824
39	0xbe379f6b	-0.17931907
40	0x3ef8d168	0.48597264
41	0xbe4f2b2b	-0.20231311
42	0x3ec37e2b	0.38182196
43	0xbef380e9	-0.47559288
44	0x3e0e2fc6	0.13885412
45	0xbd59a7af	-0.05313843
46	0xbd3bcafc	-0.045847878
47	0x3d8a69af	0.06758439
48	0x3d9c4675	0.07630626
49	0xbd9c2a5b	-0.07625266
50	0xbe73f326	-0.23823223
51	0xbeb71dbd	-0.35764876
52	0xbe1ca3f7	-0.15296923
53	0xbeb69d38	-0.35666823
54	0xbe7b5e64	-0.24547726
55	0xbc4461e8	-0.011986233
56	0xbe98b13a	-0.29822713
57	0x3e2e9de6	0.17052421
58	0x3f5a1a84	0.8519671
59	0xbd9da81b	-0.07698079
60	0xbe274fe2	-0.16339067
61	0xbdf40b45	-0.11916212
62	0x3e88da80	0.26729202
63	0xbe40f205	-0.18842323
64	0x3eba0e2a	0.3633893
65	0xbd9d35af	-0.07676255
66	0x3e859001	0.2608643
67	0xbe93240e	-0.28738445
68	0xbe9694f0	-0.29410505
69	0xbcd75df5	-0.02628992
70	0xbf080f3a	-0.53148234
71	0x3df630cb	0.12021025
72	0xbe712b2c	-0.23551625
73	0xbef6cf65	-0.48205104
74	0xbe35e431	-0.1776283
75	0x3e943b1e	0.28951353
76	0x3e88287d	0.2659339
77	0x3e9283e8	0.2861626
78	0xbe3ce111	-0.18445231
79	0x3ea5daa8	0.32393384
80	0x3d99e94f	0.07515203
81	0xbd683f40	-0.056700945
82	0xbdc4a717	-0.09602182
83	0x3e8e6b04	0.2781602
84	0xbb49a638	-0.003076924
85	0x3d832e1a	0.064052776
86	0x3ed7c832	0.42144924
87	0x3d08f296	0.033434473
88	0x3eba8eeb	0.36437163
89	0xbee1ec6d	-0.4412569
90	0xbdb0a826	-0.08625822
91	0x3e0de62c	0.13857335
92	0x3e293369	0.16523518
93	0x3ebf7f55	0.37401834
94	0x3e865bb2	0.26241833
95	0xbf1788eb	-0.59193295
96	0xbeaacd9b	-0.3335999
97	0x3dcf9e40	0.10137606
98	0xbea69bf7	-0.32540867
99	0x3da57079	0.08078093
100	0xbda32fe1	-0.079681166
101	0xbe6072cd	-0.21918793
102	0xbdea9be0	-0.11455512
103	0xbeaf817a	-0.3427847
104	0xbe969b1f	-0.29415223
105	0xbe8c63db	-0.27419934
106	0xbe440bb9	-0.19145097
107	0x3e08ba4f	0.13352321
108	0xbb8372a0	-0.004011467
109	0x3e68dd86	0.22740754
110	0xbdce4701	-0.10072137
111	0xbe6ed673	-0.23323993
112	0x3de95328	0.11392814
113	0x3f35934d	0.7092789
114	0xbe6ac6e4	-0.22927433
115	0x3d4e59cd	0.05037861
116	0x3dbec404	0.09314731
117	0xbe21d839	-0.15805139
118	0xbeab9bbc	-0.33517253
119	0xbde64599	-0.112437434
120	0xbf443980	-0.7665024
121	0x3dfe649c	0.124215335
122	0x3f5f1361	0.87138945
123	0xbf95ad37	-1.1693486
124	0xbf041196	-0.51589334
125	0x3e110002	0.14160159
126	0xbe1d02a1	-0.15333034
127	0x3dd90b06	0.10597806
128	0x3ea75074	0.32678568
129	0x3e60f0e5	0.21966894
130	0x3fa6a5cd	1.3019348
131	0xbcc28447	-0.023744715
132	0xbd0561ef	-0.0325641
133	0x3f1e03a1	0.6172429
134	0xbe947900	-0.28998566
135	0x3e239c26	0.15977535
136	0x3e1b27d6	0.15151915
137	0xbf7fd564	-0.99934983
138	0x3eaee58a	0.341595
139	0x3f066f36	0.52513444
140	0xbd624b1f	-0.055247422
141	0xbcf65fc8	-0.030074969
142	0xbe686a88	-0.22696888
143	0xbe368b24	-0.17826515
144	0x3c91014d	0.017700816
145	0xbe18ff99	-0.14941253
146	0x3e8a2890	0.26984072
147	0xbe927a81	-0.28609088
148	0x3b4a667a	0.0030883835
149	0xbf2134c7	-0.62971157
150	0xbeae9702	-0.34099585
151	0xbf965ba5	-1.1746718
152	0xbdba1009	-0.0908509
153	0xbf0c6b74	-0.5485146
154	0xbeaa08a3	-0.33209714
155	0xbf579880	-0.8421707
156	0x3ec18882	0.3779946
157	0x3f1c9d42	0.61177456
158	0xbe98ba5a	-0.29829675
159	0x3f15fb89	0.5858694
160	0x3e01b683	0.12667279
161	0x3e3c3b11	0.18381907
162	0x3f1841a5	0.59475166
163	0x3e6dea7d	0.23233981
164	0x3f725cc5	0.94672805
165	0xbeb0e5d9	-0.3455036
166	0x3ee102ff	0.43947598
167	0x3f9f0a59	1.2425033
168	0xbe04f02a	-0.1298224
169	0xbf0b1093	-0.54322165
170	0x3ec5dc3a	0.38644582
171	0xbe196894	-0.149813
172	0x3cd45522	0.0259195
173	0xbf016de0	-0.5055828
174	0x3de1bb75	0.11022083
175	0xbeb0a417	-0.3450019
176	0x3f2fbba3	0.68645686
177	0xbe35814c	-0.17725104
178	0x3e80f7e5	0.2518913
179	0x3eee1924	0.46503556
180	0xbe9529bd	-0.29133406
181	0x3d0d1531	0.034444038
182	0xbe0f8584	-0.14015776
183	0xbe0bb9f3	-0.13645153
184	0xbf24779d	-0.64245015
185	0xbe5eec82	-0.21769908
186	0x3ebda0aa	0.3703664
187	0xbce881ac	-0.028382145
188	0xbec4487d	-0.38336554
189	0xbdd94b2b	-0.1061004
190	0x3e0a534e	0.1350834
191	0xbadf9867	-0.0017058969
192	0xbd42b124	-0.047532216
193	0xbd00d57a	-0.031453587
194	0x3c07221c	0.008247878
195	0x3f413b14	0.7548077
196	0xbf6fb8a8	-0.9364114
197	0xbeccafb2	-0.39977795
198	0xbe95f978	-0.29291892
199	0x3eb33ecf	0.35008857
200	0x3f21abf0	0.6315298
201	0x3e1fc3d5	0.15602048
202	0x3e1f0269	0.15528263
203	0x3d6df0be	0.058090918
204	0xbf894c7d	-1.0726467
205	0xbedb8d17	-0.4288108
206	0x3e9dcac2	0.30818754
207	0x3e5668cd	0.20938416
208	0xbc8dbdfa	-0.017302502
209	0xbeb83aa5	-0.35982242
210	0xbe1f1494	-0.15535194
211	0x3dd57c23	0.10424068
212	0x3e3db86d	0.18527384
213	0xbd242cf5	-0.040081937
214	0x3f03fd90	0.5155878
215	0x3e9d783d	0.30755797
216	0xbeca4827	-0.39508173
217	0x3dafefaa	0.08590634
218	0xbe566fd1	-0.20941092
219	0x3f13630b	0.57573
220	0x3e26e9cb	0.16300122
221	0xbd7fa175	-0.062409837
222	0x3e9753c7	0.29556105
223	0x3e2ebdfd	0.17064662
224	0xbe2621ed	-0.16223879
225	0xbda3a9d9	-0.0799138
226	0x3deb0c17	0.11476915
227	0x3c08ea34	0.00835662
228	0xbf08b801	-0.5340577
229	0x3ed8eea6	0.42369574
230	0x3f0acf09	0.5422216
231	0x3ebfda65	0.3747131
232	0xbe4f5d32	-0.20250395
233	0xbdfc40c8	-0.123170435
234	0x3ec5c3bc	0.38625896
235	0x3f149c6d	0.58051187
236	0xbe2c46bf	-0.16823862
237	0xbd2de139	-0.042451117
238	0x3dba99b7	0.0911135
239	0x3e4b8382	0.19874385
240	0xbd1b94e9	-0.03798381
241	0x3c38c489	0.011277326
242	0xbf196909	-0.59925896
243	0xbe28354b	-0.1642658
244	0x3f164b41	0.5870858
245	0xbed37768	-0.41302037
246	0x3e365e3a	0.17809382
247	0xbe7730c0	-0.2413969
248	0xbddce0ee	-0.107850894
249	0x3f0bb2de	0.54569805
250	0x3ea0054c	0.3125404
251	0xbefa99b6	-0.48945397
252	0xbef243ef	-0.47317454
253	0xbd83ecc0	-0.06441641
254	0xbcfd47d4	-0.03091804
255	0x3eb950c2	0.36194426

layers.1.bias f4 [256]
0	0xbe71c9fe	-0.2361221
1	0x3f36434e	0.7119645
2	0xbc8bd5bf	-0.017069696
3	0x3ebfa540	0.37430763
4	0xbed53f2d	-0.41649762
5	0xbfa62b63	-1.298199
6	0xbea5c1a0	-0.32374287
7	0xbf52d1c3	-0.8235132
8	0xbef3a0ef	-0.4758372
9	0xbbd930bc	-0.006628124
10	0x3d2bf183	0.04197837
11	0x3eae979f	0.34100053
12	0x3e72dc06	0.23716745
13	0x3e2d9a0c	0.16953295
14	0xbd9f5952	-0.077807084
15	0xbea5edea	-0.32408077
16	0x3eb51f4a	0.35375434
17	0x3f2dced1	0.678937
18	0x3e95c860	0.29254436
19	0xbf2afcc2	-0.6679193
20	0x3edbcd88	0.42930245
21	0x3ebefe41	0.37303355
22	0x3e6cf12e	0.23138878
23	0xbf97ab87	-1.1849221
24	0xbe39f327	-0.18159162
25	0x3e903b0a	0.28170043
26	0x3eb625b1	0.3557563
27	0xbe993800	-0.29925537
28	0xbed59db3	-0.41721877
29	0x3e1abefe	0.1511192
30	0x3efafc2c	0.49020517
31	0xbe8e0bd8	-0.2774341
32	0x3e9e1f26	0.3088314
33	0xbf1e95f2	-0.6194755
34	0xbeaed9dc	-0.3415059
35	0x3db82ad8	0.08992547
36	0x3f17f477	0.593574
37	0xbe349237	-0.17633902
38	0x3ef74478	0.48294425
39	0x3ecca1c1	0.39967158
40	0xbe48791c	-0.1957745
41	0x3e749b3b	0.2388734
42	0x3de8a3b2	0.113593474
43	0xbe2440d9	-0.16040362
44	0x3fb18c8f	1.387102
45	0x3e463d29	0.19359268
46	0xbebadde9	-0.3649743
47	0xbe9a1f8a	-0.30102187
48	0xbd822865	-0.06355361
49	0x3e75ef3c	0.24017042
50	0x3edb84e8	0.42874837
51	0xbdcc1d3b	-0.09966513
52	0x3f3798c7	0.71717495
53	0x3f8c8954	1.0979409
54	0xbe6e75e8	-0.23287165
55	0x3ed7a5a1	0.42118552
56	0xbee7cbea	-0.45272762
57	0x3ea6b921	0.32563117
58	0x3ed1ae49	0.40953282
59	0x3f1abd0b	0.60444707
60	0xbf8b493e	-1.0881727
61	0xbe133c4e	-0.14378473
62	0xbe2e3e56	-0.17015967
63	0xbeb3021f	-0.34962556
64	0x3ef6ed14	0.4822775
65	0xbe9d3e32	-0.30711514
66	0x3e8bd136	0.27308053
67	0xbefea8de	-0.4973821
68	0x3f4f8d3e	0.81074893
69	0xbe6dde10	-0.23229241
70	0x3eaada58	0.33369708
71	0xbdf2549d	-0.11832545
72	0x3f1e87a8	0.61925745
73	0x3f3f3826	0.7469505
74	0xbe063626	-0.13106593
75	0xbef97ff9	-0.48730448
76	0x3f7b3038	0.9812045
77	0x3f35c3fc	0.71002173
78	0xbd421a8b	-0.047388595
79	0x3e693b46	0.22776517
80	0x3e648db5	0.22319682
81	0x3d4be4c5	0.04977872
82	0x3f997c0c	1.1990981
83	0xbfaa4eca	-1.3305295
84	0xbe93157a	-0.28727323
85	0x3efbfb80	0.49215317
86	0x3dd6de11	0.104915746
87	0xbe30127a	-0.17194548
88	0x3f857060	1.0424919
89	0xbe3c5b2e	-0.18394157
90	0x3ee97159	0.4559429
91	0xbece1299	-0.40248564
92	0x3e98d853	0.29852542
93	0xbd1c17ed	-0.038108755
94	0x3e585852	0.21127442
95	0xbe0c9d60	-0.13731909
96	0xbf08a0b9	-0.53370243
97	0xbe31b25d	-0.17353196
98	0x3f0f1b3c	0.5590093
99	0x3eb14bc1	0.34628108
100	0xbf088f0e	-0.53343284
101	0xbea979f5	-0.33100858
102	0xbe8460d0	-0.25855112
103	0xbe24f557	-0.16109215
104	0xbeed45aa	-0.46342212
105	0x3edab39e	0.42715162
106	0xbe33e993	-0.1756957
107	0x3f8094b8	1.0045385
108	0xbe816513	-0.25272426
109	0x3dd7cac6	0.10536723
110	0xbe26aa74	-0.1627596
111	0xbeb7f998	-0.35932612
112	0xbf52f833	-0.8240997
113	0x3e7d17ab	0.2471606
114	0xbecf5bd6	-0.40499753
115	0x3f6cae70	0.9245367
116	0x3efbe710	0.49199724
117	0x3f04d352	0.5188495
118	0x3e221681	0.15828897
119	0xbe90ed73	-0.2830616
120	0x3f6ab709	0.9168554
121	0xba00993b	-0.00049056456
122	0xbd7d98a2	-0.06191314
123	0xbeb1fba6	-0.34762305
124	0x3cdb8388	0.026796117
125	0xbefad5ae	-0.4899115
126	0x3cbef32a	0.023309309
127	0x3f5cccf8	0.8625026
128	0xbefe5ff5	-0.49682584
129	0xbf07618f	-0.5288324
130	0x3e7ca8ff	0.24673842
131	0x3e548bc0	0.20756435
132	0xbd5f6c48	-0.054546624
133	0x3e2426bb	0.160304
134	0x3e951028	0.2911389
135	0x3d60b957	0.054864254
136	0xbddb4d29	-0.107080765
137	0xbf83ff85	-1.0312353
138	0x3cd7f35f	0.026361166
139	0x3f39568b	0.7239768
140	0x3ec12531	0.37723687
141	0x3dbd8409	0.09253699
142	0xbe0c5da3	-0.13707595
143	0xbebb4b87	-0.3658106
144	0x3f2873d2	0.6580173
145	0x3f9ee860	1.2414665
146	0x3dc88493	0.097909115
147	0x3eb74615	0.35795656
148	0x3e87315c	0.26404846
149	0x3f9dc9f1	1.2327253
150	0x3e89575f	0.2682447
151	0x3f52d221	0.8235188
152	0xbec42624	-0.3831035
153	0x3e098609	0.13430037
154	0x3ed1bdd3	0.40965137
155	0x3ec7b738	0.39006972
156	0x3ec68ca1	0.38779166
157	0xbd07c99b	-0.03315125
158	0x3d963d79	0.07335944
159	0xbecce71d	-0.40020075
160	0x3f41ab04	0.75651574
161	0x3d9c5463	0.07633283
162	0x3f9399d8	1.1531324
163	0xbeff2ded	-0.49839726
164	0xbd46d329	-0.04854122
165	0x3ea996b9	0.33122805
166	0x3d3841c0	0.04498458
167	0xbe0e2b06	-0.138836
168	0xbf3895ff	-0.72103876
169	0xbf5b6ae9	-0.85710007
170	0x3e415c63	0.18882899
171	0x3e6faa8e	0.23404905
172	0x3de16b0b	0.11006745
173	0x3f19533b	0.59892625
174	0xbf37e74b	-0.718373
175	0xbf182bea	-0.5944201
176	0xbdba1c10	-0.09087384
177	0xbeed3cfc	-0.4633559
178	0x3d769332	0.06019897
179	0x3e447f00	0.19189072
180	0x3ddf8efe	0.109159455
181	0x3f1750dc	0.59107757
182	0x3c1b0297	0.009461067
183	0x3db3b369	0.08774454
184	0xbe8b6577	-0.2722585
185	0x3ec2bd28	0.3803494
186	0x3e7624ca	0.24037471
187	0x3eccb037	0.3997819
188	0x3e45b668	0.19307864
189	0xbf8a6828	-1.0813036
190	0xbeaa6742	-0.33281904
191	0x3f1591d4	0.5842564
192	0xbeaa9c83	-0.33322534
193	0xbed32ab0	-0.41243505
194	0x3f382ad2	0.7194034
195	0xbf484412	-0.7822887
196	0x3f747dc9	0.9550443
197	0xbe593ff8	-0.21215808
198	0xbe5b4983	-0.21414761
199	0xbed33580	-0.41251755
200	0xbf3693a6	-0.71319044
201	0xbd8d8b15	-0.069112934
202	0xbe461f09	-0.19347776
203	0xbf19e9d5	-0.60122424
204	0xbe0ff113	-0.14056806
205	0xbec07271	-0.37587312
206	0xbedb4a21	-0.42829993
207	0xbd9141f0	-0.07092655
208	0xbe4ba301	-0.198864
209	0xbe833a06	-0.25630206
210	0x3e8d01d6	0.27540463
211	0x3edc9a25	0.43086353
212	0x3d0c9085	0.034317512
213	0x3f1a2e25	0.6022666
214	0x3d8d44de	0.06897901
215	0xbee6f801	-0.45111087
216	0xbe90cc3f	-0.28280827
217	0x3e44eb65	0.19230421
218	0xbf143f21	-0.5790883
219	0xbf2c6543	-0.67342013
220	0xbf82be3c	-1.0214305
221	0x3eeec7e0	0.46636868
222	0xbea25e6d	-0.31712666
223	0xbf358ee5	-0.70921165
224	0x3ddeea0f	0.10884487
225	0xbf417b3d	-0.7557867
226	0x3fc30a98	1.5237608
227	0x3edb70fc	0.42859638
228	0xbfa1080b	-1.258058
229	0xbddbfcb9	-0.107415624
230	0xbea74e89	-0.32677105
231	0x3d8273c3	0.06369736
232	0x3efc7e04	0.49314892
233	0x3f11bad3	0.56925696
234	0x3e50f6b1	0.20406605
235	0x3f380906	0.7188877
236	0xbf5fbbea	-0.8739611
237	0x3e4a6f70	0.19769073
238	0x3e9e2657	0.30888626
239	0x3f12002e	0.57031524
240	0x3f5119d8	0.8168006
241	0xbe40098e	-0.18753645
242	0xbf09e343	-0.538624
243	0xbeeebbaf	-0.46627566
244	0x3f0d9136	0.552997
245	0xbde0c9b6	-0.10975973
246	0xbe344027	-0.17602597
247	0x3f5fc4f6	0.87409914
248	0xbf775509	-0.9661413
249	0xbe46ec3f	-0.19426058
250	0xbf4dda8c	-0.804116
251	0xbdf26b80	-0.1183691
252	0x3f9a27da	1.2043412
253	0x3ed74571	0.42045167
254	0xbe53831c	-0.20655483
255	0xbe57be28	-0.21068633

readout.weight f4 [20, 256]
0	0xbdeb9318	-0.11502665
1	0x3de887b4	0.11354008
2	0xbd32134e	-0.04347544
3	0x3d93d161	0.0721767
4	0xbd8dcd1f	-0.06923889
5	0x3e164879	0.14676084
6	0xbdb8e59e	-0.09028171
7	0x3e01ff84	0.12695128
8	0x3e036291	0.12830569
9	0x3dd21c95	0.10259358
10	0xbcaa64b9	-0.020799981
11	0x3d6b7b74	0.05749078
12	0xbe4719c6	-0.19443426
13	0x3d9bdeca	0.07610853
14	0xbd92d159	-0.07168836
15	0x3d5791ed	0.0526294
16	0x3e09a870	0.1344316
17	0x3e9d392c	0.3070768
18	0xbdcd6d0f	-0.10030567
19	0xbd8b94aa	-0.06815465
20	0xbd907eff	-0.070554726
21	0xbdabe669	-0.083935566
22	0xbe241ef5	-0.16027434
23	0x3daa237c	0.08307549
24	0xbd25c39c	-0.04046975
25	0xbdbf4e57	-0.09341114
26	0xbd8c28d2	-0.06843723
27	0x3de78ba2	0.1130593
28	0x3e33363e	0.1750116
29	0xbe2461ca	-0.16052929
30	0xbe2df805	-0.16989143
31	0xbdb93ca0	-0.090447664
32	0xbd98bf05	-0.07458309
33	0x3ded62a9	0.115910836
34	0x3e54e05c	0.20788711
35	0xbd43119b	-0.04762421
36	0x3d86d8be	0.06584309
37	0x3d5fec1e	0.05466854
38	0xbe86f5da	-0.26359445
39	0xbdbcf651	-0.092266686
40	0x3d4989bd	0.049203623
41	0xbdf11294	-0.117711216
42	0x3dcb9960	0.09941363
43	0x3e0c4e7c	0.13701814
44	0xbde29089	-0.11062724
45	0x3d89d37d	0.06729791
46	0x3da5afc7	0.080901675
47	0xbdfe0e50	-0.12405074
48	0xbe23745b	-0.15962355
49	0x3d10aeb0	0.035322845
50	0xbe47695d	-0.19473787
51	0xbbc45db0	-0.0059926137
52	0xbe1e73aa	-0.1547381
53	0xbe008ae0	-0.12552977
54	0xbdd82db8	-0.10555595
55	0x3e090d8b	0.13384072
56	0xbbef2cee	-0.007299057
57	0x3da93a93	0.08263125
58	0x3d409012	0.047012396
59	0xbc90ce24	-0.01767642
60	0xbd72fe55	-0.05932458
61	0xbd9aa25e	-0.075505
62	0x3d7a29e9	0.061075125
63	0x3d3ad6e8	0.045615107
64	0xbed8a67a	-0.42314512
65	0x3da7b65f	0.081890814
66	0xbd968935	-0.07350389
67	0xbb0e1f98	-0.0021686312
68	0x3e9b7f0f	0.30370376
69	0x3d91cc62	0.07119061
70	0x3dc8a8ac	0.097977966
71	0xbe692b75	-0.22770484
72	0x3d73be6c	0.059507772
73	0x3de67434	0.11252633
74	0x3ccdf874	0.025142886
75	0xbda613ee	-0.0810927
76	0xbd8f0aa4	-0.069844514
77	0x3dbea9af	0.09309708
78	0x3ab3d80c	0.0013721003
79	0xbcf0a474	-0.029375292
80	0x3d96713c	0.073458165
81	0x3d0d721b	0.034532648
82	0xbe0b3d35	-0.13597567
83	0xbdbeb9ca	-0.0931278
84	0x3dc8bf95	0.098021664
85	0x3db1d16d	0.08682523
86	0xbeec272f	-0.46123645
87	0x3e2698f7	0.16269289
88	0x3d931c02	0.071830764
89	0x3d0452d5	0.032305557
90	0xbe57d0ee	-0.21075794
91	0x3d7d05e2	0.06177319
92	0xbd11c790	-0.03559071
93	0x3d1f55ec	0.0389003
94	0x3d7f1d26	0.062283657
95	0x3db9a66e	0.09064947
96	0x3df58cc3	0.11989739
97	0x3d8a6d00	0.06759071
98	0x3d9b0464	0.07569197
99	0xbda09a48	-0.07841927
100	0xbcf25906	-0.029583465
101	0xbd50eb27	-0.05100551
102	0x3db61a3a	0.08891721
103	0xbe89c9e1	-0.26911834
104	0xbd5ca74d	-0.053870488
105	0x3da3fca7	0.08007174
106	0x3d9c1110	0.07620442
107	0x3e2911e1	0.16510727
108	0x3dd20acb	0.10255965
109	0x3d87203c	0.06597945
110	0xbea4fc40	-0.322237
111	0xbd95b73a	-0.07310338
112	0xbdc96e50	-0.098354936
113	0x3d3dfd7a	0.046384312
114	0x3d842041	0.064514644
115	0xbe23a96d	-0.159826
116	0x3e0d8558	0.13820398
117	0xbd57d815	-0.052696306
118	0xbe67fec5	-0.2265578
119	0x3ddec117	0.10876673
120	0xbee10768	-0.43950963
121	0x3e1785a7	0.14797078
122	0x3cbdfb73	0.02319119
123	0xbd3b019d	-0.045655835
124	0x3e12bb43	0.14329247
125	0xbe015c4a	-0.12632862
126	0xbad06694	-0.0015899711
127	0xbc5ff118	-0.013668321
128	0x3c0dee20	0.00866273
129	0x3dd86426	0.10565977
130	0x3d00f3a8	0.03148237
131	0xbe52687f	-0.20547675
132	0x3d70aa68	0.058756262
133	0xbd313881	-0.043266777
134	0xbe0894ef	-0.13338064
135	0x3d662924	0.05619158
136	0x3d67462e	0.056463413
137	0xbd23ed34	-0.040021136
138	0x3ecf6225	0.40504566
139	0x3d90ae7e	0.07064532
140	0x3de66fdd	0.11251805
141	0xbdbc6c5e	-0.09200357
142	0xbe33767f	-0.17525671
143	0x3d8d0c38	0.06887096
144	0xbdd15370	-0.102209926
145	0xbddec2b6	-0.10876982
146	0xbd9b3e4e	-0.07580243
147	0x3d50cc8f	0.050976332
148	0xbd62d63c	-0.05538009
149	0x3db3ee2c	0.08785662
150	0x3d956ba9	0.07295925
151	0xbe06baf7	-0.13157259
152	0x3ca4a481	0.020097973
153	0x3d380795	0.044929106
154	0xbe2eb184	-0.17059904
155	0x3db07e7d	0.08617876
156	0xbe35e5d0	-0.17763448
157	0xbdfad71e	-0.122480616
158	0x3e8aa879	0.2708166
159	0x3ee60067	0.44922182
160	0xbd90bf09	-0.07067687
161	0xbcaa5cbf	-0.020796178
162	0x3dad5913	0.08464255
163	0x3d300b80	0.042979717
164	0x3e159f6e	0.14611599
165	0x3cf14e7f	0.029456375
166	0xbd80fe59	-0.06298513
167	0x3de39716	0.11112802
168	0x3d10cedd	0.03535353
169	0x3e07e1f0	0.13269782
170	0xbe0bae93	-0.13640814
171	0xbda63dc8	-0.081172526
172	0xbe72a8be	-0.23697183
173	0x3d526890	0.05136925
174	0xbda7da34	-0.08195916
175	0x3d8da09a	0.06915398
176	0x3d3891bf	0.04506087
177	0x3dd89e68	0.105770886
178	0x3cf295db	0.029612472
179	0xbdff1f71	-0.12457169
180	0xbe098180	-0.13428307
181	0xbe17d492	-0.14827183
182	0xbc9e14e8	-0.019297078
183	0xbe128793	-0.1430953
184	0x3e1618ff	0.14657973
185	0x3dafd8b7	0.08586257
186	0x3d331828	0.04372421
187	0xbe64f665	-0.22359617
188	0x3e49235c	0.19642395
189	0xbd54dfa9	-0.05197111
190	0xbc043a40	-0.0080705285
191	0x3de29f95	0.11065594
192	0x3e20b26b	0.15693061
193	0xbd455b0a	-0.048182525
194	0xbdea6c71	-0.11446465
195	0xbe49473d	-0.19656081
196	0xbe1e392f	-0.15451501
197	0x3d9d5e33	0.07683983
198	0x3df1fa1b	0.11815282
199	0xbc009272	-0.007847415
200	0xbde8f0ba	-0.1137404
201	0xbd5c552a	-0.053792156
202	0x3d9f87ac	0.07789549
203	0x3e24bc2f	0.16087411
204	0x3e271ce5	0.16319616
205	0xbd776eb1	-0.060408298
206	0x3e0c703e	0.13714692
207	0x3d93999b	0.07207032
208	0xbdd4a6be	-0.10383366
209	0x3cf4ed52	0.02989832
210	0xbda7611c	-0.08172819
211	0x3dc8adee	0.097987995
212	0x3c53752e	0.012906356
213	0xbdc7df57	-0.097593956
214	0xbe1edbfe	-0.15513608
215	0x3df0929b	0.11746713
216	0x3c95cfc8	0.018287554
217	0x3dd1974b	0.10233935
218	0x3caf3d7f	0.021391628
219	0x3dee26b3	0.11628475
220	0xbd87abad	-0.066245414
221	0xbe0e211f	-0.13879822
222	0xbd53033f	-0.051516768
223	0x3d542c3c	0.051799998
224	0x3e32dd90	0.17467332
225	0xbddc410a	-0.10754593
226	0x3dcc3c6b	0.09972461
227	0xbe3de595	-0.1854461
228	0xbe2a1648	-0.16610062
229	0xbe071be7	-0.13194238
230	0x3c48e90e	0.012262596
231	0x3dcc3a9f	0.099721186
232	0xbdae75b9	-0.085185476
233	0x3e01c4bd	0.12672706
234	0xbe38847b	-0.18019287
235	0x3e2f527f	0.17121314
236	0x3d87db01	0.066335686
237	0xbca801dc	-0.0205087
238	0x3e21ad45	0.15788753
239	0xbe310a33	-0.17289047
240	0x3df89c8e	0.121392354
241	0xbd9b8b44	-0.07594922
242	0x3d95c7ff	0.07313537
243	0x3d8917bd	0.06693981
244	0x3e21eb8d	0.15812512
245	0xbd65dc66	-0.05611839
246	0xbdbc2fce	-0.091888055
247	0xbdad7dd4	-0.084712654
248	0x3e5b8d94	0.21440727
249	0xbdbc0053	-0.09179749
250	0x3dcbc838	0.09950298
251	0x3e9d63bd	0.30740157
252	0xbe8b986d	-0.2726473
253	0x3d1cb077	0.038254227
254	0xbd888428	-0.06665832
255	0x3ddba205	0.10724262

readout.bias f4 [20]
0	0xbddea867	-0.10871964
1	0xbde9509e	-0.1139233
2	0xbdf68c7a	-0.120385125
3	0xbdb83d57	-0.08996075
4	0xbe5fafbf	-0.21844386
5	0xbdfba23b	-0.122868024
6	0xbda9d284	-0.08292106
7	0xbe190a25	-0.14945276
8	0xbe137463	-0.14399867
9	0xbdf16d4a	-0.11788423
10	0xbdbd1e36	-0.09234278
11	0xbdfb6bac	-0.12276396
12	0xbdea3338	-0.114355505
13	0xbdd87b3c	-0.1057038
14	0xbdeaa256	-0.114567444
15	0xbefd0213	-0.49415645
16	0xbe1d8569	-0.15382923
17	0xbe0a1e84	-0.13488203
18	0xbdf5c676	-0.12000744
19	0xbe31323b	-0.17304318
