src/last_chance/Double_DQN_n_step_1_last_chance_2/weights/episode_2200.pth (torch, 305914 bytes, 6 tensors)

layers.0.weight f4 [256, 18]
00000000: 478e c1bd 41a4 89be dfbf 4cbe 1cc3 033d
00000010: 719f 2bbc b1e4 1b3c 0053 6cbe a2e7 b43e
00000020: fee0 9ebf 4e1a 423d efd5 373d c6d8 6ebd
00000030: c046 1bbf ee64 39be e8e4 3cbf de29 f8be
00000040: efae 0fc0 3416 dcbf dee4 ce3e 82d7 34be
00000050: c1ce a4bd ed12 f2bc 131e f2bc 8004 143c
00000060: 8fa3 8d3f 198f ec3d fb31 21bf 6637 a4bc
00000070: f802 5c3e c2c6 b7bd 057f 0d3e 2dd1 8dbf
00000080: 1cf0 e13d c1b4 f8be 1370 a53f ee7b 153f
00000090: 1aa1 2fbe 0641 d2be 0479 063d 575b 8dbc
000000a0: 0ba0 ab3b 00be b0bc b209 f93e 03c3 9dbe
000000b0: f6d2 06bf a1f4 ae3e 0f84 04be 30b6 90bb
000000c0: 00f2 e2be 5d02 bebe fd44 29bf dc60 d9bc
000000d0: fd65 25bf 9d50 4ebf 10e5 a0be e4ba 0b3f
000000e0: 4bcc c5be 1aef 74bd 869a 873d ed62 4abd
000000f0: 8b42 ae3e 175d 4abf af92 323f e5f9 723d
00000100: ebe3 a6be c305 30bd 4961 80be 5522 d33d
00000110: 728e 4ebf 1cf2 b5be 6c7d a9be 18c8 f63f
00000120: 2c63 653d d935 3d3e 59f4 023d a419 6ebd
00000130: c755 2d3d ec46 363d 642b 9f3e 7a0b 4cbf
00000140: 58b0 f33d 9d9c 673d bb11 7cbf df9d 19bd
00000150: cafc 6a3f c637 7ebe 2692 153f 0f36 563d
00000160: 5392 2fbd 2698 363f 6eec 3ebe f3d1 4d3e
00000170: ccac 9cbd 9200 cdbc 385c aebc 3080 823c
00000180: a648 48bd a2d1 c13e e65c b3c0 dbde 53be
00000190: f3de 353e a692 7cbe a840 98bd be3f 143f
000001a0: 797e 453e 509a 2c3f bb81 35bf 3d00 513e
000001b0: fdb4 2fbe b25d 42bc 49fe 393e b3c2 a1bd
000001c0: a61b 2e3b 28c3 ff3c c21f ccbd e427 783f
000001d0: 1797 163f a313 84bc fbae fbbe 5203 03be
000001e0: a9e3 7ebe eb31 913d 04b7 eebe 13bd 813f
000001f0: dca0 88c0 5bfb 913f c475 a1bd ca98 82bd
00000200: 0bdc 8d3d 2b36 183c fa77 bfbc 73fd 963c
00000210: c388 82bd e583 123f d348 48bf 3f22 893d
00000220: 2837 b6bd 1b9b 58bd 0ade 68bf f880 7ebf
00000230: 601d 1abf adeb 0bbf 5397 7dbf 593d bd3f
00000240: 9d4a 4ebf 5b1b 31c0 1ce3 2b3e 2845 01bd
00000250: 4172 6bbd 947f 923c ce7b ad3d f264 923d
00000260: ef61 0ebf 8213 b03d cc95 a2be dd45 5fbd
00000270: 1e6e 5a3f 02e3 1440 bee7 a53c cc2e dd3d
00000280: 50b5 cc3f e5a7 4b3e 6988 a63d 96a0 09bc
00000290: ad4d c13d ffed 14bc aca3 123d a05b 3b3c
000002a0: 460f 6e3d 1204 9c3e 62f9 943f d6cc 0d3e
000002b0: d197 3a3e 3c52 27be 9fcb 54be 59b3 7f3e
000002c0: 8155 52bf eb0d d03e 07f8 883d 467f d9bf
000002d0: 1fe1 093e bdfd 19be f808 9bbc ffc2 6fbd
000002e0: 3af8 a03d 52c5 eb3c 0a1b 86bd f744 90bf
000002f0: 5547 9f3e a285 78bc ef86 3cbe 3aa7 4d3c
00000300: 2ebe 11bf 4b22 0ebf 5937 d1be e56a 3abf
00000310: 3c89 0bbe b6a0 e5be 6a72 1f3f 9667 9a3d
00000320: 3a69 e63d 2d5c 6bbc 5c70 c13d 6297 553d
00000330: 49cd 7bbe a369 e9bd c7cf 10be 35b8 ae3e
00000340: c0dc 1ebe 7fa2 933e d1f2 683f 58cb f5be
00000350: 278b 1a3f 2a7d 1ebf 2633 4f3e e18a 503f
00000360: 0e52 04be c066 593e fc38 a0be 376f 8c3c
00000370: 9201 c93d 1b4e 42bc 0e48 c9be 36bd a6bd
00000380: 2918 e8bf d96e 99be bd2c a6bf 3e4b 01be
00000390: 0afe ca3e 3459 d43e b134 2bbe 782b 903e
000003a0: bb04 c7be cb29 eabf bd37 353e 99f8 883e
000003b0: 08a0 0d3d 949d 803c 867a 953c a71b 363b
000003c0: e91e 1abf ebcf 153e 068b b6bf 04cb e1bd
000003d0: a0d4 e3bd 1216 06bd 6e37 cfbe d2e8 ac3f
000003e0: 85e9 03bd f860 c83d c5d1 0ec0 3bef 11ba
000003f0: 4836 a13e 1d2f 0bbe 8965 8a3e 7e53 653d
-0.094509654 -0.26883128 -0.19995068 0.032168493 -0.0104750255 0.0095149735 -0.23078537 0.35332972
-1.2412412 0.047388367 0.044881757 -0.0583122 -0.6065483 -0.18104908 -0.73786783 -0.48469442
-2.245052 -1.7194276 0.40408987 -0.17660335 -0.08047248 -0.02955004 -0.029555356 0.009034276
1.1065539 0.11550731 -0.6296689 -0.020045947 0.21485507 -0.08973457 0.13817985 -1.107946
0.11032125 -0.48575404 1.2924827 0.58392227 -0.17151299 -0.41065234 0.032830253 -0.017255468
0.0052375845 -0.021574974 0.4864021 -0.30812845 -0.5266565 0.34171012 -0.12941001 -0.0044162497
-0.44325256 -0.37111178 -0.6612089 -0.026535444 -0.64608747 -0.80591756 -0.3142476 0.5458205
-0.38632426 -0.059798338 0.0662127 -0.04941075 0.34035143 -0.79048294 0.6975507 0.05932035
-0.32595763 -0.042974245 -0.25074223 0.10309283 -0.80686104 -0.35536277 -0.33103502 1.9279814
0.05600278 0.18477573 0.03197131 -0.05812992 0.04231813 0.04450123 0.31087792 -0.7970501
0.11898869 0.056545842 -0.98464555 -0.037504073 0.91791975 -0.24825963 0.5842613 0.052297648
-0.042864155 0.7132591 -0.18644878 0.2009962 -0.07650146 -0.025024686 -0.021284208 0.015930265
-0.048897408 0.3785525 -5.60509 -0.20690481 0.1776083 -0.24665317 -0.07434207 0.5790976
0.19286527 0.6742296 -0.7090108 0.20410247 -0.17158885 -0.011863159 0.18163408 -0.07898464
0.0026566773 0.031220987 -0.09966995 0.9693587 0.58824295 -0.016122645 -0.49156937 -0.12794235
-0.24891533 0.07089599 -0.46624005 1.0135826 -4.269636 1.1404833 -0.0788379 -0.063767985
0.069267355 0.009290258 -0.023372639 0.0184314 -0.063737415 0.57232505 -0.7823612 0.06695985
-0.08897239 -0.052882295 -0.90963805 -0.9941554 -0.6020107 -0.5465649 -0.9905903 1.4784347
-0.805826 -2.7672946 0.16785854 -0.031560093 -0.057482008 0.0178831 0.084708795 0.0714816
-0.55618185 0.08597471 -0.3175491 -0.054509986 0.85324275 2.3263555 0.020252105 0.107999414
1.5992832 0.19888265 0.08131487 -0.008400103 0.094386436 -0.009089946 0.03580062 0.011435419
0.058120035 0.30471855 1.1638606 0.1384767 0.18221976 -0.16339964 -0.207808 0.2497076
-0.8216172 0.4063562 0.066879325 -1.6991966 0.13464783 -0.150382 -0.018925175 -0.058535572
0.078598455 0.028780613 -0.06548126 -1.1271046 0.3110911 -0.015168579 -0.18410848 0.012552077
-0.56930816 -0.55521077 -0.4086254 -0.7281936 -0.1362657 -0.44849175 0.62283957 0.07539289
0.11250539 -0.014365238 0.09445259 0.052146323 -0.24590029 -0.11397102 -0.14141761 0.34124914
-0.15513897 0.28834912 0.9099551 -0.480067 0.6036858 -0.61909735 0.20234355 0.8146191
-0.12921926 0.21230602 -0.31293476 0.017142875 0.09814753 -0.011859442 -0.39312786 -0.08141558
-1.8132373 -0.29967383 -1.2982403 -0.12626359 0.3964694 0.41474307 -0.16719319 0.28158164
-0.38870797 -1.8294004 0.17697044 0.26752165 0.034576446 0.01570014 0.0182469 0.0027787478
-0.60203415 0.14630096 -1.4261177 -0.1102505 -0.111245394 -0.03273589 -0.40471977 1.3508551
-0.032205123 0.0978412 -2.2315533 -0.0005566959 0.31486726 -0.13592191 0.2703059 0.055987827

layers.0.bias f4 [256]
00000000: 6e27 583f 4523 9ebe 4d7a 223f 6586 8b3e
00000010: 33bf b93e 66fc edbf a3f9 25bf 717b cd3d
00000020: f6dd bf3f f831 44bf f52b 473f c1ef 90be
00000030: 56e8 6fbf 39bf c5bf eeca 703f c0ae 9c3f
00000040: 8576 fa3e 76d9 063f 4645 c6bf a536 f13e
00000050: 38d6 10c0 414f fb3f 9b24 3e3f dd5e e63f
00000060: 0daa 1840 cf20 f33e 50b3 cbbe e872 933e
00000070: c48a 8b3f e3ae a63e d3ec c13e 85fa 083f
00000080: 86cc a7bf 51a6 23c0 20e2 dfbf 9db0 8a3f
00000090: 9add 16bf e9a1 9b3f a448 62bf 0caf 88bf
000000a0: ae90 40bf b57c c03f cceb 0ec0 c70a 1fc0
000000b0: 9b00 c93f dc65 f9be 8d33 b5bf fe81 39c0
000000c0: fde9 ac3f a2f4 dd3f 1644 983f 107c 8dbe
000000d0: e4f8 f63e 0294 fb3e f9e3 debf 357c a23f
000000e0: 9952 9dbf f2a5 da3f 0d43 94bf 6829 b23f
000000f0: ec97 00bf bbf1 933f 739d 4a40 1388 acbe
00000100: 4547 ca3f 8d47 11be 0952 443f c838 36c0
00000110: d2b5 af3f 8950 57be 9cc8 573f 2eed a4bf
00000120: 6431 8f3f b171 c2be 40c0 18c0 d137 933f
00000130: cf79 ce3f e415 9dbe 56ea 6c3f 2945 bb3f
00000140: 0895 413f d704 dc3d 84de 6fbf 3b20 92be
00000150: 29ed 0ebf db9e 74be 447b 263e 8a2d 68be
00000160: 8493 8238 103b adbf 955b afbf 0daa 8abf
00000170: bf9c 8fbf f96c 9bbe 16e7 6b3f d4cc 1ec0
00000180: 0932 5b3e d5ff 8e3f a4f6 f93e 2ef8 1cc0
00000190: d277 16c0 193e edbf 91be f6bf 9299 1640
000001a0: 491b afbe 94fc 1fbf 5795 b73e f45f 75bf
000001b0: 9986 33bf 1d42 bc3d 8c3a 75bf 6b3c 233e
000001c0: 4b96 26bf 40e5 65be c42d 2a3f 2436 3fc0
000001d0: c4be 00bf 88e1 853f d269 8bbf 9443 b0bf
000001e0: 7875 d3bf dfd9 93bf dc95 3abf f4be e0bf
000001f0: 18c2 4abf 065a fcbe 407b 09bf 1476 aa3e
00000200: b8f4 66bf 796c ccbe 4147 3dbe 22fc cabf
00000210: ca55 0b3f e1bb 85bf c066 183f d874 c5be
00000220: b6d3 d6bf effc 02c0 e05d 5abf 2cad c5bf
00000230: 37c8 0440 465b 6d3f f6d5 0fc0 f04e 6a3f
00000240: 5aec 1b3f dd82 9bbf 6aa6 3fbe d8b8 f9bc
00000250: f6e8 cd3e 24f3 4ebf 4f1a 94bf e92f 93bf
00000260: 528d 56bf e6ec 05bf 879b 37bf 819d c53e
00000270: 1869 1abf edb6 89be 5301 b4bf 025b f03e
00000280: bd24 d13f 91cd 233f 6bb8 933e b271 1fbf
00000290: 488c 2040 86be 433f bcd9 16bd ba99 2140
000002a0: 816c a3bf a839 693e 0157 ec3e a3ea babf
000002b0: 906b ecbe 10b6 03c0 2331 d0bf 91c3 2abe
000002c0: f250 003f 8b9c 893f 0914 64be 5baf 553f
000002d0: a6bd be3e d8b1 d0bf 1119 22bf 3d5b a63e
000002e0: e5db 7d3f 32b1 9f3e 8bf2 1e40 3086 933f
000002f0: 3b16 d7bf f8b3 1540 7083 9c3e c716 5ebf
00000300: 3a4f d1bf 5810 2fbf 36b9 2d3e b5fa f3bc
00000310: ac3c 71bf a420 e13f 63a6 bfbf 008d 1cbf
00000320: b168 64bf f8ee 9a3f 02dc cbbd 9e0f 893f
00000330: ada5 8340 4fba 99bf 8923 993f e309 0e40
00000340: 34a4 de3f d04d 1b3d d31e fe3e ab30 843e
00000350: 3d63 82bf 2251 ecb9 71d2 fabf 1019 61bf
00000360: 2b8c a2bf e799 cbbe 969b f83f f087 573f
00000370: 2eed 92bf a52f b9bf 09f1 9ebf e26d 9d3e
00000380: 83b4 f7be 1209 413f e961 d0bf e922 92bf
00000390: 86ce 643f 0c5f cebe bf9d c83e 1137 f43f
000003a0: 8976 c7be 551b b2bf 2497 3abf 28ae 733f
000003b0: 3aa1 533e e197 593e 7de4 4fbe 430f dbbf
000003c0: 5384 343e cb41 c4bf f32d dabe f9d8 e4bd
000003d0: 6c56 3740 f225 94bf 6dbf 0dbf 98fd ad3f
000003e0: e7a6 99bf b275 0240 2dd8 bfbf 1054 b73d
000003f0: 737a 303f f79a 533f 6b5d cc3f bca8 03c0
0.84435165 -0.30886284 0.63467866 0.27250972 0.36278686 -1.8592651 -0.6483404 0.1003331
1.4989612 -0.76638746 0.7780145 -0.28307918 -0.9371389 -1.5448982 0.94059646 1.224083
0.48918548 0.5267557 -1.548989 0.47112003 -2.2630749 1.9633561 0.74274606 1.79977
2.385379 0.47485968 -0.39785242 0.28798604 1.0901723 0.32555303 0.37875995 0.5350726
-1.3109291 -2.5570261 -1.7490883 1.0835148 -0.5893189 1.2158786 -0.8839209 -1.067842
-0.75220764 1.5038058 -2.233142 -2.4850328 1.570331 -0.48710525 -1.4156357 -2.898559
1.3508908 1.7340281 1.1895778 -0.27633715 0.48236763 0.49136358 -1.7413322 1.2694155
-1.2290832 1.7081892 -1.1582962 1.3918886 -0.50231814 1.1558145 3.16586 -0.33697566
1.5803 -0.1418745 0.76687676 -2.8472157 1.3727362 -0.21026815 0.8429048 -1.2884881
1.1186948 -0.37977365 -2.386734 1.1501409 1.6130923 -0.30680764 0.9254507 1.4630481
0.7561803 0.107431106 -0.93698907 -0.28540215 -0.5583063 -0.23888724 0.1625796 -0.22673622
6.22636e-05 -1.353365 -1.3699824 -1.0833145 -1.121971 -0.30356577 0.92149484 -2.4812517
0.21405806 1.1171824 0.48820984 -2.4526477 -2.3510633 -1.8534576 -1.9276906 2.3531232
-0.34200504 -0.6249478 0.35856125 -0.9584954 -0.70127255 0.091922976 -0.9579246 0.15941016
-0.6507308 -0.22450733 0.6647608 -2.9876795 -0.50291085 1.0459452 -1.0891669 -1.3770623
-1.6520224 -1.1550864 -0.7288492 -1.7558274 -0.79202414 -0.49287432 -0.5370369 0.3329321
-0.9021716 -0.39926508 -0.18484212 -1.5858195 0.5442778 -1.0447961 0.59531784 -0.38565707
-1.6783359 -2.0466878 -0.8529949 -1.5443473 2.0747201 0.927174 -2.2474341 0.915267
0.6090752 -1.2149311 -0.18715826 -0.030483648 0.40216798 -0.80839753 -1.1570529 -1.1498996
-0.8380939 -0.52314603 -0.7172169 0.38596728 -0.6031661 -0.26897374 -1.4062904 0.46944433
1.6339337 0.63985544 0.28851637 -0.6228286 2.508562 0.7646259 -0.03682874 2.5250077
-1.2767488 0.227759 0.4616013 -1.4602855 -0.46175814 -2.0579872 -1.6264995 -0.16676165
0.5012351 1.0750898 -0.22273268 0.83470696 0.37254065 -1.6304274 -0.633195 0.32491484
0.9916366 0.31189877 2.4835536 1.1525326 -1.6803659 2.3391094 0.3056903 -0.86753505
-1.6352303 -0.68384314 0.16965184 -0.029782632 -0.942332 1.7588086 -1.4972652 -0.6115265
-0.89222246 1.2104177 -0.099540725 1.0707891 4.113974 -1.2009982 1.196397 2.2193534
1.7393861 0.037916005 0.49632892 0.2581838 -1.0186535 -0.00045073876 -1.9595472 -0.8792887
-1.2699026 -0.39765856 1.9422481 0.841918 -1.1478631 -1.4467665 -1.2417308 0.30747896
-0.48379907 0.75404465 -1.627988 -1.1416904 0.8937763 -0.4030689 0.3918285 1.9079305
-0.38957623 -1.3914591 -0.7288687 0.95187616 0.20666972 0.21249343 -0.20302005 -1.7114033
0.17628603 -1.5332578 -0.4261318 -0.11174197 2.8646498 -1.157408 -0.5537022 1.3593016
-1.200406 2.0384336 -1.4987847 0.089515805 0.6893684 0.8265833 1.5966009 -2.0571737

layers.1.weight f4 [256, 256]
00000000: f0c1 84bf 993b 41be 93b1 77bd 79fd c23c
00000010: 557d b73e 3da2 2c3f 5d06 05bd d6c8 2ebf
00000020: 1a40 05bd 524b 533c e9fb 0abf 9023 5b3b
00000030: 5fb4 e8bd 36e2 1c3f 7ec3 9d3e f9cd 7abe
00000040: c598 b6be ea09 263e 8b36 bc3d e964 e43d
00000050: 5b4a 07be bb4d 7bbe ce31 563d 0a99 85be
00000060: d9f0 583f e0aa 28be d1b7 cd3c 4776 31be
00000070: a227 b43e 6527 87be 6766 8fbe 7e85 f63f
00000080: 8c1a cf3b 840e c93e f856 353c eea2 8b3e
00000090: b17d bdbe c658 283d bed9 20be f739 5f3e
000000a0: 483f 1d3e 0921 b6be 2161 1f3f ed82 a6be
000000b0: ca5e d23d ec90 bbbd 2b1c 5c3c ebb1 bc3e
000000c0: 569e d23b 3c5b 57be 7dc1 efbe 090a 88be
000000d0: 29e5 84be 53cb cfbe 740c 34bf 6954 873b
000000e0: 5396 bbbe 4fe8 393f 00c6 3e3f cb81 dabd
000000f0: bcae 0dbe bd77 a83e bf91 563e 0e3c 23be
00000100: 1ba3 933e 0135 d73d 396e 733e ce22 9bbe
00000110: 7e0c 90be ac33 07bd 9fd8 efbe 281c 853b
00000120: 1143 76be 9f38 19bf fcf9 8abe 76b8 093f
00000130: cfc2 1d3f 8ea2 143e 1a55 7f3e d4d9 b93e
00000140: 145f 03be e166 40be dbab 48bd b211 983e
00000150: 1713 9a3d 6c7a 9c3c 79ce 6a3e 601c 213d
00000160: a0f1 9b3e b5ca 13bf bd92 c7be ac55 a93d
00000170: d673 9b3e ee45 dd3e 16d4 843d f738 3abf
00000180: cf28 9cbe af8f ce3d d7db d0be 803d 323e
00000190: 66db d43d 970f 5fbe 0aff 4dbe 8ecc d8be
000001a0: 191a 7abe dc5c 383e cae1 36bd e187 753e
000001b0: 3117 203e dd6a 873e 2e1a b0bd 45bb 64be
000001c0: b10d 993d f669 1d3f 8b1e 75be 44be 823e
000001d0: e2cc 6abd 8f56 2f3e ca29 0cbe 3cda 62bd
000001e0: 3408 bebe e751 783e 850b 313f 4e9b a0be
000001f0: 275e debe 5831 c73e 1b26 85be 56cb 53bd
00000200: 2549 02be 8e7f 203d 9ef8 7d3f de2c 1f3e
00000210: 3a8c 20be 973f 1b3f 5e67 b6be 50f8 9c3e
00000220: 9a8a 98be 4f63 973d 6331 ad3e 8482 e53e
00000230: a8ef 2d3e db18 32bd 6635 a3be 3713 f6bd
00000240: 7e98 373e 19ce 4c3c f0e0 8d3e e9ef 9cbe
00000250: db8f be3c 7b41 96be 2ca8 abbe aa44 73bf
00000260: 65d8 193d 5e89 8abe f097 edbd e096 babe
00000270: 6c34 513d 7319 1f3f 18a6 96be 7d61 e53e
00000280: 3b95 483d 7126 4d3e 8fdb 6f3e 9e65 943e
00000290: f7c7 993f 12a3 70bc afb2 a53e 736a c73f
000002a0: 2555 9abd 4ab3 a9be 8fa6 b73e 45a2 cdbd
000002b0: 77e9 8b3e 398f b6be 3c65 843e 53b6 70be
000002c0: 71c7 ff3e 7d1a d1bd 07c7 8f3e 0ff6 a03e
000002d0: 2d15 92bd 2465 f33d 1b1c e8bd 2067 87be
000002e0: 07dd eebe ff4b 9b3c 8223 983e bad5 cbbc
000002f0: 0553 5bbe a7c3 6a3e 13e0 99bb 0fe7 47be
00000300: 7fe8 833e d595 d5bb 9697 303e 1ab5 033f
00000310: 5057 7cbf 5d5f 03bf e2af 8cbe dc77 a03e
00000320: d243 6d3e 9234 513d ef2d 2abe 5ccc 7d3e
00000330: ae55 9abf 8a34 48be a855 9f3e ffcd bbbc
00000340: 93c8 c6bd 4750 e6be 53f8 8bbd f863 393d
00000350: e176 bf3e a815 073e 404b a73e f44e 913e
00000360: ee4f 74bd 7253 2e3e 4b82 70be e412 843d
00000370: 9560 173e 966b 9a3d 7bf4 d43e 0188 973d
00000380: 3158 34bd ee60 78bd aeb6 15bd c598 243d
00000390: 477f 5cbe d929 653e 6ca7 d53e 2275 073d
000003a0: c654 93be 5603 55be ed86 db3d 4569 013f
000003b0: 1235 b83b 4cd2 8fbd f187 e8bd b508 983e
000003c0: b814 213e 2a18 2b3e f84d 67be ef92 14be
000003d0: a222 063f a53d 89bd 2e75 5f3e 09ae 2cbe
000003e0: 573a ebbd ac22 de3e 9274 bd3e 58dc 72be
000003f0: 3b81 f8be fb78 19bd 4428 d33c c1fa c43e
-1.0371685 -0.18870391 -0.060472082 0.023802506 0.35837808 0.67435056 -0.03247677 -0.682752
-0.032531835 0.012896376 -0.54290634 0.0033437945 -0.11362528 0.6128267 0.3081321 -0.24492635
-0.3566343 0.1621472 0.09190091 0.111520596 -0.13211958 -0.2454137 0.05229359 -0.26093322
0.84742504 -0.16471434 0.025112065 -0.17330275 0.35186487 -0.26397243 -0.28007814 1.9259489
0.0063203033 0.39268887 0.011068098 0.27272743 -0.37009957 0.041100286 -0.15708062 0.21799456
0.15356171 -0.3557208 0.6225758 -0.32521763 0.10271986 -0.09158501 0.01343445 0.3685449
0.0064275665 -0.21030897 -0.46827307 -0.26570156 -0.25956085 -0.40584812 -0.703315 0.0041299355
-0.36638126 0.726201 0.74520874 -0.10669287 -0.13836187 0.32903853 0.20954035 -0.15940878
0.28835377 0.105081566 0.23772515 -0.3029999 -0.2813453 -0.033008263 -0.46844956 0.0040621944
-0.24049021 -0.5985202 -0.27143848 0.5379709 0.6162538 0.14515135 0.24934807 0.36299002
-0.12829238 -0.18789245 -0.04899202 0.29701 0.07523172 0.019101344 0.22930326 0.0393337
0.30457783 -0.5773118 -0.3897914 0.08268294 0.30361813 0.43217415 0.06485765 -0.7274317
-0.30499884 0.10085999 -0.40792724 0.17406273 0.103934094 -0.21783291 -0.20116821 -0.42343563
-0.24424018 0.18004173 -0.044648923 0.23977615 0.15633847 0.26448718 -0.085987434 -0.22337063
0.074733146 0.6148981 -0.23937432 0.25535786 -0.057324298 0.17122863 -0.13687816 -0.055383906
-0.37115633 0.24249993 0.691582 -0.31368488 -0.43431208 0.38904834 -0.26005635 -0.051707588
-0.12723215 0.039184146 0.99207485 0.15544459 -0.15678492 0.60643905 -0.35625738 0.30658197
-0.29793245 0.073919885 0.33826742 0.44826138 0.16985953 -0.043480735 -0.31876677 -0.12015384
0.17929265 0.012500309 0.27710676 -0.30651787 0.023261955 -0.29346833 -0.33526742 -0.9502665
0.037559886 -0.27057928 -0.116012454 -0.36443233 0.051075384 0.6214821 -0.29423594 0.4480094
0.048970442 0.20034195 0.23423599 0.28983778 1.201415 -0.0146873165 0.32362887 1.5579361
-0.07535771 -0.331446 0.35869262 -0.10040716 0.27326557 -0.35656145 0.25858486 -0.23507051
0.4995685 -0.1021013 0.28081533 0.31437728 -0.07132945 0.118845254 -0.11333486 -0.26445866
-0.46653005 0.018957136 0.2971459 -0.024882186 -0.21418388 0.22926198 -0.004695901 -0.19521736
0.25763318 -0.0065181055 0.17245325 0.51448214 -0.9857073 -0.5131739 -0.27477938 0.31341445
0.23170403 0.051075526 -0.16619085 0.24784988 -1.2057397 -0.19551292 0.31120038 -0.022925375
-0.09706225 -0.44983122 -0.068344735 0.045261353 0.37395385 0.13191855 0.326746 0.2838055
-0.05964654 0.1702402 -0.23487203 0.064489156 0.14782937 0.07540052 0.41592774 0.073989876
-0.04402942 -0.060639314 -0.03655117 0.040184755 -0.21532927 0.22379245 0.41729295 0.03307069
-0.28775615 -0.20802054 0.107190944 0.50551254 0.005621561 -0.07022533 -0.11354054 0.29694143
0.1573056 0.16708437 -0.22588336 -0.14509176 0.52396595 -0.06701211 0.21822044 -0.16863264
-0.11485737 0.43385828 0.37003 -0.23716867 -0.48536095 -0.03746889 0.025776036 0.3847256

layers.1.bias f4 [256]
00000000: e533 133d 59cb dc3e 8e33 dfbd 08f7 e03e
00000010: 68ac 19bd 3ce3 72bf 0894 a5be 8f9e 0ebf
00000020: 101d 38be 915f 4d3e 8a94 41bd 0013 803e
00000030: feba 6d3e f114 003e ba3c 84bd 9964 a5bd
00000040: 6542 d33e c80d 1e3f d1d9 693e 1f06 5ebf
00000050: 9f71 003e ff6f 983e 883a 81be c20b 97bf
00000060: 9ff8 86be 0a38 a53e 38e1 cf3e 6508 a9be
00000070: 74b8 d8be d63d 04be f756 e93e e56b ddbe
00000080: a221 3c3d ae7d 00bf 57b3 a1be 1a14 563e
00000090: 16a1 ff3e 5694 9bbe e4f0 b13e 852b 193f
000000a0: 88a0 53be 0a7a 2e3e ab42 23bd 9535 c1bd
000000b0: 7409 a53f 48ff 703d 7011 84be 25b8 0cbe
000000c0: 4b4a f23d 213b 443e d6d4 773e ad8a fdbc
000000d0: 7da8 723f b653 7f3f b3b9 71bd aa8a 103f
000000e0: b6f9 efbe a9e4 8e3e 9a23 de3e 0779 b23e
000000f0: 6663 78bf 25e4 07be b9fa 0cbe 171a d3be
00000100: 0986 3e3f 296d b5be 7d7e 223e 019b 0ebf
00000110: ddf7 413f 8aed e5be 1755 a63d ae19 d3bd
00000120: 2ac9 c23e f4b7 053f 16e8 48be d4dc 01bf
00000130: e077 5b3f 52b2 d93e 3557 ce3c af54 863e
00000140: edc5 c13e dfa1 2d3e 0fa1 443f 66c5 8bbf
00000150: ed76 b4be 601d 0b3f 39fa 833e ce02 0dbe
00000160: 0340 4e3f 2ef2 a6be 2d2c 933e 14dd 41be
00000170: 1a3a c63e b884 793d 7c72 8a3d b066 06be
00000180: 3af5 c4be 630f 2cbe 6ac8 b13e 9e05 e53d
00000190: d78a 97be 5af7 e3be 9c28 80be b8fe 38be
000001a0: 976c c1be 8e56 d13e 3964 15be e08e 673f
000001b0: a2d2 7dbe c205 a93e ba73 793b 72ae 39be
000001c0: 594b efbe 56d6 533e 43c7 dbbe e0b7 513f
000001d0: e88b 063f 2aad 073f 1993 e03d 4adf 44be
000001e0: 264f 3a3f 9905 febd 775d 7bbd 3462 94be
000001f0: d67a 5a3e af45 cebe b215 363e 7c27 4c3f
00000200: 8da6 12bf 4f6f 41bf 905f 443e f2e5 da3e
00000210: bac1 2e3e 6c13 b93e bf04 983e cad7 69bc
00000220: 28da e7bd 4016 3ebf 72a4 df3c 9c75 2b3f
00000230: cebc a53e 0d15 14be 62b0 03bf 7933 afbe
00000240: d5ba 2d3f 4580 8b3f 392d 5c3e e203 913e
00000250: 79dc 1d3e a31a 743f 6574 aa3d 5213 123f
00000260: c22c b8be 2d21 c33d a6d3 3c3e f3bd a13e
00000270: eee7 833e 9783 8e3d 7bad c03a 6f72 6ebe
00000280: ef97 293f 7d6e 0a3d 70a7 6d3f fb7f a8be
00000290: b2fe 8cbe ce1f 813e 1909 063e f4fd fdbd
000002a0: 80b2 fabe 01f1 38bf 97fd 373e 04c2 b93c
000002b0: 0473 863e 47b0 b83e 88ef 0fbf 88d4 1fbf
000002c0: 0c20 3ebe 21a0 6cbe 428d 3e3e 2fcb 5e3e
000002d0: 2f58 a53e 9a75 fe3e 5ae7 163d ab0a c23e
000002e0: fc05 7dbe e500 fe3e 5680 063f 0c66 c23e
000002f0: e254 af3e 344f 86bf 4ab0 5fbe 18fc bf3e
00000300: 3a7d 85be 3489 54be 677a 273f 6ae5 47bf
00000310: af86 293f 36b0 ddbd 5bdb efbc a8ad acbe
00000320: d2b4 d8be 2177 913d 5438 cdbe 4515 ebbe
00000330: bc53 23be 5018 82be e421 00bf 28fc 87bd
00000340: 50d5 0cbc 59ea d0be a1cc 323e 86bd 9e3e
00000350: e7f2 ea3c 05d7 1e3f edd1 91bd ff21 0abf
00000360: a6b1 babe 2429 dc3d 7526 abbe 9c27 1bbf
00000370: 9a7b 84bf 6861 f53e c35b 46be b90a f0be
00000380: ae78 853e 469c 10bf a0d0 ab3f 9337 af3e
00000390: ee74 3cbf 8ca5 8ebe 98fa fbbe 316b 5e3c
000003a0: af66 5c3f 3edd 2e3f 4709 e23e f783 4d3f
000003b0: 29fd d7be 2b4b a23c 6bf7 ba3e 2fd7 e53e
000003c0: e41c 183f 343a 7bbd e047 24bf 4140 25bf
000003d0: 593b 223f d557 b0bd 8426 b6be d24d 423f
000003e0: cef8 3abf 8f6a c23d 431e 3cbf 7397 15be
000003f0: 38fd 6f3f ad13 9a3e d61e 193d c286 6cbd
0.035938162 0.43123892 -0.10898505 0.4393847 -0.037517935 -0.9487798 -0.323395 -0.5571069
-0.17979836 0.20055987 -0.0472608 0.25014496 0.23215863 0.12507989 -0.06456895 -0.08075828
0.41261593 0.6173978 0.22836997 -0.8672809 0.12543343 0.29772946 -0.25239968 -1.1800463
-0.26361558 0.32269317 0.40601516 -0.33014217 -0.42328227 -0.12914214 0.4557416 -0.4324638
0.045930512 -0.5019177 -0.31582138 0.20906106 0.49927586 -0.3038661 0.34754097 0.5983203
-0.20666707 0.17038742 -0.0398585 -0.09434048 1.289351 0.058837205 -0.25794554 -0.1374212
0.118305765 0.19163181 0.24202284 -0.030949915 0.9478834 0.9973711 -0.059014987 0.56461585
-0.46870202 0.2790883 0.43386537 0.34857962 -0.9702667 -0.13270624 -0.13767518 -0.41230842
0.7442327 -0.35434845 0.15868564 -0.5570527 0.75768834 -0.4490779 0.08121698 -0.103076324
0.380441 0.52233815 -0.19619784 -0.5072758 0.8572979 0.4251886 0.025188068 0.26236483
0.37846318 0.1695628 0.76808256 -1.0919616 -0.35246983 0.543417 0.25776842 -0.13770601
0.80566424 -0.32606643 0.2874464 -0.18931991 0.38716203 0.060917586 0.067601174 -0.1312511
-0.38468343 -0.16802745 0.34723216 0.11182712 -0.29598114 -0.44524652 -0.25030982 -0.18065917
-0.3777816 0.40886348 -0.14589013 0.90452385 -0.24787381 0.33012205 0.0038063363 -0.18132952
-0.46737173 0.20687231 -0.42925462 0.81921196 0.5255723 0.529986 0.10965557 -0.19225803
0.7277702 -0.124034114 -0.061368432 -0.28981173 0.2133592 -0.4028754 0.17781714 0.7974775
-0.57285386 -0.7556047 0.19177079 0.4275356 0.17066088 0.3614763 0.2969112 -0.0142726395
-0.11320907 -0.742527 0.027300093 0.6697633 0.3237061 -0.14461155 -0.51441014 -0.34218958
0.6786321 1.089852 0.21501626 0.28323275 0.15416135 0.95353144 0.08322982 0.5706073
-0.35971648 0.09527812 0.18440112 0.31590232 0.25762886 0.069586925 0.0014700139 -0.2328584
0.6624746 0.033796776 0.92833614 -0.3291014 -0.27538067 0.25219578 0.13089408 -0.12401953
-0.4896431 -0.7224274 0.1796783 0.022675522 0.26259625 0.3607199 -0.5622487 -0.6243367
-0.18566912 -0.2310796 0.18608573 0.21757196 0.3229384 0.49699098 0.036841728 0.37898764
-0.24709314 0.49610057 0.52539575 0.3796848 0.34244448 -1.0492921 -0.21844593 0.3749702
-0.26072103 -0.20755464 0.65421146 -0.78084433 0.66221136 -0.10824625 -0.029279402 -0.3372624
-0.42325455 0.071028 -0.40082037 -0.45914665 -0.15949911 -0.25409174 -0.50051713 -0.06639892
-0.00859578 -0.40803793 0.17460872 0.3100397 0.028680278 0.62046844 -0.07120118 -0.53958124
-0.3646366 0.107500345 -0.33427778 -0.60607314 -1.035022 0.47925878 -0.19370942 -0.4688318
0.26068634 -0.56488454 1.3423042 0.34222087 -0.7361592 -0.27860677 -0.49214625 0.013575361
0.8609418 0.6830634 0.44147703 0.8027949 -0.42185333 0.019811234 0.3651689 0.44890735
0.59419084 -0.061334804 -0.6417217 -0.6455117 0.6337181 -0.08610503 -0.3557626 0.75899994
-0.73035896 0.09492981 -0.73483676 -0.14608555 0.93745756 0.30093136 0.037382923 -0.057745703

readout.weight f4 [20, 256]
00000000: e8ef 28be 49c0 833d 38b8 26bd 21a4 8d3c
00000010: b5aa 35bd 87ff 323e 99d0 1dbe e6b5 dd3d
00000020: 9a1d 233e 5264 273e cd0f ddbc 9ec2 723d
00000030: ee7a 3fbe 1d57 a63d 91dd a1bd 615a c53d
00000040: 062b 803e c1ec a03e dd7d 1fbe ffee 34bd
00000050: 9187 9fbd 2930 abbd 79c3 19be e481 a63d
00000060: 070f 65bd 819c c6bd eb9c 04be 7335 403e
00000070: 1969 423e 2070 79be 024e acbd 2736 bcbd
00000080: 797c bbbd 6ac9 823d 5bfe 493e 4118 a7bd
00000090: 6b75 653d ac3c d83c 7625 10be 3fd4 babd
000000a0: 3462 b23d b027 5bbe 6e6c 093e dd2f d33d
000000b0: 5b27 48be ef0a 38bc b59b ec3c 8b1a 08be
000000c0: 87b8 4fbd 252d 403d 7001 15be 9241 0cbd
000000d0: c379 30be d55b 08be 943c e8bd ae4b 0a3e
000000e0: 6c3d 773c bc1f b13d 5384 6fbd 7c06 90bd
000000f0: 29cb adbd c39e debd 5808 473d 330a 2e3e
00000100: 626e b1be c8c1 d53d 0ad2 88bd 99ff 503d
00000110: 6ec2 6d3e 01c6 8b3d a562 393e df80 6cbe
00000120: a31f 893d 469f cfbc 5f67 0d3d 436a 09be
00000130: 701a 00be 1a9f f63d b99c 423d 0b3a 47bd
00000140: 6cf4 ac3d 238a e93d a729 63be 3cec 36be
00000150: 9388 b93d b191 483e 2b39 dcbe 573a ce3d
00000160: 56aa 9b3d b4b4 4e3d 975f c8bd 86f3 b33d
00000170: d3be 7fbd e5c2 7a3d 8c64 803d 610b 213e
00000180: 36d9 fe3d de19 253e e5cc bd3d 78c5 b1bd
00000190: da5e 40bd 28da 61be c678 c73d faab a9be
000001a0: ee95 8cbd 4618 af3d ad99 963d 96ca de3d
000001b0: fded 2f3e 7cd8 c53d 07f5 d5be b994 dabd
000001c0: 5b80 cebd e714 6dbd 3c7e c93c f876 3abe
000001d0: 3993 7a3e 0258 e7bd 5317 14be 5730 f83d
000001e0: 3497 fabe 57fa 913d 93cc 6a3c 4252 8ebd
000001f0: 9107 f93d 4f1c e9bd 0534 f3bc 2768 83bd
00000200: 7a0b 6c3d ef6d 063e 1fe7 e53d f1ec 43be
00000210: 89a9 473c 718b 5cbd f426 0dbe a52d d63d
00000220: ab8c 713d 1635 4dbd fb1c 8c3e a7cd 6e3d
00000230: a372 ee3c 00da d9bd 3d1d 2abe 4828 333e
00000240: 35a6 d1bd 2f4c 00be ca70 97bc 59c4 b83d
00000250: fb90 a0bd 706d 3ebc e4a3 173e 7817 f7bd
00000260: aa58 093e 4c93 433d bd72 0ebe 710d 253e
00000270: ef89 07be 5504 43be 2c77 8e3e 80f7 c33e
00000280: 36c2 d9bd 329b c2bd b70c d13d ab94 e23c
00000290: 1e69 9f3d b9ff 983d 9de5 65bd d3b5 c43d
000002a0: 138c 3b3d 5e1b 203e 21a1 4dbe 35ec 8abd
000002b0: 0ea4 2bbe e7b8 973c 77c3 b9bd 935a f63d
000002c0: c1fb 693d 4b6d e53d 04be 963d f3ce b9bd
000002d0: 3aaa 0dbe 071a 1ebe 83ab babd 789d 04be
000002e0: 97b1 a43d e03d 703d 4b1f bd3d 36f8 5dbe
000002f0: 7b69 313e c119 aebd 5e00 423b 762b 163e
00000300: 5ebe 5d3e df84 debd 6e65 4dbe 9c99 4bbe
00000310: 2936 b9bd 6172 ae3d c141 433e bddd 4abc
00000320: 1b3d 36be 2797 c5bd 96fe a23d 4090 6d3e
00000330: 073a 903d d231 fabd 3045 eb3d 8bf7 643d
00000340: d4ad d5bd a739 0e3c 9981 acbd a2ad 1a3e
00000350: b9b0 1b3d ef0f d5bd d780 1abe 1741 233e
00000360: 1ff0 393d 26ed 0e3d 2f98 3f3d 3576 fe3d
00000370: b175 b6bd 8ecb 41be 9ba6 a1bd 282d b43d
00000380: a0da 473e f352 dbbd e32b 043e 36d2 3fbe
00000390: a0e2 0cbe daff d1bd f420 993d 77c6 043e
000003a0: 31c5 7ebd 2e9f 253e 9893 8dbe f9e9 843e
000003b0: ea32 983d e379 b2bc 71d8 2d3e aeed babd
000003c0: 0c30 7a3d c241 c7bd 72b4 d83d 83b3 d63d
000003d0: 5397 483e e6b1 89bd 97c4 a1bd 6d3a cfbd
000003e0: db21 0c3e 4193 6dbd 9a4f 3c3d ab14 303e
000003f0: fb94 82be e62e 943d 1cd1 f1bd 3dac 173e
-0.16497767 0.0643316 -0.04070303 0.017290177 -0.044352252 0.17480288 -0.15411605 0.1082571
0.15929261 0.16346863 -0.026985073 0.059267633 -0.18699238 0.08122084 -0.079035886 0.09636379
0.25032824 0.3143063 -0.15575357 -0.044173237 -0.07789529 -0.08358795 -0.15015973 0.081302434
-0.055922534 -0.096978195 -0.12950484 0.1877039 0.18985404 -0.24359179 -0.08413316 -0.09190016
-0.09154601 0.06386073 0.19725935 -0.08158923 0.05602018 0.026396118 -0.1407679 -0.09122514
0.08710137 -0.21401858 0.13420269 0.103118636 -0.19546263 -0.0112330755 0.02888284 -0.13291375
-0.05071309 0.046918053 -0.1455133 -0.03424222 -0.17233948 -0.13316281 -0.11339679 0.13505432
0.015090328 0.08648631 -0.058475804 -0.07032487 -0.08486015 -0.10870125 0.04859194 0.16996078
-0.34654528 0.104373515 -0.06680687 0.051025007 0.232187 0.068248756 0.18104036 -0.23096035
0.06695487 -0.025344502 0.03452241 -0.13419442 -0.12510085 0.12042065 0.047512744 -0.04863934
0.08445057 0.114033006 -0.22183858 -0.17863554 0.090592526 0.19586827 -0.43012366 0.10069721
0.076008484 0.0504653 -0.09783857 0.08786683 -0.062437844 0.061221022 0.06269178 0.15726997
0.124437734 0.16123149 0.09267596 -0.08680242 -0.046965457 -0.22055876 0.097398326 -0.3313902
-0.06864534 0.08549552 0.0735353 0.10878484 0.17180629 0.09660432 -0.41788504 -0.10672898
-0.100830756 -0.057881262 0.024596326 -0.18209445 0.24470223 -0.11296083 -0.14462022 0.12118595
-0.48943484 0.07127827 0.014331001 -0.06949283 0.12159646 -0.113823526 -0.02968789 -0.0641635
0.057628132 0.13127874 0.112257235 -0.19133355 0.012186416 -0.05384392 -0.1378439 0.10457925
0.058972042 -0.050099455 0.2736586 0.058301594 0.029107397 -0.10637283 -0.16612716 0.17495835
-0.102367796 -0.12529062 -0.0184864 0.09021825 -0.07840153 -0.011622772 0.14808613 -0.12065023
0.13412729 0.047747895 -0.13910957 0.16118409 -0.13236211 -0.19044621 0.27825296 0.38274765
-0.10632746 -0.095022574 0.10207503 0.027658781 0.077837214 0.0747065 -0.05612718 0.09604993
0.045787882 0.1563544 -0.20080997 -0.06783334 -0.167618 0.018520785 -0.09070485 0.120289944
0.057124857 0.112024866 0.07360461 -0.090726756 -0.13834468 -0.15439616 -0.091147445 -0.12950695
0.08041685 0.05865276 0.09234484 -0.21676716 0.17325394 -0.08501006 0.002960227 0.14665017
0.2165465 -0.10865187 -0.20058224 -0.19882816 -0.09043533 0.0851791 0.19068052 -0.012381968
-0.17796747 -0.09647971 0.07958715 0.23199558 0.07042318 -0.12216534 0.11487806 0.055900138
-0.10433546 0.008680738 -0.08423156 0.15105298 0.038010333 -0.1040343 -0.15088211 0.15942799
0.045395013 0.03489413 0.046775993 0.1242489 -0.089091666 -0.18925306 -0.078931056 0.08797675
0.19516993 -0.10709181 0.12907366 -0.18732533 -0.13758326 -0.10253878 0.074769884 0.12966333
-0.062199775 0.16174003 -0.27651668 0.25959757 0.07431586 -0.021786636 0.16977097 -0.09127365
0.061080977 -0.09729339 0.10581292 0.10483458 0.19588976 -0.067233846 -0.07898825 -0.10118566
0.1368479 -0.05800176 0.04597435 0.17195384 -0.25504288 0.07235508 -0.118074626 0.14811797

readout.bias f4 [20]
00000000: 997e 09be c699 20be 2855 44be 41b7 24be
00000010: 4e76 9ebe 61cc 25be f072 22be c097 3fbe
00000020: 892b 14be 52a5 41be c03b ebbd acc1 1fbe
00000030: e3c9 0dbe 6f3c 2fbe 830e 1bbe 1092 08bf
00000040: ecf4 2ebe 8e1e 15be cf13 14be 27ba 76be
-0.134272 -0.1568366 -0.1917311 -0.16085531 -0.30949634 -0.16191246 -0.15864158 -0.18710232
-0.14469732 -0.18910721 -0.11486006 -0.15601224 -0.13846545 -0.17112897 -0.15142255 -0.53347874
-0.17085618 -0.14562437 -0.14460681 -0.24094449
